model/tiny-4ag/IA2C/model_agent2_seed2.pt (torch, 101825 bytes, 11 tensors)

weight f4 [64, 119]
00000000: fc8e e9bd c721 64bc 584b 87bd 78eb 12be
00000010: b7f3 823c fe58 f83c 1d3c 10be afc1 9b3e
00000020: 2fcc a03d 3a45 08be bb39 0e3d 8b28 533e
00000030: 611f 803d 5a08 983d 660c 8c3d cc88 6e3e
00000040: 96cf ac3d 44f4 b7bc 34fc 1c3e 70bb 43be
00000050: b716 df3d c301 0e3e 5bb8 a93b 18fc 153e
00000060: eca1 87bd 90c5 5f3e 1e35 973d 3353 f23d
00000070: fdb2 a6bd a76a 92be 76dc 5d3d a666 9f3d
00000080: c9e3 0c3e bf1d fbbc 951d d7bc b019 c1bd
00000090: b073 fd3c 7061 5c3e 6920 88bd 68bf 9cbc
000000a0: 358a adbe 987e dabd f942 f5bd 1208 4ebe
000000b0: 4358 353d 99e1 943d 3dcd ad3c 612e 583d
000000c0: ac69 bf3d 4030 6d3d a55e 45be 2b06 eebd
000000d0: ac16 fc3d b92f eabd 0f62 b8bc 095f d8bd
000000e0: 586f 3fbd 30fe 8fbc 6183 d9be 9275 21be
000000f0: 4c82 843e 58fc e7bd d0f7 b33d 671f d2ba
00000100: 1f1f 8abe 3bbd 8d3d 77c0 dcbd 9774 f23d
00000110: d23d 17be 5e25 12be 819b 323d 3598 583d
00000120: e5db 5fbe 681b 2bbe f7bf 3fbd b835 1b3e
00000130: a416 05bc 67ca 58be 9f4c 12be 20b8 cb3d
00000140: 0217 abbd dcbf 24bd cade 01be a56d 273b
00000150: 1228 d43d cccd 4f3d d453 093d f503 0bbe
00000160: 791e 48bc 020b 54be e6ee 153d a8eb 653d
00000170: 932f 863d 84f7 71bb f8a0 793d bb2f 2abe
00000180: b096 253d b045 a5bd e2e1 5dba 2ccb e23d
00000190: 5298 b4bc afff c8bd 78e9 a83d 6960 83bd
000001a0: 7388 89bd 026a adba fbb4 28be 3e83 58bc
000001b0: d9ae 0e3e 67b3 73b9 3bdb 5bbc bfc0 8c3e
000001c0: 7924 413c c7b1 3c3e 04ae 353d ef51 533e
000001d0: f3d7 1cbd a454 2fbe 6dff a73d 74c7 193e
000001e0: d225 0cbe d99e 28be b08d 9e3c f030 523e
000001f0: d0d8 4bbe 4f0b a53d cca0 2bbe 35f9 19be
00000200: e333 5ebd 982b 1a3d 98f1 f33d c112 f33d
00000210: 0a0c 793b a644 98bd 26db e13c 636d 05be
00000220: 9229 aabb e09e 3a3d 6620 aebd 3a20 62bd
00000230: 6d5d 41be d8c6 263e 6583 943e 2075 d13c
00000240: 221c d4bd 5633 54be f434 23be 0804 0c3b
00000250: e9b7 413e 4a86 24bd f4ca c3bc 65fa 53be
00000260: 93a9 8a3d 82d0 b93c bf96 543e aef2 f53d
00000270: 7cea eabd 1818 ed3a 7fa7 713e d7ab 8b3d
00000280: 9744 8ebc 18fc 8dbd 5d13 08be 83c3 50bd
00000290: d099 933e 96c1 2a3e e9a3 fc3d 66e6 efbd
000002a0: c9c0 e2bc 04e1 c8bd 8702 2ebe 4027 303e
000002b0: 7711 e33d adc1 1d3e efee 3abd 11ea a13e
000002c0: 77de 02be f1ed 3abd 0e82 8bbd fdbc 343e
000002d0: 6b25 91bd bce4 39bd 9f9e e93b d7ea fd3d
000002e0: 8165 823c 0bb4 3ebd 52ba 0cbd 075d 24be
000002f0: 249b 173e 9c85 543e 9f78 4cbc 9a59 58bb
00000300: 58a7 edbd b147 94bb 202c 58be 29d5 313e
00000310: aacd 52bd 5d1a 16be 5609 293d 2883 ba3d
00000320: 5c75 19be a3c2 ee3c 1773 443e 7720 33be
00000330: 500b 9f3b def4 133e 86ff 833d b087 0bbe
00000340: ab41 f5bd 29f5 303d 4ddc 823e 0ebb 12be
00000350: 2066 29be e27d 903d 48e4 833d ac06 ed3d
00000360: 1a01 bb3d 1f48 9a3a aa38 553e c717 533e
00000370: f1ad 6c3d c292 d2bd 0e7e 263c 9e90 c53d
00000380: 5c3e a2bd e788 24bd 1fdf ba3d dbe8 ac3d
00000390: dc89 5d3d f56e cf3d e867 8b3e 7625 11be
000003a0: 48b6 c5bd e0d9 923d 9e2b aabd 031b 0e3e
000003b0: 5c8f edbd 86a9 f83d 990e 0f3e cd35 d8bd
000003c0: ffe7 3b3e cb19 0dbe 219d 68be 379d a73d
000003d0: 6d3b d23d 027f 3bbe f6e5 edbc 02a1 f23d
000003e0: 1332 d9be ccf9 c83c 45bf 6bbd 490d de3d
000003f0: ae13 f73d 98d3 a8bd fa5e 8cbc 1872 45bd
-0.11404225 -0.013924069 -0.066061676 -0.14347637 0.015985353 0.030315872 -0.14085431 0.30421206
0.07851445 -0.13307658 0.034723025 0.20620935 0.06255985 0.07423468 0.06838302 0.23294371
0.084380314 -0.022455342 0.15330583 -0.1911447 0.108930044 0.1386786 0.0051794476 0.14646947
-0.06622681 0.21852708 0.07383178 0.11832275 -0.08139608 -0.28596994 0.054165326 0.077832505
0.13758768 -0.030653832 -0.026259223 -0.094287276 0.030938953 0.21521544 -0.06646807 -0.019134238
-0.33894506 -0.10668677 -0.11975665 -0.20120266 0.044273626 0.07269592 0.02121603 0.052778605
0.09346327 0.057907343 -0.19274385 -0.1162227 0.12309012 -0.114348836 -0.022507695 -0.105650015
-0.046737045 -0.01757726 -0.42483047 -0.15767506 0.2588066 -0.113274276 0.08787501 -0.0016031087
-0.2697687 0.069208585 -0.10778897 0.11838644 -0.14769676 -0.14272067 0.04360533 0.05287953
-0.21861227 -0.16709673 -0.04681393 0.15157211 -0.008123074 -0.2117096 -0.14287041 0.099472284
-0.08353998 -0.040222034 -0.12682644 0.002554753 0.10359205 0.050733373 0.03352721 -0.13575728
-0.0122142965 -0.20707324 0.036604784 0.056132942 0.06552043 -0.0036921212 0.060944527 -0.1661977
0.04042691 -0.080699325 -0.000846414 0.11073908 -0.022045288 -0.09814393 0.08247656 -0.06414873
-0.06715479 -0.0013230445 -0.16475289 -0.013214884 0.13933887 -0.00023241118 -0.013418968 0.27490804
0.011788481 0.18427192 0.044355407 0.20636724 -0.038291883 -0.17122132 0.082030155 0.15017492
-0.13686302 -0.16466846 0.019354671 0.2052648 -0.19906926 0.080587976 -0.16760558 -0.15036471
-0.0542487 0.03763923 0.11911315 0.118688114 0.003800156 -0.07434969 0.027570318 -0.13030009
-0.005192944 0.04556167 -0.08502273 -0.055206515 -0.18883295 0.1628679 0.29006496 0.025568545
-0.103569284 -0.20722708 -0.15938169 0.0021364707 0.18917812 -0.04016713 -0.023900487 -0.20700987
0.06770625 0.022682432 0.2076063 0.12009178 -0.114705056 0.0018088846 0.23599051 0.06819885
-0.01736669 -0.06932849 -0.13288637 -0.050967705 0.28828287 0.1667541 0.12335951 -0.11713867
-0.027679818 -0.09808543 -0.16993152 0.17202473 0.110873155 0.15405913 -0.04563802 0.3162389
-0.12780176 -0.045637075 -0.06811915 0.17650218 -0.07087215 -0.045384154 0.007129505 0.12398308
0.015917541 -0.04655842 -0.034357376 -0.16051112 0.14805275 0.20754093 -0.01247993 -0.003301239
-0.11604184 -0.004525148 -0.21110582 0.1736647 -0.051465668 -0.14658494 0.04126867 0.09107047
-0.14986175 0.029145544 0.19184528 -0.17492853 0.0048536435 0.14448878 0.064452216 -0.1362598
-0.11975416 0.043202553 0.255587 -0.14329168 -0.16542864 0.0705526 0.064400256 0.11573538
0.091310695 0.0011770761 0.20822397 0.20614539 0.05778307 -0.10281898 0.01016189 0.09646724
-0.0792205 -0.040169623 0.09124588 0.08442851 0.05408655 0.10128585 0.27227712 -0.14174446
-0.09653908 0.071704626 -0.083091006 0.13877492 -0.11599609 0.12141709 0.13970412 -0.10557137
0.18350218 -0.1377937 -0.2271619 0.08184283 0.10265241 -0.18310168 -0.029040318 0.11847116
-0.42421016 0.024533175 -0.057555456 0.10842378 0.120643005 -0.08243483 -0.017135132 -0.04820451

bias f4 [64]
00000000: 6b20 f8ba e8c7 2bbc d07b 153c 7ce4 b238
00000010: 4216 8ab9 89b5 f0ba 5f3c 7f3b 7ddb 24b8
00000020: 26a5 67bb 934e 1039 596d 0ebb dcc4 44bc
00000030: ffe1 60ba a43d 0cbb ed9c eebb a3ed e6bc
00000040: 5fcf a23a 9ef0 16bc 3bd2 eabb e77f 48bb
00000050: e549 adbb 0e19 01bc 8583 d0bb 0472 573a
00000060: f30b 85bb fce3 1dbc 18c9 fabb 883f c1bb
00000070: 3bed e3bb 8838 40bc 91d2 3fbc a7ed 613b
00000080: 3dc9 ffbb 12b6 baba f803 27ba 2e19 ddbb
00000090: f6e4 11bc 9f0f 0cba 4836 0bbc fd25 c438
000000a0: 6dc6 25bc 41f5 bebb b0cb 08bb 44df 8dba
000000b0: 064c 03ba 23c8 5d3b 21ef 953b 71c0 0cb6
000000c0: 555d abba 7731 5ebb 7405 d5bb 5c16 64bb
000000d0: 2a88 25bb e8e1 24b8 c196 27bc 8640 bdbb
000000e0: 2072 a1b9 0269 a73b 02a8 e53a d90a 4338
000000f0: 24db 303a 7a46 07bd 278d 68ba d12c abb9
-0.001893056 -0.010484673 0.0091237575 8.53026e-05 -0.00026337994 -0.0018364649 0.0038945896 -3.930506e-05
-0.003534624 0.00013762181 -0.0021732657 -0.012009826 -0.0008578598 -0.0021399045 -0.0072818906 -0.028189486
0.001242142 -0.009212641 -0.0071661747 -0.0030593814 -0.00528835 -0.007879509 -0.0063633346 0.0008218589
-0.0040602623 -0.009636875 -0.007653367 -0.005897466 -0.0069557703 -0.011732228 -0.011707918 0.0034473927
-0.007805972 -0.0014244935 -0.0006371136 -0.0067473864 -0.008904686 -0.0005342904 -0.008496828 9.353084e-05
-0.010118109 -0.0058275764 -0.002087336 -0.0010823985 -0.0005008582 0.0033841215 0.0045756255 -2.0973641e-06
-0.001307408 -0.0033903995 -0.006500894 -0.0034803366 -0.0025258162 -3.931104e-05 -0.010228814 -0.005775514
-0.00030793343 0.0051089535 0.0017521384 4.6501726e-05 0.00067465217 -0.033026196 -0.0008871131 -0.00032649052

weight f4 [64, 64]
00000000: 9060 a13e 6355 e3bd c9dc 9d3e 7aaf 56be
00000010: 58ea 3abe d69e 58bd 2bfb bc3e af1e 673e
00000020: 51b4 bbbe fadb a6bd 678b 003e 1d27 d03e
00000030: 9852 92bd 34a0 cabe 88b9 04be 095e 573d
00000040: 5192 d73d 6be7 b6bb 2463 0ebd f5d7 6ebd
00000050: 268f bc3d da35 6cbe e046 233d b287 d3bd
00000060: a767 2f3e 3d38 2bbe 6ac8 893d 716e 13be
00000070: 28eb 0fbd 5635 ad3d 48e6 02be f4bf 2abe
00000080: 4d45 aabc a77d 073d cf64 42be facc 05be
00000090: bb47 613d 526e aabd e14e d3bc 33c4 acbd
000000a0: 672a 3abd 50a4 aebd 257e 28be bfad d5bc
000000b0: 2037 08bd 659c 19be b79b 86be dc4f cabd
000000c0: 0b9b 573e eb2c 05be 34ce 90bd 897b 3fbe
000000d0: e1ab 963d 36e7 043e 55dd 89be 5af7 a6bd
000000e0: fa0c 8cbe 6653 b4be b520 993e e593 393d
000000f0: a43a 7e3d 3b29 6dbd 013c 473d 62d9 93be
00000100: 0f96 32be 49a6 9a3e 779b 8abe 1df6 d1bd
00000110: 05c1 d7bb 6cbd f43d 9aaa d23d 7fec de3c
00000120: 694d e43c 0262 12bd bc80 3e3d fdef 2ebe
00000130: df93 aebd d385 27be 5822 02be 3e2d c73e
00000140: c51d 323e 25d0 d0bc 38cc abbc b95b 6d3e
00000150: 0371 05be 3cb1 0f3c 6e0a c03d 073d 80bd
00000160: df9a 78bd 9f12 5d3d 54b5 e83c 9887 12be
00000170: 2b4f 2b3e 309c e2bd 5bb7 923e f55f 883d
00000180: 53d2 163d da3c debd af02 e43d f10c a6bd
00000190: ac2c 793e 3afc dd3d 98c8 c9bc 36c9 91bd
000001a0: 2ddc 05bc 2d25 803d f50a 0a3f 3df7 d13e
000001b0: f8bf 223e ef76 7ebe 7125 afbe f9d9 103e
000001c0: ea3a 89be 4d51 f33d f66c 45bd dede 83bd
000001d0: 169f 593e 14c0 583d 5ffe 31bd 549f 65be
000001e0: afa9 dcbc f539 69bd 0396 39bd 2537 053e
000001f0: eec9 0b3e 8135 ac3b 9003 3c3e 758f d3be
00000200: 8826 12bd e5fe 3ebe 1a5a 983e 1d9a 9c3d
00000210: 19e3 d53c 34f1 5b3d 1fab 52be 279b 92bc
00000220: e950 1cbe b8c1 00bd 7fbb bdbd f9da 88be
00000230: 11f6 58be ac3c cdbe d331 b03d 72a3 0b3e
00000240: 28ce 08bd 0a56 433d 9dab 8cbd 7311 ddbd
00000250: f1f3 3cbe 96f1 3dbe a0e5 293d 6b94 603d
00000260: c0a2 89bd c228 f0bd 3ab9 6dbd e183 48be
00000270: 7b5b 59be 6640 123e 7aba 113d 1bb0 2b3d
00000280: 1256 a13e 6356 c1be 8cc1 99be e44b 2b3e
00000290: ad06 b3bc ece8 243e 8db3 343d b5e4 bab9
000002a0: 7fc1 8cbe a8bf 9dbe 7a92 6f3d 723e 613e
000002b0: e17c 1ebd 4c9b f3bd e8d0 c7bc 0cb9 24bd
000002c0: b76d 453e 3044 933e 1b73 42be ddbc 093f
000002d0: 3ec4 183e 7bb4 3fbe 69da 84bc 1c69 213b
000002e0: fd08 873e 7611 c53d ed48 933d e3b3 463d
000002f0: 281d fcbd 29cb a53d 71ac efbd e3c5 e63d
00000300: f5b3 91be d111 eebc c094 a8be fe1d 373e
00000310: 972b 0fbe 3fa5 b6be 7174 9ebd b3e8 243e
00000320: d7b3 f7bd dd6b c9bd 00ec 6d3d 2662 423e
00000330: 128b 4bbe 971d ee3d 523f 7a3e ceee 853d
00000340: 8d12 e93d d8b6 81bd 6a91 273e 0188 2e3c
00000350: 1e6a 2cbd 6878 dfbd 9410 40be 1851 29be
00000360: 9172 333e 6af6 a0be 2f0f a93d dcf6 30bd
00000370: 93ab b4bd fcb6 e5bd 86e2 34be 6cf6 85be
00000380: be5d f33c 6f9a 693e 300f 5ebc d9b1 0fbe
00000390: 090c 38be be90 523e 1f43 8d3e 377d 5ebe
000003a0: d997 463e 9827 70bd ec7e 9b3d b339 a0bd
000003b0: f946 153e 2db4 d8bd 1514 79be 926c 87bd
000003c0: f97e eebe e4f8 20bd 6246 933d 80d6 bf3e
000003d0: 330e de3d 967f 73bd f75d acbd 3c53 9e3d
000003e0: 6f7a 88bd 1fa1 983d dbb3 983e 7e55 893c
000003f0: f1d2 00bd 19c9 1e3c 1de5 4d3d 7134 b23e
0.31518984 -0.111002706 0.30832508 -0.20965376 -0.18253458 -0.052885853 0.36910376 0.22570299
-0.36661008 -0.08147426 0.12553178 0.4065484 -0.0714466 -0.3957535 -0.129614 0.052579913
0.105259545 -0.0055817864 -0.034762517 -0.05831142 0.09206991 -0.23067418 0.039862514 -0.10328616
0.17129384 -0.16720672 0.06727679 -0.14397599 -0.03513637 0.08457439 -0.12783158 -0.16674787
-0.020784998 0.033078816 -0.18983768 -0.13066474 0.055000048 -0.08321823 -0.025794448 -0.084358595
-0.045450594 -0.08527434 -0.1645437 -0.026083825 -0.033255696 -0.15001066 -0.26290676 -0.09878513
0.21055238 -0.13005416 -0.0707058 -0.18699469 0.07357002 0.12978825 -0.26926675 -0.08152647
-0.2735365 -0.35219878 0.29907766 0.04530706 0.062067643 -0.05790065 0.04864121 -0.28876787
-0.17440055 0.3020499 -0.27071735 -0.102520205 -0.006584289 0.11950192 0.10286446 0.02721238
0.027868943 -0.035738 0.04650949 -0.17083736 -0.08524298 -0.16359644 -0.12708414 0.38901705
0.17394169 -0.025489876 -0.020971403 0.2317952 -0.13031392 0.008770283 0.09376989 -0.0626164
-0.06069457 0.053972837 0.028406776 -0.14309537 0.16729419 -0.11064947 0.28655514 0.06658927
0.036821675 -0.1085145 0.11133324 -0.08107937 0.24333447 0.10839124 -0.024631783 -0.07118456
-0.00817017 0.06257091 0.5392297 0.4100894 0.15893543 -0.24850057 -0.34208253 0.1414565
-0.2680276 0.11880741 -0.048199616 -0.06438993 0.21252093 0.052917555 -0.043455478 -0.2242406
-0.02693638 -0.056940038 -0.045309078 0.13009317 0.13651249 0.0052554016 0.18360734 -0.41320387
-0.035681278 -0.18651922 0.29756242 0.07646582 0.026109265 0.053696826 -0.2057309 -0.017896248
-0.1526524 -0.031434745 -0.09264278 -0.26729563 -0.21187617 -0.4008535 0.08603253 0.13636568
-0.03339973 0.047689475 -0.0686867 -0.10794344 -0.18452431 -0.18549189 0.041478753 0.054829042
-0.06720495 -0.11726524 -0.058037974 -0.19581558 -0.21226303 0.14282379 0.03557823 0.041915994
0.3151098 -0.3776122 -0.30030477 0.16728169 -0.02185377 0.16104478 0.044116545 -0.00035647085
-0.27491376 -0.30810285 0.0584893 0.21996477 -0.038693313 -0.11894855 -0.024391606 -0.040215537
0.19280134 0.2876296 -0.18989222 0.5380381 0.1491861 -0.18721192 -0.016217427 0.00246293
0.26374045 0.09622471 0.07191644 0.048511397 -0.123102486 0.0809539 -0.117028125 0.11268213
-0.2845761 -0.02906123 -0.32925987 0.17882535 -0.13981472 -0.35672948 -0.07737053 0.16104393
-0.120948486 -0.098350264 0.058086395 0.18982753 -0.1987727 0.116267376 0.24438217 0.06539689
0.113804914 -0.06333703 0.16364065 0.010652543 -0.04209339 -0.109116375 -0.18756324 -0.16534841
0.17524172 -0.31438 0.08254849 -0.043204173 -0.08821788 -0.11216542 -0.17664537 -0.26164567
0.029707786 0.22812818 -0.013553426 -0.14032687 -0.17973341 0.20563027 0.27590272 -0.21727453
0.19393863 -0.05863151 0.07592568 -0.07823505 0.14577855 -0.10581241 -0.24324067 -0.06612505
-0.46581247 -0.03929986 0.07191159 0.37468338 0.10842552 -0.059447847 -0.0841636 0.077307194
-0.06663977 0.074526064 0.2982472 0.016764399 -0.03145117 0.0096915 0.050267328 0.34805635

bias f4 [64]
00000000: abf3 3837 4cec 4fbc ec20 65b4 c367 97bb
00000010: 79d3 82bc 84af b1bb 83e9 f8bb 8104 ddbb
00000020: c5c9 4aba 026f 3bbc 51e9 b135 6a79 b239
00000030: dced a4bb 41d7 aeb9 15e9 7dbb 8b46 84bb
00000040: c961 57bc 591d e5bb 704d a43b f2da 88bc
00000050: b9a2 0fbb 30d3 a6bc fa13 18bc b4cb 90bb
00000060: 2469 06ba f16f 9a38 93f0 0a38 1e7d 50bc
00000070: d28d 29bc be30 c6bb a9f0 a5bb 986f 06bc
00000080: bf59 44bc cbc6 c8bb 7e81 16bb ce0e 87bb
00000090: 58dd e238 a3cc f43b 20bb 1fbb 4b99 e8bb
000000a0: a74a 5abb d4f1 38bc f44e dc37 263d 4abb
000000b0: 4c02 91bc 4783 0dbc 2bbd 06bc b86a c8bb
000000c0: 25b3 d9ba 1e08 a2bc 014b 39bc 8330 27b8
000000d0: 16d8 3abb 6def bc39 d83a 113a a9f8 5cbb
000000e0: 3b8c 3bbc e338 94bc 46b7 33bc d7fb 7abb
000000f0: 53bd c3bb 0161 f83a 2114 a6bc 80bd 41bc
1.1023988e-05 -0.012690615 -2.1339264e-07 -0.0046205237 -0.015969979 -0.0054225344 -0.007596196 -0.0067449217
-0.00077357545 -0.011440041 1.3255432e-06 0.00034041266 -0.005033238 -0.00033348243 -0.0038743664 -0.0040367297
-0.013145872 -0.006992024 0.005014114 -0.016705964 -0.0021917059 -0.020364374 -0.0092821065 -0.0044188146
-0.00051273615 7.364143e-05 3.3125816e-05 -0.012725143 -0.010348754 -0.006048291 -0.0050640893 -0.008205317
-0.011984288 -0.0061272136 -0.0022965367 -0.004121638 0.00010817748 0.0074706837 -0.002437301 -0.007098352
-0.0033308656 -0.011288125 2.626281e-05 -0.0030859201 -0.01770129 -0.008637256 -0.008223812 -0.0061162375
-0.0016609175 -0.019779261 -0.011309386 -3.9861083e-05 -0.0028510145 0.0003603654 0.00055400794 -0.003371755
-0.011447008 -0.018093532 -0.010968989 -0.003829708 -0.005973497 0.0018949808 -0.02027327 -0.0118249655

weight f4 [64, 119]
00000000: 05f5 b3be 363b df3c 47ef d33d dea1 013e
00000010: 7d44 493e 2b26 213e b43b c1bc 30d8 b83d
00000020: 3a20 dd3d 6f7c 93bc 4e75 88be 3a23 27be
00000030: d900 b73d 094d 1f3d ab1f 1c3c 7111 c2bc
00000040: d971 f63c 01cb 19be d517 583c 988d ccbb
00000050: d4ab 253e 4059 b23c 1d4f 88be eaf0 e9bd
00000060: c3d4 51bc ca3c d23d 15b2 9ebd 27b8 7b3e
00000070: 0028 47be 5171 3fbb 2cb1 9cbd b553 30be
00000080: 0f73 6f3d 0304 623d fcd6 cd3d ced0 1bbe
00000090: cb04 98be db67 c53d 5743 bbbd 0d61 aabe
000000a0: 9119 d23d b75a 0bbe 089b 273d 3992 07be
000000b0: 6be9 a0bc d554 803c 8449 b1bc 8207 d43d
000000c0: acf8 39bd fafa a13e 0fc0 133d 347f aebc
000000d0: f466 84bd 16fe 8b3d 2eac a3bc b9f5 b0bd
000000e0: 7933 c93c 1072 0bbd 4c87 1dbe 50bc d93c
000000f0: 0211 58bc 5911 acbd 09bc d63c f331 a9bb
00000100: c4be 003e 2d1a 043b 2069 1bbd 79cd ddbb
00000110: 5ef2 793e f6db 0f3c 7e0f 353e d8df 62be
00000120: 0dbc b9bd b82d 033d 71af c3bc 8460 81bd
00000130: 94f2 7bbd 7546 aa3d 3e7a 383e 3044 113e
00000140: c549 6d3c e16f b53d 1253 06bb 3f9e 203d
00000150: 0793 433b 258b 2c3e e9b3 1cbe bda3 183e
00000160: 51e9 163d 3e28 7fbe 2df7 433d a4f6 5a3d
00000170: 9086 573e 84df f1bc 0e6b 623e ce6b 433d
00000180: 60f0 3ebe ba07 54be 7325 513c 45ca 0cbe
00000190: d6c4 cebd 72d4 53be 22f9 5fbd 7099 37bd
000001a0: 3fe8 0d3d a8ed a53d 8daf 0d3e 9fc3 1e3e
000001b0: 8083 4ebe 90bc a8bd 0129 563e c7f7 c7bc
000001c0: 381a 8dbc bdb5 343d 0350 4a3e 3a11 0f3e
000001d0: d9a5 6c3d c3a1 14be baee 5e3d a4b5 8fbe
000001e0: e0b3 5ebd cc66 97bd b0f3 f0bc 56ca 42be
000001f0: ddce fdbd 035d 1ebd 8af2 a3bd 2faf 39be
00000200: 8c11 c7bd 8f4d 7fbc a45d 8d3e 6199 873d
00000210: 9f5e bcbd 1643 573d 30b7 54be dfeb 91be
00000220: 8204 323d 5fd1 4cbd 2f5c b13d 4d1c 07be
00000230: 3a76 2b3e 7028 6bbd dbe6 943c a30f c8bd
00000240: 2a96 0c3e eaae 213e d730 f1bd 2398 ccbd
00000250: 1d24 e43d 4ad5 0c3e ec59 a93d 1f75 5dbd
00000260: fc61 453e 30f9 273b 99b0 693e 90f3 ccbd
00000270: 3d5c 7b3e e424 4abc 0715 70bd 8222 f5bd
00000280: 23aa 41be 4fde c3bd 47d1 9cbe a39e 213d
00000290: b6c1 39bd c4ee 1abe 8d21 aabc 001b 2f3e
000002a0: 5ef4 cdbc 6036 53bd 636b 113d 2d27 ab3d
000002b0: e242 85bd 4882 48bc 2b56 22bd 7643 14be
000002c0: 6098 49bd 24e0 0b3d fb69 d23c 9324 67bd
000002d0: 9516 8a3e 04ba bcbd f5f5 c23d 3acc 8f3d
000002e0: a7ab 2fbe e57b d4ba 3d78 5a3b 8d7c a23c
000002f0: fb68 1d3d ba4b 633e ea4c 23be 35d5 033d
00000300: bea1 d93c dc5d 77be 3f4c cabb d94e 80be
00000310: df18 75bc 391f ecbd 75dd f43d 2aed 0d3e
00000320: 0bc2 093c a095 a83d ef69 203d 4318 dcbd
00000330: 04a2 4a3e f53d 66bd 17b1 81bd db35 1e3e
00000340: 416e 4b3e 4693 6b3e 9c55 8b3d 0d9c f2bd
00000350: ab7c cf3c b7ef 2c3e cbb0 363e d410 803d
00000360: 58f8 0e3d d4ac d6bc 7025 153e bf75 07bc
00000370: 03f2 983d 721c 0e3d fb81 9f3d e3a6 c73d
00000380: 3e39 123c 0d00 72be 8d8d 3b3c a469 9c3d
00000390: b81c f1bc 9739 1c3e 6504 703e f635 123e
000003a0: 043a 383c 1ebd 71bd 027d 5ebd 1f9e 93be
000003b0: 8f73 9dbd 61c6 aa3d 308f fb3d 8ddb 1cbe
000003c0: a262 a9bc 53f9 173e e5c2 9dbd 3dc9 13bd
000003d0: b52b 7cbe ed7e b2bd 287b 233d ee81 a33d
000003e0: a1c1 92bd 3092 8e3e 60de 73bd 5b28 3e3c
000003f0: 1570 fdbe 7d41 863e f0c4 46be 5be3 093d
-0.35147873 0.027249914 0.10348373 0.12659404 0.19655032 0.15737216 -0.023588039 0.090256095
0.10797162 -0.01800367 -0.26651996 -0.16322032 0.089357086 0.038891826 0.009529035 -0.023689957
0.030083584 -0.15018846 0.013189276 -0.006242465 0.16178828 0.021771073 -0.2662286 -0.11422904
-0.012807074 0.10265501 -0.0774881 0.24581967 -0.19448853 -0.002921183 -0.0765098 -0.17219432
0.058459338 0.055179607 0.10050771 -0.15216371 -0.29691157 0.096389495 -0.091437034 -0.3327717
0.10258783 -0.13608824 0.040919334 -0.13239373 -0.019642552 0.015665451 -0.0216415 0.103529945
-0.045403168 0.31636792 0.036071833 -0.02130089 -0.06464949 0.068355724 -0.019979563 -0.08640618
0.024560677 -0.034044325 -0.15383643 0.026579052 -0.013187649 -0.08401746 0.026212709 -0.005163425
0.12572771 0.0020157204 -0.037942052 -0.006768879 0.24408862 0.00878047 0.17681691 -0.22155702
-0.09069071 0.032026023 -0.023887368 -0.06317237 -0.061510637 0.0831422 0.18015382 0.14186168
0.01448292 0.0885923 -0.002049629 0.039213415 0.0029842274 0.16849954 -0.15303005 0.14906211
0.0368436 -0.24917695 0.047843147 0.05345787 0.21047425 -0.029525526 0.2211115 0.047710232
-0.18646383 -0.20706072 0.012765276 -0.13749035 -0.10096137 -0.2068651 -0.05468095 -0.044824064
0.034645315 0.0810197 0.13836499 0.15504311 -0.20167351 -0.082390904 0.20914079 -0.024410142
-0.017224416 0.04411863 0.19757085 0.13971415 0.057775352 -0.14514832 0.054426886 -0.28068268
-0.05437076 -0.07392654 -0.029413074 -0.19022498 -0.12392972 -0.03866292 -0.08005245 -0.18133233
-0.09720144 -0.015582456 0.27610505 0.066210516 -0.09197735 0.052554213 -0.20773005 -0.28500268
0.04346133 -0.05000436 0.08660161 -0.1319439 0.16744319 -0.05741161 0.018176487 -0.097686075
0.13729158 0.1578938 -0.117768936 -0.09989955 0.111397006 0.13753238 0.08269104 -0.054066774
0.1927566 0.0025630705 0.22821273 -0.10007393 0.24546905 -0.012337897 -0.058613803 -0.119694725
-0.18912558 -0.095638864 -0.30628416 0.03945793 -0.045350753 -0.15130144 -0.020767951 0.17100143
-0.025140937 -0.051565528 0.035502803 0.083570816 -0.065068975 -0.012238093 -0.039632957 -0.1447886
-0.04921758 0.034149304 0.025685301 -0.056431364 0.26970354 -0.09215167 0.09519569 0.07021375
-0.17155324 -0.001621124 0.0033335828 0.019834781 0.038430195 0.22196856 -0.15947309 0.032185752
0.026566382 -0.24156898 -0.00617364 -0.25060156 -0.014959543 -0.11529393 0.11956302 0.13860002
0.00840808 0.08231664 0.039163526 -0.10746815 0.19788367 -0.05621143 -0.06332605 0.15450232
0.19866277 0.23005399 0.06803438 -0.118461706 0.025328001 0.16888319 0.17840879 0.0625321
0.034904808 -0.026205458 0.14565063 -0.008267819 0.07468035 0.034695096 0.07788464 0.09748628
0.00892478 -0.23632832 0.011447323 0.07637337 -0.02943264 0.15256344 0.23439176 0.14278397
0.011244301 -0.059018247 -0.054318435 -0.28831574 -0.07688057 0.08338619 0.1228317 -0.15318127
-0.020676915 0.14841203 -0.07703189 -0.036080588 -0.24626048 -0.087156154 0.039912373 0.079837665
-0.07165838 0.27845907 -0.059538245 0.011606301 -0.49499574 0.2622184 -0.19411063 0.03366409

bias f4 [64]
00000000: dbfb bfbc 8116 46bd 94d0 3bbd b165 15bd
00000010: b436 56bd 7b48 3ebd 2846 45bd 485e db3c
00000020: 77ff 5bbc c277 59bc 437d 2eba c44e cfbc
00000030: 5c79 1fbd 320c debc a5ac 87bc 1a38 8fbc
00000040: 45a8 95bd 7b47 61bc 7479 2cbd e662 6abc
00000050: edad b3bc e8bd 37bd 6e8f ffbc 63e4 f5bc
00000060: b657 4cbc 255b d0bc ffab 01bd 18aa 2dbd
00000070: e7b2 6fbc 6ba6 34bd 8220 a0bd d372 0dbd
00000080: 8e53 7bbd 3143 cdbb 5a61 0cbd b89b 2ebd
00000090: 2158 49bd c5b1 42bc bb0b ecbc 77f5 2cbd
000000a0: df29 a53c 0149 36bd 0a25 4cbd a516 46bd
000000b0: 0000 0000 937d 8abc 5a26 c0bc 120a 80ba
000000c0: 2c3a 38bd b936 36bd e254 b3bc d998 70bd
000000d0: 6084 30bd fad9 82bc 3dbf 8cbd b4e1 66bd
000000e0: c427 66bd 5273 debb 731b 24bd 0449 6dbd
000000f0: b19d 47ba dad5 12bd 4cb9 53bd 43c8 4abd
-0.023435524 -0.048361305 -0.045853212 -0.036473934 -0.052298263 -0.04645584 -0.04816261 0.026778355
-0.013427607 -0.013273181 -0.00066562387 -0.025306113 -0.038934097 -0.027105425 -0.016561816 -0.017482806
-0.073074855 -0.013749952 -0.042108014 -0.014305806 -0.02193352 -0.044858843 -0.031196322 -0.03001613
-0.012472084 -0.025434086 -0.03165817 -0.042398542 -0.014630056 -0.04410402 -0.078187004 -0.034533333
-0.06135898 -0.0062641134 -0.03427253 -0.042628974 -0.049156312 -0.011883204 -0.028814187 -0.04222628
0.020161567 -0.044503216 -0.04984001 -0.04836144 0.0 -0.016905582 -0.023455787 -0.0009768626
-0.044977352 -0.04448578 -0.021891061 -0.058739517 -0.043094993 -0.01597308 -0.06872413 -0.05636759
-0.056190267 -0.0067886496 -0.04006524 -0.05793096 -0.00076147454 -0.035848476 -0.051690385 -0.04950739

weight f4 [64, 64]
00000000: 1b01 863e 25ad 033d 3f02 e83c c57b 653c
00000010: 620e 393d ddff f93d 0c25 273e 5efd 213e
00000020: 06ce 0b3c d12a 833e 17c2 89bc 6827 4fbe
00000030: bf7f a1be 0c4f c83e 4325 4a3d 65be c1bd
00000040: ae44 073e bdae b8bd a910 c1be bad9 c2be
00000050: 8ccc 42be 036c 15bd 933e f1bd 91f2 6a3d
00000060: 97c2 88be c7ec 12bd 1bc1 3ebe 11c2 823d
00000070: 1c5f 15be 5c47 17bd 2d8b c9bb 9d50 a6be
00000080: 5276 b53e b955 743d ce79 db3d 2045 663d
00000090: c799 9a3e 88f8 88be 42b4 61be 6233 94bd
000000a0: c46b b73c e32a c9bc 0e57 f4bc 126c 1e3d
000000b0: 1bf9 36be d3b3 803d fa89 d73e 0093 273d
000000c0: 6004 8abd 1bfd 68bc a4f4 e3bc 27fd e73d
000000d0: fe9c 08bc 7728 8f3d 1ada d9bd bc7c 8abd
000000e0: ac86 1d3d 9565 cebd ccd9 38bd 58c2 253e
000000f0: 6808 a73c 8594 143e 2e14 243e ac94 f7bb
00000100: 48f9 93bd 63e7 41bb af0c ae3b 18f8 263d
00000110: 681a fc3d 60a7 d3bd f650 24bd 4cb2 6ebd
00000120: 2b21 8fbe 4e7c 253e fee8 efbd f27a 8bbe
00000130: ccba a53c b848 8cbd 4dfe cebd 01e1 b2bb
00000140: 7430 ea3e ce6f 20be 4eea a63d de3d f3bd
00000150: abb3 373d 13a5 583d 674d 163e 753b 92bd
00000160: f87a 9d3c 11d2 caba 4990 aa3e c6fe 0a3d
00000170: 36a6 4fbe b260 223e 8a91 ae3d 9487 6bbe
00000180: 4d3c 02be 209b b1be 4b2e ef3c 13c9 88be
00000190: 6230 41be 6a37 2b3e 343c 34bb e366 353e
000001a0: 5473 c6bc 5666 e8bc d838 ab3d 8150 e1bd
000001b0: 5cad 46bd 05be bcbe c3b4 6a3e 3ae9 e6bc
000001c0: 4fb7 d83e 445f b5be 4b5e 343e 6b03 75be
000001d0: a9ff 613a 4c98 3e3e dca8 09bd 54c6 c6bc
000001e0: 42fe 55bd c815 a63e 49ba 7b3d af09 493e
000001f0: dca0 973d 3fc5 c33d 06a0 b73d 6028 92be
00000200: 7b93 8aba 3ccf 5bbd 8cf3 b13c a094 acbd
00000210: c34d 9fbc 1f0b 44bd 889a fe3d 97f7 cbbd
00000220: 9d97 2abe b1e3 bdbe 55af 1c3e 58ef afbd
00000230: 8dce 7dbd f627 93be 9650 773d 1abc 64be
00000240: 3a21 763d df56 333e bed8 fa3e e5e9 0abe
00000250: 5f05 94bd ef5f f83c 52ed ebbe 75d9 6e3e
00000260: 493f d0bd 372c c9bb 6482 a43d e1ba c53d
00000270: d028 b13e 32c7 53bd f31b bf3d 7cb7 d03b
00000280: 6b72 e7bc 4b74 d3bd adab 113e b3c5 d2bc
00000290: b117 b03d 31b2 56be a093 8ebe c66e 5d3e
000002a0: e181 0e3e e24b 933d ff49 74bc 3222 a33e
000002b0: 54a2 92bd cbb2 9b3d b51d 1b3e 8cab 0a3e
000002c0: 9043 c5bd 89b8 943d 29ed 75bd 49c8 33bd
000002d0: d950 f13c baba 463c c714 5bbe ba54 1f3e
000002e0: 4338 463e ac7e dd3d 1121 673e 77df f63c
000002f0: a238 673e 6f47 6e3e 78b6 8cbe f8b6 44be
00000300: 9c9e 77be 4726 08be 6191 b53d fdd2 893d
00000310: 00e2 6f3e 8c92 883e 890f e23c 41e3 193e
00000320: 4fd2 16bd b58c 7a3e a800 4ebc 6739 913e
00000330: ac7e 79bd 2cd9 363e 4534 99bd 3512 c5bd
00000340: bcf0 4d3e 04a9 943d 2d8a 163e dc36 37be
00000350: 403d a73d 96b5 56be faa2 22be 7694 5d3e
00000360: 6f6b 823d ed37 b2be 8eb5 c63e 7ef7 c03d
00000370: e19f e2bd 8f43 18bc 94fc a43d f5a2 f23e
00000380: 2edd 63be 3285 e0bd bdf3 5d3e 3a63 e4bd
00000390: 62e4 533d 3076 523e 042d 59be 1176 76bd
000003a0: 8017 1e3e f9cf 113d 41ab 613d 5f69 f9bd
000003b0: d0ac 553e c8cc 203e e09f f83d c292 cc3b
000003c0: 66a1 d9ba 8e46 5bbd 8397 da3d d402 0a3d
000003d0: 7bf2 a33d 5376 e3bd 6803 813d 664e febd
000003e0: 9f30 c73c 8264 cfbe 1e28 993e af23 543c
000003f0: 603a 0fbd fc76 02be 3589 3a3e b4fe 8f3e
0.26172718 0.032147545 0.028321384 0.01400656 0.045179732 0.12207005 0.16322726 0.15819308
0.0085330065 0.25618604 -0.016816182 -0.20229876 -0.31542775 0.39122808 0.04935194 -0.09460143
0.13209793 -0.09017704 -0.37708023 -0.38056737 -0.19023341 -0.03647996 -0.11779513 0.057360236
-0.2671096 -0.03587034 -0.18628351 0.063846715 -0.14587063 -0.036933288 -0.0061506242 -0.32483378
0.35441834 0.059652064 0.10716592 0.056218266 0.30195448 -0.26752114 -0.22041419 -0.07236363
0.022390254 -0.024556583 -0.029826667 0.038677283 -0.17868464 0.06284299 0.42097455 0.040911674
-0.06739116 -0.014220501 -0.027826615 0.11327582 -0.008338211 0.0699014 -0.10637303 -0.067620724
0.03845851 -0.10077969 -0.045129582 0.16187418 0.02038975 0.1450978 0.16023323 -0.007555565
-0.07225281 -0.002958738 0.0053115706 0.040763944 0.12309724 -0.103346586 -0.040116273 -0.058275506
-0.27954993 0.161607 -0.117143616 -0.27242237 0.020230673 -0.068498075 -0.10107098 -0.0054589515
0.45740092 -0.1566765 0.08150159 -0.118770346 0.04484908 0.052891802 0.14677964 -0.07140247
0.019223675 -0.0015473982 0.33313206 0.033934377 -0.20278248 0.15857199 0.08523853 -0.23000938
-0.12718315 -0.34688663 0.029196879 -0.26715907 -0.18866113 0.16720358 -0.0027501704 0.1771503
-0.024224915 -0.02836911 0.083604515 -0.11001683 -0.048505172 -0.36863723 0.22920518 -0.028187383
0.42327353 -0.35424244 0.17614095 -0.23927085 0.0008621165 0.18612784 -0.033608302 -0.024264492
-0.052244432 0.32438493 0.061456952 0.196326 0.07403728 0.09559106 0.08966069 -0.2854643
-0.0010572517 -0.05366443 0.021722578 -0.084267855 -0.01944626 -0.04786217 0.12431818 -0.099593334
-0.16659398 -0.37087777 0.15301259 -0.08590573 -0.06196456 -0.28741425 0.060379587 -0.2233738
0.06009028 0.17513607 0.48993486 -0.13565786 -0.07227587 0.030319182 -0.460795 0.23325141
-0.10168321 -0.006139304 0.080326825 0.09654785 0.3460145 -0.05170364 0.09331503 0.0063695293
-0.0282528 -0.103249155 0.14225645 -0.025729036 0.08598269 -0.20966412 -0.27847004 0.21624288
0.13916732 0.07192208 -0.01491022 0.31862026 -0.07159868 0.076024614 0.15148051 0.13542002
-0.09632027 0.0726176 -0.060040627 -0.04389218 0.029457496 0.01212948 -0.21394645 0.15559664
0.193574 0.10815176 0.22571208 0.030135853 0.22580197 0.23269437 -0.27482963 -0.19210422
-0.24181598 -0.13295852 0.088656195 0.06729696 0.23426056 0.26674306 0.027595298 0.15028097
-0.03682166 0.24467738 -0.012573399 0.28364107 -0.06091182 0.17856282 -0.07480673 -0.09622613
0.20111364 0.072588 0.14701147 -0.17892021 0.081659794 -0.20967707 -0.15882483 0.21638665
0.063681476 -0.34808293 0.3881039 0.094222054 -0.11065651 -0.009293451 0.08055988 0.4738995
-0.22252342 -0.10962905 0.2167501 -0.111517385 0.051731475 0.20552897 -0.21208578 -0.06017119
0.15438652 0.03559873 0.05509496 -0.12178301 0.20866704 0.15703118 0.12139869 0.006243081
-0.0016603887 -0.053534083 0.1067343 0.033694103 0.08005234 -0.11106553 0.06299478 -0.12417297
0.024315177 -0.4050637 0.2991342 0.012947961 -0.03496778 -0.12740701 0.18216403 0.2812401

bias f4 [64]
00000000: 55d4 cd3b 897e a8bd 2374 ff3c b662 94bc
00000010: 6502 83ba 5756 a23c c620 1d3d da12 bbba
00000020: fc47 5e3c 92e1 15bc 7551 18bd 93fe e4bc
00000030: b6cb bdbc 7ed0 a33c 1e2a 96bb ab9f 49bc
00000040: 3b4a 61bd 67e3 15ba 5400 f3bb 0588 58bc
00000050: ebf3 c8bc ba69 943a 9ed3 76bc 345e aebc
00000060: cb0b 93bc c36f b4bc 1e08 e8bb 2b7f 81bd
00000070: 605b 62bc 5710 79bb bbdd 14bc 8f89 ea3b
00000080: 473f 323c 8260 f4bb d160 edbc 24ff 71bc
00000090: 1066 1c3d 1dac 58bd 0725 eebc 856b 71bc
000000a0: 2369 a43b 549b 18bd dfca 71bc 58c5 013d
000000b0: d343 163d a03d bcbb ad76 373b 673f 063d
000000c0: d34b 98bc da3b cdbc 5287 b3bb 2616 05bd
000000d0: 133c 863c 374c 5fbc c448 93bc d28b 80bd
000000e0: 7401 d53c 5a1b a1ba f58e 36bc 35f6 bdbc
000000f0: 726d 4c3d 83d7 37bd 7595 ad3c 69c4 9dbc
0.0062814155 -0.0822726 0.031183308 -0.018113475 -0.000999522 0.01981656 0.038361333 -0.0014272586
0.013566967 -0.009148018 -0.03718706 -0.027953422 -0.023168426 0.019996878 -0.0045826575 -0.012306134
-0.055002432 -0.00057177845 -0.0074158106 -0.013216023 -0.024530372 0.0011323013 -0.015065102 -0.021285154
-0.01794996 -0.022025948 -0.007081046 -0.063230835 -0.013815731 -0.0038004124 -0.009086068 0.0071575115
0.010879344 -0.0074577937 -0.02897683 -0.014770303 0.038183272 -0.052898515 -0.02907039 -0.014735107
0.005017416 -0.037257507 -0.014757841 0.031682342 0.036685776 -0.005744651 0.002799432 0.03277531
-0.018590843 -0.025052954 -0.005478778 -0.032491826 0.016386067 -0.013629011 -0.017979033 -0.062766686
0.02600167 -0.0012291477 -0.011142482 -0.02318869 0.049909063 -0.044883262 0.02118943 -0.019258695

weight f4 [1, 64]
00000000: 45d0 6b3e 7da4 67be c6ed d33c e703 c2ba
00000010: 3ad0 3bbd 8b3e 6a3a e078 c3be 17e2 4b3c
00000020: c878 48be d053 cd3d 32c4 993e bf33 23bd
00000030: 6acf 91bc 2690 8f3d 8761 ec3a c075 303b
00000040: 67b2 a7bd e8aa 463d b3c8 baba 04e3 76bb
00000050: a80b eabd feee 69bc 6b5a ecb9 6e78 3e3a
00000060: 7446 853a 074b 563c 1f7c 0abd 9c0d b43a
00000070: b854 d53d 02b0 003b 73a7 473a a213 62bb
00000080: 5fb9 95bc ba2d 153c f54d 1cbe 7ee0 533c
00000090: 6196 163e 9f0f 75be b5bf b9b8 da19 e73d
000000a0: b565 73bd 7568 adbe 7627 04bc 167b cfba
000000b0: d716 1b3a 6408 80be 0495 163b 3e9f adbd
000000c0: 729b e739 534e 17be 87a2 b53c b3a3 7d3b
000000d0: c348 a5bd c179 f33d be86 b03b d2e2 35be
000000e0: 7acc 203e 3699 b33d 2811 913b d1e5 003b
000000f0: 592d 913e 43e8 26be b008 e2bd 3ac6 0abd
0.23028667 -0.22621341 0.025870215 -0.0014802188 -0.045852877 0.0008935711 -0.38178158 0.012444041
-0.19577324 0.100257516 0.30032498 -0.03984427 -0.017799098 0.07009916 0.0018034437 0.0026925653
-0.081883244 0.048502833 -0.0014250487 -0.0037671933 -0.114280045 -0.014278172 -0.00045080794 0.000726587
0.0010168091 0.013079411 -0.033809777 0.0013736966 0.104165494 0.0019636159 0.00076161994 -0.0034496565
-0.018276868 0.00910514 -0.15264113 0.012931941 0.14705803 -0.2393174 -8.857196e-05 0.11284228
-0.059423167 -0.33868757 -0.008066049 -0.0015829529 0.0005916184 -0.25006402 0.0022977004 -0.08477639
0.0004417557 -0.14775972 0.022172226 0.0038702309 -0.08070519 0.11888457 0.0053871563 -0.17762306
0.15703002 0.08769457 0.004427094 0.0019668231 0.2835491 -0.16299538 -0.11036813 -0.03388045

weight f4 [5, 64]
00000000: 2967 86bb eb8f 2dbc 8c40 9eba 2684 08bb
00000010: 5881 8f3c 271c d03b d8c2 473b a868 edba
00000020: 6075 9a3b ef84 483b 4078 ef39 989c 3d3b
00000030: 3be4 333c b04a b2ba 6ee7 36bc deb3 523b
00000040: f7e4 1cbb 92a6 a1bb 97d1 56bc a235 6ebc
00000050: 817a cf3b 09ab 2ebc 26cc 943a de2d 98bb
00000060: c36e 863a 8112 573b 3262 56bb 24d2 ab3b
00000070: 402e 9ebb 4c7c 8e3b cf48 e83a a07f e83b
00000080: 844b 26bc fb52 0abd db33 1e3b 4a6d 8f3a
00000090: e087 0abc 029a 45bd a968 01bb 4d81 2439
000000a0: 3e48 3cbc 09a8 28bc 9809 b7ba 9a11 afb9
000000b0: 6320 cabc cbad f33b 979e 093b 442e 1bbb
000000c0: 7ebc 023c cb04 a93b b904 463b 22e0 d839
000000d0: b821 19bc 724f 093a 3398 d83b fa0f 583c
000000e0: 9a65 3dbb c93c 58bc 64ce c53a ab0b 44bc
000000f0: 8eb7 603b 1960 1fbd 52d7 2abc 73be c3bc
00000100: 99a3 833b 5012 9e3c 58df 04bb afc7 cdbb
00000110: fd3b 18bd 6315 b4bc 2fb9 5dba 2f02 d53a
00000120: 5916 acbb cbb3 9cbb 9ce3 f439 dba4 e2bb
00000130: 3ff2 c1bc c30d 003b 8aa9 073d 74b0 c73b
00000140: fe14 c639 7bc9 e63a 20aa ef3c 9046 93bc
00000150: 1946 86bc 5971 88bc 2c3f a0bb 738b 92bb
00000160: 3fe8 eb3b 0526 0fbc 3121 5239 12bf 12bd
00000170: 2e3d a238 b183 133c cae2 36bc 8d65 d4bb
00000180: 26c8 8fbb ebd0 313d 0dca cdbc 646f e4bc
00000190: 62dc 8eba 3b1d 8e3d f64a 8cbb 85a0 cbbc
000001a0: da56 383b d285 84ba f782 45ba 2d3d c9bc
000001b0: eced 25bc 77a5 80bc d7aa 93bc 0c37 673c
000001c0: 4bed 55bb 77e1 a7bc dd83 c13b 9194 e5b9
000001d0: 46a5 9abb c758 c8bc 1644 64bc 7614 9cbc
000001e0: ebf8 7cbc b65c 28bc 7922 abbb bb66 553b
000001f0: 6fdd 33bc c357 453d ffee 7d39 7543 e03c
00000200: 8a54 3638 ed85 6ebb d7b0 d43a b797 8d3b
00000210: 7cc7 763c e806 bab9 4462 433a 9409 30ba
00000220: 055e bebb ba25 583b fa65 90ba 10d1 503a
00000230: 23e4 2a3c 7c99 0cb9 0fcd a4bc 2ea5 38bb
00000240: e4ad dabb e358 163b 6694 9bba 9f3b 55bb
00000250: 14d9 123c 8fa9 83bb 0a0b 92bb 77ba 163c
00000260: 5e85 b4bb 648b 963b 2c85 eaba 5e63 123c
00000270: 5448 ceba ea0f 10bc 7b20 d4b9 9af4 faba
00000280: f654 40bc 47b0 0cbd 5b8f 143c 002c 5a3c
00000290: f728 943b 164e 02bd b3a7 d23a 1b30 1c3c
000002a0: 3114 5dbc 67ad 94bb ba54 e3ba 6545 e73b
000002b0: b4ec aabc 1e9b 913b 42e3 6d3c 0f86 4db8
000002c0: 43e2 3bbc 3de4 38bb 38dc 3fbc fdf8 97ba
000002d0: 8b0d 8cbb c5dc 4e3c b5eb 14bc 7715 503b
000002e0: d83e b9b9 0845 5dbc c011 b33b a783 e7bc
000002f0: e412 c9ba db04 ffbc a3b4 6cbc 6c83 f7bc
00000300: 1a8d bb38 59d6 2fbc fcc7 a33a b93a a4bb
00000310: 339e 1b3c 4429 3b3c 0015 b23b 39b5 453a
00000320: bb2b 7f3b 0dc7 82bb 6956 21ba 1cec 043c
00000330: 85b8 333a 2e8f d8bb 01f8 cebc 8bd0 6fbb
00000340: 2e3c cabb e292 7ebb e9c8 a1bc bb7d dfbb
00000350: 8449 f63a 5ab6 833a 4e77 cf3b a17c f0bb
00000360: 7331 a9bb b830 443c 2532 da3a 703d 413c
00000370: f8d4 e139 1183 923b a855 a83b a910 fbba
00000380: aadc 49bb f66c 0dbd e863 483c da99 893b
00000390: 8cf2 f43a dbff 2ebd ae6d 5f3b f587 403b
000003a0: 05f7 06bc 201c 24bc aab3 02ba 65c4 8f3b
000003b0: c833 9ebc f14f e03b f982 d9bb 738a d9bb
000003c0: b071 8b3c abae 193a 30f7 133c 6ab2 fd3a
000003d0: f59b 04bc 449a ea3a b4fa 493c f16f 62ba
000003e0: 858e 933b 75e4 49bc 67af 9cbb f46d eabc
000003f0: 0def a23b 9fcb 1fbd db08 8fbb 2803 b6bc
-0.004101653 -0.010593395 -0.001207368 -0.002083072 0.01751773 0.0063510123 0.0030481126 -0.0018112855
0.004713699 0.0030596813 0.00045675226 0.0028932448 0.010979707 -0.0013602581 -0.011163576 0.0032150666
-0.0023940185 -0.004933187 -0.013111494 -0.014539154 0.0063317423 -0.010660895 0.0011352345 -0.0046441397
0.0010256398 0.0032817426 -0.0032712338 0.0052435566 -0.004827291 0.0043483134 0.0017721894 0.007095292
-0.01014984 -0.033770543 0.0024139795 0.0010942605 -0.008455247 -0.048242576 -0.001974622 0.00015688427
-0.011491833 -0.010293969 -0.0013964651 -0.00033391715 -0.024673646 0.007436489 0.0020999068 -0.00236787
0.00797951 0.005158042 0.0030215217 0.00041365722 -0.009346418 0.00052379735 0.0066099404 0.013187403
-0.002889967 -0.013198086 0.0015091416 -0.0119656725 0.0034289095 -0.038910005 -0.010427313 -0.023894524
0.004017305 0.019295841 -0.0020274725 -0.0062799077 -0.037166584 -0.021982854 -0.00084580755 0.0016251261
-0.0052516875 -0.004782175 0.0004670889 -0.006916625 -0.023675082 0.0019539453 0.03312067 0.006094033
0.00037781143 0.0017607653 0.029255927 -0.017977983 -0.016390847 -0.01665561 -0.004890343 -0.00447219
0.0071993168 -0.008737092 0.00020039525 -0.03582675 7.7361576e-05 0.009003566 -0.011162469 -0.0064818324
-0.004387873 0.04341213 -0.02512076 -0.027885146 -0.001089942 0.06939169 -0.004281397 -0.024856815
0.002812794 -0.0010110682 -0.0007534469 -0.024565304 -0.010127526 -0.0157039 -0.018025799 0.014112245
-0.0032642658 -0.020493252 0.005905612 -0.00043788974 -0.004719409 -0.024456395 -0.013932249 -0.019052725
-0.015440206 -0.01027601 -0.0052226153 0.0032562453 -0.010978087 0.0481794 0.00024216993 0.027375916
4.3470915e-05 -0.0036395744 0.0016227019 0.0043210643 0.015062209 -0.0003548183 0.00074533024 -0.00067152944
-0.005809548 0.003298147 -0.001101672 0.0007965723 0.010430369 -0.00013408618 -0.02011731 -0.0028174627
-0.0066735614 0.0022941164 -0.0011869788 -0.0032536758 0.008962888 -0.0040180157 -0.0044568824 0.00919973
-0.0055090627 0.0045942534 -0.0017892472 0.008934824 -0.0015738108 -0.008792857 -0.0004045999 -0.0019146383
-0.011739006 -0.0343478 0.009067382 0.0133161545 0.004521485 -0.03181275 0.0016071707 0.009532954
-0.013493584 -0.0045372727 -0.0017343976 0.007057833 -0.020864822 0.0044435402 0.0145195145 -4.900066e-05
-0.011467519 -0.0028212212 -0.011710219 -0.001159459 -0.0042740754 0.012625878 -0.0090894 0.0031751075
-0.00035332772 -0.013505228 0.0054647624 -0.028261019 -0.0015340713 -0.031130245 -0.014447364 -0.030214034
8.943137e-05 -0.010732257 0.0012495513 -0.005011883 0.009498167 0.011423413 0.0054346323 0.0007541958
0.0038935977 -0.003991014 -0.0006154539 0.0081129335 0.00068558037 -0.006608865 -0.025264742 -0.0036592807
-0.0061717248 -0.0038844873 -0.019749122 -0.006820408 0.001879022 0.0010048852 0.006331361 -0.0073390757
-0.0051633655 0.011974506 0.0016647024 0.011794433 0.00043074018 0.0044711907 0.005137164 -0.0019154745
-0.0030801692 -0.03452774 0.012230851 0.0041992487 0.0018688007 -0.04272447 0.0034092474 0.0029377912
-0.008237605 -0.010016471 -0.00049858785 0.0043874257 -0.0193118 0.0068454673 -0.0066379276 -0.006638819
0.017021984 0.00058625144 0.009031102 0.001935554 -0.008093824 0.0017898758 0.012327839 -0.00086378964
0.0045030736 -0.012322535 -0.004781652 -0.028616883 0.0049723447 -0.039012548 -0.0043650693 -0.022218302

bias f4 [5]
00000000: f573 bfbc 295c fb3b eebc 8dbc 9f85 c6bc
00000010: 291a 82bc
-0.023370722 0.0076708985 -0.017302003 -0.024233637 -0.015881615
