model/tiny-4ag/IA2C/model_agent3_seed4.pt (torch, 101825 bytes, 11 tensors)

weight f4 [64, 119]
0.066987805 -0.00023995848 -0.027237678 0.03632948 0.12741235 -0.10799504 0.1246934 -0.20968768
0.06579903 -0.17935446 -0.17617479 -0.16748835 -0.15130694 0.0008352169 0.1755115 -0.09811783
0.045104172 0.06575157 -0.10373058 -0.22191013 0.1871499 0.05744552 -0.15962285 0.004696932
-0.075959206 0.056151453 0.10028181 0.13735147 0.27770355 0.06932905 -0.07641733 -0.056709427
0.25816748 0.06541505 -0.27155694 -0.0036324046 -0.026851054 0.0019907611 0.023164174 0.03058018
-0.1565138 0.009808889 -0.17914218 0.124989584 0.06740719 -0.10610998 0.3100254 -0.16511966
-0.18941334 -0.087283425 0.068607196 0.14239927 0.078119636 0.14419676 -0.008505111 -0.13407812
0.21586479 -0.022028461 0.18980277 0.20009075 0.15470861 -0.031802475 -0.047489356 -0.099894255
-0.011837131 0.057762202 -0.010776785 -0.023347223 -0.1191525 0.12231758 0.09899396 -0.07661435
0.06217944 -0.23501931 -0.15201567 -0.07070712 -0.11364575 0.17078054 -0.11096365 0.097661436
0.012488962 -0.12920417 0.26114005 0.0045389608 -0.07725527 0.1371697 -0.1515083 0.013350359
-0.0186433 -0.13210581 0.27672273 0.26734456 -0.08830632 0.13812931 0.0482172 0.036524247
0.03914563 -0.001074742 -0.1814504 -0.018299993 0.1000206 -0.015875438 0.10481692 0.015300267
0.08357941 0.1617721 -0.08204854 -0.031814694 0.10730128 0.04783671 -0.017551469 -0.11888134
0.08266287 0.20452909 0.10420737 -0.19346306 0.19495764 -0.25812146 0.071437046 -0.14199494
0.064803876 0.019871237 0.11571665 0.12149979 -0.056775857 0.22131856 -0.059537355 0.06982726
0.1200942 0.008008721 -0.15257794 0.008208966 -0.03899201 -0.15888952 0.13293219 0.1841821
0.17173636 -0.039825536 0.10495611 -0.013124809 -0.056143552 -0.1972396 -0.14079587 0.022693248
-0.042577643 -0.089919366 0.16903567 0.1316332 -0.02971824 -0.09177846 0.027834103 -0.102170914
0.027533788 0.12477665 -0.03552197 -0.07673892 0.035248023 -0.15113299 -0.07413183 -0.05326314
-0.2418968 0.04897188 -0.022852998 -0.1763451 0.047675237 -0.29193726 -0.13034645 -0.07884252
0.040652197 -0.00020299132 0.108998515 -0.29431835 -0.29004276 0.004432822 0.034976684 0.047465716
0.005236744 -0.039927103 -0.16375741 -0.052408755 0.08280374 0.060226187 0.09818428 -0.030393345
0.124823876 0.07976609 0.17145412 -0.18804729 0.1719914 0.18397275 0.14965113 0.050581686
-0.10680844 0.013914053 -0.0013515669 0.16670378 -0.035009116 0.20989628 -0.011843283 -0.052228455
-0.1304384 -0.017771924 0.045743406 -0.29784065 -0.114695095 0.010918275 0.18426694 0.2597907
-0.27073464 0.06345922 0.2220727 0.0026198195 -0.15732567 -0.037572462 -0.20792872 -0.080920644
-0.051050078 0.07967892 0.32146958 0.23861277 0.26452476 0.07902674 -0.045269914 0.12192437
0.020547906 0.008993338 -0.081812255 -0.05692298 -0.017051112 0.14641511 -0.093482964 -0.032583505
0.02046206 0.14789854 0.08469156 -0.15756938 -0.09186754 0.16910355 -0.1397258 0.03293849
0.09943742 0.19992504 0.15535901 -0.19700122 -0.008997271 0.20568366 0.15793271 0.17036398
-0.004015605 0.12220583 -0.106317215 -0.10960207 0.09539855 0.032338854 0.14582574 0.0083122505
00000000: e730 893d 5d9d 7bb9 8d21 dfbc 39ce 143d
00000010: 6278 023e 812c ddbd 415f ff3d 5eb8 56be
00000020: a4c1 863d b2a8 37be 2a67 34be 1182 2bbe
00000030: 35f0 1abe 75f2 5a3a 49b9 333e 00f2 c8bd
00000040: 27bf 383d c2a8 863d b370 d4bd 693c 63be
00000050: 39a4 3f3e fe4b 6b3d 2c74 23be b9e8 993b
00000060: 8090 9bbd 11ff 653d 8d60 cd3d dda5 0c3e
00000070: 292f 8e3e 64fc 8d3d b080 9cbd 2548 68bd
00000080: 872e 843e 53f8 853d 8309 8bbe a30d 6ebb
00000090: bef6 dbbc 6e77 023b cbc2 bd3c 4983 fa3c
000000a0: 2745 20be 76b5 203c 0c71 37be 8afa ff3d
000000b0: c80c 8a3d 3050 d9bd a6bb 9e3e 2115 29be
000000c0: 92f5 41be a7c1 b2bd ee81 8c3d 1dd1 113e
000000d0: 30fd 9f3d 51a8 133e 0559 0bbc c64b 09be
000000e0: a90b 5d3e 0875 b4bc a85b 423e 97e4 4c3e
000000f0: ef6b 1e3e 5043 02bd 3384 42bd 5c95 ccbd
00000100: 87f0 41bc 0f98 6c3d 1d91 30bc ad42 bfbc
00000110: 3a06 f4bd a481 fa3d 58bd ca3d fce7 9cbd
00000120: deaf 7e3d e7a8 70be ffa9 1bbe e5ce 90bd
00000130: 1abf e8bd 18e1 2e3e e940 e3bd b802 c83d
00000140: 819e 4c3c 194e 04be 26b4 853e 90bb 943b
00000150: 0338 9ebd 3776 0c3e fe24 1bbe 77bb 5a3c
00000160: d5b9 98bc bf46 07be 9aae 8d3e 63e1 883e
00000170: f2d9 b4bd c571 0d3e 667f 453d 739a 153d
00000180: 2b57 203d 5bde 8cba 22ce 39be dee9 95bc
00000190: 9ad7 cc3d 350d 82bc 41aa d63d f9ad 7a3c
000001a0: af2b ab3d 96a7 253e 1109 a8bd 2050 02bd
000001b0: c6c0 db3d 6df0 433d 19c8 8fbc 0f78 f3bd
000001c0: 274b a93d 1370 513e ac6a d53d 2e1b 46be
000001d0: faa2 473e 7f28 84be 964d 923d 1f67 11be
000001e0: e5b7 843d 01c9 a23c dafc ec3d e2d4 f83d
000001f0: cd8d 68bd 55a1 623e 71dd 73bd 9801 8f3d
00000200: f3f3 f53d 0337 033c 643d 1cbe e67e 063c
00000210: 16b6 1fbd efb3 22be 601f 083e 3c9a 3c3e
00000220: a8db 2f3e 1a20 23bd 3bf3 d63d 7009 57bc
00000230: c8f6 65bd 2df9 49be cb2c 10be 31e7 b93c
00000240: e565 2ebd a527 b8bd b017 2d3e dbca 063e
00000250: ab73 f3bc 58f6 bbbd 5804 e43c fc3e d1bd
00000260: 8a8e e13c e68a ff3d 7c7f 11bd 4b29 9dbd
00000270: 3b60 103d 9bc2 1abe 6ed2 97bd 732a 5abd
00000280: cbb3 77be bd96 483d 3636 bbbc cf93 34be
00000290: 1c47 433d cd78 95be 8a79 05be 3078 a1bd
000002a0: eb82 263d 11da 54b9 9d3a df3d e5b0 96be
000002b0: 7c80 94be 3541 913b b643 0f3d 696b 423d
000002c0: fe98 ab3b 9a8a 23bd 06b0 27be 90aa 56bd
000002d0: 0295 a93d bcaf 763d d714 c93d 77fb f8bc
000002e0: a9a3 ff3d 675c a33d ab91 2f3e 788f 40be
000002f0: 831e 303e 5a63 3c3e 253e 193e be2e 4f3d
00000300: 62be dabd c5f7 633c 0f27 b1ba 65b4 2a3e
00000310: b865 0fbd 0def 563e 540a 42bc 81ed 55bd
00000320: a591 05be 6d96 91bc 705d 3b3d 927e 98be
00000330: 43e5 eabd 91e2 323c 79b0 3c3e 4903 853e
00000340: bb9d 8abe e8f6 813d 0767 633e 47b1 2b3b
00000350: fb19 21be 95e5 19bd 44eb 54be b9b9 a5bd
00000360: e319 51bd b42e a33d a997 a43e e856 743e
00000370: ca6f 873e c5d8 a13d f26c 39bd 7cb3 f93d
00000380: 1554 a83c cb58 133c 2f8d a7bd 1228 69bd
00000390: c6ae 8bbc d8ed 153e ff73 bfbd 4876 05bd
000003a0: 0da0 a73c b772 173e c572 ad3d de59 21be
000003b0: 0c25 bcbd 7b29 2d3e 4814 0fbe 83ea 063d
000003c0: d9a5 cb3d 26b9 4c3e 6f16 1f3e b0ba 49be
000003d0: 4a69 13bc bd9e 523e 1db9 213e e573 2e3e
000003e0: 5695 83bb 0d47 fa3d d7bc d9bd 0d77 e0bd
000003f0: 5160 c33d bf75 043d 5853 153e 1b30 083c

bias f4 [64]
-0.0019559884 -0.007950514 -0.019868327 0.0040918747 -0.007697405 -0.0073983786 -0.023508482 -0.009722431
-0.007965375 -0.0030546049 0.0014467625 -2.6252936e-05 -0.0030912557 -0.0012463029 -0.005938883 -0.00013045863
0.00013010952 -0.022844473 -0.0004996504 0.0047795856 -0.0026059432 -0.0028195444 0.00063128665 -0.008144401
-0.011712018 0.00882307 0.0005119801 0.010356858 3.8619142e-05 -0.00791383 -0.019557022 -0.0056748656
0.00075251714 -0.009640134 -0.003947017 -0.014274387 -0.004174528 -0.007071678 -0.0068309405 0.0006600622
0.00032392106 -0.005397673 0.003941043 0.00010088726 -0.012109919 0.008692731 0.00022944459 0.0013340302
-0.0041866675 -0.005620804 -0.0060128546 -0.011028561 -1.3530444e-05 0.0029790665 -0.012175814 -0.00041963233
0.0009775638 -0.00029048786 -0.01347237 0.0009724524 0.0002758853 0.00010130006 -0.013667504 -0.011652008
00000000: 0a30 00bb df42 02bc e7c2 a2bc 2215 863b
00000010: 833a fcbb 196e f2bb dc94 c0bc d54a 1fbc
00000020: 3481 02bc c42f 48bb 4ba1 bd3a c039 dcb7
00000030: aa96 4abb fc5a a3ba f69a c2bb b9cb 08b9
00000040: 026e 0839 5524 bbbc f9fa 02ba 129e 9c3b
00000050: 79c8 2abb 1bc8 38bb ee7c 253a 1870 05bc
00000060: c4e3 3fbc a38e 103c 6736 063a d0af 293c
00000070: fdfa 2138 02a9 01bc 0c36 a0bc 39f4 b9bb
00000080: 9244 453a a7f1 1dbc fa55 81bb 1edf 69bc
00000090: 7bca 88bb 89b9 e7bb 15d6 dfbb 0608 2d3a
000000a0: f3d3 a939 f7de b0bb dd23 813b 6f93 d338
000000b0: af68 46bc f56b 0e3c 1097 7039 a0da ae3a
000000c0: 5030 89bb b92e b8bb 7b07 c5bb 23b1 34bc
000000d0: d100 63b7 713c 433b 117d 47bc 1902 dcb9
000000e0: 9921 803a 9f4c 98b9 37bb 5cbc 2dec 7e3a
000000f0: b3a4 9039 0e71 d438 abed 5fbc 10e8 3ebc

weight f4 [64, 64]
-0.06574591 0.11786005 0.0026951467 0.11696308 0.113235146 -0.17121996 -0.14168525 0.06491192
-0.13315393 0.12701072 -0.2546047 -0.3058606 0.05293713 0.14493068 -0.14180978 -0.08655705
-0.12140603 0.13849697 -0.16477336 0.009515623 -0.026030662 0.08962057 -0.30475682 -0.115241766
-0.1928086 -0.06037212 0.05163128 -0.40381026 -0.060113635 0.1326762 0.09429354 0.044552114
-0.07876632 -0.08231872 -0.3198994 -0.26989186 0.23831762 -0.08680603 -0.09229439 -0.044045977
-0.09693047 0.20830715 -0.286919 -0.24268955 -0.02239892 -0.19773379 0.2042412 -0.056677442
0.10783166 -0.28050718 0.09052034 -0.15179445 0.17552127 0.07985367 -0.20197497 0.053432558
0.109116614 0.20841894 -0.2447389 0.3211864 0.48637474 0.09709739 0.18783744 -0.005102758
0.09968432 -0.17911102 -0.2371289 -0.20517997 -0.11367419 -0.036870982 -0.054656845 0.23077804
-0.09188868 -0.253767 -0.25485298 -0.037641685 -0.01453747 0.3317462 -0.056545097 0.04496513
0.08540737 -0.12551588 -0.05819931 -0.11225272 -0.00273547 0.11129172 0.32045892 0.26383165
-0.117634766 0.12627676 0.08697893 0.24872935 0.04286022 0.07284377 -0.032292705 -0.035557617
-0.21727835 -0.009022299 0.0005279076 -0.1349694 -0.43637 0.08986648 0.1344803 -0.23147385
-0.42249167 0.11605989 -0.0042013666 -0.18399125 -0.16496313 -0.30630758 0.012386215 -0.15922797
-0.18478341 0.13040039 -0.11481038 0.41393363 -0.08737159 0.08217507 -0.050294027 -0.25427583
-0.11840162 0.059619617 -0.1388756 0.084380284 0.048020992 0.17146325 0.2908881 0.1260688
-0.04562751 -0.024327243 0.103013836 -0.06790191 -0.17585081 0.12537901 0.2218226 0.16923489
0.09674605 -0.115719534 -0.15843958 -0.049263865 -0.119019136 0.23914334 -0.22073545 -0.28538793
0.5333464 -0.059766933 -0.14576268 -0.12709302 -0.40974146 -0.039605647 -0.077174455 -0.033688586
-0.16347024 0.24212761 -0.26746148 -0.012009357 0.06506563 -0.157623 0.05439007 -0.035208523
-0.07218017 -0.10946426 -0.020237403 0.30156875 0.12519886 -0.30763972 -0.29526475 -0.18424897
0.06862458 -0.15515862 0.17439786 -0.31717888 0.108125106 0.330111 0.04747454 -0.25711513
-0.095511496 0.09842996 0.05387223 0.0714436 0.14870626 0.059905816 0.1952847 0.09380366
0.13739575 0.017066255 0.17487986 0.051911306 0.19163345 0.025747964 -0.1811843 0.029939093
-0.06502165 0.114133246 0.035218716 -0.0007061199 0.2577132 0.1797891 -0.14782313 0.056681834
-0.32317534 0.090962194 0.1569075 0.20218907 -0.024873894 0.16340013 -0.17390642 0.2516136
-0.03469083 -0.10446936 -0.00061213307 0.01743451 -0.10580681 -0.14057976 0.19994484 0.1177116
0.024417976 -0.18858315 -0.3634821 -0.38409576 0.21452855 0.18634476 -0.09196964 0.108498655
0.31772247 0.043478254 -0.027295202 -0.090207666 -0.01762815 -0.037586104 0.21348953 -0.14301871
0.24602266 0.35227007 0.20077993 -0.25623623 -0.07909365 0.03589534 0.081746265 0.2250537
-0.015963178 0.09152962 0.006533758 0.2537676 -0.27020854 0.09370801 -0.04270005 -0.008533696
0.11093586 -0.2567446 0.18524271 -0.16442809 0.27056193 0.24510027 -0.21809395 0.17959306
00000000: cba5 86bd 9c60 f13d 0fa1 303b 578a ef3d
00000010: d4e7 e73d 4954 2fbe f015 11be 8af0 843d
00000020: 8159 08be 190f 023e 8c5b 82be c399 9cbe
00000030: 9bd4 583d b568 143e 9536 11be d344 b1bd
00000040: baa3 f8bd 26d2 0d3e 59ba 28be 6ae7 1b3c
00000050: 413e d5bc fd8a b73d 1609 9cbe e003 ecbd
00000060: 9e6f 45be c248 77bd 527b 533d 38c0 cebe
00000070: b739 76bd 45dc 073e f91c c13d 477c 363d
00000080: 3d50 a1bd b896 a8bd dbc9 a3be 442f 8abe
00000090: 8909 743e 5cc7 b1bd d704 bdbd 8e69 34bd
000000a0: 7b83 c6bd 784e 553e 0ce7 92be 9c83 78be
000000b0: f17d b7bc ba7a 4abe 9b24 513e 9b26 68bd
000000c0: d8d6 dc3d a39e 8fbe ba62 b93d 0170 1bbe
000000d0: d9bb 333e 528a a33d 87d2 4ebe 19dc 5a3d
000000e0: 8878 df3d c66b 553e d69c 7abe 8b72 a43e
000000f0: 1c06 f93e ffda c63d 7558 403e 0935 a7bb
00000100: 4b27 cc3d e168 37be ebd1 72be b31a 52be
00000110: 04ce e8bd 0706 17bd dbdf 5fbd 1451 6c3e
00000120: 2230 bcbd c0ed 81be 177c 82be 2b2e 1abd
00000130: 922e 6ebc a3da a93e d59b 67bd 5b2d 383d
00000140: 0fea ae3d 3c87 00be 6662 6ebd c1e4 e5bd
00000150: 9245 33bb eaec e33d 3113 a43e f114 873e
00000160: 7fea f0bd b24e 013e 0222 b23d e8b2 7e3e
00000170: 338e 2f3d 1d2f 953d 5b45 04bd dda4 11bd
00000180: 377e 5ebe 44d2 13bc 4863 0a3a 6b35 0abe
00000190: e36b dfbe eb0b b83d 34b5 093e 7b07 6dbe
000001a0: d450 d8be cfb0 ed3d 9eab 89bb 3468 3cbe
000001b0: 18ec 28be 59d4 9cbe 8def 4a3c a80c 23be
000001c0: dd37 3dbe ae87 053e b421 ebbd 1cef d33e
000001d0: e0ef b2bd 674b a83d 1c01 4ebd 7130 82be
000001e0: 8c7c f2bd b333 743d 6835 0ebe 92cf ac3d
000001f0: a9b1 443d 1094 2f3e 49ef 943e 2e18 013e
00000200: e9e3 3abd ed49 c7bc ebf8 d23d 2810 8bbd
00000210: 3c12 34be 5b63 003e 7725 633e e94b 2d3e
00000220: cb22 c63d 5dfe ecbd fc3d 22be e8c8 49bd
00000230: 4ec0 f3bd fee1 743e 7908 62be 5e1e 92be
00000240: 6489 083f 2cce 74bd d042 15be ac24 02be
00000250: a2c9 d1be 8839 22bd a40d 9ebd 0bfd 09bd
00000260: be64 27be 4df0 773e b6f0 88be e5c2 44bc
00000270: 2141 853d ec67 21be 1fc8 5e3d d036 10bd
00000280: 32d3 93bd cc2e e0bd e9c8 a5bc 3867 9a3e
00000290: 2134 003e f482 9dbe f12c 97be c3ab 3cbe
000002a0: 0b8b 8c3d e7e1 1ebe 5a95 323e 4565 a2be
000002b0: b270 dd3d 4f04 a93e aa74 423d 98a4 83be
000002c0: 889b c3bd a695 c93d 21a9 5c3d 0651 923d
000002d0: 7446 183e cd5f 753d b6f8 473e 221c c03d
000002e0: 79b1 0c3e 88ce 8b3c b513 333e f3a0 543d
000002f0: 8f3b 443e 65ed d23c 6188 39be d442 f53c
00000300: 122a 85bd b1be e93d 8041 103d e81a 39ba
00000310: fcf2 833e a21a 383e f25e 17be 362b 683d
00000320: 3d77 a5be 634a ba3d 5cac 203e a70a 4f3e
00000330: 56c4 cbbc 5d52 273e 8614 32be 7fd3 803e
00000340: f917 0ebd 08f4 d5bd 8e77 20ba d1d2 8e3c
00000350: 3eb1 d8bd 24f4 0fbe 57be 4c3e c812 f13d
00000360: 3508 c83c f11b 41be 531a babe 33a8 c4be
00000370: 5fad 5b3e 29d1 3e3e 945a bcbd 8b34 de3d
00000380: 85ac a23e 4116 323d 309a dfbc ccbe b8bd
00000390: e968 90bc e3f3 19bd 009d 5a3e 7f73 12be
000003a0: 5ded 7b3e be5c b43e 4199 4d3e 6531 83be
000003b0: dafb a1bd fe06 133d 966a a73d 7a74 663e
000003c0: 36c5 82bc e273 bb3d 2219 d63b d4ed 813e
000003d0: c658 8abe fce9 bf3d 3fe6 2ebd ead0 0bbc
000003e0: 5732 e33d 0774 83be 44b0 3d3e d65f 28be
000003f0: 1887 8a3e 91fb 7a3e 0554 5fbe 3ee7 373e

bias f4 [64]
0.0060757142 -0.0007888923 -0.001706205 -0.0014218644 -0.0026421703 0.00047771234 -0.015391776 -0.01556462
-0.0043692067 -0.010209821 -0.007874052 1.8738741e-05 -0.013253049 -0.013472783 -0.00033857327 -0.00092302234
-0.0042857775 -0.011781211 -0.019320529 -4.5533216e-06 -0.0009204887 -0.0057204994 -0.009340317 -0.008097383
-0.0028974593 -0.009238215 -0.0068337247 -0.0057797614 -0.0133300945 -0.0031261987 4.8804134e-07 0.0
-0.0034623435 -0.023531768 -0.000726149 -2.3471677e-05 -0.00035947547 -0.011402155 -0.00739568 -1.689288e-07
-0.007000252 -0.017748125 -0.009382115 -0.00048431108 -2.447847e-06 7.632735e-05 -0.009098619 -0.0017764777
-0.024763774 -0.010202491 -0.018210955 -0.0006887469 0.00014085183 -0.0011690804 -0.002335841 -0.023602765
-0.011456745 -0.0030364774 -0.00798621 -0.00029263608 -0.014833094 -0.004658441 -0.0068059843 -0.008534631
00000000: c916 c73b abcd 4eba bda2 dfba da5d baba
00000010: 4328 2dbb 7775 fa39 ca2d 7cbc bf02 7fbc
00000020: 902b 8fbb 1847 27bc 2b02 01bc 2431 9d37
00000030: 5123 59bc f3bc 5cbc 8982 b1b9 fbf6 71ba
00000040: b56f 8cbb fb05 41bc 1646 9ebc bcc8 98b6
00000050: f34c 71ba 0773 bbbb 2108 19bc e3aa 04bc
00000060: 4de3 3dbb e25b 17bc 70ed dfbb 2764 bdbb
00000070: 7866 5abc e9e0 4cbb f201 0335 0000 0000
00000080: 7ce8 62bb b2c5 c0bc 095b 3eba 0be5 c4b7
00000090: fb77 bcb9 1bd0 3abc 7657 f2bb cc62 35b4
000000a0: 5f62 e5bb 8464 91bc 71b7 19bc 22eb fdb9
000000b0: b145 24b6 ef11 a038 6012 15bc b3d8 e8ba
000000c0: 66dd cabc 5928 27bc 242f 95bc 068d 34ba
000000d0: a0b1 1339 d43b 99ba e914 19bb 965a c1bc
000000e0: 12b5 3bbc a3ff 46bb 98d8 02bc f36c 99b9
000000f0: 8106 73bc d6a5 98bb bc04 dfbb d6d4 0bbc

weight f4 [64, 119]
0.09150212 -0.08170113 0.08883947 -0.12009696 -0.1632158 -0.16518842 0.10170032 -0.019125083
-0.056763303 0.13293228 0.06078451 0.063662745 -0.09249534 0.014660817 0.02758829 -0.10262004
-0.10241233 -0.055961046 -0.019249955 -0.0315358 -0.08502378 -0.060087238 -0.0690859 -0.006714634
0.18505758 0.049996164 -0.110562265 -0.017828528 0.12769483 -0.06799933 -0.16156915 -0.18210946
0.17792098 0.05797684 0.050094984 -0.07749296 -0.06974756 0.057473727 -0.12237546 0.09221381
0.021920433 -0.052465554 -0.1147257 0.06471765 -0.19433264 -0.15490547 -0.07733749 -0.11007514
-0.0030392897 0.26781747 0.07692156 -0.10633232 0.13713571 -0.29302105 -0.005522238 0.077872194
0.13082016 0.06526454 -0.073262416 0.062344454 0.25942433 0.04998063 0.2264716 -0.18015113
0.103986785 -0.012608167 0.20540012 -0.07694299 0.012262922 0.009051859 -0.1064523 -0.016600272
0.26667318 -0.15642059 -0.062353365 -0.27495134 0.09994651 -0.12565859 -0.047253042 -0.008887483
-0.038786866 0.35295457 0.21979971 0.031179551 -0.14503764 -0.14292966 -0.20517483 0.115584314
0.027352517 0.09397674 -0.051396064 0.20703313 -0.05686113 -0.15472266 -0.049787946 0.119738236
0.012124273 0.009037885 0.08667769 -0.13714467 0.0041267737 0.19252041 0.091320425 -0.16687542
-0.059038054 0.2555049 0.05222054 -0.13812673 0.052397795 -0.007049935 0.08572908 0.20217656
0.18592498 -0.09184778 0.026210098 -0.1518566 -0.31836393 0.035223767 0.11904034 0.01195838
-0.04255975 -0.09504114 0.11896113 0.050207675 -0.050056703 0.20549388 0.006432097 -0.16421995
0.18643118 -0.006922399 -0.2089326 -0.012740331 0.062085558 -0.28340474 0.049301106 -0.2028706
-0.0039360654 0.094699785 -0.022560153 0.06790741 -0.0047466205 0.1760335 0.111002915 0.10489169
-0.033630986 0.23260228 0.05430458 0.16487515 -0.12358648 -0.05993183 0.04203078 0.046490885
-0.12384168 -0.20048024 -0.033935867 0.026052259 0.045615546 -0.010809815 0.12245647 -0.13444315
0.09710812 0.012263545 -0.10652961 -0.0901054 -0.068303905 0.13280195 0.09247153 -0.0043807575
0.10724951 -0.25605407 0.10173176 0.09385287 -0.198523 -0.10807703 0.024052192 -0.005732795
0.17311977 0.017897168 -0.027342722 -0.23136756 -0.06709431 -0.039011642 0.09704606 0.06291619
-0.0162137 0.054454822 0.05572084 -0.0021044773 0.14151728 0.049013853 0.03892731 -0.03898983
-0.09664807 -0.1050589 -0.02579263 -0.03225372 0.085685864 0.17509982 -0.0073407786 -0.1374958
-0.07541739 -0.085590735 -0.15875033 -0.045556564 0.014202845 0.078939356 -0.017911725 -0.19614768
-0.044593867 0.21697932 0.38231373 0.27705353 -0.057078063 0.038262583 -0.38809413 -0.023785086
0.058331855 -0.107236736 -0.08264928 -0.16096915 0.08730437 -0.042541485 0.12900351 -0.094536535
-0.18927717 0.1441625 -0.109141655 0.11760562 -0.0010066947 0.25896925 0.019643456 -0.1403615
-0.11285083 0.069738254 -0.26477462 0.020200968 0.17589653 0.034693632 0.018628784 0.048682556
0.031618875 -0.07411477 -0.08565896 -0.046246164 -0.08677008 0.15348147 0.14654009 -0.23486096
-0.281484 -0.11965294 -0.036210287 0.1747197 0.062614515 0.085207745 -0.0347094 0.124811634
00000000: 7765 bb3d ec52 a7bd 78f1 b53d 65f5 f5bd
00000010: 0b22 27be 2727 29be 4248 d03d 35ac 9cbc
00000020: a380 68bd 661f 083e 2ef9 783d 9d61 823d
00000030: 326e bdbd ec33 703c d600 e23c 752a d2bd
00000040: 8ebd d1bd 6937 65bd 15b2 9dbc af2b 01bd
00000050: f320 aebd 091e 76bd e97c 8dbd 6f06 dcbb
00000060: bc7f 3d3e c7c8 4c3d 786e e2bd 220d 92bc
00000070: 6fc2 023e 3c43 8bbd 6272 25be e77a 3abe
00000080: eb30 363e 1f79 6d3d 6630 4d3d a1b4 9ebd
00000090: cfd7 8ebd 9269 6b3d fc9f fabd 98da bc3d
000000a0: 7b92 b33c 1fe6 56bd 4ff5 eabd b08a 843d
000000b0: 23ff 46be 8a9f 1ebe 1e63 9ebd 136f e1bd
000000c0: d22e 47bb 5f1f 893e 0d89 9d3d c2c4 d9bd
000000d0: 4e6d 0c3e db06 96be e4f3 b4bb 757b 9f3d
000000e0: b8f5 053e 6aa9 853d 9b0a 96bd e65c 7f3d
000000f0: 44d3 843e 7db8 4c3d 2ce8 673e 8a79 38be
00000100: 06f7 d43d 7c92 4ebc 6954 523e 4994 9dbd
00000110: 6cea 483c 404e 143c aa03 dabd 4bfd 87bc
00000120: 6389 883e b82c 20be 3e66 7fbd 6cc6 8cbe
00000130: c1b0 cc3d a5ac 00be 688c 41bd ce9c 11bc
00000140: fade 1ebd 76b6 b43e 2d13 613e 426c ff3c
00000150: bf84 14be 275c 12be 5a19 52be 78b7 ec3d
00000160: 6312 e03c e176 c03d ae84 52bd 7e00 543e
00000170: 37e7 68bd 9e6f 1ebe 72ee 4bbd 5239 f53d
00000180: e3a4 463c a313 143c 1384 b13d a76f 0cbe
00000190: e339 873b 1224 453e 3406 bb3d 64e1 2abe
000001a0: e3d1 71bd 8ad1 823e 34e5 553d 1871 0dbe
000001b0: 129f 563d 2403 e7bb ba92 af3d 5f07 4f3e
000001c0: 1e63 3e3e b01a bcbd 8fb6 d63c 4c80 1bbe
000001d0: 9900 a3be cc46 103d 6ccb f33d 15ed 433c
000001e0: 2253 2ebd eea4 c2bd e5a1 f33d 90a6 4d3d
000001f0: 4208 4dbd fd6c 523e 57c4 d23b 4629 28be
00000200: d1e7 3e3e 4bd5 e2bb 6df2 55be d2bc 50bc
00000210: 6d4d 7e3d 6d1a 91be f5ef 493d 50bd 4fbe
00000220: 1cfa 80bb f6f1 c13d 12d0 b8bc 0a13 8b3d
00000230: 8a89 9bbb 2042 343e 7f55 e33d 74d1 d63d
00000240: a5c0 09bd 4b2f 6e3e 7b6e 5e3d 08d5 283e
00000250: e91a fdbd 147b 75bd 7828 2c3d 3a6d 3e3d
00000260: b5a0 fdbd b14a 4dbe 5600 0bbd 8c6b d53c
00000270: 5ed7 3a3d a61b 31bc 75ca fa3d 77ab 09be
00000280: 9fe0 c63d 09ed 483c 322c dabd 2e89 b8bd
00000290: ebe2 8bbd 3cfd 073e b761 bd3d 758c 8fbb
000002a0: a2a5 db3d 8519 83be be58 d03d ef35 c03d
000002b0: 9d49 4bbe 7d57 ddbd 1a09 c53c 2cda bbbb
000002c0: 4f46 313e 159d 923c d8fd dfbc 9eeb 6cbe
000002d0: be68 89bd acca 1fbd 16c0 c63d 34da 803d
000002e0: 98d2 84bc 050c 5f3d 893b 643d 45eb 09bb
000002f0: e8e9 103e c0c2 483d 3e72 1f3d cdb3 1fbd
00000300: 6cef c5bd 1f29 d7bd 114b d3bc 7a1c 04bd
00000310: 127c af3d 5e4d 333e ea8a f0bb b3cb 0cbe
00000320: 6f74 9abd 324a afbd 728f 22be 8599 3abd
00000330: 0db3 683c f5aa a13d 9cbb 92bc f0da 48be
00000340: 0fa8 36bd d42f 5e3e a0be c33e f6d9 8d3e
00000350: b0ca 69bd 3ab9 1c3d 46b4 c6be f1d8 c2bc
00000360: 62ed 6e3d ef9e dbbd 0744 a9bd 19d5 24be
00000370: a2cc b23d fb3f 2ebd 7f19 043e 5f9c c1bd
00000380: e0d1 41be 569f 133e a985 dfbd 37db f03d
00000390: 12f3 83ba 9e97 843e 50eb a03c edba 0fbe
000003a0: 561e e7bd eed2 8e3d 8a90 87be 807c a53c
000003b0: 381e 343e e91a 0e3d 649b 983c 5c67 473d
000003c0: cb82 013d 7cc9 97bd f76d afbd 9e6c 3dbd
000003d0: 83b4 b1bd 3f2a 1d3e 9b0e 163e 647f 70be
000003e0: ac1e 90be 9a0c f5bd 3d51 14bd b9e9 323e
000003f0: 0a3c 803d 6681 ae3d 722b 0ebd 3e9d ff3d

bias f4 [64]
-0.04305222 -0.023517162 0.00034101552 -0.05800865 -0.007218791 -0.03916689 -0.053042337 -0.0083478475
-0.057918716 -0.030988919 -0.040024824 -0.01611064 -0.00901159 -0.014843769 -0.019068353 -0.024399338
-0.009882933 -0.036651034 -0.026976993 0.020045161 -0.03916797 -0.008340281 -0.0031343324 -0.008740484
0.011319719 -0.008286798 0.036525015 0.026168551 -0.00056422426 -0.029231494 -0.027761873 -0.01599994
-0.026123844 -0.028326105 -0.023995578 -0.022278568 -0.015067766 -0.052403774 -0.039068893 -0.035390098
-0.031220501 -0.015997952 -0.043087095 -0.03199923 -0.034127243 -0.024096912 0.0 -0.058566734
-0.048499845 -0.05105147 -0.04633739 -0.013943078 -0.04497815 -0.044443466 -0.01997806 -0.031079818
-0.05205941 -0.014591749 -0.005747295 -0.0028679832 -0.05783106 -0.01833787 -0.01307315 -0.03081154
00000000: 8657 30bd 10a7 c0bc 54ca b239 7a9a 6dbd
00000010: 9c8b ecbb 766d 20bd ec42 59bd 69c5 08bc
00000020: 2d3c 6dbd 79dc fdbc 12f1 23bd 76fa 83bc
00000030: 59a5 13bc 4833 73bc 3c35 9cbc 1fe1 c7bc
00000040: 07ec 21bc 651f 16bd dbfe dcbc c035 a43c
00000050: 986e 20bd ada5 08bc 5f69 4dbb 3f34 0fbc
00000060: 5876 393c 5ac5 07bc 419b 153d 6e5f d63c
00000070: 73e8 13ba e376 efbc de6c e3bc 4e12 83bc
00000080: ac01 d6bc 260c e8bc 6092 c4bc 8b81 b6bc
00000090: cbde 76bc 57a5 56bd b406 20bd 35f5 10bd
000000a0: 23c2 ffbc 230e 83bc 187c 30bd a011 03bd
000000b0: 02c9 0bbd e366 c5bc 0000 0000 ace3 6fbd
000000c0: c6a7 46bd 591b 51bd 46cc 3dbd 8271 64bc
000000d0: 023b 38bd 5a0a 36bd 07a9 a3bc 1a9b febc
000000e0: 3f3c 55bd 3b12 6fbc ce53 bcbb c6f4 3bbb
000000f0: 43e0 6cbd 4d39 96bc c430 56bc 7c68 fcbc

weight f4 [64, 64]
-0.29634976 -0.119358584 0.011822836 0.29028678 -0.038469877 0.13061965 -0.14472729 0.029773759
-0.1384309 0.2650595 0.1411801 0.020547485 -0.041594006 -0.17188591 0.18223383 0.2676758
-0.14187077 -0.4072599 -0.07510103 0.10397747 0.24916215 -0.09041927 0.21596561 0.059610482
0.20117146 -0.14873244 0.10294031 0.1268454 0.3295897 0.1660183 -0.19425699 -0.072000496
0.13736688 0.0332342 0.024089033 -0.07856216 -0.1787654 -0.25449386 -0.18351991 -0.030866556
-0.18032543 0.2043468 -0.2404796 0.16660352 0.055908863 0.04790974 0.037371427 0.1441621
-0.10433599 -0.19572459 -0.17020741 -0.10880606 -0.044899356 0.17431468 0.13932925 0.06529598
0.21475066 0.07056358 0.16554779 -0.26944396 0.21492134 -0.05514238 0.14482675 0.30145806
-0.13437432 -0.018796325 0.108204134 0.14837483 -0.06538734 -0.02073039 -0.100042716 -0.2296328
-0.008483594 0.07760851 0.1990521 -0.11566867 -0.037519697 0.21259245 -0.053081993 0.21825264
-0.010709145 0.095734365 0.4561001 -0.0013591446 -0.15948099 -0.021572215 -0.24062431 0.2512857
0.025377464 -0.06820921 0.00967571 -0.250742 0.13345851 -0.17849687 -0.30675453 -0.20047185
0.12934288 0.49473342 -0.32750344 0.07964432 0.15961543 -0.039204303 -0.14313696 -0.08091382
-0.28779253 -0.0778131 0.43477425 -0.19353853 -0.17879845 -0.037308976 0.30400413 -0.040275697
0.23485789 0.0506406 0.0077353423 -0.098244525 0.044272497 0.049620863 0.16175948 0.018004594
0.15053876 0.022655496 -0.19516121 -0.043359872 0.08107604 0.08254153 -0.105450824 -0.027982611
0.4261171 -0.06953075 0.06259001 -0.0026686618 -0.025687696 0.030017603 0.099544294 -0.25561085
-0.0475738 0.04633553 -0.21939307 -0.036985952 -0.16715291 -0.014845686 0.2622579 0.31429425
-0.4657011 0.26567736 -0.03494453 0.090950236 0.095316716 0.1795868 0.1898377 0.0478275
0.1673637 -0.13288525 -0.10733243 -0.13576446 -0.22136159 0.12102744 -0.08885692 0.11871124
-0.16997682 -0.02690606 0.0034580915 0.24425046 -0.29753295 -0.15521742 0.17633557 -0.23220403
-0.04082556 -0.24874088 -0.06882649 -0.0831223 0.14586352 -0.3105636 -0.007120732 0.115136325
-0.077037364 0.10383599 0.06389887 0.08913742 0.0022837855 0.21394107 0.3011946 0.033304412
0.15827098 0.18799208 -0.010548915 0.35264522 -0.20888501 0.04128833 -0.1885592 0.137959
-0.21176797 -0.25491607 0.12559767 -0.16261536 -0.27802825 0.159317 -0.063981585 -0.023833701
0.054490115 -0.018709887 0.18180649 0.0052724876 -0.21885148 0.1866156 0.18377583 0.15349312
0.14081715 0.05159583 -0.044333536 -0.49921066 0.13676777 -0.11592165 0.22510232 -0.16067111
-0.4515225 0.0037545438 -0.39534935 -0.15827563 -0.059813067 -0.22926994 -0.15623546 0.027453206
-0.008967357 -0.106819145 0.09031366 -0.2546276 0.11849651 -0.13037558 -0.038283266 -0.19456843
0.2169502 -0.19897914 0.18165852 0.0888661 -0.060892753 0.11492985 -0.038368408 0.23836194
-0.11461054 0.0942896 0.036678676 -0.030204793 -0.09332185 0.24333078 -0.036738202 -0.38907054
0.039141815 0.05654959 0.016822478 0.067158386 0.06588551 0.2457334 0.12793757 0.15359682
00000000: 28bb 97be 4672 f4bd 91b4 413c 78a0 943e
00000010: 9792 1dbd 28c1 053e 6433 14be 19e8 f33c
00000020: d4c0 0dbe e1b5 873e 8491 103e 3353 a83c
00000030: 7a5e 2abd dc02 30be 819b 3a3e cd0c 893e
00000040: 9246 11be 5f84 d0be 92ce 99bd 24f2 d43d
00000050: 5d24 7f3e bd2d b9bd 1726 5d3e 1f2a 743d
00000060: e4ff 4d3e 514d 18be 5fd2 d23d c3e3 013e
00000070: fbbf a83e b400 2a3e 4eeb 46be ff74 93bd
00000080: e7a9 0c3e 9620 083d 5d56 c53c 33e5 a0bd
00000090: 470e 37be 054d 82be a5ec 3bbe dcdb fcbc
000000a0: 3ba7 38be 4a40 513e 4940 76be 1d9a 2a3e
000000b0: b100 653d 013d 443d c812 193d 3b9f 133e
000000c0: 1cae d5bd 076c 48be da4a 2ebe b6d5 debd
000000d0: 63e8 37bd 8c7f 323e 54ac 0e3e e6b9 853d
000000e0: 99e7 5b3e a383 903d 5c85 293e 8ff4 89be
000000f0: 5714 5c3e fadc 61bd 774d 143e b658 9a3e
00000100: 6c99 09be c0fa 99bc 219a dd3d 92ef 173e
00000110: cce9 85bd c7d2 a9bc 32e3 ccbd dc24 6bbe
00000120: c6fe 0abc 36f1 9e3d 50d4 4b3e b2e3 ecbd
00000130: 41ae 19bd d6b1 593e 816c 59bd 9f7d 5f3e
00000140: 6975 2fbc 6110 c43d f485 e93e 5325 b2ba
00000150: fc4e 23be 37b8 b0bc 3866 76be 85a8 803e
00000160: 66e4 cf3c 45b1 8bbd df86 1e3c 4161 80be
00000170: 59a9 083e e2c7 36be ee0e 9dbe 7e48 4dbe
00000180: 7672 043e b34d fd3e 88ae a7be 901c a33d
00000190: 3a72 233e b194 20bd 7f92 12be 25b6 a5bd
000001a0: 8b59 93be 795c 9fbd bb9a de3e f72e 46be
000001b0: f116 37be 4cd1 18bd 6ea6 9b3e 21f8 24bd
000001c0: 967e 703e 856c 4f3d c178 fd3b 6d34 c9bd
000001d0: 1457 353d 3f3f 4b3d 47a4 253e 5f7e 933c
000001e0: d526 1a3e 0598 b93c 57d8 47be 1f9a 31bd
000001f0: 320b a63d 890b a93d 9af6 d7bd ca3b e5bc
00000200: 052c da3e 2366 8ebd 312f 803d b7e4 2ebb
00000210: 016f d2bc 7ae7 f53c e1dd cb3d 6ddf 82be
00000220: bfdc 42bd 53ca 3d3d 94a8 60be 957e 17bd
00000230: 222a 2bbe 523b 73bc ab46 863e 2deb a03e
00000240: 6070 eebe dd06 883e ff21 0fbd 1e44 ba3d
00000250: 6935 c33d 9ae5 373e d064 423e c5e6 433d
00000260: 6461 2b3e 1213 08be 1bd1 dbbd d705 0bbe
00000270: 9dac 62be 3cdd f73d 9efa b5bd e11e f33d
00000280: 670e 2ebe 196a dcbc 26a1 623b cb1c 7a3e
00000290: 3d56 98be 51f1 1ebe 5091 343e e5c6 6dbe
000002a0: b438 27bd eeb5 7ebe e7f4 8cbd 063c aabd
000002b0: 3f5d 153e 3102 9fbe 0855 e9bb 98cc eb3d
000002c0: c4c5 9dbd f7a7 d43d 69dd 823d ae8d b63d
000002d0: 90ab 153b 5e13 5b3e 2e36 9a3e 356a 083d
000002e0: ca11 223e ff80 403e 5bd5 2cbc ea8d b43e
000002f0: f4e5 55be f41d 293d aa15 41be 2045 0d3e
00000300: b4d9 58be 5c84 82be ad9c 003e a484 26be
00000310: b859 8ebe ff23 233e c708 83bd e53e c3bc
00000320: 0731 5f3d 7a45 99bc 7b2b 3a3e d5c4 ac3b
00000330: 9a1a 60be 2918 3f3e bb2f 3c3e 4d2d 1d3e
00000340: 5f32 103e 2656 533d 1597 35bd 8a98 ffbe
00000350: da0c 0c3e 5468 edbd 3981 663e f886 24be
00000360: f52d e7be cb0e 763b 3b6b cabe 0213 22be
00000370: 8cfe 74bd bdc5 6abe 30fc 1fbe 8ce5 e03c
00000380: d2eb 12bc ffc3 dabd 5ef6 b83d 8c5e 82be
00000390: 4cae f23d 2d81 05be eace 1cbd f23c 47be
000003a0: 3128 5e3e 30c1 4bbe b104 3a3e 6eff b53d
000003b0: ae6a 79bd 5760 eb3d 3128 1dbd 2715 743e
000003c0: eeb8 eabd e81a c13d 613c 163d 0b70 f7bc
000003d0: 871f bfbd b42b 793e cc7a 16bd 4134 c7be
000003e0: 2b53 203d 8ba0 673d 4bcf 893c 568a 893d
000003f0: fbee 863d 89a1 7b3e 1102 033e 7c48 1d3e

bias f4 [64]
-0.01738039 -0.04373245 -0.017667547 -0.02268564 -0.03303788 0.00040878155 -0.008522616 -0.00432896
-0.044715643 -0.012202262 -0.015298017 -0.010452339 -0.01746691 -0.031106757 -0.011633924 -0.0084077045
-0.02187654 0.03153377 0.002920196 -0.021737656 0.007196709 0.049181942 -0.04323609 -0.057192966
-0.080909535 -0.040347856 -0.021656867 0.006251678 -0.08108817 -0.0025641837 -0.00910148 -0.039210044
-0.000784723 -0.024934443 -0.024790538 -0.023394119 -0.019350493 -0.016175417 -0.0768938 -0.056231696
0.014587328 -0.0038598748 -0.009383765 -0.04401838 -0.012185715 -0.031000022 0.010971769 -0.033072796
-0.069362104 -0.016750468 0.03752055 -0.06564493 0.009354988 0.032236442 -0.013443948 0.011267929
-0.017537532 -0.017934501 -0.052412465 -0.030541746 -0.02823797 -0.026577016 -0.008444372 -0.013801158
00000000: 5261 8ebc cc20 33bd 88bb 90bc 3cd7 b9bc
00000010: ba52 07bd bb51 d639 71a2 0bbc f3d9 8dbb
00000020: c027 37bd ffeb 47bc 89a4 7abc 4a40 2bbc
00000030: c416 8fbc 99d3 febc 379c 3ebc 78c0 09bc
00000040: 6e36 b3bc 8e29 013d c260 3f3b 2b13 b2bc
00000050: 5fd2 eb3b 0173 493d 5418 31bd 2c43 6abd
00000060: e6b3 a5bd cb43 25bd be69 b1bc e0da cc3b
00000070: 8e11 a6bd dd0b 28bb 601e 15bc b69a 20bd
00000080: deb5 4dba 5143 ccbc 8715 cbbc 06a5 bfbc
00000090: ed84 9ebc 4f82 84bc 7f7a 9dbd 3553 66bd
000000a0: b0ff 6e3c f4f5 7cbb 5dbe 19bc 9e4c 34bd
000000b0: 98a6 47bc c2f3 fdbc efc2 333c 5777 07bd
000000c0: b80d 8ebd 4738 89bc 26af 193d d970 86bd
000000d0: aa45 193c 5c0a 043d 0144 5cbc 1f9d 383c
000000e0: dfaa 8fbc 60eb 92bc 74ae 56bd af32 fabc
000000f0: 5153 e7bc 0bb8 d9bc 435a 0abc 411e 62bc

weight f4 [1, 64]
0.045947798 0.014083266 0.0021337245 0.19081143 -0.008061557 0.010001651 0.16815338 0.1662888
-0.28357524 -0.0005839619 -0.16079384 0.038790476 -0.059798185 -0.00012453401 0.002117065 -0.0009467995
0.09214382 0.009684165 0.00039168642 -0.0006474072 -0.0026347288 -0.084368855 -0.10882057 0.21023245
-0.17256127 -0.11348388 0.0009339539 -0.04912264 -0.16204377 -0.04110298 -0.02620846 0.06727266
-0.040411443 0.05125374 -0.00022377442 0.0021950523 -0.0028148582 0.015181678 0.17372446 0.25384393
0.025904909 -0.0019740048 -0.035943497 -0.12395216 0.00072538486 -0.13369882 -0.008099248 0.32600474
-0.3152433 -0.01818045 -0.085786685 -0.18382666 -0.00043907433 -0.019968152 0.0029600838 -0.015469179
-0.0038761785 -0.0012454474 0.2080039 -0.0025774152 -0.0399515 0.22965953 -0.09272781 -0.0018535423
00000000: c233 3c3d 80bd 663c f5d5 0b3b 1264 433e
00000010: 9f14 04bc f7dd 233c 6630 2c3e 9c47 2a3e
00000020: c630 91be 0515 19ba 24a7 24be c3e2 1e3d
00000030: f1ee 74bd 5895 02b9 75be 0a3b a432 78ba
00000040: e6b5 bc3d 55aa 1e3c 435b cd39 c3b6 29ba
00000050: 6aab 2cbb 94c9 acbd 52dd debd 2d47 573e
00000060: e7b3 30be 3d6a e8bd 96d4 743a d234 49bd
00000070: cdee 25be 995b 28bd 20b3 d6bc 40c6 893d
00000080: 7886 25bd 71ef 513d fda4 6ab9 deda 0f3b
00000090: 7c79 38bb 93bc 783c d3e4 313e d5f7 813e
000000a0: 8836 d43c 4e5e 01bb 7d39 13bd a1da fdbd
000000b0: c127 3e3a 58e8 08be b5b2 04bc 18ea a63e
000000c0: 9267 a1be 2bef 94bc eeb0 afbd 0e3d 3cbe
000000d0: 8f33 e6b9 4094 a3bc f7fd 413b 7072 7dbc
000000e0: 7c07 7ebb 483e a3ba f9fe 543e dae9 28bb
000000f0: 2fa4 23bd de2b 6b3e 14e8 bdbd 8ff2 f2ba

weight f4 [5, 64]
-0.005614231 0.0019047615 0.0070225974 -0.0047098817 -0.010892375 0.012937476 0.004987443 -0.008567941
-0.041210096 0.009416753 -0.009151441 0.0011864412 0.0050092116 0.008628536 -0.031386167 0.0013775358
-0.00029002852 -0.008260562 -0.016484234 0.0002985553 0.0040411633 -0.0031436414 0.011692337 0.00025348057
0.0063021174 0.006766173 -0.00031951995 0.018495005 -0.031533007 -0.0018473407 0.0001492987 0.001112395
-0.015030228 -0.022017628 0.016412603 0.0011868085 0.013258961 0.009236196 0.0010608151 0.00047548304
-0.0031407713 -0.0016544869 -5.6730965e-05 -0.008205925 0.00035306482 0.002702993 0.002005827 -0.010007012
0.001974109 0.012025307 -0.007007081 -0.0007697463 -0.0011827928 0.005929883 -0.024504663 -0.0091812555
9.866488e-05 -0.0034282608 0.015967991 0.008077824 -0.03816034 -0.0043651103 0.009378348 0.003963825
0.02612347 0.008695242 -0.022486033 0.017490568 0.024377946 -0.018487934 -0.025473345 0.018078372
0.03335721 -0.0149647975 0.025054423 0.002457051 -0.0012052507 -0.04456044 0.035983093 0.0042767553
-0.0075070425 0.0013110474 -0.016024027 0.00044893604 -0.005690474 -0.037755292 -0.018834116 0.003709701
-0.01156041 -0.043053355 0.00955559 -0.064622454 0.04217333 -0.002002202 0.0006821601 -0.00025480628
0.036231305 -0.012033681 -0.048008144 -0.0005932691 -0.030196443 -0.02754944 -0.0019098086 0.00048128137
-0.0036145477 -0.0326669 0.019556712 0.013342907 0.0024188792 0.0022306961 -0.033536483 0.006865825
-0.046836704 -0.022314366 -0.009178709 0.0048580104 -0.00019513785 0.012381345 0.031871643 -0.0232304
0.009646598 -0.010336415 -0.029631903 -0.019646136 0.033908933 -0.014093512 -0.022138527 -0.02456273
-0.009343475 -0.0036457381 0.00882794 -0.0005143058 -0.017410848 0.0059012026 -0.0013247217 -0.015901731
-0.028239014 0.008928598 -0.0030663537 0.00020002283 0.0004962002 0.0099240085 -0.029017052 0.006970598
0.0037164027 -0.017979885 -0.017268056 -0.00040759786 0.012152132 0.014275768 0.014685182 0.0058197896
0.0007773866 0.014738068 -0.009017391 0.01908613 -0.039028063 0.01246499 0.001747571 -0.0022224463
-0.034862407 -0.023410596 0.012229908 -0.0011941214 0.010139902 0.012443992 0.002801038 -0.0017714027
-0.0055682673 -0.0019758402 -0.011248096 0.0017567548 -0.00032630994 0.001522317 0.00057920394 0.005740425
0.0035157327 0.005116013 -0.00038436914 -0.0016833748 0.00024660944 0.00338956 -0.024999956 -0.010276032
-0.0029937653 0.011300847 0.007884421 0.0007333579 -0.0470859 0.0056464323 0.009414366 0.009926259
-0.024463776 -0.0020902727 0.009746607 -0.002394739 -0.011903062 0.0035091669 0.0045292284 -0.010135139
-0.026297774 0.0060543003 0.006389805 -0.0034924804 0.00010374696 0.006176256 -0.030167295 -0.015161346
0.00454351 -0.013419472 -0.01584075 -0.00010181383 0.0047850157 0.009676775 0.00077731156 -0.0025447113
0.0093520135 0.017020082 -0.002181867 0.010526276 -0.031592462 -0.0040672133 0.0005641641 0.00036397314
-0.022818428 -0.014870064 0.004865542 -1.8411612e-05 -0.00448651 0.010894946 -0.006228559 -0.00072515383
0.0064570336 -0.0029327353 -0.0023630657 -0.016730076 -0.0002620248 -0.0022944075 -0.0064937067 0.0013964166
0.0026942675 0.004091531 -0.004671407 -0.008715847 -0.0040192124 -0.0035658283 -0.024006775 0.0006091326
-0.0044673956 -0.011725698 0.01160186 0.0030778784 -0.051350813 0.0038541616 0.001786846 0.0022664014
00000000: 95f7 b7bb 31a9 f93a d11d e63b 5a55 9abb
00000010: ef75 32bc b5f7 533c b46d a33b 8d60 0cbc
00000020: ebcb 28bd ba48 1a3c edef 15bc 5c82 9b3a
00000030: 5024 a43b b45e 0d3c c88e 00bd 6e8e b43a
00000040: f80e 98b9 4f57 07bc f209 87bc 6a87 9c39
00000050: bc6b 843b 8d05 4ebb 3791 3f3c 96e5 8439
00000060: fe81 ce3b c6b6 dd3b 3e85 a7b9 d682 973c
00000070: c128 01bd 7822 f2ba 118d 1c39 c8cd 913a
00000080: 5841 76bc 505e b4bc b973 863c af8e 9b3a
00000090: 1d3c 593c 6a53 173c 0c0b 8b3a 414a f939
000000a0: 66d5 4dbb 5edb d8ba 69f2 6db8 2572 06bc
000000b0: 8f1b b939 b324 313b 3174 033b 73f4 23bc
000000c0: 0e60 013b cb05 453c a89b e5bb cdc8 49ba
000000d0: f107 9bba 774f c23b 01be c8bc fa6c 16bc
000000e0: 4eea ce38 acac 60bb 4ecf 823c d958 043c
000000f0: 044e 1cbd 3309 8fbb a4a7 193c f9e2 813b
00000100: e300 d63c 7d76 0e3c a134 b8bc 6148 8f3c
00000110: 42b4 c73c 0274 97bc 7aad d0bc 1819 943c
00000120: 92a1 083d e92e 75bc ef3e cd3c 7a06 213b
00000130: 81f9 9dba 0285 36bd 0263 133d 0624 8c3b
00000140: a3fd f5bb 73d7 ab3a d244 83bc 2d5f eb39
00000150: 2877 babb 4ba5 1abd 014a 9abc 741e 733b
00000160: e067 3dbc b758 30bd 0d8f 1c3c c758 84bd
00000170: f1bd 2c3d 6037 03bb fdd2 323a 8597 85b9
00000180: 4767 143d eb28 45bc 30a4 44bd 9e85 1bba
00000190: 885e f7bc 5daf e1bc 8b52 faba 7e54 fc39
000001a0: 0ce2 6cbb bacd 05bd 6635 a03c 359c 5a3c
000001b0: 0f86 1e3b df30 123b 8d5d 09bd b7fa e03b
000001c0: d8d7 3fbd 9ecc b6bc 4c62 16bc f22f 9f3b
000001d0: eb9d 4cb9 20db 4a3c d78b 023d ae4d bebc
000001e0: c40c 1e3c 115a 29bc 9bbe f2bc eff0 a0bc
000001f0: 18e4 0a3d 79e8 66bc db5b b5bc c737 c9bc
00000200: 6015 19bc 56ed 6ebb 10a3 103c 7ad2 06ba
00000210: 32a1 8ebc e05e c13b 49a2 adba 5944 82bc
00000220: 8155 e7bc 4149 123c e1f4 48bb 38bd 5139
00000230: 6f13 023a 4f98 223c 2bb5 edbc 9d69 e43b
00000240: e48e 733b 8d4a 93bc bd75 8dbc dcb2 d5b9
00000250: bc19 473c e9e4 693c 1e9a 703c efb3 be3b
00000260: 88c9 4b3a f077 713c aebd 13bc 845a 9c3c
00000270: e4db 1fbd f539 4c3c c10e e53a 76a6 11bb
00000280: e2cb 0ebd 94c7 bfbc f45f 483c 1184 9cba
00000290: d521 263c e3e1 4b3c 9f91 373b 692e e8ba
000002a0: 0376 b6bb 197d 01bb ef49 38bc e942 e63a
000002b0: 9414 abb9 7b88 c73a b8d5 173a 2d1a bc3b
000002c0: 3568 663b 3aa4 a73b 2785 c9b9 afa4 dcba
000002d0: 5c4b 8139 6123 5e3b b5cc ccbc cd5c 28bc
000002e0: 0c33 44bb 3027 393c a92d 013c d13e 403a
000002f0: 25dd 40bd b505 b93b b73e 1a3c bfa1 223c
00000300: 4268 c8bc f5fc 08bb 3cb0 1f3c 0ef1 1cbb
00000310: 1005 43bc 0dfa 653b ec69 943b db0d 26bc
00000320: 6e6e d7bc 2763 c63b 9261 d13b 19e2 64bb
00000330: ba92 d938 3162 ca3b 6721 f7bc 4b67 78bc
00000340: b9e1 943b 58dd 5bbc 76c4 81bc e284 d5b8
00000350: 9fcb 9c3b 568b 1e3c 7fc4 4b3a 2cc5 26bb
00000360: 3039 193c b36d 8b3c a7fd 0ebb 6776 2c3c
00000370: 1967 01bd 4246 85bb 69e4 133a a6d3 be39
00000380: b6ed babc 92a1 73bc 206f 9f3b a372 9ab7
00000390: 9303 93bb b780 323c f118 ccbb 4018 3eba
000003a0: 8695 d33b 2233 40bb aadd 1abb 830d 89bc
000003b0: 6060 89b9 c55d 16bb 29c9 d4bb f707 b73a
000003c0: 4f92 303b 4012 863b 9a12 99bb e9cc 0ebc
000003d0: 99b3 83bb acb0 69bb dba9 c4bc 32ae 1f3a
000003e0: 3b63 92bb 241d 40bc ba15 3e3c 3bb6 493b
000003f0: 3b55 52bd 1a96 7c3b 9a34 ea3a e887 143b

bias f4 [5]
-0.031444598 -0.00018523308 -0.030422153 -0.024928365 -0.024633594
00000000: 0dcc 00bd 203b 42b9 e137 f9bc 9236 ccbc
00000010: 64cc c9bc
