model/tiny-4ag/IA2C/model_agent3_seed3.pt (torch, 101825 bytes, 11 tensors)

weight f4 [64, 119]
-0.04469789 -0.019279422 0.115584224 -0.07816042 0.028466946 0.22861785 -0.19955452 0.119220085
0.08854508 -0.05239357 -0.082877204 0.007979519 0.20599225 0.031904135 -0.16604431 0.08331437
-0.15378045 0.2579273 -0.1688198 -0.3086264 -0.04455531 -0.11424198 -0.039333954 0.050687812
0.042685367 -0.05445197 -0.09769467 -0.03302874 0.045643467 -0.06370693 -0.00945376 -0.11764044
0.10472107 -0.12041147 0.28019708 0.02513255 0.07506919 -0.11158448 0.088056155 -0.058203477
-0.04355475 -0.031271435 -0.17703192 -0.15865406 -0.1745592 0.20919411 0.04477322 0.16560353
-0.10131131 0.03236202 -0.010423928 0.21163069 0.032134634 -0.0012943766 0.1477446 0.07327211
-0.18883298 -0.2185332 0.0073625688 0.22094658 -0.16928828 -0.1445447 -0.03691646 -0.08533697
-0.04919316 -0.23912396 0.062019635 -0.0014308008 0.07213447 -0.086515084 0.087464936 0.07612841
0.08888589 -0.09096779 -0.1738314 -0.059646025 0.07420398 -0.018829228 0.19749516 -0.04544221
0.11159221 0.24060407 -0.016109474 0.12949802 0.21529567 0.03823741 -0.12694459 0.14412683
-0.18076088 -0.12355532 -0.06774236 -0.2610012 0.017153934 0.08420255 -0.027818566 0.015559544
0.1394873 0.17067963 -0.01993342 -0.07583164 -0.05812732 -0.009422988 0.002978358 0.0724936
0.19187772 -0.0823067 0.12142568 -0.0039703264 0.1407713 0.032155123 -0.3620823 0.105401255
0.017599002 -0.099257395 0.013849848 -0.08106866 0.16045576 -0.18451628 0.29233766 -0.06297888
-0.12896405 0.053055458 0.10584202 -0.015943455 0.020991215 0.13591498 -0.07089848 0.10001315
-0.029145952 0.057977263 0.043445446 0.16663313 -0.039666355 0.003879372 0.1679744 0.17969029
0.041594252 -0.020107107 0.038952187 -0.17527615 -0.062874734 0.042863823 -0.23320378 0.061536163
-0.25532103 0.20326248 0.101573735 -0.07632977 -0.115596995 -0.14306037 -0.22467053 0.16604206
-0.058375865 0.07467065 0.08786582 -0.099296965 -0.0852418 -0.037889693 -0.18073146 -0.16225131
0.064219184 0.32204974 -0.08162521 -0.17999135 -0.033703342 0.27831352 0.21244796 0.078674115
-0.1893662 -0.01804355 -0.18380891 -0.058787394 -0.027780773 -0.053377986 -0.032797545 -0.03866863
-0.092713185 0.024178224 0.1630556 0.019059643 -0.0066456385 0.059587315 -0.07322782 -0.21259002
-0.124796525 -0.060185283 0.052778717 -0.22705252 -0.08626217 0.0360817 0.06812796 0.106367044
0.0133828055 -0.12588553 -0.08979388 0.034987662 -0.031132812 -0.120689385 0.061165597 -0.2829627
-0.0089677535 -0.05294181 -0.2320915 -0.035908736 -0.23158434 0.15043117 -0.016280543 0.12519124
-0.004910882 0.031154241 -0.123459704 -0.12684903 0.12991562 -0.012263091 0.40548036 0.10282386
-0.09515449 0.2597699 -0.173934 0.08389533 -0.043723296 -0.008295691 0.07335033 -0.09306708
-0.16816099 0.13409892 -0.059481926 -0.15196583 -0.21601838 0.13791735 -0.13171847 -0.14013109
0.008899314 -0.15274267 -0.11732332 -0.07096923 -0.10073951 -0.07845097 -0.15296909 0.077248536
-0.07407525 0.19880728 0.038136818 0.10340809 0.05173371 -0.005025418 -0.052452758 0.21283382
-0.028872484 -0.14923829 -0.027723404 -0.08918513 -0.1629069 0.1162818 0.025666067 0.05731642
00000000: 2215 37bd e1ef 9dbc 6cb7 ec3d 9212 a0bd
00000010: 8333 e93c cc1a 6a3e 0558 4cbe a929 f43d
00000020: 1f57 b53d a49a 56bd 86bb a9bd 87bc 023c
00000030: a2ef 523e e9ad 023d 8507 2abe b9a0 aa3d
00000040: 9f78 1dbe 0c0f 843e 19df 2cbe 4804 9ebe
00000050: a17f 36bd b3f7 e9bd a41c 21bd 069e 4f3d
00000060: dad6 2e3d 0709 5fbd 2514 c8bd 2549 07bd
00000070: a5f4 3a3d c778 82bd f2e3 1abc 79ed f0bd
00000080: 0078 d63d 4a9a f6bd fe75 8f3e c7e2 cd3c
00000090: e0bd 993d 6786 e4bd c956 b43d c566 6ebd
000000a0: 7766 32bd 7a16 00bd db47 35be 3676 22be
000000b0: a6bf 32be fb36 563e 2064 373d f993 293e
000000c0: 4e7c cfbd 0a8e 043d 1fc9 2abc b7b5 583e
000000d0: 9b9f 033d 12a8 a9ba 5c4a 173e b00f 963d
000000e0: 6f5d 41be 2bc7 5fbe b441 f13b d23f 623e
000000f0: e859 2dbe 8703 14be b735 17bd 26c5 aebd
00000100: c47e 49bd e9dc 74be 4d08 7e3d b589 bbba
00000110: 3dbb 933d d22e b1bd d120 b33d 36e9 9b3d
00000120: ce09 b63d 524d babd dc00 32be 644f 74bd
00000130: 42f8 973d c13f 9abc 2c3c 4a3e 9c21 3abd
00000140: 758a e43d ea60 763e 04f8 83bc 219b 043e
00000150: 7876 5c3e d59e 1c3d c3fd 01be fc95 133e
00000160: 6119 39be 920a fdbd 82bc 8abd f3a1 85be
00000170: 6886 8c3c 6372 ac3d c3e3 e3bc 75ed 7e3c
00000180: c2d5 0e3e a4c6 2e3e 694b a3bc 9e4d 9bbd
00000190: ea16 6ebd e062 1abc 8e30 433b 8677 943d
000001a0: 987b 443e 6a90 a8bd 07ae f83d 8319 82bb
000001b0: 5a26 103e 17b5 033d da62 b9be 9ddc d73d
000001c0: c82b 903c 7647 cbbd 79ea 623c 5307 a6bd
000001d0: 844e 243e d6f1 3cbe 48ad 953e 12fb 80bd
000001e0: 270f 04be ae50 593d b3c3 d83d d99b 82bc
000001f0: c5f5 ab3c 4c2d 0b3e 3933 91bd b2d3 cc3d
00000200: 7ec3 eebc 9179 6d3d daf3 313d e0a1 2a3e
00000210: 3079 22bd 103d 7e3b 7b01 2c3e bb00 383e
00000220: bc5e 2a3d a9b7 a4bc 548c 1f3d 977b 33be
00000230: 78c4 80bd fa91 2f3d f9cc 6ebe 580d 7c3d
00000240: 70b9 82be 0a24 503e e405 d03d c852 9cbd
00000250: 1ebe ecbd 6b7e 12be 0810 66be ee06 2a3e
00000260: 881b 6fbd edec 983d fff2 b33d 355c cbbd
00000270: 4193 aebd 3932 1bbd ab11 39be 3525 26be
00000280: 5985 833d b4e3 a43e 1e2b a7bd a74f 38be
00000290: 840c 0abd 1c7f 8e3e f58b 593e e51f a13d
000002a0: 37e9 41be 11d0 93bc 6738 3cbe 0dcb 70bd
000002b0: 8194 e3bc e0a2 5abd b856 06bd ff62 1ebd
000002c0: 69e0 bdbd 6911 c63c 0cf8 263e f822 9c3c
000002d0: a8c3 d9bb d411 743d 78f8 95bd 33b1 59be
000002e0: 5295 ffbd d884 76bd 7f2e 583d 7580 68be
000002f0: 38aa b0bd 68ca 133d ac86 8b3d f7d6 d93d
00000300: 8e43 5b3c 23e8 00be dbe5 b7bd 394f 0f3d
00000310: 3d0a ffbc ff2b f7bd c788 7a3d 7de0 90be
00000320: 7ced 12bc 83d9 58bd 65a9 6dbe 0a15 13bd
00000330: 7224 6dbe a10a 1a3e c65e 85bc 2232 003e
00000340: 77eb a0bb 2e37 ff3c 71d8 fcbd b6e4 01be
00000350: 9a08 053e 22eb 48bc 1f9b cf3e 5195 d23d
00000360: 5be0 c2bd 8f00 853e c11b 32be 51d1 ab3d
00000370: 3317 33bd a6ea 07bc b338 963d f499 bebd
00000380: 6532 2cbe 3a51 093e 52a3 73bd ee9c 1bbe
00000390: ec33 5dbe 353a 0d3e 35e1 06be 867e 0fbe
000003a0: 6ece 113c 9368 1cbe 3547 f0bd 5158 91bd
000003b0: 8450 cebd e7aa a0bd eea3 1cbe 7b34 9e3d
000003c0: c4b4 97bd 2394 4b3e 5a35 1c3d 9fc7 d33d
000003d0: bae6 533d 43ac a4bb b4d8 56bd 1cf1 593e
000003e0: fd85 ecbc ecd1 18be 311c e3bc b2a6 b6bd
000003f0: 11d1 26be 2725 ee3d a541 d23c 9fc4 6a3d

bias f4 [64]
-0.0007271362 1.8452188e-06 -0.023006506 -0.0010424538 -0.0025622991 0.0012594459 -0.0005575547 9.044692e-05
-0.012906507 0.0010474501 -0.0029930635 -0.0058132797 -0.010514234 0.00014690436 -0.0011741165 -0.003006018
-0.0010547774 -0.0053043454 0.0009927256 -0.01348338 -0.00024109286 -0.017128771 -0.008223669 -0.00032067645
0.00020766555 -0.00047568887 -0.0068518426 -0.0067816447 -0.00056955504 -0.004224405 0.00048471565 -0.0016266459
0.0047514546 -0.0056137433 -0.0063154334 0.00081161916 -0.0036100373 0.0020738444 -0.0055296244 -0.0014125477
-0.019367376 0.00037865763 -0.0040847287 -2.64524e-05 -0.01937764 2.2648492e-06 -0.0009380017 -0.004976971
-0.013004553 0.006994556 -0.0005186008 -0.00030316893 -0.009060725 -6.714798e-05 -2.9177596e-05 -3.070761e-05
-0.00061977986 0.0046379566 -0.0022905485 -0.013545145 -0.0015168644 0.0077621867 0.003435543 -0.015461423
00000000: 499d 3eba 3ca9 f735 2478 bcbc f2a2 88ba
00000010: 3fec 27bb fe13 a53a dd28 12ba 52ae bd38
00000020: d075 53bc 984a 893a 4627 44bb 537d bebb
00000030: e543 2cbc 570a 1a39 d0e4 99ba 9d00 45bb
00000040: 7540 8aba 13d0 adbb 581e 823a 65e9 5cbc
00000050: dfcd 7cb9 a351 8cbc 91bc 06bc 7720 a8b9
00000060: ccc0 5939 e165 f9b9 6c85 e0bb 8f38 debb
00000070: 314e 15ba e16c 8abb 6f21 fe39 2e35 d5ba
00000080: 17b2 9b3b 7ef3 b7bb b2f1 cebb d7c2 543a
00000090: 6096 6cbb 56e9 073b da31 b5bb 3c25 b9ba
000000a0: 55a8 9ebc 9186 c639 30d9 85bb 19e6 ddb7
000000b0: dbbd 9ebc d0fd 1736 3be4 75ba dc15 a3bb
000000c0: 0c11 55bc 9732 e53b b6f2 07ba a5f2 9eb9
000000d0: 6f73 14bc ccd1 8cb8 69c2 f4b7 0ccc 00b8
000000e0: b978 22ba 00fa 973b 071d 16bb 75ec 5dbc
000000f0: 86d1 c6ba f159 fe3b d926 613b e951 7dbc

weight f4 [64, 64]
0.14892209 0.0175449 -0.14416198 -0.033592857 0.37037095 -0.12789747 0.0055044554 0.0002683745
-0.008994184 0.34126526 0.05034875 0.25356185 -0.066879496 -0.15045542 -0.13547552 0.30334678
-0.00020242312 0.10320403 -0.042893026 -0.032302294 0.21332271 0.07217303 0.3613681 -0.38588065
0.22936155 -0.09122339 0.07328724 -0.2282919 0.13463545 -0.31685203 0.2096098 0.007839951
0.077453665 -0.17947541 -0.26311466 -0.31439602 -0.06531054 -0.09456938 -0.05209442 0.26328158
-0.09540159 0.11907269 -0.07043346 0.14130789 -0.07644233 -0.34448335 0.04272916 -0.15604833
0.023741178 -0.27049085 -0.10437669 -0.0027773394 0.2696904 0.16222629 -0.11793426 -0.006442792
0.10713976 -0.13606773 -0.13487156 0.094694406 -0.1403488 0.30889416 0.021264618 -0.025855953
0.06666983 0.030649584 0.2420917 -0.32362068 0.1686758 0.06808096 -0.088844314 -0.0027171306
0.14419198 0.25905952 0.037176777 -0.1524391 0.067454256 0.13983303 0.30888358 0.08059595
-0.02798845 -0.029466221 -0.06589772 -0.18757316 -0.2122544 0.36125994 -0.06504062 0.15660074
0.38299567 0.2534321 0.30064815 0.051183354 0.031867806 0.23660856 0.0314021 0.2591801
-0.095381394 -0.16207486 0.3914676 -0.023856416 -0.10574849 0.018009052 -0.22353795 0.2540879
0.0008920343 0.1427388 -0.085886784 0.21832067 0.027438618 0.04843674 0.03657625 0.18307513
-0.0070641465 -0.049722392 -0.21044673 0.2463847 0.2739186 0.23838441 0.14845504 0.08389349
-0.12693276 -0.012891122 0.04608381 -0.31240872 0.08874632 -0.12701268 -0.012522541 0.13691355
0.26716572 0.29506052 0.24177995 0.0042999545 0.24331784 -0.16171835 0.35857376 0.21971077
0.07670543 0.09049238 0.24996524 -0.073769614 -0.122261114 0.12308887 0.17575829 -0.03137566
0.24094124 -0.06257855 -0.28840488 -0.20634477 0.35924414 0.21384881 0.16733162 0.19947104
-0.14007752 0.08237402 -0.13544242 -0.14270242 -0.12825456 -0.052926164 0.06858079 0.117693946
0.2301597 -0.12982288 -0.10033663 0.13762662 0.070749454 -0.11061792 0.39549854 -0.13915844
-0.1991739 -0.06504371 0.055430677 -0.06721372 0.33583394 -0.0893384 0.16841695 0.028866088
0.023120712 0.1916434 0.108012736 0.0788753 -0.14416704 0.029450793 0.009352163 0.072306685
0.040995125 0.37618977 0.12834044 -0.09375201 0.09260585 0.039329167 -0.30220175 -0.09795756
-0.07812518 0.014923656 -0.29096076 0.23047712 0.16003512 -0.27187663 -0.0300317 0.13322969
0.18175268 -0.027306568 0.16720532 0.33596212 0.010090264 -0.017009163 0.13933007 -0.09031266
-0.1742642 -0.2711963 0.21542528 -0.19674681 -0.03673439 0.040404934 0.025762584 -0.12841958
-0.03038973 -0.09052427 0.113398015 0.16924365 -0.028150093 -0.006056218 0.16370955 -0.082761325
-0.38486218 0.05592059 -0.2668009 0.022687625 0.110621065 0.21546347 0.29448166 -0.052502148
0.109692045 0.2113574 -0.09896465 -0.032762222 0.2228862 0.076021686 0.09780456 0.013163674
-0.09693219 0.07412211 -0.28368688 -0.24035248 0.31394047 0.06652698 0.30509526 0.042507976
-0.07174105 0.0070965867 0.36330146 0.17008677 0.15179893 -0.36878437 -0.05577588 0.21308379
00000000: 087f 183e 52ba 8f3c 339f 13be aa98 09bd
00000010: 43a1 bd3e 8ef7 02be b85e b43b 9eb4 8c39
00000020: 585c 13bc 52ba ae3e 7e3a 4e3d dcd2 813e
00000030: 1ef8 88bd fc10 1abe 18ba 0abe 4550 9b3e
00000040: 8b41 54b9 a25c d33d 99b0 2fbd 694f 04bd
00000050: 4571 5a3e 74cf 933d 3d05 b93e 2692 c5be
00000060: c1dd 6a3e 54d3 babd 9f17 963d 5ac5 69be
00000070: e0dd 093e 6e3a a2be f4a3 563e 2373 003c
00000080: 07a0 9e3d 67c8 37be f7b6 86be 84f8 a0be
00000090: 88c1 85bd 97ad c1bd f560 55bd d8cc 863e
000000a0: e961 c3bd 62dc f33d 6b3f 90bd 04b3 103e
000000b0: cc8d 9cbd 1f60 b0be c604 2f3d 22cb 1fbe
000000c0: dc7c c23c c77d 8abe 72c3 d5bd 0604 36bb
000000d0: dc14 8a3e a61e 263e 8487 f1bd 0e1e d3bb
000000e0: 176c db3d 5755 0bbe c51b 0abe 24ef c13d
000000f0: 99b7 0fbe 6027 9e3e 2333 ae3c ddcf d3bc
00000100: 318a 883d d614 fb3c e3e6 773e 9cb1 a5be
00000110: 59b9 2c3e 086e 8b3d 02f4 b5bd e311 32bb
00000120: 10a7 133e 73a3 843e ad46 183d ff18 1cbe
00000130: 7525 8a3d 6430 0f3e fd25 9e3e 7d0f a53d
00000140: 0948 e5bc 2563 f1bc 62f5 86bd 2e13 40be
00000150: 3859 59be 10f7 b83e 0434 85bd f25b 203e
00000160: 0218 c43e dac1 813e 8eee 993e a3a5 513d
00000170: d187 023d 8449 723e 7d9f 003d 41b3 843e
00000180: 5257 c3bd f4f6 25be 716e c83e 886e c3bc
00000190: aa92 d8bd b887 933c 22e7 64be cf17 823e
000001a0: 69d7 693a 1f2a 123e 69e5 afbd 748f 5f3e
000001b0: f4c6 e03c 9a65 463d fad0 153d 0c78 3b3e
000001c0: 5b7a e7bb b5a9 4bbd 597f 57be 454c 7c3e
000001d0: 0f3f 8c3e 0b1b 743e 9904 183e 5ad0 ab3d
000001e0: a9fa 01be 4935 53bc 61c2 3c3d 09f4 9fbe
000001f0: a1c0 b53d 9d0f 02be 582b 4dbc 1133 0c3e
00000200: f2c9 883e 2c12 973e 2a95 773e a2e6 8c3b
00000210: 5028 793e 7f99 25be fb96 b73e dcfb 603e
00000220: bd17 9d3d 1254 b93d e3f6 7f3e 8614 97bd
00000230: 0964 fabd 0416 fc3d fbf9 333e c483 00bd
00000240: 4db9 763e 2f29 80bd cea9 93be 0b4c 53be
00000250: d9ee b73e 2ffb 5a3e fb58 2b3e 2342 4c3e
00000260: 7b70 0fbe b6b3 a83d 6bb1 0abe 9520 12be
00000270: 2a55 03be 1bc9 58bd 1674 8c3d 8609 f13d
00000280: fcae 6b3e 4af0 04be 4b7d cdbd feed 0c3e
00000290: 17e5 903d a68b e2bd c97e ca3e 8d7f 0ebe
000002a0: 3ef4 4bbe a335 85bd 470b 633d 59a7 89bd
000002b0: 6df2 ab3e 0df7 b6bd 7e75 2c3e 9378 ec3c
000002c0: a667 bd3c 2b3e 443e c835 dd3d 6089 a13d
000002d0: 86a0 13be ca42 f13c d139 193c 8715 943d
000002e0: 81ea 273d f29b c03e ad6b 033e 0e01 c0bd
000002f0: 23a8 bd3d 9f17 213d 30ba 9abe f99d c8bd
00000300: 1800 a0bd 5a82 743c cff8 94be 3202 6c3e
00000310: 3fe0 233e 6a33 8bbe 0a05 f6bc 5d6d 083e
00000320: 601d 3a3e 06b2 dfbc df37 2b3e 3a03 ac3e
00000330: a251 253c cd56 8bbc 8bac 0e3e d8f5 b8bd
00000340: 5072 32be 3eda 8abe 7298 5c3e ff77 49be
00000350: cd76 16bd a57f 253d 0e0c d33c 6c80 03be
00000360: e2f3 f8bc ca64 b9bd 383d e83d 354e 2d3e
00000370: 069b e6bc 3d73 c6bb 7aa3 273e c57e a9bd
00000380: a80c c5be fd0c 653d 219a 88be 66db b93c
00000390: 4c8d e23d 75a2 5c3e 4dc6 963e 7e0c 57bd
000003a0: 39a6 e03d 136e 583e faad cabd ae31 06bd
000003b0: 483c 643e 42b1 9b3d c24d c83d 73ac 573c
000003c0: 6284 c6bd 55cd 973d 683f 91be f61e 76be
000003d0: cebc a03e 4c3f 883d 7235 9c3e d81c 2e3d
000003e0: f9ec 92bd 7c8a e83b a602 ba3e 3a2b 2e3e
000003f0: 2e71 1b3e 4ed1 bcbe 4075 64bd a332 5a3e

bias f4 [64]
-0.0047907624 -0.0108890915 0.0070081158 -0.010815822 -3.9917295e-06 -0.0005523328 -0.0015344459 -0.004482538
-0.0127031235 -0.0010636691 -0.012651781 -0.010198771 -0.015102407 -0.0056116516 -0.00033685993 -0.0017471333
-0.007490786 -0.0056596915 -0.0014361033 -0.0009167641 0.00021691096 -0.0006917589 -0.00955934 -0.0061564813
-0.017736282 -0.00036675108 0.00011567042 -0.0011797182 0.00013612752 -0.0015872227 -0.011287856 -0.0049712528
-0.00080380676 -0.0023824375 -0.0069551575 -0.015092984 -0.0015453412 -1.3922894e-05 -0.00010405635 -0.015979437
-0.0031032308 -7.900603e-05 -0.01057027 -0.0035801844 0.0014636655 -0.0109844785 -0.004992719 -3.6722082e-05
-7.885842e-05 -0.02038833 -0.011952165 -0.007568634 -0.0008734406 -4.6191133e-05 0.00022812546 -0.0049418323
2.770879e-05 -0.0018420009 -0.0036761228 -0.0051464727 -0.004347367 -0.0010983422 -0.016560983 -0.0036403728
00000000: d4fb 9cbb 2968 32bc 56a4 e53b d834 31bc
00000010: b2f0 85b6 6dca 10ba 761f c9ba 41e2 92bb
00000020: c320 50bc d06a 8bba 6a49 4fbc bf18 27bc
00000030: 1670 77bc f2e1 b7bb 939c b0b9 1100 e5ba
00000040: 4475 f5bb ef74 b9bb a13b bcba ff52 70ba
00000050: 9872 6339 2757 35ba c79e 1cbc 4fbc c9bb
00000060: ae4b 91bc 7f48 c0b9 1594 f238 c6a0 9aba
00000070: 74bd 0e39 5b0a d0ba b3f0 38bc e4e5 a2bb
00000080: 8fb6 52ba ab22 1cbb 17e8 e3bb 9048 77bc
00000090: 0c8d caba 6096 69b7 d438 dab8 4fe7 82bc
000000a0: 935f 4bbb 0ab0 a5b8 ed2e 2dbc 87a1 6abb
000000b0: 77d8 bf3a 3ef8 33bc f699 a3bb 0906 1ab8
000000c0: cb60 a5b8 6d05 a7bc 03d3 43bc 4e02 f8bb
000000d0: 9bf7 64ba 5abd 41b8 f634 6f39 18ef a1bb
000000e0: 2c70 e837 4b6f f1ba 1beb 70bb bea3 a8bb
000000f0: 5c74 8ebb 40f6 8fba e6aa 87bc 5293 6ebb

weight f4 [64, 119]
-0.19782181 -0.20231915 0.16629735 -0.10690837 0.1677457 -0.046490762 0.0717384 -0.08501155
0.09773957 -0.062060755 -0.22078718 0.09452413 0.09320144 0.061381303 -0.12678568 0.056171026
-0.11267746 -0.08067803 -0.14067279 -0.011262618 0.16066688 0.020191789 -0.075520515 -0.21457903
0.11297003 -0.25237426 -0.39809388 -0.0960691 -0.21196082 0.27133343 -0.30757838 -0.015776526
0.06382951 -0.0037345183 0.24158834 -0.1568022 0.10552118 -0.04848606 0.013626929 0.037879404
0.10864815 0.20699732 0.11926203 -0.17090389 -0.24117807 -0.14141633 -0.094154775 0.14804676
-0.13018112 -0.010818802 -0.110281944 0.03618326 -0.08227131 -0.049315177 -0.057468582 -0.015436336
0.08421084 -0.23148301 -0.18191005 -0.074217305 0.10395773 -0.015886666 0.11890412 0.13264419
0.005566472 -0.015936293 -0.14851879 -0.13270469 0.08316973 -0.15274669 -0.037771985 0.15421683
0.11768541 -0.030368766 0.08705586 -0.22761226 0.119663455 0.012544825 -0.015474992 0.1847671
-0.24399978 0.1029176 0.1194965 0.09080056 0.012306815 -0.12023636 -0.111475945 0.17574453
-0.11576226 -0.02966434 -0.14143287 -0.0077259922 -0.005712795 -0.010262578 0.0018029289 -0.09340716
-0.018296402 0.07827509 0.24603488 -0.04140752 -0.10515771 0.20317613 -0.0424143 0.13079354
0.13429756 -0.105699055 -0.0931162 0.061169423 0.023479316 0.011288111 -0.0433279 -0.028555134
0.08086836 -0.029697673 -0.117797606 0.09851481 -0.12888277 -0.037510972 -0.12716202 -0.12798214
0.06233557 -0.008436698 -0.16775112 0.014521995 -0.09571222 0.20359443 0.13377637 0.05877846
-0.10080651 -0.10889104 0.06688061 0.031173548 0.28580153 -0.006599948 -0.039624956 -0.23450936
0.27358198 0.39685225 -0.15034886 -0.17220956 -0.047699578 -0.14814728 -0.104893036 0.22429585
-0.019431833 0.26252723 -0.005069917 0.123258054 0.15852478 -0.029524008 -0.07400863 0.042466074
-0.11405233 -0.03191321 -0.021206945 -0.1990744 0.041086975 0.08338839 -0.124300994 0.04941018
-0.05594337 -0.10416568 -0.046916246 0.018414712 -0.051203217 -0.089498915 0.072267674 0.0147176115
-0.048209775 -0.02987574 -0.0440775 0.030301614 -0.19784437 0.015951397 0.01731295 -0.09076719
0.28964686 0.0152707 -0.007663036 0.15610102 0.20120388 -0.2564821 -0.095716275 0.046998575
-0.238261 -0.21438432 -0.0040920186 0.14566441 -0.23064798 -0.1255535 0.009364286 -0.075249
-0.028811114 -0.022037555 -0.099624105 -0.05432187 0.03287438 0.019304868 0.15258154 0.022116967
0.007861563 0.17672677 0.087972865 0.29703924 0.002124164 0.059892684 -0.17145213 -0.062878534
0.06639803 -0.115257226 0.162651 -0.037305877 0.10125244 0.22148344 -0.09200602 -0.0550339
0.028309463 0.09680585 -0.040889677 0.0010356258 -0.21485138 -0.012712267 -0.089935 0.20780087
-0.025080604 0.029136362 0.058963567 -0.12754577 0.08626454 0.26241404 -0.031980466 0.05569236
-0.122704364 -0.18287857 -0.1511043 -0.03633729 0.21315311 -0.037333842 -0.2895448 -0.001930877
0.11281955 -0.013945211 -0.10368421 0.06837045 -0.05982602 -0.060170285 -0.1679738 -0.19604903
0.066594124 0.17323238 0.08089189 0.009584931 -0.050683856 0.091412336 0.02349741 -0.18375319
00000000: cd91 4abe c02c 4fbe da49 2a3e c7f2 dabd
00000010: 87c5 2b3e 196d 3ebd 95eb 923d 891a aebd
00000020: af2b c83d 6b33 7ebd 0916 62be de95 c13d
00000030: 66e0 be3d f66a 7b3d 1bd4 01be 9713 663d
00000040: 71c3 e6bd 863a a5bd 870c 10be d886 38bc
00000050: dc85 243e 4069 a53c 80aa 9abd 9bba 5bbe
00000060: d55c e73d 3337 81be f6d2 cbbe e0bf c4bd
00000070: 420c 59be 37ec 8a3e ea7a 9dbe c63d 81bc
00000080: 0cb9 823d d2be 74bb ef62 773e c290 20be
00000090: 7d1b d83d 5299 46bd 7c43 5f3c 6f27 1b3d
000000a0: ec82 de3d 1bf7 533e a73f f43d 6e01 2fbe
000000b0: 62f7 76be 71cf 10be 38d4 c0bd 9299 173e
000000c0: 334e 05be 5841 31bc 80db e1bd e634 143d
000000d0: dc7d a8bd b6fe 49bd 2d64 6bbd b0e8 7cbc
000000e0: bc76 ac3d e209 6dbe a146 3abe 3eff 97bd
000000f0: cae7 d43d c124 82bc 0184 f33d e1d3 073e
00000100: f466 b63b d48c 82bc 4f15 18be bde3 07be
00000110: e454 aa3d a169 1cbe ccb6 1abd 04eb 1d3e
00000120: 0c05 f13d ebc7 f8bc 584a b23d 3013 69be
00000130: 1d12 f53d cf88 4d3c d28a 7dbc 9633 3d3e
00000140: 14db 79be 76c6 d23d 95ba f43d a5f5 b93d
00000150: 86a2 493c 7b3e f6bd 804d e4bd 60f6 333e
00000160: c414 edbd a102 f3bc c7d3 10be 522a fdbb
00000170: 6632 bbbb 5f24 28bc 4150 ec3a 414c bfbd
00000180: 56e2 95bc b14e a03d 91f0 7b3e ef9a 29bd
00000190: ed5c d7bd 670d 503e 9eba 2dbd beee 053e
000001a0: 4d85 093e bf78 d8bd b5b3 bebd ca8c 7a3d
000001b0: b257 c03c c5f1 383c 9978 31bd 75ec e9bc
000001c0: 509e a53d 8948 f3bc df3f f1bd 22c2 c93d
000001d0: d8f9 03be 1ba5 19bd c336 02be c00d 03be
000001e0: 9553 7f3d 133a 0abc f3c6 2bbe a9ed 6d3c
000001f0: c504 c4bd 0f7b 503e acfc 083e afc1 703d
00000200: a573 cebd 4402 dfbd b4f8 883d ab5f ff3c
00000210: 9454 923e 6044 d8bb c74d 22bd 3923 70be
00000220: f012 8c3e 3830 cb3e 0df5 19be b457 30be
00000230: a260 43bd ecb3 17be 29d2 d6bd d0ad 653e
00000240: 822f 9fbc f869 863e 8c21 a6bb b86e fc3d
00000250: 5254 223e 55dc f1bc d691 97bd e8f0 2d3d
00000260: 4594 e9bd 6db7 02bd 30ba adbc 29da 4bbe
00000270: d14a 283d 88c7 aa3d 8591 febd 5462 4a3d
00000280: e024 65bd d154 d5bd 402b 40bd 73da 963c
00000290: 77ba 51bd 354b b7bd 1301 943d 2322 713c
000002a0: 9d77 45bd f8bd f4bc 9c8a 34bd 173b f83c
000002b0: b797 4abe 81ac 823c e3d3 8d3c 26e4 b9bd
000002c0: 984c 943e f531 7a3c 351a fbbb f2d8 1f3e
000002d0: 6408 4e3e 9f51 83be e506 c4bd 9481 403d
000002e0: b1fa 73be 9087 5bbe 5716 86bb 0d29 153e
000002f0: fc2e 6cbe 1991 00be aa6c 193c 261c 9abd
00000300: 4905 ecbc 1a88 b4bc b907 ccbd 9c80 5ebd
00000310: 49a7 063d 3e25 9e3c 563e 1c3e a42e b53c
00000320: c9cd 003c ddf7 343e 1e2b b43d 8715 983e
00000330: 8f35 0b3b 0852 753d 2691 2fbe 76c6 80bd
00000340: b1fb 873d fb0b ecbd fc8d 263e 0cce 18bd
00000350: 705d cf3d 8ecc 623e a76d bcbd 3a6b 61bd
00000360: 3fe9 e73c 2542 c63d ef7b 27bd d6bd 873a
00000370: 0002 5cbe 1d47 50bc d72f b8bd c0c9 543e
00000380: d775 cdbc 61af ee3c c883 713d 5c9b 02be
00000390: 77ab b03d 225b 863e f3fd 02bd ac1d 643d
000003a0: 6d4c fbbd 8544 3bbe 16bb 1abe 69d6 14bd
000003b0: cf44 5a3e 5feb 18bd 373f 94be 7b15 fdba
000003c0: f00d e73d 747a 64bc 6358 d4bd ce05 8c3d
000003d0: 210c 75bd 1e75 76bd 5301 2cbe 14c1 48be
000003e0: 8062 883d d463 313e a6aa a53d 1d0a 1d3c
000003f0: e099 4fbd 6436 bb3d a47d c03c cc29 3cbe

bias f4 [64]
-0.009653679 -0.021492245 -0.00083820795 -0.016654713 -0.038205255 -0.025472809 -0.022343505 -0.0048803114
-0.04558844 -0.05627595 -0.029692749 -0.029531969 -0.038925778 -0.02913314 -0.014700935 -0.034707688
0.0 -0.030278636 -0.017079087 -0.040832147 -0.02240203 0.0057584494 -0.019970033 -0.07261744
-0.032073636 0.023332302 -0.011259969 -0.029735997 -0.041152887 -0.012766972 -0.04293374 -0.0023977105
-0.040215936 -0.015553935 -0.037341256 -0.00914752 -0.029741975 0.0073158653 -0.047332343 -0.005084232
-0.04301875 -0.039357193 -0.04131347 -0.02601567 -0.04789415 -0.010500726 -0.027992308 -0.03438146
-0.015272989 -0.039642412 -0.00072523626 -0.022208648 -0.059462342 -0.02879009 -0.013114413 -0.012105032
-0.008902413 -0.02223249 -0.0013530453 -0.010725141 -0.055638723 -0.05045486 -0.022312362 -0.019220648
00000000: 772a 1ebc 8110 b0bc 2fbb 5bba 776f 88bc
00000010: 1d7d 1cbd 5aac d0bc ba09 b7bc 05eb 9fbb
00000020: f2ba 3abd 9c81 66bd 353e f3bc 07ed f1bc
00000030: a370 1fbd 9fa8 eebc 31dc 70bc a629 0ebd
00000040: 0000 0000 e70a f8bc 71e9 8bbc 9c3f 27bd
00000050: 7684 b7bc 60b1 bc3b 3298 a3bc 74b8 94bd
00000060: a55f 03bd 6223 bf3c bc7b 38bc e898 f3bc
00000070: ee8f 28bd 902c 51bc 4adb 2fbd e822 1dbb
00000080: 77b9 24bd efd5 7ebc 25f3 18bd 7bdf 15bc
00000090: 71a5 f3bc edb9 ef3b 8fdf 41bd a199 a6bb
000000a0: 6e34 30bd 0235 21bd 5038 29bd d01e d5bc
000000b0: a82c 44bd 3d0b 2cbc 2050 e5bc 93d3 0cbd
000000c0: 8f3b 7abc 1560 22bd c81d 3eba e9ee b5bc
000000d0: c98e 73bd 32d9 ebbc d6dd 56bc 2f54 46bc
000000e0: 6ddb 11bc e920 b6bc ab58 b1ba 80b8 2fbc
000000f0: 6ee5 63bd c1a9 4ebd 6ac8 b6bc 9f74 9dbc

weight f4 [64, 64]
0.12934074 0.14745009 -0.117252626 0.12438703 -0.07841219 0.30125555 0.025106004 -0.13442212
0.18579312 0.10279505 -0.02856536 0.023174843 0.23844188 0.05574643 -0.14997625 0.24450432
-0.0008715036 -0.0054970924 0.06292326 -0.119150735 -0.16804694 0.08553498 -0.23816484 -0.040276144
0.40312344 -0.18520156 0.040593132 0.2624283 0.15727946 0.22435 0.013219427 0.17464738
0.19671269 0.2791038 -0.07684873 -0.23408264 0.05602676 -0.10685721 0.3407434 -0.16838829
0.26386753 -0.06865415 -0.09623491 -0.19812053 -0.06876391 -0.37962356 -0.14165841 -0.09163964
-0.07909259 -0.25134686 -0.27703723 -0.10417129 0.25526276 -0.12518029 0.14188246 -0.12686805
-0.027980413 -0.21114638 0.13599516 -0.22347812 0.10475032 0.23616956 0.064911634 0.16346186
0.2218579 0.04820088 0.36536157 -0.19069146 0.3642585 -0.14712268 -0.2474764 0.0023968515
0.14321819 -0.14247803 -0.058003563 0.17434236 0.17051491 0.10336495 0.11644007 0.26855192
-0.20429085 -0.05054592 0.21662444 -0.16714399 0.31705987 -0.10838115 0.064141296 0.24007386
0.22677179 0.1082088 -0.06346505 0.13995208 0.035386883 -0.16322932 0.086289264 -0.086336866
-0.07161417 0.13232778 -0.17411488 -0.020974804 0.22267789 -0.40826192 0.17696244 0.13737045
-0.28251272 0.05732439 -0.028182285 0.16786331 0.028196828 -0.08847175 0.06253449 0.10805706
0.1337077 0.045290545 0.04520804 0.14494663 -0.053039018 0.24002588 -0.04710428 -0.060019795
0.08465332 -0.061947394 0.06950273 0.073827356 -0.27415845 0.27637878 -0.42484143 0.14559296
-0.082914636 0.17219655 -0.02915845 0.06982076 0.01809323 0.23310286 -0.13267463 -0.12137328
-0.18074606 0.19718267 -0.14354938 0.33054236 -0.21830794 -0.15496513 0.01848351 0.10252944
-0.12256556 -0.022886861 -0.17333616 0.24547431 -0.190443 0.18137893 0.033138312 -0.086042
0.085207015 0.22257788 0.13850027 0.14086992 0.22364637 -0.15040909 0.046959314 0.2070128
0.105989404 -0.00019540668 -0.10960932 0.26928666 0.034674715 0.0753881 -0.03689083 0.28851974
-0.07918498 -0.016593855 -0.23322845 0.15883338 0.065561585 0.09154688 -0.11928345 0.1545001
-0.22562692 0.177502 -0.14714222 -0.09517046 -0.36939722 0.10242029 0.14660127 0.21539716
-0.44468582 -0.06566068 0.22691266 -0.16840896 0.036802694 0.0039106435 -0.21313964 0.2865154
0.3432214 0.016797205 -0.04007902 0.15844595 0.16153362 -0.070885025 0.036831677 0.10835228
0.26747397 0.18746112 0.09944547 0.095975526 -0.026480839 0.13596568 -0.2797363 -0.13363878
-0.13322102 0.25192106 -0.087864846 0.054343227 -0.18907431 -0.029639002 -0.12304816 0.08339617
0.09256505 0.0544692 -0.12460362 -0.551085 0.13710923 0.12118684 0.008548331 0.08640824
-0.17088073 0.08940384 0.12515905 0.107135475 0.07546255 -0.09534424 0.2400126 0.12621002
-0.14020443 0.13912041 -0.0926887 0.17131801 -0.26377994 0.01799359 0.21557347 -0.010652738
-0.21907839 -0.3136479 0.028703198 0.14038116 -0.08353863 0.2566782 0.1966045 0.11408668
0.2105639 -0.11405397 -0.005651939 0.07240238 -0.007510066 -0.18667011 0.27600458 -0.0677391
00000000: e671 043e 28fd 163e 2522 f0bd a1be fe3d
00000010: 9296 a0bd 2b3e 9a3e 1bab cd3c f4a5 09be
00000020: 8d40 3e3e 3686 d23d e701 eabc 2bd9 bd3c
00000030: 1c2a 743e 5e56 643d 6093 19be 575f 7a3e
00000040: 9e75 64ba f420 b4bb e9dd 803d 4d05 f4bd
00000050: 7f14 2cbe f72c af3d 7ce1 73be 99f8 24bd
00000060: 3266 ce3e 7aa5 3dbe fc44 263d 015d 863e
00000070: de0d 213e 02bc 653e 4c96 583c c3d6 323e
00000080: 0d6f 493e b1e6 8e3e de62 9dbd 5cb3 6fbe
00000090: 517c 653d f4d7 dabd eb75 ae3e fb6d 2cbe
000000a0: a519 873e 8c9a 8cbd cf16 c5bd 1ce0 4abe
000000b0: 18d4 8cbd 055e c2be e70e 11be 90ad bbbd
000000c0: 4cfb a1bd 89b0 80be d3d7 8dbe c257 d5bd
000000d0: cdb1 823e 432f 00be a349 113e b3e9 01be
000000e0: 2e37 e5bc c236 58be 5142 0b3e 73d7 64be
000000f0: 5687 d63d 6fd6 713e 64f0 843d 8c62 273e
00000100: b82e 633e 496e 453d ac10 bb3e 9f44 43be
00000110: 1780 ba3e 54a7 16be 746a 7dbe 7f14 1d3b
00000120: caa7 123e c3e5 11be 2595 6dbd ce86 323e
00000130: 769b 2e3e 01b1 d33d 2278 ee3d a37f 893e
00000140: 9f31 51be 3d09 4fbd ccd2 5d3e cb27 2bbe
00000150: ac55 a23e f0f6 ddbd 835c 833d ecd5 753e
00000160: dd36 683e 939c dd3d f7f9 81bd 994f 0f3e
00000170: d6f1 103d 9625 27be 6db8 b03d 62d1 b0bd
00000180: 73aa 92bd ef80 073e 2c4b 32be 5ad3 abbc
00000190: ac05 643e b507 d1be a435 353e d7aa 0c3e
000001a0: 82a5 90be fbcc 6a3d 89de e6bc 5ce4 2b3e
000001b0: 09fd e63c ad30 b5bd 1512 803d 054d dd3d
000001c0: acea 083e 9482 393d 112c 393d e46c 143e
000001d0: 713f 59bd 58c9 753e 6bf0 40bd 51d7 75bd
000001e0: b85e ad3d 8dbc 7dbd 7357 8e3d cc32 973d
000001f0: 7f5e 8cbe 8581 8d3e d184 d9be 5216 153e
00000200: 26cf a9bd 4b54 303e b4dd eebc 30fe 8e3d
00000210: 4138 943c 84b2 6e3e dcdb 07be 8e92 f8bd
00000220: 7f15 39be 41ea 493e 9cfe 12be d93c a93e
00000230: 1e8c 5fbe 2eaf 1ebe bb6a 973c f4fa d13d
00000240: a703 fbbd 3a7d bbbc 097f 31be 9e5d 7b3e
00000250: 7d03 43be 66bb 393e 0abc 073d ca36 b0bd
00000260: 0481 ae3d 75eb 633e 04d3 0d3e 3440 103e
00000270: 8e03 653e d704 1abe 6958 403d 2afb 533e
00000280: f910 d93d 15e6 4cb9 da7a e0bd f1df 893e
00000290: 1307 0e3d 1465 9a3d d71a 17bd dcb8 933e
000002a0: bc2b a2bd d6ef 87bc 70d3 6ebe 38a5 223e
000002b0: 2745 863d ee7c bb3d e24a f4bd 4635 1e3e
000002c0: be0a 67be 16c3 353e 73ac 16be bbe8 c2bd
000002d0: a221 bdbe bbc1 d13d a51e 163e 1391 5c3e
000002e0: dcad e3be 1b79 86bd cb5b 683e 6673 2cbe
000002f0: 6cbe 163d db24 803b 4741 5abe 26b2 923e
00000300: b7ba af3e 4b9a 893c e629 24bd a83f 223e
00000310: 1269 253e 2b2c 91bd d0dc 163d cde7 dd3d
00000320: 59f2 883e cff5 3f3e 11aa cb3d d18e c43d
00000330: 58ee d8bc 963a 0b3e 9939 8fbe 9bd8 08be
00000340: 176b 08be ccfb 803e 7cf2 b3bd 0197 5e3d
00000350: b29c 41be 7ecd f2bc ac00 fcbd 9ccb aa3d
00000360: bf92 bd3d 191b 5f3d 2f30 ffbd e813 0dbf
00000370: 5d66 0c3e ce30 f83d 4d0e 0c3c cef6 b03d
00000380: 5cfb 2ebe 5c19 b73d b229 003e d869 db3d
00000390: 1c8c 9a3d d743 c3bd ddc5 753e 333d 013e
000003a0: c091 0fbe 9575 0e3e 93d3 bdbd fd6d 2f3e
000003b0: 2a0e 87be 4b67 933c 4bbf 5c3e d288 2ebc
000003c0: 1656 60be 7596 a0be f822 eb3c 14c0 0f3e
000003d0: 4d16 abbd 536b 833e b152 493e 47a6 e93d
000003e0: 109e 573e 2195 e9bd e733 b9bb b347 943d
000003f0: 0017 f6bb 7326 3fbe 7950 8d3e ccba 8abd

bias f4 [64]
-0.02369167 -0.006120349 0.0045327637 0.028686784 -0.00045511808 -0.019696962 0.012818071 -0.08203547
-0.005084549 -0.021694845 -0.027997682 -0.006598098 -0.036446463 -0.005338702 -0.04075227 0.014590644
0.017666856 -0.042882875 0.034836553 0.05262305 -0.026707992 -0.040537342 -0.017434243 -0.013670662
-0.069005504 -0.04063812 0.016867455 -0.034577094 0.026812034 0.03148706 -0.00041943174 -0.023847682
-0.0008370662 -0.0031820487 0.015244306 -0.011616634 -0.010731791 -0.023954103 -0.052846238 -0.03391642
0.03311684 0.028791554 -0.026693339 -0.032637622 0.0027474677 0.044553265 -0.020828681 -0.025788186
-0.0037719246 0.006789161 -0.020480003 0.02404096 -0.07174533 0.0032719031 -0.0068113157 -0.020975048
-0.001731189 -0.005966521 -0.066325076 -0.004931045 -0.057037916 0.0068057864 -0.05325237 0.013769916
00000000: 0815 c2bc 358d c8bb 9487 943b 8c00 eb3c
00000010: ea9c eeb9 865b a1bc e302 523c 3602 a8bd
00000020: 4a9c a6bb 63b9 b1bc 655b e5bc dc34 d8bb
00000030: e348 15bd 47f0 aebb daeb 26bd 990d 6f3c
00000040: 15ba 903c f4a5 2fbd c6b0 0e3d 448b 573d
00000050: b8ca dabc 7c0a 26bd 42d2 8ebc eafa 5fbc
00000060: c252 8dbd 2874 26bd 9e2d 8a3c b6a0 0dbd
00000070: e9a4 db3c 93f8 003d 2de7 dbb9 375c c3bc
00000080: 906e 5bba eb89 50bb 41c3 793c b253 3ebc
00000090: 65d4 2fbc 653b c4bc 4c75 58bd f2eb 0abd
000000a0: 86a5 073d 44dc eb3c fdab dabc 07af 05bd
000000b0: dc0e 343b 7c7d 363d e9a0 aabc bf41 d3bc
000000c0: 6532 77bb 9c77 de3b aec5 a7bc 8cf1 c43c
000000d0: 37ef 92bd 6d6d 563b 7531 dfbb ddd3 abbc
000000e0: 10e9 e2ba ce82 c3bb 71d5 87bd 9b94 a1bb
000000f0: 97a0 69bd 1303 df3b 281f 5abd 379b 613c

weight f4 [1, 64]
0.020240672 0.021633232 -0.10004015 -0.13168415 -0.012772646 0.0059325355 0.1772862 -0.35160226
0.0044084718 0.0076984116 0.028216515 0.025596723 -0.043236043 0.08550333 -0.046599355 0.00790956
-0.07527395 -0.13837326 -0.05353177 0.020008475 -0.0038456654 -0.35976353 -0.16459624 -0.06349687
0.14976823 0.07274836 0.0910571 -0.008808682 -0.013702913 0.16940328 0.022125166 0.07279559
-0.10952064 0.22473417 -0.11134869 0.06092078 0.00051743316 -0.0016732886 -0.030256176 0.00046514458
-0.047602914 -0.12727232 -0.027905568 0.058565594 0.07284026 0.07039452 0.06353505 -0.011078959
-0.0048871473 -0.081449546 -0.007021521 -0.12399156 -0.05366923 0.041293006 -0.014008286 -0.014646629
-0.0018162288 -0.004032942 0.039614256 0.0010273616 -0.36685562 -2.9575469e-05 -0.44693246 0.12715389
00000000: c4cf a53c 2d38 b13c dae1 ccbd 36d8 06be
00000010: 5c44 51bc b765 c23b 838a 353e 3605 b4be
00000020: f174 903b f542 fc3b 5226 e73c 38b0 d13c
00000030: 4718 31bd 5f1c af3d f7de 3ebd 1997 013c
00000040: 3b29 9abd b8b1 0dbe 2144 5bbd d0e8 a33c
00000050: 8f07 7cbb ed32 b8be eb8b 28be a60a 82bd
00000060: d85c 193e 18fd 943d 257c ba3d 4a52 10bc
00000070: 2f82 60bc 0e78 2d3e d63f b53c db15 953d
00000080: 5b4c e0bd b720 663e c80a e4bd 1188 793d
00000090: 5aa4 073a 4052 dbba cddb f7bc a6de f339
000000a0: 46fb 42bd ad53 02be 389a e4bc 7ae2 6f3d
000000b0: 462d 953d 012b 903d aa1e 823d 8684 35bc
000000c0: 5d24 a0bb 05cf a6bd ca14 e6bb 49ef fdbd
000000d0: 44d4 5bbd db22 293d 0383 65bc 6af8 6fbc
000000e0: 870e eeba c526 84bb 8f42 223d 89a8 863a
000000f0: 80d4 bbbe d618 f8b7 55d4 e4be a134 023e

weight f4 [5, 64]
0.016502852 0.0009515378 -0.020447142 0.012411002 -0.00022128838 0.0124800345 0.004320763 -0.0050015473
0.009234031 0.0043072244 0.00052339555 0.004086862 0.002494142 -0.006611419 0.0073024733 -0.0050816857
-0.0030100166 0.0067849434 0.0016304703 0.010100067 0.0026263935 -0.009309385 0.011077878 -0.012723984
-0.022069981 0.002758342 0.0016739846 -0.0077799954 0.00082057854 0.03322958 -0.030617448 -0.020421037
0.0015522894 -2.395111e-05 -0.010980173 -0.0019033456 0.011879549 0.0011612563 0.0051134024 -0.008710748
0.0005275654 0.001788957 -0.03277413 0.012648964 -0.0029927522 -0.019849775 0.00058257766 -0.006127031
0.0016582713 -0.018187251 0.00793676 -0.0099961525 -0.0005436848 -0.0009348189 0.01563551 -0.016181141
-0.0016361461 0.0023000797 -0.00068874186 0.0008993346 0.0018171477 -0.0053166547 -0.021279538 0.0053348765
-0.06000839 0.016741877 0.05493127 -0.049527396 0.0007427256 0.002586174 -0.0049493634 -0.0026458036
-0.041203763 -0.0042445622 -0.019592386 -0.0056815497 -0.006688581 0.005515583 -0.0010603114 0.0005654253
-0.020094378 -0.014450777 -0.0072117746 -0.038006432 -0.006593259 0.006542397 -0.051078245 0.009152169
-0.008395624 0.0011268121 0.0001395734 0.009052098 -0.0042926343 -0.10374888 0.009348312 0.033306576
-0.0108042015 0.003706356 0.035759516 -0.011023764 0.017143717 0.0024596492 0.0023828354 -0.007637776
-0.019108914 0.0020006378 0.018926298 -0.04728615 0.0315323 0.015316001 -0.012017754 0.008076791
-0.0017404454 -0.026381936 -0.029898606 -0.0012060148 -0.0029553585 0.0006127829 -0.008819913 0.00990131
0.0009276425 -0.015994078 -0.0015703358 0.0073885974 -0.04241065 0.011142077 0.0136379795 -0.01988133
0.011759444 -0.004902588 -0.026394043 0.00975945 0.0002843909 -0.004134986 -0.0036197864 0.0043782596
0.009622156 0.0048189266 0.00014068825 0.0032571123 0.0042742006 0.0072700465 -0.00797683 0.003745245
-0.0016375682 0.0055537494 0.0021965571 0.010975412 -0.0027627351 0.0056255283 0.0157215 -0.009335725
-0.015026114 0.007159891 -8.1577266e-05 -0.0011289982 0.005801691 0.027913583 -0.028010042 -0.020874968
0.004902993 0.003058427 -0.018447813 -0.006787984 -0.014360226 -0.0013502004 0.0035037885 -0.010396072
0.00546123 0.00070726627 -0.03999576 0.009009608 -0.0013897128 -0.024517538 0.012362135 0.0053934418
-0.0032783234 -0.01782598 0.010726376 0.00090793497 -0.0010807742 -0.0023407398 -0.0002417118 0.0022408303
-0.0018097269 -0.0022395765 -0.0023608315 -0.0050279195 0.008107745 0.0075870315 -0.0238247 0.008936537
0.017632823 0.0021699548 -0.03946315 0.013695683 -0.00085798715 -0.008134902 0.0013706137 -0.0031449194
0.014460107 0.004873415 0.0009195717 -0.004171854 -0.00017712121 -0.0035051566 -0.0024289906 -0.0019984753
0.005066307 0.011125876 0.0045433305 0.0040376117 0.0010260821 -0.0062609008 0.0069097583 -0.007914684
-0.015892673 0.00031403961 -0.00348131 0.0050318833 -0.009214079 0.0259707 -0.02598858 -0.027253656
0.0016529848 0.0062746876 -0.013971969 -0.0050252476 -0.0074588936 0.00034639073 0.0023264175 -0.008601974
0.011145256 0.0021827407 -0.03371259 0.006846477 -0.019215114 -0.023567665 -0.002075209 0.0014802363
0.0013624936 -0.017406369 0.00868684 0.0025220998 0.0041164057 0.00026381074 0.0040033413 0.0017769705
0.0018713559 0.0020874948 -0.0075902776 0.0024940637 0.011913045 -0.010905808 -0.026330426 -0.002009777
00000000: fd30 873c 9f70 793a c480 a7bc 8457 4b3c
00000010: a609 68b9 0f79 4c3c 3095 8d3b 05e4 a3bb
00000020: 554a 173c 9e23 8d3b 7b34 093a 15eb 853b
00000030: c274 233b 9aa4 d8bb 9649 ef3b 4584 a6bb
00000040: b343 45bb 3b54 de3b 81b5 d53a c07a 253c
00000050: 921f 2c3b 6486 18bc fd7f 353c 4278 50bc
00000060: 1bcc b4bc 4dc5 343b 9a69 db3a 55ef febb
00000070: 181c 573a bd1b 083d 71d1 fabc 054a a7bc
00000080: 3076 cb3a 9eea c8b7 2fe6 33bc ae79 f9ba
00000090: 71a2 423c 4c35 983a 548e a73b 86b7 0ebc
000000a0: 514c 0a3a 707b ea3a 2b3e 06bd 9a3d 4f3c
000000b0: 0d22 44bb ff9b a2bc 20b8 183a 43c5 c8bb
000000c0: 5a5a d93a 6efd 94bc 2f09 023c e7c6 23bc
000000d0: 1286 0eba a20e 75ba 0b16 803c 508e 84bc
000000e0: f473 d6ba efbc 163b af8c 34ba 53c1 6b3a
000000f0: 5c2d ee3a 5537 aebb 6d52 aebc 30d0 ae3b
00000100: 5ccb 75bd 4326 893c 9dff 603d 3ddd 4abd
00000110: 79b3 423a cd7c 293b 452e a2bb 3865 2dbb
00000120: 47c5 28bd f815 8bbb 3680 a0bc 4b2c babb
00000130: e22b dbbb 10bc b43b 26fa 8aba 0d39 143a
00000140: f79c a4bc f4c2 6cbc c050 ecbb a2ac 1bbd
00000150: 440c d8bb 9b61 d63b 6c37 51bd fbf2 153c
00000160: cd8d 09bc 8ab1 933a 735a 1239 404f 143c
00000170: 3aa9 8cbb 4b7a d4bd aa29 193c 7a6c 083d
00000180: 1b04 31bc 56e6 723b 9278 123d 049d 34bc
00000190: fb70 8c3c 1132 213b 5829 1c3b 4f46 fabb
000001a0: 4c8a 9cbc 221d 033b 530b 9b3c 1faf 41bd
000001b0: 0328 013d f7ef 7a3c 1de6 44bc 8454 043c
000001c0: a81f e4ba ee1e d8bc eced f4bc 2413 9eba
000001d0: b0ae 41bb 2aa3 203a 6581 10bc 1b39 223c
000001e0: 092d 733a 0306 83bc bad3 cdba 0c1c f23b
000001f0: cab6 2dbd 428d 363c d571 5f3c 2cde a2bc
00000200: afaa 403c e4a5 a0bb 5238 d8bc 1ae6 1f3c
00000210: 4d1a 9539 c77e 87bb f039 6dbb 8177 8f3b
00000220: 3fa6 1d3c 16e8 9d3b b785 1339 4775 553b
00000230: 980e 8c3b 9239 ee3b 40b1 02bc c972 753b
00000240: aca3 d6ba 3afc b53b 1df4 0f3b 37d2 333c
00000250: 010f 35bb 5a56 b83b 60ca 803c def4 18bc
00000260: 1730 76bc 859d ea3b 7614 abb8 e5fa 93ba
00000270: 1d1c be3b 07ab e43c 5175 e5bc fb01 abbc
00000280: 49a9 a03b e46f 483b de1f 97bc bd6d debb
00000290: 2747 6bbc 35f9 b0ba d19f 653b 4954 2abc
000002a0: 1ef4 b23b d667 393a 98d2 23bd 099d 133c
000002b0: 0627 b6ba 01d9 c8bc 8d8a 4a3c 78bb b03b
000002c0: 24d9 56bb ca07 92bc afbd 2f3c 7c02 6e3a
000002d0: c4a8 8dba 1967 19bb 0474 7db9 e5da 123b
000002e0: 5c34 edba dcc5 12bb 2eb8 1abb 3fc1 a4bb
000002f0: 59d6 043c a29c f83b 042c c3bc 8e6a 123c
00000300: b672 903c cd35 0e3b 1da4 21bd dc63 603c
00000310: 8bea 60ba 4148 05bc 2aa6 b33a fe1a 4ebb
00000320: 16ea 6c3c 2bb1 9f3b 6a0f 713a 0cb4 88bb
00000330: 9db9 39b9 c5b6 65bb b32f 1fbb daf8 02bb
00000340: 4303 a63b 4e49 363c 38e0 943b f14d 843b
00000350: 9a7d 863a 3e28 cdbb 416b e23b 97ac 01bc
00000360: 5a31 82bc afa5 a439 b126 64bb 7fe2 a43b
00000370: a6f6 16bc 81c0 d43c 01e6 d4bc 0f43 dfbc
00000380: f7a8 d83a e59b cd3b afea 64bc d5aa a4bb
00000390: bc69 f4bb c79b b539 cf76 183b 4bef 0cbc
000003a0: 989a 363c 500c 0f3b 3616 0abd 6958 e03b
000003b0: 0469 9dbc fa10 c1bc 3b00 08bb 7d04 c23a
000003c0: b395 b23a cd97 8ebc 3f53 0e3c d049 253b
000003d0: eae2 863b 1450 8a39 762e 833b 3ce9 e83a
000003e0: 4948 f53a 5ace 083b ddb7 f8bb 7273 233b
000003f0: ef2e 433c 46ae 32bc e8b2 d7bc 76b6 03bb

bias f4 [5]
-0.024768664 0.0267198 -0.02566109 -0.02436865 -0.023609873
00000000: a7e7 cabc 7be3 da3c 3537 d2bc c3a0 c7bc
00000010: 7e69 c1bc
