model/tiny-4/A2C/model_agent1_seed3.pt (torch, 101825 bytes, 11 tensors)

weight f4 [64, 119]
000000 aa e1 9f bd a9 32 66 be b1 17 4e bc 11 04 df 3b
       -0.07806714 -0.22480263 -0.012578891 0.0068059047
000010 72 cd 66 3d 74 ea 39 3e c9 78 f0 bd a3 66 c0 3c
       0.05634827 0.18155843 -0.11741788 0.023486441
000020 74 52 12 be 08 c7 51 bd d6 71 4d 3d 8a f8 2f 3e
       -0.14289266 -0.0512152 0.05015739 0.17184654
000030 ef bf 63 3d 93 9e 35 3e 14 bd 21 bd ba 10 52 3e
       0.055602964 0.17736273 -0.03948696 0.20514193
000040 ba 0a 0c bd d4 d4 2c 3e 78 bf c8 3c ce 8a 15 be
       -0.034189917 0.16878062 0.024505362 -0.14603731
000050 cf 19 97 3d 9a 1d 4a bb 16 eb 5f 3e 06 0d ab be
       0.073779695 -0.0030840398 0.21867022 -0.33408374
000060 b4 62 60 3d b8 99 1b be 97 59 29 be fb 40 0a be
       0.05478163 -0.15195358 -0.16538082 -0.1350135
000070 22 a4 40 3d 91 f7 24 be ab a1 d2 3d c8 7b 87 3e
       0.04703153 -0.16110064 0.10284742 0.26461625
000080 6d 64 57 bd ed 8e 08 3e b7 47 c8 3d 8c c0 7f 3c
       -0.052586008 0.13335772 0.097793035 0.015609872
000090 a7 69 ed bd c4 bb 75 b9 69 11 98 bc ef 3a c9 bd
       -0.11592417 -0.00023434969 -0.01856299 -0.09825694
0000a0 95 17 4a 3d 6f c0 3b 3d 97 ab 7c bd 6e fb 4d be
       0.049338896 0.045837816 -0.06168708 -0.20115444
0000b0 3e da ad 3d d2 5c 82 3b 98 75 11 3e 53 30 b1 bd
       0.08488892 0.00397835 0.14205015 -0.08651795
0000c0 dd 6a c5 3d b6 87 25 be 49 32 89 be b8 42 7e 3d
       0.09639523 -0.16165051 -0.26796177 0.062075347
0000d0 06 8d 79 bd 3e fb 8c 3b 44 7c cf bd 55 8e ff bc
       -0.060925506 0.0043024113 -0.10131124 -0.031195799
0000e0 ba f5 08 3e a0 b9 de bd b8 28 ce 3c 95 d3 59 3c
       0.13374987 -0.10875249 0.0251659 0.013295074
0000f0 47 a8 b5 be ff 3c a1 bd 40 09 41 3e ab 81 e2 3d
       -0.35479948 -0.07872962 0.18851185 0.110598885
000100 a7 6f eb bb d6 b3 c0 bd 72 38 2a 3e 1d a6 4f bb
       -0.007184941 -0.09409301 0.16623095 -0.0031684705
000110 15 5a 82 3d de 91 fe 3d 1c 28 d6 bd 39 df 8e 3d
       0.06364838 0.12430166 -0.10456869 0.0697617
000120 04 26 d3 3d 46 d0 ad be 75 2b a0 3d 49 bf 7b be
       0.10309985 -0.33947963 0.07820789 -0.24584688
000130 ed be 8c bd e6 78 d1 bd 7d 37 2a 3e 27 65 3b be
       -0.06872354 -0.10228138 0.1662273 -0.18300305
000140 52 cb 39 3d 78 08 bd 3d 9d c8 32 bd 22 69 bd bc
       0.045359917 0.09230131 -0.04364835 -0.02312142
000150 b0 d4 28 3e 67 c5 16 bd 46 be 68 be 7e ea e8 bc
       0.16487384 -0.03680935 -0.22728834 -0.028432127
000160 d0 76 0e 3e c1 b0 31 be 45 4a b0 bc 26 eb 8c bd
       0.13912511 -0.17352583 -0.02151979 -0.068807885
000170 03 05 f4 3d 16 45 c6 bc cf 59 00 3e b9 ff b0 3d
       0.119150184 -0.024202865 0.1253426 0.08642525
000180 4b 0c 65 3e 69 41 66 3d db 7e a3 3c fc fb b8 bb
       0.2236797 0.056214724 0.01995795 -0.0056452733
000190 8d 2f 0d 3e c3 f0 23 be 48 f8 7d bd 5e 4f b5 3d
       0.1378767 -0.16009812 -0.062004358 0.08853029
0001a0 60 39 78 bd 27 da 26 3d fa ad 63 3d 57 80 e1 3c
       -0.060601592 0.04073539 0.05558584 0.027527018
0001b0 ab 60 92 3c b9 ee 8c 3e e1 3e f9 bd 8a 9c 8b be
       0.01786836 0.2752588 -0.12170196 -0.27267867
0001c0 8c 5a 61 3c 66 da cc 3c 72 2d a7 ba 0a 6f 6a be
       0.013754498 0.025006484 -0.0012754633 -0.2289392
0001d0 fa 7d 2c 3d 43 0e d7 3c 81 97 15 be 19 0f e0 bc
       0.042112328 0.026251918 -0.14608575 -0.02735095
0001e0 ed 7a ab bc e7 3c b5 3d d7 fc d5 bd 04 86 8c bd
       -0.020932639 0.08849507 -0.10448616 -0.06861499
0001f0 94 d4 ce 3d 49 81 ae bd 7c ac 43 bd 10 b0 7b 3d
       0.1009914 -0.08520753 -0.047771916 0.061447203
000200 c9 29 26 3d 01 ce b6 bc ba 3c cb 3d 8f ed 5b 3d
       0.040567193 -0.022315027 0.09923692 0.05369335
000210 44 71 8d 3d fc 71 18 be a4 b8 5d bd 1c 7f 6c 3e
       0.06906369 -0.14887232 -0.054131165 0.23095363
000220 85 4c 2b 3e 99 80 02 bc 68 ac bf 3b b5 d4 ee bd
       0.16728409 -0.00796523 0.00584941 -0.116616644
000230 60 7a bc 3c bc 3b a3 be 59 e9 97 3d a9 b8 38 3e
       0.023007572 -0.3188151 0.074175544 0.18039192
000240 a0 33 10 bd 13 76 39 be 66 11 41 3e 8b e9 e2 3d
       -0.035205483 -0.18111448 0.18854293 0.11079701
000250 64 83 0a 3e cd c9 c9 3d 28 cb 90 3c 7d 01 0c 3e
       0.13526684 0.098529436 0.017674997 0.13672443
000260 f4 7a b8 be f9 29 e0 bd bd ae 02 3e 02 94 94 bd
       -0.36031306 -0.10945506 0.1276197 -0.07254793
000270 f1 fd 3c 3d a7 cd 2f be 46 98 00 3d 79 84 43 be
       0.046140615 -0.17168294 0.03139522 -0.19093503
000280 a4 c8 ba bd 93 e6 ec 3c 20 bb 09 b9 0f 89 ee bc
       -0.091203004 0.02891854 -0.00013135048 -0.029118089
000290 0b fe e3 bd bf a5 37 3e 8b 07 10 3e f8 37 47 bd
       -0.11132439 0.17934321 0.14065377 -0.04863736
0002a0 96 43 3d 3e f9 ca 83 be bd e0 04 bd 94 9f 0f be
       0.18482813 -0.25740793 -0.03244089 -0.14025718
0002b0 2f f3 d6 3d 8e a1 0a be b0 d2 0a be 08 52 94 be
       0.10495602 -0.1353819 -0.13556933 -0.28968835
0002c0 20 60 3e 3e 2b 24 83 3e 56 a7 e9 3c 5a d2 b7 bb
       0.18591356 0.2561353 0.028522175 -0.0056097927
0002d0 4f 50 d4 3d 30 60 af bd 53 21 c3 bd f5 76 82 be
       0.1036688 -0.08563268 -0.095278405 -0.25481382
0002e0 6e 55 a1 bc 78 cd 47 3e b1 67 d8 3d ab b6 6f 3c
       -0.019694056 0.19511974 0.105666526 0.014630954
0002f0 41 c1 d0 3d 41 d6 99 3b 11 92 c7 bc cd d4 8a bd
       0.1019311 0.0046947305 -0.024361642 -0.0677887
000300 39 26 50 be 05 0a 98 3e d6 bb 4d bd 9f 27 dd 3c
       -0.20327081 0.29695144 -0.050227962 0.026996432
000310 db 1c ea 3d 0a 97 17 3e 00 a3 76 3c 2e 9f ac 3d
       0.11431285 0.1480371 0.015053511 0.084287986
000320 22 0b 38 3d f6 5b 7d 3c 0f e4 04 3d 38 62 3f bd
       0.044932492 0.01546382 0.032444056 -0.046724528
000330 64 7a 00 3e 82 24 94 3c 8a 6b e9 bd 7e 6e 53 3d
       0.12546688 0.018083815 -0.113974646 0.051619045
000340 f8 66 4b bc dd 52 4d 3e b8 4e 06 be a6 e3 f1 bd
       -0.012414686 0.20051141 -0.13115966 -0.118109986
000350 ef 93 43 3e 8b e5 e8 bd cf 6f 6f 3e 85 ba 0f 3d
       0.19099401 -0.11371907 0.23382495 0.03508999
000360 f1 6c 52 be 88 22 b9 be 76 41 c1 bd 47 c5 67 bc
       -0.2054937 -0.36159158 -0.09436314 -0.014146156
000370 cb 40 0a be 01 e1 e7 bc 87 03 db bc ef 22 10 be
       -0.13501279 -0.028305532 -0.02673508 -0.14075826
000380 1a 04 88 bd c8 6c 21 be c4 5d 61 3d 3e f6 01 bd
       -0.06641407 -0.15764153 0.055021062 -0.031728975
000390 9b 06 cc 3d 1b aa e7 3d fa 77 bc 3d 8b 0a a8 3d
       0.099621974 0.11311742 0.09202571 0.08205136
0003a0 87 01 58 bc cb cb 91 3d 2a 3f 25 3d 0c 6c a4 bd
       -0.013183958 0.071189485 0.04034344 -0.08028421
0003b0 c6 19 3e bd 1b b3 27 3e cc 4a 38 3d 32 fd 8e 3e
       -0.0464113 0.16376917 0.044993207 0.27927548
0003c0 a6 64 df 3d f6 7d d9 3c 69 b5 2d 3b b8 86 d9 3d
       0.10907869 0.02654932 0.0026505834 0.10621399
0003d0 39 b6 9f be 09 2a 1c be 92 d8 a4 bd 56 93 91 3d
       -0.31193712 -0.1525041 -0.0804912 0.0710818
0003e0 af 9c 7b bd a7 54 4b be 4e f4 d9 3c 51 b3 11 3e
       -0.061428722 -0.19856511 0.026605751 0.1422856
0003f0 3c 0f 43 3e a0 3a 09 3e 9d 44 17 bd a9 7b 08 be
       0.1904878 0.1340127 -0.03693067 -0.13328423

bias f4 [64]
000000 16 59 0f 39 35 8f a3 3b 6a 32 e8 3b b8 09 17 3b
       0.0001367073 0.004991437 0.007086088 0.0023046564
000010 d8 9e ff bb fc 8a cc 39 34 93 56 bb d5 22 53 b9
       -0.007800918 0.00039013464 -0.0032741548 -0.00020135504
000020 84 18 57 bb 90 43 ed ba 3b 19 7c 39 fc 4c f3 ba
       -0.003282101 -0.00181018 0.00024041992 -0.0018562372
000030 93 82 2a bc ae b4 69 bc 9c bb dc bb d7 bf aa ba
       -0.010407108 -0.014264269 -0.006736232 -0.0013027143
000040 be df 00 bb 42 9e 7b 3a 46 f6 cd 3b bd ce e6 bb
       -0.001966461 0.00095984724 0.0062854616 -0.007043688
000050 3c 92 47 ba b9 e7 fc 3b 0c e9 4a bb c0 5e 1e b9
       -0.0007613038 0.007718053 -0.003096166 -0.00015103351
000060 75 5d d0 bb 3c 9c 99 b9 c3 c6 a5 bb 5e e2 08 b9
       -0.006358797 -0.00029298838 -0.0050590946 -0.00013054299
000070 e0 4f 26 3a d0 f1 cb bb ed 44 ab bb 29 bb 93 bc
       0.00063443 -0.0062238947 -0.0052267225 -0.01803358
000080 5f df 04 3c f4 5d 34 bc e4 36 6e 3b af 0f 4a bc
       0.008109896 -0.011008728 0.0036348635 -0.012332841
000090 eb 6f 11 b8 28 02 42 bc fb 3a 9d bb 6d f6 25 bc
       -3.4674926e-05 -0.011841334 -0.004798291 -0.010129553
0000a0 8a 3e 37 bb 3c 13 2f bc 72 e8 70 bc 77 45 4a bb
       -0.002796086 -0.010685738 -0.014703857 -0.0030864158
0000b0 17 08 ba bc 3f 5f e0 3b a2 c0 a7 3b 87 8b 9f bb
       -0.022708936 0.0068472917 0.005119399 -0.004868928
0000c0 4d b7 ef b9 3d 47 95 39 af 32 26 bc 50 a4 01 bc
       -0.00045722202 0.0002847257 -0.01014392 -0.00791271
0000d0 14 1d a2 3b 54 a5 f6 ba 92 e5 91 ba af cc 9e 3b
       0.004947314 -0.0018817582 -0.0011131039 0.0048461775
0000e0 66 c6 1b 3a 13 00 0c bb 9a 82 85 3b fc 41 c8 bc
       0.00059423444 -0.002136235 0.004074407 -0.024445526
0000f0 d3 62 96 bc 38 4b 24 ba 1c c1 87 3b 56 af 99 bb
       -0.01835767 -0.0006267312 0.0041428935 -0.004690091

weight f4 [64, 64]
000000 2e d2 2f be 1a 96 55 bd 17 4f 65 3b 06 90 c1 be
       -0.17170021 -0.0521451 0.0034989768 -0.37805194
000010 b6 38 18 3e fe 28 1d 3e ea 85 0d 3d d5 1b 5c be
       0.14865384 0.15347669 0.03455154 -0.21494992
000020 70 76 e8 3c 95 a1 6f 3d 82 72 90 bd 6e d7 aa bd
       0.028376788 0.058503706 -0.07053091 -0.08341871
000030 f6 e8 a1 be 70 4e ed 3c 6c 7a 11 3e 6d 2a 3b 3c
       -0.31623048 0.028968066 0.14206856 0.011423689
000040 a9 18 7a be 29 dc e7 bd 8a 3b 07 be cc e2 52 be
       -0.2442347 -0.11321289 -0.13206306 -0.20594329
000050 b3 dd 94 3b 45 ab fe bd 76 45 59 be 87 33 d9 be
       0.00454303 -0.12435011 -0.21217903 -0.42422125
000060 44 b8 38 3d 25 60 bc 3d f0 8f 34 3e b5 1b b9 be
       0.045097604 0.091980256 0.17633033 -0.3615395
000070 c2 10 b0 be 20 06 33 3d 6a c5 68 be 0f 1d 18 be
       -0.34387785 0.043707013 -0.22731557 -0.14854835
000080 79 ad 12 3e 8c 64 cd bb 48 2e 22 bd 04 26 3c 3d
       0.14323987 -0.0062680896 -0.03959492 0.045934692
000090 5d 21 0a 3e 31 6e 96 bc 68 e5 76 3e 3d 37 91 bc
       0.1348929 -0.01836309 0.24110949 -0.017726535
0000a0 11 71 55 3e 0f 92 2b bd 74 f2 d7 bc 4d ee 38 be
       0.20843913 -0.04188734 -0.026360728 -0.18059655
0000b0 0e 3c dd 3d 78 74 d5 3d b9 dc 23 3e df e2 42 bd
       0.1080247 0.10422605 0.16002168 -0.047579642
0000c0 8a 4c 36 3e 12 92 3e 3e 33 f8 84 3d 51 c1 46 bc
       0.17802635 0.18610409 0.06492653 -0.012131051
0000d0 69 fd e2 be 0a d8 aa 3d 22 50 25 be 59 03 41 3d
       -0.44333962 0.083419874 -0.1614385 0.047122333
0000e0 53 4f 34 bd d2 be 9f 3d 3f 4b 9c 3e d1 b0 69 be
       -0.044020962 0.07800068 0.30526158 -0.22821356
0000f0 62 dd 44 3e 86 89 34 be 68 96 88 3d e6 db 9d 3e
       0.19225076 -0.17630586 0.06669313 0.30831832
000100 1c 78 21 bd a0 4c ee bd 00 4f ad 3d 6a e5 b9 bd
       -0.039421186 -0.11635709 0.08462334 -0.090769604
000110 e1 12 12 be 52 e7 ca bd 23 40 cb 3e a2 9f 04 3e
       -0.14265014 -0.09907402 0.3969737 0.1295152
000120 80 b0 59 bd 13 56 e5 bb 26 00 e2 3d 6e d1 61 3e
       -0.05314684 -0.0069987862 0.110351846 0.22052547
000130 ce 5b 3f be 11 8e 47 3c 7e d2 ef be 8a a1 b4 be
       -0.18687364 0.012179867 -0.4684028 -0.35279495
000140 ae 91 9a bd b1 12 bd 3c d4 54 99 3b 1b d4 89 3d
       -0.075473174 0.023080202 0.0046793018 0.06729909
000150 bb 97 2b 3e 26 cb d2 be d1 c8 63 3c 26 5a c5 3d
       0.167571 -0.41170615 0.013902859 0.09636335
000160 db 40 41 bc fb 9c 11 3e 50 9a 95 3d ff 0e cd bd
       -0.011795248 0.1422004 0.073048234 -0.10012626
000170 2b f0 54 bc b6 10 44 be 9d 2e 30 bd 63 c5 d7 3d
       -0.012996714 -0.19147 -0.043013204 0.105356954
000180 f9 42 5e 3d b5 c5 68 3d 3d 0a 12 be 1a c7 f9 3c
       0.05426309 0.056829173 -0.14261718 0.030490447
000190 5e 87 8f be bd b7 37 3e 40 18 07 be b2 a3 50 3e
       -0.28032964 0.17941184 -0.13192844 0.20374945
0001a0 1e 16 85 3e 50 8e c2 bc 18 ef 02 bc cd 52 6d bd
       0.25993437 -0.0237495 -0.007991575 -0.057940293
0001b0 5e 0d 8a bd df 8c dc bd ae 4c ed bd 94 6a 28 bd
       -0.06740831 -0.107690565 -0.11586891 -0.041117266
0001c0 ed 1d 07 be b0 ff f1 bd a1 51 69 3e b7 66 3d 3e
       -0.1319501 -0.11816347 0.22785045 0.18496214
0001d0 cd 4a dd 3b da 61 a6 3d fc 51 a7 3e 3c 3a 37 be
       0.0067533017 0.081241325 0.32679737 -0.17893308
0001e0 59 f1 a4 be 10 46 11 3e 07 3e 13 be 20 a7 2d be
       -0.32215384 0.14186883 -0.1437913 -0.16958284
0001f0 00 e4 75 3e 51 b1 40 be 0d e0 d6 3e 13 55 9d bd
       0.24012756 -0.18817641 0.41967812 -0.07682242
000200 90 f8 84 3e 42 51 b5 3b 28 ef 30 3e 40 82 7e 3e
       0.25970888 0.0055333683 0.17278731 0.24854374
000210 71 44 ab 3c d5 c4 0a 3e e1 6d 96 3e a7 fe 89 bd
       0.020906659 0.13551648 0.29380706 -0.06738024
000220 b9 8f e1 bd 5a 09 bf bd c2 1f 88 bd 73 ec cf bd
       -0.11013741 -0.093279555 -0.06646682 -0.10152521
000230 1b 62 de bd 6c c9 8b bd 83 70 b5 3c 46 6c 00 3e
       -0.10858556 -0.068255275 0.022148376 0.12541303
000240 6c bf f5 bc 6f 46 c4 bd ee d9 44 3e 85 a3 80 bb
       -0.029998504 -0.09583747 0.19223759 -0.003925743
000250 f1 99 d0 bc 46 18 34 3c 51 be d8 bd 43 5a 81 be
       -0.02546403 0.010992115 -0.10583175 -0.25264177
000260 12 6b 15 3e 55 33 d0 3d 3b 34 32 be 55 7d a8 be
       0.14591625 0.10166041 -0.17402737 -0.3290812
000270 c7 83 b7 3d 13 12 b5 bd 2b 07 d9 3d 7e e3 b7 be
       0.089606814 -0.08841338 0.1059707 -0.3591575
000280 a2 da 52 be 60 01 1d be 2a d3 1c be 3c 32 af 3d
       -0.20591214 -0.15332556 -0.15314928 0.08554503
000290 77 14 c0 bd 3e 35 0d be 5d 6b ad bd 28 bb 63 be
       -0.09378903 -0.13789842 -0.084677435 -0.22239363
0002a0 50 cc 36 3c 6d 9b eb be bc a1 d0 3c 93 84 32 bd
       0.01115711 -0.46017018 0.025467746 -0.043583464
0002b0 bf d8 f9 bd 3c b9 bf be ba 27 46 3d b8 eb 78 3d
       -0.12199544 -0.3744601 0.04837773 0.060771674
0002c0 88 45 ab bc df ca 96 3e 90 40 bc bc d8 a0 5c be
       -0.020907179 0.29451653 -0.022980005 -0.21545732
0002d0 1c 3a dc bd 0d fc ae 3e f5 3a f7 3d 10 1e c9 bd
       -0.10753271 0.34176674 0.12071792 -0.09820187
0002e0 15 44 70 3e 5a 08 fe bd 68 69 4e bc 88 30 2d 3e
       0.23463471 -0.12403937 -0.012598373 0.16913044
0002f0 aa 79 e3 bd 4d 7b 51 3b ce 39 82 3e ce a3 e1 be
       -0.1110719 0.0031964362 0.25434726 -0.44070286
000300 54 5b c6 3d 0c 36 96 3b 69 a2 a3 be fa ef e0 bd
       0.09685388 0.0045840796 -0.31959847 -0.10983272
000310 34 2e 56 bd 25 78 b7 bd 2e 1c 9b 3d 01 2f 63 be
       -0.052290156 -0.089584626 0.07573734 -0.221859
000320 7a 7b a3 3c bd ab 59 3d 42 17 2c 3d 92 b2 bf bc
       0.01995634 0.053142298 0.042014368 -0.023400579
000330 92 42 63 3e d1 67 87 bd 25 85 ab be 07 73 f3 3d
       0.22193363 -0.06611598 -0.3350002 0.11887174
000340 f2 86 7b 3e 01 f4 b0 3c 14 92 cb 3e 71 73 87 be
       0.24563196 0.021600725 0.39759886 -0.26455262
000350 b2 46 4b bd 35 9d 25 3e e0 c6 cf 3c a4 b3 33 bd
       -0.049627967 0.16173251 0.025363386 -0.04387249
000360 75 94 8b 3a dd 4c 93 3e 5a 2b 73 bd c3 e0 64 3d
       0.0010649102 0.2876958 -0.059367515 0.055878412
000370 46 7a db 3d 2e 09 e5 bd 4b 6c 8f bd a8 36 16 be
       0.10716681 -0.111833915 -0.07003077 -0.14669287
000380 fe b5 39 bd c4 a8 fc bd af 36 02 be 0b bd 11 3d
       -0.045339577 -0.12336877 -0.12716173 0.035580676
000390 ba dc 0a 3d 62 fd a6 be 6a 18 12 3e db b5 59 bd
       0.033901908 -0.3261519 0.14267126 -0.053151947
0003a0 5a 38 5d 3e da 34 e2 3e 2d 4d 2b 3d 41 45 c9 3a
       0.21603528 0.44180948 0.041821647 0.0015355722
0003b0 70 88 9d 3b bb 5c 38 be c7 b8 bb 3c 00 a1 ee 3e
       0.0048075244 -0.18004124 0.022915257 0.46607208
0003c0 49 23 dc 3e 94 23 0a 3e f0 2d 2c 3e 3e aa 68 3e
       0.4299567 0.13490134 0.16814399 0.22721192
0003d0 44 fd e3 bc d3 10 55 be 8a d0 16 3e 59 68 08 be
       -0.027830727 -0.20807199 0.14727989 -0.13321055
0003e0 f7 f2 ac 3d 9f 60 de bc 25 e2 36 bd fb 3e 5f 3e
       0.08444779 -0.027145682 -0.044649262 0.21801369
0003f0 29 e1 44 3e cb a7 a9 3c 20 c8 5d 3d d6 03 4c 3e
       0.19226517 0.020709893 0.054145932 0.19923338

bias f4 [64]
000000 eb 1d 8a bb 81 df e3 bb ce 98 3a b8 58 c1 75 bb
       -0.0042149923 -0.006954134 -4.4488166e-05 -0.0037499275
000010 f3 1c a7 bc 2b d7 4e bc c0 b3 64 3b 27 8c 74 bc
       -0.020399546 -0.012624542 0.0034897178 -0.014925993
000020 7c 7d 0c 37 47 20 be 37 18 da 8b ba e3 ee 27 38
       8.373867e-06 2.2664795e-05 -0.0010669855 4.0038383e-05
000030 4f 37 bf bb 41 f6 f0 b9 f0 5d e5 ba ed e3 aa bb
       -0.0058354507 -0.0004595984 -0.0017499309 -0.005215159
000040 c5 72 98 b8 4e 36 83 b9 1f 9a 54 bc 93 f3 81 bc
       -7.269302e-05 -0.00025026727 -0.012976198 -0.015863216
000050 87 c4 90 b6 76 f1 9e ba 38 35 99 bb 42 3c 4f 38
       -4.314413e-06 -0.0012126404 -0.0046755336 4.9408765e-05
000060 87 2c 85 bc 15 2c fe b5 3b c0 4e 32 72 27 0a bc
       -0.016256584 -1.8937304e-06 1.2034486e-08 -0.008432256
000070 bb c3 2a ba 4e 14 20 bc 56 1d b3 bb 11 14 3e bc
       -0.00065141515 -0.009770466 -0.0054661436 -0.011601464
000080 ed ce 9f bb e5 cb 03 bc 5e 77 a3 bb 00 c2 31 ba
       -0.0048769624 -0.008044218 -0.004988595 -0.00067809224
000090 1d 71 5e b8 ed 0b 66 37 c8 d1 78 bc dd d3 08 ba
       -5.303427e-05 1.3711845e-05 -0.0151867345 -0.00052195584
0000a0 c6 ef c9 bb 24 eb d7 ba 74 69 ee bb e3 23 92 bb
       -0.0061626164 -0.0016473276 -0.0072757546 -0.0044598444
0000b0 7a 3c 46 bc 71 12 8b bc 84 cb 9b bb ff ef 41 bc
       -0.01209938 -0.016976567 -0.0047544856 -0.011837005
0000c0 62 da 48 bc 05 a7 b3 3b b0 51 96 ba 95 9d 9c ba
       -0.012259098 0.0054825568 -0.0011468437 -0.0011948819
0000d0 dd 75 e5 35 ee e8 87 39 05 f4 61 bc b9 64 3d bb
       1.7096132e-06 0.00025922753 -0.013791089 -0.0028899147
0000e0 d1 da c3 36 71 50 b0 37 0c 43 51 bc e1 1f bd bb
       5.8369264e-06 2.1018293e-05 -0.012772333 -0.0057716225
0000f0 ae e8 a8 b8 0b 02 57 39 16 77 18 bc cd 0f 80 bc
       -8.054204e-05 0.00020504759 -0.009305736 -0.015632534

weight f4 [64, 119]
000000 ab 9e 15 bc 9a 1c 11 be d1 b0 1a be 17 f8 34 3c
       -0.009132068 -0.14171067 -0.15106513 0.011045477
000010 30 9b 14 be fa c9 d2 bd 7a 6f e9 bd f5 00 fb 3c
       -0.14512324 -0.1029243 -0.113982156 0.030640105
000020 82 1a 65 bd 41 12 ac bc c3 02 1d 3d d0 e1 4d bd
       -0.055933483 -0.021004798 0.038332712 -0.05026418
000030 d5 52 fb 3d 2d 6f 97 3e 9c 17 1e 3e 22 71 30 bc
       0.12271658 0.29577008 0.15438694 -0.01076916
000040 0f a0 a4 be a4 97 20 bc 21 21 28 be 25 c4 91 3d
       -0.32153365 -0.009801779 -0.16418888 0.0711749
000050 95 b8 02 be 80 39 16 3e 98 8c a0 3e 01 57 ff bc
       -0.12765725 0.14670372 0.31357265 -0.031169416
000060 b0 ea 18 3e cf 9f 39 be 58 b8 0b 3e 11 8f 8b 3d
       0.14933276 -0.18127368 0.1364454 0.06814397
000070 7c 3f 69 bd ea b7 1c 3d 4b 77 c1 bd 9a b1 66 3e
       -0.05694531 0.03826133 -0.094465815 0.22528687
000080 e0 3f 2e be 46 87 e8 3d db d1 29 3c 62 4b d9 bd
       -0.17016554 0.11353926 0.010364975 -0.10610081
000090 aa 49 04 3d f1 cb 6f 3e 43 4f 09 be 4b a1 13 be
       0.032296814 0.23417641 -0.13409142 -0.14416997
0000a0 d6 48 9a be e3 2c f6 bb 38 5b d6 bd d8 ba 9e 3d
       -0.30133694 -0.007512675 -0.10466617 0.07750481
0000b0 40 e7 4b 3d 03 57 3d 3e 89 13 3d bb 91 66 93 3e
       0.049781084 0.18490224 -0.0028850755 0.2878919
0000c0 f7 08 a5 3d c9 65 30 be 72 25 b7 3d 7f e7 87 bc
       0.080583505 -0.17226328 0.08942689 -0.016589878
0000d0 bd e0 7f bc 38 29 9d bd 58 b2 83 3d d8 e9 31 3e
       -0.015617547 -0.076738775 0.06430501 0.1737436
0000e0 19 da 06 be 8b 02 3d 3b 9a 5b 85 bd 00 91 1b 3e
       -0.13169135 0.0028840627 -0.06511612 0.15192032
0000f0 df 14 57 bb 5b 2a 2b be 8d 3c 94 3d 43 e2 0e be
       -0.0032818837 -0.16715376 0.07238112 -0.139535
000100 c5 fc d0 bd 0d 3a 42 3c dc f2 b9 3c b8 06 17 be
       -0.10204462 0.011854661 0.022698812 -0.14748657
000110 f9 19 45 3e 8d cf 20 3c 73 f5 bb bd 51 65 54 bd
       0.19248189 0.009815109 -0.09177675 -0.051854435
000120 9a 91 8d 3d 68 70 31 3d d7 04 d3 3d 02 d3 e3 3c
       0.06912537 0.04332009 0.103036575 0.027810577
000130 19 70 25 3d 41 9b 1c be 24 a1 0b be e9 80 3b 3c
       0.040390108 -0.152936 -0.13635689 0.011444309
000140 51 bf 61 3d 9c cf e4 3d 73 f2 be 3d 3d 18 c6 bd
       0.055114094 0.11172411 0.09323587 -0.09672592
000150 6c ba 1d 3e 15 44 4b 3e 20 a9 87 3d 85 a3 0c bb
       0.15403146 0.1985019 0.06624055 -0.002145977
000160 c3 f9 29 3e ea f5 21 3e ec 14 42 3e 5d d2 a6 bc
       0.16599183 0.15816465 0.18953294 -0.02036398
000170 65 56 64 bd 14 bf 8e bd f7 6f e9 bd 6b 2d 1c 3e
       -0.055746455 -0.06970039 -0.11398309 0.152517
000180 d6 af 90 bc 21 56 1f 3e 87 69 e6 3c f2 4e 99 bc
       -0.01766197 0.155602 0.028126491 -0.018714402
000190 d1 6e b3 bd d0 69 87 bd 78 74 0d be 1e 02 3d 3d
       -0.08761371 -0.06611979 -0.1381396 0.046144597
0001a0 68 23 16 3d c5 a7 48 bd 5d cc ca 3d d5 b6 82 3e
       0.03665486 -0.048988122 0.099022605 0.25530115
0001b0 80 a0 e7 bd 54 8d 96 3c f2 59 02 bd 34 70 80 3d
       -0.1130991 0.018377937 -0.03182406 0.06271401
0001c0 6f 62 b9 3e 50 47 ce 3c 73 ff 36 3c d0 5f dd bc
       0.3620791 0.025180489 0.011169302 -0.027023226
0001d0 11 2c ff 3d 50 53 b7 3d 80 82 1f 3e 0a c1 93 3d
       0.12459577 0.089514375 0.15577126 0.07214554
0001e0 a6 2d db 3b 08 d4 f9 3d a9 f9 f8 bd 21 f5 3a bb
       0.0066887913 0.12198645 -0.12156994 -0.0028527456
0001f0 7f 40 e0 bd f1 67 43 bd e8 01 ae bd 8c 6b aa 3c
       -0.10949802 -0.047706548 -0.08496457 0.020803235
000200 28 d8 00 be 15 9c ad bd 74 9f 40 3d 9b 02 aa bd
       -0.12582457 -0.08477036 0.047027066 -0.08301278
000210 92 ef c3 3d df 49 7d bd ba f4 80 3d bb 65 56 3e
       0.09567179 -0.061838027 0.06296678 0.20937245
000220 ea 38 0e 3e 8d 1e 9a 3e 1d e9 8d 3d 4d bc 60 bc
       0.13888898 0.30101433 0.069292285 -0.013716769
000230 46 51 3f 3e e5 fa a6 bc f1 d6 0a 3e 7f 8c 06 3e
       0.18683347 -0.020383308 0.13558556 0.13139533
000240 8c 3e ea 3d 9c 44 c9 3d 88 63 d9 3d bf 9d 25 be
       0.11437711 0.09827539 0.10614687 -0.16173457
000250 79 0a 08 be 92 7e 9b 3d 3a 60 51 3d f1 fa ad bd
       -0.13285245 0.07592501 0.05111716 -0.08495129
000260 db 41 df bc 03 53 7b 3c f6 ce a6 bd 08 bc c6 bc
       -0.027253082 0.015339616 -0.081449434 -0.024259582
000270 e9 e1 89 bd f1 5c 8c 3d 09 0c 96 bd df a7 fd bc
       -0.06732542 0.06853665 -0.07326514 -0.030963836
000280 70 20 4a 3e ca 18 9a bd df f1 57 3e 33 1b f1 3d
       0.19738936 -0.075242594 0.2108836 0.11772766
000290 9a d2 c6 3d 13 10 11 3e 6c 00 80 bc 04 74 c6 3d
       0.09708138 0.14166288 -0.015625201 0.09690097
0002a0 28 46 ca 3c 06 a0 06 3d a7 42 c0 bd ab a7 1d be
       0.024691656 0.032867454 -0.09387713 -0.15395992
0002b0 48 9e 39 3e c5 a2 d6 3c c7 db e6 bd 9f 07 37 3e
       0.18126786 0.026200661 -0.11272388 0.17874001
0002c0 a0 a1 d2 bd bc ff c1 bd a3 7b a9 bd 85 fc 6b 3d
       -0.10284734 -0.094726056 -0.08275535 0.05761387
0002d0 c2 3c 08 bd 32 07 59 bd 6f 13 cb 3d f5 eb 0b 3e
       -0.03326107 -0.052985378 0.09915816 0.13664229
0002e0 d0 ba 97 3d 77 fa e6 3d 50 71 6f 3d 19 0f 60 3c
       0.074086785 0.11278241 0.058457673 0.013675475
0002f0 91 57 f5 3d b1 e7 2b bd fe 44 22 be 7a f1 ce 3d
       0.119795926 -0.041969005 -0.15846631 0.10104652
000300 9b 2d 9d bd f3 e5 d0 3d b8 56 a5 bd 8f 32 47 bc
       -0.07674714 0.10200109 -0.08073181 -0.01215805
000310 8c 2e f2 be 4a 01 62 be a7 ec 87 3d 48 d0 5c 3e
       -0.47301137 -0.22070804 0.06636935 0.21563828
000320 29 89 05 3d fa 99 69 3e 28 fd af 3c a6 49 5c be
       0.03260151 0.22812644 0.021483019 -0.2151247
000330 c1 d9 2c b9 62 c6 cf bd 37 0e 28 be 0c f0 3a 3d
       -0.00016484318 -0.101452604 -0.16411673 0.045639083
000340 01 64 6e be 7a 51 da 3d 29 8c e8 3c 06 f4 12 be
       -0.23280336 0.10660072 0.028387146 -0.143509
000350 87 71 66 bc 50 5a 39 3e ed 41 05 3e 0f a5 de bd
       -0.014065153 0.18100858 0.1301343 -0.10871326
000360 5b 54 25 be d0 1b 5b be ac 8f 21 be ca ae 20 3e
       -0.1614546 -0.21397328 -0.15777463 0.15691677
000370 dc 3c b7 3d ad 14 0f be cd 00 39 be 89 dc e6 3c
       0.08947155 -0.13972731 -0.18066712 0.028181331
000380 96 7a 0a 3e 21 26 0b 3e b5 29 41 3e b1 7a bb bd
       0.13523325 0.13588764 0.18863566 -0.09154261
000390 72 da 05 3e 68 be 6a 3d 53 cb 9f 3c 86 75 88 3d
       0.13071612 0.05731049 0.019506132 0.06663041
0003a0 66 09 f3 3d 04 59 af bc 16 f8 e6 3d b3 c6 ac bd
       0.11867027 -0.02140475 0.112777874 -0.08436336
0003b0 b9 0a 45 3d 02 98 05 be 8b 5e 6e be 3e db 21 3d
       0.04810593 -0.13046268 -0.23278253 0.039515726
0003c0 5d 7a 4a 3e 7f 94 37 be 3c 4a 0f be 38 60 02 be
       0.1977324 -0.1792774 -0.13993162 -0.12732017
0003d0 9c ff 7b be 6b bf 31 3d ef 5f 52 be 01 f3 8a be
       -0.24609226 0.04339544 -0.20544408 -0.27138522
0003e0 97 ef 6a bd fa c8 27 3e 20 e8 27 be 5d f2 1c be
       -0.057357397 0.1638526 -0.16397142 -0.15326829
0003f0 06 41 84 bd 60 b1 d9 3d a2 6d a9 3d 4c c9 1e 3e
       -0.06457715 0.10629535 0.08272864 0.15506476

bias f4 [64]
000000 f0 49 28 bd ba 7f 34 3c d6 cb 99 bc eb aa 08 bc
       -0.041086137 0.0110167805 -0.018773954 -0.008341531
000010 b4 eb 9d 3a f6 f1 5d bc 73 73 3e bc 44 7c 30 bc
       0.0012048394 -0.0135464575 -0.011624205 -0.010771815
000020 ec f2 2e bc cf 72 ca 3b 83 0c c8 ba 59 e0 a7 3c
       -0.010678034 0.006178237 -0.0015262518 0.02049272
000030 f0 c0 51 bb 73 bd ae ba 91 cb 1a bc 92 bb 8f bc
       -0.003200587 -0.0013331607 -0.009447948 -0.017545495
000040 6d 74 97 3c d0 7f 03 3c 54 fc d0 bc d9 a8 02 bd
       0.018488133 0.008026078 -0.025510944 -0.031899307
000050 62 4b 03 bd 2a 42 dd bb f0 05 be bb cf 32 88 3b
       -0.032054313 -0.006752272 -0.0057990476 0.0041564475
000060 2f 84 86 3c fb b2 2f bd 5d 27 d0 3c a8 02 02 bd
       0.016420452 -0.0428953 0.025409395 -0.031740814
000070 b0 37 16 3a 04 af 92 bc 39 29 9d 3b 11 c1 b2 bc
       0.0005730344 -0.01790572 0.004796174 -0.021820577
000080 f9 d8 d4 bc 6f 54 3d 3c 1f 41 2c bd c3 c2 ff bc
       -0.025982367 0.011555775 -0.04205429 -0.0312208
000090 01 fc 63 bd 01 80 01 3d 98 e8 7b bb 1f 90 cf bc
       -0.05566025 0.031616215 -0.0038438197 -0.025337277
0000a0 fc cf 2f bd 85 77 f0 bc 8a 47 f0 3b c1 5f b3 3a
       -0.04292296 -0.029353866 0.007332747 0.0013685153
0000b0 c5 d8 cf bc 70 18 e0 bc 6c 8f c2 bc 83 1c 9f bc
       -0.025371918 -0.027355403 -0.02375003 -0.019422775
0000c0 0f f6 08 bd f6 0a 3f bc d4 10 43 3d 8d 4c c3 3c
       -0.033437785 -0.011660328 0.04762347 0.023840213
0000d0 cd 6d e4 bc 08 82 b5 bc 97 6c df 3c 22 38 a9 bc
       -0.027884388 -0.02215673 0.02727346 -0.020656649
0000e0 2e b0 8b bc ab fa ae bc 0d 9f 29 bd da 8e 81 3c
       -0.017051782 -0.021359762 -0.04141145 0.015815187
0000f0 e1 2b af 3c 50 e4 4d bd f9 b2 2f 3d ee 1f 5d 3b
       0.021383228 -0.050266564 0.04289529 0.0033740955

weight f4 [64, 64]
000000 4a de 4a be 36 72 32 3d 29 be 5b bd 4c 45 16 3e
       -0.19811359 0.04356595 -0.053648148 0.14674872
000010 59 74 26 bd 42 1c 3e 3e d5 a9 ce be 51 e5 15 be
       -0.0406383 0.18565467 -0.40363947 -0.14638259
000020 db 2b 33 be 7d 43 8b be 3a 7b 96 bc 5f 83 94 bd
       -0.17497198 -0.27199927 -0.018369306 -0.072516195
000030 95 0d af bd d2 a2 dd 3d 0e fe f7 3d c3 ce b8 3c
       -0.085475124 0.10822071 0.12109004 0.02255953
000040 7f 66 94 3d 65 54 ae 3b b0 91 7d 3e ab 3b ce 3d
       0.07246112 0.005320119 0.24762607 0.100699745
000050 d1 e9 a2 3d 59 de 58 be 99 e6 0a be ee ed cd bd
       0.07954753 -0.21178569 -0.13564529 -0.10055147
000060 7f df 4d be da 02 e2 bd e6 76 70 bd 9d 6e 3a 3e
       -0.20104788 -0.110357 -0.05870714 0.18206258
000070 ba 48 6e be b9 44 c1 3d 4f 1c 77 3e 35 29 97 3e
       -0.2326993 0.09436936 0.24131893 0.29523626
000080 a9 e6 65 be 67 9a ca 3d 0a 04 39 3e 26 c2 c5 3d
       -0.22451271 0.09892731 0.18067947 0.096561715
000090 91 7b a3 3d ad 51 bb be 07 24 56 3e 04 61 51 be
       0.07982553 -0.3658575 0.20912181 -0.20447165
0000a0 f4 28 83 3e 9c 2a 30 3c d8 15 68 3c 9a b5 62 bd
       0.25617182 0.010752346 0.014165364 -0.05534897
0000b0 ff 2c 1b be ed ea 4f 3e 41 18 2e bc a1 be ce 3e
       -0.15153883 0.20304461 -0.0106259 0.40379813
0000c0 ce 20 4c 3e 12 eb b0 bd 35 0e c2 3d f6 06 46 3e
       0.19934389 -0.08638586 0.09475366 0.19338593
0000d0 19 59 8d 3d 2d 1d b2 be 4a e6 fd bd c1 f9 f4 bc
       0.0690176 -0.34787884 -0.1239744 -0.029904248
0000e0 39 c1 9a 3e 9d 4f da bd 6f b7 6a 3d 36 20 39 be
       0.30225542 -0.10659716 0.057303842 -0.18078694
0000f0 0c 69 03 be 59 df 8b 3e 09 b1 c8 bb ad 14 cc 3d
       -0.12833041 0.27318838 -0.00612462 0.09964881
000100 17 9b 01 3d 8b e9 82 be 8b 2b 7a bd 0b 4c 87 bd
       0.031642046 -0.25568804 -0.061076682 -0.06606301
000110 08 25 b8 be 43 8e 3b 3b 97 38 19 3d 70 27 2e 3e
       -0.35965753 0.002861873 0.037407484 0.17007232
000120 81 64 ce bd 5a c7 79 3e 45 d1 72 3e 55 36 76 3e
       -0.10077763 0.24392453 0.23712642 0.24044164
000130 aa 79 1b 3c 6b 6c ff 3d b4 20 34 be 7c c0 15 3d
       0.009489456 0.12471851 -0.175906 0.03656052
000140 ce b2 7a 3e b7 cf ae 3e e9 19 30 3e 75 4b 89 3c
       0.24482271 0.3414285 0.17197384 0.016759614
000150 99 73 8b 3c 6c a0 b6 bd 6c 68 29 3e 8f 50 11 3e
       0.017022895 -0.08917317 0.1654374 0.14190887
000160 1f a8 5b 3d a2 71 79 3e 64 8c 24 be 35 97 8c bd
       0.05362713 0.24359754 -0.1606918 -0.06864778
000170 59 9e 87 3e 2b c7 7d 3b 2d 5d b8 3d dd 98 9a 3e
       0.26487997 0.003872345 0.09002147 0.3019475
000180 6a d5 32 be 4b 7b c1 bd 73 0f 90 be f3 65 ee 3d
       -0.17464224 -0.094473444 -0.28136787 0.11640539
000190 19 c5 98 3a 14 82 3d be e8 11 40 3d cc 59 b3 3d
       0.0011655419 -0.18506652 0.046892077 0.08757362
0001a0 a9 23 f1 bd f3 ea 95 3d cc b0 90 3e a8 0b bd 3d
       -0.1177438 0.07320204 0.28259885 0.09230739
0001b0 24 44 ab bc bf 36 27 be d3 8d ee bc 21 32 93 3d
       -0.020906515 -0.16329478 -0.029120361 0.07187296
0001c0 a1 96 82 3e a1 58 8f 3e 0b 71 36 3e ef b9 7b 3c
       0.25505546 0.27997306 0.1781656 0.015364154
0001d0 30 83 79 be 70 f4 f4 bd cd be 31 bd 32 f0 13 3e
       -0.2436645 -0.11960685 -0.043394852 0.14447096
0001e0 d6 fc da bc 4e 0c f5 bb 9c 5b 35 3e 93 04 4d 3e
       -0.02673189 -0.0074782735 0.17710727 0.20021276
0001f0 e9 75 64 be e9 4d a2 bd 2c ba ac be ae 53 37 bd
       -0.22310604 -0.079250164 -0.33735788 -0.044757538
000200 e9 cb dc bd 94 b3 5d be a7 d4 66 bb 9b d1 39 3e
       -0.1078108 -0.21650535 -0.0035221966 0.18146364
000210 25 20 a1 3d 75 aa 03 be 17 98 b2 3d 9c 11 c7 bd
       0.07867459 -0.12857993 0.08720415 -0.097201556
000220 e7 53 a6 bc 1d 01 8d bd a1 ea 2e bd 56 c3 0f be
       -0.02030368 -0.06884978 -0.04270423 -0.14039358
000230 27 8e 34 bc 3a b3 97 bd 58 73 c1 3d c9 a2 fa 3d
       -0.01102022 -0.07407232 0.09445828 0.1223808
000240 4d d4 ed 3d da 54 a1 be df 5a 02 3f a8 4d 39 3e
       0.11612759 -0.3151005 0.5091991 0.1809603
000250 a9 5a 66 3e c2 35 7e bd c5 90 99 3d aa 5a 34 3e
       0.22495522 -0.062062986 0.07498316 0.1761271
000260 b4 13 60 be be 5e 62 3e 13 8e 34 be 13 c3 29 3d
       -0.21882516 0.22106454 -0.17632322 0.041445803
000270 e0 d3 3a be 0a b4 a1 3e 8e 39 ad 3c 18 8a b7 bd
       -0.18244886 0.3158267 0.021145608 -0.08961886
000280 73 ef 2a 3e 6c 0f 3c be 90 5b e4 bc a8 61 43 3b
       0.16692905 -0.18365258 -0.027875692 0.0029812846
000290 10 ea 22 3d 99 22 c0 bc 6f 9e 4b be 2c b2 5d 3e
       0.039774 -0.023453997 -0.19884656 0.21649998
0002a0 50 61 0a be 7a e8 00 3e ba de 49 3d f8 4c cd bd
       -0.13513684 0.12588683 0.049284674 -0.10024446
0002b0 67 30 76 bd ea a0 18 be 8b 59 85 be 55 84 74 be
       -0.060104754 -0.14905134 -0.26044878 -0.23878606
0002c0 7b 59 fd bd f6 84 a0 bd 5c 11 a4 3d 52 2c bf be
       -0.12370583 -0.0783786 0.080111235 -0.373385
0002d0 dc 50 72 be aa c5 2f 3e 8a 9c c1 3d f7 9f 6b be
       -0.23663658 0.17165247 0.094536856 -0.2301024
0002e0 9e 19 ff 3d ba 09 10 bb e0 d7 82 be bd 19 dd bb
       0.12456058 -0.0021978454 -0.25555325 -0.006747453
0002f0 90 08 e1 be 60 be 9b 3e 96 15 0d bc b8 6a 06 3e
       -0.43951845 0.30418682 -0.0086111035 0.13126647
000300 fb a1 2b bc a0 bc 8a bc 84 40 fa 3d 82 35 35 be
       -0.010475631 -0.016935647 0.12219337 -0.17696193
000310 a0 4e 30 3e d5 ce 43 3e ac 59 9b 3c 0a a8 c1 be
       0.17217493 0.19121869 0.018963657 -0.37823516
000320 36 2e 3f 3e d1 98 1e 3c 0c ad ab be 20 a6 9d 3d
       0.18669972 0.009679989 -0.33530462 0.076977015
000330 71 b3 06 3e 8d 95 f6 bd 05 31 b8 be 83 36 33 be
       0.13154389 -0.12040243 -0.359749 -0.17501263
000340 0b 7f 37 bc 84 3d 03 3e 34 95 54 3e d3 b7 8c 3d
       -0.011199723 0.12816435 0.20760041 0.06870999
000350 a5 fc 8f ba 59 ba 7b 3d cf aa 28 be 41 93 3a bd
       -0.0010985328 0.06145701 -0.16471408 -0.04555059
000360 e0 78 80 bd 0d 74 51 be 4c 36 4b be 0a 81 0c 3e
       -0.06273055 -0.20454426 -0.19844931 0.137211
000370 53 9a 93 3d 8f f2 ac be 72 9a cc 3e d2 96 42 3d
       0.072071694 -0.33778808 0.39961582 0.047507115
000380 f3 56 41 be 74 61 54 3d c4 c8 42 3d bd 75 8e 3e
       -0.18880825 0.05185075 0.047554746 0.27824202
000390 86 20 68 3e 3d 8b 1e 3e 74 34 04 be 07 21 60 3e
       0.22668657 0.15482803 -0.12910634 0.21887599
0003a0 36 5d b3 3c 1d f6 ea 3d 94 5f 4a 3e e3 c2 58 3e
       0.021895032 0.11472724 0.19763023 0.21168093
0003b0 63 51 99 3b 8c a8 23 bd c1 e1 54 3d 08 b0 4e be
       0.0046788915 -0.03995566 0.05197311 -0.20184338
0003c0 f2 5f 11 be 70 4b 74 bd 7a e1 a1 3d e2 b1 93 3d
       -0.14196756 -0.059642255 0.07904334 0.07211663
0003d0 69 16 90 bd c6 db 41 3e 5b 6f db be 81 b3 88 be
       -0.070355244 0.18931493 -0.42858395 -0.2669945
0003e0 fe 95 91 bd 81 0d b0 3e 06 b6 dc 3d ce 9e 27 be
       -0.07108687 0.34385303 0.10776906 -0.16369173
0003f0 ec 44 6b bd 7a 84 a0 bd 3f fb ee bd 59 3b 9b 3d
       -0.057438776 -0.07837768 -0.11669015 0.07579679

bias f4 [64]
000000 0b 72 1a bc e7 64 ea 3b 3b f2 58 bc 41 b6 78 bc
       -0.009426604 0.007153142 -0.013241346 -0.0151801715
000010 00 00 00 00 ea 60 96 bc 1d b5 01 bb 66 8d a3 bc
       0.0 -0.01835676 -0.001979179 -0.019964885
000020 fa b3 f9 3c 97 1c 0f 3d 07 dd cf 3a 97 09 74 bc
       0.030481327 0.034939375 0.0015858718 -0.0148948645
000030 fb 1a 9e 3b a4 8f 49 bc 08 e8 c4 bb 39 04 9e bb
       0.0048249937 -0.012302313 -0.0060091056 -0.0048222807
000040 2c 2d 78 bc 24 14 16 bd 30 21 10 bb dc 97 0e bc
       -0.015147489 -0.0366403 -0.0021992438 -0.008703198
000050 64 5e 51 bb 97 bb 20 3c 30 60 39 3c 25 39 6d 3c
       -0.003194713 0.00981035 0.011314437 0.014478956
000060 6e 73 2e ba 73 61 02 bb 39 1a 8d bc af 52 d2 bc
       -0.00066547736 -0.001989451 -0.017224418 -0.025674192
000070 56 ab 7b bc 3e 41 bc bc e7 ec 04 bc 67 5d 3f bd
       -0.015360674 -0.022980329 -0.008113123 -0.046719935
000080 f4 99 49 bb 54 ba 21 bb 32 22 35 bd 25 e8 97 bc
       -0.003076193 -0.002467771 -0.044222064 -0.018543312
000090 38 94 32 bd 96 3a 1f 3d 34 c2 09 bc 44 77 ea bc
       -0.043598384 0.03887423 -0.008408118 -0.028621323
0000a0 d3 0c 63 bd fe 9a c4 bc a6 d1 bd bb 7a c4 ca bc
       -0.055432152 -0.023999687 -0.0057928143 -0.02475189
0000b0 df ff 10 3d 74 bd f9 bc 88 e2 78 bb 74 8c d4 bc
       0.035400268 -0.030485846 -0.003797682 -0.02594588
0000c0 89 c6 92 bc 0c 0e 5b 3b 1a a3 64 3c 45 1c 1a 3d
       -0.017916935 0.003342512 0.013954902 0.037624616
0000d0 1a e2 1a 3c ab 6d 2a 3d 7f e9 41 ba 4d ae 65 3c
       0.009453321 0.041608494 -0.00073971594 0.014018607
0000e0 5e 60 d7 ba b2 40 d3 bc 00 00 00 00 33 fa c4 bc
       -0.0016431918 -0.025787685 0.0 -0.024045086
0000f0 b9 d2 35 bc c5 c3 77 bc b2 2f 38 bc be 95 5e ba
       -0.0110976035 -0.015122359 -0.01124184 -0.0008490941

weight f4 [1, 64]
000000 97 06 a2 3d 69 74 15 3e a9 27 de 3d 6e 08 b6 ba
       0.07911413 0.14595188 0.10847408 -0.001388801
000010 e5 05 48 be 85 2e ba 3d 53 64 76 bd 30 d0 f7 39
       -0.19533499 0.09090904 -0.06015427 0.00047266623
000020 6a e0 23 3e b0 8a 08 3d e9 70 3c 39 41 bd 93 3b
       0.16003576 0.033335388 0.0001797114 0.004508645
000030 40 c1 c9 bd 08 eb 7e 3a 50 0c e6 ba 1f c2 96 3d
       -0.09851313 0.00097243534 -0.0017551277 0.073612444
000040 84 d5 11 ba 91 5e 94 bd 8e 61 fb 3d fb ca 81 3b
       -0.00055631273 -0.072445996 0.122744665 0.0039609647
000050 3a 75 b5 3a ad 6e af 3d 94 fa 19 be 8b 65 3a 3a
       0.001384414 0.085660316 -0.15036994 0.0007110468
000060 ff 9e 9a 39 15 7e 33 be da 96 1f 3e 15 33 25 bd
       0.0002949163 -0.17528565 0.15584889 -0.04033192
000070 b7 c1 72 3a 94 70 7d 38 be 87 b2 39 1a 5b c1 3e
       0.0009260433 6.0424747e-05 0.00034051941 0.37764817
000080 64 d5 a8 3d 69 33 5d 3c cf c8 ca be ac af 5d be
       0.08243826 0.013501027 -0.3960633 -0.21649045
000090 6b 12 81 3d 63 87 5d bd c9 69 a0 3d 36 01 15 be
       0.06302341 -0.054084193 0.07832677 -0.14551243
0000a0 7b 1e 68 be 11 81 24 bd 53 f3 69 3a a1 16 82 be
       -0.22667877 -0.04016215 0.0008924503 -0.2540789
0000b0 ec d3 84 be 2e 4c fb 3c a7 94 09 3b 41 eb d0 3d
       -0.25942934 0.030675974 0.0020993145 0.10201121
0000c0 ed 18 a6 38 3f c0 4c 3b a2 a6 3e be 14 6f 00 be
       7.9201396e-05 0.0031242517 -0.18618253 -0.12542373
0000d0 83 a4 ef b9 ce 14 fb 3c c2 e4 7c 3e 8f 21 16 3d
       -0.00045708203 0.030649569 0.24696639 0.036653098
0000e0 ce 75 56 3e 5f 35 c2 bd 49 8a e9 3d 2e 0c fe b9
       0.20943376 -0.09482836 0.11403329 -0.0004845573
0000f0 15 b1 26 3d b2 21 03 3e b7 41 47 ba d1 41 2d ba
       0.040696222 0.12805822 -0.000760104 -0.00066092337

weight f4 [5, 64]
000000 85 4b 8b 3b 23 8d 7a 3c 31 e2 72 ba cc 38 83 bb
       0.004250946 0.015292439 -0.00092652725 -0.0040045734
000010 e6 6c c6 3c 5f cb a5 bc 78 2e 96 bd d7 08 a5 3b
       0.024221849 -0.020238576 -0.07333082 0.005036454
000020 ee f8 3e b9 e6 43 74 3b 56 2e 6a 3b 1a 91 1d bb
       -0.00018212546 0.0037271916 0.0035733185 -0.0024042786
000030 3e b3 89 bb 23 95 bd 3c 5d c1 bd 3a e1 14 30 3c
       -0.0042022755 0.023142403 0.0014477182 0.010747165
000040 d6 2c bc 3a fb 1d bf 3b 2f 8a 1e 3c 17 9a 07 3b
       0.0014356624 0.0058324314 0.0096765 0.002069121
000050 59 fa 10 bb 98 9d 54 bc c2 3b 40 3b 88 a4 3b bc
       -0.0022121875 -0.012977026 0.0029332493 -0.0114528015
000060 20 b5 bd bb c2 32 9b ba f0 4b e0 3a 03 53 f0 37
       -0.005789414 -0.0011840689 0.0017112475 2.8648885e-05
000070 00 83 50 bb a2 41 d7 3b ee a4 e5 3b 41 86 43 3c
       -0.0031816363 0.0065691033 0.0070081865 0.011933864
000080 05 38 d6 3b 09 92 0d 3a 44 73 cd 3c 66 d4 03 bc
       0.00653744 0.0005400484 0.025079377 -0.008046245
000090 42 da 4a 3a 8e a4 18 bb f7 48 36 3c ad f6 8c 3a
       0.00077382114 -0.0023291442 0.011125795 0.0010754667
0000a0 84 8f e0 3c d7 11 02 3c f7 8f 3c ba 92 f7 26 bc
       0.027412184 0.007938824 -0.00071930833 -0.010190861
0000b0 0d 32 27 bb 15 ca 70 3b 6e 81 47 3a 05 12 a6 3a
       -0.002551201 0.0036741544 0.0007610534 0.0012670165
0000c0 3e ce 3a 3c fc 83 8e bd 39 aa e0 bc ec 53 3c 3b
       0.011401711 -0.06958768 -0.027424918 0.0028736545
0000d0 50 83 8c 3a 8a 9a 1d 3c 8d cd 18 bb fb a8 00 3d
       0.0010720287 0.0096193645 -0.0023315877 0.031411152
0000e0 b1 7c d6 3a fa 6d 09 bb 43 4a 8c bc 0a a8 ea bc
       0.0016364065 -0.0020970092 -0.017125254 -0.02864458
0000f0 f1 74 06 bb a5 70 e5 bb 5a 93 7a 3c f4 f7 ef bc
       -0.002051648 -0.0070019537 0.01529392 -0.029293038
000100 e6 58 e4 3b 9c d6 b2 bc 0d fe 69 3a 80 ac d7 3c
       0.0069686053 -0.02183085 0.0008926101 0.026327372
000110 3c e2 dd bd 6b 2e b4 3c fc 18 22 3e ea 43 d4 3a
       -0.108341664 0.02199479 0.15829843 0.0016194556
000120 24 34 28 3b ed d4 f0 bb 86 e0 2f bd f4 50 3b bb
       0.0025665844 -0.0073496015 -0.04293873 -0.0028582187
000130 2a 47 aa 3c 04 f1 91 bd 03 df 89 bc e6 11 0b bd
       0.020785887 -0.07126048 -0.016829973 -0.033952616
000140 02 59 19 ba 38 ca 80 ba 99 bb 2f bd 63 78 d7 bb
       -0.000584975 -0.0009825891 -0.042903516 -0.0065756305
000150 8e cc 41 3b 4b 3e 04 3c 08 7e 69 bc 22 f6 91 3c
       0.0029571387 0.008071492 -0.01425124 0.01781756
000160 83 22 42 bb 3e 8e a4 ba 09 ed 1b bb 7d 48 0e bc
       -0.0029622621 -0.0012554599 -0.0023792407 -0.008684275
000170 75 0d 8f bb eb c4 95 bc 93 3a 9e bc 19 c5 56 bd
       -0.004365618 -0.018282374 -0.01931504 -0.05243406
000180 7b 40 8c bc f6 a8 68 bc ce dd 9a bd d2 7d a4 3c
       -0.01712059 -0.01420044 -0.07561837 0.020079527
000190 34 52 38 ba de 5e 33 ba 5e 88 7d bd 07 71 84 b9
       -0.0007031292 -0.00068424444 -0.061897628 -0.00025261214
0001a0 9a 45 6e bd 3d 30 a4 bb 7f 75 73 3a fd 1e a3 3b
       -0.058171846 -0.0050106333 0.00092872226 0.0049780593
0001b0 b3 c5 4c bc 16 eb 7d 3c 0c 48 f4 bb d9 56 37 3c
       -0.012498307 0.015497943 -0.0074548777 0.01119014
0001c0 3e ef ad bc 93 7b 32 3e 85 2c 94 3d 74 82 e6 3a
       -0.021232244 0.17429952 0.07235054 0.0017586485
0001d0 4d 48 cb b9 0c 92 10 bb d8 12 1f 3a db 9d 36 bd
       -0.00038773046 -0.0022059707 0.00060681766 -0.044584136
0001e0 15 ad d4 b8 5b 8c c4 39 1e 83 cc 3c ed 24 68 3d
       -0.00010141187 0.00037488606 0.024964865 0.05667584
0001f0 db 6c 8f bb 5e b1 b1 3a c6 75 e3 bc 50 c4 ef 3c
       -0.0043769903 0.0013556888 -0.02776612 0.029268414
000200 7e 2c b8 3b be 06 21 3b 69 43 83 ba 04 4a 5f bb
       0.0056205383 0.002457067 -0.0010014597 -0.0034071216
000210 28 b9 09 3d 44 d1 9d bc 3f e7 8b bd 18 11 0a bc
       0.033623844 -0.019264825 -0.06831216 -0.008426927
000220 f9 16 70 ba c4 53 bc bb e5 9c 34 3c 4f 6e ab 3a
       -0.00091586966 -0.0057472903 0.011023735 0.0013079139
000230 a5 bd 0d bc 91 7a b9 3c 7c 48 04 3c a9 a4 41 3c
       -0.008651172 0.022641452 0.008073922 0.011819043
000240 08 dc e1 b9 73 d2 ca 3b ac 8b ef 3b cf 2b d0 3b
       -0.0004307928 0.0061896383 0.0073103514 0.0063528786
000250 3a 0b 14 3b 46 d1 6e 3b 15 47 09 3b 68 e8 1c bc
       0.00225897 0.0036440655 0.002094691 -0.009576894
000260 79 2e 13 bc 86 59 40 b8 ff b1 9a 39 bc 7d 2c 3c
       -0.008983248 -4.5859742e-05 0.00029505786 0.010528024
000270 c8 29 d8 3b ff 85 a5 3b 79 9a ea 3a b7 d9 a4 3c
       0.0065967776 0.005051374 0.001789882 0.020123346
000280 00 b4 8f 3b f1 4e 60 3b 35 4c f6 3b 4a 1c 40 ba
       0.0043854713 0.003422674 0.007516409 -0.0007328434
000290 c0 3d 3f ba 6d e8 fd ba 13 b6 44 3c 27 68 62 bb
       -0.0007295273 -0.0019371636 0.0120063005 -0.0034546943
0002a0 f9 df 7b 3c 78 03 44 bb d4 ad 17 3c 92 91 b0 3b
       0.015373223 -0.0029909294 0.009257752 0.005388447
0002b0 9a 1a 6e 3c 66 0c e9 3a f5 38 92 bb 2e 59 b5 bb
       0.0145327095 0.0017780184 -0.004462356 -0.0055343127
0002c0 c0 c7 32 3c a6 5e 8d bd da 55 17 bd 79 bd da 3a
       0.010911882 -0.069028184 -0.03694711 0.0016688547
0002d0 64 58 7b 3a 12 ae 23 bb e6 2f ba 3a f5 90 31 bb
       0.00095880614 -0.002497558 0.0014204949 -0.0027094458
0002e0 1e 1a 13 37 4c 82 59 ba 74 43 cf bb a3 af a2 bc
       8.767964e-06 -0.0008297309 -0.0063251797 -0.01985914
0002f0 42 ea bd ba bb 95 c1 bb 37 be 29 3c ba ec 18 bd
       -0.001448937 -0.005907742 0.010360292 -0.037335135
000300 fc e9 f7 bb 95 3a 0b bc e9 4d de ba 30 20 9f bb
       -0.007565735 -0.008497854 -0.0016960475 -0.004856132
000310 aa cd b7 3c a6 43 ae bc 8a 1b ab bd ac ea d1 3b
       0.022436935 -0.021272492 -0.08354862 0.006406149
000320 4b ac 03 ba 0c cb 9a 3b 5c 0e 90 3c 5e 65 dd 39
       -0.0005022927 0.004723912 0.017584972 0.0004222793
000330 33 ef 4b bc b8 d7 80 3c b6 a5 fb 3b 68 f8 43 3c
       -0.012447166 0.015727863 0.0076796664 0.01196108
000340 0f ea 1f ba 5d 9b 71 bb c6 42 81 3c 9c 51 e2 3b
       -0.0006100246 -0.0036866285 0.01577891 0.0069067013
000350 59 94 55 ba 5e 32 a6 b8 3b 12 69 3a 48 a5 2c 3c
       -0.00081474107 -7.9248784e-05 0.0008890961 0.010537453
000360 ff f5 10 bc 57 c8 d6 b9 d5 92 23 3a 53 3a 4e bb
       -0.008847713 -0.00040966526 0.0006239836 -0.003146787
000370 1e 4c f0 3b 15 98 80 bb cc f9 cb 3b 1e 6c 65 3c
       0.0073332926 -0.0039243796 0.0062248465 0.014002828
000380 ca 68 1a 3c e2 11 c7 3b 6c b7 b7 3c 67 54 23 bc
       0.009424398 0.00607513 0.02242633 -0.009968854
000390 8c 8c d4 b9 5e eb 42 3b 0f e4 c6 3c 19 ae ce bb
       -0.00040540507 0.002974234 0.024278669 -0.006307375
0003a0 ba 27 8c 3c 48 17 08 bb ba 5c 0b bc 8e 00 12 3b
       0.017108787 -0.002076583 -0.008505994 0.0022278163
0003b0 fb 3d 2e 3b a8 2e d7 bb b5 7a 1c 3c b8 59 df bb
       0.0026587236 -0.006566841 0.00955074 -0.006816115
0003c0 25 3c 80 b9 d7 b5 8c bd 7f c5 1d bd 4c 8b f9 ba
       -0.00024458874 -0.06870621 -0.038518425 -0.0019038706
0003d0 e4 72 b8 ba 27 d6 d5 bb 2d 33 b4 bb 99 03 a9 ba
       -0.0014072326 -0.006525773 -0.0054992647 -0.0012894749
0003e0 71 9e 09 ba b4 a8 4a bb 39 a4 7b bc d0 86 d3 bc
       -0.0005249745 -0.0030923309 -0.015358978 -0.02582112
0003f0 24 0a 13 3c 2b 37 16 3b 33 39 b1 39 5b fb dc bc
       0.008974586 0.0022921066 0.00033802688 -0.026975324

bias f4 [5]
000000 e1 9d d2 bc c7 f9 07 3d 73 fa d1 bc ed 83 a4 bc
       -0.025710048 0.03319719 -0.025632119 -0.020082438
000010 40 1b b7 bc
       -0.022351861
