model/tiny-4/A2C/model_agent2_seed5.pt (torch, 101825 bytes, 11 tensors)

weight f4 [64, 119]
0.016423594 0.19562392 -0.12553695 -0.07557813 -0.18751746 0.0058056386 0.09591867 -0.1702406
0.033912327 -0.15984395 -0.24148604 0.04185698 -0.07940338 0.037367176 0.08197964 -0.15341839
-0.101337105 0.077910155 -0.052240863 0.16378514 -0.19897854 -0.14661731 0.15936658 -0.08161382
-0.034137435 0.070691206 -0.07370597 -0.18718256 0.15531369 0.019742448 0.050607 -0.084003985
0.040862083 0.15414016 0.26826414 0.019880809 -0.10284795 -0.1549046 0.066217996 -0.33491597
-0.16867918 -0.25522557 -0.2609513 0.034952357 -0.12969492 0.0075031305 -0.10179484 -0.026825953
0.107640095 0.25654814 0.023741867 0.09543942 0.034729652 -0.08918418 -0.09780173 -0.0007476442
0.010225037 -0.12778679 -0.06076982 0.015859718 -0.04896548 -0.04688949 -0.013983151 0.20780146
-0.073458955 -0.27459708 0.10536834 -0.00016466467 -0.12122483 -0.091828935 0.10666927 0.20203035
0.1036507 -0.026611522 0.10738157 0.08468388 0.07303281 0.0626502 -0.069047496 -0.1270266
-0.025054533 -0.023630366 0.040809028 0.096446075 0.041616425 -0.076087765 0.1452982 -0.096615866
-0.4091665 0.15384215 0.1853347 0.10139056 0.04368911 -0.106349565 -0.06916293 0.09006638
0.16079324 0.3265705 0.122474104 0.057253584 0.1957691 -0.048363037 -0.10933708 0.1861769
0.19795829 -0.044187307 -0.105818935 0.06528246 0.08707743 0.24218489 0.083074085 0.10813495
-0.21602356 -0.026729241 -0.15116328 -0.01331975 -0.021829149 0.107487045 0.026997462 -0.086314484
0.004369581 0.031853028 -0.045470353 -0.12958841 0.22060126 0.17660494 0.09123039 0.15036322
-0.15950407 0.0072016977 -0.017397156 -0.12597519 -0.14333017 0.16037884 0.20768946 -0.07244842
0.07209729 0.11400124 -0.19022252 0.033406824 0.091962144 0.024909269 -0.243597 -0.043785486
-0.03844444 0.14717719 0.105285 0.03365556 0.15526395 0.045646057 0.009968366 0.03933492
-0.02595684 0.051557623 -0.03833551 0.10756965 -0.13683192 -0.26310468 0.06447738 -0.10586394
0.06931188 -0.04921602 0.09498068 -0.07316313 0.09756651 -0.0052992525 -0.09754182 -0.28603417
0.038608123 -0.015821919 -0.007957496 0.114882976 0.087686 -0.04184163 0.033669457 0.24255149
-0.13630146 -0.065256305 0.11971153 -0.043124788 0.028604494 0.14704175 0.19564986 0.07147063
0.22266439 -0.0063130045 0.19624913 -0.11447331 0.15516612 -0.08504325 0.1831617 0.1014261
-0.07976138 -0.0043866495 -0.24724427 0.19912153 -0.2855376 -0.16663598 -0.0760742 0.10842245
0.18370852 -0.08436702 0.07902645 -0.14537236 -0.14923899 0.030731592 -0.1878489 0.108465314
-0.022934439 0.029741555 -0.26592824 0.038904794 0.22019644 0.12428094 0.12314518 -0.13864593
-0.14272346 0.06333521 0.21241048 0.043581586 -0.03379779 -0.15435766 -0.08141499 0.07692074
0.141089 0.05704469 0.02197069 -0.068406194 0.016565211 -0.17873354 0.12716667 -0.03898452
-0.078473076 -0.1719028 0.018971482 -0.28139433 0.28069806 0.0029236681 -0.12731509 -0.02936625
-0.027129654 -0.28781304 0.110839695 -0.1081702 0.11252491 0.13500267 -0.045204908 0.07068499
-0.0077840113 0.11836033 0.14305645 0.23964955 -0.073487304 -0.24761072 -0.07311644 0.16711177
00000000: c68a 863c a351 483e c28c 00be b5c8 9abd
00000010: 9404 40be 3a3d be3b 0271 c43d 8d53 2ebe
00000020: a7e7 0a3d 22ae 23be 1e48 77be 3a72 2b3d
00000030: 3d9e a2bd 530e 193d f1e4 a73d b619 1dbe
00000040: d489 cfbd 5c8f 9f3d 84fa 55bd 4bb7 273e
00000050: 08c1 4bbe d922 16be fe30 233e 2525 a7bd
00000060: b2d3 0bbd 8dc6 903d 28f3 96bd c9ac 3fbe
00000070: 8d0a 1f3e eaba a13c 4949 4f3d 480a acbd
00000080: 005f 273d ebd6 1d3e eb59 893e 14dd a23c
00000090: f2a1 d2bd 509f 1ebe 4d9d 873d 1b7a abbe
000000a0: 3cba 2cbe edac 82be 699b 85be 342a 0f3d
000000b0: bfce 04be d2dc f53b d079 d0bd 1ac2 dbbc
000000c0: 6972 dc3d 475a 833e 4e7e c23c be75 c33d
000000d0: ae40 0e3d 32a6 b6bd 464c c8bd 8efd 43ba
000000e0: ea86 273c 8ada 02be c6e9 78bd 3dec 813c
000000f0: 0790 48bd 320f 40bd 9619 65bc e8c9 543e
00000100: a671 96bd fd97 8cbe 5bcb d73d d6a9 2cb9
00000110: b944 f8bd cf10 bcbd 6b75 da3d 0be1 4e3e
00000120: d146 d43d 6800 dabc deea db3d be6e ad3d
00000130: 3a92 953d c04e 803d c668 8dbd 4313 02be
00000140: 2a3f cdbc 7894 c1bc 5e27 273d 8585 c53d
00000150: fc75 2a3d e7d3 9bbd 0dc9 143e 8ade c5bd
00000160: 467e d1be cc88 1d3e 61c8 3d3e dba5 cf3d
00000170: 5af3 323d cdcd d9bd 4ba5 8dbd b974 b83d
00000180: fca6 243e 4034 a73e b4d3 fa3d bc82 6a3d
00000190: b277 483e 5218 46bd 1eec dfbd 28a5 3e3e
000001a0: 94b5 4a3e c0fd 34bd 99b7 d8bd cfb2 853d
000001b0: a755 b23d 51ff 773e bf22 aa3d db75 dd3d
000001c0: 4835 5dbe 48f7 dabc 8cca 1abe 153b 5abc
000001d0: 0bd3 b2bc 2b22 dc3d c829 dd3c a6c5 b0bd
000001e0: b42e 8f3b 5278 023d 1f3f 3abd d3b2 04be
000001f0: 4ce5 613e edd7 343e 00d7 ba3d d1f8 193e
00000200: 0955 23be 38fc eb3b 7b84 8ebc a4ff 00be
00000210: 25c5 12be 5a3a 243e 8cac 543e d65f 94bd
00000220: bea7 933d 7b79 e93d b1c9 42be 98d5 083d
00000230: a656 bc3d 860e cc3c 7e71 79be 6958 33bd
00000240: eb77 1dbd 9eb5 163e a99f d73d 6ada 093d
00000250: 83fd 1e3e 5cf7 3a3d 5b52 233c a71d 213d
00000260: 70a3 d4bc 162e 533d b205 1dbd 7a4d dc3d
00000270: ab1d 0cbe a8b5 86be b70c 843d 32cf d8bd
00000280: 63f3 8d3d bd96 49bd 3b85 c23d 8dd6 95bd
00000290: f3d0 c73d 5aa5 adbb 01c4 c7bd 1273 92be
000002a0: 8d23 1e3d f89c 81bc 2860 02bc c447 eb3d
000002b0: b894 b33d 2162 2bbd fce8 093d 6b5f 783e
000002c0: 9c92 0bbe 19a5 85bd 522b f53d 9ea3 30bd
000002d0: f953 ea3c 1d92 163e 7058 483e 325f 923d
000002e0: 2202 643e 52dd cebb 88f5 483e fc70 eabd
000002f0: dee3 1e3e 282b aebd be8e 3b3e 7db8 cf3d
00000300: ef59 a3bd e2bd 8fbb 9a2d 7dbe 84e6 4b3e
00000310: fc31 92be 9fa2 2abe cacc 9bbd 970c de3d
00000320: 161e 3c3e 9ec8 acbd 9fd8 a13d 7edc 14be
00000330: 1bd2 18be d2c0 fb3c 765b 40be 1023 de3d
00000340: 01e1 bbbc 90a4 f33c bf27 88be a25a 1f3d
00000350: 2d7b 613e 0187 fe3d 8a33 fc3d 33f9 0dbe
00000360: 1926 12be e4b5 813d 2282 593e 9b82 323d
00000370: 8d6f 0abd ef0f 1ebe e7bc a6bd 9f88 9d3d
00000380: a379 103e b1a7 693d e0fb b33c 8c18 8cbd
00000390: c4b3 873c ed05 37be fb37 023e 3bae 1fbd
000003a0: 7eb6 a0bd 4a07 30be 156a 9b3c eb12 90be
000003b0: a8b7 8f3e 039b 3f3b e35e 02be 7d91 f0bc
000003c0: 023f debc 3b5c 93be ecff e23d 5688 ddbd
000003d0: 7673 e63d 243e 0a3e c828 39bd 4bc3 903d
000003e0: 0511 ffbb e766 f23d 647d 123e b166 753e
000003f0: 8380 96bd aa8d 7dbe 12be 95bd 591f 2b3e

bias f4 [64]
-0.015747942 -0.0014058667 0.00013270268 -0.0046651894 0.0037470935 -0.020606788 -0.0070424913 -0.0023111324
-0.010394377 0.008075733 -0.011038833 -0.02822475 0.00028538384 0.0024020423 -0.0012637976 -0.0030779375
-0.013158937 -0.014964666 -0.007162291 -0.012783072 -0.005136811 7.058911e-05 0.0018710085 -0.012087568
-0.003423732 -0.0006375695 0.009122218 -0.009897615 -0.043781877 5.508293e-05 -0.00034849718 0.0009849371
-0.005752985 -0.012660469 -0.010354753 -0.013298329 -0.02873241 -0.0025595773 -0.017105587 -0.013606216
-0.004227506 -0.0032161272 -0.005196518 -0.028721152 0.0043961676 -0.00068020343 3.299611e-05 5.8333437e-05
-0.015628198 7.827528e-05 0.0003953622 0.0020586275 0.022780964 0.005534349 -0.00041546416 -0.0031387673
-0.0046825637 -0.016241895 -0.0064916443 -0.022553058 -0.002189987 -0.0055465084 -0.010551034 -0.006547702
00000000: d401 81bc 0f45 b8ba 1b26 0b39 72de 98bb
00000010: cc91 753b 91cf a8bc b3c4 e6bb 5e76 17bb
00000020: 2d4d 2abc 1450 043c 39dc 34bc 9737 e7bc
00000030: 929f 9539 956b 1d3b 03a6 a5ba 39b7 49bb
00000040: 9598 57bc 5c2e 75bc a7b1 eabb 1770 51bc
00000050: b252 a8bb 3d09 9438 a13c f53a ef0a 46bc
00000060: b160 60bb 9122 27ba 5b75 153c 9b29 22bc
00000070: a054 33bd d908 6738 80b6 b6b9 0119 813a
00000080: 8983 bcbb db6d 4fbc fba6 29bc 3ce1 59bc
00000090: 3b60 ebbc 95be 27bb 0421 8cbc 9bec 5ebc
000000a0: e486 8abb a9c5 52bb 8d47 aabb 9f48 ebbc
000000b0: ba0d 903b ae4f 32ba 4e65 0a38 0dab 7438
000000c0: b506 80bc b927 a438 9e48 cf39 0aea 063b
000000d0: 259f ba3c 7c59 b53b a8d2 d9b9 c7b3 4dbb
000000e0: 3170 99bb b90d 85bc dcb7 d4bb 31c1 b8bc
000000f0: e385 0fbb 7cbf b5bb 3ede 2cbc 1b8e d6bb

weight f4 [64, 64]
-0.17688218 0.16884576 0.10967838 0.17878272 -0.008297592 0.47372815 -0.00798851 -0.07007333
-0.22155459 -0.22428606 -0.060053263 0.12556724 -0.11661958 -0.08145097 0.34341887 0.11680195
-0.2689129 -0.09742163 0.04985117 -0.048270557 -0.18644525 0.06939153 -0.113912486 0.07249858
-0.02460749 -0.05615749 -0.11599779 -0.27768058 0.16277851 0.20995724 0.004791828 -0.06587017
-0.39009342 0.06353506 0.03534006 0.115263484 -0.04608105 0.18528955 0.03064189 -0.13488966
-0.18814477 -0.22200623 0.055604436 0.19667031 0.24944887 0.20275618 0.11087235 -0.08055814
-0.14390291 -0.39523527 -0.056219764 0.15942626 0.21038766 0.024434637 -0.021664152 -0.005535771
-0.22797331 -0.14723197 0.2224381 0.10190608 0.012150999 -0.4321337 0.020195594 -0.11230419
0.07140045 0.02014597 -0.01866417 -0.13200141 0.0107911425 0.25256798 -0.18697551 0.29003084
0.19530311 0.21867926 -0.038956165 0.047529038 -0.037482206 -0.2557981 0.12635869 -0.20275624
-0.21767327 0.04918679 0.07877832 0.075920545 -0.046834607 0.080187865 0.10200655 0.044379856
0.12500042 0.0667555 0.07886532 0.059204523 0.20871392 0.08991788 -0.07362923 -0.029078836
-0.05407479 -0.03963105 -0.162489 0.15570648 -0.18694673 -0.19194007 -0.10726584 0.030284597
-0.103105165 0.12829329 0.3635075 0.39615908 -0.36412627 0.21518478 0.3108232 -0.2811766
0.19249737 0.2533511 0.034391172 0.19974527 -0.2717899 0.15545216 0.032774515 0.22922543
-0.18171252 0.20683593 -0.07773792 0.15766703 0.32232866 0.19325942 -0.2342929 -0.11292635
0.16848598 -0.36295894 0.15025343 -0.1501334 0.18962866 -0.1373965 -0.12086974 -0.1518654
-0.14971952 -0.12766358 0.07428935 -0.04296912 0.2503372 0.11747269 0.036559384 0.06952355
0.18502536 -0.05762426 0.10080287 -0.042771146 0.18161014 -0.17129721 -0.15346068 0.12809858
0.034702882 -0.0315502 0.17148395 -0.34301886 0.043090362 0.16842352 0.4254181 0.03600662
0.007709374 0.38319877 0.03754247 -0.20693988 -0.11191059 0.28413883 -0.047409955 -0.05451434
-0.123707406 -0.033545636 0.003131775 0.15556265 -0.12953341 0.19650607 0.25479725 0.117976785
0.03119465 0.17284845 -0.18430671 0.1384783 -0.324277 0.10084834 0.25832486 -0.36950773
-0.16065592 -0.0071701705 -0.33826345 0.10713401 -0.072479255 -0.12550549 0.031414717 0.124691084
0.041540824 0.024359232 0.110320486 0.15316 0.23682196 -0.06336739 0.117082596 -0.0056104385
-0.010636562 -0.15466966 0.32074875 0.16780625 -0.10610395 0.00015814698 -0.032035835 -0.08196975
0.24563609 -0.24046287 -0.011960313 -0.10084341 0.030392759 0.0030733764 0.14746144 -0.10711227
0.10952626 0.092598945 -0.2492459 0.15614597 -0.15010941 -0.04449157 -0.32322395 -0.3610657
0.084898815 0.016318586 0.13400291 -0.20630196 -0.4450384 0.18955737 0.16494098 0.08745509
0.35589638 -0.14012179 -0.04482414 0.18685393 -0.25240746 0.22606027 0.33081558 0.028349083
0.23984326 -0.014460173 0.33263445 -0.28210413 0.15885018 0.16715898 -0.15748943 0.03395988
-0.042741235 -0.11477073 -0.047651224 0.18926392 0.003509166 -0.22436868 -0.04186186 0.08012263
00000000: 9a20 35be e7e5 2c3e 0f9f e03d d112 373e
00000010: a0f2 07bc 7f8c f23e 3de2 02bc 9b82 8fbd
00000020: 35df 62be 3fab 65be 69fa 75bd b394 003e
00000030: 3fd6 eebd c4cf a6bd 99d4 af3e dc35 ef3d
00000040: f4ae 89be fe84 c7bd be30 4c3d 59b7 45bd
00000050: 81eb 3ebe 251d 8e3d f34a e9bd 237a 943d
00000060: a695 c9bc 6505 66bd 4090 edbd 262c 8ebe
00000070: 69af 263e 08ff 563e c404 9d3b f1e6 86bd
00000080: 53ba c7be ab1e 823d bdc0 103d 430f ec3d
00000090: 7cbf 3cbd 8bbc 3d3e b304 fb3c 8420 0abe
000000a0: 06a9 40be 9a55 63be 7ac1 633d f163 493e
000000b0: 866f 7f3e 519f 4f3e 0b11 e33d abfb a4bd
000000c0: 495b 13be 475c cabe b246 66bd a340 233e
000000d0: dd6f 573e 262b c83c 0579 b1bc 6a65 b5bb
000000e0: d671 69be fac3 16be d0c6 633e 23b4 d03d
000000f0: fc14 473c a140 ddbe 3b71 a53c bdff e5bd
00000100: 663a 923d 2909 a53c 9ae5 98bc 612b 07be
00000110: 55cd 303c 9750 813e 8276 3fbe ec7e 943e
00000120: 8afd 473e 75ed 5f3e 8090 1fbd cfad 423d
00000130: f186 19bd f8f7 82be 2c64 013e 559f 4fbe
00000140: bee5 5ebe 1678 493d 8756 a13d 3b7c 9b3d
00000150: a5d5 3fbd 8939 a43d cfe8 d03d a7c7 353d
00000160: 1c00 003e 1cb7 883d 2484 a13d 7180 723d
00000170: 1ab9 553e de26 b83d ecca 96bd bd36 eebc
00000180: 877d 5dbd 2b54 22bd 8463 26be 8571 1f3e
00000190: f76e 3fbe f08b 44be 31ae dbbd 6717 f83c
000001a0: cd28 d3bd 515f 033e a81d ba3e 5dd5 ca3e
000001b0: c26e babe 6659 5c3e 3824 9f3e 61f6 8fbe
000001c0: 081e 453e 3cb7 813e c2dd 0c3d 068a 4c3e
000001d0: 0c28 8bbe da2e 1f3e 923e 063d 12ba 6a3e
000001e0: d912 3abe cccc 533e 0f35 9fbd 7773 213e
000001f0: 4308 a53e cce5 453e 7aea 6fbe ee45 e7bd
00000200: 9787 2c3e c1d5 b9be 09dc 193e 92bc 19be
00000210: 042e 423e abb1 0cbe 8e8a f7bd 9a82 1bbe
00000220: 1350 19be 3eba 02be 0425 983d 6300 30bd
00000230: 332c 803e 8695 f03d 4bbf 153d 5d62 8e3d
00000240: 4a77 3d3e 6b07 6cbd bc71 ce3d cc30 2fbd
00000250: 02f8 393e 8968 2fbe cc24 1dbe 462c 033e
00000260: 9c24 0e3d c83a 01bd 7d99 2f3e 2ba0 afbe
00000270: 857f 303d 3777 2c3e 67d0 d93e ad7b 133d
00000280: eb9e fc3b a132 c43e 22c6 193d 0ce8 53be
00000290: 6131 e5bd a57a 913e f130 42bd 6e4a 5fbd
000002a0: 4f5a fdbd 2667 09bd 773e 4d3b d14b 1f3e
000002b0: 68a4 04be e338 493e c974 823e d09d f13d
000002c0: ec8b ff3c 2fff 303e e6ba 3cbe 41cd 0d3e
000002d0: a307 a6be 9389 ce3d 2843 843e 1e30 bdbe
000002e0: fc82 24be c0f3 eabb de30 adbe 1369 db3d
000002f0: 0170 94bd 8384 00be b8ac 003d 0a5e ff3d
00000300: b626 2a3d 038d c73c b5ef e13d fad5 1c3e
00000310: 7581 723e c3c6 81bd 00c9 ef3d c5d7 b7bb
00000320: f944 2ebc b961 1ebe 2e39 a43e 67d5 2b3e
00000330: 074d d9bd 42d4 2539 0238 03bd c2df a7bd
00000340: 0788 7b3e e63b 76be 30f5 43bc fd86 cebd
00000350: 3cfa f83c b36a 493b 2200 173e ae5d dbbd
00000360: 4e4f e03d 84a4 bd3d 513a 7fbe bbe4 1f3e
00000370: 48b6 19be cb3c 36bd 9c7d a5be 9add b8be
00000380: 6edf ad3d 8eae 853c 0f38 093e d240 53be
00000390: 13dc e3be 541b 423e 4ae6 283e a71b b33d
000003a0: 0d38 b63e 167c 0fbe 8499 37bd a356 3f3e
000003b0: 8d3b 81be 587c 673e a960 a93e 563c e83c
000003c0: 7999 753e 5dea 6cbc 104f aa3e f46f 90be
000003d0: 9fa9 223e b92b 2b3e e944 21be 8419 0b3d
000003e0: 6f11 2fbd eb0c ebbd ee2d 43bd 67ce 413e
000003f0: 09fa 653b e7c0 65be 5777 2bbd 5517 a43d

bias f4 [64]
-0.024145808 -0.03209956 -0.0066959863 0.0005192588 1.829414e-05 -0.0015128928 0.006862624 -0.029468067
-0.0022609665 -0.017858025 -0.0007397736 -0.0014924946 0.0045614475 -0.0015919432 -0.013758717 -0.0012189433
-0.00079712766 -0.021708127 -0.03700046 0.005020955 -0.005086372 -0.013136701 -0.003133735 -0.0027333954
-0.024229065 1.01297466e-07 -0.00092750235 0.0013105622 -0.015357254 -0.005523283 -0.00022049232 -0.0067822915
-0.013003321 -0.0029149544 -0.022813905 -0.005888379 0.002791029 0.0002633965 -0.013323036 -0.019536154
-0.016674517 -1.5335716e-05 0.0038671026 -0.012736352 -0.009383866 -0.008485947 -0.004882454 2.4591845e-05
-0.0025843994 3.05554e-05 -0.0035832273 0.0067822197 -0.023990655 0.00089637976 -0.004695353 -0.04133128
-0.024018167 0.0002224321 -0.014872568 2.740876e-05 -1.9929885e-07 -0.020732297 -0.0032666828 -0.0033690105
00000000: 6ecd c5bc d47a 03bd 016a dbbb de1e 083a
00000010: 5e76 9937 424c c6ba dddf e03b 0467 f1bc
00000020: b92c 14bb fe4a 92bc 5eed 41ba cf9f c3ba
00000030: 3278 953b c0a8 d0ba 3e6c 61bc f3c4 9fba
00000040: 55f6 50ba 3ed5 b1bc cb8d 17bd d386 a43b
00000050: 95ab a6bb 513b 57bc 595f 4dbb c422 33bb
00000060: 087c c6bc df88 d933 a123 73ba 2cc7 ab3a
00000070: fe9c 7bbc a8fc b4bb f533 67b9 fc3d debb
00000080: e20b 55bc d208 3fbb 3ae4 babc 4ef3 c0bb
00000090: b2e9 363b 7b18 8a39 dd48 5abc 490a a0bc
000000a0: ff98 88bc 33a5 80b7 376f 7d3b 22ac 50bc
000000b0: c9be 19bc a408 0bbc fefc 9fbb 964a ce37
000000c0: 075f 29bb 9c28 0038 94d4 6abb 623d de3b
000000d0: 0d88 c4bc 07fb 6a3a 7adb 99bb fd4a 29bd
000000e0: bfc1 c4bc aa3c 6939 12ac 73bc ddeb e537
000000f0: dafe 55b4 c7d6 a9bc d815 56bb 9eca 5cbb

weight f4 [64, 119]
0.037192915 -0.20345686 -0.062166225 -0.0003915069 0.09263057 -0.21755129 -0.08183202 -0.1659768
0.009340576 0.19258991 -0.051325552 0.11474235 0.34119195 0.014254525 -0.037495874 -0.020662842
-0.037022028 -0.060039844 -0.16633716 0.30528194 0.038749877 0.03916888 0.18272461 0.07555748
-0.034866896 -0.18937418 0.29035473 0.21855588 -0.15156224 -0.14683793 0.0026921944 0.09430362
0.008212832 -0.08889143 -0.0558732 0.28674543 0.07968453 0.2532179 -0.03139852 -0.03541543
0.07364065 -0.06838317 0.20930059 0.019341035 -0.028484548 0.060862083 0.018473765 0.008999111
-0.13803817 -0.120761715 -0.26708868 0.03346793 0.10525875 -0.23972192 -0.002554665 0.10516736
0.1266734 -0.16794899 -0.23911247 -0.0076415283 0.024907077 -0.22308506 -0.093175076 0.08575868
-0.041626543 -0.07998212 0.12462899 0.036354285 0.13970429 -0.12297585 0.17417054 -0.0059825177
-0.07571159 -0.10951158 0.0142223 0.24545906 0.06534746 -0.009509104 -0.10750598 -0.03887759
-0.063792594 0.14517762 -0.012972724 0.12500095 0.15840633 -0.053184886 0.012267235 0.1149682
-0.1410651 0.2553515 -0.011481681 0.105327606 0.010376265 0.15776159 0.0038404507 0.072742075
-0.14992064 -0.10220932 -0.22362176 0.15203974 0.039098445 -0.049221396 -0.0004803512 -0.088640444
0.109750636 -0.058323715 -0.08753008 -0.16119331 -0.06559266 -0.026603432 0.0034906184 0.10890043
0.025468586 -0.12415355 0.033266608 0.15005888 0.20576799 -0.074273854 -0.022890788 0.12776472
0.06909466 0.031290144 0.030735385 -0.061850905 0.028047185 0.07577606 0.028279414 0.121912874
-0.015600729 0.16173178 -0.002480471 0.1428398 0.01992991 -0.06431531 0.03117848 0.14375527
-0.21142198 -0.059792716 0.028482035 -0.052144058 -0.03629385 0.07229017 0.04956754 -0.03658119
0.20325473 -0.0318594 0.15699397 0.080924794 0.20723821 0.12043936 0.0019391002 -0.002699929
-0.037634086 -0.074027814 0.13731657 -0.04695155 0.26950145 0.054389894 -0.07901135 -0.07800672
0.02951619 -0.13101244 -0.05575524 -0.21467428 -0.060732912 0.06681685 -0.0074967 0.04515182
0.16368444 -0.07719398 -0.018446576 -0.06200825 0.23051433 0.13585494 -0.14636044 -0.13684049
-0.018535186 -0.08516491 0.08810102 0.22253352 0.10454169 -0.10857966 -0.18541366 0.070245005
0.08624245 -0.124403566 -0.04764414 -0.07696731 -0.01194429 0.10889173 -0.3287636 -0.036308877
-0.0057164244 -0.05595438 -0.03451767 -0.045082472 -0.07329582 0.15148772 0.07402309 0.09777096
-0.15199801 0.20438918 -0.10629542 0.02568801 0.052278608 -0.13454172 0.10998829 -0.06573919
0.0048963167 0.14257778 0.1435091 0.18386565 0.010932896 0.073948696 -0.061189417 0.01926172
0.232379 -0.06862684 0.12082665 0.3308195 -0.35141358 0.10222974 -0.124812864 -0.12718457
0.25386292 -0.061785456 0.13224728 0.079936706 -0.079651244 0.1505497 -0.0007159528 -0.002169908
-0.15775315 0.11092422 -0.21709433 0.20438406 -0.24499343 -0.058955234 -0.16748853 -0.08103089
-0.039134927 -0.16739133 0.06398768 -0.13990581 0.043090325 -0.07220496 -0.1559248 -0.06830117
0.015371307 0.24734089 0.116264015 0.094492525 -0.22542831 0.08666328 0.016501125 -0.06844317
00000000: 9957 183d ff56 50be 03a2 7ebd 2b43 cdb9
00000010: 19b5 bd3d c4c5 5ebe 8c97 a7bd d2f5 29be
00000020: 3709 193c 4a36 453e be3a 52bd 0afe ea3d
00000030: b6b0 ae3e d08b 693c 4695 19bd 1f45 a9bc
00000040: 69a4 17bd 57ec 75bd 4a54 2abe ea4d 9c3e
00000050: 31b8 1e3d 8c6f 203d 291c 3b3e e1bd 9a3d
00000060: 97d0 0ebd 4eeb 41be 60a9 943e 1dcd 5f3e
00000070: 2233 1bbe af5c 16be 876f 303b 4222 c13d
00000080: 1d8f 063c b60c b6bd 4cdb 64bd 4cd0 923e
00000090: a531 a33d c7a5 813e bc9b 00bd c50f 11bd
000000a0: e9d0 963d 7a0c 8cbd e552 563e 1771 9e3c
000000b0: 6d58 e9bc 854a 793d 4b56 973c 0271 133c
000000c0: e159 0dbe eb51 f7bd d9bf 88be ab15 093d
000000d0: e691 d73d aa79 75be 2b6c 27bb fc61 d73d
000000e0: acb6 013e d2fa 2bbe e6d9 74be c965 fabb
000000f0: ed09 cc3c 6970 64be 93d2 bebd 3fa2 af3d
00000100: 9880 2abd aacd a3bd 7c3d ff3d 3be8 143d
00000110: a40e 0f3e c3da fbbd c359 323e ff08 c4bb
00000120: ae0e 9bbd 9b47 e0bd a604 693c 9f59 7b3e
00000130: e4d4 853d 13cc 1bbc 182c dcbd 1c3e 1fbd
00000140: b1a5 82bd 71a9 143e 8c8b 54bc 4000 003e
00000150: 4535 223e 65d8 59bd 83fc 483c 7374 eb3d
00000160: 5f73 10be 6fbd 823e a91d 3cbc 00b6 d73d
00000170: 3601 2a3c 418c 213e 12b0 7b3b ccf9 943d
00000180: cc84 19be 1f53 d1bd 1afd 64be 4eb0 1b3e
00000190: b125 203d 609c 49bd a6d7 fbb9 1f89 b5bd
000001a0: f1c4 e03d d9e4 6ebd f842 b3bd dc0f 25be
000001b0: 7255 86bd 71ef d9bc dcc2 643b 3007 df3d
000001c0: 7fa3 d03c 3744 febd 9142 083d 09a9 193e
000001d0: d8b4 523e e41c 98bd 7685 bbbc c1d4 023e
000001e0: 8081 8d3d 182a 003d c6c8 fb3c 6057 7dbd
000001f0: 36c3 e53c 7b30 9b3d 3baa e73c 75ad f93d
00000200: 339a 7fbc 049d 253e 668f 22bb 9944 123e
00000210: 0d44 a33c bfb7 83bd 036a ff3c 9534 133e
00000220: 017f 58be 35e9 74bd 2853 e93c 0295 55bd
00000230: dca8 14bd de0c 943d 5507 4b3d 28d6 15bd
00000240: 0222 503e 017f 02bd 07c3 203e e6bb a53d
00000250: 4136 543e e9a8 f63d 6829 fe3a 4bf1 30bb
00000260: 3326 1abd e59b 97bd b79c 0c3e 4550 40bd
00000270: 18fc 893e f0c7 5e3d b4d0 a1bd fdc1 9fbd
00000280: f0cb f13c 2028 06be 9b5f 64bd 93d3 5bbe
00000290: 13c3 78bd 46d7 883d e1a6 f5bb 1df1 383d
000002a0: e59c 273e e117 9ebd 461d 97bc 5dfc 7dbd
000002b0: f30b 6c3e 8f1d 0b3e 83df 15be ea1f 0cbe
000002c0: 1ad7 97bc f16a aebd 4f6e b43d d4df 633e
000002d0: f419 d63d 035f debd 14dd 3dbe 9ddc 8f3d
000002e0: e29f b03d 4cc7 febd 8026 43bd 09a1 9dbd
000002f0: fcb1 43bc a102 df3d b453 a8be 9eb8 14bd
00000300: d850 bbbb 6c30 65bd 6662 0dbd 66a8 38bd
00000310: 1e1c 96bd 991f 1b3e 6b99 973d 243c c83d
00000320: 5ea5 1bbe 664b 513e 6ab1 d9bd a96f d23c
00000330: 1822 563d 4ec5 09be 8a41 e13d 45a2 86bd
00000340: 4871 a03b e9ff 113e 0df4 123e 4747 3c3e
00000350: e41f 333c 6a72 973d c1a1 7abd c1ca 9d3c
00000360: c3f4 6d3e 3b8c 8cbd f673 f73d 2c61 a93e
00000370: 7bec b3be d35d d13d e39d ffbd ac3c 02be
00000380: 52fa 813e bf12 7dbd d56b 073e dbb5 a33d
00000390: 3120 a3bd b329 1a3e c7ae 3bba 0435 0ebb
000003a0: 0b8a 21be 3d2c e33d fa4d 5ebe 0e4a 513e
000003b0: 8fdf 7abe 0b7b 71bd 1d82 2bbe 86f3 a5bd
000003c0: f24b 20bd a268 2bbe f90b 833d 7843 0fbe
000003d0: 7b7f 303d 32e0 93bd c0aa 1fbe 7ce1 8bbd
000003e0: efd7 7b3c ee46 7d3e d41b ee3d 4c85 c13d
000003f0: aed6 66be 857c b13d 5e2d 873c ef2b 8cbd

bias f4 [64]
-0.04253102 0.011899194 -0.04783542 -0.036913607 -0.0369085 -0.06026951 -0.018886134 0.013958373
-0.0019362121 -0.044273924 -0.038785055 -0.026716689 4.2964916e-07 -0.037441846 0.0042060902 -0.059814177
0.012926765 -0.038700286 0.0022667767 -0.03436959 0.01753269 -0.024006784 -0.021924576 -0.009998241
0.023811802 -0.029596798 -0.017187996 -0.011307427 -0.008780888 -0.06270302 -0.0017446022 -0.0077352608
-0.007256895 -0.035125084 0.023865135 0.02451101 -0.028744247 -0.00040998025 -0.08497269 -0.0138309635
0.0012852873 0.03343524 -0.039557207 -0.01579786 0.035528027 0.023813892 -0.023456993 -0.0031538664
-0.032378074 0.022009993 -0.033265278 -0.03437202 -0.0032240574 -0.029247062 -0.036654316 -0.022929579
-0.040176157 0.007479458 -0.027086282 0.02265183 -0.010422705 0.004665475 -0.035377227 -0.030050093
00000000: 0235 2ebd d6f4 423c 13ef 43bd b932 17bd
00000010: 5e2d 17bd 29dd 76bd 18b7 9abc a9b1 643c
00000020: 7fc8 fdba 9358 35bd 14dd 1ebd f5dc dabc
00000030: 88aa e634 9f5c 19bd 3ed3 893b b6ff 74bd
00000040: c8ca 533c 3184 1ebd 348e 143b 21c7 0cbd
00000050: b7a0 8f3c e0a9 c4bc 2b9b b3bc aacf 23bc
00000060: f810 c33c fc74 f2bc d7cd 8cbc c942 39bc
00000070: b7dd 0fbc 716a 80bd 23ab e4ba 1278 fdbb
00000080: 3fcb edbb 52df 0fbd d180 c33c 50cb c83c
00000090: 0e79 ebbc 9ef2 d6b9 2906 aebd 449b 62bc
000000a0: 1677 a83a 64f3 083d bd06 22bd 846a 81bc
000000b0: d685 113d 5a15 c33c e128 c0bc 19b1 4ebb
000000c0: df9e 04bd 4d4e b43c 2c41 08bd adc9 0cbd
000000d0: b54a 53bb 8997 efbc d622 16bd d0d6 bbbc
000000e0: c18f 24bd 3e16 f53b 0de4 ddbc 5590 b93c
000000f0: fec3 2abc d7e0 983b b6e7 10bd 9d2b f6bc

weight f4 [64, 64]
-0.23507527 0.00010763388 -0.13983858 0.32220492 0.018807286 0.025022687 0.08790142 0.17891704
0.2548652 -0.17129843 -0.20089218 0.30400583 0.14909819 0.31460816 0.21953692 -0.1275387
0.37289998 0.059682045 0.18309088 -0.037683412 0.007343803 0.24096861 0.1414721 0.15282972
0.08502378 -0.053756744 -0.08192473 -0.052534625 0.22004433 0.19580705 -0.08517883 -0.04802505
0.16490525 0.09261972 -0.10999683 0.20527932 -0.15398645 0.26212448 -0.2624346 0.1077222
-0.011420581 -0.29929546 0.00048817068 -0.03507308 -0.06039122 -0.04400023 -0.15678048 -0.30648252
-0.3141803 0.20461442 0.26781398 -0.10788055 -0.013736059 -0.16522469 0.22804141 0.2571183
0.1590339 0.006975015 0.0098503 -0.1292016 0.06421364 -0.2026745 -0.02201232 -0.11566263
0.013386181 -0.19780084 -0.19838494 0.17672661 0.10823467 0.12352745 0.11348934 -0.055545494
-0.010743486 -0.006482726 0.3463569 -0.13028201 0.032984417 -0.1406426 0.22170608 -0.16595656
0.18034725 0.052425645 0.007921465 -0.020091243 0.0741855 -0.052856084 -0.013463825 0.046775434
0.31305042 0.559655 -0.14427654 0.18519846 -0.17821318 0.26509297 0.2872172 -0.028891848
0.02366415 -0.3199085 -0.008929961 0.1333602 0.05377825 -0.15024203 -0.15065315 0.21721578
0.14724347 0.033424478 -0.117163315 -0.119445436 -0.0048628547 -0.03920313 -0.036253907 -0.20151958
0.09422913 0.053066146 -0.10835165 0.07493728 -0.0668127 -0.09966039 -0.3797593 -0.25814953
-0.05370769 0.23549432 -0.12661038 -0.05704097 0.14809915 -0.14773728 -0.38257572 -0.08335588
-0.1730402 0.025856486 -0.2878477 -0.100759044 0.0372522 0.106136195 -0.024264285 0.068788126
-0.078871995 -0.15210357 -0.13669193 -0.14455657 0.45019442 -0.0840073 0.004210573 -0.09432393
0.23704354 0.066955455 -0.29641905 -0.31368682 0.11753961 -0.07918843 -0.10651209 -0.11450284
-0.19462629 -0.15173085 0.10623728 0.19403195 -0.20705493 0.0013566419 -0.029268347 0.13182054
0.25710616 0.09060521 0.036690585 0.036043104 0.15115707 -0.44433978 -0.14457688 -0.26011497
-0.1189673 0.06045905 -0.14772828 -0.2615607 -0.062409855 -0.06361243 -0.031138707 0.1951032
0.12538865 -0.0014284577 0.009565669 -0.113461375 -0.23210406 -0.08847302 -0.13684769 0.29329053
-0.026341297 -0.27244946 -0.24711572 -0.1849094 -0.2838086 -0.27992198 0.004698433 0.20976189
-0.08807655 -0.19535293 -0.088335745 -0.21017186 0.44325468 0.111191034 -0.20141722 -0.058170963
0.25537753 0.18885832 -0.13629347 0.25482428 0.19127317 -0.12970197 -0.088083416 0.17935021
0.20736185 0.22805241 0.16832472 -0.025074564 0.36829647 -0.22291315 0.25828096 0.0838485
-0.25520673 0.2106163 0.33260503 -0.08038626 -0.19995996 -0.28607762 0.02879929 -0.1960873
0.039755166 -0.03445037 -0.11903675 -0.1798662 0.0779019 0.01740397 0.12893915 0.16673993
0.0030024226 -0.12035969 -0.072307706 -0.08825851 0.016834779 -0.21056394 -0.066658534 -0.057959277
-0.06725304 -0.17696556 -0.14189832 -0.075869694 -0.023544908 0.11567923 0.07327925 -0.22323239
0.23921144 -0.1814409 -0.043172453 0.049820222 -0.060189474 0.15982626 -0.06476409 -0.40118837
00000000: 92b7 70be 80b9 e138 d831 0fbe 0bf8 a43e
00000010: bd11 9a3c 61fc cc3c a905 b43d 0736 373e
00000020: b17d 823e db68 2fbe aeb6 4dbe a7a6 9b3e
00000030: 32ad 183e 5214 a13e 49ce 603e 8199 02be
00000040: bfec be3e 2975 743d 2d7c 3b3e ec59 1abd
00000050: 49a4 f03b 7ac0 763e 10de 103e 657f 1c3e
00000060: f320 ae3d 0830 5cbd 27c8 a7bd 8c2e 57bd
00000070: 4d53 613e a581 483e 3d72 aebd eab5 44bd
00000080: ecdc 283e 68af bd3d 0546 e1bd be34 523e
00000090: a0ae 1dbe 2e35 863e d45d 86be 759d dc3d
000000a0: 631d 3bbc 413d 99be 29f1 ff39 caa8 0fbd
000000b0: c95c 77bd 9639 34bd 108b 20be 47eb 9cbe
000000c0: 3edc a0be 7186 513e ea1e 893e 7af0 dcbd
000000d0: 350d 61bc a930 29be b083 693e 03a5 833e
000000e0: c8d9 223e ab8e e43b 2763 213c 6d4d 04be
000000f0: 7182 833d e789 4fbe 2e53 b4bc 87e0 ecbd
00000100: b651 5b3c 4e8c 4abe 6c25 4bbe d2f7 343e
00000110: 23aa dd3d f6fb fc3d 196d e83d ac83 63bd
00000120: 7205 30bc 0c6d d4bb b155 b13e a668 05be
00000130: ab1a 073d 9d04 10be eb06 633e 84f0 29be
00000140: f3ac 383e 46bc 563d 08c9 013c 6496 a4bc
00000150: 91ee 973d 9f7f 58bd 6097 5cbc 9997 3f3d
00000160: 2548 a03e 8d45 0f3f 3bbd 13be aaa4 3d3e
00000170: 847d 36be 44ba 873e 220e 933e 99ae ecbc
00000180: 52db c13c 0ccb a3be f94e 12bc 948f 083e
00000190: 9546 5c3d 0cd9 19be d244 1abe d06d 5e3e
000001a0: fec6 163e 1be8 083d 52f3 efbd cf9f f4bd
000001b0: 9558 9fbb 7693 20bd fa7e 14bd 265b 4ebe
000001c0: 34fb c03d e35b 593d 78e7 ddbd b778 993d
000001d0: 19d5 88bd bf1a ccbd d06f c2be 2d2c 84be
000001e0: 98fc 5bbd 6c25 713e 27a6 01be cba3 69bd
000001f0: 4ea7 173e 7148 17be f7e0 c3be 7db6 aabd
00000200: 7331 31be fbd0 d33c c660 93be c25a cebd
00000210: c395 183d ef5d d93d e5c5 c6bc cae0 8c3d
00000220: a487 a1bd 0ac1 1bbe f8f8 0bbe a306 14be
00000230: e27f e63e 050c acbd d9f8 893b e82c c1bd
00000240: 8bbb 723e f11f 893d 3dc4 97be 8f9b a0be
00000250: 9bb8 f03d 8b2d a2bd 0323 dabd 7780 eabd
00000260: 1d4c 47be 555f 1bbe ee92 d93d 50b0 463e
00000270: 3506 54be 59d1 b13a 2cc4 efbc f7fb 063e
00000280: 6ba3 833e 398f b93d de48 163d efa1 133d
00000290: ebc8 1a3e 8180 e3be f60b 14be ca2d 85be
000002a0: 21a5 f3bd e9a3 773d 1546 17be 49eb 85be
000002b0: 7aa1 7fbd 3c47 82bd 9a16 ffbc 22c9 473e
000002c0: e265 003e 163b bbba 53b9 1c3c 705e e8bd
000002d0: b0ac 6dbe 5831 b5bd cd21 0cbe 2d2a 963e
000002e0: b4c9 d7bc 7f7e 8bbe e70b 7dbe e458 3dbe
000002f0: 5c4f 91be ef51 8fbe 50f5 993b d2cb 563e
00000300: 7a61 b4bd 990a 48be 5fe9 b4bd 4b37 57be
00000310: 47f2 e23e 20b8 e33d 5140 4ebe ad44 6ebd
00000320: d8c0 823e 1364 413e 8490 0bbe 5478 823e
00000330: 1ddd 433e 98d0 04be 1465 b4bd 95a7 373e
00000340: aa56 543e 9286 693e 515d 2c3e 2c69 cdbc
00000350: 5b91 bc3e 5843 64be 673d 843e c3b8 ab3d
00000360: 75aa 82be cdab 573e 354b aa3e 8da1 a4bd
00000370: 4ec2 4cbe c478 92be 7dec eb3c 1ccb 48be
00000380: 50d6 223d d51b 0dbd 8ac9 f3bd d82e 38be
00000390: 088b 9f3d c592 8e3c a008 043e dfbd 2a3e
000003a0: 4bc4 443b 247f f6bd 1016 94bd e1c0 b4bd
000003b0: 17e9 893c 139e 57be 4584 88bd b566 6dbd
000003c0: f6bb 89bd 7636 35be cb4d 11be 9261 9bbd
000003d0: 40e1 c0bc 3be9 ec3d 6e13 963d 0897 64be
000003e0: d8f3 743e a5cb 39be 99d5 30bd 4a10 4c3d
000003f0: 3d89 76bd 7fa9 233e 09a3 84bd 9068 cdbe

bias f4 [64]
0.013672108 -0.0042465264 -0.015506504 -0.0048136394 -0.040287342 -0.023297181 -0.018774465 -0.027088977
-0.0053086793 0.011633941 0.00064153253 -0.02237483 -0.022686316 -0.016533747 -0.027794888 -0.013680619
-0.0041230624 -0.015782867 0.0040329094 0.013433518 -0.0060797622 -0.00864046 -0.030608447 -0.028597295
0.0028460326 0.010731339 0.0042884285 0.005808064 -0.0086550275 -0.052751034 0.032625176 0.004266592
-0.0031380074 -0.043064486 -0.018852292 0.0 0.012092313 -0.003291876 0.035662577 -0.021917788
-0.00022246159 0.02082171 -0.02242078 -0.02119311 -0.021313753 -0.03416726 0.0272399 -0.012148929
-0.03236268 -0.010072002 -0.0042995694 -0.023335967 -0.0025860248 -0.02789785 -0.0043113516 0.015759619
-0.0041158265 -0.013343173 -0.021485016 -0.045770425 -0.037365932 -0.012419359 0.0035860916 -0.0041248044
00000000: fa00 603c 7226 8bbb fe0e 7ebc bcbb 9dbb
00000010: 5704 25bd bbd9 bebc e8cc 99bc b4e9 ddbc
00000020: 6ef4 adbb 499c 3e3c 852c 283a 6b4b b7bc
00000030: a7d8 b9bc c871 87bc 1bb2 e3bc ad24 60bc
00000040: c11a 87bb 124b 81bc 7f26 843b 4218 5c3c
00000050: be38 c7bb b790 0dbc 91be fabc e044 eabc
00000060: 8184 3a3b 80d2 2f3c f285 8c3b 9251 be3b
00000070: d1cd 0dbc 7811 58bd faa1 053d c5ce 8b3b
00000080: 07a7 4dbb 6364 30bd 1f70 9abc 0000 0000
00000090: d61e 463c 84bc 57bb ec12 123d ef8c b3bc
000000a0: 9444 69b9 4a92 aa3c c9ab b7bc 2c9d adbc
000000b0: 2e9a aebc f8f2 0bbd 3626 df3c 4d0c 47bc
000000c0: bb8e 04bd 0a05 25bc 67e3 8cbb 122b bfbc
000000d0: 4c7a 29bb 088a e4bc 3d46 8dbb 511a 813c
000000e0: 0ede 86bb 539d 5abc 5801 b0bc c579 3bbd
000000f0: 050d 19bd 917a 4bbc a204 6b3b 5e29 87bb

weight f4 [1, 64]
0.021273123 0.08112442 -0.16268411 0.0006413727 0.22930934 0.13639368 -0.29940248 0.0015360418
-0.022729062 0.007659477 -0.0004927887 0.015842386 -0.116222896 -0.021802666 -0.17451194 -0.22741136
0.033804573 0.00045900515 -0.0016350454 -0.0008089126 -0.0003464419 -0.00025725915 -0.35768116 0.07064195
0.17022221 -0.16184409 -0.041289665 -0.0010040753 -0.00036417117 0.28967878 -0.05074184 0.09420314
0.17860563 0.2608403 -0.00027993997 -0.026793238 -0.0005271957 0.12718919 -0.0639604 0.0662048
0.14697315 -0.06352067 0.0046300543 0.0032288004 0.1815253 0.14389746 0.09184108 0.00070614833
0.062124018 -0.0048055276 -0.001981569 -0.326377 0.00010289235 0.0015383952 0.0065588164 -0.0076152952
-0.00090135826 0.03686196 0.0012265748 0.33426332 -0.08111672 -0.000587804 -0.0010028695 0.0041243336
00000000: f944 ae3c 8f24 a63d aa96 26be cb21 283a
00000010: 11d0 6a3e c9aa 0b3e 484b 99be 0355 c93a
00000020: 4c32 babc 5afc fa3b 7d2e 01ba e4c7 813c
00000030: 4506 eebd 819b b2bc 42b3 32be 86de 68be
00000040: aa76 0a3d a1a6 f039 054f d6ba 350d 54ba
00000050: a5a2 b5b9 bde0 86b9 fc21 b7be baac 903d
00000060: bb4e 2e3e 75ba 25be 5a1f 29bd 2d9b 83ba
00000070: 3aee beb9 c750 943e add6 4fbd 93ed c03d
00000080: 65e4 363e dc8c 853e e8c4 92b9 7e7d dbbc
00000090: 8133 0aba e23d 023e acfd 82bd 6296 873d
000000a0: 2180 163e 2017 82bd b6b7 973b 489a 533b
000000b0: c5e1 393e db59 133e 2d17 bc3d d01c 393a
000000c0: c175 7e3d b077 9dbb 36dd 01bb e31a a7be
000000d0: e9c7 d738 faa3 c93a 57eb d63b ba89 f9bb
000000e0: 2149 6cba 91fc 163d 05c5 a03a 9024 ab3e
000000f0: 8620 a6bd dc16 1aba b772 83ba 6b25 873b

weight f4 [5, 64]
0.0030763873 0.03873557 -0.011149849 -0.0012679285 0.0024469572 0.001146617 0.007847834 -0.10636072
-0.006148024 -0.009245137 0.005269366 0.0105749415 0.024118979 -0.00080299727 -0.045097005 -0.005137228
0.009898453 0.0068169995 -0.18254912 0.012864781 0.0026981048 -0.006043858 -0.0031066737 -0.0030690434
-0.008512722 0.001284265 -0.014478389 0.012646991 -0.010626921 0.00033009498 0.0014545029 0.021378761
0.02485304 0.0051251175 -0.05012721 -0.027489519 0.014906515 0.0024625463 -0.017920412 -0.06260676
-0.019035885 -0.0016975291 -0.04536837 -0.036688194 0.017822461 0.0044598603 0.02715586 0.01045683
0.005346291 0.0005483448 -0.0012343669 0.031177307 -0.10368587 -0.01276452 -0.007067992 -0.18412468
0.01774391 0.00244242 -0.020038063 -0.0022914184 -0.00055635505 -0.018622497 0.0070991064 -0.041076872
-0.033335045 -0.14167012 0.014466704 -0.025710173 0.0025263503 0.016681874 -0.049515262 0.21455628
-0.00025552756 0.007514771 -0.0014185556 -0.03097927 -0.093112424 -0.0053722276 0.09887297 0.0061461576
-0.0042916397 -0.048266448 0.43313497 -0.034851875 -0.000196627 0.012108897 0.018796366 0.0106208585
-0.00439306 0.0011716506 0.047157083 -0.06684656 0.043004893 0.010466902 -0.002350031 -0.07268132
-0.097276285 -0.011935981 0.113411404 0.07115264 -0.06680265 -0.0027203222 0.033243585 0.11940422
0.029746586 0.00039324342 0.11476843 0.099612065 -0.080097705 -0.022806438 -0.09790648 -0.024710765
-0.038912814 -0.0018037912 0.0016833463 -0.08406017 0.22739702 0.048300557 -0.00611405 0.3938373
-0.03085332 -0.015584085 0.02693307 -0.0030452318 0.0014690903 0.021063346 -0.03101709 0.07073919
0.0032854544 0.030070387 -0.01076162 0.007455615 -0.001230009 0.001157352 0.010576734 -0.10171876
-0.00088528614 -0.009603496 0.0071411487 0.0047342503 0.023914237 0.0076566474 -0.053286415 -0.017521814
0.002016072 0.0041796514 -0.17297004 0.013759943 -0.0028659606 -0.0036289538 -0.009593609 -0.0064738323
-0.0048607513 0.0018502284 -0.016437925 0.017160062 -0.011274104 -0.0016255766 0.0007681666 0.018055996
0.02799865 0.016837483 -0.060491323 -0.0331244 0.019877236 0.0028558574 -0.009225389 -0.07302829
-0.018732112 0.00033896448 -0.034740347 -0.03843327 0.018394796 -0.00088768144 0.026477264 0.001621032
0.0069078254 -0.001835377 0.003665169 0.023319704 -0.10184411 -0.020919496 0.0050172554 -0.1924322
0.012029969 0.011215777 -0.021715011 0.00071799103 0.0005180227 -0.020276386 0.005940356 -0.02750596
-0.00023512065 0.03590884 -0.0032190676 0.010646221 -0.00015175878 -0.013716767 0.01983302 -0.09087905
0.003708088 -0.010044314 -0.013915003 0.009699049 0.031643465 0.008726813 -0.052186612 0.010063079
-0.0056419508 0.009963026 -0.19656391 0.009866689 -0.010034043 -0.006296451 -0.007382567 0.0002865645
-0.007747227 -0.0011005723 -0.010951389 0.023659846 -0.018736118 -0.004429422 0.0022218993 0.011656301
0.026270539 0.0012124443 -0.05753866 -0.022126319 0.0134721715 -0.00064841885 -0.009624897 -0.06225165
-0.013613129 -0.00036543814 -0.04017785 -0.038708314 0.024760928 -0.001540331 0.021472117 0.012629482
0.006858481 -0.0021314288 0.0042792116 0.029140621 -0.1053457 -0.016445573 -0.0031317999 -0.17601912
0.007037002 0.01065798 -0.013947066 0.0032155418 0.00067160086 -0.026958566 0.009180743 -0.036723036
00000000: 379d 493b 30a9 1e3d dbad 36bc 9f30 a6ba
00000010: 215d 203b 154a 963a 3494 003c a6d3 d9bd
00000020: 5d75 c9bb ea78 17bc a5aa ac3b 8542 2d3c
00000030: 2a95 c53c 3c80 52ba a3b7 38bd 3156 a8bb
00000040: 1f2d 223c 2361 df3b 28ee 3abe cdc6 523c
00000050: b0d2 303b 8e0b c6bb 5699 4bbb 0122 49bb
00000060: f278 0bbc c854 a83a c436 6dbc 5335 4f3c
00000070: 8a1c 2ebc 9910 ad39 05a5 be3a 8322 af3c
00000080: 9a98 cb3c 9af0 a73b 3052 4dbd b331 e1bc
00000090: 753a 743c ac62 213b d4cd 92bc f937 80bd
000000a0: 25f1 9bbc a07f deba 2fd4 39bd 5c46 16bd
000000b0: 6900 923c 0524 923b f775 de3c 2053 2b3c
000000c0: f02f af3b ccbe 0f3a 7bca a1ba 8d67 ff3c
000000d0: 4259 d4bd 4722 51bc 9d9a e7bb 2e8b 3cbe
000000e0: ad5b 913c 0211 203b dd26 a4bc 9f2b 16bb
000000f0: 5bd8 11ba 358e 98bc 9f9f e83b 3940 28bd
00000100: 548a 08bd f911 11be c105 6d3c 249e d2bc
00000110: 2091 253b 6da8 883c 84d0 4abd a4b4 5b3e
00000120: 54f8 85b9 783e f63b d4ee b9ba 3dc8 fdbc
00000130: bab1 bebd 8309 b0bb e97d ca3d b565 c93b
00000140: e2a0 8cbb 0ab3 45bd dec3 dd3e d7c0 0ebd
00000150: a92d 4eb9 6564 463c d6fa 993c 1c03 2e3c
00000160: a9f3 8fbb 1292 993a c927 413d d9e6 88bd
00000170: e625 303d 5e7d 2b3c fa02 1abb f2d9 94bd
00000180: ca38 c7bd 228f 43bc 3d44 e83d 7ab8 913d
00000190: d4cf 88bd 6f47 32bb 6d2a 083d 338a f43d
000001a0: 1daf f33c 3d2c ce39 b60b eb3d 6901 cc3d
000001b0: 440a a4bd 91d4 babc 3183 c8bd 3b6e cabc
000001c0: 0b63 1fbd 306d ecba bba3 dc3a bd27 acbd
000001d0: c4da 683e ced6 453d 5e58 c8bb 0ba5 c93e
000001e0: 1ac0 fcbc 6454 7fbc bea2 dc3c 8392 47bb
000001f0: 7e8e c03a 0a8d ac3c 8d17 febc b5df 903d
00000200: c750 573b 2c56 f63c 8151 30bc 3b4e f43b
00000210: 4138 a1ba 4ab2 973a 0a4a 2d3c ed51 d0bd
00000220: 8c12 68ba fb57 1dbc 4c00 ea3b c521 9b3b
00000230: cae7 c33c 9de4 fa3b db42 5abd e889 8fbc
00000240: 1320 043b 75f5 883b 0f1f 31be 6271 613c
00000250: d7d2 3bbb bed3 6dbb 832e 1dbc 7122 d4bb
00000260: f046 9fbb 5d83 f23a d4a8 86bc 4293 8c3c
00000270: 05b7 38bc 4d11 d5ba ca5e 493a 2bea 933c
00000280: 6d5d e53c c3ee 893c c0c5 77bd 73ad 07bd
00000290: 96d5 a23c 5629 3b3b 1626 17bc db8f 95bd
000002a0: 1674 99bc 0bb7 b139 e54b 0ebd 346c 1dbd
000002b0: afb0 963c 4bb3 68ba d9e6 d83c cf78 d43a
000002c0: 0a5b e23b 0891 f0ba 5533 703b f708 bf3c
000002d0: a593 d0bd 5d5f abbc ca67 a43b f20c 45be
000002e0: 5919 453c 61c2 373c aee3 b1bc 9037 3c3a
000002f0: eacb 073a aa1a a6bc 51a7 c23b 2e54 e1bc
00000300: b88a 76b9 2615 133d fef6 52bb 7d6d 2e3c
00000310: 7021 1fb9 4abc 60bc dc78 a23c cc1e babd
00000320: 6503 733b e890 24bc c1fb 63bc c3e8 1e3c
00000330: 949c 013d e8fa 0e3c a1c1 55bd 9ddf 243c
00000340: 1de0 b8bb f63b 233c 0d48 49be e5a7 213c
00000350: d465 24bc 7652 cebb 76e9 f1bb 093e 9639
00000360: 73dc fdbb 1441 90ba 746d 33bc 4bd2 c13c
00000370: 7d7c 99bc af24 91bb 499d 113b 12fa 3e3c
00000380: 5035 d73c e1ea 9e3a a8ad 6bbd 4142 b5bc
00000390: 62ba 5c3c a7fa 29ba beb1 1dbc 96fb 7ebd
000003a0: 9a09 5fbc 4798 bfb9 8791 24bd 9c8c 1ebd
000003b0: 6ed7 ca3c efe4 c9ba 4be6 af3c e3eb 4e3c
000003c0: 1cbd e03b 71af 0bbb a138 8c3b 50b8 ee3c
000003d0: 7dbf d7bd deb8 86bc e23e 4dbb 5b3e 34be
000003e0: a796 e63b cf9e 2e3c 3c82 64bc d7bb 523b
000003f0: 5f0e 303a 36d8 dcbc d46a 163c e56a 16bd

bias f4 [5]
-0.012843404 0.008740194 -0.017273346 -0.01060225 -0.013042864
00000000: 246d 52bc 0833 0f3c d580 8dbc 0fb5 2dbc
00000010: bdb1 55bc
