model/tiny-4/A2C/model_agent0_seed1.pt (torch, 101825 bytes, 11 tensors)

weight f4 [64, 119]
000000 0a cd bb 3c 91 60 2f 3e c7 46 dc bd 8e a9 df 3c
       0.022924919 0.17126681 -0.10755687 0.02730253
000010 95 b1 45 be f5 91 cd bd ba 2f 05 bd 82 83 28 bd
       -0.19306023 -0.10037605 -0.03251622 -0.04114104
000020 56 90 77 be 95 c1 ff bc a6 3d 7f 3e 4e bf 4b bc
       -0.24176154 -0.031220237 0.24925861 -0.012435747
000030 fc 4b c6 3d a9 9c 0c be c1 4a 85 3d f4 cf 1c 3e
       0.096824616 -0.13731636 0.06508399 0.15313703
000040 0a 54 a4 bd 56 18 38 be b8 53 5e 3d ba 10 9e 3d
       -0.08023842 -0.17978033 0.05427906 0.07718034
000050 37 7b af 3d 52 0c 86 3d f9 2b 29 be 61 7c c4 3d
       0.08568423 0.06545319 -0.1652068 0.09594036
000060 4c fa 51 3e 1d 35 17 be 1c c0 ab 3c 99 67 77 bd
       0.20505637 -0.14766355 0.020965628 -0.060401533
000070 a6 95 07 3d 0b 3b 62 3d 21 76 b7 3d 5a 78 ac 3c
       0.0331017 0.05523209 0.08958078 0.021053482
000080 36 db f0 3d ff 31 e8 bd 55 79 b1 3c 28 07 97 bd
       0.11760561 -0.11337661 0.021664301 -0.07374412
000090 be 73 71 be 02 1f fa 3d ea e8 00 3e e1 dd d0 bc
       -0.23579308 0.122129455 0.1258885 -0.025496425
0000a0 e6 20 f9 bd fd 06 6c 3d 33 27 63 3e 90 ee c6 3d
       -0.12164478 0.057623852 0.22182922 0.09713471
0000b0 0d a0 36 be bb 21 dd bd 7b 05 09 3e 4e 62 49 3c
       -0.17834492 -0.10797449 0.13380997 0.012291504
0000c0 84 7a f0 3d ac b1 7d 3d 32 26 52 bd b9 6e fa bd
       0.11742118 0.06193702 -0.051305957 -0.1222815
0000d0 83 e8 5a 3d f8 42 d0 3c 9a 7b 67 bd 53 9a 5d be
       0.053444397 0.025422558 -0.05651436 -0.21640901
0000e0 d0 fb 52 be 89 f7 cc bc bf da 57 be f2 0a 15 be
       -0.20603871 -0.025020378 -0.21079539 -0.14554957
0000f0 0d f0 ee bd 2e e8 ae 3c db 74 38 be 7c d5 d2 bd
       -0.1166688 0.021350946 -0.18013327 -0.10294625
000100 91 2f 95 3d 16 2b e0 bc 06 f0 28 bd 2a 2e ad 3d
       0.07284463 -0.027364295 -0.04124453 0.08456071
000110 66 49 6b bd b2 70 97 3e 1e bc 22 3e ac 95 0a 3e
       -0.057443045 0.29578167 0.15892074 0.13533658
000120 9e 5b 7b 3e b1 bb a4 3d 33 97 92 3d 6c 93 23 be
       0.24546668 0.08043612 0.07157745 -0.15974206
000130 b7 e2 a3 3d cf 8f 55 be 84 5d 9d 3d ae a7 cb 3c
       0.08002227 -0.2085564 0.07683852 0.02486023
000140 86 6d ba be ec 19 66 be f8 12 2c bd bf 82 59 bd
       -0.36411685 -0.22470826 -0.042010278 -0.053103205
000150 ca 91 eb 3d 18 b2 9b bd 05 7a 1b 3e b3 af 2a 3e
       0.115024164 -0.07602328 0.15183266 0.16668586
000160 65 80 81 3d c0 f7 42 3d f1 6d 14 bc 59 89 58 3d
       0.063233174 0.047599554 -0.009059415 0.05286536
000170 d4 a0 a7 be cd 79 61 3c d8 f4 22 bd a4 91 85 bd
       -0.3273989 0.01376195 -0.039784282 -0.06521919
000180 64 af 22 3e 2c 3d d7 3c ed c4 ba 3c 29 db bf bd
       0.15887219 0.026274286 0.02279898 -0.09367973
000190 6c aa 8b bd 02 ad af 3d 20 28 6e 3e d1 0b 5c bc
       -0.06819615 0.085779205 0.23257494 -0.013430552
0001a0 2e 51 28 3d 0b 74 4e be f6 01 1f be cf 94 ff 3d
       0.041093044 -0.20161454 -0.15528092 0.12479555
0001b0 a7 8e 6c 3e 9f 0b c6 3b 20 8d 54 be 5a 0b 1d 3e
       0.23101293 0.006043866 -0.2075696 0.15336362
0001c0 26 e7 68 bd b8 e9 c6 bd c9 b1 d0 bd c3 51 9e bd
       -0.056861065 -0.09712547 -0.1019016 -0.077304386
0001d0 2d ba b9 3b eb 64 61 bc 5d ad ca 3d 51 24 cb bc
       0.005667946 -0.013756971 0.09896348 -0.02479759
0001e0 a3 61 6c bd 8a 4a a5 3c 42 ec 56 bd fa e0 bd 3d
       -0.0577103 0.020177145 -0.052471407 0.092714265
0001f0 84 af 1a 3d 72 c4 df bd a3 d7 c0 bd 75 06 8b bd
       0.03776504 -0.10926141 -0.094161294 -0.06788341
000200 5f 39 9f bd 15 fe cf 3d 2f e6 89 3d 7b c3 8c 3d
       -0.077746145 0.10155884 0.06733357 0.068732224
000210 4e e9 2d bd 71 06 f5 bd a4 24 e2 3d 3b 34 22 be
       -0.042458825 -0.11964119 0.11042145 -0.15840237
000220 51 ae a9 3d 94 d9 b6 3d bd 73 80 3d 98 fe 2b be
       0.08285201 0.089282185 0.06272075 -0.16796339
000230 59 7f 97 3d cc 38 02 3e d7 a9 dc 3d 0a fb 66 3c
       0.073973365 0.12716979 0.10774582 0.014097938
000240 36 ce a8 bb 01 39 0f 3e 22 2f f7 3b c0 48 3e bc
       -0.0051515354 0.13986589 0.0075434605 -0.011614025
000250 b5 ba 9c 3e 3d cb 1e bd 75 2c 4b be 8d ea 71 3d
       0.30611196 -0.038768042 -0.19841178 0.059061576
000260 15 4c a5 bd ec 7a a5 3d 5e a5 27 bd ba db 4b be
       -0.08071152 0.08080086 -0.04092919 -0.19908038
000270 b6 b3 5a bd 08 5f b3 bc 5d 11 94 bd 39 23 84 3d
       -0.053394042 -0.0218959 -0.07229874 0.06452031
000280 65 43 2c 3e 9c d7 3d bd bb f4 2a be b8 8b 1b be
       0.16822584 -0.0463482 -0.1669492 -0.15190017
000290 6d 5a 61 bd 2d 34 14 bd 83 50 c9 bd c6 0f 34 be
       -0.055017877 -0.03618257 -0.098298095 -0.17584142
0002a0 a3 c1 84 3e 2c 9a 1f be e0 de 51 3e 6e c9 3b 3e
       0.25928983 -0.15586156 0.20495176 0.18338558
0002b0 dc f4 02 3c 72 fa a5 be ee 4c 11 be 31 c6 4a bd
       0.007992949 -0.32417637 -0.14189503 -0.049505416
0002c0 52 50 13 bb c8 b6 ee 3d ba 6a 85 3d 9a bf 63 3e
       -0.0022478295 0.116559565 0.06514497 0.22241059
0002d0 52 2c c6 3d ac f1 87 bd 65 af 6a bd 96 50 45 3d
       0.09676422 -0.06637892 -0.057296176 0.048172556
0002e0 c0 39 6b 3e 0c c4 af 3e b0 13 ff 3d 92 47 f5 3c
       0.22971249 0.3432926 0.12454927 0.029941354
0002f0 0c 58 57 3e 40 b8 dd 3d 47 90 ad 3c 4a 47 0f be
       0.21029681 0.108261585 0.02118696 -0.13992038
000300 fb 4e 33 3e f5 24 9a bd 99 c5 0b be 7c fe af 3c
       0.17510597 -0.0752658 -0.13649596 0.021483652
000310 1e 66 d2 3e f1 bd b2 3d 01 7f 2c 3e 6c 51 79 bd
       0.41093534 0.08727635 0.16845323 -0.060868666
000320 8b ff e7 bd 4c 61 52 3e 66 43 15 3c 9b ba 3a 3e
       -0.11328038 0.20544928 0.009110307 0.18235247
000330 cd 72 22 3d d9 b4 48 be 16 1d 28 be 99 6f fd bd
       0.039660264 -0.19600238 -0.16417345 -0.12374801
000340 e6 41 0c 3b 75 bc 99 bc fd 7d d6 3c f1 7a 6c bd
       0.0021401583 -0.018766621 0.026183123 -0.057734434
000350 96 57 4a 3d c3 5c 7e bd 32 29 72 3d de fc 94 bd
       0.049399935 -0.062100183 0.05912132 -0.07274793
000360 1e c6 30 be eb 79 ab 3c c6 63 9b bd 73 ba 1b 3e
       -0.17263076 0.020932158 -0.0758739 0.15207843
000370 59 60 6b 3e fb 5a d5 bd 1b 4e ff 3c 0c 6c 12 be
       0.22985972 -0.10417744 0.031165173 -0.14299029
000380 58 13 24 be a7 fb a3 3e 06 49 9e bd 69 48 ea bd
       -0.16023004 0.32027933 -0.07728772 -0.114395924
000390 84 7d c1 3d eb 1e 21 3e 86 cb 34 bd 52 94 6d bd
       0.09447768 0.1573445 -0.044139408 -0.058002777
0003a0 4e dc a2 3d eb 19 34 bc a2 11 10 3d 8d 30 0b 3d
       0.07952176 -0.010992507 0.035173066 0.03398185
0003b0 17 10 80 3c cc fa 84 3d 28 84 d9 bd 20 cb 0a 3d
       0.015632672 0.06493148 -0.1062091 0.03388512
0003c0 64 96 33 be c2 dc 86 3d 22 25 a1 3d b9 c2 c0 3d
       -0.17537838 0.06585075 0.07868411 0.094121404
0003d0 86 49 0b bd 05 23 8e 3d bc 3e 0c 3d ed 5b 93 bc
       -0.034005664 0.06940273 0.034239516 -0.01798817
0003e0 c6 96 1c be 9f 71 88 3d 26 f0 04 3e b3 22 b2 3d
       -0.1529189 0.066622965 0.12982234 0.086980246
0003f0 a8 c4 90 bd ef 3a e6 bd 46 51 7a 3d be 1e 38 3e
       -0.07068759 -0.112417094 0.061112665 0.17980477

bias f4 [64]
000000 51 86 fd bc f0 34 24 bc 77 3e c2 bc c5 ad 5c bb
       -0.030947836 -0.010022387 -0.023711426 -0.003367291
000010 c2 ae 3f bc 5a dd 29 ba 2a 76 58 bc 30 ab 90 ba
       -0.01169938 -0.00064798223 -0.013211766 -0.0011037346
000020 64 b6 19 bc 60 2a 45 bc e3 c9 c0 b8 b4 21 4a bc
       -0.009381864 -0.012034029 -9.192878e-05 -0.012337137
000030 10 06 06 3b da d8 0b bc 49 37 49 3b 51 4b 01 bc
       0.002045039 -0.008535588 0.0030703119 -0.007891492
000040 08 81 5b bc 7f d6 41 ba c0 db 50 b7 78 e4 f4 ba
       -0.013397463 -0.0007394328 -1.2448931e-05 -0.0018683812
000050 51 c7 a0 bc eb 6d 77 bc a5 b1 98 bb c0 cc 91 bc
       -0.019626291 -0.01510189 -0.0046598488 -0.017797828
000060 4f 47 1c bc f5 fa 7c bb e2 20 65 bc ce c0 2a bb
       -0.009538486 -0.003860173 -0.013984891 -0.0026054862
000070 c8 11 45 bc 7c d6 8a bc 35 db f1 bb d1 20 36 bc
       -0.012028165 -0.016947977 -0.007380868 -0.0111162225
000080 2b c7 7c bb 97 a0 10 3c 07 11 06 bb 3d 23 0a bb
       -0.0038570862 0.00882735 -0.0020456926 -0.0021078133
000090 6e 8b 6e 3b fa ab c1 bb 64 a6 cf 3a dd ff 33 b8
       0.0036399025 -0.005910394 0.0015842435 -4.2915217e-05
0000a0 14 c4 04 bc c4 05 9f 3a 21 fe 0f bc 00 00 00 00
       -0.008103389 0.0012132456 -0.008788616 0.0
0000b0 33 8c fb bb 93 4d 78 3a f2 0c a7 3b 56 8c 20 3a
       -0.007676625 0.00094720087 0.0050979787 0.00061244273
0000c0 c2 4b 44 bb 62 f0 66 ba 43 ff 0f bc 55 0c f1 ba
       -0.0029952382 -0.00088096235 -0.0087888865 -0.0018390516
0000d0 51 50 a6 bb 46 6a a0 3a 81 f3 20 3b 3d ae a4 bc
       -0.0050754924 0.0012238703 0.0024559202 -0.020102615
0000e0 ba bb 49 3b 48 5a da ba 55 9c 5b bb 8b 52 ae bb
       0.003078206 -0.0016658986 -0.003350993 -0.0053198985
0000f0 5d cb 05 bc 87 a2 0d bb 60 3c c8 bb 9d db c3 ba
       -0.008166161 -0.0021611766 -0.006110713 -0.0014942769

weight f4 [64, 64]
000000 04 fb 2c 3d 02 d1 38 3d d0 fe bd 39 6e 2b 63 3d
       0.042231575 0.0451212 0.0003623874 0.05546134
000010 df b4 61 be 7f d6 f9 bb bd 93 bb 3e d5 fd 1d be
       -0.22041653 -0.007624447 0.36636153 -0.1542886
000020 c5 b2 f7 3d a8 0d 1a 3e 99 e1 78 bd f6 d6 56 3d
       0.120946445 0.15044272 -0.06076202 0.052451096
000030 ad 7a 0a 3d 29 02 02 3c a0 2f 8e be 50 5d 33 be
       0.0338084 0.007935085 -0.2777071 -0.17516065
000040 2a 68 b1 3d 28 da 53 3e 94 c0 d8 3d 1d a6 32 3e
       0.08662446 0.20688689 0.10583606 0.1744618
000050 e3 b6 1f 3c 67 75 1d be 12 c0 9b be 3b 6b 7c be
       0.009748193 -0.15376817 -0.30419976 -0.2465028
000060 50 8f 5f be d1 7d 5d be e1 c4 1e 3e 65 b0 12 be
       -0.21832013 -0.21630026 0.15504791 -0.14325102
000070 d4 e3 72 3e 1f 42 29 3d 9f 55 25 be 0c 9b ba 3d
       0.23719722 0.041322824 -0.16145943 0.09111604
000080 5f 13 0a be bb 7d be bc a6 34 c4 bd e5 4b 77 be
       -0.13483952 -0.023253312 -0.095803544 -0.24150045
000090 06 d1 f5 3d 0e ec 44 bd 4c 04 0c be 4e 84 46 3e
       0.12002759 -0.04807668 -0.13673514 0.19386408
0000a0 41 a4 a8 bd 0d 27 f4 be be b0 bb be c7 d4 55 be
       -0.08234454 -0.47686043 -0.3665828 -0.2088195
0000b0 81 2b 18 3e 9a 2b e5 bd 2e f4 1d 3e fe 61 c6 3c
       0.14860345 -0.11189957 0.15425178 0.024216648
0000c0 42 09 cf 3e 4b d1 04 be be 3c c1 3d 6a 3d 2b 3d
       0.4043675 -0.12970464 0.09435414 0.041806616
0000d0 9d da c6 3d 2b 91 f1 bd ed 12 10 3c 8b b5 5b 3e
       0.09709666 -0.11795267 0.008793575 0.21455972
0000e0 0d 0b 50 be 70 9a 04 bd 49 5e a2 3d 8a ad 30 be
       -0.20316716 -0.032373846 0.0792814 -0.172537
0000f0 49 10 6b 3e ae c5 ce bd 7c 3a 97 3e 26 5d 02 be
       0.22955431 -0.10096298 0.29536808 -0.12730846
000100 b6 1d 1b bb c5 51 04 3d 55 9c 91 be 01 cd 96 3e
       -0.0023668832 0.032304544 -0.28439584 0.2945328
000110 d5 27 fe 3d 70 44 9d 3c 36 50 9a bd 3b c9 87 3e
       0.12409941 0.019197673 -0.0753483 0.26520714
000120 79 9f 71 3d 70 3f 8e be e4 3f 25 3e 1d b1 50 3e
       0.058989976 -0.27782774 0.16137654 0.20380063
000130 25 0a e7 bd 6b 4a fe 3d 89 de 5d bd 39 30 94 bc
       -0.11281232 0.12416538 -0.054167304 -0.0180894
000140 77 6a 58 bd f8 43 0e 3e aa 02 84 3e 6f cd df bd
       -0.052835908 0.13893116 0.25783283 -0.10927855
000150 5d 65 19 be af 0e f3 bd 6d 24 2e bd 8f d4 b2 bd
       -0.14980073 -0.11868035 -0.042515207 -0.087319486
000160 a8 dc 37 3e 7c b9 b3 be 53 36 09 3e 5d 8a f0 be
       0.17955267 -0.3510245 0.1339963 -0.46980563
000170 07 22 18 3c fb fe 85 3d 42 ed 54 3e 41 22 96 bd
       0.0092854565 0.06542774 0.20793632 -0.07330752
000180 71 7d 20 3d 2c 34 93 3d 67 6c 0e 3e 2b e5 77 bd
       0.03918213 0.07187685 0.1390854 -0.060521286
000190 a3 63 0b 3e 2b 23 47 3e c1 49 75 3e 7b fe 0c 3e
       0.13612227 0.1944701 0.23953916 0.13768952
0001a0 3a 40 76 be f5 b6 91 3d 7b 8c 3a bd 77 e6 00 3e
       -0.24047938 0.071149744 -0.04554413 0.12587915
0001b0 ff 41 0e be 1b bd 18 3e 40 7f e0 bd 44 3c 18 be
       -0.13892363 0.14915888 -0.10961771 -0.1486674
0001c0 84 63 90 bd e4 c5 6a be a5 69 13 3e 02 86 79 3e
       -0.07050231 -0.22927052 0.14395769 0.24367526
0001d0 61 60 79 be 63 5f af 3e 47 f3 96 bd 72 d6 1a be
       -0.24353172 0.34252462 -0.0737062 -0.15120867
0001e0 2a 70 85 bd 86 88 bd be a9 4c 35 be e0 d9 a3 3b
       -0.06515534 -0.37018222 -0.17705025 0.005000338
0001f0 3d 5a ca bb 96 39 9b be 82 c4 3e 3e f9 fd ea 3c
       -0.006175308 -0.30317372 0.1862965 0.028685557
000200 e4 a5 de 3e 88 65 22 3c a1 92 09 bc 1c 62 ba 3d
       0.4348594 0.009911902 -0.008396775 0.09100744
000210 00 e4 91 bc f8 f1 89 bd d5 a2 e2 bd ae f7 8f be
       -0.017808914 -0.06735605 -0.11066214 -0.28118652
000220 92 4d 27 bc 44 bf 3d 3c 9a e1 06 be 30 1b 15 be
       -0.010211365 0.011581246 -0.13171998 -0.14561152
000230 b0 b3 cc 3d 6d d5 9f 3d fd 5e 9e be d9 c1 b1 3d
       0.0999521 0.078043796 -0.30931845 0.08679552
000240 42 01 c1 be 84 d5 87 3e f4 57 21 bd 65 42 17 be
       -0.37696272 0.26530087 -0.03939052 -0.14771421
000250 33 c0 98 bd d0 e4 ae be 7b 47 3c be e6 99 42 3e
       -0.07458534 -0.34158945 -0.18386643 0.1900402
000260 b1 c3 91 3d c1 88 96 3d 9b d9 16 3e c5 d3 16 be
       0.07117403 0.073503025 0.14731447 -0.14729221
000270 70 3c cd 3d b1 84 83 3d 25 f6 e2 3d 7b 58 2b 3e
       0.10021293 0.06421793 0.110821046 0.16732971
000280 0b 49 19 3e b1 5d 2f 3e f5 b5 c3 3c c3 a5 5b 3e
       0.1496927 0.17125584 0.023890475 0.21449952
000290 18 3e 22 be 83 c2 88 3d 87 53 86 3d 86 1c 1f 3e
       -0.15844 0.06677725 0.065589 0.15538225
0002a0 aa 9a ff 3d 94 99 17 3e 10 77 cf bd 02 8e a1 bd
       0.12480672 0.14804679 -0.10130131 -0.07888414
0002b0 3d ec 64 3d 9e 9c 6d 3c f1 6e b5 be ce e2 83 3e
       0.055889357 0.0145026725 -0.35436204 0.25758976
0002c0 c7 13 33 3e 56 f1 0f be 83 c6 b1 3e 0f 99 0c bd
       0.17488013 -0.14056906 0.34721765 -0.034325656
0002d0 a9 7c e1 3c e3 2e cd bb af ee df 3c e2 4a ac bd
       0.027525263 -0.006261693 0.027335493 -0.0841272
0002e0 41 55 fe 3e 75 c5 8e 3d e9 38 45 3e 2e ba 88 bd
       0.4967442 0.06971256 0.19259991 -0.06676136
0002f0 49 e1 d1 3d da 53 9f 3e ff de fc bd 4a 1b 34 3e
       0.10248048 0.3111866 -0.12347221 0.17588535
000300 84 6e 7f 3e df 99 c2 bb 1e b1 c5 3e 2e 42 cc 3d
       0.24944502 -0.005938753 0.38611692 0.0997356
000310 16 b9 74 bd e5 eb 17 3e 5d 0a f4 3d e8 18 b1 bd
       -0.059746824 0.1483608 0.11916039 -0.086473286
000320 77 9b a2 be 0e 80 22 3e 8e df 1e be 0e df 9a 3e
       -0.31759235 0.15869161 -0.15514967 0.30248302
000330 95 52 90 be 3b c6 18 3d 16 c0 91 3c 12 c7 aa 3e
       -0.28188005 0.037298422 0.017791789 0.33355004
000340 b0 56 31 be 5f 4a 32 3d 97 a3 00 3e 84 2d 58 3c
       -0.17318225 0.043527957 0.12562405 0.0131944455
000350 30 c9 09 3e 3d fb 55 3d 02 e3 1c 3c 36 e1 fe bd
       0.13455653 0.052241553 0.009575607 -0.12445299
000360 5a 79 ae be 06 de 5f 3e d3 96 a6 3b ee 13 0f 3d
       -0.3407696 0.21862039 0.0050838976 0.034931116
000370 28 2b 5f be 7c 93 fe bc fb 47 21 3e 64 33 23 be
       -0.21793807 -0.031076185 0.15750115 -0.15937573
000380 44 77 54 bc 76 30 60 be 74 ba cd 3a bb ec 39 be
       -0.012967888 -0.21893486 0.0015695826 -0.18156712
000390 1a 4a 4b 3e 1c 11 95 3d 68 1d 13 3f c9 91 19 3d
       0.19852486 0.07278654 0.57466745 0.037492547
0003a0 64 15 79 be 81 cb 60 3d 9b 6c 91 3e 00 19 70 bd
       -0.24324566 0.054881576 0.28403172 -0.05861759
0003b0 92 7f 91 3d 61 c4 8e 3b 6b 48 d4 3d 71 f3 17 bc
       0.0710441 0.0043569063 0.10365375 -0.00927435
0003c0 22 cd fd bc 02 1c 65 3d cc 88 bf bc 17 c4 85 bd
       -0.030981604 0.055934913 -0.02338066 -0.06531542
0003d0 46 0e a8 3d 44 63 bc ba e6 b7 0d bd b9 75 b0 bd
       0.082058474 -0.0014372845 -0.034599207 -0.08616204
0003e0 d2 43 8d 3b 7d 52 bb 3d a0 04 79 be 11 88 cb be
       0.0043110633 0.09146593 -0.2431817 -0.39752248
0003f0 03 6e bc bd 4d 35 2f 3e 70 e4 a5 3e 36 1c d8 3d
       -0.092006706 0.17110176 0.32400846 0.10552256

bias f4 [64]
000000 cc 50 2b 39 3f fe b2 bb 29 c1 10 bc 1d a3 81 bb
       0.0001633793 -0.0054624374 -0.0088351155 -0.003956212
000010 56 eb 7c bc c1 95 20 39 30 2d 2b bb 85 af 36 bc
       -0.015436968 0.00015314577 -0.0026119463 -0.011150246
000020 d2 4d bb ba bf 68 e5 ba 90 c4 b3 ba aa 45 72 bc
       -0.001429016 -0.001750253 -0.0013715196 -0.014787117
000030 e4 df 76 bb 00 de ba bc f1 98 aa bc e7 62 b3 bc
       -0.003767007 -0.022810936 -0.020824881 -0.021897746
000040 a8 af 5b bc 63 d0 a7 ba 1e a7 20 bc 5f f5 4e ba
       -0.013408579 -0.0012803193 -0.009805469 -0.00078948395
000050 56 b7 67 bb a9 53 90 bc 7c a3 66 bb 75 0b cc 3b
       -0.003535708 -0.017618017 -0.003519266 0.0062269517
000060 ea 62 66 3b 0d b2 1c bb 00 00 00 00 a3 14 73 bb
       0.0035154172 -0.0023909837 0.0 -0.0037091158
000070 2a e8 39 bc ab 76 cc bb 14 ee 26 3c 8f e7 9f 3a
       -0.011346856 -0.0062397323 0.010188598 0.0012199747
000080 8a 77 b3 3c 57 c2 a0 bc 1c 60 46 ba 71 5c 9a b9
       0.021907587 -0.019623918 -0.0007567422 -0.00029442043
000090 d3 7f 8c bb 42 ed 0e bc d4 4d f6 3b c2 cb 90 39
       -0.004287699 -0.008723559 0.007516602 0.00027617632
0000a0 47 95 7a bb 12 ff 76 bc 07 0e ba bc 00 00 00 00
       -0.003823595 -0.015075462 -0.022711767 0.0
0000b0 c0 01 88 38 81 df 80 3a 04 7c a1 bc 4a bb c5 bc
       6.485311e-05 0.0009832234 -0.019712456 -0.024137158
0000c0 56 b8 05 bc b1 fd 0f b9 0b e7 90 bc ac 7f e3 3a
       -0.008161625 -0.0001373205 -0.017688295 0.0017356775
0000d0 fd 86 99 b9 88 0a 34 3b f5 24 b6 bb 33 97 d3 ba
       -0.00029283008 0.0027472097 -0.005558605 -0.0016143083
0000e0 dc 27 1f 3b ae 21 19 bb 90 00 b8 bc 25 59 6d bc
       0.0024285233 -0.0023366022 -0.022461206 -0.014486586
0000f0 b1 01 21 3c 13 0d dd ba cc b2 e4 bb f0 bc 9d bc
       0.009827063 -0.0016864858 -0.006979322 -0.019255131

weight f4 [64, 119]
000000 d5 cc 18 be 62 37 95 3d f4 e1 32 bb 9a eb 95 3d
       -0.14921887 0.07285954 -0.0027295323 0.07320328
000010 52 81 7f 3a c0 c4 ed bc 54 3e 03 3e ba 74 22 3d
       0.0009746748 -0.029024482 0.12816745 0.0396621
000020 68 87 b4 bd 31 81 32 be 5f 41 34 3e 19 94 43 3e
       -0.08814889 -0.17432095 0.17603062 0.19099464
000030 3e 50 60 be 23 f7 5c be ab 6e d6 3d 7d 3e 3b 3e
       -0.2190561 -0.2157865 0.10470327 0.18285556
000040 f8 f5 53 bd a6 fd 38 bd a0 df 08 bd f4 dc 45 3d
       -0.051748246 -0.045163773 -0.03341639 0.04830642
000050 b8 df 75 3e 93 b4 b3 3c fd 9a 9a 3d 06 fb ed bd
       0.24011123 0.02193669 0.07549093 -0.116201445
000060 c9 93 74 3d 2b 74 24 3d c5 de 18 be 51 df 54 be
       0.05971125 0.04014985 -0.1492873 -0.20788313
000070 a1 08 b5 bb 17 9d 43 be e8 df 88 be b8 39 2a be
       -0.0055247103 -0.19102894 -0.26733327 -0.1662358
000080 03 a9 f8 3d 34 76 3f 3b ac e7 44 be 4a d6 dd 3c
       0.121416114 0.0029214742 -0.19229001 0.02707972
000090 be 46 e8 bd 1b 16 4e 3e 2a a1 cc 3d 10 20 c5 be
       -0.11341618 0.2012562 0.09991677 -0.38501024
0000a0 88 ae 2d bd 97 fe 84 3d 5d 44 4a 3d d3 6f e7 3b
       -0.042402774 0.06493872 0.049381603 0.007062891
0000b0 aa 43 44 bd a3 42 16 3e 2c 91 a9 3d 9d 78 09 3e
       -0.047916092 0.14673857 0.082796425 0.13424917
0000c0 86 6d 19 be 2e 1a a7 3d b4 a6 fb 3c 0a 12 df bc
       -0.14983186 0.0815929 0.030719139 -0.027230281
0000d0 96 6e b8 bd e0 06 99 be 73 7c 9e 3d c9 db e4 3d
       -0.090054676 -0.29888058 0.077385806 0.11174733
0000e0 4e 99 3c 3d d4 71 86 bc 3a 02 f3 bc 77 dd f2 bb
       0.04604464 -0.0164117 -0.029664148 -0.0074116546
0000f0 4e 01 d5 3d 5d 9f 41 be 0e d2 0a 3e a2 d6 0a 3e
       0.104006395 -0.18908449 0.13556692 0.13558438
000100 83 b8 c5 bd fd 7d 9a 3b f2 7d 13 3e b5 d2 ca 3d
       -0.096543334 0.004714726 0.14403513 0.099034704
000110 6e 30 27 3e 70 8b 5f 3e ec 95 d9 3d b1 45 68 3d
       0.16327068 0.21830535 0.106242985 0.056707088
000120 c3 a6 6f bd 8e d4 44 3d 09 fb 7c 3e ad 6c e6 bd
       -0.058508646 0.04805427 0.24705137 -0.11251197
000130 f0 cd ac 3d 56 dc be 3d 78 a0 00 3e 3f d0 d8 3d
       0.08437717 0.093193695 0.12561214 0.10586595
000140 c7 78 cd bc 1a a4 0a be 48 b3 3d be 57 da 02 bd
       -0.025082005 -0.13539162 -0.18525422 -0.031946506
000150 cc 1b 2f be 37 90 21 3e 6e 7a 36 be d2 24 f2 3c
       -0.17100447 0.1577767 -0.1782014 0.029558573
000160 e1 b6 6e bd 64 f3 14 3e 17 96 7e bb 86 4a 01 3e
       -0.058279876 0.14545971 -0.0038846785 0.12626085
000170 75 74 23 bd a2 82 d3 bd a8 0b 1e 3d 41 46 a9 bd
       -0.039905984 -0.103276506 0.038585335 -0.08265353
000180 fa b0 cb bd 58 37 8a bd 70 ec 35 3e 3f 04 0d 3e
       -0.09945865 -0.06748837 0.17765975 0.13771151
000190 74 1e 43 3e 95 5f 3c 3e f3 35 1f 3d 1e 9b e6 bd
       0.19054586 0.18395837 0.03886981 -0.11260055
0001a0 bd 25 2b 3e f8 32 34 3e e6 55 22 be 18 5b f0 39
       0.16713615 0.17597568 -0.1585308 0.00045844237
0001b0 f8 d3 51 be be da a4 3d c5 69 23 3e 4b 68 73 bc
       -0.20491016 0.08049534 0.15958317 -0.014856408
0001c0 93 80 45 bc f6 37 89 bc 13 d5 71 3d 00 33 8b 39
       -0.01205458 -0.016750317 0.059041094 0.00026550144
0001d0 f1 f1 60 3e 85 d1 4d bb e6 37 3e be 94 e1 86 bc
       0.21967293 -0.00314054 -0.18576011 -0.016464986
0001e0 89 fb dd bc 15 0d 70 3d a0 cc 28 be b4 4a 47 bd
       -0.02709748 0.058606226 -0.16484308 -0.048655227
0001f0 3c 7a ab bd 6a a5 17 3e ef f0 a6 3c e2 0b 81 be
       -0.08372924 0.14809194 0.020378558 -0.25204378
000200 4a 2c 85 be d9 8c 0f 3d fc 18 9f bd ec 89 99 bd
       -0.26010352 0.035046432 -0.07768437 -0.0749701
000210 09 ab cc bd 00 6e d6 3d 03 71 36 bd a6 54 ad 3c
       -0.0999356 0.104701996 -0.04454137 0.021158528
000220 7c be 7f bd aa 8b b8 3d 5d 66 ee 3c 4b f9 bb 3d
       -0.06243752 0.09011014 0.029101545 0.09178408
000230 9b f7 e0 3d 50 46 31 be 76 90 b3 bb bb c4 35 3e
       0.10984727 -0.17311978 -0.0054798676 0.17750828
000240 35 dd 8d 3d 92 b6 10 3e 77 3e b0 bd b1 c7 a3 3d
       0.069269575 0.14132145 -0.08605664 0.079970725
000250 26 28 11 be 48 77 64 be 53 41 c7 bc 00 16 12 3e
       -0.14175472 -0.22311127 -0.024323141 0.14266205
000260 da ef 98 be f5 bc bd 3d ab 6b 76 3d d1 2e ce 3d
       -0.29870492 0.09264556 0.060161274 0.10067523
000270 3d 40 5f be 5b c2 80 3d aa 57 97 3d f1 85 4a bd
       -0.21801849 0.0628707 0.073897675 -0.049444143
000280 7a cc e8 bd ca 79 93 be b6 57 33 be 14 97 8b bd
       -0.11367126 -0.28803855 -0.17513928 -0.06815925
000290 f3 62 1e 3d a3 4b e4 bd cb eb 63 3d f4 2d 3a 3d
       0.038668584 -0.11147239 0.05564479 0.04545398
0002a0 02 2d 3a be 11 20 48 3e c3 c1 45 be a7 77 bb 3d
       -0.18181232 0.19543482 -0.19312195 0.09153681
0002b0 17 c6 24 be 56 8b 83 3e c0 06 11 bd f7 94 12 3e
       -0.1609119 0.25692242 -0.035406828 0.14314638
0002c0 84 30 33 3e cd e1 47 bc 37 2f fd 3d 75 94 3c 3d
       0.17498976 -0.012199831 0.12362521 0.046040017
0002d0 d0 17 af bd 4a eb 96 3d 21 43 7e be 11 84 8c bc
       -0.08549464 0.073690966 -0.24830295 -0.017152818
0002e0 f3 c0 de bc 9b bc 65 bd 0f 80 24 bd 3e 83 4a be
       -0.027191615 -0.05608807 -0.04016119 -0.19776627
0002f0 6a db 3e be 73 ed da 3d 39 13 88 3d cb b1 46 3e
       -0.18638387 0.10689821 0.066442914 0.1940376
000300 5f 85 0c 3d 99 b4 0a 3d 87 02 4f bd 58 87 9b 3d
       0.03430688 0.033863638 -0.05053952 0.07594174
000310 22 62 07 3e 99 57 d6 bd 9a 65 23 3e 52 42 cd 3d
       0.13221028 -0.10465927 0.15956727 0.10022415
000320 2a 4e 36 3e 61 29 87 3e d2 60 ed 3d 2d 1a 92 3d
       0.17803255 0.26398757 0.11590733 0.07133899
000330 29 82 bb bc 6c 52 ac bd 6e a4 c9 bd 2e f2 f9 3d
       -0.022889214 -0.08414158 -0.098458156 0.12204395
000340 d2 6b 11 3e 1b 79 93 bd 88 df 13 bd ec b2 1c be
       0.14201286 -0.072008334 -0.036101848 -0.15302628
000350 22 88 35 3d 80 4e 31 3e 88 34 1f bd 3e 2b 40 be
       0.04431928 0.17315102 -0.038868457 -0.18766496
000360 1d 19 14 be da 91 35 3d c4 ab 38 be 9f 09 a9 bd
       -0.14462705 0.044328548 -0.18034273 -0.08253788
000370 be c2 df 3c f7 bf 1d 3e 40 b5 7e 3e 7f e7 33 bd
       0.02731454 0.1540526 0.24873829 -0.043921944
000380 81 85 2d 3d 36 d7 11 3d 6c c3 dd 3d 97 75 31 be
       0.042363647 0.03560563 0.108282894 -0.17330013
000390 13 d6 1b be 39 73 c1 3b 68 ec a8 3c b4 a0 da bd
       -0.15218382 0.005903628 0.02062054 -0.10675183
0003a0 33 61 6d be 6f 96 54 3e 7d e1 e8 3d 56 79 f9 bd
       -0.2318161 0.20760511 0.113711335 -0.12181346
0003b0 4b 6d 99 bd 8c 67 15 3e 6f 2d 6f 3d a8 c4 8f 3d
       -0.07491549 0.14590281 0.05839294 0.07019931
0003c0 60 6a 7a 3d 30 ad 0f bd 8b d3 a7 bc 74 53 38 3e
       0.061136603 -0.035077274 -0.020486614 0.18000585
0003d0 af 4c 27 3d 90 4c 65 bd e8 62 ec 3d c8 ab 1f be
       0.040844616 -0.05598122 0.11542302 -0.15592873
0003e0 a7 bf 0a be 68 b6 2c be dd 25 07 3e 54 80 a7 bd
       -0.13549672 -0.16866457 0.13198037 -0.081787735
0003f0 63 2c 4b bd 40 8b 2d 3e 10 f4 e8 bd 55 90 62 3e
       -0.049602877 0.16947651 -0.11374676 0.22125371

bias f4 [64]
000000 c1 49 6b bc bd 6f f6 bc e9 33 8a 3b 45 a2 4b bc
       -0.014360846 -0.030082578 0.004217614 -0.012428825
000010 91 97 8d bc 38 79 cd bc 72 1d 92 bc 4e 5b 0d bd
       -0.017284187 -0.025082216 -0.017836306 -0.034510903
000020 99 13 8c bc fe b2 d4 bc 00 00 00 00 ed 93 be bc
       -0.017099189 -0.025964256 0.0 -0.023263896
000030 4c 19 84 bc 53 33 2f bd d2 06 40 3d f4 ec 01 bd
       -0.016125344 -0.042773556 0.046881504 -0.031720117
000040 81 2e 14 bd a6 47 0e bd 1a 1c 3d 3b c4 d0 16 3c
       -0.036177162 -0.034736298 0.0028855861 0.009205047
000050 ba a9 00 3d ef 3a 3d bc 9d be 12 bc f6 50 f1 bc
       0.031411864 -0.011549695 -0.008956579 -0.02945755
000060 1b 19 83 bc e2 97 8f bc 4d 47 91 bd ef f1 1d bd
       -0.016003182 -0.017528478 -0.07093678 -0.038560804
000070 e9 61 67 bd 43 3d 15 bd 4d 48 15 3d 21 e0 fd bc
       -0.05648986 -0.036435377 0.036445905 -0.030990662
000080 c9 4e 5e bd 6a dc 81 3b cb 46 57 bc a7 9e 30 bc
       -0.054274354 0.003963043 -0.013139437 -0.010780013
000090 42 fa 4d bd 64 a2 11 bd 42 b0 83 bc 84 dd 98 3c
       -0.050287493 -0.03555526 -0.016075257 0.018660314
0000a0 33 4a 86 3c 1c c8 50 bd c0 a0 5b 3c 88 ad 0e bd
       0.016392803 -0.05097209 0.013405025 -0.03483346
0000b0 f2 00 50 bd 71 cb 41 3c 2d 92 a5 bc 18 d0 5c 3c
       -0.05078215 0.011828289 -0.020211304 0.013477348
0000c0 7c cb a5 3c e8 4f 28 bd a1 b9 e4 bc 51 97 72 3c
       0.02023863 -0.04109183 -0.027920546 0.014806584
0000d0 a3 30 80 bd bf fd d6 bb 2e a3 17 bd e9 09 d5 bc
       -0.06259277 -0.0065610106 -0.037020855 -0.026005702
0000e0 a4 2e 59 3c 62 15 6c bc e4 e8 22 ba b8 a2 ef bc
       0.013255749 -0.014409395 -0.0006214513 -0.029252395
0000f0 0b 43 7d bc dd 1f fd bc fa 82 bc 3c d2 27 1c bd
       -0.015457879 -0.030898983 0.023011673 -0.038123913

weight f4 [64, 64]
000000 74 61 5b 3e c0 d8 48 be 63 fb 5b bc 6b e0 00 3e
       0.21423894 -0.19613934 -0.0134266345 0.12585609
000010 71 d9 85 be 4b 71 ae 3d ac 11 49 3d bd 57 e4 bd
       -0.26142457 0.08517703 0.04908912 -0.11149547
000020 38 6c 4a 3c 35 10 a6 3d 17 9a bd bd 28 47 92 bd
       0.012354903 0.0810856 -0.09257906 -0.07142478
000030 6e e7 b9 bc ad 7e da 3d ad 58 08 be 58 0c 47 3e
       -0.022693362 0.10668693 -0.13315077 0.19438303
000040 5b dc 55 3e 88 cf d5 bd 87 ed 86 be a8 16 65 bd
       0.2088484 -0.10439974 -0.26353094 -0.05592981
000050 a0 c0 e9 3c ad 43 13 bd 38 07 bc 3d fb 73 be 3d
       0.028534234 -0.035953213 0.09181064 0.09299465
000060 86 15 b1 be b4 30 0f 3e 71 ba 9a 3e 1f da 53 3a
       -0.34586734 0.13983423 0.30220369 0.0008081514
000070 f8 9b c8 3d f5 20 30 3d 8b 73 01 be 6b 35 3e bd
       0.09795374 0.04300018 -0.12641732 -0.046437662
000080 c1 ca 88 3e f9 8d 18 3e 95 b8 d0 3d 8c f0 49 be
       0.2671719 0.14897908 0.10191456 -0.19720668
000090 5b 15 7b bb a3 f3 17 3e 6d 35 01 3d f8 2b 7a bd
       -0.003831229 0.14839034 0.03154509 -0.061077088
0000a0 60 c6 0b bd 7f 84 bb bd 75 8c ec bc 34 8c 9a be
       -0.034124732 -0.09156131 -0.028875569 -0.30185091
0000b0 2b c4 eb be 76 fb 55 be fd 06 16 be c3 c8 d1 3d
       -0.46048102 -0.20896706 -0.14651103 0.102433704
0000c0 c6 f9 c9 3d fd b7 75 be a2 fd b5 3e 71 52 b3 3e
       0.098620936 -0.23995967 0.3554507 0.35023835
0000d0 49 75 6c be cb ba 55 3e 5b 76 b7 3d 73 13 2e 3e
       -0.23091616 0.20872037 0.089581214 0.16999607
0000e0 0c 85 3e 3e 57 c0 95 3e 41 9f a3 bd 0c 25 33 be
       0.18605441 0.29248306 -0.0798936 -0.17494601
0000f0 1f 77 37 be 9c b8 c2 3d 6d 98 36 3d ad 5c 99 3e
       -0.17916535 0.09507868 0.04457896 0.29953519
000100 0d 8f df bd a9 d1 b1 be c1 66 14 3e c3 d0 2e 3e
       -0.10915957 -0.3473027 0.14492323 0.17071824
000110 63 47 8c ba 02 32 bd be 04 e8 1f 3e 3f 4f 58 be
       -0.0010702427 -0.36952215 0.1561585 -0.2112398
000120 a7 66 f8 3c db 66 c4 bc 30 f5 9d bd 96 49 d8 3c
       0.030322386 -0.023974827 -0.077127814 0.026402276
000130 7c cd 55 3c 44 2a 37 3d d0 26 75 3d 9c 6c 8a 3e
       0.01304948 0.044718042 0.059851468 0.27035987
000140 91 3c 08 3e a1 8e 05 bd bb 69 66 3e 37 00 91 be
       0.13304354 -0.032606725 0.2250127 -0.28320476
000150 6a 7a 91 bb 12 51 87 be 99 56 0f 3e d9 35 0b 3e
       -0.0044396417 -0.2642904 0.13997878 0.1359476
000160 92 f3 b4 be 21 04 1c 3d 55 22 07 be 53 26 85 3d
       -0.3534208 0.038089875 -0.1319669 0.065014504
000170 d4 7d 59 3d 66 95 b9 be f6 86 85 be 96 a9 68 be
       0.053098515 -0.36246794 -0.2607953 -0.22720942
000180 15 4b 3a be 2b bb 1e be 62 b4 4b bd ec f0 f5 3d
       -0.18192704 -0.15501086 -0.049732573 0.12008843
000190 79 2f 40 be df 1c ef 3d 6c 51 9a bd fa f3 d3 bd
       -0.1876811 0.116754286 -0.07535061 -0.10349269
0001a0 a0 e0 f0 3d cd f2 5e 3c b3 8d db bd cc 85 95 3e
       0.11761594 0.013607693 -0.10720386 0.2920364
0001b0 22 05 66 3d b7 89 0b bd 5d 16 f8 bd 63 a4 06 be
       0.05615724 -0.034066882 -0.121136405 -0.13148646
0001c0 f2 4e ca 3d 21 76 f1 bc 70 71 b8 3d 8e c8 86 3e
       0.09878339 -0.029475274 0.090060115 0.26324886
0001d0 c4 26 52 bd 1e 29 61 3d 86 a1 a7 3d 40 23 a4 bd
       -0.0513065 0.054970853 0.08185105 -0.08014536
0001e0 c5 b5 cb be 22 ae 83 3c 10 df cd 3e 3a 1a 17 3e
       -0.39787117 0.016074244 0.40209246 0.14756098
0001f0 aa be 96 3e 8f 05 2f 3d 9d 41 d1 bd 87 de 34 be
       0.2944234 0.04272991 -0.10217593 -0.17663012
000200 71 d3 a6 3d d5 01 54 be cf ec e5 3d 0e 4c 23 be
       0.08145798 -0.20703824 0.11226808 -0.15946981
000210 43 94 a9 3e e4 27 4a 3e 1b 96 55 3e 77 60 a7 be
       0.33120927 0.1974178 0.20858042 -0.32690784
000220 c3 55 a0 bc 6b 1b a1 bd 8e bc 84 be 4b 9c 1a be
       -0.019572144 -0.07866558 -0.25925106 -0.15098684
000230 a8 c2 2c bc 8e 28 e6 bd 30 3c e4 3e a6 ee 57 3e
       -0.010544457 -0.11238204 0.4457717 0.21087131
000240 f8 24 8b bd 12 d2 23 be a5 d6 e6 bd 22 8e 7b 3e
       -0.067941606 -0.15998104 -0.11271409 0.24565938
000250 e5 28 ef 3d e5 19 22 3e 56 e9 53 be 68 4f ba bc
       0.11677722 0.1583019 -0.2069448 -0.022742942
000260 4a 19 64 3d c2 fe 63 3e 01 0f 58 3d 52 49 1f 3e
       0.05568818 0.22265151 0.052748684 0.15555313
000270 65 59 ba 3d 1a fa c8 bd 68 e8 36 3e 4b 60 2b be
       0.09099082 -0.09813328 0.17862093 -0.16735952
000280 da 93 a2 3d 90 7e c2 3c 21 44 ab bd 1f b1 25 3e
       0.07938357 0.02374199 -0.08362604 0.16180848
000290 6d 73 2f be 50 46 36 3d 59 e7 92 3d 7b af ad bc
       -0.17133875 0.04450065 0.07173032 -0.02120184
0002a0 f8 07 93 bd 34 f2 78 3d 1b 04 ba 3e c1 23 75 3e
       -0.07179254 0.060777858 0.36331257 0.2393942
0002b0 da ed b9 bd 83 8b 67 be c3 00 01 be 87 2f 8f be
       -0.0907857 -0.22611813 -0.12597947 -0.27965948
0002c0 2b 0e 66 bd db 9e 9f 3e a7 21 6b be 3b 91 84 3c
       -0.056165855 0.31175885 -0.22962056 0.016182533
0002d0 8b e3 af bd 11 d6 27 be 9e 8d e8 3d fc e6 4d 3e
       -0.08588322 -0.16390254 0.11355136 0.20107645
0002e0 23 b8 05 3e 52 f4 8e 3d fd 3a 56 3b c6 a7 b2 be
       0.13058524 0.06980194 0.0032688968 -0.34893626
0002f0 70 48 d3 3c 54 b9 ac bd 9a a9 5c be 15 c3 c5 3d
       0.025791377 -0.08433786 -0.21549073 0.096563496
000300 0c 5c 4a be cb 42 65 bd 43 af 22 be da 31 14 3d
       -0.19761676 -0.055971902 -0.1588717 0.036180355
000310 95 6f ee 3e 11 c5 11 3d 8f 59 62 bd 79 ed da bd
       0.46569505 0.035588328 -0.05526119 -0.106898256
000320 60 cf 4c 3e d4 4e 22 3d fd 29 83 be 8d 65 4c 3e
       0.20000982 0.039625958 -0.25617972 0.19960614
000330 c0 1a c9 bd 26 1a 0d 3e 4e 73 ab be 52 fb e9 bd
       -0.09819555 0.13779506 -0.33486408 -0.11424889
000340 0e 74 16 be 59 90 72 bd 2d 6d cc be 61 ab ce bd
       -0.14692709 -0.059219692 -0.39927045 -0.10091282
000350 6b 0e 5f 3d 20 42 58 3e 95 87 ac be 95 03 6a 3c
       0.05445711 0.21118975 -0.3369719 0.014283081
000360 ea 27 06 3d 1e f4 2b be 85 ea 9a 3e 9d d9 26 be
       0.03275291 -0.16792342 0.3025705 -0.1629395
000370 59 5b b4 bd 8b 6b 74 3c 2e ca 05 bc 33 8b 3b be
       -0.08806486 0.014918218 -0.008165879 -0.18314819
000380 a5 8d 2e 3e e8 87 c9 bc 9e e4 51 bd 3d 06 8a 3d
       0.1704622 -0.024600938 -0.051243417 0.06739471
000390 80 40 f2 bd 27 c6 73 be 0d e6 17 be 1a ef 36 3d
       -0.11828709 -0.23806058 -0.14833851 0.04466162
0003a0 e0 28 41 bd 96 ad ff 3b dc bb 97 be 02 da 49 3d
       -0.047158122 0.0078026755 -0.29635513 0.049280174
0003b0 4a cf 38 be f7 16 a8 bd 11 f5 b8 bd e6 bd 30 3e
       -0.18047825 -0.08207505 -0.09031118 0.1725994
0003c0 48 6d ce bd 5e 4f 9e 3d 23 68 dc 3d 4b 60 d6 3d
       -0.100794375 0.07729982 0.1076205 0.10467585
0003d0 6d 76 ef 3b c7 2b 02 3e 7b f1 f1 3d f9 3c 97 3a
       0.0073078186 0.12712012 0.11813637 0.0011538557
0003e0 c4 a3 d4 bd 43 87 a5 be 4a 09 a3 bd ce 14 46 3d
       -0.10382798 -0.3232976 -0.07960756 0.048359685
0003f0 21 f2 08 3f 63 62 b0 3c 9f d2 24 be e6 4e 8c bd
       0.5349446 0.02153129 -0.1609597 -0.06850986

bias f4 [64]
000000 b1 89 62 bb d2 7d ca bb 28 c8 40 bc 30 f2 90 bc
       -0.0034566934 -0.0061795497 -0.011766471 -0.017693609
000010 6c 16 ff bc 32 7b f5 3b 9d 46 24 3c dd 72 df ba
       -0.031138621 0.0074914927 0.010026601 -0.0017047782
000020 04 52 fa bc 41 f0 0e bd a5 a3 fe 3c 79 55 0e 3c
       -0.030556686 -0.034897093 0.031083891 0.00868737
000030 42 c4 9a bc d0 ee 88 bb 00 00 00 00 dc 6e d5 bc
       -0.018892411 -0.0041788593 0.0 -0.026053838
000040 14 fa ad bb 23 c2 e0 3c 47 99 4c bd 79 7b b3 bc
       -0.0053093527 0.027436322 -0.049950864 -0.021909462
000050 4f c1 c0 bb f2 39 81 3c 35 fb 7a 3b 2b ec 0c bc
       -0.005882419 0.0157747 0.0038296704 -0.008601229
000060 f8 8e 8c 3c 41 18 7e bc d4 ec db 3c c1 27 7f bc
       0.017158017 -0.015508712 0.026846327 -0.015573443
000070 04 26 ae bb 81 6e 1e bd 3b b2 95 bb 71 cb 9b 3b
       -0.0053145904 -0.038679603 -0.004568366 0.0047544767
000080 43 3d fc 3b 74 c9 02 3c 3d c0 7b bc af 55 bf bc
       0.0076977327 0.0079826005 -0.015365657 -0.023356287
000090 b9 5c 8f 3a cb f2 92 3c d5 06 ed bc 6f e8 22 bc
       0.0010937668 0.017938038 -0.028933922 -0.009943112
0000a0 d6 74 4a bd 36 ee 77 bc 99 1f 57 bc f0 0c 5d bc
       -0.04942783 -0.0151324775 -0.013130092 -0.013491854
0000b0 fd 13 0e bd 85 bd 8f ba 17 ba dd bc 28 59 59 bc
       -0.03468703 -0.0010966515 -0.027066274 -0.013265885
0000c0 79 04 66 3a cf 16 00 bd 57 96 43 bc b3 64 1d bd
       0.000877447 -0.031271752 -0.011937699 -0.038426112
0000d0 05 57 ea bb f5 c9 f3 ba fd cd 3d bd e6 4e 18 bc
       -0.007151487 -0.0018599617 -0.046339024 -0.009296155
0000e0 25 cc e3 bc c3 a7 a0 3b e7 4f 64 38 cb 2a 37 bc
       -0.027807305 0.0049028113 5.443385e-05 -0.011179636
0000f0 82 e0 8d bc b6 98 1c bc 1f 63 d3 3c 9b cc b2 3c
       -0.017318968 -0.0095578935 0.0258041 0.02182608

weight f4 [1, 64]
000000 17 76 35 3a cd e8 88 3d cf cb ef 3b 33 1c 7a 3e
       0.0006922199 0.06685028 0.007317997 0.2442482
000010 ac 1c 3a be d0 60 46 3a f8 e9 6c b9 da 70 35 bd
       -0.18175 0.0007567527 -0.00022593874 -0.044297077
000020 d1 67 10 3e bc 3c 7b be 58 14 c3 3d ac ec f5 3d
       0.14102103 -0.24534887 0.09525365 0.12008032
000030 70 71 ad bd 96 4d 4b be bf 83 15 be d2 9f b7 ba
       -0.08468902 -0.19853815 -0.14601038 -0.0014009422
000040 52 8a 95 39 0d 98 8b bd c7 d4 21 3e 40 e0 23 ba
       0.0002852255 -0.06816111 0.15803824 -0.00062513724
000050 a5 77 11 ba 13 a2 b9 ba 5c 2b c9 bd fe 7e 39 b9
       -0.00055491395 -0.0014162682 -0.09822723 -0.00017690283
000060 dd 5f d9 bd 7e 77 06 3a 98 fc 4d 3e 6b b7 16 b9
       -0.106139876 0.00051295 0.20115888 -0.00014373443
000070 6f d9 38 3a 87 50 a3 bb 8e 79 a3 3c 61 34 f4 39
       0.0007051443 -0.004983965 0.019955423 0.00046578332
000080 fd 2b 18 3e 1d 27 51 3a 69 86 fd b8 e4 89 25 bd
       0.1486053 0.00079785456 -0.00012089016 -0.040414706
000090 2a ff 8e 3b a0 c3 d6 bd ab 90 b5 3e 4f 9d 8f 3c
       0.004363914 -0.10486531 0.35461935 0.017531065
0000a0 5a e5 25 3e c4 c3 02 be 3a af 4d b9 98 bf 0a bd
       0.16200772 -0.12769991 -0.000196156 -0.033874124
0000b0 f7 b6 f6 3c 63 e1 53 3a 1d b5 ca bd 21 4f 11 3e
       0.030116541 0.00080825965 -0.09897826 0.14190342
0000c0 86 40 1b bd f9 00 00 3a 99 60 4e 3a 38 ea dc be
       -0.03790333 0.00048829574 0.00078726705 -0.43147445
0000d0 bd eb 32 ba 79 e5 64 be 04 b8 a9 be 75 e4 10 bd
       -0.0006825289 -0.22353162 -0.33148205 -0.035374124
0000e0 68 00 4d 3a 1d d1 3d 3d be ab 34 3c 10 43 33 3d
       0.000782019 0.046342004 0.011027275 0.043765128
0000f0 06 96 40 3e 8d 1b 1d 3d d3 6a e6 3d 71 2f 33 3e
       0.1880723 0.038356353 0.11250844 0.17498566

weight f4 [5, 64]
000000 5c 6a 70 3c 7e 7d 95 3b c5 04 44 bd 37 2a 7a 3d
       0.014673796 0.004562079 -0.04785611 0.061075415
000010 19 79 af 3a 07 23 ae bb 60 cd 2d bb 89 59 72 bc
       0.001338753 -0.005314234 -0.0026520118 -0.014791855
000020 92 10 de 3b 1f 7d 7b bc f2 c4 af bb 76 7f 73 3b
       0.0067768777 -0.015349655 -0.005364054 0.003715483
000030 36 c1 9d 3c ce a8 90 bc 16 f6 98 bd 78 92 31 bd
       0.01925717 -0.017658617 -0.07468812 -0.043352574
000040 02 7e 10 bc 5c 3e d3 bb a0 d8 40 3c 32 07 31 3a
       -0.008819105 -0.006446643 0.011770397 0.00067530863
000050 b5 08 7b bb 60 79 1d bd e5 f9 92 bd 3c 42 c1 3c
       -0.003830475 -0.03844583 -0.0717657 0.023591153
000060 58 26 42 bd 27 23 88 3c f0 8f 91 3a f8 3e fe 3c
       -0.04739985 0.016618324 0.0011105519 0.031035885
000070 55 b7 56 3a 43 67 eb bc cf ce cf 3c f3 f7 8b 3b
       0.0008190771 -0.028735762 0.025367169 0.004271501
000080 2b 7b 61 bd e1 7f 72 bc 9e c8 d1 3a c5 e7 e5 ba
       -0.055049103 -0.0148009965 0.0016005223 -0.0017540386
000090 6a 00 de 3c 62 82 01 3c 44 ba fa 3c 34 62 ea 3b
       0.027099807 0.007904621 0.030606396 0.00715282
0000a0 ed 3a ba bc 2c 42 b0 3b 4c da e5 3b 29 9d 84 ba
       -0.022733176 0.005378982 0.0070145484 -0.0010117638
0000b0 47 dd 7c ba 17 8d 46 3b 03 8e 90 3c 54 c4 b9 bb
       -0.000964601 0.0030296498 0.017645841 -0.005669156
0000c0 7e e2 ea ba e4 b4 0a 3b 29 b7 04 bd ca 7a bc 3c
       -0.0017920283 0.0021164948 -0.032401238 0.02300777
0000d0 11 f7 17 3b c2 eb 24 3c 30 fc 64 3c 32 17 b3 3b
       0.0023188035 0.010065975 0.013976142 0.0054654116
0000e0 2c 8f b6 3c 42 e4 44 bc e4 ba 9a bc 16 a4 a1 bd
       0.022285067 -0.0120173115 -0.018887945 -0.07892625
0000f0 b5 e1 9b 3c c3 1a 16 ba 42 d2 2f 3d 28 3e 4d bd
       0.019028524 -0.00057260337 0.042925127 -0.050108105
000100 b2 45 87 bd 8d ca 41 bc 37 51 f5 3d 00 ea 64 be
       -0.0660509 -0.011828077 0.11978381 -0.22354889
000110 17 a1 58 3c ae 9e 10 bd a6 cb dc 3b a8 dd 85 3b
       0.013222001 -0.03530758 0.006738144 0.0040852614
000120 4f b5 ba bc 45 bb 32 3c 78 0a 61 3c 96 b9 02 bc
       -0.022791533 0.010908906 0.013735406 -0.007978817
000130 73 d7 ca bc 25 95 b0 3c 3e 08 06 3e ab 0c b3 3d
       -0.024760937 0.021555493 0.13089082 0.087426506
000140 b0 7b 54 3a f0 11 25 3c 9d 84 bb bc bf b3 90 bb
       0.0008105589 0.010075077 -0.022890383 -0.0044159587
000150 a8 25 45 bc 14 0b b5 3d 96 44 1a 3e 61 31 9a bd
       -0.012032904 0.088400036 0.15065226 -0.075289495
000160 7f 86 af 3d 10 4e 97 bd 24 f0 83 3a a8 ba 08 be
       0.08570575 -0.07387936 0.0010066074 -0.13352454
000170 49 7c 9e bc 01 0b af 3d 2f 04 b0 bd cb 2b ba bc
       -0.019346373 0.08547021 -0.08594548 -0.02272596
000180 24 42 18 3e a8 1f 1e 3d cb 44 2b bc f7 5a 85 bc
       0.1486898 0.03860441 -0.010453413 -0.016278727
000190 dc 66 e8 bd eb 94 e3 bc 9f bb c0 bd cd 3b c8 bc
       -0.11347744 -0.02778097 -0.09410786 -0.024442578
0001a0 1a 02 55 3d 7f d0 26 bc 8b e9 18 bd 87 92 74 b9
       0.052003957 -0.010181545 -0.0373321 -0.00023324239
0001b0 6d 65 01 3c 41 7d 33 bc 38 44 5b bd 74 29 46 bc
       0.007897717 -0.010955156 -0.053531855 -0.012094844
0001c0 95 14 96 bc bb c3 49 bc cb f5 56 3d b7 80 a2 bd
       -0.018320361 -0.012314732 0.0524805 -0.07934707
0001d0 cc 0b 0c 3c 64 fa 33 bd c1 fa a5 bc d2 f4 7c bb
       0.0085477345 -0.043939963 -0.02026117 -0.0038598073
0001e0 d5 ad 7a bd e7 11 27 3d 82 ef 1d 3c 92 6e 57 3e
       -0.061200935 0.040788557 0.009639623 0.21038273
0001f0 78 a4 91 bd 0e aa 44 3b 72 e0 15 be 8f 53 ca 3d
       -0.07111448 0.0030008587 -0.146364 0.09879219
000200 c6 d6 a7 3c 0b 1b 3d 3b f6 f2 25 bd c8 3c 7b 3d
       0.020488154 0.002885523 -0.04051491 0.061337262
000210 96 91 83 bb 2b 51 77 3c 2d 61 41 3b 2b 77 74 bc
       -0.004015158 0.015095036 0.0029507384 -0.01492099
000220 2a a0 dd 3b 4c f0 e5 bb b7 7f ec 39 b1 a8 9a bc
       0.006763478 -0.007017171 0.00045108583 -0.018879266
000230 bf 3d 75 bb f3 1b ae bc d5 dd a6 bd ac a5 43 bd
       -0.0037420837 -0.021253562 -0.0814778 -0.04776542
000240 99 5c 11 bc 88 ec a9 ba e3 20 ff 3b 69 a3 a2 3b
       -0.008872175 -0.0012964169 0.007785903 0.0049633277
000250 14 47 26 3c 71 be 33 bd 8d 65 52 bd cf 14 96 3c
       0.010148782 -0.04388279 -0.051366378 0.01832047
000260 db 40 36 bd 37 84 ad 3c eb 0e c4 3a 12 ba 23 3d
       -0.044495445 0.021181209 0.0014958059 0.039972372
000270 58 62 43 3b b2 0d e9 bc cc 5b ae 3c c1 9a f0 3b
       0.0029813256 -0.028448913 0.021284007 0.007342667
000280 70 85 4e bd 02 c6 92 bc 33 c4 f6 39 f4 d1 71 3a
       -0.050420225 -0.017916683 0.00047066956 0.0009224706
000290 fc a2 ea 3c eb 74 09 3c d4 0b a7 3c e7 3c 6a 3c
       0.02864217 0.008389692 0.020391382 0.014296747
0002a0 1f 10 d8 bc 3d 7a 50 3a 42 8a 0d 3c eb 95 83 ba
       -0.026374875 0.0007952785 0.00863892 -0.0010039186
0002b0 65 5b ea bb 94 37 f1 3b 5b fe 5e 3c 50 f6 a1 bb
       -0.0071520084 0.0073613618 0.013610448 -0.004942693
0002c0 ca 89 14 3a a4 6b 4f 3b d0 8e f2 bc 6c 56 c8 3c
       0.0005666284 0.0031649852 -0.029609114 0.024455272
0002d0 32 25 19 bc 63 e6 91 3b 1d 44 68 3c 85 c1 c9 3a
       -0.009347247 0.004452513 0.014176396 0.0015392756
0002e0 bd 84 c4 3b 0a 24 8e bc 2f 78 4b bc 53 46 b1 bd
       0.005997269 -0.01735117 -0.012418791 -0.086559914
0002f0 a0 61 c3 3c 96 fe c3 bb d6 90 2a 3d e1 12 31 bd
       0.023850262 -0.0059812767 0.041642033 -0.043230895
000300 47 94 b5 3c f7 55 bc bb 09 75 31 bd 83 65 5a 3d
       0.02216543 -0.0057475525 -0.043324504 0.053319465
000310 b9 b6 a6 bb a5 8a 8f 3c 52 f9 da 39 90 48 50 bc
       -0.0050877 0.017522166 0.00041765958 -0.012712613
000320 a2 85 77 3b 33 01 01 3c 5c 38 3d bb 84 8b 70 3b
       0.003776886 0.007873821 -0.0028872704 0.0036704252
000330 31 fb 62 3c 15 52 5a bc c4 ad 9b bd f1 42 1d bd
       0.013853834 -0.013325234 -0.076015025 -0.03839392
000340 24 1f bf bb f8 75 30 3a 16 c7 ad 3b 70 81 af ba
       -0.0058325697 0.0006731446 0.005303274 -0.0013390016
000350 32 ba 75 bb 5c a1 10 bd 13 7d 5a bd 7a 59 aa 3c
       -0.0037495014 -0.035310134 -0.053341936 0.020794619
000360 39 7e 3c bd e0 5c b8 3b 5d 34 5d 3a 5b 4a 35 3d
       -0.046018813 0.005626306 0.00084382837 0.044260364
000370 11 b7 8b bb 83 13 ec bc cb 7f b5 3c 99 f0 d1 3b
       -0.0042637666 -0.028817898 0.022155663 0.0064068553
000380 b1 91 77 bd 3c 14 87 bc a6 a6 b0 3a a2 3b 59 3c
       -0.060441677 -0.01648914 0.00134774 0.0132588465
000390 d9 fe ea 3c ad 5e 98 bb 4e 69 b3 3c 80 fb 84 3a
       0.028685974 -0.004649958 0.0219008 0.0010145754
0003a0 9d e8 84 bc fc 3e dd 3b a1 18 85 3c d2 a0 23 39
       -0.0162242 0.006751893 0.016247096 0.00015604802
0003b0 4a 8b 99 bb 0a d2 f4 3a e8 38 09 3c 25 e0 ef bb
       -0.004685794 0.0018678319 0.008375384 -0.0073204213
0003c0 7b a2 a7 3b 49 e3 d9 3a 29 ed 01 bd 09 df 9a 3c
       0.0051158047 0.0016623522 -0.031720314 0.01890518
0003d0 4a 68 91 3b dc 29 2a 3c 59 71 7f b9 d5 38 b4 bb
       0.004437481 0.010385957 -0.0002436092 -0.005499939
0003e0 9a 40 e6 3b 60 bf 19 bc 83 b3 99 bc 12 93 a4 bd
       0.007026744 -0.009384006 -0.018762356 -0.08035864
0003f0 07 13 67 3c ba 08 4f 3a 44 b4 20 3d d0 c0 32 bd
       0.014103658 0.00078977237 0.039234415 -0.04364091

bias f4 [5]
000000 ed 1d 6f bc 49 6b a6 3b a5 12 0d bc 16 c6 86 bc
       -0.014594537 0.0050787074 -0.008610402 -0.016451877
000010 1f 23 47 bc
       -0.01215437
