model/tiny-4/A2C/model_agent3_seed1.pt (torch, 101825 bytes, 11 tensors)

weight f4 [64, 119]
000000 e5 c0 db bd e2 8f 9f bd 68 f8 53 3e 43 13 31 bd
       -0.10730151 -0.07791115 0.20700228 -0.04323126
000010 fb ed 2d bd 01 57 c9 bb 96 84 02 3d aa c3 e7 3d
       -0.042463284 -0.006144405 0.031864725 0.11316617
000020 6c 7e e1 bd b4 0a a1 3e 29 f3 3e bd dc 3d 6b bc
       -0.11010441 0.31453478 -0.046618614 -0.01435801
000030 22 94 9b 3d db 88 2a be bb 00 c8 bc f9 98 15 be
       0.075966135 -0.16653769 -0.02441441 -0.14609136
000040 5b 21 32 bd 63 05 80 be a1 1c a9 be 44 15 f5 bc
       -0.04348884 -0.2500411 -0.33029655 -0.029917367
000050 8b 3f 5e bd 5d 91 53 be 92 da 02 bd 5c a7 80 bd
       -0.054259818 -0.2066092 -0.031946726 -0.06281921
000060 8c 1e a8 3d 92 5e a8 3d 7e f1 bf 3b 39 b8 10 3e
       0.08208951 0.08221163 0.0058576455 0.14132775
000070 8e 9b fd 3d 0a 1c 25 bd 2c fc 8a bd 3b ea 03 bd
       0.12383185 -0.040309943 -0.06786379 -0.0322058
000080 c4 f9 82 3e 8a b5 42 3e 6e 24 08 3e 5c d5 ab 3e
       0.2558118 0.19014564 0.13295147 0.33561218
000090 ad ac 0b 3e 05 b2 9a 3d 3f ed ad 3c ca 82 12 bd
       0.1364009 0.07553486 0.021231292 -0.03576926
0000a0 55 1e 93 bd fc b1 09 3d 9a e7 07 3e 59 9e f5 bd
       -0.0718352 0.033617005 0.13271943 -0.11993093
0000b0 d8 73 61 be 5a 1f 79 bd 31 ba fb 3c fa 10 31 bd
       -0.22016847 -0.060820915 0.030728431 -0.04322908
0000c0 d9 fb 67 3d 72 e1 b2 bd 7f 87 ba bd 7e fc bf be
       0.056636665 -0.087344065 -0.09107875 -0.37497324
0000d0 f0 c3 15 3b df 1c d6 3d 6d d6 4c be f4 6d c1 bd
       0.0022852384 0.104547255 -0.20003672 -0.094448
0000e0 8b 72 23 3c 83 43 72 3c 4d 4f 2b be 6d 11 33 3d
       0.00997604 0.014786604 -0.1672947 0.04371779
0000f0 e5 4d f0 bd a8 7f f0 3d 13 8f 8f bc 34 a7 16 be
       -0.11733607 0.117430985 -0.017524278 -0.1471222
000100 4e 0f b9 bd 1a 34 e7 3d 21 f7 02 bd c8 66 87 3d
       -0.09036122 0.112892345 -0.03197396 0.06611401
000110 47 05 b2 bd 43 3a db bd 25 c2 24 be da ff 90 3d
       -0.08692413 -0.10704472 -0.16089685 0.0708005
000120 ae 8d da bd 38 ca e3 3d ed db 03 3e a3 02 1a bd
       -0.106715545 0.111225545 0.12876864 -0.03760017
000130 9c 76 aa 3d 3b 87 bf bd 77 99 95 bd 10 f5 00 3c
       0.08323404 -0.09351965 -0.07304662 0.007870927
000140 51 c4 5d be 4e d0 1f be 90 e0 96 bb b2 0a e6 bd
       -0.2165692 -0.15606806 -0.0046044067 -0.11232509
000150 26 4d 6b 3e a3 02 18 bd 0b 04 23 3e 39 d3 10 3d
       0.22978649 -0.03711189 0.15919511 0.035357688
000160 9c 00 0f 3e 07 9d b0 3d 86 04 10 bd ab 83 9f bd
       0.13965076 0.086237006 -0.035160564 -0.077887855
000170 e3 7d cc bd 13 5c ff 3d e5 0b b3 3c 24 24 25 3e
       -0.099849485 0.12468734 0.021856258 0.16127068
000180 7a 8e 3e be 37 62 12 be 32 a8 25 be 29 ce 38 bd
       -0.18609038 -0.14295278 -0.16177443 -0.045118485
000190 a8 a9 16 3e 7e 24 20 be c4 22 8b bd 79 f6 a4 ba
       0.14713156 -0.1563892 -0.067937404 -0.0012585662
0001a0 4d 9d ff bd 6d 19 28 3e ec 80 7c 3d 66 f0 d8 3d
       -0.124811746 0.16415949 0.061646387 0.10592727
0001b0 de e2 11 bd 25 05 08 3e 0a 01 e6 3d 30 6e 83 be
       -0.035616748 0.13283212 0.11230667 -0.25670004
0001c0 fa 0d 5c be f3 55 d9 bd 92 b9 2c 3e db 8e 15 bd
       -0.21489707 -0.10612097 0.16867664 -0.03651319
0001d0 1d 0d 6a bb 24 c9 d9 3d c0 f8 55 3e e2 4e 28 3c
       -0.0035713383 0.10634068 0.20895672 0.010272713
0001e0 4e ad dc 3d c0 ab fe 3c 60 fb 06 be 72 8b e8 bc
       0.10775243 0.031087756 -0.1318183 -0.028386805
0001f0 aa e1 85 bd 4b ab b6 3d 50 5f 6d bd f2 e6 85 3d
       -0.06537183 0.0891939 -0.057952225 0.0653819
000200 87 93 35 bd 8d 03 4a be 5b 17 2f 3e bb f0 e7 3c
       -0.044330146 -0.19727917 0.17098753 0.028313031
000210 38 56 f1 bd 16 e1 68 be bb 89 b8 3c e5 12 60 be
       -0.11784023 -0.22742113 0.022526613 -0.21882208
000220 69 86 30 3d 99 a2 42 3b 06 82 9f bc d6 98 57 bc
       0.043096934 0.0029698967 -0.01947118 -0.0131589975
000230 45 f5 4c 3c 53 0b 83 bd 0f 8d bd 3d 7d c7 e6 3d
       0.012509649 -0.06398644 0.092554204 0.11268518
000240 f7 2f d5 bc 5a 7d 87 bd 5d c1 57 bd 44 d4 65 be
       -0.026023848 -0.06615706 -0.05267464 -0.22444254
000250 c6 2f 9e bd b0 b4 01 be 74 63 dc 3d 62 f6 b7 bd
       -0.07723956 -0.12666583 0.10761157 -0.08982541
000260 63 93 e9 3d 72 90 1c 3e 0c d5 a7 bb 1b 12 17 3d
       0.11405065 0.15289477 -0.0051218327 0.0368825
000270 06 ff 4c 3e 84 48 07 3d d1 61 08 bc 1d 07 b5 bd
       0.20019159 0.03302814 -0.0083241025 -0.088392474
000280 ca cb 5f bd c7 f2 22 be e4 a1 6e 3c 11 d8 03 be
       -0.054637708 -0.15912925 0.014564965 -0.12875392
000290 2c 5f 1e 3e 38 42 45 be ea af 7d bd b6 c5 bf bd
       0.15465993 -0.19263542 -0.061935343 -0.09363882
0002a0 bc b8 8c 3e ff ed 3a bb 61 31 12 3e 8c 84 00 be
       0.2748469 -0.0028523204 0.14276649 -0.12550563
0002b0 f3 37 07 bc d0 08 b8 bd fb 66 eb bd 82 55 99 bd
       -0.008253085 -0.08986056 -0.11494251 -0.074870124
0002c0 0d 5a 2c be 91 46 18 3d f5 79 66 3e e0 bd 4c bb
       -0.16831227 0.037176672 0.2250746 -0.0031241104
0002d0 3b 00 3a 3c dc c6 7e be 91 10 3c 3e 37 39 76 3e
       0.011352594 -0.24880546 0.18365695 0.24045263
0002e0 d7 64 b3 3d be ad 21 be 16 fb af 3d 1b 49 41 bd
       0.08759468 -0.15788934 0.08592813 -0.04718886
0002f0 08 69 6a b8 e4 66 8a bd b9 cc 4a be f6 35 dc 3c
       -5.5887765e-05 -0.06757906 -0.19804658 0.0268812
000300 bd 4b 16 3d 87 4e a0 bd 81 3d fa bd 68 84 c6 3b
       0.036693323 -0.07827478 -0.12218762 0.0060582645
000310 97 88 9c bd 36 0f 6a 3d 08 26 32 3e 32 2e 06 be
       -0.0764324 0.057143413 0.1739732 -0.1310356
000320 3f 2f 2d be 35 cf a2 bd ed ee 15 3e 7b 0c 64 3e
       -0.16912554 -0.07949678 0.14641924 0.22270386
000330 12 32 34 3e 4d bd 95 be e4 58 72 be 7f 91 ef 3c
       0.17597225 -0.29245988 -0.23666722 0.029244183
000340 2e 44 dd bc 91 6f 80 bd 32 10 b3 be 11 81 88 bd
       -0.02701005 -0.062712796 -0.34973294 -0.066652425
000350 06 3f 85 3d ef 1e d0 3e d3 ef 44 be a4 a2 95 bd
       0.065061614 0.406486 -0.1923211 -0.07306412
000360 3e 50 a4 3d 8a 5f 2c bb 41 32 8c 3d 73 b0 4b bd
       0.080231175 -0.0026302063 0.06845523 -0.049728822
000370 ce e2 24 3e ec 4c 13 3e f8 f4 0f 3b b3 56 0d 3d
       0.16102144 0.14384812 0.002196608 0.03450651
000380 3c 6a 77 be 33 89 8f bc 69 22 d0 3d fd 72 77 bd
       -0.24161619 -0.017521476 0.10162813 -0.060412396
000390 89 5f 47 3d 33 69 86 bd 00 cd cb 3b e6 b8 83 3d
       0.048675094 -0.06563034 0.0062195063 0.06431751
0003a0 4e 5b 5d 3d ec 10 b6 3d b4 f5 fa 3c 98 d7 00 be
       0.054042153 0.08889946 0.030634739 -0.12582242
0003b0 aa e4 21 3e b1 c5 94 3e 7a f2 98 3c 22 5c e2 3c
       0.15809885 0.29057077 0.01867031 0.027631823
0003c0 16 af be bd 08 3e ac be 55 38 21 be 0b 99 05 3e
       -0.09310739 -0.33641076 -0.15744145 0.13046663
0003d0 07 d9 20 3d 1d 7b 00 be 7b f9 68 bd 08 f7 c8 bc
       0.039269473 -0.12546964 -0.056878548 -0.024531856
0003e0 28 7e 87 bc 64 3e 2a 3d 2c 57 8b bd 6b bd f9 3c
       -0.016539648 0.041563407 -0.06803736 0.03048583
0003f0 d3 48 28 3e be b9 0c 3e 14 6b 1d 3e e1 af be bc
       0.1643403 0.1374273 0.15372878 -0.023277225

bias f4 [64]
000000 b7 bc dc b9 56 b3 31 bb 3f b8 07 bd b5 de 71 bb
       -0.00042102273 -0.002711495 -0.033134695 -0.0036906425
000010 f0 fb a5 bc 66 b7 af b9 2b c8 84 bb 07 d1 ae bb
       -0.020261735 -0.00033515244 -0.004052182 -0.0053349766
000020 90 78 59 3b e0 19 7e bc 92 31 a7 3b 56 31 4c ba
       0.0033183433 -0.015509099 0.005102345 -0.0007789334
000030 d0 5a 5a b9 1d 57 f2 bc ba a0 69 bb 1c c1 fe 37
       -0.0002082393 -0.029582554 -0.003564878 3.0369083e-05
000040 b6 d6 16 3a 9f 1d 6c bc 19 1a e0 3b 8a 07 7b 3a
       0.00057540403 -0.014411359 0.0068390486 0.00095760135
000050 c4 a4 2f bb e5 0d b2 bb c6 96 f3 3a 57 d4 6e 3b
       -0.0026801089 -0.0054337853 0.0018584363 0.0036442482
000060 8e 79 36 bc 17 e5 0b b7 8c 85 c9 bb a7 c5 9f 39
       -0.011137379 -8.338385e-06 -0.006149953 0.00030474106
000070 e3 b9 a1 bc d9 d2 3a 3b 10 98 ab b9 13 c1 97 ba
       -0.019741958 0.0028507023 -0.00032728957 -0.0011577926
000080 2d 17 45 3b c9 44 79 3a cc 76 74 bc 6f bf 3d 39
       0.0030073628 0.0009508846 -0.0149209015 0.00018095759
000090 81 8c d7 bb 9a e0 a0 b9 ab 61 76 bb f8 d5 6e 3a
       -0.0065780287 -0.0003068492 -0.0037594836 0.00091108633
0000a0 f9 3a 0a 3a 3d dc 68 bb 8f f4 a6 3b 54 0b b5 bb
       0.000527307 -0.0035531663 0.0050950716 -0.005525032
0000b0 f1 16 5b bb 2b 97 d4 bc 2d 88 8a bb 7d 6d cd bb
       -0.0033430422 -0.025950989 -0.004227659 -0.0062691555
0000c0 12 36 16 bc 99 09 81 b9 bc 19 f8 b9 4e 0a f0 bb
       -0.009168165 -0.00024611948 -0.0004732142 -0.007325447
0000d0 e9 72 c8 b9 19 05 d7 b7 97 e5 36 38 78 f3 aa 3b
       -0.00038232587 -2.5632371e-05 4.3606004e-05 0.005217012
0000e0 30 0e 14 bc 3a e3 05 bd 99 75 1a bc f0 1e a2 bc
       -0.009036586 -0.032687403 -0.0094274515 -0.019790143
0000f0 54 40 cb bb 9d 8e 18 bc ac 6b f1 bb 9b cb 63 bc
       -0.006202737 -0.009311345 -0.007367572 -0.013903524

weight f4 [64, 64]
000000 9a ff ae be 40 2d 80 be 74 d3 32 3e f9 01 b8 3d
       -0.34179384 -0.25034523 0.17463475 0.08984751
000010 44 72 1c 3e 3b bf 05 3e 90 a5 91 3d 67 34 fd bc
       0.15277964 0.1306123 0.07111657 -0.030908776
000020 61 75 29 be d2 e1 1e 3d 10 4d 67 bd 01 d0 5e bc
       -0.16548683 0.038789578 -0.056469977 -0.013599397
000030 d1 ea 5a be ed fd 13 3d 4e 16 34 be 6f cf 71 be
       -0.21378638 0.036130834 -0.17586634 -0.23614286
000040 e9 7d 6a bd 31 e5 ee bc 89 0b 8c bd 46 0c 30 3e
       -0.057248984 -0.029162021 -0.06838138 0.17192182
000050 2d 5e 9f 3d 61 ed a7 be a2 fa ff bc 6e 65 81 be
       0.077816345 -0.32798293 -0.03124744 -0.25272697
000060 70 4e 18 be 13 bf 7c 3e b0 0d f0 3d c9 12 35 3e
       -0.14873672 0.24682264 0.11721361 0.17682947
000070 ee de 39 3b a1 e6 9c 3d b2 54 07 bf 66 21 05 be
       0.0028361636 0.076611765 -0.5286361 -0.13001022
000080 80 2e 26 3e ba 75 c8 bd df 80 46 3d 5b 3c 84 bc
       0.16228676 -0.097880796 0.048462745 -0.016142061
000090 19 5d 57 3d 25 ae 18 be 2d 3a fd 3d 5c 1b b4 be
       0.05257902 -0.14910181 0.12364612 -0.35177124
0000a0 06 ad 2b 3c 8c b5 8e be 30 84 e4 3d 1b 3f e4 3d
       0.010478264 -0.27872884 0.11158025 0.11144849
0000b0 d8 28 3c 3d 82 46 55 3e 21 78 76 bd 88 98 45 be
       0.04593739 0.20827678 -0.060173158 -0.19296467
0000c0 61 98 45 3e 49 5c 7f 3d d1 93 81 3d c3 60 1b be
       0.19296409 0.06234387 0.06327022 -0.1517363
0000d0 f9 67 33 be fe 1f 09 be b8 fd ac be 8d dd f2 bc
       -0.17520131 -0.1339111 -0.33787322 -0.02964666
0000e0 67 71 56 3e 8d 82 e7 3d 22 41 2e be 60 8c f5 bc
       0.20941697 0.113041975 -0.17017034 -0.029974163
0000f0 be e8 24 3e 27 68 93 3d 89 81 7f 3e 4d a5 a0 be
       0.16104409 0.071976 0.24951757 -0.31376114
000100 5b fd 5e 3c f3 8a 84 bd 01 7a 00 be bc ae 38 be
       0.013610209 -0.06471815 -0.12546541 -0.18035406
000110 e0 4d 2b 3e 66 c8 e6 bd 6c a2 c3 bd cf 8a 01 3e
       0.16728926 -0.11268692 -0.09552464 0.12650608
000120 fc 7d ca bd 16 c2 8f 3e 22 68 6d bd f0 ba 8b 3d
       -0.09887311 0.28077763 -0.057960637 0.06822765
000130 c3 37 91 be fe 14 b9 3d 20 b1 1c 3e 46 fc 30 be
       -0.28362855 0.09037207 0.15301943 -0.17283735
000140 2e 4f 9c 3e b9 3a 2c bd 16 61 1d be 3d fc a1 bd
       0.3052916 -0.04204819 -0.15369067 -0.07909439
000150 bd 8c 59 be 49 d3 64 be 6a bc 78 be d1 e7 f6 bd
       -0.21245094 -0.22346224 -0.24290624 -0.12055934
000160 1f 42 80 be 8e a9 70 3c 60 05 5d be d2 68 87 be
       -0.25050446 0.0146888625 -0.21584082 -0.2644716
000170 49 b9 d3 bd 61 91 a8 3b 60 c2 d9 3e c0 7b 24 3e
       -0.10338075 0.0051442836 0.4253111 0.16062832
000180 2f f7 32 bd 02 d8 90 3b d9 3d 26 3d 7b ce b0 bd
       -0.043692764 0.0044202814 0.040586326 -0.08633133
000190 d6 49 17 3d d7 b7 31 bd a4 d2 8b be b5 3a ac 3d
       0.03693565 -0.043388214 -0.27309144 0.08409635
0001a0 cd 43 89 3d 48 92 25 be 34 4f 0f be f5 1a 64 3e
       0.06702385 -0.16169083 -0.13995057 0.22275908
0001b0 4f 73 48 bc e1 81 21 bd 1c 0a 43 bc db ee 1b be
       -0.012234523 -0.039430503 -0.011904266 -0.15227835
0001c0 a4 5f 08 be b0 20 40 3d 19 07 43 3d ef 01 c8 3d
       -0.13317734 0.046906173 0.04761419 0.09765994
0001d0 da 35 4f be af aa fd 3d 16 55 d6 be 25 8b 3b be
       -0.20235386 0.12386071 -0.4186179 -0.18314798
0001e0 65 67 15 bd 33 fa c2 bc 73 d4 03 3f bc 43 07 be
       -0.036475558 -0.023800945 0.51496047 -0.13209432
0001f0 d4 c1 5e 3e 61 43 1d be 36 28 8f 3e 64 c6 96 3d
       0.21753627 -0.15357734 0.27960366 0.07362059
000200 59 e0 d1 3d f2 1f 16 be c3 7b f8 be fb fe a5 3d
       0.10247869 -0.14660624 -0.48531923 0.08105274
000210 ea 02 a8 bd f8 bd 98 bd af a0 65 3e 61 c6 d5 bd
       -0.08203681 -0.07458109 0.22424577 -0.104382284
000220 45 76 e5 3d bd e0 02 be 2a 68 58 bc 64 a3 eb bd
       0.11204199 -0.12781043 -0.013208428 -0.11505774
000230 be b5 24 be 7e 25 b2 3e c0 cb 2e 3e 90 15 81 bd
       -0.16084954 0.3479423 0.17069912 -0.06302941
000240 91 3d d1 3d 9d 6e 1d bd d5 7a 82 be e5 e4 80 3e
       0.10216821 -0.038435567 -0.25484338 0.25174633
000250 10 47 9d 3e e6 14 6f be 43 0e 55 be 1e 15 52 3d
       0.3071828 -0.23347816 -0.20806222 0.05128967
000260 b9 cc fd bb d8 e7 b2 3e 95 74 22 3e 22 ee d4 bc
       -0.007745352 0.34942508 0.15864785 -0.025992457
000270 f8 02 c3 bd 82 a9 73 bd 61 0e bf 3c 0c 13 85 3e
       -0.095220506 -0.059487827 0.023322286 0.25991094
000280 3f 8a 61 3c 89 42 89 be e7 03 61 3e f8 a8 26 3d
       0.013765871 -0.26808575 0.21974145 0.040688485
000290 a2 2b aa bd 14 76 00 3e c0 76 0e 3e 0d 3f d2 bd
       -0.083091035 0.12545043 0.13912487 -0.10265932
0002a0 70 79 8a be 4f 8a 80 3e f4 fc 95 bc fa 0b 3a be
       -0.27045774 0.2510552 -0.018309094 -0.18168631
0002b0 90 bc 39 3e 52 18 fa bd 54 9b c4 bd 83 fc b5 bc
       0.18138337 -0.1221167 -0.09599939 -0.022215134
0002c0 4d 9e 52 be ba 88 06 3e 5b 54 33 be b5 ae 5f 3c
       -0.205682 0.13138095 -0.17512648 0.013652493
0002d0 e5 fe bc 3c d4 4c a3 be ff 28 fb 3d a5 94 1b 3b
       0.023070762 -0.31894553 0.12263679 0.0023739722
0002e0 8d f5 62 be 61 8e 70 bc a0 24 9c 3d aa a8 7a 3e
       -0.22163983 -0.014682383 0.07624173 0.24478403
0002f0 45 89 8c be 14 ee 70 3d 4f e8 7e 3e 14 d9 0d bd
       -0.27448478 0.0588208 0.24893306 -0.03463085
000300 5f db 86 3e aa 33 74 bd 24 36 28 bd 2e 42 64 3e
       0.26339242 -0.059619583 -0.041067258 0.2229087
000310 82 4d ba bd a6 bc 40 bd df 55 9b 3d 7f 2b c0 bd
       -0.09096815 -0.04705491 0.07584738 -0.09383296
000320 4c 80 89 be 64 05 ac 3d 27 13 61 3e 90 9c ca 3d
       -0.26855695 0.08399466 0.21979962 0.09893143
000330 6a ce 96 bd 27 c2 8f 3d 4e 16 3d be 7d 86 72 be
       -0.07363589 0.070194535 -0.1846554 -0.23684116
000340 7c 22 9f be 31 23 0c bd d0 5a 35 be fa e9 5e bd
       -0.31080997 -0.03421325 -0.17710423 -0.054422356
000350 39 d4 d6 3c 04 3c 00 3e 34 2f d1 bd d5 85 2e bc
       0.026224243 0.12522894 -0.102140814 -0.010652025
000360 6e ca 2d 3e 5b 1f d8 bd c2 89 0a 3e f1 1e 8b 3d
       0.16971752 -0.105528556 0.13529113 0.06793011
000370 55 5c 8f be 93 07 86 bd 2c ab 2d be 67 e7 0e be
       -0.2800013 -0.065444134 -0.16959828 -0.1395546
000380 4e 52 a1 3e 8c 53 e3 bc b7 0e 20 3e ac f5 a6 3b
       0.31508106 -0.0277498 0.15630613 0.0050952043
000390 de 1b e6 3e c0 dd 8c 3c a2 3a 48 3e 59 ff 32 3e
       0.44943136 0.017195582 0.19553617 0.1748022
0003a0 ed 5c 7c 3d 0c de 49 3e d2 9f 4f 3e 38 ec 08 be
       0.06161206 0.1971361 0.2027581 -0.1337136
0003b0 21 5c 49 be 84 c9 d4 bd 3c 35 5d bc bb 1d 49 bc
       -0.1966405 -0.103899986 -0.013501462 -0.012275155
0003c0 60 93 a8 bd b9 c4 05 be e8 fa 14 be 0b 59 ae bd
       -0.082312346 -0.13063325 -0.14548838 -0.08513077
0003d0 b7 ea e1 bc ba f2 22 3d 94 f8 d1 be 0c ca c3 bc
       -0.027577741 0.039782263 -0.41009963 -0.023900054
0003e0 99 e9 e0 3d 97 48 c5 be 53 23 40 3e 2d aa d4 3d
       0.10982055 -0.38531944 0.18763475 0.10384021
0003f0 9d b3 01 3d 70 ad d8 be 60 66 20 be b4 04 8d 3e
       0.031665433 -0.42319822 -0.15664053 0.2754265

bias f4 [64]
000000 a3 bc 74 bc c2 18 fa bb 6e 71 40 b7 01 d2 f5 ba
       -0.014937553 -0.007632346 -1.1470502e-05 -0.0018754603
000010 67 ac af bb c4 06 bc bb b8 83 89 b7 65 45 23 bc
       -0.005361128 -0.005738111 -1.6393009e-05 -0.009965275
000020 48 f4 66 b9 d1 f2 a7 ba 0f a5 1a bb c1 52 dd 38
       -0.00022025511 -0.0012813454 -0.0023596918 0.00010553515
000030 86 78 3a bc 20 3d 74 bc 7f 87 8e ba b9 ef 58 bc
       -0.011381274 -0.014907151 -0.0010874121 -0.013240748
000040 2b e5 c1 bb b0 09 08 bb 4a 4c c3 bc f2 7f d5 bb
       -0.0059172115 -0.0020757727 -0.023840088 -0.0065154964
000050 9a 25 87 b7 2b 74 1f bc ec 33 92 bc 07 c3 2a b9
       -1.6110764e-05 -0.009732286 -0.017847024 -0.00016285117
000060 80 e2 33 bc e9 7b 82 3b a2 5f 81 ba af 7d d7 3b
       -0.010979295 0.0039820564 -0.000987042 0.006576262
000070 99 63 5c 3b e1 9d f3 b9 fc 0f be bc 37 9a a1 bc
       0.00336287 -0.000464662 -0.023200981 -0.019726856
000080 01 f6 62 bc 17 a1 20 bc 67 b7 a7 bc 47 6e 22 3a
       -0.013852597 -0.009804032 -0.020473195 0.0006196242
000090 7d 6b 91 bc 9a 61 c2 bc 9e 7e c6 3b 38 f3 cd bc
       -0.01775145 -0.02372818 0.0060575744 -0.02514039
0000a0 4f ce 31 b9 ab 1a 27 ba 84 33 96 bc bf fb 95 bb
       -0.00016956891 -0.0006374518 -0.018335111 -0.0045771296
0000b0 d6 38 a1 b9 ce fc e7 bb 46 1c 8d bb 24 ed ce bc
       -0.0003075066 -0.007079697 -0.004306349 -0.025259562
0000c0 68 2a 06 bc 3f 59 ad bc 4b 9b 6a bc 8b 05 17 3b
       -0.008188821 -0.02116072 -0.014319251 0.0023044075
0000d0 33 d5 60 39 23 a2 5e b7 cf 64 05 bd 61 f6 03 b8
       0.00021441728 -1.32699815e-05 -0.03256684 -3.1462292e-05
0000e0 ef ed 29 3a 31 fc de 3a aa 3d 46 bc 96 d1 7a bc
       0.0006482293 0.0017012415 -0.012099663 -0.015308758
0000f0 01 79 2c bc 13 6c ac bc 7e e6 bd 39 14 96 a3 3b
       -0.010526896 -0.021047628 0.0003622062 0.004992256

weight f4 [64, 119]
000000 8b 6b 0d be 5f fe 27 be 94 85 2d 3e 9c 3a 9e bd
       -0.13810556 -0.16405629 0.16945487 -0.077260226
000010 fe e1 0d be e1 54 95 bd c2 c2 8b 39 6d 1f b3 bd
       -0.1385574 -0.0729158 0.00026657252 -0.08746228
000020 50 17 e2 3d 81 e8 d6 3c 50 5c 15 be 25 8e e6 3c
       0.11039603 0.026233913 -0.14585996 0.028143952
000030 39 a0 06 be 22 4f 3f 3d d2 2d 07 3e a4 01 20 bc
       -0.13147058 0.046706326 0.13201073 -0.009766016
000040 82 3d 17 be 74 3c 03 3b c8 49 f5 3c c2 1f 55 be
       -0.14769557 0.0020025047 0.029942408 -0.20812896
000050 96 1d 78 bd ce 67 d2 3d df 5c 89 be dd 5c a1 3c
       -0.06057509 0.102737054 -0.26828668 0.019697601
000060 33 fe ae 3d 49 9a 33 3e 92 c3 88 3d b5 70 1f 3d
       0.085445784 0.17539324 0.06677927 0.038925845
000070 10 e4 e9 bd a1 60 03 3e 7c c5 e9 3b 10 1e c2 bd
       -0.114204526 0.1282983 0.0071341377 -0.0947839
000080 e9 67 81 bd e1 92 a1 be 28 f3 cd bd aa 20 54 be
       -0.063186474 -0.31557372 -0.10056144 -0.20715585
000090 e4 72 95 3d 96 32 21 be 0f 0c a0 bd 26 ef 56 bd
       0.07297304 -0.15741953 -0.078148 -0.052474163
0000a0 24 20 4d be 58 74 7b bd 04 e5 25 3e 90 3b e8 3d
       -0.20031792 -0.06139025 0.16200644 0.11339486
0000b0 6e b6 53 be 26 8a 0b 3e 21 1e 50 be 5f 82 ec 3d
       -0.2067506 0.13626918 -0.20323993 0.11548304
0000c0 69 b2 41 3e 4f d4 41 be 6f 3d c9 3d 37 d1 df 3c
       0.18915714 -0.18928646 0.09826171 0.027321441
0000d0 54 1d 26 be 98 d6 32 3e 36 ff f3 bd 9f 1a 24 be
       -0.16222125 0.17464674 -0.11913912 -0.1602578
0000e0 c5 fc bd bc 70 b5 cf bd 73 bc 0f be f0 b9 94 3c
       -0.023191819 -0.10142028 -0.14036731 0.018155068
0000f0 3c f9 c0 3d c8 d7 d2 3d 4a 70 ed 3d 43 4d 92 3d
       0.09422538 0.10295063 0.11593683 0.07143643
000100 d7 d7 8d 3d 33 bc 4e bc 33 71 c3 bc c0 6e 28 be
       0.06925934 -0.012618112 -0.023857689 -0.16448498
000110 da 91 8f 3d fb 45 86 bb 8c f7 a7 3c 6c 87 dd 3c
       0.07010241 -0.004097698 0.020503782 0.027042113
000120 ae fd 5e 3d 7c d0 5e 3c bb e2 17 3e 32 ab 40 3e
       0.054441147 0.013599511 0.14832585 0.18815306
000130 1f 78 18 3d 69 15 16 3c 2c d4 8c 3e 73 83 af 3d
       0.03722393 0.009160378 0.27505624 0.08569994
000140 e7 0b 1d bc 1d f7 c3 3d 41 81 fb 3d 52 bf 92 bd
       -0.009585357 0.095686175 0.122805126 -0.07165398
000150 1d b1 25 be 24 bb 14 bd 94 2b a9 bd 20 5d 1e be
       -0.16180845 -0.036311284 -0.08260265 -0.15465212
000160 a6 5c ab bd ee d1 37 be 5e de 59 3d 90 9d 32 bc
       -0.08367281 -0.17951176 0.05319058 -0.010901824
000170 c5 25 48 3d af e8 1d be b1 7b e9 bd 13 37 eb 3d
       0.048864145 -0.15420793 -0.114005454 0.11485114
000180 ca 00 ad 3e 8c bc 55 3e 07 16 0e be 4f f0 e9 bd
       0.33789665 0.20872706 -0.1387559 -0.11422788
000190 e0 5f fc 3c 2b b2 6e bd b1 39 ca 3d 6f 5b 8e bd
       0.030807436 -0.058275383 0.09874285 -0.06951033
0001a0 de 8d 37 be 98 62 aa bd d7 49 11 be ec 7c 8d 3d
       -0.17925212 -0.083195865 -0.14188324 0.069085926
0001b0 d9 f7 00 be d8 db 5e 3e 91 af 02 bd 37 72 39 3d
       -0.12594546 0.21763551 -0.031905714 0.04527494
0001c0 84 74 81 be 03 73 ff bc 43 be 03 be 4c 5d c2 bc
       -0.25284207 -0.031182772 -0.12865548 -0.023726128
0001d0 f2 0d d6 bd 20 0c a4 3e 52 a8 17 be 46 05 bc 3d
       -0.104518786 0.320405 -0.14810303 0.09180693
0001e0 f0 04 9a 3c ce 43 55 be 89 65 92 3d 9a 42 eb 3b
       0.018801183 -0.20826647 0.071482725 0.0071795704
0001f0 76 e2 1c 3d fd c9 12 be 0f 8f 48 bc 5b 2f 36 3e
       0.038301907 -0.14334865 -0.012241139 0.17791502
000200 ff 3d 4f bd b4 09 1b be af 2b ca bd 23 a2 dd bc
       -0.050596233 -0.1514042 -0.09871613 -0.027054852
000210 28 fb 21 be 08 46 09 3d 19 71 8a 3c de 3c 89 bd
       -0.15818465 0.033514053 0.016899632 -0.067010626
000220 2f b5 4f be b1 3b 1c 3e 8b ed 24 3d f7 4d df 3d
       -0.2028396 0.15257145 0.0402656 0.109035425
000230 4f c9 2e 3d 1b 0b b4 bd f5 45 04 3d 13 cb f7 bd
       0.04267245 -0.08791181 0.03229328 -0.1209928
000240 6d 9c 4a be 33 f9 f3 3d 8e b4 92 3d 12 99 93 3d
       -0.19786234 0.11912765 0.07163344 0.0720693
000250 a9 8f 08 be f1 b6 da bd dd 66 5b 3c 7e be 3b 3d
       -0.13336052 -0.106794246 0.013391224 0.045835964
000260 68 db 15 3e 9e e5 75 3d 32 a3 da 3c a7 aa f1 bd
       0.14634478 0.060033433 0.026689146 -0.118001275
000270 49 40 a1 3d ae db 8d bc 38 d0 a2 bd a1 7e 58 3b
       0.078735895 -0.017316666 -0.07949871 0.003303446
000280 25 3a 46 be 92 4d c2 bc 93 b1 6f be 77 e5 aa bd
       -0.19358118 -0.023718629 -0.23407583 -0.08344548
000290 91 4b 22 bc c7 c1 6e bd 5b 81 94 bd 04 cc 47 be
       -0.009905712 -0.05829027 -0.07251235 -0.1951142
0002a0 9a 14 88 be a2 04 89 bc a9 71 94 be 51 35 c3 bc
       -0.26578218 -0.016725842 -0.28992966 -0.023829134
0002b0 4d 86 a9 bc 00 df 35 3e 6e 80 0c bd f1 48 6d be
       -0.020693922 0.17760849 -0.034302168 -0.23172356
0002c0 be 31 bf 3d ec fb bd 3d a6 da 5a bc 47 09 54 3d
       0.093356594 0.09276566 -0.013357794 0.05176666
0002d0 02 4b 0c bd c5 e9 9d 3e ba 99 94 bd a8 89 08 be
       -0.03425122 0.30842414 -0.072558835 -0.13333762
0002e0 c4 12 88 bd 52 89 09 be 84 af a3 bd c2 fb c0 bd
       -0.06644204 -0.1343129 -0.07992461 -0.09423019
0002f0 f6 4b d4 3d b3 f9 43 3e e5 c3 a0 3d e1 90 35 bd
       0.10366051 0.19138221 0.07849864 -0.04432762
000300 33 70 b0 bd 81 7f 5d be 07 d8 e0 3d 92 ac 30 3e
       -0.0861515 -0.2163067 0.10978704 0.1725333
000310 8b 37 e4 3d 3b f4 65 bd bd d7 5d bb 18 61 6e bb
       0.111434065 -0.05614112 -0.0033850514 -0.003637379
000320 ba b1 b3 bd 3c e1 99 bd 73 8b 0e 3e 52 5a b8 be
       -0.08774133 -0.07513663 0.13920383 -0.3600641
000330 68 a8 61 bd ff 49 84 be d2 1e f4 bc 50 47 f9 3d
       -0.055092245 -0.25837705 -0.029799853 0.12171805
000340 d6 73 0d bc 59 08 a1 bc 07 b4 3a bd ee dd 9b be
       -0.0086335745 -0.0196573 -0.045581844 -0.30442756
000350 1f 06 75 3d 24 7b 0f bd fb b6 35 3c 49 c2 34 3e
       0.05982029 -0.035029545 0.011090989 0.17652239
000360 de 80 bc 3e 2c b8 2d be 9b 8d 18 3e 3b 6a 33 be
       0.36817068 -0.16964787 0.14897768 -0.17520992
000370 be 46 03 3d c4 8a 54 bd 88 52 ab 3c 8e 20 0a bc
       0.032049887 -0.05189015 0.020913377 -0.008430613
000380 2d 54 e8 bd 70 ba 48 3e 14 a7 39 3e 6b f4 a5 bd
       -0.1134418 0.1960237 0.18130141 -0.0810326
000390 1c c2 f1 bd d2 80 13 3d 20 e9 f9 bc 48 3f 4d be
       -0.118046016 0.036011524 -0.03050667 -0.20043671
0003a0 34 eb ac 3d 5f 36 4c ba e2 5f 46 3c 6f 07 22 3d
       0.08443299 -0.00077900843 0.012107821 0.03955787
0003b0 6c d4 85 3d 07 af b2 bd a6 08 f4 bd 4c 94 45 be
       0.06534657 -0.0872479 -0.11915712 -0.19294852
0003c0 44 1a b2 3c eb f2 58 3d 7f cb c0 bd 6d 22 55 be
       0.02174104 0.05296604 -0.09413814 -0.20813914
0003d0 86 a6 0b 3e fc f2 39 bb 69 16 56 bc 2a 76 0a be
       0.13637742 -0.002837359 -0.013066866 -0.13521639
0003e0 e2 7d 0d 3e a8 82 0b 3d ab 6a 99 bc 74 33 27 3c
       0.13817552 0.03406015 -0.018727621 0.0102051385
0003f0 07 fc 66 be cd 88 17 be 38 02 ab bc 58 e7 14 be
       -0.22557078 -0.14798279 -0.020875081 -0.14541376

bias f4 [64]
000000 53 14 1a bd 66 70 aa bc 15 1f d6 bc 31 40 78 bd
       -0.03761704 -0.020805549 -0.026137868 -0.060608093
000010 67 f3 f1 3b 92 ba 21 bd 80 9b 0a bc 12 eb 88 bd
       0.007383752 -0.039484568 -0.008459926 -0.06685461
000020 db 17 cd bc b2 c5 00 bd 0a 9d 1f bc ec a1 88 bd
       -0.02503579 -0.031438537 -0.009742031 -0.06671509
000030 21 76 1b 3d c8 bb 91 bc 74 fd 01 bd 01 9f 31 ba
       0.037954453 -0.017789736 -0.031735852 -0.00067757076
000040 ed 57 00 3d ae c5 5d 3c ba 60 bf bc 2b 43 17 3d
       0.031333853 0.0135359 -0.023361553 0.03692929
000050 21 c2 23 bd 4a 42 35 bd 64 37 ae 37 90 31 27 3c
       -0.039980058 -0.04425267 2.076821e-05 0.010204688
000060 32 5e 38 bd 64 9d 75 bc bf 07 8d bc 67 7e 11 bd
       -0.045011707 -0.014991138 -0.017215608 -0.035520937
000070 ad f7 6c bd 6a fc 0d bc 63 3f 18 bd 1f 91 19 bd
       -0.05785339 -0.008666137 -0.037169825 -0.037491914
000080 1b e1 52 bd 1e 06 49 bd 64 b2 b9 bc b9 9d 02 bd
       -0.05148421 -0.0490781 -0.022668071 -0.031888697
000090 a9 ff 8f bd 64 20 21 3c e5 02 68 bc 20 3f c7 bc
       -0.07031185 0.009834383 -0.014160846 -0.024322093
0000a0 81 15 01 bc 30 c5 b9 3c 55 d1 96 bc ad 80 39 bd
       -0.007878662 0.022677034 -0.018410364 -0.04528873
0000b0 9a 95 e3 bc 14 ab a1 bc 0e 7a 1b bd 1e 85 df bc
       -0.027781297 -0.019734897 -0.037958197 -0.027285155
0000c0 9d 82 a7 bc c0 f1 83 3c f5 59 b9 3b b8 45 08 bc
       -0.020448023 0.016106486 0.0056564757 -0.0083174035
0000d0 bb 0b 8b bb f3 ee a7 bc e0 f7 5b bd c8 9c 04 bd
       -0.0042433417 -0.020499682 -0.05370319 -0.03237608
0000e0 f1 14 ae 3a fe 1a 09 bd ad 32 67 bd 50 bf bb bb
       0.0013281388 -0.033473007 -0.056444813 -0.0057295933
0000f0 79 45 1d bb ec 89 6c bc a4 52 39 3d 5e 47 38 bc
       -0.0023997708 -0.01443718 0.045244828 -0.011247484

weight f4 [64, 64]
000000 97 06 07 be 7c 02 6c bc d9 09 63 be 39 b3 90 3d
       -0.13186108 -0.014404889 -0.22171725 0.07065434
000010 df a1 5f be 18 fb 10 3e 86 70 04 be 47 c3 c4 3d
       -0.21839093 0.14158285 -0.1293355 0.09607559
000020 de f0 48 bd 6c 27 97 bb a4 52 47 3e 22 51 1a be
       -0.049057834 -0.0046128538 0.19465119 -0.15070012
000030 3d 36 73 be de 9f 86 3e a7 8d c6 3d 36 99 8e 3c
       -0.23751159 0.26293844 0.09694987 0.017407041
000040 ff 0e 99 bd 8c a7 d3 bd 1c 81 90 3d 45 f9 a4 3d
       -0.074735634 -0.103346914 0.07055876 0.08055357
000050 91 b6 59 3e 64 83 34 be f1 28 c4 3d d4 7f fb 3d
       0.2126105 -0.17628247 0.095781215 0.12280241
000060 35 48 be be 66 fd 10 3e a9 21 a8 3e 1d e2 7e 3d
       -0.37164465 0.14159164 0.3283818 0.062227357
000070 56 f5 a7 be 23 db c4 3e 3a 3a f9 bd 89 70 0f 3e
       -0.32804364 0.38448438 -0.12169309 0.14007773
000080 e8 f8 29 bb 37 23 89 3e c8 f8 22 bd 50 54 4e bd
       -0.0025935713 0.2678468 -0.039788038 -0.050373375
000090 1a e3 f0 3d 01 fc 98 3a 69 a4 0c 3e 91 97 b6 3e
       0.11762066 0.0011671783 0.13734592 0.3566251
0000a0 d1 42 27 be c1 97 44 3e 9e 83 20 bd a3 a6 97 bd
       -0.16334082 0.19198515 -0.03918802 -0.0740483
0000b0 0c d3 78 3e c3 7d 21 3e c4 b7 66 3e ac 54 18 bd
       0.24299258 0.1577063 0.22531039 -0.037190124
0000c0 84 e8 6b be ac 65 88 3e 41 39 84 be bf ed 91 bd
       -0.23037916 0.2664007 -0.2582493 -0.071254246
0000d0 01 55 d9 bb 93 23 a9 3c 56 14 36 3e fe a1 f4 bb
       -0.0066324477 0.020646846 0.17781195 -0.0074656
0000e0 18 44 21 be c7 fa 68 3c f4 b5 cb 3c 6f d4 99 bd
       -0.15748632 0.014219946 0.024867035 -0.075112216
0000f0 71 5b 05 be f7 3d b8 3c 7e cc 4c 3d 8c d4 f0 be
       -0.13023163 0.022490485 0.049999706 -0.4703716
000100 09 f0 fa 3d 15 32 4f 3e e8 6c 8e 3d 81 1c a2 3d
       0.12252814 0.20233949 0.06954366 0.07915593
000110 25 d5 35 3c 40 bb 74 3e af c8 30 3d 06 7d 21 bd
       0.011098181 0.23899555 0.043160137 -0.039425872
000120 8e 52 e9 3d 40 df 28 be a6 1d d8 bd 7e cc 80 be
       0.11392699 -0.16491413 -0.1055253 -0.25156015
000130 19 0b 03 3e 38 63 54 3d 49 bd 46 be 18 ca 14 be
       0.12797202 0.051852435 -0.19408144 -0.14530218
000140 82 83 bd 3d e3 eb b2 3c cf 82 6a 3d 97 9e 9f 3d
       0.09253599 0.021840995 0.057253655 0.077939205
000150 73 73 d1 bd 55 f1 4b 3e 93 be b8 bd b6 ad 9b be
       -0.10227098 0.1991628 -0.09020724 -0.30405968
000160 5d 7d 74 be 33 de 40 be 1c 16 23 3e 34 06 84 be
       -0.23875947 -0.18834762 0.15926403 -0.25785983
000170 c8 0d 34 be fc 89 16 be c2 2b 00 be a4 f5 c7 bd
       -0.17583382 -0.14701074 -0.12516692 -0.09763649
000180 6b f6 c3 be ab 62 22 be 3d 47 07 be 03 83 e7 bd
       -0.3827394 -0.15857951 -0.13210769 -0.113042854
000190 10 c0 bc 3d 44 17 39 3e 05 40 e9 3d 1c b4 3e be
       0.092163205 0.18075281 0.11389164 -0.18623394
0001a0 e5 26 a7 3d 6d 9a 78 3e 2a d4 a9 3c 55 76 3b bd
       0.081617154 0.24277659 0.02073105 -0.045767147
0001b0 e0 db 1a be 69 6f e6 3d ed b8 89 be 10 1b a7 3e
       -0.15122938 0.112517186 -0.268989 0.32637835
0001c0 87 26 c6 3d fe 6e 1e 3e 41 8f 3b bd 69 98 cd bd
       0.09675317 0.15472028 -0.045790914 -0.100388356
0001d0 bf 19 3c be 11 5f f0 bd 31 f0 58 3e 61 d2 00 3e
       -0.18369196 -0.117368825 0.21185376 0.12580253
0001e0 ce a9 74 3d a4 68 7a be 1d 3e 22 be ef 09 da bd
       0.05973225 -0.2445398 -0.15844007 -0.10646426
0001f0 59 83 dd bd 93 3d ab be bb b5 7a 3e 7b 7c 3d be
       -0.10816068 -0.33445415 0.24483387 -0.18504517
000200 0b 0f 93 3c 26 92 96 3d 49 12 f6 bb 50 51 25 bd
       0.017951509 0.07352094 -0.007509504 -0.04036075
000210 b8 d6 12 3e 1c 6a d0 3e 09 41 50 be b5 80 92 3e
       0.14339721 0.40705955 -0.20337309 0.2861382
000220 43 40 11 be 34 5f bf 3d 47 e1 ae bd c7 40 18 3c
       -0.1418467 0.093443304 -0.08539062 0.009292788
000230 43 51 56 3c 2f 4b eb 3d f7 6d 94 3d 61 ef 25 be
       0.013080898 0.114889495 0.07247537 -0.16204597
000240 06 04 27 3d ce 00 ea 3b 18 57 03 3c ac d1 36 3e
       0.04077532 0.007141209 0.00801637 0.17853421
000250 0e 83 75 3e db ff b8 be e0 72 ce 3d 43 df 15 be
       0.23975775 -0.36132702 0.100805044 -0.14635949
000260 1f a5 72 bd 08 dd 52 bc fd 97 ab bd 2d e7 1b bd
       -0.059239503 -0.012870081 -0.08378599 -0.038062263
000270 ca 3b 8e 3e 54 49 ec bd 57 83 59 3e 21 10 2d 3c
       0.2777999 -0.11537424 0.21241508 0.010562927
000280 ef 44 02 3d 95 b1 ee bd 1b 3d b8 3e bf c8 d7 be
       0.03180402 -0.11654965 0.3598412 -0.42145345
000290 5d 15 2f 3e 31 0a 92 bc d0 04 a6 bc be c0 5e 3e
       0.17097993 -0.017827125 -0.020265967 0.21753213
0002a0 ae 0d fd bd f1 9c 8e 3e a7 86 f8 bd a3 92 23 be
       -0.12356125 0.27854112 -0.12135058 -0.15973906
0002b0 5b 2a a6 bd d3 c4 be 3d d9 93 0e be 39 ba 36 3e
       -0.081135474 0.09314885 -0.13923587 0.17844476
0002c0 30 09 2e 3e 06 4c 10 3e cb d8 bd 3d e3 a8 65 3e
       0.16995692 0.140915 0.092698656 0.22427706
0002d0 25 50 3a 3e ff 06 52 3e 81 43 ca bd 6c 35 92 3b
       0.18194635 0.20510481 -0.098761566 0.004461935
0002e0 4c b1 cb 3d 7b 2b 3a be c2 fa 02 3d 99 30 3d be
       0.09945926 -0.18180649 0.031977423 -0.1847557
0002f0 f3 24 45 3e a9 29 c7 bd 59 4a fc be d3 a6 9f 3d
       0.19252376 -0.09724743 -0.49275473 0.07795491
000300 d4 9d d5 3d a2 2d 4c 3e b7 83 f2 b9 e1 9f 44 bd
       0.10430494 0.19939283 -0.00046255972 -0.048004035
000310 47 9b f9 bd e4 0f 4f 3e e5 c8 b8 be cc 30 2d 3e
       -0.1218782 0.20220906 -0.3609077 0.16913146
000320 ea 85 2e be 44 89 b0 3d 5b 77 f9 bd 79 e7 16 be
       -0.17043272 0.08619931 -0.121809684 -0.14736737
000330 bf 4a 18 be 39 b0 13 be 5b be ca 3c a9 25 54 3d
       -0.14872263 -0.14422692 0.024748972 0.051793728
000340 6a 86 f4 3e 77 5b 2a be c0 5a ca bd d7 35 c3 be
       0.477588 -0.16636454 -0.098805904 -0.38127014
000350 b6 ef 5f 3e 74 f2 0e 3e 46 ea fa 3d f7 19 ca bd
       0.21868786 0.13959676 0.12251715 -0.09868234
000360 65 06 f5 bc ba e5 08 3e 20 d9 7e be 7f 93 d5 3d
       -0.029910276 0.13368884 -0.24887514 0.10428523
000370 e4 7e 64 be 07 f2 2b be c5 26 84 bd 3d d8 08 bc
       -0.2231403 -0.16791545 -0.06452707 -0.0083523365
000380 5f cb 5d bc 53 9d 9c bd 51 8c 5a be 38 43 8d be
       -0.013537257 -0.07647195 -0.21342589 -0.27590346
000390 e2 2e ca 3d 46 ab a4 3d 17 c8 9c be 34 ff 94 bd
       0.098722234 0.0804048 -0.30621406 -0.07275239
0003a0 73 44 35 3e 5e 44 72 be 44 20 59 be 5f 94 78 3e
       0.17701893 -0.23658893 -0.21203715 0.24275349
0003b0 9b 03 0d be 49 1b 4f 3e 28 67 70 bd 23 0c 88 be
       -0.13770907 0.20225252 -0.058692127 -0.2657176
0003c0 1a 31 10 3d 2b 37 38 3e ca 0f 00 3d e7 a4 1a 3e
       0.035203077 0.17989795 0.031265058 0.15101968
0003d0 3a 28 18 3e 01 5a c3 bc c4 26 26 be 26 f2 09 3e
       0.14859095 -0.023846628 -0.16225725 0.13471279
0003e0 c7 1f ca 3d 42 99 e5 3d 64 61 5d 3d 01 87 8e 3d
       0.09869342 0.11210872 0.054047957 0.06959344
0003f0 b0 b8 4a bd 50 6e 98 3e 3d f8 84 3e 07 f4 6a be
       -0.049492538 0.29771662 0.2597064 -0.22944652

bias f4 [64]
000000 3f 88 93 bc 4e 2e 9e 3c 1d 93 d6 bc 12 39 a6 bc
       -0.018009303 0.01930919 -0.026193196 -0.020290885
000010 04 1c a7 bb 21 03 e1 3b ee 6b a9 bb 39 b9 1d bd
       -0.0050997753 0.006866828 -0.005170337 -0.03850672
000020 1b dd 96 3b bc 06 56 3c 14 0b 8f bb d1 17 bc bc
       0.0046039945 0.013063129 -0.0043653343 -0.022960575
000030 71 0d a3 3b 91 ac 2f bc 33 cf 37 3d e4 04 91 3c
       0.0049759676 -0.010722295 0.044875335 0.017702527
000040 9a 26 62 3a 39 a8 14 3c 20 e4 33 3c 0e 47 fa bc
       0.0008626968 0.0090733105 0.010979682 -0.03055146
000050 29 44 12 38 8f 87 87 b7 cd 3d 39 bb cd 65 93 bb
       3.487259e-05 -1.6156378e-05 -0.0028265596 -0.0044982196
000060 20 1c a1 bb 7a 12 cf 3b b8 85 06 bd 81 c7 40 bb
       -0.004916683 0.0063193412 -0.032842368 -0.0029415789
000070 79 5d cb bc c0 5b 18 bc ce 3c 03 3c f4 66 63 bd
       -0.024824845 -0.009299219 0.008010102 -0.055518106
000080 b4 09 19 3d 4c 7c e2 bb 97 8c 15 bd 3f 8e 29 bc
       0.03736277 -0.00691179 -0.03651103 -0.0103488555
000090 52 89 bc 3a 6d ab f8 bc d0 7a 4a 3b 8b 4b 48 3a
       0.0014384186 -0.03035518 0.0030895956 0.00076406513
0000a0 e7 e4 a9 3c 2a 41 07 bd 7e 18 d0 39 0d 7e 5d bb
       0.020739032 -0.03302113 0.000396911 -0.0033797056
0000b0 b4 e0 0e bd 6d fc df 3b 86 36 e6 3a 17 b5 bb bc
       -0.034882262 0.0068355114 0.0017563857 -0.022913499
0000c0 f1 bf c5 3c f7 c7 88 bc 8d f1 32 3c d8 c3 ed b7
       0.024139376 -0.016696913 0.010921848 -2.8343798e-05
0000d0 0f 56 27 bc f6 4a f9 bc a6 69 57 bd d3 41 63 bd
       -0.010213389 -0.030431252 -0.05259099 -0.055482697
0000e0 ef f2 23 bb c7 c6 3d bc d7 54 92 b9 f3 5f 94 3b
       -0.0025016626 -0.011583037 -0.000279105 0.0045280396
0000f0 1a 4b 72 bd b4 45 f6 bc c1 5e 13 bb 25 51 07 bd
       -0.059153654 -0.030062534 -0.0022486898 -0.03303637

weight f4 [1, 64]
000000 14 8a 5e ba 51 69 fd bd e4 45 8f ba 9a c0 c4 ba
       -0.0008489203 -0.12373603 -0.0010930863 -0.0015011013
000010 c6 1c 98 be 28 9b 60 3d aa 8a 75 bc 87 a5 f2 3d
       -0.29709452 0.05483547 -0.014986673 0.11847978
000020 a4 b7 3c be 55 03 26 bd d8 e2 1c be e0 9d 67 3e
       -0.18429428 -0.04053052 -0.15320909 0.22618818
000030 b5 bf 81 bd 28 42 19 be 68 4a 87 3d 49 10 96 bd
       -0.06335393 -0.14966643 0.06605989 -0.07327325
000040 db d8 c7 b9 9c 8f 42 ba 0e 5d 54 3d 19 c0 8c 3d
       -0.00038117808 -0.0007421912 0.051846556 0.06872577
000050 e1 5f c4 bd 37 7c a8 3b 31 a7 2d bb 80 0b ea 3b
       -0.095886 0.0051417607 -0.002649736 0.007142484
000060 32 2c 98 be 78 ca 44 3e 51 c3 2f be d9 e8 2b 3e
       -0.29721218 0.1921786 -0.17164351 0.16788043
000070 f6 7d 1b 3e 7c ad 26 3d fa 0b 42 ba 3d ea 55 be
       0.15184769 0.04069279 -0.00074022973 -0.20890136
000080 e9 bf 92 3d 26 e5 02 ba f0 d2 05 be 07 ec fd ba
       0.0716551 -0.0004993252 -0.13068748 -0.001937271
000090 b8 dd 03 3e 9a d8 37 3d 0e 41 83 3d 8e aa 1c 37
       0.12877548 0.0448843 0.064088926 9.338035e-06
0000a0 1d 9f cd 3c 08 17 a0 bd e1 73 f2 3c bc 6f 11 3d
       0.025100285 -0.07816893 0.029596271 0.03550695
0000b0 91 d2 2f be 23 c8 5e ba 97 08 d8 b9 3c 8f 1f 3a
       -0.17170168 -0.00084984506 -0.0004120513 0.0006086712
0000c0 f4 29 90 3d 69 ea f8 3b 0c 6a 77 3d 94 88 32 3e
       0.07039252 0.0075963032 0.06040387 0.17434913
0000d0 54 4f 74 be dd 42 a5 bd f4 f1 56 be d9 84 96 be
       -0.23858386 -0.08069394 -0.20990735 -0.2939823
0000e0 51 02 ae ba 23 7b e7 bd 54 90 66 be c7 fe 3c bd
       -0.0013275837 -0.11302783 -0.22515994 -0.046141412
0000f0 9c c6 45 be 1f 35 0c 3d 56 77 ef bc 48 01 9b be
       -0.19314045 0.034230348 -0.029231708 -0.30274415

weight f4 [5, 64]
000000 b7 47 28 bc 8b 7a a4 3c 1c 91 be ba b8 82 08 3c
       -0.010271004 0.020077964 -0.0014539096 0.008331947
000010 43 b9 2c 3c 81 08 39 3c b4 42 e3 b9 b7 2e 83 bc
       0.010542217 0.011293531 -0.00043346512 -0.016013486
000020 12 40 95 3b 9c 17 bc 3b ac 1e d7 3b 27 5d 46 3a
       0.004554757 0.005740119 0.0065649357 0.00075669814
000030 8d 76 a3 bd 2a 88 d5 bb ea 4e ae 3b 31 09 38 3d
       -0.07981596 -0.006516476 0.005319466 0.04493064
000040 c0 2b 58 3b df a5 58 ba ae 17 14 bd 39 0d 5e 3a
       0.0032985061 -0.0008264463 -0.036155395 0.0008470598
000050 6b 9f 67 b9 a3 25 39 bd a9 e4 85 bb 60 41 99 3b
       -0.00022089265 -0.04520191 -0.0040860963 0.0046769828
000060 b8 be 9b 3c 24 95 ba 3c 3a 46 f9 b9 8a 34 a9 3c
       0.01901184 0.022776194 -0.00047545304 0.020654935
000070 08 ae 88 bc e9 b7 93 ba 1b a0 2d bd 3d 24 5c 3b
       -0.016684547 -0.001127002 -0.042389017 0.0033590936
000080 2f 32 2b 3d 46 46 60 bc c6 f4 c3 bc da cd d3 bb
       0.041795906 -0.0136886295 -0.023920428 -0.0064637484
000090 7f c3 42 3d 71 13 4c bd 0a 87 a9 bd de db bb bc
       0.04754972 -0.04982323 -0.0827771 -0.02293199
0000a0 65 67 9c ba 69 40 f5 3c 01 84 9d bc 57 91 7a bb
       -0.001193267 0.02993794 -0.019227983 -0.0038233602
0000b0 33 42 ff 3a 1d fb d6 bc c4 92 b2 3b 6e b0 90 bc
       0.0019474685 -0.026242787 0.0054496247 -0.017662253
0000c0 6b 8d bc bd 75 71 0c bd 9d 66 90 3c d8 c8 2a 3b
       -0.09206661 -0.03428789 0.017627055 0.0026059654
0000d0 90 19 6f bb 63 03 72 3a 14 36 64 bd c2 68 22 bb
       -0.0036483742 0.0009232072 -0.055715635 -0.0024781679
0000e0 8d a4 72 ba f1 de 61 3c c9 0c d9 3c 30 56 2f bd
       -0.00092560874 0.0137860635 0.026495354 -0.042806804
0000f0 df 79 7a bb 76 e2 1b ba f1 30 a2 3c a1 8a c6 3c
       -0.0038219613 -0.0005946526 0.019798728 0.024236025
000100 d6 4e 98 bc 05 4f 6a bd b7 40 fe 3a ea b3 ee bc
       -0.01859228 -0.057204265 0.0019397949 -0.029138524
000110 fa 82 fd bc 29 32 0e bb 23 fe 06 3a 2e 21 27 3d
       -0.030946244 -0.0021697378 0.00051495637 0.040803127
000120 91 96 d9 bc 64 74 05 bc ea 58 36 bc 0e 1d a6 bb
       -0.026561053 -0.0081454255 -0.011129597 -0.0050693816
000130 0a 31 24 3e 89 a4 65 bc 14 e9 97 3b 32 64 2d be
       0.16034332 -0.014016279 0.0046359394 -0.16932753
000140 38 7b 1e bc 81 4d 19 bd 2e a0 e6 3c 79 8b d2 bc
       -0.009672932 -0.03742743 0.028152552 -0.025701271
000150 dc 02 9a 3a 95 26 1c 3e 79 3b 31 bc 0d 37 cf 3a
       0.001175012 0.15249093 -0.010817402 0.0015809253
000160 f5 30 b3 bd 2a 04 fd bd 54 8c d3 bc 10 cc c5 bd
       -0.08749572 -0.1235431 -0.02582375 -0.096580625
000170 ba 86 3c 3d 12 99 b1 bc a9 e7 80 3d b9 0b d5 bc
       0.046026923 -0.021679435 0.06294186 -0.026006566
000180 ec b3 26 be 1e 2d 58 3d e1 af 53 3d 77 30 9c 3c
       -0.16279572 0.052777402 0.051681403 0.019066079
000190 b1 84 2b be 6c 50 c4 3d 8a c0 2b 3e 20 70 eb 3c
       -0.16749837 0.09585652 0.16772667 0.028739989
0001a0 09 c1 be 3b d0 c0 df bd f7 c5 08 3d 63 da 4e 3b
       0.0058213514 -0.10925448 0.03339192 0.0031563274
0001b0 38 86 1b bc 28 a8 2d 3d 05 ef f9 bc 94 ec 5c 3c
       -0.009492449 0.042396694 -0.030509481 0.013484139
0001c0 09 64 52 3e 04 3e 58 3d 21 20 94 bd 87 51 0d bd
       0.20545973 0.052793518 -0.072326906 -0.03450158
0001d0 2b 1d 32 3b 43 4e c4 3b 37 d7 ff 3d 16 d9 19 3b
       0.002717803 0.005990775 0.12492221 0.002347534
0001e0 15 ff bb bc 69 67 6d bd a7 83 dc bd 40 cf 8a 3d
       -0.022948781 -0.057959948 -0.10767298 0.06777811
0001f0 63 e3 e3 3a cc a9 60 bc a4 0d 23 bc b1 7c 20 bd
       0.0017386492 -0.013712358 -0.009951983 -0.039181415
000200 8c e0 31 bc 43 a2 85 3c 69 2b 2e 3b 59 1e 6f 3c
       -0.010856759 0.016312724 0.0026576167 0.014594638
000210 a5 44 95 3b 10 f8 bb ba cd d8 c9 ba bc 34 3c bc
       0.004555302 -0.0014340896 -0.0015399695 -0.011487182
000220 89 39 28 3c 55 a7 12 3c 1a 5a 0c 3b db 9f af 3b
       0.010267624 0.008951028 0.002141601 0.0053596324
000230 07 8e 9b bd 98 4c 9c 3b 88 0a 7b bb 4f 09 21 3d
       -0.07595449 0.004769873 -0.0038305838 0.039315518
000240 3d f4 b9 3b 2a 71 59 3c 51 4a 09 bd 02 7d 1b 3c
       0.0056748674 0.013271609 -0.03351814 0.009490253
000250 98 5f df b9 8e 5e 7d bd ea a2 1f bc 81 67 a6 3b
       -0.00042605097 -0.061857753 -0.009743432 0.0050782566
000260 1e ad c4 3c 10 5d 4a 3d 22 dd 81 3c 1e 26 0b 3d
       0.02400833 0.049405158 0.015852515 0.0339719
000270 52 f5 4d bc 1f b0 2e bb 17 8c 34 bd 39 01 73 3b
       -0.012570696 -0.002665527 -0.044078913 0.0037079586
000280 34 4c 0c 3d 3f cb 3f bc 54 fc 07 bd 2c 2f 2b 3a
       0.03425236 -0.0117061725 -0.033199623 0.00065301615
000290 83 39 42 3d 2f d1 33 bd 9d 0c a6 bd 09 99 eb bc
       0.04741813 -0.043900665 -0.081078745 -0.028759496
0002a0 89 34 90 3a 04 94 10 3d f1 48 98 bc 26 43 3e 3b
       0.0011001985 0.03529741 -0.018589469 0.0029031723
0002b0 c8 e1 d9 3b 34 fc 63 bc ae e0 42 3c 60 f7 86 bc
       0.0066492297 -0.01391511 0.011894388 -0.01647538
0002c0 e9 68 ae bd c9 8a 0b bd e0 82 39 3c 70 de 9d 3a
       -0.08516104 -0.034067903 0.011322707 0.0012044441
0002d0 e0 56 52 bb 74 45 53 3a 3c dd 54 bd f9 5f 05 bb
       -0.0032095239 0.00080593606 -0.051968798 -0.0020351394
0002e0 c0 1a 3a 3c fc ae 8b 3c 26 38 e9 3c 7f eb e9 bc
       0.011358917 0.017051212 0.028469156 -0.028554676
0002f0 3b da 6f bb b8 71 8c 39 92 e5 36 3b b8 24 d1 3b
       -0.0036598581 0.00026787608 0.002790783 0.006382551
000300 a2 78 6f 3b be d9 0f 3c 8b c0 9b ba 4d 35 73 3c
       0.0036540409 0.008779941 -0.0011882944 0.014844251
000310 f7 9e 6b 38 e0 ba 71 ba 8d 4b ce 3a 12 1c 9d bc
       5.6176414e-05 -0.0009221267 0.0015739069 -0.019178424
000320 be 71 74 3c ce e4 f7 b9 b9 b5 91 bb 41 ce 96 3a
       0.014919696 -0.00047281984 -0.004446712 0.001150556
000330 88 8a 9f bd 36 0d e0 bb 52 49 2e bb 81 2d 25 3d
       -0.077900946 -0.0068375124 -0.0026593995 0.0403266
000340 dd 6a e7 3b f3 19 26 3c b9 6f 0d bd 2c 53 73 3c
       0.0070622996 0.010138023 -0.034530375 0.014851373
000350 9e ce c0 3a 7e 41 86 bd 8c 10 83 3a 0d c2 85 bb
       0.0014710014 -0.065554604 0.0009999438 -0.0040819705
000360 ae b4 d0 3c 58 e0 ed 3c 29 08 cf 3b 48 10 d3 3c
       0.02547678 0.02903764 0.0063181114 0.0257646
000370 1b d7 87 bc 3e ac f9 3b 80 f1 1a bd cf 3a 6d 3b
       -0.016582062 0.00761941 -0.03782797 0.0036198383
000380 3d b1 25 3d 22 b2 96 bc 10 e6 ed bc 34 0e 35 bc
       0.04045223 -0.018395487 -0.029040366 -0.01105075
000390 2b 74 2d 3d b7 f0 21 bd e2 01 96 bd b3 72 fd bc
       0.042347115 -0.039536204 -0.07324578 -0.030938482
0003a0 37 3d 48 3b 00 15 ff 3c d9 be 9b bc 25 c3 e2 ba
       0.0030554065 0.031137943 -0.019011902 -0.0017300589
0003b0 ad c0 8a 3a 1d da b2 bc f2 f7 1a 3c bf 18 c3 bc
       0.0010585986 -0.02183252 0.009458529 -0.02381551
0003c0 2b e3 a4 bd f7 4e 1b bd a7 d2 a7 3c 82 a1 9b 3c
       -0.08051141 -0.037917104 0.020486189 0.018997911
0003d0 c6 4e 01 3c ee 03 87 ba 33 44 72 bd 96 a3 07 3a
       0.007892316 -0.0010300854 -0.05914707 0.00051742175
0003e0 4c a9 96 3b f6 1c 08 3c 79 b6 c5 3c 91 98 1d bd
       0.0045978185 0.008307686 0.024134861 -0.038475577
0003f0 dd f2 dd bb b1 6a 14 3c 40 e3 6d bb 2d 37 fe 3b
       -0.0067733363 0.00905864 -0.0036298782 0.0077580423

bias f4 [5]
000000 6a 44 c8 bb 86 d7 fb 3b 7a 88 87 bc cd 69 83 bc
       -0.006111671 0.0076856045 -0.01654457 -0.01604166
000010 24 8b 53 bc
       -0.012911592
