model/tiny-4/A2C/model_agent2_seed3.pt (torch, 101825 bytes, 11 tensors)

weight f4 [64, 119]
0	0xbe2c45ad	-0.16823454
1	0x3ce834c0	0.028345466
2	0xbe0872bb	-0.13325016
3	0x3d56e938	0.05246851
4	0xbd427c8f	-0.04748207
5	0xbcec90aa	-0.028877575
6	0x3eb8b149	0.36072758
7	0x3d1a4d2e	0.03767126
8	0x3c4581c7	0.012054867
9	0x3d834bed	0.06410966
10	0xbd5ac5c6	-0.053411268
11	0x3d817309	0.06320769
12	0xbdb9c647	-0.090710215
13	0x3d48818d	0.048951674
14	0xbc7a53af	-0.015278741
15	0x3dabd960	0.0839107
16	0x3dd761ed	0.10516725
17	0xbdf335f9	-0.11875529
18	0x3d1caf88	0.038253337
19	0x3ddefdaf	0.1088823
20	0x3c92f11f	0.017937241
21	0xbdcfecb9	-0.10152573
22	0xbde3f78a	-0.11131199
23	0xbded8d2c	-0.11599192
24	0x3e12b5f9	0.1432723
25	0xbdeebdc4	-0.11657289
26	0x3e419baf	0.18907045
27	0xbe5837ff	-0.21115111
28	0xbdbd9e91	-0.0925876
29	0x3d0e19f3	0.034692716
30	0x3e06113e	0.13092515
31	0xbd3c00a0	-0.045899034
32	0xbe0354c2	-0.12825301
33	0x3d240b08	0.040049583
34	0xbea24341	-0.31691936
35	0xbd04c16a	-0.032411017
36	0xbe09468f	-0.13405822
37	0x3d956012	0.072937146
38	0x3e1ee6bc	0.15517706
39	0xbd756c8f	-0.059917983
40	0x3d86d79a	0.065840915
41	0xbe5c909a	-0.21539536
42	0x3d8e5c12	0.06951155
43	0xbcba9339	-0.02277528
44	0x3e81c36f	0.25344416
45	0xbea2aac7	-0.31770918
46	0xbd8dec46	-0.06929831
47	0xbdaae28c	-0.08343992
48	0x3d485028	0.048904568
49	0xbd69b90e	-0.057061248
50	0x3db70803	0.08937075
51	0xbded1dad	-0.11577926
52	0xbde15e94	-0.110043675
53	0x3cdfe81e	0.027332362
54	0xbd98ce9f	-0.07461285
55	0xbdd8093b	-0.105486356
56	0xbe590e83	-0.21196942
57	0xbd99236d	-0.0747746
58	0xbdce0a26	-0.100605294
59	0xbd3979d4	-0.0452822
60	0xbe1b3f65	-0.15160902
61	0x3e0b1c21	0.13584949
62	0xbe88ea4c	-0.26741254
63	0x3e0617d1	0.13095023
64	0x3dded2eb	0.10880073
65	0xbd91c1d8	-0.07117051
66	0x3d7d8771	0.061896745
67	0x3e16ba3f	0.14719485
68	0x3bb2c1f7	0.0054552513
69	0xbe679192	-0.22614124
70	0xbe110f9c	-0.14166111
71	0x3e29d32a	0.16584459
72	0x3ddfd8fe	0.1093006
73	0xbdf79de4	-0.12090662
74	0xbe072ebe	-0.13201424
75	0x3c1346ee	0.008989079
76	0xbe60602d	-0.21911688
77	0x3e3c474e	0.18386576
78	0xbc3aeb98	-0.011408709
79	0xbe482118	-0.19543874
80	0xbce882a4	-0.028382607
81	0xbdee02c8	-0.11621624
82	0x3e13dc55	0.14439519
83	0x3d9fd7c5	0.07804827
84	0x3d1ad07f	0.037796494
85	0xbe75adce	-0.23992082
86	0xbdea7d86	-0.11449723
87	0xbd8cc6a8	-0.06873828
88	0xbdd45c26	-0.103691384
89	0xbda75dbc	-0.08172175
90	0x3d53c998	0.051705927
91	0x3db155a4	0.08658913
92	0xbc4258e1	-0.011862011
93	0x3c71d35a	0.014759863
94	0xbe6e01d1	-0.2324288
95	0xbe1ae431	-0.1512611
96	0xbd5585ec	-0.05212967
97	0xbd3b61b0	-0.04574746
98	0xbde1dda1	-0.110286005
99	0xbe137790	-0.14401078
100	0xbd1d6c2d	-0.038433243
101	0xbd9872e5	-0.074437894
102	0x3e6cf30a	0.23139587
103	0xbd866a12	-0.065632
104	0xbd31ea45	-0.043436307
105	0xbde20685	-0.110364
106	0x3e157bfe	0.1459808
107	0xbde81df9	-0.11333842
108	0xbea5e688	-0.32402444
109	0xbe3eccc9	-0.18632807
110	0x3dee65e3	0.11640527
111	0x3dd361c5	0.103213824
112	0x3de883a2	0.11353232
113	0x3df1af2f	0.11800992
114	0x3ca8a77d	0.020587677
115	0x3d09af38	0.033614367
116	0xbe1a2d1a	-0.15056267
117	0x3e0e37ee	0.13888523
118	0xbd50858a	-0.050908603
119	0xbd60fe5d	-0.05493008
120	0x3db130a3	0.08651855
121	0x3dec7804	0.11546329
122	0x3cc7ce0c	0.024390243
123	0x3e0667eb	0.13125579
124	0x3e4187ce	0.18899462
125	0xbd58edf4	-0.052961305
126	0xbe147a41	-0.14499761
127	0x3e099cf6	0.13438782
128	0x3e55ef43	0.20892052
129	0xbde5beae	-0.1121801
130	0x3d2fe277	0.042940583
131	0xbd21d401	-0.039508823
132	0x3dc19b93	0.094535016
133	0x3db9b161	0.090670355
134	0x3d93d78c	0.07218847
135	0xbe0756d1	-0.13216712
136	0xbe06cea6	-0.13164768
137	0xbcda31a7	-0.026635004
138	0xbe301b8b	-0.17198007
139	0xbc75f4bf	-0.015011965
140	0xbd8927af	-0.06697022
141	0xbe0c9dc7	-0.13732062
142	0xbe79959f	-0.24373482
143	0xbd5c2854	-0.053749397
144	0xbd0a6b41	-0.03379369
145	0xbe209512	-0.15681866
146	0xbce6866c	-0.02814027
147	0x3d199970	0.037499845
148	0x3e60c5b4	0.21950418
149	0xbdc35460	-0.09537578
150	0xbf01ce2f	-0.50705236
151	0xbce92311	-0.028459104
152	0xbc31f4ba	-0.01086157
153	0xbe27f113	-0.16400556
154	0xbc44a918	-0.012003206
155	0xbd68a817	-0.056800928
156	0xbda563e3	-0.080756925
157	0x3e358567	0.1772667
158	0x3c500d78	0.012698524
159	0x3db6fbe9	0.08934767
160	0x3e3052e0	0.17219114
161	0x3e0a2e69	0.13494267
162	0x3df74c7c	0.12075135
163	0x3d5fdd91	0.05465466
164	0xbd924002	-0.07141115
165	0xbb982022	-0.0046425024
166	0xbcec2395	-0.02882556
167	0x3dc18300	0.094488144
168	0x3df2506f	0.11831748
169	0x3d37b97e	0.044854634
170	0xbe41ffca	-0.18945232
171	0xbe1bda0d	-0.15219899
172	0xbe5f697b	-0.21817581
173	0xbe09f2d2	-0.13471535
174	0x3d05191e	0.032494657
175	0x3d95b8eb	0.07310661
176	0xbe12e9c8	-0.14346993
177	0x3d37b5f0	0.044851243
178	0x3d8b5e1d	0.0680506
179	0xbc7614de	-0.015019624
180	0xbb718840	-0.0036854893
181	0xbe167139	-0.14691629
182	0xbd1c121c	-0.038103208
183	0xbd31c70b	-0.043402713
184	0xbe0a34c0	-0.13496685
185	0xbe350a28	-0.17679656
186	0xbe296a67	-0.16544496
187	0x3c807de2	0.015685026
188	0x3dfe2596	0.12409513
189	0x3e9582e2	0.29201418
190	0xbe7bcfb8	-0.24590957
191	0xbc104321	-0.008805067
192	0xbd5acf16	-0.05342015
193	0x3bfda64e	0.0077407723
194	0x3e5943df	0.21217297
195	0xbdb8bee7	-0.09020787
196	0xbdb5bbc2	-0.088737026
197	0x3d6b1404	0.057392135
198	0x3e6244b9	0.22096528
199	0xbd5b1818	-0.053489774
200	0xbd978c72	-0.07399835
201	0x3cedaba7	0.029012514
202	0x3e0ecaa1	0.13944484
203	0x3da6de38	0.081478536
204	0xbe91b8a3	-0.2846118
205	0xbc1de205	-0.009636407
206	0x3d71d85e	0.059044234
207	0x3eb7f0b4	0.3592583
208	0x3e11f5fe	0.14253995
209	0xbcf18254	-0.02948109
210	0x3dae964d	0.08524761
211	0x3d656016	0.055999838
212	0x3aedd8ed	0.0018146314
213	0xbcc10f62	-0.023566905
214	0x3e0e992b	0.13925616
215	0x3db2534d	0.087072946
216	0x3e8a4707	0.27007315
217	0xbe5f283c	-0.21792692
218	0xbe0f1260	-0.13971853
219	0xbd731d58	-0.059354156
220	0x3d722fa7	0.059127476
221	0x3de42028	0.11138946
222	0x3c8dac60	0.017294109
223	0x3d85a491	0.06525529
224	0xbb979572	-0.0046259696
225	0xbe7842dd	-0.24244256
226	0xbd56a795	-0.052405912
227	0x3d7ed402	0.062213905
228	0x3e0d09da	0.1377329
229	0x3db9013c	0.090334386
230	0xbdb4cb5a	-0.08827849
231	0x3b170c51	0.0023048113
232	0x3ca64cde	0.020300325
233	0xbe0061a3	-0.12537245
234	0x3cb951cb	0.02262201
235	0xbda9e538	-0.08295673
236	0x3d8c7b0c	0.06859407
237	0x3d221a49	0.03957585
238	0x39c22e4d	0.0003703706
239	0xbdb95bc9	-0.0905071
240	0xbdaf6689	-0.08564479
241	0x3d3809ba	0.04493115
242	0xbde0a13b	-0.10968252
243	0xbe6f275d	-0.2335486
244	0xbdb876ff	-0.09007072
245	0x3e7cbb31	0.24680783
246	0xbe27f60d	-0.16402455
247	0x3d5160e7	0.051117804
248	0xbd6ca331	-0.05777282
249	0xbdad92af	-0.08475243
250	0xbe1b4a63	-0.15165095
251	0x3d882fdf	0.06649756
252	0xbdc77155	-0.09738413
253	0x3e28ae66	0.16472778
254	0xbdf71f2f	-0.12066495
255	0xbe47e987	-0.19522677

bias f4 [64]
0	0xbabd2a5d	-0.0014432181
1	0xbc0253e2	-0.0079545695
2	0x39ebb2c2	0.00044955878
3	0xbc8ccfac	-0.01718887
4	0xba6e28e1	-0.0009085071
5	0x39899fff	0.00026249883
6	0x3ab6ab8c	0.0013936623
7	0xbbc3cccc	-0.0059753414
8	0x3bcc1069	0.006227542
9	0xbc4f6063	-0.012657258
10	0x3b94dbfa	0.004542825
11	0xbca22558	-0.019793198
12	0xbb7d7add	-0.0038677969
13	0xb94613b5	-0.00018890093
14	0x3aa56b95	0.0012620563
15	0x3472659f	2.2574976e-07
16	0xb9a9b1cc	-0.0003236666
17	0xbb9b2e69	-0.004735757
18	0x3ac053a2	0.0014673362
19	0x3b49c604	0.0030788193
20	0xbc133892	-0.008985655
21	0xbbf61590	-0.0075098947
22	0x3b60ac29	0.0034282303
23	0xba63491c	-0.0008670257
24	0xbbae5813	-0.005320558
25	0xbb1dc423	-0.0024073205
26	0xbc14bce5	-0.009078239
27	0xbb2be481	-0.0026228728
28	0xbc91d9cc	-0.017804049
29	0xbc1a4570	-0.009415969
30	0x3a432f94	0.00074457494
31	0xbbe06d48	-0.006848965
32	0xbac6e63e	-0.0015174819
33	0xbcc17040	-0.023613095
34	0xbc901107	-0.017586244
35	0x3b3695e6	0.0027860343
36	0xbc9ad84f	-0.018901972
37	0xba96a938	-0.0011494523
38	0xbc894931	-0.016758533
39	0x3b8476cc	0.004042482
40	0xb9e99d0d	-0.00044558235
41	0xbab8548e	-0.0014063285
42	0xbbad1364	-0.0052818526
43	0xbaac1864	-0.0013129828
44	0x3aaeaa7b	0.0013325954
45	0xbcc19163	-0.023628896
46	0x3ba881c0	0.0051424205
47	0xbc17e34f	-0.009270503
48	0xbba4d205	-0.005029919
49	0xbc6a5049	-0.014301368
50	0xbc40b331	-0.011761473
51	0x3c1e8186	0.0096744355
52	0xbb937dee	-0.004501096
53	0xbbf6e80e	-0.0075349873
54	0xbc805943	-0.015667563
55	0xbb498aa6	-0.0030752807
56	0xba0a7ee9	-0.00052831933
57	0x39d934f9	0.00041428933
58	0xbb13686d	-0.0022492663
59	0xb6201d37	-2.3858863e-06
60	0xbac322e6	-0.001488772
61	0xbc1e885f	-0.009676068
62	0xbc807d3a	-0.015684713
63	0xbbc9db53	-0.0061601787

weight f4 [64, 64]
0	0x3bf30087	0.0074158343
1	0x3dfa82fb	0.12232014
2	0x3d383275	0.044969995
3	0xbe998ea1	-0.2999163
4	0xbe28f68d	-0.16500302
5	0x3e4f155e	0.20222995
6	0xbcd33413	-0.025781667
7	0x3e8628ac	0.26202905
8	0xbcc4e862	-0.02403659
9	0x3b45fc95	0.0030210365
10	0xbe2afb93	-0.1669753
11	0x3eaa9f89	0.3332484
12	0x3d94f844	0.072739154
13	0x3ddf6d92	0.10909571
14	0xbeb2b896	-0.34906453
15	0x3c317bf1	0.010832773
16	0xbe76da17	-0.24106632
17	0x3e75bb3d	0.23997207
18	0xbdbab787	-0.09117036
19	0xbd4faecc	-0.05070381
20	0x3e681eaa	0.22667947
21	0x3e0a350f	0.13496803
22	0xbdaa5901	-0.083177574
23	0x3db488cc	0.088151544
24	0xbdc52d98	-0.09627837
25	0x3d96f13e	0.07370232
26	0x3e062c3f	0.13102816
27	0xbeb30709	-0.34966305
28	0x3bfe6c76	0.0077643944
29	0xbe3da215	-0.1851886
30	0xbd21fae0	-0.039545894
31	0xbe420f67	-0.18951188
32	0xbd28724a	-0.04112462
33	0xbe11fb63	-0.14256053
34	0x3d6b3abe	0.057429068
35	0xbe8895f1	-0.26676896
36	0xbc21a274	-0.009865392
37	0x3df10f9e	0.11770557
38	0x3e25df5c	0.16198486
39	0x3d93c286	0.07214837
40	0xbe14a6a8	-0.145167
41	0x3dee02ac	0.11621603
42	0xbd4289ca	-0.047494687
43	0x3e80b362	0.25136858
44	0x3dd75f52	0.10516228
45	0x3e248881	0.16067697
46	0x3b0c0b12	0.0021368903
47	0xbe2038f3	-0.15646724
48	0x3e08da64	0.1336456
49	0x3c26e6bc	0.010186847
50	0x3d38087f	0.044929978
51	0x3c6bcedf	0.014392584
52	0xbc5fc740	-0.013658345
53	0xbd7f4b62	-0.06232775
54	0xbc84a3df	-0.016191421
55	0x3e9a3dbb	0.30125222
56	0xbd0340e8	-0.03204432
57	0xbe98ec9b	-0.29868016
58	0xbe55d8ff	-0.20883559
59	0x3db01dff	0.08599471
60	0x3c243efa	0.01002478
61	0xbc3d2a88	-0.011545785
62	0x3ef96b6f	0.48714778
63	0x3ef661e1	0.4812155
64	0x3d1fd1fa	0.03901861
65	0x3e327a05	0.1742936
66	0x3d457395	0.04820593
67	0x3d76ff3c	0.060302004
68	0xbe16ac4d	-0.14714165
69	0xbc940536	-0.018068891
70	0x3dfa6642	0.122265354
71	0x3dab29e2	0.08357598
72	0x3e357f62	0.17724374
73	0xba0bd726	-0.0005334489
74	0xbe17fbc1	-0.1484213
75	0x3eed15e8	0.46305776
76	0x3ec8fe6b	0.39256606
77	0xbe1db37f	-0.15400504
78	0x3e6cae70	0.23113418
79	0x3e36710f	0.17816566
80	0xbe0f19ac	-0.13974637
81	0xbdaabbbc	-0.08336589
82	0x3d68b6e2	0.056815036
83	0xbe0709ce	-0.13187334
84	0xbd9666ae	-0.07343803
85	0xbe245933	-0.16049652
86	0x3dbcd9d6	0.092212364
87	0x3ea047ca	0.3130477
88	0x3a9e06e4	0.0012056497
89	0xbd9d1a04	-0.07670978
90	0x3b932f93	0.0044917553
91	0x3e77b62e	0.2419059
92	0xbd86115a	-0.06546278
93	0xbcd121b8	-0.025528774
94	0xbda175d6	-0.078838035
95	0x3e387aee	0.18015644
96	0x3edc7d51	0.4306436
97	0x3daada55	0.08342425
98	0x3de5ff4e	0.11230336
99	0x3e548643	0.20754342
100	0x3df55131	0.11978377
101	0xbe824df4	-0.254501
102	0xbd2fed9b	-0.042951208
103	0x3c5fc954	0.01365884
104	0x3e3477ae	0.17623779
105	0xbe0a2ca0	-0.13493586
106	0x3d9af9c8	0.07567173
107	0x3f071c06	0.52777135
108	0xbdb8f950	-0.090319276
109	0x3da4caa0	0.0804646
110	0xbdf0407a	-0.11731048
111	0x3e0a73ce	0.13520738
112	0xbd2b1115	-0.041764338
113	0x3c6e0ee0	0.014529914
114	0x3e5bcc3c	0.21464628
115	0xbd4cc4b0	-0.049992263
116	0x3cb1f619	0.021723794
117	0x3dea87a1	0.114516504
118	0xbea951f0	-0.33070326
119	0xbe7baa05	-0.24576576
120	0x3e0e450f	0.13893531
121	0xbe6fe085	-0.23425491
122	0xbdd76a5a	-0.10518332
123	0xbdb6884a	-0.08912714
124	0x3de8e8b5	0.1137251
125	0xbd5fd8f2	-0.054650255
126	0xbe04a0bf	-0.12951945
127	0x3dd32157	0.103090934
128	0x3d834f85	0.064116515
129	0x3b412ae0	0.0029475018
130	0x3e502ece	0.20330355
131	0xbd548cd2	-0.05189211
132	0x3e19d55b	0.15022795
133	0xbec298b4	-0.38007128
134	0x3e6e7ee1	0.23290588
135	0x3c39b4b4	0.011334587
136	0xbc310500	-0.010804415
137	0x3df7d41c	0.121010035
138	0xbcc00223	-0.023438519
139	0x3c56621b	0.013084914
140	0xbe5114a6	-0.20418033
141	0x3dd93832	0.106064215
142	0xbe36c438	-0.17848289
143	0x3dc467a6	0.09590082
144	0xbcd3a97f	-0.025837658
145	0x3d5eeb83	0.05442382
146	0x3de5c47a	0.112191156
147	0x3e5640e7	0.20923196
148	0xbd0c6257	-0.03427347
149	0xbe35cd12	-0.1775401
150	0x3e630503	0.2216988
151	0xbd9b8ff8	-0.07595819
152	0x3e9e5a6b	0.30928358
153	0xbe5044cc	-0.20338744
154	0x3e363eed	0.17797442
155	0x3dfa1840	0.122116566
156	0xbaf8442f	-0.0018941219
157	0xbed311ce	-0.4122452
158	0x3dcf299e	0.1011536
159	0x3ec8aca8	0.39194226
160	0xbe10d0b8	-0.1414212
161	0x3c7b944f	0.015355184
162	0x3d33363c	0.043752894
163	0x3d752945	0.05985381
164	0xbcb1882d	-0.021671379
165	0xbd05ebdc	-0.032695636
166	0xbe23ddf8	-0.16002643
167	0xbe915c43	-0.28390703
168	0x3e1c134c	0.15241736
169	0xbf0bf027	-0.5466332
170	0xbe506d62	-0.20354226
171	0xbb518d8a	-0.0031975233
172	0xbc463db6	-0.012099674
173	0xbd970560	-0.07374072
174	0xbde3eb55	-0.111288704
175	0xbe6e592c	-0.23276204
176	0x3e9786d0	0.2959504
177	0x3bcdd253	0.006281176
178	0xbe47140a	-0.19441238
179	0xbca0fe0b	-0.019652387
180	0xbddd47b3	-0.10804691
181	0x3cc33f04	0.02383376
182	0xbdd40c2b	-0.10353883
183	0x3dbec35d	0.09314606
184	0x3d9d724a	0.076878145
185	0xbbb37810	-0.005476959
186	0xbc92c672	-0.017916892
187	0x3e99b6f3	0.30022392
188	0x3e663a6b	0.22483222
189	0xbb46f6ce	-0.003035951
190	0x3e863350	0.26211023
191	0x3ddf36e0	0.108991385
192	0xbc8341d5	-0.016022602
193	0xbdb1f961	-0.086901434
194	0xbe616797	-0.22012173
195	0xbd9b163d	-0.07572601
196	0x3d9a717d	0.075411774
197	0x3ce6217b	0.028092137
198	0x3d1438ba	0.03618691
199	0xbe46fbe6	-0.19432029
200	0x3e100866	0.14065704
201	0x3e2eede2	0.17082933
202	0x3cf870bd	0.030327195
203	0x3dee9a69	0.11650545
204	0x3d655935	0.055993278
205	0x3e385920	0.18002748
206	0x3e90256a	0.28153545
207	0x3e18bba5	0.1491533
208	0x3d6536e0	0.055960536
209	0xbe9e68fa	-0.30939466
210	0xbead63d9	-0.3386524
211	0xbd43e16b	-0.047822397
212	0xbe7ed467	-0.24885713
213	0x3e306cb0	0.17228961
214	0xbca9dbc5	-0.020734677
215	0x3e3bcd3c	0.1834001
216	0x3dc4ea38	0.09614986
217	0x3e1a7c21	0.15086414
218	0xbef92af5	-0.48665586
219	0xbe158ebd	-0.14605232
220	0xbe739365	-0.23786695
221	0xbc9be7e2	-0.019031469
222	0xbd8de8a5	-0.06929139
223	0xbccffdb2	-0.025389526
224	0xbe9856f1	-0.2975383
225	0x3dac71f0	0.08420169
226	0xbe2ce6fb	-0.16884987
227	0x3dc5f136	0.09665148
228	0xbda6c8b9	-0.081437536
229	0x3dbde028	0.0927127
230	0x3a74e8f4	0.0009342574
231	0xbec35858	-0.38153338
232	0x3d24fc20	0.040279508
233	0x3dc7ce97	0.09756201
234	0x3e537545	0.20650204
235	0x3cc80dac	0.024420582
236	0x3e781429	0.2422644
237	0xbe7b38e5	-0.24533422
238	0x3e5683d0	0.2094872
239	0xbdc9c924	-0.09852818
240	0x3da9b367	0.082861714
241	0x3ecb9d97	0.3976867
242	0xbcccc3ae	-0.024995651
243	0xbe67e909	-0.2264749
244	0xbc8fa3c0	-0.017534137
245	0x3d62727c	0.055284962
246	0xbe5c194c	-0.21494025
247	0x3cb72f34	0.022361375
248	0xbd6884a1	-0.05676711
249	0xbe84dc8e	-0.2594952
250	0x3e19bffa	0.1501464
251	0x3d6d383e	0.057914965
252	0x3e3384ac	0.17531079
253	0x3e2f5620	0.17122698
254	0x3e5a8774	0.21340734
255	0x3dde6fb1	0.10861147

bias f4 [64]
0	0xbc70219d	-0.0146564515
1	0xbc7e63e7	-0.015526748
2	0xbb1ee7a4	-0.0024246955
3	0x3bea73fc	0.0071549397
4	0xbc226163	-0.009910914
5	0xbc06be50	-0.008224085
6	0xbc45a20c	-0.012062561
7	0xbaa54e5c	-0.0012611854
8	0xbb24a25b	-0.0025121185
9	0xbc5a77b2	-0.013334202
10	0xb8db6de4	-0.000104632025
11	0x3a2350fb	0.00062300236
12	0xbc15dcc0	-0.009146869
13	0x38d1aa09	9.997568e-05
14	0x3b376501	0.0027983787
15	0xbb038a78	-0.0020071547
16	0xb9b48b4b	-0.00034436057
17	0xbb9cec32	-0.004788899
18	0xbb4b11b6	-0.0030985898
19	0xbbd5a37d	-0.0065197335
20	0xbc45ba54	-0.01206835
21	0xbc5989e9	-0.013277509
22	0x3b856b83	0.0040716543
23	0x39fa6742	0.0004776065
24	0xbc3d30c6	-0.011547273
25	0xb8976bf7	-7.220351e-05
26	0xb88a16bf	-6.5845896e-05
27	0x3c183d25	0.009291922
28	0xba0cb208	-0.0005367105
29	0xb60e474e	-2.1201154e-06
30	0xbc37a0b7	-0.011207751
31	0xbca35c78	-0.019941553
32	0x3b8d925a	0.004320425
33	0xbb7095c7	-0.0036710368
34	0xbc66c61c	-0.014085319
35	0xbb897e8a	-0.004195993
36	0xbba3ce91	-0.00499899
37	0x3a14f868	0.00056827674
38	0xba7593db	-0.00093680405
39	0xba9ad651	-0.0011813139
40	0xbc876b26	-0.016530585
41	0xbcbe149a	-0.023203183
42	0x3ab8472d	0.0014059298
43	0x3a0eb26c	0.0005443457
44	0xbc798892	-0.015230315
45	0xbc6e3096	-0.014537951
46	0xbc378aa4	-0.011202488
47	0xbabe02e6	-0.0014496713
48	0x36f78b3f	7.377384e-06
49	0xbc66bdce	-0.014083339
50	0xb93c3c1f	-0.00017951474
51	0xbc34dd80	-0.011039138
52	0x342aa4b6	1.5892405e-07
53	0xbbac09c2	-0.0052501867
54	0xbc2def11	-0.01061608
55	0xb7f5685f	-2.9254878e-05
56	0xb92e51e5	-0.00016624441
57	0xbb693b91	-0.0035588483
58	0xbcee1386	-0.029062044
59	0xbcb414d2	-0.021982584
60	0x3b00dc27	0.001966247
61	0xbcefca54	-0.029271282
62	0xbccedccf	-0.025251774
63	0xbbd5f97a	-0.006529984

weight f4 [64, 119]
0	0xbd0b1326	-0.03395381
1	0xbd432938	-0.04764673
2	0x3d14a5ce	0.036290936
3	0xbd5c184d	-0.053734113
4	0xbcbaec1c	-0.022817664
5	0xbe11889c	-0.14212269
6	0x3e72d078	0.23712337
7	0xbe3ad354	-0.18244678
8	0xbea63653	-0.3246332
9	0xbd8a3e0b	-0.06750115
10	0x3e8e415f	0.2778425
11	0x3c78d33d	0.015187082
12	0xbe1a3b89	-0.15061773
13	0x3da8ad03	0.08236124
14	0x3dec60b4	0.11541882
15	0x3d028317	0.0318633
16	0xbca413a9	-0.020028906
17	0xbd1204e0	-0.03564918
18	0xbe0a78a8	-0.13522589
19	0x3dc263b4	0.09491673
20	0xbe854811	-0.26031545
21	0x3e3879cb	0.1801521
22	0xbd883cb9	-0.06652207
23	0xbe14c414	-0.14527923
24	0x3e0c2db9	0.13689317
25	0x3e9a5d30	0.3014922
26	0x3e0be99d	0.13663335
27	0xbd8e2c23	-0.06942012
28	0x3e694fd0	0.22784352
29	0xbe3f3325	-0.18671854
30	0xbd8ece0b	-0.06972893
31	0xbe5a200a	-0.21301284
32	0xbdf8153f	-0.12113427
33	0xbd599473	-0.053120088
34	0x3dd3889d	0.10328791
35	0x3c15f545	0.009152715
36	0x3d6d2547	0.05789688
37	0x3d75f3d2	0.06004698
38	0x3d9fe74f	0.078077905
39	0x3dddf962	0.108385816
40	0xbe06f6de	-0.1318011
41	0xbe3d1a14	-0.1846698
42	0xbe351a44	-0.17685801
43	0x3de9e971	0.114214785
44	0xbc140e19	-0.009036564
45	0x3dedfd0d	0.11620531
46	0xbaf4a777	-0.0018665631
47	0xbdeb1390	-0.114783406
48	0x3e234ce6	0.15947303
49	0xbd670b83	-0.056407463
50	0x3d5b6b86	0.05356934
51	0x3bf16613	0.0073669045
52	0x3b8ed8cd	0.0043593408
53	0x3e1ee1d2	0.15515831
54	0xbc588b12	-0.013216751
55	0xbe47af01	-0.19500352
56	0x3c90b9c8	0.017666712
57	0xbd8d1387	-0.0688849
58	0xbe94dc0a	-0.29074126
59	0xbd026d79	-0.031842683
60	0xbd000522	-0.031254895
61	0x3c9585ee	0.01825234
62	0x3df86e84	0.12130454
63	0xbe1203e1	-0.14259292
64	0xbe1d5da9	-0.1536776
65	0x3e0a57a6	0.13509998
66	0xbd8e8240	-0.06958437
67	0xbd50c68d	-0.050970603
68	0xbd4941b7	-0.049134936
69	0xbe3b06ce	-0.18264315
70	0x3e2be9d1	0.16788413
71	0xbe2fb733	-0.17159729
72	0x3bea0a05	0.0071423077
73	0xbc8641a0	-0.016388714
74	0xbcd9c50a	-0.026583213
75	0x3e5381ac	0.20654935
76	0xbda7d767	-0.081953816
77	0x3d9c66c7	0.07636791
78	0x3cb21ed7	0.021743221
79	0x3c8729ca	0.016499419
80	0xbe209c4e	-0.15684626
81	0xbd8cc53b	-0.06873556
82	0xbd7c1837	-0.06154653
83	0xbd0ef972	-0.03490586
84	0x3d35adfd	0.04435538
85	0x3e4409d1	0.1914437
86	0xbd6c3db6	-0.05767604
87	0x3dd0c012	0.101928845
88	0xbda6bd09	-0.08141524
89	0xbddc8122	-0.10766818
90	0x3dc0069f	0.09376263
91	0x3e816dd1	0.25279096
92	0xbe063030	-0.1310432
93	0xbcb83182	-0.022484545
94	0x3d30e430	0.043186367
95	0xbdc82356	-0.09772365
96	0xbd8f6d0a	-0.070032194
97	0xbd5a02bd	-0.053225268
98	0x3e154c54	0.14579898
99	0x3e800fb6	0.25011986
100	0x3c62dcbd	0.013846573
101	0x3dc9ac69	0.09847338
102	0x3d4b0bc6	0.049571775
103	0x3de3edf3	0.111293696
104	0x3c8f97c8	0.01752843
105	0x3c4c1cdf	0.012458055
106	0x3d9c5440	0.07633257
107	0x3e393be8	0.18089259
108	0xbdca0d4d	-0.09865818
109	0xbe4c44d8	-0.19948137
110	0x3d4fd38b	0.050738852
111	0xbdb157d9	-0.08659334
112	0xbe05f798	-0.13082731
113	0xbd38acb6	-0.045086585
114	0xbe1b5e7d	-0.15172763
115	0x3d243840	0.040092707
116	0x3e0e16bc	0.1387586
117	0xbeaaae73	-0.3333622
118	0x3e0e70b7	0.13910185
119	0x3ccb09ac	0.024784885
120	0xbcf9c5c9	-0.03048982
121	0xbe0541e4	-0.13013417
122	0xbe8b48b5	-0.2720391
123	0x3c07f9f0	0.008299336
124	0xbdc23d66	-0.09484367
125	0x3c869470	0.016428202
126	0xbdef353f	-0.11680078
127	0x3e48151c	0.19539303
128	0xbc1b0d9f	-0.009463697
129	0x3d5a4eb4	0.053297713
130	0xbdb93154	-0.09042612
131	0x3de97365	0.11398963
132	0x3da8f3f2	0.08249654
133	0xbe21f5f3	-0.15816478
134	0xbcbcb8cd	-0.023037339
135	0xbda4dce8	-0.08049947
136	0xbd64782c	-0.055778667
137	0xbe492e42	-0.19646552
138	0xbe35c787	-0.17751895
139	0xbe59cfd1	-0.21270682
140	0x3ad394d0	0.0016142372
141	0xbbf981f4	-0.0076143686
142	0x3c2e1ada	0.010626519
143	0xbd46b712	-0.048514433
144	0x3df85dd4	0.12127271
145	0x3e687fb1	0.2270496
146	0xbea64603	-0.3247529
147	0x3d7c5a1c	0.061609372
148	0xbd91ba1b	-0.07115575
149	0xbe5b3324	-0.21406227
150	0x3d6ffd2e	0.05859106
151	0x3d91fb27	0.07127982
152	0xbe0f5a8d	-0.13999386
153	0xbe80da9c	-0.25166786
154	0xbd6f8719	-0.05847845
155	0x3cec03d5	0.028810421
156	0x3e4efdbc	0.2021398
157	0x3e0a9082	0.13531688
158	0xbccdf5c2	-0.0251416
159	0xbd2fc44d	-0.042911816
160	0xbe13aca4	-0.14421326
161	0x3cd485c7	0.025942696
162	0xbd11a2dc	-0.035555705
163	0x3e975452	0.2955652
164	0xbdc58559	-0.09644575
165	0xbd1ac2d7	-0.03778347
166	0x3ae3cc1d	0.0017379556
167	0xbdd03624	-0.101665765
168	0x3e55146a	0.20808569
169	0xbdc03338	-0.09384769
170	0xbdbda81b	-0.09260579
171	0x3d37d3f1	0.044879857
172	0x3e250228	0.16114104
173	0xbe77bbaf	-0.2419269
174	0x3dea26c9	0.11433179
175	0x3d743a20	0.059625745
176	0xbc1c4552	-0.009538012
177	0xbde26277	-0.11053937
178	0x3d80301a	0.06259175
179	0x3d98a839	0.07453961
180	0x3c896b63	0.016774839
181	0xbc808357	-0.015687628
182	0x3c33a918	0.010965608
183	0x3dab277c	0.083571404
184	0x3df72643	0.12067845
185	0xbd0067d5	-0.031349022
186	0xbaf93cef	-0.0019015352
187	0xbe5f397b	-0.21799271
188	0x3de7cf31	0.113188155
189	0xbe417ab3	-0.18894462
190	0xbe2b4696	-0.16726145
191	0xbd02cba0	-0.031932473
192	0xbe4a7790	-0.19772172
193	0x3e7f22cb	0.24915616
194	0x3e718e8e	0.23589537
195	0x3e00e542	0.12587455
196	0xbd827457	-0.06369846
197	0xbd9ddc16	-0.07707994
198	0x3dbc4304	0.0919247
199	0x3c57cdb7	0.013171605
200	0x3e36ab8c	0.17838877
201	0xbdca7f43	-0.098875545
202	0xbe5a1324	-0.21296364
203	0x3e14eaa9	0.14542641
204	0x3cb092bd	0.021554345
205	0x3b786039	0.003789915
206	0xbdc20c98	-0.09475058
207	0xbd0c19f2	-0.03420443
208	0xbe13beb1	-0.14428212
209	0xbc0071f7	-0.007839671
210	0xbdb66afc	-0.089071244
211	0x3e3f2bcf	0.18669055
212	0x3e0d4de4	0.13799244
213	0x3d81d394	0.063391834
214	0xbdfa8205	-0.122318305
215	0x3a88f20d	0.0010448113
216	0x3d6f4f2b	0.05842511
217	0xbb7f4832	-0.0038952944
218	0xbe46304b	-0.1935436
219	0x3d26f215	0.04075821
220	0xbe906311	-0.28200582
221	0xbdc723c9	-0.09723622
222	0x3e45c12f	0.19311975
223	0x3c80f013	0.015739476
224	0xbdad6770	-0.08466995
225	0xbd0c52ee	-0.034258775
226	0x3e20ad6b	0.15691154
227	0x3e30212c	0.17200154
228	0x3db5eaa2	0.08882643
229	0xbe39cf7e	-0.18145558
230	0x3d8b4919	0.06801052
231	0x3d50fae3	0.051020514
232	0xbe47737d	-0.19477649
233	0x3c0aa87d	0.008463022
234	0xbd5666e0	-0.052344203
235	0x3d07df84	0.033172145
236	0x3e17ad1a	0.14812127
237	0x3d26306e	0.04057353
238	0x3d525032	0.05134601
239	0x3cfa5f30	0.030562967
240	0xbd3b567d	-0.04573678
241	0x3d376459	0.044773433
242	0xbd5bc19e	-0.053651445
243	0x3d291d12	0.04128749
244	0xbdb388e0	-0.08766341
245	0x3d36e18e	0.0446487
246	0x3e5a17ed	0.2129819
247	0xbdac45e9	-0.08411772
248	0xbd53322d	-0.051561523
249	0x3e26b370	0.16279387
250	0x3e39d5a2	0.181479
251	0xbd76495d	-0.06012856
252	0x3dc9a31c	0.09845564
253	0x3db6fd2e	0.08935009
254	0xbdc1a148	-0.0945459
255	0x3dee8792	0.11646952

bias f4 [64]
0	0xbd397e16	-0.04528626
1	0xbd2092d3	-0.039202522
2	0xbb63f81f	-0.0034785343
3	0xbce5f18a	-0.028069276
4	0xbc58a1ee	-0.013222201
5	0xbd397342	-0.045275934
6	0xbccc3e7b	-0.024932137
7	0xbd1fd0d3	-0.03901751
8	0xbcb53b4f	-0.022123007
9	0xbcb86267	-0.02250786
10	0xbd494517	-0.049138155
11	0xbd8c624d	-0.06854687
12	0xbd1a2f31	-0.03764266
13	0xbd41b272	-0.04728932
14	0xbcae3a7d	-0.021268124
15	0xbcef1667	-0.029185487
16	0xbd0103eb	-0.031497877
17	0x3d0ad8b9	0.03389809
18	0xbd2fd10f	-0.042923983
19	0x3ca69f45	0.020339618
20	0x3cb084cf	0.021547703
21	0x3c927493	0.017877853
22	0xbcc75841	-0.024334075
23	0xbc198434	-0.009369899
24	0xbcd7d14c	-0.026344918
25	0xbd24fa57	-0.040277805
26	0xbcf1db20	-0.029523432
27	0xbcccd833	-0.025005436
28	0xbc08bb29	-0.008345404
29	0x3d49ddae	0.049283676
30	0xbd124f45	-0.03572013
31	0xbd29e9d7	-0.041482773
32	0xbc7b0e9a	-0.0153233055
33	0xbd1a2d37	-0.037640776
34	0xbcdf10bf	-0.027229665
35	0x3d304576	0.043034993
36	0xbd18a0d4	-0.037262753
37	0x3c611cec	0.013739806
38	0x3cd7f4c2	0.026361827
39	0xbd280c86	-0.04102757
40	0xbb9eea4b	-0.0048497072
41	0xbd10d4e9	-0.035359297
42	0xbce7496e	-0.028233256
43	0xbd07df75	-0.03317209
44	0xbc2c2706	-0.010507351
45	0x3c1e08ce	0.009645654
46	0xbcff1615	-0.03113846
47	0x3c8c477b	0.017123928
48	0x3c9cfd08	0.019163623
49	0xbcec9010	-0.028877288
50	0xbc8a0b26	-0.01685102
51	0xbcb4f6df	-0.022090374
52	0xbcc7b7b7	-0.024379594
53	0xbd5cae0b	-0.053876918
54	0xbd8c07af	-0.06837403
55	0xbd5602ae	-0.05224865
56	0xbcc00084	-0.023437746
57	0xbbce81e9	-0.0063021076
58	0xbca23c19	-0.019804047
59	0xbcaec6a2	-0.02133495
60	0xbd378253	-0.04480202
61	0x3c4425b9	0.011971884
62	0x3d0f5a84	0.03499843
63	0x3cfd6e74	0.030936457

weight f4 [64, 64]
0	0x3e0d827c	0.13819307
1	0xbda466fd	-0.08027456
2	0x3cc17498	0.023615167
3	0xbd79d08e	-0.06098991
4	0xbccc88d6	-0.024967592
5	0x3dc696d1	0.09696735
6	0xbe1a6d91	-0.15080859
7	0x3b46a1b2	0.003030878
8	0x3e62e1a6	0.2215639
9	0x3e4069ad	0.18790312
10	0x3e8ccc04	0.27499402
11	0xbd962242	-0.07330753
12	0xbde371b1	-0.11105669
13	0xbe4b6b08	-0.19865048
14	0x3d823bde	0.06359075
15	0x3e0a280c	0.13491839
16	0xbcda8ed8	-0.026679441
17	0xbe71aad0	-0.23600316
18	0xbddd1928	-0.10795814
19	0xbeb529fd	-0.35383597
20	0xbd95a375	-0.073065676
21	0xbb976b57	-0.00462095
22	0xbe434be6	-0.19071922
23	0x3e5e921e	0.21735427
24	0xbb5cf501	-0.003371537
25	0x3e155ef3	0.14587002
26	0x3e1113aa	0.14167657
27	0xb99d2043	-0.0002996941
28	0xbe0afd5d	-0.13573213
29	0xbdb8ae5b	-0.09017631
30	0xbe0c0d94	-0.13677055
31	0x3d4fbf15	0.05071934
32	0xbc2af0eb	-0.010433416
33	0x3e370d73	0.17876224
34	0xbe473b04	-0.19456106
35	0xbe06ad0a	-0.13151947
36	0x3e08331b	0.13300745
37	0x3ee40a33	0.4453903
38	0x3de92fd4	0.113860756
39	0xbe2c2877	-0.16812311
40	0x3e603ff8	0.21899402
41	0x3dbf30c0	0.0933547
42	0xbe354806	-0.17703256
43	0x3c9d80f2	0.019226525
44	0x3e0914e5	0.13386877
45	0xbdb53505	-0.08848003
46	0x3de38093	0.11108508
47	0x3e707b2e	0.2348449
48	0x3cd8611e	0.026413497
49	0x3e3a834a	0.18214145
50	0xbc8a3ad2	-0.01687375
51	0xbeabb14c	-0.33533704
52	0x3dbce2e9	0.09222967
53	0x3b8168a8	0.0039492436
54	0x3e7b8bb9	0.24565019
55	0x3e8743f8	0.26419044
56	0x3d2e6d43	0.04258467
57	0xbebaf3ca	-0.3651412
58	0xbe2dbae1	-0.1696582
59	0x3df43368	0.119238675
60	0x3da452f0	0.080236316
61	0x3d780ef7	0.060561147
62	0xbeef8e57	-0.46788284
63	0xbea72194	-0.32642806
64	0x3e8ea153	0.27857456
65	0xbe602715	-0.21889909
66	0xbceaf8c6	-0.028683078
67	0xbde846d2	-0.11341633
68	0xbdf2bfe0	-0.118530035
69	0xbe189d54	-0.14903766
70	0xbe0870e0	-0.13324308
71	0x3d67f617	0.056631174
72	0xbe3a820d	-0.18213673
73	0x3e2b3baa	0.16721979
74	0x3d90de76	0.07073681
75	0x3e8c66cf	0.27422187
76	0xbe250c02	-0.16117862
77	0xbdae3b75	-0.08507434
78	0x3ecd8145	0.40137687
79	0x3d2220d4	0.03958209
80	0x3e0d34c7	0.13789664
81	0x3d434a28	0.047678143
82	0x3dd718a0	0.10502744
83	0x3a4a381c	0.00077140494
84	0xbdda1289	-0.106480666
85	0x3d9287dd	0.0715482
86	0x3ebff132	0.37488705
87	0xbd2fc920	-0.042916417
88	0x3e2f5a34	0.17124254
89	0x3cceede6	0.025259923
90	0x3c9e8ea9	0.019355135
91	0xbdd3ec89	-0.1034785
92	0x3dd7f785	0.105452575
93	0x3db591ae	0.08865677
94	0x3e7f10d3	0.24908762
95	0x3d904c5e	0.07045816
96	0xbd94944d	-0.07254849
97	0x3e9a96a7	0.30193064
98	0xbe2988a8	-0.16556036
99	0xbe7e18c2	-0.24814132
100	0xbceb4e95	-0.028723994
101	0x3ed9087b	0.42389283
102	0x3b1ef164	0.0024252767
103	0x3e8ac49e	0.27103132
104	0xbd28f8de	-0.041252963
105	0xbdb37511	-0.08762563
106	0xbd5327ee	-0.05155175
107	0x3dd4d8af	0.103928916
108	0xbe49ef41	-0.19720174
109	0xbca23e30	-0.019805044
110	0x3e5e8e1f	0.21733902
111	0x3d55cc98	0.05219707
112	0x3d2408a3	0.0400473
113	0x3c4848d4	0.012224395
114	0x3e009302	0.12556079
115	0xbdbf34d5	-0.09336249
116	0x3d124e13	0.03571899
117	0x3e25707f	0.16156195
118	0xbe56f9e9	-0.2099377
119	0x3d32c8ef	0.043648656
120	0x3e07b7a7	0.13253652
121	0x3e3f9d3f	0.18712328
122	0x3e240077	0.16015802
123	0xbe8531a1	-0.26014426
124	0x3ed1978f	0.40935943
125	0x3ddbb2fb	0.10727497
126	0x3ea0e93b	0.3142794
127	0x3e5ef177	0.21771799
128	0xbdf18764	-0.11793402
129	0xbd7d7ecf	-0.061888512
130	0xbe8d26a1	-0.27568534
131	0xbdcf785c	-0.101303786
132	0x3e440778	0.19143474
133	0xbe3193da	-0.17341557
134	0x3e3a6e50	0.18206143
135	0x3e25847d	0.16163822
136	0x3e116082	0.14196971
137	0xbe32e242	-0.17469123
138	0x3d443382	0.047900684
139	0xbaf77d38	-0.0018881923
140	0xbc9092fe	-0.017648216
141	0x3dbe66e5	0.09296969
142	0xbe18860c	-0.14894885
143	0x3d3d3b09	0.04619888
144	0x3e12e313	0.14344434
145	0xbe66aa89	-0.22525991
146	0xbdc47687	-0.0959292
147	0xbdfb5999	-0.12272949
148	0xbd17040e	-0.0368691
149	0x3dec8ca9	0.11550266
150	0xbe6c2755	-0.23061879
151	0x3eacb34d	0.33730546
152	0xbebc7c10	-0.36813402
153	0xbd88a2c8	-0.06671673
154	0x3e9b22f8	0.30300117
155	0x3dca7a09	0.098865576
156	0xbe0b259c	-0.13588566
157	0xbd41f00a	-0.04734806
158	0x3e9c1700	0.30486298
159	0xbdbd6efe	-0.09249686
160	0xbd53db47	-0.05172279
161	0xbdf0319d	-0.11728213
162	0x3ddb213e	0.106997
163	0x3e892572	0.2678638
164	0x3db0e8cf	0.08638155
165	0x3a20f2e6	0.00061397103
166	0xbe2c99e0	-0.16855574
167	0x3d925309	0.07144744
168	0xbd8a50c8	-0.06753689
169	0xbdd77a3b	-0.105213605
170	0xbc701a0f	-0.01465465
171	0x3e359a0a	0.17734542
172	0x3d4b9cd6	0.049710117
173	0x3dadb0b5	0.0848097
174	0x3e8b388d	0.27191582
175	0x3e057c6c	0.13035744
176	0xbe641ec0	-0.22277355
177	0xbbba444b	-0.0056844107
178	0x3d499d5f	0.049222346
179	0xbec44c86	-0.38339633
180	0x3ec19582	0.37809378
181	0xbe15db64	-0.14634472
182	0xbdfacb75	-0.122458376
183	0x3cb735fd	0.02236461
184	0xbea2485c	-0.3169583
185	0x3df4eafc	0.11958882
186	0x3e04f566	0.12984237
187	0x3cfbaebb	0.030722966
188	0x3e2243d5	0.15846188
189	0x3da49f30	0.08038175
190	0x3e9588ac	0.29205835
191	0x3e9367ca	0.28790122
192	0x3e430264	0.1904388
193	0x3e0d419e	0.13794562
194	0x3eaad669	0.33366707
195	0x3dde9030	0.10867345
196	0x3e5cc83a	0.21560755
197	0xbe57938a	-0.21052375
198	0xbcb09cfd	-0.021559233
199	0x3dcad97c	0.09904763
200	0x3de664b0	0.11249673
201	0x3e38dcb8	0.18052948
202	0x3d761801	0.060081486
203	0x3e9f48d1	0.31110242
204	0x3eaa9c2f	0.33322284
205	0x3e2ac92a	0.166783
206	0x3e9dfb8a	0.30855972
207	0xbe5959d9	-0.2122568
208	0xbd812a3e	-0.06306885
209	0xbd727095	-0.059189398
210	0x3dd8d7cb	0.10588034
211	0x3eb2a2f9	0.34889963
212	0xbcebaf47	-0.028770102
213	0x3e14ed5d	0.14543672
214	0xbcfd1127	-0.030891968
215	0x3e3fdbcd	0.18736191
216	0xbd08fcba	-0.033444144
217	0x3dd7fcda	0.105462745
218	0x3e172b3f	0.14762591
219	0xbece8faf	-0.40343997
220	0xbeeddac1	-0.46455958
221	0x3e05953b	0.13045208
222	0xbd85a12d	-0.065248825
223	0xbe40ac71	-0.18815781
224	0x3e5b7f0c	0.21435183
225	0x3df07bf6	0.11742394
226	0xbadd8a78	-0.0016902229
227	0x3e18534e	0.14875528
228	0xbdb56b0f	-0.088583104
229	0x3ce8e483	0.028429275
230	0xbc5ff2a7	-0.013668693
231	0x3de5ddf8	0.11223978
232	0xbdd40e3a	-0.10354276
233	0x3e273514	0.16328841
234	0x3dd1847c	0.102303475
235	0x3e880546	0.26566523
236	0x3daaf326	0.08347158
237	0x3d5109ba	0.051034667
238	0xbcba3a7b	-0.022732964
239	0x3e04afcd	0.12957688
240	0x3e93598c	0.28779256
241	0x3db60eca	0.088895395
242	0xbdf87169	-0.12131006
243	0x3e90e0d9	0.28296545
244	0x3dbd9e4f	0.092587106
245	0xbd8d2852	-0.06892456
246	0xbdd5831a	-0.10425396
247	0x3cdd9253	0.027047312
248	0xbec5c16d	-0.38624135
249	0x3d1091f2	0.035295434
250	0xbda70f64	-0.081572324
251	0x3d8522dc	0.065007895
252	0xbc8faf2c	-0.017539583
253	0xbd821abc	-0.063527554
254	0xbdea1fbf	-0.11431836
255	0xba8085a8	-0.0009805458

bias f4 [64]
0	0xbcc9a0ef	-0.024612872
1	0x3d0f67bc	0.03501104
2	0x3c43fbe9	0.0119619155
3	0x3d4acfaf	0.04951447
4	0x3d5f97e2	0.054588206
5	0xbb4b83f3	-0.003105399
6	0xbbebe912	-0.007199415
7	0x3c39b291	0.011334077
8	0xbc29fdfe	-0.010375498
9	0x3c90cb0f	0.01767495
10	0x3d1514c1	0.036396746
11	0xbbc65604	-0.0060527343
12	0x3ced3655	0.028956572
13	0xbcf4234d	-0.029801989
14	0x3cac2ac0	0.021016479
15	0x3c307b27	0.010771549
16	0xbcea5c47	-0.028608454
17	0xbc49c26c	-0.01231442
18	0xbd092ca1	-0.033489827
19	0xbbecb70e	-0.0072239703
20	0x3d6599dd	0.05605494
21	0x3cc61203	0.02417851
22	0xbd6a5210	-0.057207167
23	0x3cc20810	0.023685485
24	0xbd29c0c3	-0.041443598
25	0x3cd35990	0.025799543
26	0xbd26c331	-0.040713493
27	0x3cceec64	0.025259204
28	0xbd60e72a	-0.054907955
29	0x3ca726d3	0.020404255
30	0xbc88e48d	-0.016710544
31	0xbc041c48	-0.008063383
32	0xbc83a842	-0.016071443
33	0xbd56ac23	-0.052410256
34	0xbc2b5db7	-0.010459355
35	0x388388dc	6.272059e-05
36	0xbc9e169d	-0.019297892
37	0x3c6846a2	0.014176996
38	0xbb5f0183	-0.0034028
39	0xb9f3efe8	-0.00046527316
40	0xbcaaaa18	-0.02083306
41	0x3d856636	0.06513636
42	0xbd31c315	-0.043398935
43	0xbc83a796	-0.016071122
44	0xbce359df	-0.027752815
45	0xbb45a39a	-0.0030157329
46	0xbd2e0102	-0.04248143
47	0x3ba35247	0.0049841735
48	0xbc83cd70	-0.016089171
49	0x3c9ca0f5	0.019119719
50	0xbc29bfb2	-0.010360645
51	0x3bef21de	0.0072977385
52	0xbd247e63	-0.040159594
53	0x3b93fb1f	0.00451602
54	0xbd3210bd	-0.043472994
55	0x3bea8613	0.007157096
56	0x3b73647f	0.0037138758
57	0xba9f1ec3	-0.0012139905
58	0xbd315e31	-0.04330272
59	0x3bb839ce	0.005622125
60	0xbc6c79ea	-0.014433363
61	0x3d0e25e1	0.034704093
62	0x3c7483a5	0.014923965
63	0xb8e99dbc	-0.00011139686

weight f4 [1, 64]
0	0x3e319dae	0.17345306
1	0x3d8f9e04	0.07012561
2	0x3d00be43	0.031431448
3	0xbd3a8670	-0.045538366
4	0x3ce8695d	0.028370554
5	0x3e0ff2af	0.1405742
6	0x380fdfd4	3.4302313e-05
7	0x3d9be50d	0.07612047
8	0xbdbbc399	-0.09168167
9	0xbd1473ea	-0.036243357
10	0x3dd2861d	0.10279486
11	0xba4b5469	-0.00077564135
12	0xbdc0610d	-0.09393511
13	0xb9defd6e	-0.0004253196
14	0x39bade7d	0.0003564245
15	0xb8823fe1	-6.2107814e-05
16	0x3da23552	0.07920326
17	0x3a1a09c3	0.00058760884
18	0xb93c476a	-0.00017955681
19	0xbab86a60	-0.0014069788
20	0x3d8e0e8d	0.06936369
21	0xbdaf4c74	-0.08559504
22	0xbe653bdc	-0.22386116
23	0xbe1b0ece	-0.15142366
24	0xbe446adb	-0.19181387
25	0x3dcda29a	0.100407794
26	0xbdf5498c	-0.119769186
27	0xbe7ee902	-0.24893573
28	0xbdb7cfbf	-0.08975171
29	0xbdcc0f2e	-0.09963833
30	0xbe3efe15	-0.18651612
31	0x3d8db70f	0.06919681
32	0x3cf285d7	0.029604835
33	0x3eb35eaa	0.3503316
34	0x3aa2f035	0.0012431206
35	0x3e377668	0.17916262
36	0xbaf0a5ab	-0.001835992
37	0x3b634d98	0.00346837
38	0x3deb3545	0.1148477
39	0xbea3e070	-0.3200717
40	0x3d973067	0.07382279
41	0x3c801131	0.015633198
42	0x3d15b076	0.03654524
43	0xbb4ef914	-0.0031581568
44	0x3e57e979	0.21085157
45	0xbd0bed5d	-0.034161914
46	0x3d8e4e86	0.06948571
47	0xba6081e0	-0.0008564275
48	0xbafae187	-0.0019140699
49	0xbda97186	-0.08273606
50	0x39991cf7	0.00029204015
51	0x3d9c9cf0	0.07647121
52	0xbe0e1f7d	-0.138792
53	0xbe047e21	-0.1293874
54	0xbe44c7e5	-0.19216879
55	0x3ec56a99	0.3855789
56	0x3a7bf0eb	0.000961079
57	0x3e2818f9	0.16415776
58	0x3d8a2163	0.06744649
59	0xbc495fad	-0.012290877
60	0xba73037f	-0.00092702353
61	0x3afdff20	0.0019378401
62	0x3e7c6a29	0.24649872
63	0xbb11ef54	-0.0022267895

weight f4 [5, 64]
0	0xbd21345c	-0.039356574
1	0x3bb62b3f	0.0055593546
2	0xbc62995f	-0.013830512
3	0x3c56aa38	0.013102107
4	0xbd35138f	-0.044208106
5	0xbbab45d9	-0.0052268323
6	0xbba2d264	-0.004968928
7	0x3b8d3282	0.0043089995
8	0x3b5899cd	0.0033050657
9	0x3b1c3423	0.0023834787
10	0x3b39cfc2	0.0028352593
11	0x3c2c65cf	0.01052232
12	0x3b7106a1	0.0036777633
13	0x3d103228	0.035204083
14	0x3bc0d694	0.0058849547
15	0x3b12b00e	0.0022382769
16	0x3c01bc35	0.007918407
17	0x3c400646	0.011720246
18	0x3c245241	0.0100293765
19	0xbc0cdb8f	-0.008597269
20	0xbbfae13e	-0.0076562455
21	0x3c67050c	0.014100324
22	0x3cbd6bd7	0.023122711
23	0x3c30b175	0.010784497
24	0x3cab463f	0.02090752
25	0x3c32bb03	0.010908845
26	0x3abc92f9	0.0014387063
27	0x3d0467e7	0.03232565
28	0xbbdae3b0	-0.0066799745
29	0x3a823744	0.0009934683
30	0x3c7d2a72	0.015452014
31	0x3c906652	0.017626915
32	0xbd427286	-0.0474725
33	0x3b4ae6d1	0.0030960331
34	0x3cba97ad	0.022777403
35	0x3bf8fc9d	0.007598473
36	0xbba737dd	-0.005103095
37	0x3c8efe60	0.01745528
38	0x3d03517f	0.032060143
39	0x3bd0bea0	0.0063703805
40	0x3ce2e528	0.02769716
41	0xbd36924d	-0.044573117
42	0x3c0c1448	0.008549757
43	0xbbfca6cb	-0.007710313
44	0xbd338094	-0.043823794
45	0xbbf207ce	-0.0073861843
46	0xbcbf5643	-0.023356562
47	0x3c9938e4	0.018703885
48	0xb9c9cba5	-0.00038489435
49	0xbcf05774	-0.029338576
50	0x3b77892c	0.003777097
51	0xbd2faa81	-0.042887215
52	0xb7b2fc28	-2.1336673e-05
53	0xbdc21b49	-0.094778605
54	0x3c4c2d05	0.012461905
55	0x3b21a2fb	0.0024663794
56	0x3a0510bd	0.00050760416
57	0xbc94fe33	-0.018187618
58	0xbdc667ce	-0.09687768
59	0x3c646455	0.013939937
60	0x3c83f768	0.016109183
61	0xbd710efb	-0.058852177
62	0x3cb1d140	0.021706223
63	0x3c6e20d9	0.014534199
64	0x3d85e709	0.06538207
65	0xbc8b8da4	-0.017035313
66	0x3c514cd0	0.012774661
67	0xbd749637	-0.05971357
68	0x3db810dd	0.089875914
69	0x3c246fac	0.01003639
70	0x3ca0d9b3	0.019635057
71	0xbc2d276c	-0.010568481
72	0xbcb32b80	-0.021871328
73	0xbcbfa614	-0.023394622
74	0x3a9ca32b	0.0011950483
75	0xbd2e8dc1	-0.042615656
76	0xbbe321fe	-0.0069315424
77	0xbe267187	-0.16254245
78	0xbd23dd5c	-0.040006027
79	0xbc613541	-0.013745607
80	0xbc09b553	-0.0084050475
81	0xba8163b7	-0.0009871636
82	0xbc90b1ed	-0.017662967
83	0x3cbe669d	0.02324229
84	0xbc885bb7	-0.016645296
85	0xbd7ed92e	-0.062218837
86	0xbdd99dcf	-0.10625803
87	0x3c927d91	0.01788214
88	0xbdb7e95b	-0.08980056
89	0xbd746b05	-0.059672374
90	0xbb24ada8	-0.0025127921
91	0xbdc83e75	-0.09777538
92	0x3c305888	0.010763295
93	0xbad49ee6	-0.0016221672
94	0xbd55fcb3	-0.052242946
95	0xbd909361	-0.0705936
96	0x3dc85182	0.097811714
97	0x3c7b108a	0.015323767
98	0xbdc259be	-0.09489773
99	0xbcab72e5	-0.02092881
100	0x3d6adcf1	0.057339612
101	0xbdaa832e	-0.08325802
102	0xbe16e19e	-0.14734504
103	0xbbd248ee	-0.0064173853
104	0xbdbbb6b8	-0.0916571
105	0x3d929ceb	0.07158836
106	0xbd582d1a	-0.052777387
107	0x3c89d807	0.016826643
108	0x3de56c34	0.11202279
109	0x3ca1716c	0.019707404
110	0x3d39606e	0.04525798
111	0xbd8a3182	-0.06747724
112	0xb9cb51de	-0.00038780173
113	0x3d772724	0.06034006
114	0xba0259d5	-0.00049724925
115	0x3db6e425	0.08930234
116	0xbaea38a1	-0.001786966
117	0x3e42689e	0.18985221
118	0xbd6bc8b2	-0.057564445
119	0xbab45c14	-0.0013760352
120	0x3b9eb926	0.0048438488
121	0xbbcc323d	-0.006231575
122	0x3e22ab29	0.15885605
123	0xbd907051	-0.07052673
124	0xbd717d38	-0.05895731
125	0x3de86b34	0.113485724
126	0xbd9e2cb8	-0.07723373
127	0xbd8dd817	-0.069259815
128	0xbd0c3374	-0.034228757
129	0x3b92b3cc	0.004477
130	0x3b0738aa	0.002063314
131	0x3c6020ca	0.0136796925
132	0xbd2913a4	-0.041278496
133	0xbbc41876	-0.0059843613
134	0xbc38675f	-0.011255114
135	0x3bf32104	0.0074197073
136	0x3b846255	0.0040400424
137	0x3c40145f	0.011723607
138	0xbb0ba24e	-0.0021306458
139	0x3c2f48e8	0.010698535
140	0x3b82778d	0.0039815367
141	0x3d154e87	0.036451843
142	0x3cbaf96a	0.022824008
143	0x3ba73a40	0.0051033795
144	0x3c09a8fa	0.008402104
145	0xbb6f2a05	-0.0036493551
146	0xb98e8a6b	-0.0002718748
147	0xbb308d50	-0.0026939698
148	0x3bbac0f9	0.0056992737
149	0x3c0d6abc	0.0086314045
150	0x3d041219	0.03224382
151	0xbb7d1046	-0.0038614436
152	0x3ccf3969	0.02529593
153	0x3cb60881	0.022220852
154	0x398322d5	0.0002501222
155	0x3c9c1ef5	0.01905773
156	0xbc07df90	-0.008293048
157	0xb88df6ff	-6.7694105e-05
158	0x3c0949d0	0.008379415
159	0x3cf0bb66	0.029386234
160	0xbcea2f41	-0.028586986
161	0x3b1da6ac	0.0024055643
162	0x3cdb7d5f	0.02679318
163	0x3c151a3d	0.009100494
164	0xbc92ea8e	-0.01793411
165	0x3cb9c161	0.022675218
166	0x3d22cf89	0.039748702
167	0xbbb7fb32	-0.0056146616
168	0x3cb69c48	0.022291318
169	0xbd2d5ace	-0.042322926
170	0x3ca9daa4	0.020734139
171	0x3bff45df	0.0077903117
172	0xbd265f6c	-0.040618345
173	0xba1e2144	-0.00060321786
174	0xbca18949	-0.019718783
175	0x3c8ccf5d	0.017188722
176	0xbb1e5114	-0.0024157213
177	0xbd0b8acb	-0.03406791
178	0x3aec0a60	0.0018008463
179	0xbd1fbfba	-0.039001204
180	0x3aba0d0e	0.0014194564
181	0xbda33882	-0.079697624
182	0x3b2f538e	0.0026752683
183	0xba237890	-0.0006235922
184	0x3b03e35a	0.0020124526
185	0x3c410586	0.011781102
186	0xbdbd1fff	-0.092346184
187	0x3cb99ef2	0.022658799
188	0x3c6324b0	0.013863727
189	0xbd848d50	-0.06472266
190	0x3cb60b67	0.022222234
191	0x3ca457e2	0.020061437
192	0xbd11e40e	-0.03561788
193	0xbbbe6334	-0.005810166
194	0x3b31aa47	0.002710955
195	0x3b96fdfd	0.0046079145
196	0xbd276a0b	-0.040872615
197	0xba11886c	-0.00055516395
198	0xbc74b2d4	-0.014935214
199	0xbabee385	-0.0014563656
200	0x3c11bac0	0.008894622
201	0x3bccfac8	0.0062554814
202	0x3a9d8cff	0.001202017
203	0x3ba25780	0.0049542785
204	0x3bd86027	0.006603259
205	0x3d3d3242	0.046190508
206	0xbb1eb61a	-0.0024217428
207	0x3ac24cf2	0.0014823957
208	0xbad8fb32	-0.0016554354
209	0x3a57bf9a	0.000823015
210	0x3c7ee1af	0.015556737
211	0xbc7f9109	-0.015598544
212	0x3acb9c89	0.0015534322
213	0x3c506f72	0.012721883
214	0x3ca84c7e	0.020544287
215	0xbba34e0e	-0.00498367
216	0x3ca5bb77	0.020230992
217	0x3c7e8a6f	0.015535935
218	0xb8fb685c	-0.00011988051
219	0x3cddc765	0.027072618
220	0x3bda90a7	0.006670076
221	0xb9b37231	-0.0003422662
222	0x3aaee4af	0.00133433
223	0x3ca84e32	0.020545099
224	0xbd2b42e5	-0.041811842
225	0xbbc4f157	-0.0060102153
226	0x3cd10374	0.025514342
227	0x3bf2f1fb	0.0074141
228	0xbc4b31c2	-0.012402
229	0x3cec1d17	0.028822465
230	0x3d415231	0.047197524
231	0xba11b3d0	-0.0005558105
232	0x3cbf080b	0.023319265
233	0xbd378472	-0.044804044
234	0x3c951ce4	0.018202253
235	0xbcb20105	-0.021729002
236	0xbd371063	-0.044693362
237	0x3a13a42f	0.000563207
238	0xbca749d5	-0.020420948
239	0x3c3786b3	0.011201548
240	0x398bfdb9	0.00026701184
241	0xbcd99e86	-0.026564848
242	0xbb896f6a	-0.00419419
243	0xbd30e626	-0.043188237
244	0xb9937c7a	-0.00028130767
245	0xbdabe3a8	-0.08393031
246	0x3c936aa2	0.017995182
247	0xba4c4c47	-0.00077933486
248	0xba02f99f	-0.0004996303
249	0x3c89f0a0	0.016838372
250	0xbdbb3c3a	-0.09142347
251	0x3c69045a	0.014222229
252	0x3c985a3c	0.018597715
253	0xbd9c1d6b	-0.076227985
254	0x3cb8eaf4	0.022572972
255	0x3c72e306	0.014824634

bias f4 [5]
0	0xbc93f4e7	-0.018061114
1	0x3cb140a6	0.021637272
2	0xbc360dbd	-0.011111674
3	0xbc9e3aa4	-0.019315071
4	0xbcaa9ffd	-0.020828241
