model/tiny-4/A2C/model_agent2_seed1.pt (torch, 101825 bytes, 11 tensors)

weight f4 [64, 119]
0	0x3cba7ee0	0.022765577
1	0xbe385f7d	-0.18005176
2	0x3cc7988b	0.02436473
3	0x3c0b3f21	0.008498938
4	0x3c3bbeb5	0.011459042
5	0xbe3dc831	-0.18533398
6	0x3dff252d	0.124582626
7	0xbdc47414	-0.09592453
8	0x3d890995	0.06691281
9	0x3e20b214	0.15692931
10	0xbd2ba0db	-0.04190145
11	0x3d913734	0.07090607
12	0x3d87275b	0.06599303
13	0x3d352af9	0.044230435
14	0x3e2fb996	0.17160639
15	0xbb3ad2fa	-0.00285071
16	0xbe12b1ca	-0.14325634
17	0x3d36bb16	0.044612013
18	0xbde09e00	-0.10967636
19	0xbd9113f5	-0.070838846
20	0xbe0441b3	-0.12915687
21	0x3e4d1a4d	0.20029564
22	0xbd4a76e9	-0.049429808
23	0x3cc80fa9	0.02442153
24	0x3e429a5c	0.19004196
25	0x3da9a6c4	0.08283761
26	0x3dbea073	0.09307947
27	0x3d1f1294	0.038836077
28	0x3d36dbde	0.044643275
29	0xbd5d8131	-0.054078285
30	0xbe5ceb11	-0.21574046
31	0xbd33d71c	-0.043906316
32	0xbdfd2f18	-0.12362498
33	0xbdc08fc8	-0.09402424
34	0xbe075bd6	-0.13218626
35	0x3db86293	0.090031765
36	0xbddfd848	-0.10929924
37	0x3e03b8e8	0.12863505
38	0xbda66ae5	-0.08125857
39	0xbd23b1ec	-0.0399646
40	0xbd8d863f	-0.06910371
41	0x3c74b1c3	0.01493496
42	0xbbbfa0a8	-0.005848009
43	0x3cc4d70f	0.02402833
44	0x3e239be1	0.15977432
45	0x3e1cff48	0.15331757
46	0x3d1b5c93	0.037930083
47	0x3e2214e7	0.15828286
48	0x3e7c2df7	0.24626909
49	0x3e14f327	0.1454588
50	0xbe4b00d7	-0.19824539
51	0xbcadf6d1	-0.021235855
52	0x3c1750f7	0.009235612
53	0x3be53189	0.0069944304
54	0xbc990b3e	-0.018682119
55	0x3d719527	0.058980133
56	0xbd9aca16	-0.07558076
57	0xbde2fbf3	-0.11083212
58	0x3e43a274	0.1910494
59	0x3d921854	0.071335465
60	0x3d9e5b84	0.07732299
61	0x3c899e93	0.016799247
62	0x3e5ff726	0.21871623
63	0x3ed505a4	0.41605866
64	0x3df9fde8	0.12206632
65	0xbdf2587a	-0.11833282
66	0xbe80b92b	-0.25141272
67	0xbd6fcfee	-0.058547907
68	0x3c697fe4	0.014251683
69	0x3d19e4d0	0.03757173
70	0x3dc955d3	0.09830823
71	0x3e0a680d	0.13516255
72	0x3e102a02	0.14078525
73	0xbe6accca	-0.22929683
74	0x3d076c63	0.03306235
75	0xbdae2fd3	-0.085052155
76	0xbd158229	-0.036501084
77	0xbe08affb	-0.13348381
78	0x3e39e223	0.1815267
79	0x3e4a0813	0.19729643
80	0x3e134371	0.14381196
81	0x3e24f87e	0.16110417
82	0x3e13c958	0.14432275
83	0xbe431216	-0.19049868
84	0x3d6f5bff	0.058437344
85	0x3e4a96cc	0.19784087
86	0x3e7c97fb	0.24667351
87	0x3dc9cc06	0.098533675
88	0xbe90256b	-0.28153548
89	0xbcbececc	-0.023291968
90	0xbc998351	-0.018739374
91	0xbdd5b034	-0.10433999
92	0xbde34acd	-0.110982515
93	0x3e3dcaad	0.18534346
94	0xbdfde57f	-0.123972885
95	0xbd364f23	-0.044509064
96	0xbe9365c4	-0.2878858
97	0xbabcc75e	-0.0014402678
98	0xbbef1721	-0.0072964584
99	0x3e006c0f	0.12541221
100	0xbe3d2437	-0.18470846
101	0xbdf179e3	-0.11790826
102	0xbd9180b8	-0.07104629
103	0x3e1a9bf2	0.15098551
104	0xbd7217a0	-0.05910456
105	0x3e077ff3	0.13232403
106	0x3d756881	0.059914116
107	0xbde8fced	-0.11376367
108	0xbd73a000	-0.05947876
109	0xbd11810f	-0.03552347
110	0x3d7ac14a	0.06121949
111	0x3b48950d	0.003060642
112	0x3de8c915	0.11366478
113	0x3ea6c142	0.3256932
114	0x3db22ac8	0.08699566
115	0x3d165d22	0.036709912
116	0xbdb57af8	-0.08861345
117	0x3df115a6	0.11771707
118	0x3dad02f4	0.08447829
119	0xbe83d86c	-0.25751054
120	0x3e57df71	0.2108133
121	0xbd9c959a	-0.07645722
122	0x3c10d6e6	0.008840298
123	0x3e3dee45	0.18547924
124	0x3e1013d6	0.14070067
125	0x3dc7df43	0.09759381
126	0xbc0bcae8	-0.008532263
127	0x3d7462df	0.059664603
128	0xbc2467f3	-0.010034549
129	0x3c81c442	0.015840653
130	0x3d98c537	0.07459491
131	0xbe263427	-0.16230832
132	0xbc12cadd	-0.008959499
133	0x3c8e11d2	0.017342482
134	0x3da69d92	0.08135523
135	0xbe0ddb50	-0.13853192
136	0xbcecf898	-0.028927132
137	0x3a973cfb	0.0011538559
138	0xbdb1a8b5	-0.086747564
139	0xbdcc981c	-0.0998995
140	0x3dbb9685	0.09159569
141	0x3d73cef0	0.059523523
142	0xbcb17730	-0.021663278
143	0x3de3d398	0.11124343
144	0xbc4eb747	-0.012616939
145	0xbda0ea3a	-0.07857175
146	0xbccb1d78	-0.024794325
147	0x38bdb47d	9.045841e-05
148	0x3d2c8954	0.042123154
149	0xbe8f89b9	-0.28034762
150	0x3daa60c9	0.083192416
151	0xbbce78d8	-0.006301027
152	0x3d0e9e6c	0.03481905
153	0x3cbab099	0.022789286
154	0x3e9dc040	0.30810738
155	0x3d9e8dee	0.07741915
156	0xbe01486a	-0.1262528
157	0xbe40dee5	-0.18835028
158	0xbd0bbb20	-0.034114003
159	0x3e7eff73	0.24902134
160	0x3c430ddd	0.011905161
161	0xbec992da	-0.3936985
162	0xbc4d2484	-0.012520913
163	0x3e0c26f9	0.13686742
164	0xbd4e7eae	-0.05041378
165	0xbdb3390a	-0.08751114
166	0x3de3db68	0.11125833
167	0x3e839887	0.25702307
168	0x3e28e763	0.16494517
169	0x3dba66d6	0.09101646
170	0x3d9b3176	0.07577793
171	0x3e8d1cbf	0.27560994
172	0xbe608e2a	-0.21929231
173	0xbe1babe1	-0.15202285
174	0x3d586822	0.052833684
175	0x3e2e36fe	0.17013165
176	0x3df4f329	0.119604416
177	0x3d089ff2	0.03335566
178	0x3cd0f28c	0.02550628
179	0x3d8096a0	0.062787294
180	0x3cfa9240	0.030587316
181	0x3dae358e	0.085063085
182	0xbe08ad61	-0.13347389
183	0xbdc27610	-0.09495175
184	0x3d466cfa	0.048443772
185	0x3e3a1d09	0.18175139
186	0xb9a6754f	-0.0003174939
187	0xbddb85ff	-0.10718917
188	0xbe27f49b	-0.16401903
189	0xbdb9c64f	-0.090710275
190	0x3daa6f37	0.08321994
191	0x3c6b1c55	0.014350017
192	0x3dd85e56	0.10564868
193	0xbd818070	-0.06323326
194	0x3e100693	0.14065008
195	0x3e4b91d4	0.19879848
196	0xbd8745cb	-0.06605109
197	0xbe14e141	-0.14539053
198	0xbe0c5832	-0.13705519
199	0xbbc64f4b	-0.006051933
200	0xbcb3a63c	-0.021929853
201	0x3cd3ecf7	0.02586983
202	0xbdb0d5bb	-0.08634516
203	0x3db86a62	0.09004666
204	0xbd9d6049	-0.076843806
205	0xbe80515f	-0.2506208
206	0xbacd0273	-0.0015640989
207	0xbdc23015	-0.09481827
208	0xbe10aa8a	-0.14127555
209	0x3e063db1	0.13109471
210	0xbdbb3455	-0.09140841
211	0xbd6a92cf	-0.057268914
212	0xbce75bbc	-0.028241985
213	0x3ccaa9e0	0.024739206
214	0x3e15465b	0.1457762
215	0xbe424e73	-0.18975239
216	0x3c52740e	0.012845052
217	0x3e2c83b1	0.16847111
218	0xbdcde2e0	-0.100530386
219	0x3cd312bc	0.02576577
220	0xbd8e7a0d	-0.06956873
221	0x3e2d9146	0.16949949
222	0xbd913843	-0.07090809
223	0x3d93af9b	0.072112285
224	0xbe36294b	-0.1778919
225	0x3d02f04f	0.031967457
226	0x3d0cf662	0.034414656
227	0xbd9b1cdb	-0.07573863
228	0x3d6b713b	0.057481032
229	0xbe526873	-0.20547657
230	0xbd577f9a	-0.052611925
231	0xbe003dd2	-0.12523583
232	0x3eb1fa4f	0.34761283
233	0x3ea22be4	0.3167411
234	0x3dcf468d	0.10120878
235	0x3e935e5c	0.28782928
236	0xbe28eb6a	-0.16496053
237	0x3e07f1f7	0.13275896
238	0x3e3e13d1	0.18562247
239	0x3bc64da1	0.0060517346
240	0x3dd9cc3f	0.1063466
241	0xbe787cf1	-0.24266411
242	0x3de791af	0.11307084
243	0x3dcb2b13	0.09920325
244	0xbe39cdaa	-0.18144861
245	0x3e2d46b8	0.16921508
246	0x3e3fa0d8	0.18713701
247	0x3e3be7a9	0.1835009
248	0xbcbd034b	-0.02307286
249	0x3d8c7d98	0.068598926
250	0x3c850c39	0.01624118
251	0x3ddfc99a	0.10927124
252	0x3d483b60	0.04888475
253	0xbe03ac3e	-0.12858674
254	0xbd940292	-0.07227053
255	0x3bb437fd	0.0054998384

bias f4 [64]
0	0xbbd46895	-0.0064821937
1	0xbc04bec6	-0.008102125
2	0xbc969d9e	-0.018385705
3	0xbc3bad9f	-0.011454969
4	0x3befbff8	0.0073165856
5	0xbc8547f7	-0.016269667
6	0xbb427ef3	-0.0029677718
7	0xbcc399ad	-0.02387699
8	0x3a6304f2	0.00086600997
9	0xbc83ddb3	-0.016096925
10	0x3aac0fbb	0.0013127247
11	0xbc96ad24	-0.018393107
12	0xbc4de977	-0.012567869
13	0xbbed5920	-0.0072432905
14	0x3bfcf4f5	0.007719631
15	0x3a9d5d5a	0.001200597
16	0xbbfb047e	-0.0076604476
17	0x3b0a3d6f	0.0021093746
18	0xbc933cfb	-0.017973414
19	0x38065b2c	3.2033e-05
20	0xbcc6f168	-0.024285033
21	0xbc998288	-0.018739
22	0xbc380f4a	-0.011234114
23	0xbaed3e2a	-0.0018100191
24	0xbc55cfb9	-0.013050013
25	0xbc0198e6	-0.007909989
26	0x3c2d2552	0.01056798
27	0x3b2633ab	0.0025360386
28	0x3b4cfd78	0.0031279009
29	0xbb68fbfb	-0.0035550583
30	0xb9b31a47	-0.0003416112
31	0xb995d30d	-0.0002857674
32	0x3bb2eae2	0.005460129
33	0xbba4e80f	-0.0050325464
34	0x3a3266ee	0.0006805499
35	0xbbc2ee76	-0.005948837
36	0x3ab13c89	0.0013522069
37	0xbccfbd10	-0.025358707
38	0xbbcbe168	-0.006221939
39	0x3c06ad1d	0.008219984
40	0xbc4a1b67	-0.012335635
41	0xbc569377	-0.013096682
42	0xbbd27f6c	-0.0064238813
43	0xbcfc290f	-0.030781297
44	0xba9a8a1d	-0.0011790429
45	0x3c43d5dd	0.011952844
46	0x3b6ee228	0.0036450718
47	0xbad5cfbc	-0.001631252
48	0xbce5d509	-0.028055685
49	0xb934cfd7	-0.00017243564
50	0x3c281dc1	0.010261
51	0xbcedd49a	-0.02903204
52	0xbd050c9b	-0.032482725
53	0xbc0a1df3	-0.008429992
54	0xbaab360a	-0.001306237
55	0x39582082	0.00020611475
56	0xbba96f04	-0.005170705
57	0x3b87b030	0.0041408762
58	0xbc672aa0	-0.014109284
59	0xbbe7ce93	-0.007074186
60	0xbbe1ee37	-0.0068948525
61	0xbc88f566	-0.016718578
62	0xbb01bb35	-0.0019795422
63	0xbc83f67b	-0.016108742

weight f4 [64, 64]
0	0x3cac4c8c	0.021032594
1	0xbd9b41a4	-0.07580879
2	0x3e1e631b	0.15467493
3	0xbda1fcbd	-0.07909534
4	0x3cbf23a9	0.023332434
5	0xbe28df89	-0.16491522
6	0x3d97ce53	0.074124
7	0x3e9ac9d7	0.30232117
8	0xbecaad4b	-0.39585337
9	0x3e6b934f	0.23005413
10	0x3ee5db13	0.44893703
11	0x3e071999	0.13193358
12	0xbe54fc09	-0.20799269
13	0xbdbbf3f0	-0.09177387
14	0xbe871781	-0.2638512
15	0x3d10ebb8	0.03538105
16	0xbe0d83af	-0.13819765
17	0x3d586c8b	0.05283789
18	0xbd85c789	-0.06532199
19	0xbec2973b	-0.38006005
20	0x3cb97904	0.022640713
21	0xbe68d6fc	-0.2273826
22	0x3e28362e	0.16426918
23	0xbdc1534b	-0.09439715
24	0x3ca30017	0.019897504
25	0xbd855253	-0.06509843
26	0xbe7629af	-0.24039339
27	0xb91930d9	-0.00014609414
28	0xbdcbcc24	-0.09951046
29	0x3df68113	0.12036338
30	0xbe4adfc6	-0.19811925
31	0xbe04bd49	-0.12962832
32	0xbea50e51	-0.32237485
33	0x3d39d559	0.04536948
34	0x3ebb08e8	0.36530232
35	0xbe49afaa	-0.19695917
36	0xbcfdf275	-0.030999402
37	0xbe570125	-0.2099653
38	0xbe721bfc	-0.23643488
39	0xbc92124d	-0.017830992
40	0x3e069851	0.13144042
41	0xbe834a13	-0.25642452
42	0x3dd1b8f7	0.10240357
43	0x3defa71d	0.11701796
44	0x3e45f5c3	0.19332032
45	0x3e10235e	0.14075992
46	0xbcd07bb6	-0.025449615
47	0xbd2a1125	-0.041520257
48	0xbdaa3cb8	-0.083123624
49	0xbbdbd4b9	-0.006708708
50	0xbe87b848	-0.26507783
51	0x3da5cfbd	0.080962636
52	0x3d6a6f61	0.057235125
53	0x3d87c450	0.066292405
54	0x3ead2620	0.3381815
55	0xbc8ae60f	-0.016955404
56	0x3d0ca5f6	0.03433796
57	0x3db3ed2a	0.0878547
58	0x3e1a706e	0.15081951
59	0xbb9c5fc7	-0.0047721597
60	0xbcd67333	-0.026177978
61	0xbe81916c	-0.2530626
62	0x3d9e782d	0.077377655
63	0x3e306222	0.17224935
64	0xbe35387f	-0.17697333
65	0xbdb81c26	-0.08989744
66	0x3e11b67a	0.14229766
67	0x3ea0ec79	0.31430414
68	0xbc915ffc	-0.017745964
69	0xbe450c79	-0.19243039
70	0xbcddf2ad	-0.027093256
71	0xbe2ad065	-0.16681059
72	0x3e21fc50	0.15818906
73	0xbd153979	-0.036431763
74	0xbe0ee95f	-0.13956212
75	0xbcd1548c	-0.02555301
76	0xbea4312f	-0.32068774
77	0x3e7362f4	0.23768216
78	0xbe40b10e	-0.18817541
79	0xbe585752	-0.2112706
80	0xbed23127	-0.41053125
81	0x3d88de53	0.0668303
82	0x3c8fa9a8	0.017536953
83	0x3e3f8322	0.18702367
84	0x3e57d917	0.21078907
85	0x3c7cc923	0.015428814
86	0xbd87f873	-0.06639185
87	0xbe495191	-0.19660021
88	0xbd9a2b41	-0.07527781
89	0x3df7ed7f	0.12105846
90	0xbd1affe9	-0.03784171
91	0xbe927fe4	-0.28613198
92	0x3d97fa0e	0.07420741
93	0xbe7feb81	-0.24992181
94	0xbf0706ca	-0.52744734
95	0xbd6433da	-0.055713512
96	0x3d8c5742	0.068525806
97	0x3da13c73	0.07872858
98	0xbdee9722	-0.1164992
99	0x3e8c16d8	0.27361178
100	0x3e039cea	0.12852827
101	0x3e1b7c3e	0.15184113
102	0x3c915c87	0.017744316
103	0x3dd5bf6f	0.10436904
104	0x3db4aa3a	0.08821531
105	0xbdedf48c	-0.11618909
106	0xbe6415f2	-0.22273996
107	0x3dfdf4b5	0.1240019
108	0x3cb31dca	0.02186479
109	0x3e11a6bd	0.14223762
110	0xbe12480d	-0.14285298
111	0xbe0c61d6	-0.13709196
112	0x3e59f98c	0.21286601
113	0xbe2b81ce	-0.16748735
114	0xbdd264e2	-0.10273148
115	0xbdc9e77c	-0.09858605
116	0x3dcd07a3	0.10011222
117	0xbe4a81a7	-0.19776021
118	0x3db829c4	0.08992341
119	0x3d61d4b7	0.0551345
120	0x3ed6e139	0.41968706
121	0xbde43a43	-0.11143925
122	0xbcbfe075	-0.02342246
123	0x3d554d84	0.052075878
124	0xbddb967e	-0.107220635
125	0xbe6e8710	-0.2329371
126	0x3e364382	0.1779919
127	0xbc01cf3e	-0.007922946
128	0x3eb5e87c	0.35528934
129	0xbe986877	-0.297672
130	0x3dfe5fd5	0.12420622
131	0x3d314388	0.043277293
132	0xbe1b1ec2	-0.15148452
133	0xbd2fb767	-0.042899515
134	0xbdda60a5	-0.10662965
135	0x3dae7eef	0.085203044
136	0xbe3d3e4d	-0.18480797
137	0xbdb7f5a5	-0.089824
138	0x3e1d5c62	0.15367272
139	0xbea7af71	-0.3275104
140	0x3ee49ef0	0.4465251
141	0x3e45e57f	0.19325827
142	0xbe8b8c7e	-0.27255625
143	0x3c76162a	0.015019933
144	0xbda1dba9	-0.07903225
145	0xbd7fe67b	-0.062475663
146	0xbe295eb4	-0.16540033
147	0x3eb3ff80	0.3515587
148	0x3d81625f	0.06317591
149	0xbca91a36	-0.020642381
150	0x3de0f29e	0.109837756
151	0xbc6bd5f1	-0.014394269
152	0x3e972831	0.2952285
153	0xbe833991	-0.25629857
154	0xbd117fe8	-0.03552237
155	0x3d9de45f	0.07709574
156	0x3e6a22f4	0.22864896
157	0x3cd8679a	0.026416589
158	0x3d4c2a32	0.049844928
159	0xbdb8a16f	-0.09015166
160	0xbcfb5462	-0.030679885
161	0x3ef2096f	0.47272822
162	0x3da5223f	0.080631725
163	0x3e5bd8d7	0.21469437
164	0x3cd83d71	0.026396485
165	0x3d3ea0d3	0.046540093
166	0xbc216f86	-0.009853249
167	0x3e2963f6	0.16542038
168	0xbdb09b50	-0.086233735
169	0x3c3afdd8	0.01141306
170	0x3d82bb6f	0.06383406
171	0xbd87a53e	-0.06623314
172	0x3d9098d0	0.07060397
173	0xbe1a6aa4	-0.15079743
174	0xbd6d0ea1	-0.05787528
175	0xbeb4f009	-0.35339382
176	0x3e5823e0	0.21107435
177	0xbcb26de5	-0.021780917
178	0x3b81fd33	0.0039669513
179	0x3e84ad12	0.25913292
180	0xbba9ced1	-0.005182125
181	0x3e416c01	0.18888856
182	0xbcb20019	-0.021728562
183	0xbe44c345	-0.19215114
184	0xbe32769c	-0.17428058
185	0xbe2b29f6	-0.16715226
186	0x3e0c29b2	0.1368778
187	0x3a2586f7	0.0006314362
188	0xbdc48edf	-0.09597563
189	0x3e77fac0	0.24216747
190	0x3eb5ba0f	0.35493514
191	0xbe5716e4	-0.21004826
192	0xbd130a34	-0.035898402
193	0x3c3d2bb6	0.011546066
194	0x3d0e8622	0.034795888
195	0x3eb8f6be	0.3612575
196	0x3e3f8956	0.18704733
197	0x3ca07b59	0.019590067
198	0xbe38c188	-0.18042576
199	0x3f0d22d8	0.5513129
200	0xbd8b9a7b	-0.06816574
201	0xbe152a4d	-0.14566918
202	0x3ebca002	0.36840826
203	0xbd5716ff	-0.052512165
204	0xbd760143	-0.060059797
205	0xbe93cf2f	-0.28869006
206	0x3e290b4e	0.16508219
207	0x3df229b1	0.11824358
208	0xbe087876	-0.13327202
209	0x3e2bf2cc	0.16791838
210	0x3dedebec	0.11617264
211	0x3c597fce	0.0132751
212	0x3d6694a5	0.056294102
213	0xbd9ce151	-0.07660163
214	0xbf030526	-0.5117973
215	0x3d820b9f	0.06349873
216	0x3c9bcf32	0.019019697
217	0x3ea139bc	0.3148936
218	0xbe130609	-0.14357771
219	0x3db17383	0.0866461
220	0x3d3c016e	0.0458998
221	0x3d78a479	0.06070373
222	0x3db1b6da	0.08677454
223	0x3b99d419	0.0046944735
224	0xbc0a0ca2	-0.008425863
225	0x3e1fff61	0.15624763
226	0xbedb1d0f	-0.42795607
227	0x3c8bf75a	0.01708572
228	0xba0cdc10	-0.0005373368
229	0x3c1460c0	0.00905627
230	0x3e66f80c	0.2255556
231	0x3ddc94c4	0.10770562
232	0x3cdb8a4c	0.026799344
233	0x3e728f18	0.23687398
234	0x3dc9f98e	0.09862052
235	0xbda1800d	-0.07885752
236	0xbde191af	-0.11014115
237	0x3c6ae6e3	0.014337274
238	0xbdffb11b	-0.12484952
239	0xbde4eb70	-0.11177719
240	0xbe00b4d8	-0.12568986
241	0xbe827456	-0.25479382
242	0xbe6bdbf5	-0.23033126
243	0x3aee712f	0.001819169
244	0x3e3d6622	0.18495992
245	0x3d37c91f	0.04486954
246	0xbda8e8ed	-0.08247552
247	0x3d9b26d9	0.07575769
248	0x3dd47d34	0.10375443
249	0x3cbf96dd	0.023387367
250	0x3c2f894e	0.010713888
251	0xbdf0a11e	-0.11749481
252	0x3e50bea7	0.20385228
253	0x3e35f4fc	0.17769235
254	0xbc3de6ec	-0.011590701
255	0x3dbeb60b	0.09312066

bias f4 [64]
0	0xbb83f5a1	-0.004027084
1	0xbb87066d	-0.004120639
2	0xbd14747e	-0.036243908
3	0xbcb9c384	-0.022676237
4	0xbb1263b6	-0.0022337264
5	0xbd07c1ea	-0.033143915
6	0xbc4f1407	-0.012639052
7	0x38124dec	3.4881683e-05
8	0xbd0f471f	-0.034979936
9	0xbb04e885	-0.0020280194
10	0xba04a6db	-0.0005060264
11	0xba8ed6c5	-0.0010897747
12	0xba368b21	-0.0006963481
13	0xbbfdbcc1	-0.0077434485
14	0xbc607d32	-0.013701724
15	0xbc7b0919	-0.015321993
16	0xbca11a61	-0.019665899
17	0x378e70fe	1.6980335e-05
18	0xbbc66e1a	-0.0060556056
19	0xbc893c9a	-0.01675253
20	0xbc1f58d6	-0.00972577
21	0xbc9b49c9	-0.018956082
22	0xb8d902db	-0.00010347898
23	0xbc4a8936	-0.012361815
24	0xbabd7b16	-0.0014456238
25	0xbb4cb2d0	-0.003123451
26	0xbc77a432	-0.015114831
27	0xb8e0fb6a	-0.00010727982
28	0xbcc13dd4	-0.023589052
29	0xbcbe8574	-0.023256995
30	0xba7d3be5	-0.0009660109
31	0xbaaaa5ae	-0.0013019347
32	0xbcbf0986	-0.02331997
33	0xbb3e48ec	-0.0029035164
34	0xb81a649c	-3.681016e-05
35	0xb9855d73	-0.00025437362
36	0xbad1bcae	-0.0016001665
37	0xbc6041d3	-0.013687569
38	0xbb75929c	-0.003747142
39	0xbb0595cf	-0.0020383482
40	0x3b0a7a12	0.0021129888
41	0xbb489be4	-0.0030610496
42	0xba261e4a	-0.0006336911
43	0x3c85acd1	0.016317757
44	0xbc45e1ff	-0.012077807
45	0xbc31464d	-0.010819984
46	0xbb15e99f	-0.0022874845
47	0x3b3d6b1f	0.002890296
48	0xb6aafe31	-5.0959866e-06
49	0xbc87ddfa	-0.016585339
50	0xbb453f71	-0.0030097628
51	0xbcb313c7	-0.021860017
52	0xbc1f45c2	-0.009721221
53	0xba89997b	-0.0010498011
54	0xbb009b16	-0.0019623688
55	0xbc5f0238	-0.013611369
56	0xbb933593	-0.0044924705
57	0xbcd33c57	-0.025785608
58	0xbbe8c56c	-0.0071036126
59	0x3a17161d	0.0005763488
60	0xbbaba56f	-0.005238227
61	0x3849dc2e	4.8127193e-05
62	0x3bbf8a85	0.0058453702
63	0xbc35f0e7	-0.011104799

weight f4 [64, 119]
0	0x3e193ca0	0.14964533
1	0xbd21c92d	-0.039498497
2	0x3dd7c122	0.10534884
3	0x3dfa554c	0.122233
4	0x3db283d6	0.08716552
5	0xbc9246a5	-0.017855952
6	0xbd3df0b4	-0.04637213
7	0xbe8fc077	-0.28076527
8	0xbd134904	-0.035958305
9	0xbe33cb28	-0.17557967
10	0xbd142c12	-0.03617484
11	0x3e828d64	0.25498497
12	0x3c3b5bb2	0.011435436
13	0x3e39a043	0.18127541
14	0xbd0755af	-0.0330407
15	0x3e30c612	0.17263058
16	0xbcba8d97	-0.022772593
17	0x3d818903	0.06324961
18	0x3cc0c23e	0.023530122
19	0xbe3594e2	-0.17732576
20	0xbc1921a5	-0.0093464
21	0xbea5683f	-0.32306096
22	0x3d31bd3f	0.04339337
23	0x3e74e2bb	0.23914616
24	0x3dc93ae6	0.09825687
25	0xbe950562	-0.2910567
26	0xbd7cd4fe	-0.061726563
27	0x3dd09ea4	0.10186508
28	0x3c710a1a	0.014711881
29	0x3e251534	0.1612137
30	0xbe9bfc7a	-0.30466062
31	0xbe3b8f25	-0.18316324
32	0x3c248dc1	0.010043562
33	0xbdcfa290	-0.10138428
34	0xbc431780	-0.011907458
35	0xbd7913c2	-0.06080986
36	0x3cd67ade	0.026181635
37	0x3e3d7567	0.18501817
38	0xbbd61fb3	-0.0065345406
39	0x3e0b21ee	0.13587162
40	0xbda85b37	-0.08220523
41	0xbe585556	-0.21126303
42	0x3e91a6e5	0.28447643
43	0x3dd4671f	0.10371231
44	0xbd92bd73	-0.07165041
45	0x3d9de64a	0.0770994
46	0x3e1c0d11	0.1523936
47	0x3b956fe2	0.0045604566
48	0x3cb5f414	0.022211112
49	0x3e03e07a	0.128786
50	0x3e83e866	0.25763243
51	0xbc8b239d	-0.016984755
52	0x3daa799e	0.08323978
53	0x3db59c41	0.08867694
54	0xbc9cdac5	-0.019147286
55	0x3c407774	0.01174723
56	0xbe323650	-0.17403531
57	0x3d8c98e9	0.06865103
58	0x3d3b5f5f	0.04574525
59	0x3dce622f	0.10077321
60	0xbe23ef9e	-0.16009375
61	0x3b865bec	0.0041003134
62	0x3dac4a6a	0.08412631
63	0xbdb476b0	-0.088117
64	0xbd0078f2	-0.031365342
65	0xbcb550da	-0.02213328
66	0xbe1f5412	-0.15559414
67	0x3d034d52	0.03205616
68	0xbd692fb6	-0.056930266
69	0xbe34e136	-0.17664036
70	0x3cd52e10	0.02602294
71	0x3d8f8639	0.07008023
72	0x3d8141ba	0.063113645
73	0xbd132dda	-0.0359324
74	0xbe810f24	-0.25206864
75	0xbd7905ee	-0.06079667
76	0xbc465d3a	-0.012107188
77	0x3d9ddfbf	0.07708692
78	0x3cf66bef	0.030080764
79	0x3e33eb42	0.17570212
80	0xbea430b2	-0.32068402
81	0x3dba73a3	0.09104087
82	0x3df0f336	0.11765139
83	0x3e8626ed	0.26201573
84	0xbcc72d0a	-0.024313468
85	0x3dfa0ed1	0.12209857
86	0xbe1bde6d	-0.15221567
87	0x3d9f29e2	0.077716604
88	0xbe090644	-0.13381296
89	0x3d8a9ddd	0.06768391
90	0x3def7f41	0.11694194
91	0xbcd9848c	-0.026552461
92	0xbcff3808	-0.031154647
93	0x3da7d90d	0.08195696
94	0x3e017ac5	0.12644489
95	0x3e04daa7	0.12974034
96	0x3d3ed7f5	0.04659267
97	0xb9d308fc	-0.0004025175
98	0xbcea1e7c	-0.02857899
99	0xbc4e31d4	-0.012585122
100	0xbd918beb	-0.07106765
101	0xbde03471	-0.109475024
102	0x3d8ff26b	0.070286594
103	0x3d9632c9	0.07333905
104	0xbe21bf36	-0.15795597
105	0xbe7c9a34	-0.24668199
106	0x3d61b9ac	0.05510871
107	0x3c27630c	0.010216486
108	0x3db03be8	0.08605176
109	0xbd486bde	-0.048930995
110	0xbe1ead13	-0.1549571
111	0xbbb318a6	-0.005465585
112	0xbe0d3740	-0.13790607
113	0x3d42d842	0.04756952
114	0xbe1fb36b	-0.15595786
115	0x3e0254ba	0.12727633
116	0xbe2d846b	-0.16945045
117	0x3df2f78e	0.118636236
118	0x3cbd0072	0.023071501
119	0x3d381932	0.044945903
120	0x3dc635c5	0.096782245
121	0xbccfe37f	-0.025377033
122	0x3dfd9707	0.12382322
123	0xbddb6d04	-0.107141525
124	0x3dc66009	0.09686286
125	0x3d94abad	0.07259307
126	0xbdc3bb7a	-0.09557243
127	0xbdf7e914	-0.12105003
128	0x3e8ee971	0.27912477
129	0xbcf8ec96	-0.03038625
130	0x3e1767c2	0.14785674
131	0x3caec616	0.02133469
132	0xbdc11f9e	-0.094298586
133	0xbddce116	-0.10785119
134	0x3daf3790	0.085555196
135	0xbdce00ad	-0.10058723
136	0x3dbcba1f	0.09215187
137	0x3da6ccb4	0.08144513
138	0xbd7377c6	-0.059440397
139	0xbd612f5c	-0.054976806
140	0xbc487da6	-0.012236988
141	0xbd3d7eb4	-0.04626341
142	0x3d5e07b9	0.054206584
143	0x3e06b51c	0.13155025
144	0x3e81a028	0.25317502
145	0xbdbc5c39	-0.091972776
146	0x3c0189f3	0.007906425
147	0xbdc83954	-0.097765595
148	0xbde57c81	-0.11205388
149	0x3c822342	0.015885953
150	0x3d4046e4	0.046942607
151	0xbd98d391	-0.07462228
152	0xbe0311b8	-0.12799728
153	0x3d040bee	0.03223794
154	0x3e540415	0.20704682
155	0xbde49402	-0.11161043
156	0x3d742840	0.059608698
157	0x3d9c4c0a	0.07631691
158	0x3d81f340	0.063452244
159	0xbde090c2	-0.1096511
160	0x3d9b42ef	0.07581126
161	0x3e0b10a2	0.13580564
162	0x3dcd1d54	0.100153595
163	0xbd438f25	-0.047743935
164	0xbcbe065f	-0.023196397
165	0xbe360758	-0.17776239
166	0xbe1cb5df	-0.15303753
167	0x3e48e2c7	0.19617759
168	0xbe18613e	-0.14880845
169	0x3e7cb68c	0.24679011
170	0xbd5486b1	-0.051886264
171	0xbe3fbdd5	-0.18724759
172	0xbe0a9c6f	-0.13536237
173	0x3e724223	0.23658042
174	0x3c7c9d4b	0.015418361
175	0xbdaa5ab6	-0.08318083
176	0xbd4b1d7f	-0.049588677
177	0xbd875069	-0.06607134
178	0xbd229901	-0.039696697
179	0x3d782100	0.060578346
180	0xbe979eb2	-0.29613262
181	0x3e5a9f27	0.21349774
182	0x3d8b5c52	0.06804718
183	0xbe52f20f	-0.2060015
184	0xbe167d7a	-0.14696303
185	0x3d441aec	0.047877237
186	0x3d2f7eb8	0.042845458
187	0x3d33b69f	0.043875333
188	0x3d956929	0.07295448
189	0xbd391ebf	-0.045195337
190	0xbe83578c	-0.2565273
191	0x3cafeb19	0.021474408
192	0xbe480a1d	-0.19535108
193	0xbd9b8431	-0.07593573
194	0x3da70f5e	0.08157228
195	0xbd65536e	-0.055987768
196	0xbd6e6404	-0.05820085
197	0xbdff4d74	-0.12465945
198	0x3dda8a7d	0.10670946
199	0xbd833cb8	-0.064080656
200	0xbce94b53	-0.0284783
201	0x3d072475	0.032993753
202	0xbddb419c	-0.10705873
203	0x3dd2e326	0.102972314
204	0x3d527b12	0.0513869
205	0xbc310bee	-0.010806067
206	0xbb615d4b	-0.0034387882
207	0x3de7538d	0.11295233
208	0xbdea4b37	-0.11440127
209	0xbd8b661e	-0.06806587
210	0xbbe522c1	-0.0069926684
211	0x3e561e33	0.20909958
212	0xbd729ddc	-0.059232578
213	0x3dbf475c	0.093397826
214	0xbdc72f8d	-0.097258665
215	0x3db36696	0.08759801
216	0xbc51110a	-0.01276041
217	0xbda88881	-0.08229161
218	0xbe4cfb84	-0.2001782
219	0x3e984f4c	0.29748
220	0xbdba1152	-0.09085335
221	0x3e8429c0	0.25813103
222	0x3e02c160	0.12769079
223	0xbe48b403	-0.19599919
224	0x3dfc8cae	0.1233152
225	0xbe33e890	-0.17569184
226	0xbd97021d	-0.0737345
227	0x3d91ebd4	0.07125059
228	0x3c97b21b	0.018517544
229	0x3e13f677	0.14449488
230	0x3dcfa5b5	0.10139028
231	0x3d803ccd	0.06261597
232	0xbe8b59d3	-0.27216968
233	0xbe2f5e9c	-0.17125934
234	0x3e3f36ef	0.18673299
235	0xbcded31b	-0.027200272
236	0xbe69e4b9	-0.22841157
237	0x3c7f26f9	0.015573257
238	0x3e02975d	0.12753053
239	0xbc652d14	-0.013987798
240	0xbe331355	-0.17487843
241	0xbb4d22ea	-0.0031301328
242	0x3c769cde	0.0150520485
243	0x3d0ab3eb	0.03386299
244	0xbd3fde5f	-0.04684293
245	0xbe5b4ea2	-0.21416715
246	0x3d16ad67	0.036786463
247	0xbc005bcc	-0.007834386
248	0xbe011a19	-0.12607612
249	0xbe0638f6	-0.13107666
250	0xbe913e7a	-0.28367978
251	0xbd869b6f	-0.06572615
252	0xb92d310b	-0.00016516836
253	0x3e3a81cd	0.18213578
254	0x3dc54483	0.09632208
255	0x3cc89b0c	0.024487995

bias f4 [64]
0	0xbaea395a	-0.0017869875
1	0x3c41317b	0.011791582
2	0xbc8f3373	-0.017480588
3	0xbcabb270	-0.020959109
4	0xbcd52047	-0.026016368
5	0x3b40f4cb	0.0029442783
6	0x3cd8a83f	0.026447413
7	0x394b4134	0.00019383879
8	0xbc9544c0	-0.01822126
9	0xbd81c10b	-0.06335648
10	0x3b86d180	0.00411433
11	0xbcc287a3	-0.023746317
12	0xbca0dcff	-0.01963663
13	0xbd10f64c	-0.035391137
14	0xbd17b62d	-0.03703897
15	0x3d1568e9	0.036477003
16	0xbc3bca75	-0.011461844
17	0xb9cb954e	-0.00038830418
18	0xbc1d9775	-0.00961863
19	0x3abebb12	0.0014551601
20	0xbcb6f57e	-0.022333857
21	0xbd5b9102	-0.053605087
22	0x3baab71c	0.0052098166
23	0xbc95452f	-0.018221466
24	0xbbc64903	-0.006051184
25	0x3c9dc434	0.019258596
26	0xbd0d50e3	-0.034500968
27	0xbcd60c8a	-0.026129026
28	0xbc3362c1	-0.010948838
29	0xbaa2c381	-0.0012417884
30	0x3c2cf7fa	0.010557169
31	0xbb249012	-0.0025110287
32	0x3c2c80c2	0.010528745
33	0x3c7ffb1d	0.015623835
34	0xbd0c5204	-0.034257904
35	0x3b2613cf	0.0025341397
36	0xbbb3cea7	-0.0054872814
37	0xbc4ec33b	-0.012619789
38	0xb7496abc	-1.2005385e-05
39	0x3a8df55c	0.0010830569
40	0xbd9873ec	-0.07443985
41	0x3bff6927	0.0077945176
42	0x3d424b80	0.047435284
43	0x3c1b035c	0.00946125
44	0xbcfc3202	-0.030785564
45	0xbd1e1d24	-0.03860201
46	0xbd5336df	-0.051566
47	0xbc906c00	-0.017629623
48	0x3cae44fd	0.02127313
49	0xbcfddb5b	-0.030988386
50	0xbd59f507	-0.053212192
51	0x3bcb15cb	0.0061976663
52	0xbcd362cc	-0.025803946
53	0xbcd262dd	-0.025681907
54	0xbcdda514	-0.027056254
55	0x3caeab4c	0.021321915
56	0xbc415b1d	-0.011801508
57	0x3c18d089	0.009327062
58	0xbd0b0873	-0.033943605
59	0xbb37ead0	-0.0028063543
60	0xbc3e5273	-0.011616337
61	0xbd275aa0	-0.04085791
62	0xbd0034d0	-0.031300366
63	0xbc400d15	-0.011721869

weight f4 [64, 64]
0	0xbe9f3944	-0.31098378
1	0xbc928352	-0.017884884
2	0xbaf23199	-0.0018477916
3	0x3e364053	0.17797975
4	0x3e14c925	0.14529856
5	0xbd9b79d5	-0.07591597
6	0x3e8863b4	0.26638567
7	0xbd88c740	-0.06678629
8	0x3a90dce6	0.0011052161
9	0xbed47506	-0.41495532
10	0x3c965abe	0.018353816
11	0x3e002f66	0.12518081
12	0xbdbb532f	-0.091467254
13	0x3e964789	0.29351452
14	0xbec8070f	-0.39067885
15	0xbe57c340	-0.21070576
16	0xbd4b151a	-0.04958067
17	0xbd1cb42e	-0.03825777
18	0xbe3280e4	-0.1743198
19	0x3dbcb7e9	0.092147656
20	0xbe958898	-0.29205775
21	0xbd1274c4	-0.035755888
22	0xbe47410f	-0.19458412
23	0xbd11e28a	-0.035616435
24	0x3e795b63	0.24351268
25	0x3e50becc	0.20385283
26	0xbc801f22	-0.015639845
27	0xbd0757fc	-0.033042893
28	0xbe6dad8b	-0.23210733
29	0xbe1fba9a	-0.15598527
30	0x3e773c7d	0.24144168
31	0xbe7c8683	-0.24660687
32	0xbdec929c	-0.11551401
33	0xbc788966	-0.015169477
34	0x3e3703a5	0.17872484
35	0x3de3b64d	0.111187555
36	0x3d23717b	0.039903145
37	0x3e86b76e	0.2631182
38	0xbc9c61f5	-0.019089678
39	0xbe87b14d	-0.26502457
40	0xbe8310d4	-0.25598776
41	0x3d31c989	0.04340509
42	0x3c852ac0	0.016255736
43	0xbe944b9f	-0.28963944
44	0x3cacc224	0.021088667
45	0xbce563bc	-0.028001659
46	0xbe68d50f	-0.22737525
47	0x3dd8c410	0.10584271
48	0xbe282cd5	-0.16423352
49	0x3e837d08	0.2568133
50	0xbdead872	-0.11467065
51	0xbd9e6452	-0.07733978
52	0xbdc7cb44	-0.09755567
53	0xbc5a032c	-0.01330642
54	0x3e09740f	0.13423179
55	0xbe0ce57a	-0.13759413
56	0xbd22365b	-0.03960262
57	0x3dc08ff8	0.0940246
58	0x3e1baf55	0.15203603
59	0x3d460d15	0.04835232
60	0xbdfb8d0d	-0.12282763
61	0xbe1befa8	-0.1522814
62	0x3c5c802c	0.013458293
63	0x3e17421d	0.14771314
64	0x3e94ca70	0.29060698
65	0x3dc8232f	0.09772336
66	0x3e4fbc47	0.20286666
67	0x3ce8d0dd	0.028419906
68	0x3e0b40ee	0.13598987
69	0xbcc965db	-0.024584701
70	0x3c58b562	0.013226839
71	0x3e1b0822	0.15139821
72	0xbd21dc51	-0.03951675
73	0xbcf7387e	-0.030178305
74	0xbda5699e	-0.080767855
75	0xbc9f6d5f	-0.019461332
76	0xbe4c8fcc	-0.19976729
77	0x3d66dc39	0.056362364
78	0xbd3c90ea	-0.04603664
79	0x3e52f044	0.20599467
80	0xbe1cb76a	-0.15304342
81	0xbcecbc7e	-0.028898474
82	0x3f0f6490	0.5601282
83	0xbc30473e	-0.010759173
84	0x3ced468a	0.0289643
85	0xbd82f14c	-0.0639368
86	0xbe1beb5e	-0.15226504
87	0xbed363be	-0.41287035
88	0x3d35e784	0.044410244
89	0xbe164f31	-0.14678647
90	0x3e94f3e1	0.29092315
91	0x3d0fa700	0.035071373
92	0xbe0a449b	-0.13502733
93	0xbe7e7775	-0.24850257
94	0xbdbd052a	-0.092295006
95	0x3e44340e	0.19160482
96	0x3e0a1d01	0.13487627
97	0x3ce55802	0.027996067
98	0xbc716c4f	-0.014735295
99	0x3c102d60	0.008799881
100	0x3b885fb5	0.0041618
101	0x3e7ccf5a	0.24688473
102	0xbd8691ad	-0.06570754
103	0x3df4e2dc	0.119573325
104	0xbca65ee9	-0.020308929
105	0xba81085a	-0.0009844408
106	0x3e0bef26	0.13665447
107	0xbdfe1dbf	-0.12408017
108	0x3ede3cbf	0.4340572
109	0x3e9e5091	0.30920842
110	0xbe7f198e	-0.24912092
111	0x3dfdaa28	0.1238597
112	0xbd9b3561	-0.075785406
113	0x3df3ef18	0.11910838
114	0xbe7d91b0	-0.24762607
115	0x3dbd04ec	0.092294544
116	0xbe631645	-0.22176464
117	0x3ccb9ea8	0.024855927
118	0xbda441c3	-0.080203556
119	0xbd2f8c80	-0.0428586
120	0x3e94d640	0.2906971
121	0xbd80871b	-0.06275769
122	0xbcc3d0d2	-0.023903284
123	0xbe12c2ed	-0.14332171
124	0xbe6cb9dc	-0.23117775
125	0x3e3ff98e	0.18747541
126	0xbd0ef52a	-0.034901775
127	0xbd96ca8f	-0.07362854
128	0xbdd86a37	-0.10567134
129	0xbddd7c87	-0.10814767
130	0xbdfc60b3	-0.123231314
131	0x3e3d176b	0.18465964
132	0x3e49061f	0.19631241
133	0x3c4dcddd	0.012561289
134	0x3d397893	0.045281004
135	0xbe326d95	-0.17424615
136	0x3e23751d	0.15962644
137	0x3c76e1f6	0.015068522
138	0xbddb3517	-0.107034855
139	0x3dcbac0e	0.09944926
140	0xbe2f7068	-0.17132723
141	0xbe40d109	-0.1882974
142	0x3dc11ad3	0.094289444
143	0x3dc30f48	0.09524399
144	0x3cdfa2fc	0.027299397
145	0x3e146709	0.1449243
146	0x3dc2a568	0.09504205
147	0x3e635c5b	0.222032
148	0x3cfffaba	0.031247485
149	0xbe184fde	-0.14874217
150	0xbeb74820	-0.35797215
151	0xbdc85b23	-0.09783008
152	0xbd3af891	-0.045647208
153	0xbed573df	-0.41689965
154	0xbcb74232	-0.022370432
155	0xbe80c5de	-0.2515096
156	0x3e172c8f	0.14763092
157	0x3da29e7d	0.079403855
158	0xbe646a52	-0.22306183
159	0xbd4d43a0	-0.05011332
160	0xbd667816	-0.056266867
161	0x3ea9f0ff	0.33191678
162	0xbe2b22be	-0.16712472
163	0xbe4f0ce7	-0.20219766
164	0x3e0e9acb	0.13926236
165	0xbe258d4c	-0.16167182
166	0xbdbd81ed	-0.09253297
167	0x3d0da7d4	0.03458388
168	0xbd560cde	-0.052258365
169	0xbe9fb05b	-0.31189236
170	0xbd81324d	-0.06308422
171	0xbda05384	-0.07828429
172	0xbe37488a	-0.17898765
173	0xbe759e17	-0.23986088
174	0x3d17d1df	0.037065383
175	0x3cbf88d2	0.02338067
176	0xbe773318	-0.24140584
177	0x3ea49aeb	0.32149443
178	0xbeb5f6cb	-0.3553985
179	0x3dde7cac	0.10863623
180	0x3e0fe409	0.14051832
181	0xbd09e07c	-0.03366135
182	0x3e8d43d5	0.27590814
183	0xbea35acc	-0.3190521
184	0xbe86f4a6	-0.26358527
185	0x3d9f2123	0.07769992
186	0xbe3624ca	-0.17787471
187	0xbdb4959a	-0.08817597
188	0x3e72d6e1	0.23714782
189	0xbdec3d6b	-0.11535152
190	0xbdc9b5cb	-0.098491274
191	0xbe36d464	-0.17854458
192	0x3e036fb9	0.12835588
193	0xbe6e0e53	-0.23247652
194	0x3d6940c5	0.056946535
195	0xbdb4c849	-0.08827264
196	0x3dee15a6	0.11625223
197	0x3e0745c2	0.13210204
198	0xbe456fab	-0.19280879
199	0xbdc1f863	-0.09471204
200	0xbed527e5	-0.41632
201	0xbd8bdb96	-0.06828992
202	0xbc3fa4c1	-0.011696995
203	0xbd816f77	-0.06320088
204	0x3d255838	0.040367335
205	0x3eaa9aa6	0.33321112
206	0x3df3df62	0.11907841
207	0x3e9c2b2d	0.3050169
208	0x3d6b308c	0.057419345
209	0x3e9dc8dc	0.30817306
210	0x3db9c19e	0.09070133
211	0x3d9e4a83	0.07729056
212	0xbe880d69	-0.2657273
213	0x3d991b9b	0.074759685
214	0xbd16bd86	-0.036801837
215	0xbe066564	-0.13124615
216	0xbd7e1ddf	-0.062040206
217	0x3dca6aad	0.09883628
218	0x3e9280c4	0.28613865
219	0x3e426ef6	0.1898764
220	0xbd754bba	-0.05988667
221	0x3e9db9df	0.3080587
222	0x3d9d7b3a	0.07689519
223	0xbdd0b953	-0.10191598
224	0xbe4a581a	-0.1976017
225	0x3cb86064	0.0225069
226	0x3e090acd	0.13383026
227	0x3df7f01e	0.121063456
228	0xbdfd6824	-0.12373379
229	0xbe2ed33e	-0.1707277
230	0xbda79b29	-0.08183891
231	0x3e672b35	0.22575076
232	0x3caece5e	0.021338638
233	0x3e5130ad	0.20428725
234	0xbdd3a916	-0.10334985
235	0xbe853eb2	-0.26024395
236	0x3e53b95c	0.20676178
237	0xbe3d21dd	-0.18469949
238	0x3e22e462	0.15907434
239	0xbe8728a7	-0.26398203
240	0x3dbb7d0a	0.09154709
241	0xbd3c5679	-0.045980904
242	0xbdf1b282	-0.11801626
243	0xbecc738e	-0.3993191
244	0x3d8fd1c5	0.07022432
245	0xbe1825fd	-0.14858241
246	0x3e4f216e	0.20227596
247	0xbe0abcbf	-0.13548563
248	0xbe46ed70	-0.19426513
249	0xbdb97ce9	-0.09057028
250	0x3e421bcc	0.18955916
251	0xbe9f3e22	-0.3110209
252	0x3e1529b6	0.14566693
253	0xbe1c38ea	-0.15256086
254	0x3ddafe14	0.10692993
255	0xbd8dc45d	-0.06922219

bias f4 [64]
0	0xbbdce09b	-0.0067406422
1	0x3d3d5bbd	0.046230067
2	0xbc13f761	-0.009031148
3	0xbca4e989	-0.02013089
4	0xbd17777c	-0.036979184
5	0x3a5c5821	0.0008405466
6	0x3cc5b9f0	0.024136513
7	0xbc862740	-0.016376138
8	0x3c65bdde	0.014022319
9	0x39e1ceee	0.0004306952
10	0x3b57d25d	0.0032931783
11	0xbccc3a4f	-0.024930147
12	0x3c0b0204	0.008484367
13	0xbc95df50	-0.01829496
14	0x3d136cfb	0.035992604
15	0x3c9487b1	0.018131109
16	0xbaeea7f6	-0.0018208015
17	0x3c939716	0.01801638
18	0xbcb0af04	-0.021567829
19	0xbc80aa26	-0.015706133
20	0xbcc4b951	-0.024014147
21	0xbd8115dc	-0.063029975
22	0xbc6df306	-0.014523273
23	0xbd551a40	-0.052026987
24	0xbc112f0a	-0.008861313
25	0x3ccd7c4c	0.025083683
26	0x3d1d5e32	0.03841991
27	0xbc0b3f17	-0.0084989285
28	0xbc9af5da	-0.01891606
29	0xbc2dce3c	-0.010608252
30	0xbd3e9385	-0.046527404
31	0xb865188b	-5.4620712e-05
32	0x3b942e70	0.0045221373
33	0x3b5dce33	0.0033844828
34	0x3b680611	0.0035404006
35	0x3c7c370e	0.015393985
36	0xbb768e2c	-0.0037621362
37	0x3ac830de	0.0015273353
38	0xbd0588fa	-0.032601334
39	0xbc0dea53	-0.008661824
40	0xbbe7f924	-0.0070792604
41	0xbc91c0a8	-0.017792061
42	0xbd7be449	-0.061497007
43	0x3aac6d23	0.0013155084
44	0x3c144e1d	0.009051827
45	0xbd4931cf	-0.049119767
46	0xbd33c0b5	-0.04388495
47	0xbd5d9c04	-0.054103866
48	0xbb3236f5	-0.0027193401
49	0xbc03564c	-0.00801618
50	0xbc8fa37e	-0.017534014
51	0xbbbc6d60	-0.005750343
52	0x3bc1b037	0.005910899
53	0xbb9311e3	-0.0044882162
54	0xbc18b36b	-0.00932012
55	0x3cba7ef5	0.022765616
56	0xbcde07bc	-0.027103297
57	0xbd454b39	-0.04816744
58	0x3c28750c	0.010281812
59	0xbc9c803e	-0.01910412
60	0xba0c4bcf	-0.00053518725
61	0xbb10b52d	-0.0022080645
62	0xbcd0381b	-0.025417378
63	0xbc956200	-0.018235207

weight f4 [1, 64]
0	0x3abe77de	0.0014531573
1	0xbd3c06e9	-0.045905028
2	0xbdb178af	-0.08665597
3	0x3ac2a2fc	0.0014849599
4	0x3a10ed7f	0.0005528554
5	0x3dd20533	0.10254898
6	0xbdf509fb	-0.11964794
7	0x39f80cdd	0.0004731183
8	0xb8d9afdc	-0.00010380123
9	0x3d7d9c97	0.061916914
10	0x3e0b0c44	0.13578898
11	0xbd9aa07f	-0.075501435
12	0xbca63929	-0.020290928
13	0x3c21228b	0.009834896
14	0xbd312ce0	-0.043255687
15	0x3ca757f8	0.020427689
16	0x3dd66943	0.10469296
17	0x3d834aef	0.06410777
18	0xb9181cdc	-0.000145066
19	0x39ed681b	0.00045281727
20	0xbd0b693a	-0.0340359
21	0x3ecff2e8	0.4061501
22	0xb91b97fa	-0.00014838568
23	0x3e8b65a6	0.2722599
24	0xba8713e7	-0.0010305614
25	0xbca888f2	-0.020573113
26	0xbd93cbf0	-0.07216632
27	0x3d84f115	0.06491295
28	0x3e746928	0.23868239
29	0xba8ac0a4	-0.0010585976
30	0x3db0c382	0.0863104
31	0x3bf46017	0.007457744
32	0xba5032ee	-0.00079421594
33	0xbd9a8586	-0.07544999
34	0xbae99771	-0.0017821622
35	0x3d51f079	0.051254723
36	0x3a1aa1c9	0.00058987417
37	0xbdf3eabc	-0.119100064
38	0xbecd88ce	-0.40143436
39	0xbd01beb4	-0.03167601
40	0xbe46a24b	-0.19397847
41	0x3e8a968e	0.2706799
42	0x3e0c5a4b	0.13706319
43	0xb9f7b74c	-0.00047248078
44	0x3c8939fa	0.016751278
45	0xbdfcd7d8	-0.123458564
46	0xbe856a57	-0.26057693
47	0xbe43fc85	-0.19139297
48	0x38c71f2a	9.494864e-05
49	0x39836146	0.0002505874
50	0xbdeeff0a	-0.116697386
51	0xbcddcdf1	-0.02707574
52	0x3a1fd91d	0.0006097721
53	0xb7d7d2c0	-2.5728135e-05
54	0xbb391a59	-0.0028244464
55	0xbe041b51	-0.12901045
56	0xba738081	-0.0009288863
57	0xbe2a3516	-0.16621813
58	0x3d91d90d	0.07121477
59	0xb93e824a	-0.00018168348
60	0xb9d4de38	-0.00040601357
61	0x3d7854a7	0.060627606
62	0xba88e8b7	-0.0010445331
63	0x3e828a70	0.25496244

weight f4 [5, 64]
0	0x3d166f6f	0.036727365
1	0x3ba0f670	0.00491219
2	0xbde20ff2	-0.110381976
3	0xbc088c7e	-0.008334277
4	0x3ba65aa8	0.005076725
5	0x3d401ce6	0.04690256
6	0xbc8e03fe	-0.017335888
7	0x3aaaa64b	0.001301953
8	0xbdaa481c	-0.08314535
9	0x3c8c8ffb	0.017158499
10	0x3ac4c5a5	0.0015012516
11	0x3a935206	0.0011239655
12	0x3c5a69f2	0.013330923
13	0xbc63674e	-0.01387961
14	0x3ac41bd2	0.0014961904
15	0xbbed0f53	-0.007234493
16	0xbca328b9	-0.019916879
17	0xbb2c7e21	-0.0026320296
18	0x3c10f2f2	0.008846985
19	0xbd09b057	-0.033615436
20	0x3d377344	0.04478766
21	0xbc866d65	-0.016409585
22	0x3a161500	0.0005725175
23	0x3bacfde6	0.0052792905
24	0x3ca5d904	0.020245083
25	0x3d1dfc08	0.038570434
26	0xbc4f35ed	-0.012647134
27	0xbb7db08b	-0.0038709964
28	0xbcb69fb1	-0.022292944
29	0x3c857800	0.016292572
30	0x3c305c67	0.010764218
31	0xbb010851	-0.0019688795
32	0xbd229dc8	-0.039701253
33	0xbb02d7fa	-0.0019965158
34	0x3be04221	0.0068438207
35	0xbb8f4ebd	-0.0043734
36	0xbc71884f	-0.014741971
37	0x3ca6c86f	0.020359246
38	0xbdcacd06	-0.09902386
39	0xbdfe3c84	-0.12413886
40	0x3c567119	0.013088488
41	0x3c802602	0.015643124
42	0x3c5e6c71	0.013575659
43	0x3ce9376b	0.028468808
44	0x3c39f4f0	0.011349902
45	0x3b64e6c9	0.0034927598
46	0xbd2015aa	-0.03908316
47	0xbce8477c	-0.028354399
48	0x3b301933	0.0026870489
49	0xbc6daa8d	-0.0145059945
50	0xbb80198c	-0.0039092954
51	0x3cbd6374	0.023118712
52	0x3c9f449f	0.0194419
53	0x3c0b0163	0.008484217
54	0xbb9c420e	-0.0047686165
55	0xbda661b4	-0.08124104
56	0x3b8710e7	0.004121888
57	0xbd83cd29	-0.064356156
58	0xbc93303e	-0.01796734
59	0xbb33c997	-0.002743339
60	0x3bdf7e5a	0.006820482
61	0xbab9137d	-0.0014120188
62	0x3c6d0dcd	0.014468622
63	0x3b99b496	0.004690717
64	0xbdcfa80f	-0.101394765
65	0xba9aa4fd	-0.0011798438
66	0x3e6fd4e6	0.23421058
67	0xbbb8a5b6	-0.0056349887
68	0xbc7c67eb	-0.015405635
69	0xbe189be9	-0.14903225
70	0x3ce03275	0.02736781
71	0xbb9a7df5	-0.0047147223
72	0x3df2ae12	0.118496075
73	0xbd21b788	-0.03948167
74	0xbc38a0b5	-0.011268784
75	0x3c7237f8	0.014783852
76	0xbcbc861b	-0.023013165
77	0x3c82d778	0.015971884
78	0x3b84c41d	0.004051699
79	0x3c3f6da3	0.011683854
80	0x3d5b25f3	0.053502988
81	0x3a9827a5	0.0011608495
82	0xbc2c6333	-0.010521698
83	0x3d12019f	0.035646077
84	0xbe18c6b3	-0.14919548
85	0x3cdc3d95	0.026884833
86	0xbada6fcc	-0.0016665398
87	0xbc71b079	-0.014751547
88	0xbdc4a30a	-0.0960141
89	0xbe0a9df2	-0.13536814
90	0x3d650b09	0.055918727
91	0x3b02fe49	0.0019987992
92	0x3d2bcbf7	0.041942563
93	0xbd4f4738	-0.05060503
94	0xbd458ee0	-0.04823196
95	0xbb8a1b10	-0.004214652
96	0x3d55745d	0.052112926
97	0xbc5d0d7f	-0.013491987
98	0x39c06012	0.00036692672
99	0x3b1d9100	0.0024042726
100	0x3d0763a3	0.033054005
101	0xbdb630dc	-0.08896038
102	0x3e5d3436	0.21601948
103	0x3e98a881	0.29816058
104	0xbcec8dee	-0.028876271
105	0xbd93c019	-0.07214374
106	0xbcbecfbd	-0.023292417
107	0xbdf910d7	-0.12161415
108	0xbda9914f	-0.082796685
109	0x3c8af941	0.016964557
110	0x3dbb45f6	0.09144203
111	0x3d88626c	0.066593975
112	0xba841a28	-0.0010078596
113	0x3d94a89b	0.072587214
114	0x3b468ba5	0.0030295637
115	0xbdac76b3	-0.084210776
116	0xbd16fff6	-0.036865197
117	0x3b850544	0.0040594656
118	0x3bfdd808	0.0077467
119	0x3e3b83ac	0.18311948
120	0x3cc52c48	0.024068967
121	0x3d953c9c	0.07286951
122	0x3d00b62a	0.031423725
123	0xbbe29e88	-0.006915871
124	0xbb476d7a	-0.0030430243
125	0xbb373895	-0.002795731
126	0xbd6ea1df	-0.05825984
127	0xbb90ebdf	-0.0044226493
128	0x3ce4c691	0.027926715
129	0x3b59a6e7	0.0033211054
130	0xbdb25758	-0.08708066
131	0x3b98bdc3	0.0046612932
132	0x3bcabf2e	0.006187341
133	0x3d230d9c	0.0398079
134	0xbc3ce7e8	-0.0115299
135	0xbb161a8f	-0.0022904014
136	0xbdb874f6	-0.090066835
137	0x3c1bd4cc	0.009511184
138	0x3bd713a8	0.0065636225
139	0xbbfe490c	-0.0077601727
140	0xbba13b7b	-0.0049204207
141	0xbbd68b78	-0.0065473877
142	0x393b7e27	0.00017880705
143	0xbb495316	-0.003071969
144	0xbc89c498	-0.016817376
145	0xbc1c953a	-0.009557063
146	0x3c1d7281	0.009609819
147	0xbc956741	-0.018237712
148	0x3d39deca	0.045378484
149	0xbcb31953	-0.021862661
150	0xb92aa53d	-0.0001627402
151	0x3bfbc467	0.007683325
152	0x3ced3069	0.028953748
153	0x3d11f147	0.03563049
154	0xbc74e071	-0.014946089
155	0x3af790c2	0.0018887746
156	0xbcc06474	-0.0234854
157	0x3c6e6532	0.014550494
158	0x3b9bb5a5	0.0047518783
159	0x3ae58c75	0.0017513173
160	0xbd17b122	-0.03703416
161	0xb906bb1b	-0.00012848938
162	0xbb395961	-0.0028282034
163	0xbae77fe3	-0.0017662015
164	0xbc86dd52	-0.016462956
165	0x3cc6b4d1	0.024256142
166	0xbdd21640	-0.1025815
167	0xbdea92e8	-0.114538014
168	0x3ba2927b	0.0049613095
169	0x3ca45ae5	0.020062873
170	0x3c4532df	0.012036054
171	0x3d04f928	0.032464176
172	0x3cbbb749	0.022914546
173	0x3ba77395	0.005110214
174	0xbd27b6e6	-0.04094591
175	0xbd047daa	-0.032346405
176	0x3a07d783	0.0005181955
177	0xbc159098	-0.009128712
178	0x3a3efea2	0.0007285868
179	0x3c6b4ae6	0.014361119
180	0x3c2a5218	0.010395549
181	0x3a997878	0.0011708876
182	0x3bab8fd6	0.0052356524
183	0xbd861f71	-0.06548966
184	0xbc197c00	-0.009367943
185	0xbd7de7af	-0.06198853
186	0xbc2a96c5	-0.010411923
187	0x3b9cffa8	0.004791219
188	0xbb8906a3	-0.0041816994
189	0xbaa8ebcf	-0.0012887659
190	0x3c851e0a	0.016249675
191	0x3a7a77a4	0.0009554571
192	0x3cdaa5e0	0.026690423
193	0xbc570e0c	-0.013125908
194	0xbdd28d5a	-0.10280867
195	0xbb4a58db	-0.0030875716
196	0xbc1e5359	-0.009663426
197	0x3d4a5a98	0.049402803
198	0xbc9203f9	-0.01782416
199	0xbad73bdb	-0.0016421037
200	0xbdbe87de	-0.09303258
201	0x3c4de707	0.012567288
202	0xbad603a1	-0.0016327986
203	0xbb2058b5	-0.0024466936
204	0x3b367d54	0.0027845697
205	0xbc462815	-0.012094517
206	0x3b425cd1	0.0029657374
207	0xbbe9d4a6	-0.0071359454
208	0xbc8d4849	-0.017246382
209	0x3bffbbbc	0.007804362
210	0xbc83ec99	-0.01610403
211	0xbc8a9897	-0.016918464
212	0x3d1499b4	0.036279395
213	0xbc89f1f5	-0.016839007
214	0xbada3bb6	-0.0016649875
215	0x3c365004	0.011127476
216	0x3ce114b4	0.027475692
217	0x3d3728d2	0.044716664
218	0xbc0e56d9	-0.008687698
219	0xbad93366	-0.0016571104
220	0xbcc17a39	-0.02361785
221	0x3ca184d0	0.01971665
222	0x3c7a99c4	0.01529545
223	0xbbee0790	-0.007264085
224	0xbd2f2ea0	-0.042769074
225	0x3ae7cb55	0.0017684499
226	0xba0772b3	-0.0005166933
227	0x3b550f46	0.0032510324
228	0xbb68c636	-0.0035518534
229	0x3cdc2c64	0.026876636
230	0xbdb952c1	-0.09048987
231	0xbdfa511b	-0.12222501
232	0x3c0cccff	0.008593797
233	0x3c9cff59	0.019164728
234	0xba189f27	-0.00058220554
235	0x3cfb20c0	0.030655265
236	0x3c47d6f4	0.012197245
237	0xbb8ed809	-0.0043592495
238	0xbd24421e	-0.040102117
239	0xbcbcb1fb	-0.023034086
240	0xbb059456	-0.0020382605
241	0xbc57c5fb	-0.013169761
242	0xbb1a3214	-0.0023528384
243	0x3cc771ed	0.024346316
244	0x3af96093	0.0019025974
245	0xbc54bcf4	-0.012984503
246	0xbb6e12c0	-0.0036327094
247	0xbd82397f	-0.06358623
248	0xbba755c9	-0.005106662
249	0xbd83185c	-0.064011306
250	0xbcac1418	-0.021005675
251	0x3b3dd56a	0.0028966316
252	0x3b261fa9	0.002534846
253	0x3ba21056	0.004945795
254	0x3c73881a	0.014863992
255	0x3bae0c40	0.005311519

bias f4 [5]
0	0xbc4e1610	-0.012578502
1	0x3b4f5256	0.003163477
2	0xbc88f557	-0.01671855
3	0xbc606c9f	-0.013697772
4	0xbc1cb285	-0.009564047
