model/tiny-4/IA2C/model_agent3_seed1.pt (torch, 101825 bytes, 11 tensors)

weight f4 [64, 119]
00000000: dbc0 d9bd 2bca 9ebd 721e 553e 7c5f 2fbd
00000010: d700 2dbd e992 c5bb 0e32 043d 861d ea3d
00000020: 6c7e e1bd cda4 a13e 29f3 3ebd dc3d 6bbc
00000030: 2294 9b3d 4688 2abe eee6 c7bc 469d 15be
00000040: 4f43 2dbd 8505 80be a11c a9be 7041 f5bc
00000050: a18c 5ebd 5d91 53be aa97 01bd cf8c 7dbd
00000060: e235 a83d e3a5 a83d c03a c23b da21 113e
00000070: df5b fd3d 9561 24bd 0bd3 88bd 46f9 03bd
00000080: 5615 833e 8d9f 423e 8054 083e fbf4 ab3e
00000090: e8de 0c3e cd8b 9b3d b6c7 af3c 140a 12bd
000000a0: a447 92bd 6f51 0e3d d0a0 083e 8349 f5bd
000000b0: 995b 60be f606 79bd 3a09 fd3c 8768 31bd
000000c0: 2d24 6a3d 5b2b b2bd 5494 babd 7360 bfbe
000000d0: 8e0f 1a3b 03de d53d 05cc 4cbe 6128 c1bd
000000e0: dfba 223c 9ced 7c3c 72c5 2abe 0cf9 333d
000000f0: 7aab f0bd 00bb f13d 977d 89bc 14a8 16be
00000100: ef27 b9bd c7a4 e93d 06e4 02bd f95f 873d
00000110: 7415 b2bd 172a dabd 12bc 24be daff 903d
00000120: ae8d dabd 38ca e33d eddb 033e a302 1abd
00000130: 9c76 aa3d 3b87 bfbd 7799 95bd 10f5 003c
00000140: 51c4 5dbe 4ed0 1fbe 90e0 96bb b20a e6bd
00000150: 264d 6b3e a302 18bd 0b04 233e 39d3 103d
00000160: 9c00 0f3e 079d b03d 8604 10bd ab83 9fbd
00000170: e37d ccbd 135c ff3d e50b b33c 2424 253e
00000180: 7a8e 3ebe 3762 12be 32a8 25be 29ce 38bd
00000190: a8a9 163e 7e24 20be c422 8bbd 79f6 a4ba
000001a0: 4d9d ffbd 6d19 283e ec80 7c3d 66f0 d83d
000001b0: dee2 11bd 2505 083e 0a01 e63d 306e 83be
000001c0: fa0d 5cbe f355 d9bd 92b9 2c3e db8e 15bd
000001d0: 1d0d 6abb 24c9 d93d c0f8 553e 2015 53bc
000001e0: 845b de3d 31e3 fd3c dab4 0cbe ed24 d5bc
000001f0: e993 82bd d3b8 b43d c9cd 76bd c84a 863d
00000200: 981a 35bd 8c6a 4abe 9c54 2e3e fa0a eb3c
00000210: a5db f1bd db23 69be c6c1 f23c 96fe 65be
00000220: 723b 3b3d f32d 963b f715 97bc 3748 36bc
00000230: 7a97 563c 99c5 85bd fd87 c03d e7b4 e33d
00000240: c245 dabc c6f8 87bd d671 4fbd 4ef2 61be
00000250: 00be 9cbd a6de 03be 93a9 dc3d f3a3 b9bd
00000260: cff0 ed3d 7841 1c3e 641d b4bb bdc8 143d
00000270: 8c45 473e f4fb 103d ddfc dbbb 95f9 b6bd
00000280: 0f68 5bbd 0e43 b0bd bc21 7e3c 2404 04be
00000290: a312 1f3e 7f7a 46be b75a 7ebd b24b b3bd
000002a0: 2895 8e3e d3d1 0abb b9dc 103e 3477 00be
000002b0: 0e82 05bc bfc3 b6bd 4bd3 ebbd c6ae 9dbd
000002c0: 800f 2fbe f785 183d db8f 663e f275 82bb
000002d0: f744 3b3c b48a 7fbe 30a5 3c3e 52f4 753e
000002e0: cb65 b13d 6600 21be 8a19 b23d 28f3 46bd
000002f0: 6730 83b9 2ba9 8bbd b9cc 4abe f635 dc3c
00000300: bd4b 163d 874e a0bd 813d fabd 6884 c63b
00000310: 9788 9cbd 360f 6a3d 0826 323e 322e 06be
00000320: 3f2f 2dbe 35cf a2bd edee 153e 7b0c 643e
00000330: 1232 343e 4dbd 95be e458 72be 7f91 ef3c
00000340: 2e44 ddbc 916f 80bd 3210 b3be 1181 88bd
00000350: 063f 853d ef1e d03e d3ef 44be a4a2 95bd
00000360: 3e50 a43d 8a5f 2cbb 4132 8c3d 73b0 4bbd
00000370: cee2 243e ec4c 133e f8f4 0f3b b356 0d3d
00000380: 3c6a 77be 3389 8fbc 6922 d03d fd72 77bd
00000390: 895f 473d 3369 86bd 00cd cb3b e6b8 833d
000003a0: 4e5b 5d3d ec10 b63d b4f5 fa3c 98d7 00be
000003b0: aae4 213e b1c5 943e 9307 6f3d cf63 053d
000003c0: 5d6f abbd 3a5e abbe 8b4d 2ebe d900 213e
000003d0: cce3 6b3d c540 dfbd 96bc 69bd 051a 19bc
000003e0: 6a37 84bc deb5 3c3d 443b 90bd e471 3f3d
000003f0: f9b2 313e 6418 003e 0cfd 373e 35b6 e5bc
-0.106324874 -0.07753404 0.20812395 -0.04281567 -0.04223713 -0.006029476 0.0322743 0.114314124
-0.11010441 0.31571046 -0.046618614 -0.01435801 0.075966135 -0.16653547 -0.024402108 -0.14610776
-0.04230052 -0.2500421 -0.33029655 -0.02993843 -0.054333333 -0.2066092 -0.03163878 -0.061901864
0.08213402 0.082347654 0.0059274137 0.1417307 0.12371039 -0.040132124 -0.06680878 -0.032220148
0.25602216 0.19006176 0.13313484 0.33585343 0.13756907 0.07595024 0.021457534 -0.035654142
-0.071425706 0.03474563 0.13342595 -0.11976912 -0.21909942 -0.060797654 0.030888189 -0.043312576
0.057163406 -0.08699676 -0.091103226 -0.37378272 0.0023507806 0.10442736 -0.19999702 -0.0943153
0.009932249 0.01543751 -0.16676882 0.04393868 -0.117514566 0.118032455 -0.016783519 -0.14712554
-0.0904082 0.11408382 -0.03195574 0.06610102 -0.08695498 -0.10652559 -0.16087368 0.0708005
-0.106715545 0.111225545 0.12876864 -0.03760017 0.08323404 -0.09351965 -0.07304662 0.007870927
-0.2165692 -0.15606806 -0.0046044067 -0.11232509 0.22978649 -0.03711189 0.15919511 0.035357688
0.13965076 0.086237006 -0.035160564 -0.077887855 -0.099849485 0.12468734 0.021856258 0.16127068
-0.18609038 -0.14295278 -0.16177443 -0.045118485 0.14713156 -0.1563892 -0.067937404 -0.0012585662
-0.124811746 0.16415949 0.061646387 0.10592727 -0.035616748 0.13283212 0.11230667 -0.25670004
-0.21489707 -0.10612097 0.16867664 -0.03651319 -0.0035713383 0.10634068 0.20895672 -0.012883455
0.10857299 0.030992122 -0.13740864 -0.026018584 -0.06375868 0.08824315 -0.060254846 0.06557232
-0.044214815 -0.19767207 0.17024463 0.028691757 -0.11809472 -0.22767584 0.029633414 -0.22460398
0.04571099 0.0045831143 -0.01844309 -0.011125616 0.013097638 -0.065318294 0.09400938 0.11118489
-0.026644591 -0.06639247 -0.05064567 -0.22065088 -0.07653427 -0.12877902 0.10774531 -0.09064474
0.11618196 0.1525935 -0.0054966677 0.03632425 0.19460124 0.03539653 -0.0067134933 -0.08934323
-0.053566035 -0.0860654 0.015510973 -0.12892205 0.15534453 -0.19382666 -0.06209823 -0.08754672
0.27848172 -0.0021182194 0.14146699 -0.12545472 -0.008148683 -0.08924054 -0.1151491 -0.07699351
-0.17095757 0.037237134 0.22515814 -0.0039813453 0.011430017 -0.24955255 0.18422389 0.24018982
0.086619936 -0.15722808 0.086962774 -0.048571736 -0.0002502233 -0.068193756 -0.19804658 0.0268812
0.036693323 -0.07827478 -0.12218762 0.0060582645 -0.0764324 0.057143413 0.1739732 -0.1310356
-0.16912554 -0.07949678 0.14641924 0.22270386 0.17597225 -0.29245988 -0.23666722 0.029244183
-0.02701005 -0.062712796 -0.34973294 -0.066652425 0.065061614 0.406486 -0.1923211 -0.07306412
0.080231175 -0.0026302063 0.06845523 -0.049728822 0.16102144 0.14384812 0.002196608 0.03450651
-0.24161619 -0.017521476 0.10162813 -0.060412396 0.048675094 -0.06563034 0.0062195063 0.06431751
0.054042153 0.08889946 0.030634739 -0.12582242 0.15809885 0.29057077 0.058356833 0.032565888
-0.0837085 -0.33470327 -0.17021768 0.1572298 0.05759029 -0.10901026 -0.057064615 -0.009344582
-0.016139705 0.04607188 -0.07042554 0.046739474 0.17353429 0.12509304 0.17967623 -0.028040985

bias f4 [64]
00000000: 7450 433a d050 56bb 2c60 87bc 055f a9bb
00000010: efd6 78bc 68c0 3239 d10a 3dbb 19d3 8e3b
00000020: 74dc fe3a edd1 93bc 7b5c 3639 58e6 40b9
00000030: e84c eaba 6984 d4bc ade7 a0b9 2b6e 2037
00000040: 78b0 e8bb 2e3b 83bc b557 883b 722a 0f3a
00000050: 131a e0b9 73b1 e3bb 9a08 093b 1624 27bb
00000060: 53a2 3cbb cafb e5b7 f5f1 1abb 147b 49bb
00000070: 53fd 98bc 51a9 5fba 091b 3bb8 087d 383b
00000080: 30b8 ac3a 05cd 1bbb a485 b1bb bddc feb8
00000090: 003e 8dbb 2953 53b9 f349 f9bb 0cb2 69bb
000000a0: a7ed efbb efe2 daba 7746 6e39 b6c7 2eba
000000b0: 9adc bebb 4502 93bc 65ca 55ba e0c8 62bb
000000c0: 7caa 6bbb e6b9 cd39 e53c db37 1417 d3bb
000000d0: a6e4 d636 c555 6238 c336 d6b6 45c8 0bba
000000e0: f3ce 593a 40e1 adbc 02c5 0abc 60aa 3bbc
000000f0: 3096 dbbb 35b0 58bc 31ea 70bb 9eae 95bc
0.0007450648 -0.0032701977 -0.01652535 -0.005168798 -0.015187963 0.0001704708 -0.0028845558 0.004358661
0.0019444362 -0.018044436 0.00017391324 -0.00018396357 -0.0017875703 -0.025942044 -0.0003069019 9.562394e-06
-0.007101115 -0.01601943 0.004160846 0.0005461342 -0.00042744036 -0.006948644 0.0020909668 -0.0025503687
-0.0028783276 -2.7416176e-05 -0.0023642753 -0.0030743526 -0.018675482 -0.0008532005 -4.4609453e-05 0.0028150696
0.0013177451 -0.0023773324 -0.0054175425 -0.000121527795 -0.0043103695 -0.00020153508 -0.0076076924 -0.0035659103
-0.0073220315 -0.0016699712 0.00022723699 -0.00066673325 -0.0058246376 -0.017945418 -0.00081554643 -0.0034604594
-0.003595977 0.00039239152 2.613519e-05 -0.00644196 6.404315e-06 5.3962478e-05 -6.384072e-06 -0.00053322717
0.0008308731 -0.021225572 -0.008469822 -0.011454195 -0.0067012534 -0.013225605 -0.0036760683 -0.01827174

weight f4 [64, 64]
00000000: c200 afbe 56bb 7ebe 4557 363e 316e b73d
00000010: 5f50 213e b0c1 053e e8ba 9a3d 55f5 f6bc
00000020: 95cb 27be 5eed 273d 05ca 66bd 4db6 49bc
00000030: 3ffc 5abe 4df0 213d dbd9 33be 78cf 71be
00000040: 9e55 5dbd b7dc e5bc e6c8 86bd 2a0c 303e
00000050: f573 9f3d dcb4 a7be 8144 00bd 7a05 81be
00000060: fc19 1dbe 13bf 7c3e 2d0d f23d bd5c 363e
00000070: c298 003c 4ac0 9d3d 0350 07bf 2c98 06be
00000080: 143f 263e 52df bebd d180 593d 63d0 83bc
00000090: 7f90 563d aaa9 18be b10f 003e 89d9 b1be
000000a0: 68ca 533c 3f04 8fbe 3184 e43d 7f7b e53d
000000b0: 05df 403d b60a 5b3e 30de 75bd 6206 44be
000000c0: 7338 443e ba55 7f3d 3197 813d bc05 1cbe
000000d0: 3068 33be 2921 09be 59fd acbe 6984 e6bc
000000e0: e106 593e 3318 e13d d89a 2ebe c54f d6bc
000000f0: ad02 253e 8d2b 983d 60f1 7e3e f0bd 9cbe
00000100: 13fa 5b3c 387a 84bd 7a4e 02be d2b8 39be
00000110: 4f83 253e 1db4 e6bd 9c17 cdbd 33fe 003e
00000120: 1ceb c2bd 1f52 8f3e 80c0 6ebd cecc 7d3d
00000130: 6d45 91be bfc9 c93d a29e 1b3e 46fc 30be
00000140: 90e4 9d3e 0fcb 14bd 124a 1bbe 4084 a1bd
00000150: 5b59 59be 73ff 65be 762b 78be 9e81 f5bd
00000160: a060 80be eca9 703c 8b32 5dbe 7a6d 86be
00000170: d18f ccbd aff3 9a3b d6d0 d93e 5bf3 213e
00000180: 31ee 25bd 8a82 d93b 049d 113d b2cd b0bd
00000190: 815c 193d 77b6 31bd 0fcb 8abe 6edc a43d
000001a0: e543 943d fa7e 25be 4530 0fbe eda0 653e
000001b0: d2db 65bc bd8b 0ebd ef2a 40bc f247 1cbe
000001c0: 3fd8 06be d955 403d c794 433d 336c c73d
000001d0: f035 4fbe f2b4 fd3d 0f55 d6be b04f 3cbe
000001e0: 9a89 14bd 397e debc 5ac3 033f 5a9f 02be
000001f0: feb9 5e3e c487 19be 311b 8e3e 85fe a83d
00000200: f6df d13d 9625 16be 6b7b f8be cb07 a63d
00000210: 560d a8bd acbc 98bd b9a1 653e 07ca d5bd
00000220: e071 e53d 9adc 02be 3c95 58bc 44a1 ebbd
00000230: c5b6 24be 7222 b23e 63cb 2e3e 9015 81bd
00000240: ff4a d13d 505b 1dbd ae7c 82be 98e5 803e
00000250: 1f47 9d3e 820f 6fbe 500e 55be 402d 523d
00000260: 51d0 fdbb dce7 b23e 2173 223e 51ee d4bc
00000270: 5d02 c3bd 7fa3 73bd 690e bf3c ff10 853e
00000280: 08e4 613c dc43 89be 4a00 613e f8a8 263d
00000290: 572c aabd 8276 003e bf75 0e3e b137 d2bd
000002a0: 1c7a 8abe 078a 803e 77fc 95bc 360c 3abe
000002b0: 08bf 393e dc17 fabd a19a c4bd 1be2 b5bc
000002c0: 09a1 52be b988 063e 5b54 33be d4a6 5f3c
000002d0: a205 bd3c d44c a3be 5d29 fb3d 65c8 1a3b
000002e0: 73f4 62be 678e 70bc 1a22 9c3d 7caa 7a3e
000002f0: 4087 8cbe e6ee 703d 53e8 7e3e acb0 0dbd
00000300: 0dd1 863e a8aa 73bd 8c80 32bd e879 653e
00000310: b00f babd 66fe 40bd 988c 963d e0af bfbd
00000320: 60fb 89be b0d2 a83d 9012 603e ec65 c43d
00000330: 1b9c 96bd aebd 933d 6f6b 3dbe 568b 72be
00000340: bb28 a0be 1956 0fbd 8dcb 34be 3967 5ebd
00000350: d884 d53c 6701 013e ece2 d1bd 4827 45bc
00000360: 9f43 303e 261c d8bd 4916 0a3e 6526 8a3d
00000370: 9425 90be 347c 88bd 36b4 2dbe f347 0ebe
00000380: 9fce a13e f358 eebc 788d 1d3e fd41 a63b
00000390: 393f e63e 76dd 8c3c 57b5 473e db4d 2d3e
000003a0: e5a7 803d 85c3 493e 6770 4f3e f740 08be
000003b0: 6d89 49be 355b d7bd ed00 5dbc af3f 38bc
000003c0: 7964 a7bd 20b9 05be 73ef 14be 234c aebd
000003d0: 8ff9 e1bc 33fe 223d 20fa d1be 4b75 c0bc
000003e0: 6815 e13d 1c07 c5be 33c4 3f3e 65cd d33d
000003f0: cbf3 0c3d c0ac d7be 8c04 20be 48f6 8c3e
-0.34180266 -0.2487615 0.17806728 0.08956564 0.15753315 0.13062167 0.07555181 -0.03014628
-0.16386254 0.040997855 -0.056345005 -0.01231153 -0.21385287 0.03953581 -0.17563574 -0.236143
-0.05403673 -0.028059347 -0.06581287 0.1719214 0.07785789 -0.32755172 -0.03131533 -0.2519949
-0.15341944 0.24682264 0.11818919 0.17808814 0.00784892 0.07702692 -0.52856463 -0.13143986
0.16235 -0.09319939 0.053101365 -0.016090577 0.052383896 -0.14908472 0.12505986 -0.3473628
0.012926675 -0.27932927 0.11158026 0.11205196 0.047087688 0.21390805 -0.060026348 -0.1914306
0.19162159 0.062337615 0.063276656 -0.15236562 -0.17520213 -0.13391556 -0.3378704 -0.02813931
0.2119403 0.10990944 -0.17051256 -0.026161084 0.16114302 0.07430182 0.24896765 -0.3061366
0.013426322 -0.06468624 -0.12725249 -0.1813691 0.16163372 -0.11264823 -0.10014269 0.1259697
-0.095175 0.2799234 -0.05828905 0.061962895 -0.2837328 0.09852933 0.15197232 -0.17283735
0.30838442 -0.036326464 -0.15164974 -0.07886553 -0.21225493 -0.22460727 -0.24235329 -0.11987613
-0.2507372 0.01468895 -0.21601312 -0.262554 -0.09988368 0.0047287564 0.42542142 0.15815489
-0.04051036 0.006637876 0.035550132 -0.08632983 0.037441734 -0.043386903 -0.27108046 0.08049856
0.07239512 -0.16161719 -0.13983257 0.2242467 -0.01402946 -0.034801234 -0.011728986 -0.1526182
-0.13168429 0.04695687 0.047749307 0.09737434 -0.2023542 0.12388028 -0.4186177 -0.18389773
-0.03626404 -0.027159797 0.5146996 -0.127561 0.21750638 -0.14993197 0.2775512 0.08251671
0.10247795 -0.14662775 -0.4853166 0.08106955 -0.08205669 -0.07457861 0.22424974 -0.10438924
0.112033606 -0.12779465 -0.013219174 -0.11505368 -0.16085346 0.34791905 0.17069773 -0.06302941
0.102193825 -0.03841716 -0.25485748 0.25175166 0.30718324 -0.2334576 -0.20806241 0.051312685
-0.0077457805 0.3494252 0.1586423 -0.025992544 -0.09521935 -0.059482094 0.023322301 0.2598953
0.013787277 -0.26809585 0.21972767 0.040688485 -0.083092384 0.12545207 0.13912104 -0.102645285
-0.27046287 0.25105307 -0.018308861 -0.1816872 0.18139279 -0.12211582 -0.095998056 -0.022202542
-0.20569243 0.13138093 -0.17512648 0.013650615 0.023073975 -0.31894553 0.12263749 0.002361798
-0.22163562 -0.014682389 0.07623692 0.24479097 -0.27446938 0.05882158 0.24893312 -0.034592316
0.26331368 -0.059488922 -0.043579623 0.22409785 -0.090850234 -0.047117613 0.07351035 -0.09359717
-0.26949596 0.082433105 0.21882081 0.095897526 -0.073539935 0.07213913 -0.18498014 -0.23685965
-0.31281075 -0.03499422 -0.17655773 -0.05429766 0.026064321 0.12598191 -0.1024836 -0.012033291
0.17213295 -0.10552244 0.13485064 0.067456044 -0.2815367 -0.06664315 -0.16963276 -0.13894634
0.31602952 -0.029095149 0.15385997 0.0050737844 0.4497011 0.017195445 0.1950277 0.16924231
0.06282023 0.19703491 0.20257722 -0.13306032 -0.1968133 -0.10515443 -0.01348899 -0.011245652
-0.081734605 -0.13058901 -0.14544468 -0.08510616 -0.02758482 0.039793205 -0.41011143 -0.02349343
0.10990411 -0.38481987 0.18727188 0.1034191 0.034412187 -0.42123985 -0.15626734 0.27531648

bias f4 [64]
00000000: d13f 2dbc b36e 70bb 2e49 2637 7f9c 3bbb
00000010: 4277 dfbb a3de e9bb bcd2 a0b7 3128 3fbc
00000020: baee b0b9 c2a4 3bb9 635d f0ba 4523 a7b8
00000030: c03c ddba baf2 3cbc c5dd 2e3b 7ee3 c9bb
00000040: 1ebd 20bc 3f1d a8bb 3b49 95bc f542 04bc
00000050: f4d5 a036 7d3a fdbb 87d2 9abc 777b edb8
00000060: a08d 41bc dd4c 2a3a d36b 2d3a 2214 ddbb
00000070: f33a bfb9 b9f4 a2ba b3a2 aebc 9806 30bc
00000080: 551d 7dbc 0fee b2bb dc57 7cbc 8e83 02bb
00000090: fa8a 89bb 0a3e 18bc 3424 193b 9a0a 95bc
000000a0: 2f35 a238 848e 9c3a 8e3e 8ebc 532a 6dbb
000000b0: 9b19 21ba 6398 0ebc 808b 1fbc 2ca3 b9bc
000000c0: 6192 a4bb 2382 a7bc 31bb 29bc 6897 03ba
000000d0: 4453 52b8 9903 c7b8 7f95 d6bb e2fb d9b7
000000e0: 8eae c93a 63ba 0cbb d407 02bc e881 7abc
000000f0: ccea c4bb 89ef 5bbc 5508 69ba ab17 a3b9
-0.010574297 -0.0036687076 9.9114095e-06 -0.0028627214 -0.0068196366 -0.007137136 -1.9171617e-05 -0.011667297
-0.000337472 -0.00017895087 -0.0018338378 -7.96975e-05 -0.0016879067 -0.01153248 0.0026682478 -0.0061611524
-0.009810714 -0.0051304395 -0.018223396 -0.008072604 4.793279e-06 -0.0077279196 -0.018899215 -0.00011324038
-0.011813551 0.0006496439 0.00066154933 -0.006746785 -0.0003647428 -0.0012432552 -0.021317815 -0.01074376
-0.015448888 -0.0054605077 -0.015401807 -0.0019914838 -0.0041974755 -0.009292135 0.0023367526 -0.018193532
7.734668e-05 0.0011944328 -0.017363813 -0.0036188557 -0.0006145478 -0.008703324 -0.009737849 -0.022660814
-0.0050223325 -0.020447796 -0.010359571 -0.00050198147 -5.014545e-05 -9.4897296e-05 -0.006548583 -2.5985708e-05
0.0015387104 -0.00214734 -0.007936437 -0.015289761 -0.0060094353 -0.013423809 -0.0008889486 -0.00031107417

weight f4 [64, 119]
00000000: 8ed6 01be 72df 24be 9bc4 373e fb35 93bd
00000010: bafd 09be e927 93bd 0e17 f739 b95b a4bd
00000020: 057f e13d d765 143d 3e56 15be f32e e53c
00000030: 18b6 06be 2584 3b3d e688 073e 2181 17bc
00000040: 5e8a 0dbe 55a9 0f3b af14 f63c 2926 55be
00000050: 7b8d 6ebd efb0 d73d 533e 89be 0148 ef3c
00000060: 4f04 af3d 5fd4 333e 92c3 883d f62c 293d
00000070: de9d eabd 3c71 023e a601 833c 68ed c0bd
00000080: 5bc0 80bd 8997 a1be 8360 d1bd d4db 53be
00000090: 6e5f a93d 64b0 1bbe 8542 98bd 9294 52bd
000000a0: 0aeb 4cbe 9dc3 50bd 5183 243e 2352 fe3d
000000b0: d609 58be 1082 193e b86e 52be f4c5 f33d
000000c0: 3f8b 503e 72e1 3cbe 27fa cc3d fc3e 123d
000000d0: c97f 25be 509e 333e bcb6 f3bd 0cbb 18be
000000e0: 0a00 c4bc a8b0 dcbd 8726 01be f792 793c
000000f0: e75a bf3d 4a91 cf3d f35b 033e db5e 8e3d
00000100: 17f0 8e3d 19db 84bb 975e bebc 8682 28be
00000110: 7f7f 913d 6e9b 113b 9eb6 913c 6c87 dd3c
00000120: aefd 5e3d 7cd0 5e3c bbe2 173e 32ab 403e
00000130: 1f78 183d 6915 163c 2cd4 8c3e 7383 af3d
00000140: e70b 1dbc 1df7 c33d 4181 fb3d 52bf 92bd
00000150: 1db1 25be 24bb 14bd 942b a9bd 205d 1ebe
00000160: a65c abbd eed1 37be 5ede 593d 909d 32bc
00000170: c525 483d afe8 1dbe b17b e9bd 1337 eb3d
00000180: ca00 ad3e 8cbc 553e 0716 0ebe 4ff0 e9bd
00000190: e05f fc3c 2bb2 6ebd b139 ca3d 6f5b 8ebd
000001a0: de8d 37be 9862 aabd d749 11be ec7c 8d3d
000001b0: d9f7 00be d8db 5e3e 91af 02bd 3772 393d
000001c0: 8474 81be 0373 ffbc 43be 03be 4c5d c2bc
000001d0: f20d d6bd 200c a43e 52a8 17be 100b a93d
000001e0: 42e6 883c d61b 6abe b0ed cb3d ad19 2a3b
000001f0: c4e3 883c 4469 1bbe e1dd d5bc c0ff 283e
00000200: a5e8 60bd 7025 1cbe 7196 d8bd 210a fcbc
00000210: 983f 0abe 83bf 813d 3028 233d 1dbd abbd
00000220: 58b2 41be ddee 163e c35b 553d ecbf 0b3e
00000230: c58f 233d ba30 9ebd 895c b93c e0a7 edbd
00000240: 18e8 4bbe 99a2 f53d 8178 2d3d 9eec 533d
00000250: 2cf8 17be 0a32 e3bd 7d3b 203c 0471 253d
00000260: 292e 0d3e e9a1 893d e5e3 2a3d d413 02be
00000270: 88c8 da3d a66b b3bc b909 cfbd 43f4 a7bb
00000280: 7bfa 55be 52bb 2cbc a79a 73be c943 bdbd
00000290: e1c3 0ebc 9256 74bd bf86 94bd d86d 4fbe
000002a0: 4771 8dbe 3166 78bc 4746 9abe 2df5 b0bc
000002b0: c9e4 92bc afa7 3d3e 6250 25bd f253 6ebe
000002c0: 6cd4 bd3d 67cb b13d c551 7cbc a5da 523d
000002d0: 7b1c 13bd e5b2 9e3e aa20 75bd 7d1e 0ebe
000002e0: 6db6 99bd 5cf5 0bbe c47b a1bd 791a bbbd
000002f0: 080f 983d 5476 343e e5c3 a03d e190 35bd
00000300: 3370 b0bd 817f 5dbe 07d8 e03d 92ac 303e
00000310: 8b37 e43d 3bf4 65bd bdd7 5dbb 1861 6ebb
00000320: bab1 b3bd 3ce1 99bd 738b 0e3e 525a b8be
00000330: 68a8 61bd ff49 84be d21e f4bc 5047 f93d
00000340: d673 0dbc 5908 a1bc 07b4 3abd eedd 9bbe
00000350: 1f06 753d 247b 0fbd fbb6 353c 49c2 343e
00000360: de80 bc3e 2cb8 2dbe 9b8d 183e 3b6a 33be
00000370: be46 033d c48a 54bd 8852 ab3c 8e20 0abc
00000380: 2d54 e8bd 70ba 483e 14a7 393e 6bf4 a5bd
00000390: 1cc2 f1bd d280 133d 20e9 f9bc 483f 4dbe
000003a0: 34eb ac3d 5f36 4cba e25f 463c 6f07 223d
000003b0: 6cd4 853d 07af b2bd aff1 0abe 71cb 45be
000003c0: 27db 853c a065 1b3d 865c b9bd 06e9 52be
000003d0: 6b88 013e 72f5 54bc 1fb0 acbc 7483 14be
000003e0: 2192 0a3e 9d3c 033d 17d2 b7bc 830e ed3a
000003f0: 05fc 66be 0eff 16be c6a9 1fbd 1ade 18be
-0.12679502 -0.16100863 0.17946093 -0.0718803 -0.13475695 -0.07185347 0.00047128688 -0.08025307
0.11010555 0.036229935 -0.1458368 0.027976489 -0.13155401 0.04578032 0.13235816 -0.009247095
-0.13822314 0.0021920998 0.03003916 -0.20815338 -0.058240395 0.10531794 -0.26805362 0.029209139
0.08545744 0.17561482 0.06677927 0.041302644 -0.11455892 0.12738508 0.015991997 -0.09420282
-0.06286689 -0.31560925 -0.10223486 -0.20689327 0.08270155 -0.15204006 -0.074345626 -0.05141122
-0.20011535 -0.0509678 0.16065718 0.1241801 -0.21097502 0.14991021 -0.20550048 0.11902991
0.20365618 -0.18445376 0.1000865 0.035704598 -0.16162027 0.1754086 -0.11900088 -0.14915103
-0.0239258 -0.10775882 -0.12612353 0.015232793 0.0934351 0.101351336 0.12828045 0.06951686
0.06979387 -0.004054439 -0.023238463 -0.1645604 0.07104396 0.0022217887 0.017787274 0.027042113
0.054441147 0.013599511 0.14832585 0.18815306 0.03722393 0.009160378 0.27505624 0.08569994
-0.009585357 0.095686175 0.122805126 -0.07165398 -0.16180845 -0.036311284 -0.08260265 -0.15465212
-0.08367281 -0.17951176 0.05319058 -0.010901824 0.048864145 -0.15420793 -0.114005454 0.11485114
0.33789665 0.20872706 -0.1387559 -0.11422788 0.030807436 -0.058275383 0.09874285 -0.06951033
-0.17925212 -0.083195865 -0.14188324 0.069085926 -0.12594546 0.21763551 -0.031905714 0.04527494
-0.25284207 -0.031182772 -0.12865548 -0.023726128 -0.104518786 0.320405 -0.14810303 0.08254063
0.016711358 -0.22862181 0.09957445 0.0025955245 0.01671017 -0.15176874 -0.026106777 0.16503811
-0.054909367 -0.15248656 -0.105755694 -0.030766549 -0.13500822 0.06335356 0.039833248 -0.0838568
-0.18915689 0.14739557 0.052089464 0.13647431 0.03993203 -0.077241376 0.022627132 -0.11604285
-0.19912755 0.11993904 0.04235125 0.051739328 -0.14840764 -0.110935286 0.009779808 0.040390983
0.1378714 0.06720335 0.041721243 -0.12702876 0.106827796 -0.021901917 -0.10109276 -0.005125554
-0.20896332 -0.0105427075 -0.23789464 -0.092414446 -0.008713693 -0.059652872 -0.07252263 -0.20256746
-0.27625486 -0.015161083 -0.30131742 -0.021601284 -0.017931359 0.18520997 -0.040359862 -0.2327421
0.09269032 0.08681374 -0.015400355 0.051478047 -0.035915833 0.3099586 -0.059845604 -0.13878818
-0.07505498 -0.13667816 -0.078849345 -0.09135909 0.07424742 0.17623264 0.07849864 -0.04432762
-0.0861515 -0.2163067 0.10978704 0.1725333 0.111434065 -0.05614112 -0.0033850514 -0.003637379
-0.08774133 -0.07513663 0.13920383 -0.3600641 -0.055092245 -0.25837705 -0.029799853 0.12171805
-0.0086335745 -0.0196573 -0.045581844 -0.30442756 0.05982029 -0.035029545 0.011090989 0.17652239
0.36817068 -0.16964787 0.14897768 -0.17520992 0.032049887 -0.05189015 0.020913377 -0.008430613
-0.1134418 0.1960237 0.18130141 -0.0810326 -0.118046016 0.036011524 -0.03050667 -0.20043671
0.08443299 -0.00077900843 0.012107821 0.03955787 0.06534657 -0.0872479 -0.13568757 -0.19315888
0.016339852 0.037938714 -0.090508506 -0.20596704 0.12649696 -0.012997972 -0.021080075 -0.1450327
0.13532306 0.032040227 -0.022439046 0.001808599 -0.22557075 -0.14745733 -0.038980268 -0.14928475

bias f4 [64]
00000000: 7c74 e4bc 5e68 f4bc 12b3 29bd 4313 43bd
00000010: 4c47 bdbc c89d 6abd 5907 e2bb d05f 81bd
00000020: 9756 f9bc e3d5 62bd 74e1 d6b9 9f8c 62bd
00000030: 6edf 7d3c 5049 bcbc dbb4 11bd 552a 2fbb
00000040: 8e74 7d3c 6709 843c b6bd 58bd faf5 983b
00000050: 1a16 27bd 3e48 28bd 6d43 08bb 4891 683b
00000060: 1fa8 44bd f949 e8bb e04b 08bd 7831 1bbd
00000070: 1408 78bd f8df 6bbb 9962 f5bc ae77 06bd
00000080: 7341 21bd e91c 66bd 0936 8fbc 7d55 04bd
00000090: 175a 9fbd f748 28bc acc0 b1bc 7035 94bc
000000a0: b39c 96ba c254 56bb 195b d2bc b5c5 0bbd
000000b0: 2982 fcbc eacc afbb ba5a 11bd 6760 a5bc
000000c0: 12db 8fbc 6269 51bc 5728 c8bb fe33 82bc
000000d0: 0099 f1bb b610 31bd 44da 3fbd 36b5 04bd
000000e0: f713 c9bc 3a41 cfbc 4426 eebc 8adc 96bc
000000f0: d206 18ba 06c1 1abc 545d b0bb b66e bebc
-0.027887575 -0.029834922 -0.04143054 -0.04762579 -0.023105286 -0.05727938 -0.0068978486 -0.06317103
-0.030436797 -0.05537976 -0.00040985236 -0.055309888 0.015495164 -0.022984177 -0.035572868 -0.0026728113
0.015469683 0.016117765 -0.052915297 0.0046679946 -0.040792562 -0.04108452 -0.0020792142 0.0035486985
-0.048011895 -0.0070888964 -0.033275485 -0.037888974 -0.06055458 -0.003599165 -0.029954242 -0.03282898
-0.039369058 -0.056179915 -0.01748182 -0.03230809 -0.07780855 -0.010271302 -0.021698318 -0.018091887
-0.0011490792 -0.0032704328 -0.025678204 -0.034124095 -0.030823784 -0.005365004 -0.035486914 -0.02018757
-0.017560516 -0.012781473 -0.0061083245 -0.015893932 -0.0073729753 -0.043228827 -0.046839014 -0.03239938
-0.024545653 -0.025299657 -0.02907098 -0.018415708 -0.0005799356 -0.009445434 -0.0053822193 -0.02324615

weight f4 [64, 64]
00000000: 2104 06be 90b2 d9bb 2e06 60be bb84 8e3d
00000010: 68d8 60be b3a9 0f3e be50 febd 461b c23d
00000020: 740d 45bd fa74 48bb b464 473e 33d7 19be
00000030: 7b37 6ebe 5124 853e 5746 c73d 7694 913c
00000040: e61c 91bd 03e5 dcbd 9fe0 7f3d 54d5 a03d
00000050: ef15 573e 63f2 34be 8ba5 c23d cde6 f83d
00000060: 6795 bbbe ecd1 103e d265 a83e 9d81 6e3d
00000070: 5183 a7be 4fd1 c43e 5528 02be dbe9 093e
00000080: 0b4f 55bb c5e1 8b3e 93e5 22bd 6804 52bd
00000090: a925 f73d 853f 9a3b bd8a 0b3e 18c4 b63e
000000a0: b242 27be 5752 513e 7b35 25bd 9c42 9abd
000000b0: 88d8 773e d684 213e 8a1e 673e 4fd6 17bd
000000c0: 41e7 6bbe b572 8b3e f55a 83be 65b1 93bd
000000d0: 1a12 e3bb da89 bc3c e206 353e e705 08bc
000000e0: 640f 1ebe d73f 673c 5bf8 d63c 0f2b 9bbd
000000f0: 6f5b 05be 8164 9a3c a715 7c3d 424e f1be
00000100: f227 e23d 0bb2 353e 3054 1d3d a902 8c3d
00000110: a525 0fbc 1169 6d3e 20df 833d 3d63 06bd
00000120: 3bf1 fe3d 0973 33be 7af5 d8bd f084 81be
00000130: 317f ec3d b6f4 583d e841 54be 5f07 f4bd
00000140: bb30 ab3d be75 323d 41b3 823d f7a5 bc3d
00000150: 652a cdbd c95b 573e 79a2 bebd 6df0 96be
00000160: ed22 a6be cad3 46be 063d 133e 45db 83be
00000170: 7227 21be de1b 1bbe 3ff3 1dbe b4b5 c7bd
00000180: f58d c8be 58ae 2cbe ec23 08be 9c4b e4bd
00000190: d1f5 f33d d1a0 4b3e 4f29 c53d 439b 43be
000001a0: c71a a93d 52f4 6f3e 4157 a03c 8dbd 78bd
000001b0: e886 18be f490 da3d a32a 8abe 5618 aa3e
000001c0: 7822 c63d 9ee2 fc3d f64c 65bd afaf b2bd
000001d0: 58e3 39be 1e46 03be bc05 593e 5710 023e
000001e0: 5954 813d aecf 7dbe cdc2 f3bd 8719 e5bd
000001f0: 0a51 debd 760e a9be fff3 6e3e 9932 4bbe
00000200: c3c4 8b3c 70e6 983d 931a 7fbc 9973 ffbc
00000210: 411f 113e 28bd d53e 0ad7 3fbe 56a9 943e
00000220: 2a0c 0fbe acd5 d43d 61e8 aebd dd41 4e3c
00000230: 6730 9b3c 14f7 ec3d 9b81 9d3d a979 10be
00000240: 8f0a 643d 0713 893c 0151 4b3c f24e 3e3e
00000250: bd8a 7d3e 3020 bcbe 571d bf3d 3560 06be
00000260: b62e 52bd f6e8 45bc f02e afbd b7e6 fdbc
00000270: fd84 8e3e 1281 ecbd 4288 4f3e 379b 1c3b
00000280: 0f6c 033d bf21 e6bd e1c2 b63e be30 d7be
00000290: b8c7 2b3e 06d9 f0bb a711 86bc 757c 5e3e
000002a0: f73e fdbd 120e 963e 3b94 ffbd a540 1cbe
000002b0: 4e19 a0bd 150f be3d bd04 0ebe 2f0a 383e
000002c0: 7775 2e3e 1cc5 213e 9439 be3d 3334 6f3e
000002d0: 3aad 3b3e 20c4 503e d09b c8bd 8001 d43b
000002e0: 5f97 ed3d c291 3bbe 1908 073d dcf6 3ebe
000002f0: 1625 453e 9751 cabd c4c2 f5be 7994 ad3d
00000300: 8f40 d43d 3b1c 3c3e 4dfc a13b c2ff 45bd
00000310: 2f68 fabd 9c12 553e ff74 b9be 445a 2f3e
00000320: 1e57 2ebe e72a a83d 2c77 f9bd 1690 15be
00000330: 6a20 10be e3ac 14be b421 cd3c 3dca 673d
00000340: dfb7 f43e 13ca 21be dfc7 b4bd b06d c0be
00000350: f9a7 623e 0892 093e b3c0 033e dea4 d0bd
00000360: 8665 bfbc 0d04 093e 75d6 7fbe 0dcf d83d
00000370: a8b0 5dbe 6df6 2bbe 194d 8bbd 09b4 1dbc
00000380: f809 63bc 4788 b1bd 39e9 5abe c019 8cbe
00000390: 134d c53d b096 b13d 679f 99be 0611 95bd
000003a0: 5b3e 353e 8c1b 73be f5e3 5cbe a197 783e
000003b0: b7d7 0cbe f9db 4e3e c162 6fbd 005c 88be
000003c0: 873e 103d 81f0 423e afc7 023d ad05 1f3e
000003d0: 3ac4 193e 5523 a9bc 58d6 25be fd5e 0a3e
000003e0: b0cf c73d 9bd2 e63d 911f 483d df51 803d
000003f0: b0b8 4abd 882d 9a3e 81e4 8b3e 1fc7 63be
-0.13087513 -0.0066436008 -0.21877357 0.0695891 -0.21957552 0.14029579 -0.12417744 0.09477858
-0.048108533 -0.0030587302 0.19472009 -0.15023498 -0.23263352 0.2600427 0.09730213 0.017770987
-0.0708559 -0.10785868 0.062470075 0.07853189 0.21004461 -0.17670588 0.09504231 0.12153397
-0.36637422 0.14142579 0.32890183 0.058229078 -0.32717374 0.3844094 -0.12710698 0.13468115
-0.0032548334 0.27320686 -0.03976972 -0.051273733 0.1206773 0.004707279 0.13627143 0.35696483
-0.16334036 0.20441566 -0.040334206 -0.07532236 0.24203694 0.15773329 0.22570243 -0.037069615
-0.23037435 0.27235952 -0.25655332 -0.0721157 -0.006929648 0.023014951 0.17678407 -0.0083021885
-0.15435559 0.014114342 0.026241472 -0.07576572 -0.1302316 0.018846752 0.061544087 -0.47130018
0.11042775 0.17743699 0.038410366 0.06836445 -0.0087370025 0.23184611 0.06439042 -0.032809485
0.12448355 -0.17524351 -0.10593696 -0.25296736 0.11547697 0.05296775 -0.20728266 -0.119154684
0.08358904 0.04356932 0.06381846 0.09211343 -0.10017852 0.21031107 -0.09308333 -0.29480305
-0.3244852 -0.19416729 0.14378747 -0.25753227 -0.15737703 -0.15147349 -0.15424822 -0.09751454
-0.39170805 -0.16863382 -0.13294953 -0.11147234 0.1191212 0.19885565 0.096270196 -0.19102196
0.082570605 0.23433045 0.019572856 -0.060727645 -0.14895213 0.10672179 -0.26985654 0.33221692
0.09674543 0.12347911 -0.0559816 -0.08724915 -0.18153131 -0.12819716 0.21193594 0.12701546
0.06314916 -0.24786255 -0.1190239 -0.111865096 -0.10855301 -0.33018845 0.23335265 -0.1984352
0.017061597 0.074658275 -0.015570301 -0.031183051 0.14172079 0.41745877 -0.18734375 0.29035443
-0.13969484 0.10392317 -0.085404165 0.012588945 0.018943978 0.11570564 0.07690736 -0.1410891
0.055674132 0.016732706 0.01240945 0.18584803 0.24759956 -0.36743307 0.09331768 -0.13122638
-0.05131408 -0.012079468 -0.085538745 -0.030993802 0.27835837 -0.11548056 0.20266822 0.0023896226
0.032085475 -0.11236905 0.35695556 -0.42029375 0.16775405 -0.00735009 -0.01636584 0.21727164
-0.12365525 0.2930761 -0.124794446 -0.15259035 -0.078173265 0.092802204 -0.13868995 0.17972635
0.17036997 0.15797848 0.09288326 0.23359756 0.183278 0.20387316 -0.09795344 0.0064699054
0.11601137 -0.18317321 0.032966707 -0.18648857 0.19252428 -0.09878843 -0.48000157 0.084755845
0.10363876 0.18370144 0.0049434067 -0.048339613 -0.12226903 0.2080788 -0.36222073 0.17124277
-0.1702542 0.08211308 -0.12180933 -0.14605746 -0.14074865 -0.14519076 0.025040485 0.056589354
0.47796533 -0.15799741 -0.08827185 -0.37583685 0.22134389 0.13434613 0.12866478 -0.10187696
-0.02336384 0.13380452 -0.24984153 0.10586367 -0.2164942 -0.16793223 -0.068018146 -0.009625443
-0.013857357 -0.08668571 -0.2137803 -0.27363396 0.09633841 0.086713195 -0.30004427 -0.072786376
0.17699568 -0.23740977 -0.21571334 0.24276592 -0.13754164 0.202011 -0.05844379 -0.2663269
0.03521588 0.19037057 0.031928714 0.15529509 0.1501626 -0.02064673 -0.16195047 0.13512798
0.0975641 0.112706386 0.04885823 0.06265616 -0.049492538 0.30112863 0.27322772 -0.22243927

bias f4 [64]
00000000: c2bc bcbc cb53 0a3d f726 c1bc 5b15 8abc
00000010: 5872 aebc 4ffa 7cbb ccad a5bc 7958 bfbc
00000020: 047e 6d3a 6d6a 34bc daae 523b 3c86 acbc
00000030: 0adf e13c ef3d babb f9e5 8a3a fd87 093c
00000040: 2973 27bc 36ea 1f3b 4608 22bc 341c 59bd
00000050: b2c1 92bb a946 61b9 6707 e8bb e8a2 7ebc
00000060: e081 13bc 9bd7 6d3b a108 37bd 32b0 dcbb
00000070: 62ff 1fbd f9ee 90bc c3e8 4abc 6778 83bd
00000080: d125 253c 73fa e3bb 3292 61bd c9b8 70bc
00000090: 3ed6 43bb d15a 18bd cadc 623b 1539 17bb
000000a0: 45f8 8f3c 615c 36bd f5f8 43ba 41c2 00bc
000000b0: 1dea fcbc aa63 42bc 0a39 4cbc 514f c7bc
000000c0: a84f b83c 8ab2 a1bc 940d 343c e71f 233b
000000d0: 2440 f0bc e7d0 9fbc 6dce 6dbd a32d 9cbd
000000e0: 5318 5dbc f3e9 a3bc 7411 64bb 0c60 2bba
000000f0: bf1a 94bd 096f a7bc d7b4 82bc c85d 03bd
-0.023039225 0.033771317 -0.02357815 -0.016855886 -0.021294758 -0.0038601344 -0.020224474 -0.023357617
0.00090596103 -0.011011702 0.0032147677 -0.021060102 0.027572174 -0.0056836526 0.0010597102 0.008394239
-0.010220327 0.0024401075 -0.009889668 -0.053005412 -0.0044786567 -0.00021483995 -0.0070809606 -0.01554177
-0.009003133 0.003629184 -0.044685964 -0.0067348713 -0.03906191 -0.017692076 -0.012384596 -0.06419449
0.010079817 -0.006957346 -0.055071063 -0.014692494 -0.0029882337 -0.037195984 0.0034616464 -0.0023074795
0.017574439 -0.044521693 -0.0007475757 -0.007858814 -0.030873353 -0.011864582 -0.012464771 -0.024329813
0.02249892 -0.019738454 0.010989565 0.0024890841 -0.02932746 -0.019508792 -0.05805819 -0.07625892
-0.013494569 -0.020009017 -0.0034800442 -0.00065374444 -0.07231664 -0.020438688 -0.015955372 -0.03207186

weight f4 [1, 64]
00000000: 1bb3 a7ba f65d 4ebd cc58 9338 739d ffbc
00000010: 0400 96be 7e53 743d 1f70 c1ba a0ba 0b3e
00000020: b657 10be 622f 2bbd c182 c3bd e7ec 453e
00000030: a392 62bd 3366 08be 1d0a b93b fd3e 03bd
00000040: 492f 35bc 9683 a03c 25fe 383d 9daf 863e
00000050: 63af a1bd 3ed4 c83a d6c5 babb dbbf 333d
00000060: 15ba 78be f7aa 253e 496f 30be 09c8 003e
00000070: 9cc9 a63d d62b 273d af49 173c cc32 66be
00000080: 358b dc3a 66b0 883a 8d82 dabd 79e5 a13c
00000090: ab1c fd3d 3de7 093d 65ed 843d 08b5 2eba
000000a0: 58b5 9d39 718d fcbc 267d f83c c823 003d
000000b0: ab24 44be 9a46 56bc a7b7 1cba bb88 13bb
000000c0: 11ab 553d 335a 9abb e6ca 5a3d 1887 0b3e
000000d0: 6e13 6abe 6dd2 b2bd 7794 9dbe 00a1 84be
000000e0: 0791 15bb 5b54 cabd f598 65be 05da 30bd
000000f0: cc45 48be 2359 dc3d f8c6 66bc 238d 98be
-0.0012794466 -0.050382577 7.026046e-05 -0.031203007 -0.29296887 0.059649937 -0.0014758146 0.1364541
-0.14095959 -0.041793235 -0.09546424 0.19328652 -0.055315625 -0.13320236 0.0056469576 -0.032042492
-0.011058637 0.019593995 0.045164246 0.26305857 -0.078947805 0.0015322042 -0.0056998534 0.04388414
-0.24289735 0.16178499 -0.17229952 0.12576307 0.08143923 0.04081329 0.009233876 -0.22480315
0.0016826155 0.0010428547 -0.10669432 0.019762741 0.123589836 0.03366779 0.06490592 -0.0006664549
0.00030080485 -0.030829163 0.030333113 0.031284124 -0.19154613 -0.013078356 -0.0005978294 -0.0022511918
0.052165095 -0.0047104596 0.053416155 0.13625753 -0.22858974 -0.08731542 -0.30777332 -0.25904083
-0.0022822039 -0.09879371 -0.2242163 -0.04317667 -0.19557875 0.10759189 -0.014085524 -0.2979518

weight f4 [5, 64]
00000000: 00e2 79bc 5678 94bb 412b 25bb 163d 06bb
00000010: f3c9 afba f7a4 48ba 55c2 fcba 54a0 d5bb
00000020: 438c 58bb a364 b73b 0a5f 023c 3d9c 0639
00000030: ece2 e6bc b00d 9dbc b8b7 38bc 5f79 533c
00000040: fc02 20bb 0742 763b d7eb 85bc fa4f e6bb
00000050: 6d63 7eba 4c2d f8bb 17f0 803b 8382 b8ba
00000060: da4e 2a3c ceb5 d73b d00f 86bc 246c 863b
00000070: d004 80bb c9dc 7f3c fd27 88bc ad08 41bc
00000080: a22c ae3a e170 b83a 633c 47bc 1316 52bb
00000090: 18d5 583c 0895 17bc 5133 5bbc b30f 63bc
000000a0: 54a9 93bb c567 5e3b 6da7 e5b9 47eb 1ebc
000000b0: 312a 1a3b eb4c 98bc d5e6 e639 939b e8bb
000000c0: f32b 23bb 784a 53bc 4b65 8f39 1525 db3b
000000d0: 7efd 01bb 0427 07ba 9b0a 3dbc 3fd5 eaba
000000e0: 03fa 653b 6c34 ff3b c770 56bb 9ec9 c0bb
000000f0: fb9b 993a 38c9 47bc 156b 65ba 619a d63a
00000100: 920d 643a c747 5fbb b1f2 f83a 7baf 463a
00000110: af89 10bc 8dc0 9dbc 090c d0b9 fcf5 a63c
00000120: 04df 8cbc 40d9 00bb fa69 5cbc 50aa da3a
00000130: 0460 003d 51b1 1e3c 1717 1b3d 3428 3bbd
00000140: bac6 56bb 57fc 38bc 10e4 89bc fb94 59bc
00000150: cb72 3e3b a0db 693a a3ca d1bb e1d3 76ba
00000160: e270 d3bc e2f4 f5bc f74c 203d f180 d1bc
00000170: 0de3 8e3b fe2d 1cbc 6692 f43b 5694 2a3c
00000180: 92c3 43bd 92fa 833b c048 2c3c d7e1 4d3b
00000190: 064e 8abd f0ba ec3b e60a 583c 54e9 933c
000001a0: 607a 8d39 bd18 26bd 1146 273b 4fd2 833b
000001b0: ec52 45b9 b828 623c 93c6 dcbb 11ea 6dbc
000001c0: 1f5b c13b ab75 db3b 285a bebc 923c c4bb
000001d0: d100 9b3b 1331 42b9 98dc ab3c 56f4 053c
000001e0: 976b 68bc 7f8f 4cbc 81a9 22bc e235 3ebb
000001f0: 060f 25bb 1a4f 263b aa8d 223b e290 d8bb
00000200: fca8 68bc f959 e63b 517d 533a e751 5c3b
00000210: ed50 693b cd61 7b3b eef6 a13a 48a7 e7bb
00000220: 5ee0 ad3a 03d4 863b b031 4c3c bb73 083b
00000230: ed0e 88bc dba2 7fbc c537 32bc f010 f73b
00000240: a85f e439 4a80 263c 2c0a 46bc bd90 d63b
00000250: 83da 6e3a d598 12ba 0a2c d33a dcad fa3b
00000260: 53a1 b73b d8b4 86bb 77d0 21bc 8a06 b43c
00000270: f848 8bbb f9ff fc3b af1b 31bc e2b9 ddbb
00000280: 459c 343c 1a88 5abc e2f3 babb 4077 c83b
00000290: f911 693c 6852 ffbb c51d dabc dcd0 d2bb
000002a0: 093e d63b 672d e13b 847a a3bb e241 e43b
000002b0: 5db1 dbbb 15a0 7cbc 94c1 fc3b 90fa 1fbc
000002c0: 3f18 c63a 3cfd 83bc e3e0 203c a23a 59bb
000002d0: dce2 62ba 7b0c e73a b51b 10bc c21e 3abb
000002e0: 5527 a93c 8895 8b3b 78ad 9538 4835 d5bb
000002f0: aeaa 383b bbe6 e8bb 5caa 453c f045 06bb
00000300: e9e5 22bc ca8e 9e3b ffa0 8f3a 9bc3 0e3b
00000310: c392 4a39 7dc3 b63b 4d57 b939 17df 2cbc
00000320: 9210 5f3c f75b c3b9 c9b0 8fbb 8a39 1c3b
00000330: 4fd7 afbc 5af8 2ebc 2cd1 c4bc 04a2 1c3c
00000340: acc9 a53b 64b1 41bb d6fc 41bc 03e6 0ebb
00000350: 2855 9239 b771 4f3b cf52 68bb a055 373a
00000360: feed 293c e7ad 623c 3683 dbbc f449 c73b
00000370: bc05 0dbb f8e9 a5bc b7d1 a2bc 32f4 79bc
00000380: d089 863b a380 8a3b 4335 8fbc 3792 ba3a
00000390: 6473 9d3c 9b20 10bb 2560 bbbc 8ca7 8dbc
000003a0: e62f afb9 753d 873c 1e63 ac3a 0884 1f3b
000003b0: 1cb0 44ba 421e 7cbc ba55 88ba 5693 93bc
000003c0: 864e c83b 6e35 73bc 563f 923b 4055 4cbb
000003d0: 9c51 ad3b bae3 29bb 9daa 44bc 54a1 abbb
000003e0: f866 a4bc aa2f dc39 4d2b 84bb 07bc 1f3b
000003f0: 8768 b039 86bc c3bb 64db 6ebb 9bbd 2dbb
-0.0152516365 -0.0045309467 -0.0025202783 -0.0020483187 -0.0013411626 -0.0007653976 -0.001928399 -0.0065193567
-0.0033042587 0.0055967136 0.007957229 0.00012837439 -0.028184377 -0.019171566 -0.011274271 0.012907355
-0.0024415841 0.0037575976 -0.016347809 -0.007028577 -0.00097041467 -0.007573759 0.003934871 -0.0014076981
0.010394776 0.006582952 -0.016364962 0.004102247 -0.0039068237 0.015616604 -0.01662063 -0.011781854
0.0013288448 0.0014071726 -0.012160393 -0.0032056614 0.013234399 -0.00925184 -0.013378934 -0.013858723
-0.0045062695 0.0033936363 -0.00043803026 -0.009699649 0.0023523683 -0.018591365 0.00044041002 -0.007098624
-0.0024898022 -0.012896173 0.00027350555 0.00668777 -0.001983493 -0.0005155655 -0.011538173 -0.0017916335
0.0035091646 0.0077882316 -0.003272103 -0.0058834096 0.001171946 -0.01219397 -0.0008751613 0.0016372913
0.0008699532 -0.0034069882 0.0018993226 0.0007579249 -0.008821889 -0.019256854 -0.00039681818 0.020380966
-0.017196186 -0.001966074 -0.013453001 0.0016682837 0.031341568 0.00968583 0.037863817 -0.045692638
-0.003277226 -0.011290631 -0.016832381 -0.013280149 0.002906012 0.00089209713 -0.00640233 -0.00094157277
-0.025810663 -0.030023996 0.0391359 -0.02557418 0.0043605627 -0.00953245 0.007463741 0.010411343
-0.047793932 0.004027673 0.010515392 0.0031415129 -0.06753163 0.007224433 0.013186192 0.018055595
0.00026984792 -0.040550936 0.002552394 0.0040228735 -0.00018818275 0.013803653 -0.006737539 -0.014521138
0.005900755 0.0066973767 -0.02323635 -0.005988666 0.004730322 -0.00018519563 0.02097921 0.00817593
-0.014185808 -0.012485384 -0.009928108 -0.0029023816 -0.0025185957 0.0025376738 0.0024803677 -0.0066090683
-0.014200445 0.0070297685 0.0008067685 0.0033618154 0.0035601214 0.0038357854 0.0012356916 -0.007069502
0.0013265719 0.0041146292 0.012463018 0.0020820934 -0.01660868 -0.015602793 -0.010877554 0.007539861
0.00043558818 0.010162422 -0.012087386 0.006548016 0.000911154 -0.0005592232 0.0016111147 0.00765012
0.005603948 -0.0041109137 -0.009876362 0.021975774 -0.004250642 0.007720944 -0.010809823 -0.0067665437
0.011023586 -0.013338113 -0.0057053426 0.0061177313 0.014225476 -0.007791806 -0.026625523 -0.0064335894
0.006538157 0.0068718675 -0.0049889702 0.0069658617 -0.006704493 -0.015419026 0.007713506 -0.009764329
0.0015113427 -0.016111962 0.009819242 -0.003314652 -0.00086550205 0.0017627621 -0.008795668 -0.002839968
0.020648638 0.004259769 7.137185e-05 -0.0065065958 0.0028177905 -0.0071075833 0.012064543 -0.0020488463
-0.00994251 0.004838799 0.0010958015 0.002178407 0.00019318894 0.0055775032 0.00035350994 -0.010551236
0.0136147905 -0.00037261817 -0.004385088 0.0023838007 -0.021464972 -0.010679329 -0.024025522 0.009560112
0.0050594416 -0.0029555196 -0.011840066 -0.0021804578 0.00027910736 0.0031653473 -0.0035449748 0.0006993655
0.010371683 0.013835407 -0.026795965 0.006081814 -0.002151831 -0.020253167 -0.01987539 -0.015255975
0.004105784 0.0042267605 -0.017481452 0.0014234249 0.019220062 -0.002199209 -0.022872994 -0.017291807
-0.00033414288 0.016508797 0.0013152098 0.0024340171 -0.0007503049 -0.015388073 -0.0010401525 -0.018014591
0.0061128763 -0.014844282 0.0044631166 -0.0031178743 0.0052892696 -0.002592309 -0.012003568 -0.0052377377
-0.02006863 0.00041997182 -0.004033482 0.0024373548 0.00033647215 -0.0059734015 -0.0036446685 -0.0026510719

bias f4 [5]
00000000: ce7f 31bc 984e 883c 5720 5abc 5e46 44bc
00000010: abcd cbbc
-0.010833694 0.016639039 -0.0133133745 -0.0119796675 -0.024878344
