model/tiny-4/IA2C/model_agent0_seed5.pt (torch, 101825 bytes, 11 tensors)

weight f4 [64, 119]
-0.03456336 -0.06548639 0.1339189 -0.08238264 -0.023188204 -0.080472626 0.0150239095 0.040185723
-0.04467454 0.059167087 -0.02639327 0.16107047 -0.054452058 0.02148866 0.021763392 0.14654273
-0.034118515 0.17748024 0.020849422 -0.048922263 0.24293277 -0.03978378 -0.09881507 -0.119917355
0.16667922 -0.037766267 0.0072780396 0.057554495 -0.00030901923 0.22002622 0.3008742 0.0132099055
0.057942018 -0.20808254 0.15850474 -0.022025963 0.06047224 -0.0349934 -0.01010581 -0.010542791
0.091864936 -0.09256901 -0.07439734 0.014320117 0.00039047908 0.23630756 -0.118737556 0.08971861
0.06273493 -0.081647925 0.24793099 -0.04206222 -0.11007339 -0.028913265 0.23882236 0.070218846
0.10972752 -0.26166627 0.05065984 -0.13878624 0.093792945 -0.110967025 0.12089232 -0.044139717
0.10224367 -0.0960942 -0.24298199 -0.06810489 0.07653016 0.15625894 -0.08819705 0.10048454
0.11792128 -0.15846133 -0.28813186 -0.032218404 0.07938095 0.07044947 -0.24941285 -0.03642751
-0.12283578 0.16934396 -0.13866869 0.27499223 0.019066364 0.026442643 -0.077971466 -0.039960615
-0.14231472 0.29825976 -0.16761602 0.031624183 -0.12031672 -0.103479974 -0.0025627213 -0.041737746
-0.12561327 0.08173223 0.09304889 -0.27371582 -0.11366627 0.07230738 0.12024595 -0.07717726
0.13100961 -0.22561432 0.26449838 -0.04221513 -0.009656814 -0.0048888633 -0.16103686 -0.2591042
-0.24119543 -0.001044542 0.036314208 -0.14208682 -0.18883863 0.014737427 0.05420041 0.11241156
-0.0920405 0.23988432 0.31352055 -0.11679467 -0.024001231 0.013347984 0.088253886 -0.042251956
-0.04070495 -0.04913263 -0.074232735 0.059470512 -0.010673587 -0.3056653 0.15705265 -0.00493523
0.051787365 -0.084646694 -0.11177997 0.04769518 -0.3003835 -0.17851931 0.16704866 -0.035887156
-0.11359172 -0.12358591 0.06800858 -0.18983233 -0.025341352 0.24266708 0.07655389 0.018263234
0.05995746 0.21236247 0.19984113 0.08897961 0.13141517 -0.28298822 -0.033171047 -0.06174083
-0.03943772 -0.081670806 0.14939311 0.026749386 -0.101674266 0.2706746 -0.0413732 0.13287236
-0.033040725 0.02948207 0.07434408 0.0524841 0.10079121 0.041205455 0.12412632 -0.15049018
0.106424294 0.107495315 -0.13205962 -0.0041314047 0.116725095 -0.079841964 -0.19909652 -0.047875326
-0.1410987 -0.0051182224 -0.15243968 0.029868744 -0.17900522 -0.17346679 0.0034699766 -0.042046767
0.06535689 0.033802576 -0.09936348 0.04808804 0.18299942 -0.18773936 0.2217775 0.061457112
-0.23598151 -0.091549814 0.070282735 -0.27754292 -0.021923142 -0.049702276 0.03000932 0.17041999
-0.1756889 0.072005816 0.047408946 0.18451373 -0.27910036 -0.076279804 0.021220755 0.11885323
-0.110805176 0.017932525 -0.1286804 -0.15462406 0.063973375 -0.07253984 0.018556453 -0.027231866
0.056510136 -0.099217 0.19593799 -0.012438129 0.05051168 -0.11760107 -0.026973221 0.07991641
0.14788765 0.0008076821 0.054574367 0.005627486 -0.13086112 -0.119168565 -0.09748538 -0.3646813
-0.09930995 -0.19567652 -0.119526826 0.1702208 -0.22051679 -0.0444734 0.14348044 0.2638705
0.013131097 0.121902324 0.1668337 0.037843276 -0.03654317 -0.0003119043 0.22859414 0.09004943
00000000: 4f92 0dbd ba1d 86bd 0922 093e 3bb8 a8bd
00000010: 30f5 bdbc d5ce a4bd d826 763c c999 243d
00000020: a7fc 36bd 3059 723d b336 d8bc a8ef 243e
00000030: 1f09 5fbd fc08 b03c 2449 b23c 4c0f 163e
00000040: dbbf 0bbd 61bd 353e 68cc aa3c b662 48bd
00000050: 5ec3 783e 51f4 22bd 8e5f cabd 3b97 f5bd
00000060: f5ad 2a3e cdb0 1abd 9f7c ee3b 43be 6b3d
00000070: dc03 a2b9 8e4e 613e 2f0c 9a3e 5c6e 583c
00000080: 9c54 6d3d 9713 55be 114f 223e cb6f b4bc
00000090: bdb1 773d 3d55 0fbd d792 25bc acbb 2cbc
000000a0: af23 bc3d d294 bdbd a25d 98bd ed9e 6a3c
000000b0: 37b9 cc39 9cfa 713e ad2c f3bd 64be b73d
000000c0: 2c7b 803d 0737 a7bd 9fe1 7d3e 6f49 2cbd
000000d0: 286e e1bd 83db ecbc d98d 743e e6ce 8f3d
000000e0: d2b8 e03d 1ff9 85be b180 4f3d fb1d 0ebe
000000f0: 8416 c03d ae42 e3bd 6596 f73d d9cb 34bd
00000100: 2165 d13d 09cd c4bd 45d0 78be 947a 8bbd
00000110: d8bb 9c3d 5802 203e a8a0 b4bd d7ca cd3d
00000120: b680 f13d b043 22be 0586 93be 72f7 03bd
00000130: 7b92 a23d d047 903d 1566 7fbe 0335 15bd
00000140: 5391 fbbd 8168 2d3e 2aff 0dbe c8cb 8c3e
00000150: 1031 9c3c 3e9e d83c 81af 9fbd bead 23bd
00000160: f3ba 11be 81b5 983e 89a3 2bbe 5c88 013d
00000170: 9d68 f6bd 4fed d3bd 54f3 27bb 33f5 2abd
00000180: c4a0 00be 3a63 a73d 6b90 be3d 7b24 8cbe
00000190: ddc9 e8bd e415 943d 8243 f63d 1c0f 9ebd
000001a0: 6227 063e 7107 67be 556c 873e c6e9 2cbd
000001b0: 9d37 1ebc c232 a0bb d9e6 24be 4ea9 84be
000001c0: effb 76be 03e9 88ba 35be 143d 357f 11be
000001d0: ea5e 41be 4075 713c 4001 5e3d 0838 e63d
000001e0: bb7f bcbd 3ca4 753e c485 a03e 0b32 efbd
000001f0: 3b9e c4bc 81b1 5a3c 74be b43d 6310 2dbd
00000200: 3cba 26bd 4c3f 49bd 5507 98bd 5a97 733d
00000210: 45e0 2ebc 2a80 9cbe 69d2 203e b6b7 a1bb
00000220: fd1e 543d 3f5b adbd e6ec e4bd 055c 433d
00000230: decb 99be c4cd 36be ce0e 2b3e 69fe 12bd
00000240: c7a2 e8bd 9c1a fdbd 1548 8b3d 6863 42be
00000250: ab98 cfbc b87d 783e 49c8 9c3d c79c 953c
00000260: f495 753d 8c75 593e 27a3 4c3e f13a b63d
00000270: b391 063e d5e3 90be 5dde 07bd f4e3 7cbd
00000280: 7289 21bd 0643 a7bd 82fa 183e 8721 db3c
00000290: 993a d0bd dc95 8a3e f276 29bd b10f 083e
000002a0: b655 07bd 6284 f13c b641 983d 91f9 563d
000002b0: 9f6b ce3d 0dc7 283d f135 fe3d 191a 1abe
000002c0: fbf4 d93d 8126 dc3d a33a 07be bc60 87bb
000002d0: 910d ef3d 2f84 a3bd f5df 4bbe eb18 44bd
000002e0: 2d7c 10be c3b6 a7bb 2619 1cbe 4caf f43c
000002f0: 254d 37be 47a1 31be 8c68 633b 3b39 2cbd
00000300: d5d9 853d 9274 0a3d 157f cbbd f7f7 443d
00000310: 3364 3b3e bf3e 40be a419 633e 74ba 7b3d
00000320: 23a5 71be 787e bbbd 65f0 8f3d 1b1a 8ebe
00000330: 2998 b3bc 9d94 4bbd 1bd6 f53c 9482 2e3e
00000340: cae7 33be c977 933d e22f 423d 2bf1 3c3e
00000350: 3ee6 8ebe 9638 9cbd 26d7 ad3c 5269 f33d
00000360: d3ed e2bd 3be7 923c cbc4 03be c555 1ebe
00000370: 7904 833d c58f 94bd b403 983c 5d15 dfbc
00000380: 2c77 673d 4832 cbbd f8a3 483e 4bc9 4bbc
00000390: 56e5 4e3d d4d8 f0bd f2f6 dcbc 37ab a33d
000003a0: dc6f 173e a1ba 533a 5f89 5f3d c666 b83b
000003b0: 7500 06be a60e f4bd 6aa6 c7bd 82b7 babe
000003c0: 0463 cbbd 6d5f 48be 7bca f4bd 5d4e 2e3e
000003d0: 27cf 61be bd29 36bd 89ec 123e 091a 873e
000003e0: d023 573c eda7 f93d 74d6 2a3e 8d01 1b3d
000003f0: 4bae 15bd 1687 a3b9 9514 6a3e d66b b83d

bias f4 [64]
-0.00888577 -0.022170031 0.0003638479 0.0002171879 -0.00010098395 0.00059830514 -0.00050546415 -0.0037035348
-0.004237563 0.0 -0.006809992 0.00015043114 -0.016812336 -0.0015554641 -0.0016374937 -0.016294805
0.0032884136 0.008959754 -0.022139113 0.00025971778 -0.0132452035 -0.0018877725 -0.0021183442 -0.007913572
0.0012789433 -0.018609632 -0.002329547 -0.009905227 -0.004853422 -0.005748938 -0.025422318 -0.018468997
0.0021915794 -0.0057478603 0.00096900604 -0.0051228283 -0.0016427118 -0.012530211 0.00020868261 0.0023546247
-3.4356064e-05 -0.010105881 -0.0032598402 -0.024287201 -0.0016907309 -0.0005126543 -0.00092939264 -0.0013488762
-0.006985801 -0.00024841927 -0.0025493016 -0.00010498127 -0.00071416236 -0.003331005 -0.0001702981 -0.0011361177
-4.1380958e-05 -0.0004553714 -0.0010953211 -0.01595936 -0.0023201297 -0.0043369727 -0.0060344543 -0.0059752753
00000000: 9f95 11bc ed9d b5bc d7c2 be39 efbc 6339
00000010: 58c7 d3b8 94d7 1c3a 2081 04ba 01b7 72bb
00000020: 41db 8abb 0000 0000 5a26 dfbb 0dbd 1d39
00000030: 06ba 89bc b7e0 cbba 2ca1 d6ba af7c 85bc
00000040: 6d82 573b efcb 123c 165d b5bc bb2a 8839
00000050: 6902 59bc 226f f7ba ebd3 0abb eda7 01bc
00000060: 37a2 a73a 3a73 98bc 50ab 18bb 8949 22bc
00000070: 7409 9fbb 9661 bcbb 7742 d0bc 4b4c 97bc
00000080: 9aa0 0f3b 8c58 bcbb e504 7e3a 66dd a7bb
00000090: 4350 d7ba 844b 4dbc d0d1 5a39 0c50 1a3b
000000a0: 8b19 10b8 2393 25bc 0ba3 55bb f4f5 c6bc
000000b0: 849b ddba a663 06ba 7ca2 73ba c6cc b0ba
000000c0: 25e9 e4bb 453e 82b9 2f12 27bb 6429 dcb8
000000d0: a036 3bba fe4c 5abb 0c92 32b9 c9e9 94ba
000000e0: 7790 2db8 eabe eeb9 e190 8fba 34bd 82bc
000000f0: 510d 18bb 2a1d 8ebb acbc c5bb 3ecc c3bb

weight f4 [64, 64]
-0.097218595 -0.37273848 0.038409576 0.27887684 0.20244855 -0.015703095 -0.049998082 -0.08178612
0.15639684 -0.0631152 0.12714471 -0.18417203 -0.26600385 -0.076072626 -0.011777616 0.11387506
0.08563181 -0.1911856 0.18836096 -0.088089645 -0.06586501 0.23621626 -0.062237196 0.079657175
-0.03040787 0.2005923 -0.29014692 -0.2516796 0.02521283 -0.008316837 0.049693614 0.21718259
-0.13699359 -0.05671833 -0.18092795 -0.15678218 0.041270044 0.02062493 0.15690827 -0.05190269
0.3381422 -0.039855726 -0.09787337 0.20431696 0.3747821 0.037956487 -0.2814366 0.03682529
-0.049724605 -0.1302927 0.17094117 -0.058582135 0.008473736 -0.009308307 0.15428466 -0.35521048
0.039048843 0.18823816 -0.009057877 -0.30495074 -0.40962654 0.13965413 -0.098040834 0.35430926
-0.306263 0.042233575 0.054274615 -0.044146817 -0.19499052 0.1655932 -0.23104502 -0.17253841
-0.2732153 0.0066922912 -0.13124259 0.11862076 -0.42916718 -0.08261911 -0.09264053 0.33098263
-0.24565889 -0.2636398 0.2115635 0.051727977 0.09541911 0.052871242 0.08519727 0.013493894
-0.1509522 -0.2269315 -0.072955206 -0.024273392 -0.08450657 -0.19995719 -0.078143686 -0.22599024
-0.11255696 0.07944643 -0.13043845 0.17107347 -0.0056371368 0.0026402674 -0.09532343 0.062398158
0.15579842 0.0234443 0.0936591 -0.20265381 0.06494382 0.075585485 -0.021513032 -0.25914112
0.2787512 -0.04302731 -0.095826685 0.27642134 -0.032367688 -0.21159023 -0.37257826 -0.1953981
0.046572015 -0.09067717 -0.10788804 0.28835368 0.20961884 0.18210728 -0.3163723 0.23196523
0.0010945742 0.111134104 -0.23672241 -0.25269392 -0.024544047 -0.24615897 -0.082600445 -0.042224593
0.0029785638 0.03804033 -0.08561747 0.38165292 -0.057839625 -0.09749831 -0.17755277 -0.047240928
0.36815515 -0.12378944 0.09226811 0.1051285 0.15263087 -0.080712795 -0.22954397 -0.106615745
0.035427753 0.04309493 0.002776471 0.17241882 0.14547923 -0.27959955 0.27447045 -0.31518182
0.14525072 -0.18443787 -0.2195121 -0.09753613 0.19400811 -0.3207101 -0.12379968 -0.12903328
0.1541833 -0.101723924 0.14663367 0.13507937 0.2105452 -0.2046492 -0.14679107 -0.0671854
-0.0930497 -0.13487507 -0.16250879 -0.11363572 -0.044552267 -0.45674843 0.17186044 0.12350617
-0.03718007 0.39578393 0.08004212 0.07920474 -0.12438741 -0.0026180893 -0.012408212 -0.21031173
-0.07560177 0.002407505 0.18852578 0.007859432 0.20344868 0.17055905 0.045187667 -0.09660329
-0.0034275441 -0.2726029 0.17026065 0.075577 0.051210776 0.10073147 -0.24579914 -0.07402867
0.08527047 -0.21683551 -0.06472728 -0.020475369 0.11978671 0.117226355 -0.034947902 -0.3210595
0.13262482 -0.03937295 -0.29627842 0.39641243 -0.16931869 -0.013189451 0.22185716 0.1646251
-0.1431352 0.026712902 0.2835283 -0.19106007 0.13161701 -0.3256933 0.076641835 0.23583162
0.16451074 -0.1173083 -0.32261136 -0.05062449 -0.026789956 0.0952921 0.012261331 -0.07890528
0.16810763 0.33503154 0.3097094 0.30119318 0.08325561 -0.14771925 -0.29744357 0.113175444
-0.27375785 -0.0056392443 -0.046319243 -0.03842237 -0.038425338 -0.11217549 0.25473052 -0.12917075
00000000: 8b1a c7bd 94d7 bebe 5c53 1d3d f2c8 8e3e
00000010: ac4e 4f3e c7a3 80bc caca 4cbd 7b7f a7bd
00000020: 7e26 203e 8b42 81bd 3932 023e 9897 3cbe
00000030: a831 88be f7cb 9bbd e7f6 40bc 5437 e93d
00000040: bb5f af3d 28c6 43be b2e1 403e 5868 b4bd
00000050: 3ce4 86bd ade2 713e 6eec 7ebd 4d23 a33d
00000060: ed19 f9bc 1168 4d3e 238e 94be 26dc 80be
00000070: 238b ce3c 5843 08bc 888b 4b3d 1d65 5e3e
00000080: 0c48 0cbe 7b51 68bd 2d45 39be 828b 20be
00000090: c70a 293d 9df5 a83c 90ac 203e ea97 54bd
000000a0: f920 ad3e c23f 23bd d571 c8bd 7738 513e
000000b0: 70e3 bf3e 4378 1b3d 7518 90be 1ed6 163d
000000c0: 07ac 4bbd 736b 05be 340b 2f3e d2f3 6fbd
000000d0: 6dd5 0a3c df81 18bc ccfc 1d3e 26de b5be
000000e0: aef1 1f3d 81c1 403e 7d67 14bc 8122 9cbe
000000f0: 92ba d1be 7e01 0f3e a2c9 c8bd 0668 b53e
00000100: 81ce 9cbe 1dfd 2c3d 0f4f 5e3d 4bd3 34bd
00000110: 98ab 47be 4491 293e 1197 6cbe e9ad 30be
00000120: e0e2 8bbe 024b db3b 7564 06be 71ef f23d
00000130: cdbb dbbe 3534 a9bd 51ba bdbd 8e76 a93e
00000140: 018e 7bbe ccfb 86be 1aa4 583e b7e0 533d
00000150: 186b c33d 848f 583d e87b ae3d 7e15 5d3c
00000160: 3793 1abe bb60 68be 8a69 95bd fed8 c6bc
00000170: c811 adbd 94c1 4cbe cc09 a0bd fc69 67be
00000180: 4384 e6bd cfb4 a23d a891 05be e22d 2f3e
00000190: bbb7 b8bb 5608 2d3b ee38 c3bd 3695 7f3d
000001a0: 9f89 1f3e 430e c03c 58d0 bf3d 7b84 4fbe
000001b0: 4401 853d 90cc 9a3d 193c b0bc 25ae 84be
000001c0: 7ab8 8e3e 683d 30bd c840 c4bd 1987 8d3e
000001d0: fb93 04bd 1cab 58be 94c2 bebe 7116 48be
000001e0: 4cc2 3e3d f4b4 b9bd 68f4 dcbd 18a3 933e
000001f0: 52a6 563e 557a 3a3e 8dfb a1be 4b88 6d3e
00000200: d177 8f3a 479a e33d 5c67 72be 1961 81be
00000210: 9910 c9bc 1911 7cbe 6c2a a9bd b2f3 2cbd
00000220: 0234 433b 2dd0 1b3d 3658 afbd 0368 c33e
00000230: 3ee9 6cbd 32ad c7bd 65d0 35be b47f 41bd
00000240: d57e bc3e 5185 fdbd 10f7 bc3d 9c4d d73d
00000250: 444b 1c3e c04c a5bd 930d 6bbe 5b59 dabd
00000260: b11c 113d 4f84 303d 74f5 353b 8f8e 303e
00000270: 82f8 143e ac27 8fbe 6487 8c3e 835f a1be
00000280: 9bbc 143e 48dd 3cbe c8c7 60be 06c1 c7bd
00000290: 10aa 463e 1d34 a4be b08a fdbd 4d21 04be
000002a0: 3ae2 1d3e a254 d0bd 2327 163e 3f52 0a3e
000002b0: 2999 573e 8f8f 51be 6650 16be 8098 89bd
000002c0: d790 bebd b11c 0abe b468 26be d8b9 e8bd
000002d0: 707c 36bd eeda e9be 2ffc 2f3e cef0 fc3d
000002e0: 214a 18bd 31a4 ca3e 1fed a33d 1836 a23d
000002f0: d4be febd 4094 2bbb d04b 4bbc f55b 57be
00000300: 1ad5 9abd 3bc7 1d3b e70c 413e d9c4 003c
00000310: da54 503e 08a7 2e3e b416 393d f2d7 c5bd
00000320: a6a0 60bb 9b92 8bbe cf58 2e3e 1dc8 9a3d
00000330: 64c2 513d 4d4c ce3d c5b2 7bbe 589c 97bd
00000340: 49a2 ae3d 210a 5ebe bc8f 84bd f6bb a7bc
00000350: bc52 f53d 5f14 f03d 8825 0fbd e961 a4be
00000360: cdce 073e 8845 21bd ceb1 97be 92f6 ca3e
00000370: e161 2dbe 9118 58bc 862e 633e 7b93 283e
00000380: 0992 12be 04d5 da3c 9f2a 913e 40a5 43be
00000390: 9cc6 063e 46c1 a6be 65f6 9c3d d87d 713e
000003a0: 8175 283e 563f f0bd 512d a5be a05b 4fbd
000003b0: 9c76 dbbc 8128 c33d c0e3 483c 1799 a1bd
000003c0: 6824 2c3e 4189 ab3e 3b92 9e3e fe35 9a3e
000003d0: eb81 aa3d b743 17be 864a 98be 87c8 e73d
000003e0: fd29 8cbe 69c9 b8bb 3fb9 3dbd c660 1dbd
000003f0: e363 1dbd 43bc e5bd 0a6c 823e 5645 04be

bias f4 [64]
-0.0030005889 -0.00014762048 -0.0031812866 -0.0068977647 -5.341274e-05 -0.01869734 -0.016607419 -0.0145989675
-0.012492217 -0.010574866 -0.019660244 -0.001968355 -0.0018977486 -1.7068714e-05 -0.020292241 -0.010088885
-0.001719803 -0.0042745774 -0.006605189 -0.0105560785 -0.005412793 -0.002416805 -0.0057318625 -0.0071996655
-0.006530053 -0.020435385 -0.003668246 -0.0085683875 -0.00068559946 -0.0008544228 -0.0055907434 -0.009047992
-0.009325348 -0.017633967 -0.0030840067 -0.0028426347 -0.0054616574 -0.0029929695 -0.0073644845 -0.0020166563
-0.007952969 -0.018088294 -0.0024461364 -0.00019930326 -0.0064133196 -0.015630754 -0.0006795863 -0.01887062
-0.00010265591 -0.017719232 -0.010259971 -0.0004297818 -0.009796174 -0.023169985 0.00032158918 -0.0018531779
-0.008145725 -5.055399e-06 -0.016498799 -0.002701343 -0.0059176595 -0.016620858 1.6430891e-05 -0.0058934083
00000000: 87a5 44bb 92ca 1ab9 227d 50bb a506 e2bb
00000010: 7e07 60b8 2a2b 99bc 480c 88bc 8230 6fbc
00000020: 28ac 4cbc 3442 2dbc 850e a1bc 84ff 00bb
00000030: e0bd f8ba c92e 8fb7 ea3b a6bc da4b 25bc
00000040: 036b e1ba c111 8cbb 5770 d8bb 67f3 2cbc
00000050: cc5d b1bb 4263 1ebb 59d2 bbbb 2ceb ebbb
00000060: 0efa d5bb 1c68 a7bc f566 70bb 6c62 0cbc
00000070: cdb9 33ba 58fb 5fba 8e32 b7bb 073e 14bc
00000080: 58c9 18bc 1c75 90bc 0c1d 4abb 7f4b 3abb
00000090: b4f7 b2bb b225 44bb c651 f1bb e129 04bb
000000a0: 2b4d 02bc e72d 94bc 5c4f 20bb 10fc 50b9
000000b0: d326 d2bb 110c 80bc 4426 32ba 8f96 9abc
000000c0: f948 d7b8 ec27 91bc 7019 28bc 5654 e1b9
000000d0: 2280 20bc fbce bdbc f89a a839 55e6 f2ba
000000e0: a675 05bc 8ca1 a9b6 7d28 87bc 0409 31bb
000000f0: ede8 c1bb 7728 88bc 12d5 8937 7e1d c1bb

weight f4 [64, 119]
-0.077806085 -0.17875057 -0.11320954 0.29894704 0.1666957 -0.23130748 0.14256237 -0.024151277
-0.032199364 0.100625 0.03781129 -0.05694597 -0.065985054 0.03141162 -0.010442904 -0.0069786534
0.078382835 0.007467226 -0.0076038362 -0.011452645 -0.3481103 0.22931103 0.122245155 -0.29073727
0.18335311 -0.057701003 0.10609838 -0.025231585 -0.011695153 0.052571323 0.00951963 -0.15353477
-0.068943284 0.016797824 0.113875635 -0.26446205 -0.15903886 0.1570937 0.17679922 0.042583
-0.049625684 -0.17458506 0.036050912 0.13479309 0.29370543 0.041004177 0.042639658 0.05943656
-0.05429104 0.25769636 0.034206506 -0.12349512 -0.020382863 -0.060505748 -0.109000556 0.091509506
0.11993861 -0.012240367 -0.2820509 -0.14998597 0.027693395 -0.07430463 0.25499317 -0.122423865
-0.038283132 0.07648516 0.13107584 -0.1902765 0.07594082 0.14174227 -0.0067574563 -0.023774562
-0.23212929 -0.13120838 0.05237628 -0.03718858 0.21572766 -0.2302711 0.012730394 0.013663799
0.06423176 0.11528478 -0.039369788 -0.1590116 0.062990144 -0.2099396 -0.09257913 0.027831202
-0.10092047 0.02356316 0.19543724 -0.01138107 0.15024489 0.083990656 -0.058296677 0.16397253
-0.07566368 0.033655036 -0.15015097 -0.035117976 0.037283298 -0.101421244 0.037893236 0.068512104
-0.07058716 0.008009061 0.00087592134 -0.12674873 -0.044015437 0.32584974 0.039966106 0.060777966
-0.022638924 0.1363955 -0.017758608 0.12370263 -0.0027493523 0.04091641 -0.15036723 -0.009037889
-0.23785023 -0.09112579 -0.11147433 -0.025693275 0.05746961 -0.21566074 -0.008783382 0.019167682
-0.10625381 0.32931796 -0.16906661 0.117356665 0.10324419 -0.059607808 0.15061276 0.14261776
0.10443864 -0.00069167634 -0.05760696 -0.049535323 0.015002411 -0.08232786 -0.09489522 0.013393711
-0.17223771 0.16723973 -0.026571954 0.11137862 0.14806807 0.04455857 0.1308035 -0.053728845
0.015263303 0.2246682 0.06766649 0.044626273 0.097858705 0.057007886 0.13724078 -0.03318602
0.13313316 0.05301041 -0.045380566 -0.17556514 0.0046256753 -0.07948478 -0.113089524 0.12767293
-0.102451004 0.11934128 -0.101736434 -0.07677288 -0.0012871703 0.13229997 0.05972437 -0.0021142424
0.13484998 0.20732583 0.09456798 0.04934992 -0.023048352 -0.10882466 0.021028537 -0.17644067
0.011888747 0.1293191 -0.053648394 -0.0085079335 -0.0693221 0.0921051 0.11772272 -0.03739819
-0.20467396 0.07370244 0.061146405 -0.09639062 -0.24909937 -0.0025117889 -0.2443458 0.09612006
-0.32655 0.1906762 -0.32591572 -0.06503983 -0.12543014 0.12416914 0.012071598 -0.12171483
-0.016502686 0.04412113 -0.14599425 0.22563003 -0.007604114 0.008665037 -0.07585936 -0.08753145
-0.20113719 0.0050120787 -0.25059125 0.035774134 0.18709491 -0.390496 -0.012410472 0.03181991
0.13077627 0.19540194 -0.019127488 0.08544059 0.0051546544 -0.06069055 0.08743976 -0.029616972
0.14342198 0.052045457 -0.100751095 -0.12227119 0.07905258 0.09775131 -0.20744543 -0.05233044
0.37718582 0.19573995 -0.14947645 -0.18010914 0.054408666 -0.10897663 -0.23157111 -0.19536881
-0.004618299 -0.0192648 0.050575618 0.1107156 -0.23852246 -0.19015105 0.041771866 0.19520763
00000000: cc58 9fbd 640a 37be 67da e7bd 960f 993e
00000010: 47b2 2a3e dedb 6cbe dffb 113e e6d8 c5bc
00000020: 7be3 03bd 7b14 ce3d 03e0 1a3d 2d40 69bd
00000030: 2c23 87bd 79a9 003d b718 2bbc 30ad e4bb
00000040: 2e87 a03d a2af f43b 9a29 f9bb e0a3 3bbc
00000050: 833b b2be 83d0 6a3e ab5b fa3d 84db 94be
00000060: ebc0 3b3e e357 6cbd 1c4a d93d 78b2 cebc
00000070: 079d 3fbc 0755 573d 39f8 1b3c 3838 1dbe
00000080: 2332 8dbd 979b 893c a137 e93d 9267 87be
00000090: 15db 22be 2cdd 203e db0a 353e 836b 2e3d
000000a0: 4d44 4bbd 6dc6 32be 1faa 133d 3307 0a3e
000000b0: 8f60 963e fff3 273d eca6 2e3d c073 733d
000000c0: 4860 5ebd c7f0 833e 1f1c 0c3d 02eb fcbd
000000d0: f6f9 a6bc e0d4 77bd af3b dfbd 5669 bb3d
000000e0: 60a2 f53d d28b 48bc fa68 90be ec95 19be
000000f0: 42dd e23c 072d 98bd 778e 823e 5db9 fabd
00000100: c6ce 1cbd 40a4 9c3d bf38 063e d8d7 42be
00000110: dc86 9b3d e324 113e a76d ddbb dfc2 c2bc
00000120: 4db3 6dbe 7d5b 06be 8388 563d 0d53 18bd
00000130: b6e7 5c3e 30cc 6bbe 2493 503c 20de 5f3c
00000140: f18b 833d 6d1a ec3d 3742 21bd f0d3 22be
00000150: fa00 813d 68fa 56be 209a bdbd 43fe e33c
00000160: 64af cebd 8707 c13c b320 483e ab77 3abc
00000170: ccd9 193e 4b03 ac3d 7fc8 6ebd 6ae8 273e
00000180: 8ff5 9abd ddd9 093d 2dc1 19be ded7 0fbd
00000190: 5fb6 183d f1b5 cfbd f035 1b3d 1350 8c3d
000001a0: 0090 90bd 7038 033c 169e 653a 6bca 01be
000001b0: 8849 34bd c7d5 a63e 80b3 233d 51f2 783d
000001c0: 4475 b9bc 43ab 0b3e 807a 91bc ce57 fd3d
000001d0: 7a2e 34bb f797 273d def9 19be a713 14bc
000001e0: 038f 73be 28a0 babd a74c e4bd b47a d2bc
000001f0: 4165 6b3d 2bd6 5cbe 2de8 0fbc 8b05 9d3c
00000200: 999b d9bd 5d9c a83e cc1f 2dbe b158 f03d
00000210: b171 d33d 5127 74bd 3b3a 1a3e 640a 123e
00000220: ede3 d53d 9d51 35ba 47f5 6bbd 8de5 4abd
00000230: accc 753c 829b a8bd 6d58 c2bd 4c71 5b3c
00000240: 155f 30be e440 2b3e 6dad d9bc 791a e43d
00000250: 289f 173e 0c83 363d 5af1 053e c712 5cbd
00000260: ef12 7a3c 6c0f 663e bb94 8a3d 0aca 363d
00000270: 256a c83d 1a81 693d d988 0c3e 10ee 07bd
00000280: 0f54 083e 7221 593d f9e0 39bd 59c7 33be
00000290: fa92 973b ebc8 a2bd 7b9b e7bd b1bc 023e
000002a0: d5d1 d1bd 3369 f43d 315b d0bd 1a3b 9dbd
000002b0: 45b6 a8ba a579 073e 8aa1 743d 1a8f 0abb
000002c0: 1d16 0a3e 394d 543e dbac c13d 2423 4a3d
000002d0: e6cf bcbc 77df debd 0a44 ac3c ddac 34be
000002e0: 05c9 423c 3a6c 043e 6bbe 5bbd dc64 0bbc
000002f0: bff8 8dbd 99a1 bc3d 9c18 f13d d82e 19bd
00000300: 0d96 51be 4ef1 963d a774 7a3d 7268 c5bd
00000310: e813 7fbe d39c 24bb c935 7abe 98da c43d
00000320: 9031 a7be 9f40 433e 6dde a6be 9a33 85bd
00000330: c270 00be 644c fe3d f4c7 453c a045 f9bd
00000340: a430 87bc 5cb8 343d 847f 15be 8f0b 673e
00000350: ee2b f9bb cdf7 0d3c 275c 9bbd b043 b3bd
00000360: e8f6 4dbe 5d3c a43b 7f4d 80be e687 123d
00000370: cf95 3f3e 17ef c7be 4b55 4bbc 9855 023d
00000380: 37ea 053e 7217 483e 40b1 9cbc 7afb ae3d
00000390: 60e8 a83b a796 78bd 9e13 b33d 4b9f f2bc
000003a0: 36dd 123e 9e2d 553d 9756 cebd 5169 fabd
000003b0: 52e6 a13d d731 c83d 936c 54be 7258 56bd
000003c0: 801e c13e 0e70 483e 5b10 19be 886e 38be
000003d0: 9fdb 5e3d 242f dfbd fa20 6dbe c30e 48be
000003e0: 1a55 97bb 37d1 9dbc 6128 4f3d dcbe e23d
000003f0: 3b3f 74be f5b6 42be fa18 2b3d 82e4 473e

bias f4 [64]
-0.03855677 -0.03395859 -0.01925108 -0.04568869 -0.02722941 -0.004133055 -0.026775522 -0.01496539
0.00020679845 -0.03617476 -0.012081745 -0.013054003 -0.014071605 0.0003121531 -0.02531163 -0.04412274
-0.023603898 -0.0357821 -0.033922344 -0.019705748 -0.0075090174 -0.047867343 -0.025891652 -0.022576617
-0.019671684 -0.021825356 -0.017727893 -0.021561412 -0.0013183029 -0.06414538 -0.0009551158 0.013522148
-0.030358033 -0.019091444 0.0024667692 -0.0141373295 -0.03482606 7.356135e-05 -0.0280366 -0.033105724
-0.034322385 0.026767028 0.012418152 -0.007585668 -0.0038138207 0.054078687 -0.0027542238 0.017883109
-0.020505417 -0.020170623 0.0 -0.013449179 -0.004938956 -0.02218726 0.0076647345 0.002041091
-0.022489874 -0.010389365 -0.028581362 -0.018161366 -0.026187455 -0.013410262 -0.0044157654 -0.0027415846
00000000: b4ed 1dbd 2a18 0bbd 71b4 9dbc 1024 3bbd
00000010: 3610 dfbc 946e 87bb 5758 dbbc 6531 75bc
00000020: 09d8 5839 fc2b 14bd 83f2 45bc 75e0 55bc
00000030: 978c 66bc 7ba8 a339 565a cfbc 0cba 34bd
00000040: f65c c1bc 4090 12bd 28f2 0abd f36d a1bc
00000050: 340e f6bb 8c10 44bd bb1a d4bc 99f2 b8bc
00000060: 8326 a1bc 17cb b2bc 163a 91bc 8fa1 b0bc
00000070: e8ca acba a75e 83bd bc60 7aba 008c 5d3c
00000080: 69b1 f8bc a965 9cbc 85a9 213b 42a0 67bc
00000090: c5a5 0ebd f344 9a38 03ad e5bc de99 07bd
000000a0: a195 0cbd 8746 db3c 8175 4b3c 3291 f8bb
000000b0: 4bf1 79bb 9d81 5d3d 3580 34bb 997f 923c
000000c0: fafa a7bc dd3c a5bc 0000 0000 f259 5cbc
000000d0: f7d6 a1bb 0fc2 b5bc 7428 fb3b d3c3 053b
000000e0: af3c b8bc 2838 2abc 7623 eabc 25c7 94bc
000000f0: 1387 d6bc b7b6 5bbc 20b2 90bb 28ac 33bb

weight f4 [64, 64]
0.049745154 -0.008433182 0.23297976 -0.074811 0.020166999 -0.08352383 0.06955091 -0.53479105
-0.008121348 0.2210113 0.08363073 0.17919604 -0.22026454 0.11267159 -0.060848285 0.115367554
0.045628883 -0.0140342675 -0.080075555 -0.14315826 0.20261946 -0.03593073 -0.2951051 0.27836663
0.021806559 -0.027508635 -0.030898338 0.009375317 0.010467322 0.20811196 0.07253483 0.22800654
-0.2595935 -0.2962519 -0.29697913 0.29622823 0.26693955 0.16884002 0.03772388 0.21925795
0.29005602 0.06192137 -0.15479335 -0.022683958 0.28207725 -0.02930566 -0.03618693 -0.30092782
-0.057493 -0.08220081 -0.1467894 0.23474848 -0.22249284 -0.016837118 0.06325526 -0.005981615
0.17221831 0.22281861 0.24577488 -0.065521464 -0.057907842 -0.13995562 0.1199725 -0.22217506
0.15480159 0.09220562 0.18792029 -0.15134767 -0.37135622 -0.06918465 0.22960071 0.10965697
-0.30062005 0.025108267 -0.41840613 0.0039194655 0.020799246 0.19481991 -0.17494482 0.060249567
0.079673715 -0.1680954 0.20284675 -0.10720189 0.080953404 -0.11389606 -0.047880415 -0.093244575
-0.041850664 -0.15183723 -0.07170729 -0.023751339 0.058110453 0.022293108 -0.03578121 -0.15784918
0.006190925 -0.17832166 0.11517818 0.14903195 0.11041606 0.17998302 -0.041582424 -0.288223
-0.052027304 0.073357046 0.20029202 -0.09014584 0.074238375 -0.0676488 -0.206977 -0.080678694
-0.21400595 0.1024086 0.2457552 0.42178968 0.23397733 0.055863813 -0.17385645 -0.25299606
-0.1119392 -0.3226178 0.01898258 0.048978828 0.26803008 -0.35306272 -0.30022588 -0.028057257
-0.054742996 -0.012035114 -0.14543585 0.090094924 -0.03254988 -0.09700694 0.07247692 -0.298187
0.19263819 -0.09555477 0.009037515 0.40474737 0.34069327 -0.07460838 -0.026382104 0.1788459
-0.101446345 -0.17058223 0.03944084 -0.23315619 0.09162325 0.10597271 0.2874946 0.21048728
-0.2217197 -0.0011474635 0.014800693 0.07740102 0.3211715 0.103544675 0.10667969 0.08294349
0.04444153 0.05847012 0.22459273 -0.24189621 -0.24266566 -0.19665508 -0.32079133 -0.18685986
-0.028842086 -0.018645978 -0.17084573 -0.071216926 -0.07689655 -0.43915415 -0.09126023 -0.40488482
-0.09330062 -0.0759479 -0.092087954 -0.18178521 -0.15192173 -0.12364211 -0.11736409 -0.1843082
0.1308505 0.0507329 0.019953143 0.21995695 0.19949314 -0.10823457 -0.21695279 0.006580452
0.11834377 0.20281248 0.26515493 -0.062869705 0.19934474 -0.15535562 0.22906317 -0.15152502
-0.058066815 -0.06192136 0.044548865 0.05871544 0.18171649 0.064846866 0.36408088 0.3028918
-0.10547671 0.18254884 -0.04577597 -0.35832086 -0.099938914 0.06117709 -0.034412265 -0.25678626
0.15199868 -0.21930371 -0.012673552 0.1016956 -0.023652101 0.21880677 -0.16938893 0.13883904
0.0599554 -0.25755858 -0.10610708 -0.35076475 0.121489234 -0.0035811176 -0.038428776 0.25992584
-0.13717228 -0.044003602 0.21083444 -0.23978738 0.015631884 -0.17449428 0.21332142 0.182686
-0.098489866 0.33593768 0.12890318 0.11128595 0.2226082 0.070507795 0.0036025173 0.10756583
0.111156635 0.17376627 -0.18663925 0.0846349 0.07800584 0.33775783 -0.017208539 0.19700764
00000000: 93c1 4b3d 542b 0abc 3f92 6e3e 8236 99bd
00000010: 4335 a53c 8b0e abbd b570 8e3d 11e8 08bf
00000020: 670f 05bc c950 623e 9746 ab3d 2b7f 373e
00000030: 078d 61be 5dc0 e63d 0d3c 79bd d345 ec3d
00000040: 5ae5 3a3d fcef 65bc a7fe a3bd 1498 12be
00000050: 7a7b 4f3e 1a2c 13bd 0418 97be 1286 8e3e
00000060: aba3 b23c ca59 e1bc 831e fdbc ee9a 193c
00000070: 217f 2b3c 4d1b 553e 248d 943d 8c7a 693e
00000080: 70e9 84be 54ae 97be a60d 98be 3aab 973e
00000090: 4dac 883e 66e4 2c3e 5b84 1a3d 2885 603e
000000a0: 3982 943e 43a1 7d3d 2682 1ebe b5d3 b9bc
000000b0: 6e6c 903e 6c12 f0bc bf38 14bd 3613 9abe
000000c0: c87d 6bbd e658 a8bd f64f 16be e861 703e
000000d0: 2ad5 63be ffed 89bc f98b 813d 6c01 c4bb
000000e0: ff59 303e 902a 643e 69ac 7b3e 1e30 86bd
000000f0: c630 6dbd 8750 0fbe 24b4 f53d dc81 63be
00000100: 4f84 1e3e 4dd6 bc3d 2d6e 403e e2fa 1abe
00000110: 6722 bebe afb0 8dbd 731c 6b3e d593 e03d
00000120: dfea 99be daaf cd3c 5439 d6be dc6e 803b
00000130: 2e63 aa3c df7e 473e bc24 33be 40c8 763d
00000140: f92b a33d 3321 2cbe 0fb7 4f3e aa8c dbbd
00000150: e6ca a53d 5642 e9bd 411e 44bd 03f7 bebd
00000160: 9a6b 2bbd 387b 1bbe 46db 92bd 2b92 c2bc
00000170: 3a05 6e3d 09a0 b63c 518f 12bd 37a3 21be
00000180: 3edd ca3b f499 36be 8ae2 eb3d d59b 183e
00000190: d121 e23d 784d 383e 5552 2abd f791 93be
000001a0: 951a 55bd 383c 963d 5a19 4d3e 629e b8bd
000001b0: 4a0a 983d 748b 8abd c7f1 53be df3a a5bd
000001c0: 6024 5bbe 9abb d13d 40a7 7b3e d1f4 d73e
000001d0: c197 6f3e 74d1 643d 6d07 32be b388 81be
000001e0: 6140 e5bd 292e a5be 5b81 9b3c 069e 483d
000001f0: 3d3b 893e a3c4 b4be 35b7 99be 55d8 e5bc
00000200: 313a 60bd ed2e 45bc 23ed 14be b083 b83d
00000210: 0653 05bd 93ab c6bd c86e 943d f7ab 98be
00000220: f242 453e 38b2 c3bd 1612 143c 0c3b cf3e
00000230: 596f ae3e 47cc 98bd 481f d8bc 6123 373e
00000240: 1ac3 cfbd 1cad 2ebe b88c 213d 7fc0 6ebe
00000250: f8a4 bb3d 3808 d93d 7e32 933e fa89 573e
00000260: 7d0a 63be 7c66 96ba 9b7e 723c 6d84 9e3d
00000270: 9770 a43e 3b0f d43d e27a da3d 47de a93d
00000280: 5208 363d 5d7e 6f3d a3fb 653e a4b3 77be
00000290: 597d 78be f35f 49be c33e a4be 3158 3fbe
000002a0: 3d46 ecbc 73bf 98bc 2ff2 2ebe 2eda 91bd
000002b0: f07b 9dbd d0d8 e0be a5e6 babd 104d cfbe
000002c0: 6514 bfbd 938a 9bbd 9c98 bcbd e725 3abe
000002d0: 5f91 1bbe 1338 fdbd 965c f0bd 4abb 3cbe
000002e0: acfd 053e 4dcd 4f3d c674 a33c 653c 613e
000002f0: ee47 4c3e 16aa ddbd df28 5ebe d5a0 d73b
00000300: 385e f23d 13ae 4f3e 63c2 873e d5c1 80bd
00000310: 0721 4c3e 8b15 1fbe 898f 6a3e 6029 1bbe
00000320: 78d7 6dbd 41a1 7dbd df78 363d 9a7f 703d
00000330: e313 3a3e 6fce 843d cf68 ba3e a214 9b3e
00000340: 2c04 d8bd 15ee 3a3e 957f 3bbd d575 b7be
00000350: c6ac ccbd d494 7a3d e0f3 0cbd 7d79 83be
00000360: 8ba5 1b3e 2791 60be bba4 4fbc c845 d03d
00000370: 0dc2 c1bc e20e 603e 4b74 2dbe d22b 0e3e
00000380: cb93 753d b8de 83be ab4e d9bd 7097 b3be
00000390: 59cf f83d 2fb1 6abb 7e67 1dbd 0015 853e
000003a0: e476 0cbe 1f3d 34bd fce4 573e d38a 75be
000003b0: 700e 803c a1ae 32be ee70 5a3e 0a12 3b3e
000003c0: 0eb5 c9bd 0600 ac3e 32ff 033e e3e9 e33d
000003d0: 67f3 633e 6466 903d 3618 6c3b 794b dc3d
000003e0: 17a6 e33d c9ef 313e 5c1e 3fbe 1055 ad3d
000003f0: 87c1 9f3d 98ee ac3e ecf8 8cbc 5fbc 493e

bias f4 [64]
-0.0011844827 -0.018008344 -0.02294599 -0.016593374 -0.032393005 -0.028080193 -0.0069670044 0.0015017801
-0.0026527366 0.022623925 -0.01583908 -0.02839335 -0.014509528 -0.017118642 -0.00069027935 -0.007170105
-0.012179428 -0.030021055 -0.014123459 -0.020189298 -0.032245476 -0.009451657 -0.03309545 -0.009795299
-0.006678899 -0.05653509 -0.0007666371 0.005969791 0.025840692 -0.0041894605 -0.024908567 0.006765073
-0.03227051 -0.014419943 -0.023402294 0.029294068 -0.0042652343 0.00086801144 -0.0050965887 0.004469766
0.023350466 0.04748916 -0.04291146 0.0015246966 0.0083640255 -0.010119358 0.021170188 -0.005449485
-0.013407669 -0.003596488 -0.024113737 -0.030376103 0.022292284 0.0116021475 -0.010655775 -0.043754146
0.022325458 -0.017743679 -0.03662978 -0.005613512 -0.014646775 -0.0051640584 -0.04800348 -0.011309227
00000000: a540 9bba 3c86 93bc 3bf9 bbbc d4ee 87bc
00000010: 87ae 04bd 6f08 e6bc 784b e4bb 61d7 c43a
00000020: 89d9 2dbb cf55 b93c f5c0 81bc 2c99 e8bc
00000030: 5fb9 6dbc 653c 8cbc ddf3 34ba 33f3 eabb
00000040: 398c 47bc b7ee f5bc 1566 67bc 0764 a5bc
00000050: d513 04bd 1fdb 1abc 188f 07bd 767c 20bc
00000060: aada dabb 5791 67bd 25f8 48ba 3d9e c33b
00000070: dcaf d33c be47 89bb 0d0d ccbc 8cad dd3b
00000080: 152e 04bd a041 6cbc 2bb6 bfbc 1dfa ef3c
00000090: 61c3 8bbb 438b 633a 4901 a7bb 1d77 923b
000000a0: 7a49 bf3c fe83 423d edc3 2fbd 54d8 c73a
000000b0: 4409 093c aacb 25bc 1a6d ad3c 9891 b2bb
000000c0: d7ab 5bbc 0eb3 6bbb 2c8a c5bc 4ed7 f8bc
000000d0: 4f9e b63c ef16 3e3c 8f95 2ebc 8c37 33bd
000000e0: e1e3 b63c 315b 91bc 1c09 16bd 8df1 b7bb
000000f0: 07f9 6fbc 4337 a9bb 4c9f 44bd 564a 39bc

weight f4 [1, 64]
0.007102554 -0.000102162 -0.14834423 0.00030623956 -0.20974983 0.14949575 -0.16866834 0.00041103156
-0.0945922 0.08026794 0.04580533 -0.33626112 -0.18747407 -0.10676792 0.1394468 0.003971513
-0.00080955983 -0.028360091 0.03134417 2.8353611e-08 0.002606863 -0.077523984 -0.22682264 0.00053387095
0.028047398 0.24658158 0.03364689 -0.030393213 0.10758865 0.0014076724 -0.02244896 0.000762721
-0.04309385 -0.00019862752 0.02975397 -0.05916479 -0.08963169 0.018279394 -0.16279885 0.060853668
0.060800638 0.083378784 0.38132802 -0.051662754 -0.07598548 -0.0032250914 -0.14919235 -0.0011045265
-0.0011261825 0.18529508 -0.2982154 -0.0075879735 -0.0018607309 0.0012392162 -0.05526506 0.22095233
-0.11694309 -0.01298441 0.5301089 -0.00080387725 0.1286063 0.002274105 -0.1305596 0.076629855
00000000: 8bbc e83b ce3f d6b8 8de7 17be c78e a039
00000010: a9c8 56be 6a15 193e 65b7 2cbe b97f d739
00000020: 8eb9 c1bd 8563 a43d 5f9e 3b3d 6b2a acbe
00000030: 34f9 3fbe 24a9 dabd 24cb 0e3e 7723 823b
00000040: a438 54ba 6c53 e8bc bf62 003d 408e f332
00000050: e7d7 2a3b e5c4 9ebd 3244 68be 79f3 0b3a
00000060: a8c3 e53c e27f 7c3e 52d1 093d 30fb f8bc
00000070: 7057 dc3d a681 b83a e2e6 b7bc 57f1 473a
00000080: 2d83 30bd ab46 50b9 99be f33c c756 72bd
00000090: d290 b7bd abbe 953c beb4 26be b241 793d
000000a0: 170a 793d 7fc2 aa3d 6d3d c33e 539c 53bd
000000b0: 469e 9bbd 0e5c 53bb e1c5 18be c2c5 90ba
000000c0: 6a9c 93ba febd 3d3e b0af 98be 89a4 f8bb
000000d0: c5e3 f3ba 326d a23a 9e5d 62bd 5441 623e
000000e0: dc7f efbd 90bc 54bc 38b5 073f 4abb 52ba
000000f0: 5fb1 033e 2709 153b 6ab1 05be 1df0 9c3d

weight f4 [5, 64]
0.0018082014 -0.0018792212 -0.0021318707 -0.005392814 0.0019726849 -0.006999397 -0.004469226 0.0021232006
-0.0016381348 0.00063235377 -0.020739501 0.0038027957 0.0019792225 0.0010511245 -0.017599855 -0.033809956
0.003916052 -0.01081565 0.0066454355 -0.0063591576 -0.0008274088 -0.044131886 0.0067412644 0.002640972
-7.310288e-05 -0.008074279 -0.006572967 -0.000887992 -0.006521125 -0.0021817381 0.0029372687 0.00034912658
0.003718954 -0.00806638 0.0034368825 -0.00353698 -0.0026697249 0.0024371266 -0.016989088 0.003616263
8.1769125e-05 -0.020918023 0.0007868379 -0.0047710366 0.010028008 -0.013319067 -0.009831756 -0.0047749197
-0.002342087 0.0004756684 -0.0026558165 0.0047412897 -0.0040683364 0.00091509236 0.0034090923 -0.0012473736
-0.020723822 0.000455329 0.005976288 0.0026657442 0.007888154 0.015081516 -0.0010019519 -0.0048220805
-0.018882 -0.0014439083 0.006033253 0.011867429 -0.008657177 -0.018243656 -0.00028080944 -0.0134328455
-0.0017573228 -0.015765792 0.01317739 0.014970781 -0.0025268514 -0.0017939236 0.0014359847 0.05343035
-0.008535768 0.008996457 -0.0021237843 -0.004302846 0.008275736 0.0673989 -0.018988203 -0.021386782
-0.03806407 0.0032292486 0.004808369 0.0096877115 0.0129064135 -0.0013564466 0.00036319732 -0.0070234914
-0.018751988 -0.0036421167 -0.0005471788 -0.006316562 0.012791164 0.020127673 0.027187208 -0.020851647
-0.0025366629 0.028719302 0.013532344 0.005868821 -0.010678216 0.030726986 0.009194651 -0.010046182
-0.0010666584 -0.01567738 -0.014715832 -0.004259899 -0.011869661 -0.027534898 0.0026868184 -0.001858934
0.03536066 -0.0002510985 -0.0040036975 0.0013269532 0.0031376258 -0.053925753 -0.0024306884 0.008023789
0.010265516 -0.00039245206 -0.004125608 0.0042240466 -0.0009948668 -0.010984165 0.0019579856 0.0008663268
-0.011931505 0.007268154 -0.010588337 0.0030496086 0.0017481038 0.0014795176 -0.01789709 -0.040084135
-0.0076918085 0.0029560276 -0.0054082326 -0.005059048 -0.012795058 -0.038367163 -0.0019049501 0.020851567
0.011172377 -0.007962336 -0.0025152508 0.00583589 0.0010445666 0.001278526 -0.0014233866 -0.004628088
0.008227395 -0.009640539 -0.00068120984 0.0025297971 -0.0009100738 -0.00088076707 -0.017419904 0.013047786
-0.009387785 -0.019708093 -0.0046568583 0.00065456564 0.0029523035 -0.0140210735 0.001794837 -0.0052829767
-0.0001447506 -0.0057680965 0.0017881419 -0.0028811079 0.008253838 -0.00039995447 -0.0078774495 -0.0113544455
-0.014349193 -0.00047064712 0.004216371 -0.015610909 -0.00323266 0.01398928 0.002615989 -0.011781566
0.0041375863 0.0007641169 -0.0023294382 -0.0036112466 0.0020643054 -0.0066886493 -0.0022811932 0.000912604
0.012864522 0.0039942944 -0.020061346 -0.016299749 -0.012738161 -0.00020434252 -0.0101566985 -0.031113228
0.0069953217 -0.0032379285 -0.0020529025 0.016286138 -0.0022195342 -0.030733308 -0.0025020137 0.0008298947
0.011939024 -0.01454551 -0.0046253763 -0.0070184483 -0.015949043 -0.004136175 -0.0044680145 0.0121578965
0.004971028 -0.01814953 0.0018476484 0.0064620385 -0.0124405185 -0.007594789 -0.0035369715 -0.0013922489
-0.0068073296 -0.012223831 -0.008364218 0.003579648 0.0061503635 -0.015441851 -0.0026849043 -0.010943197
0.0009956305 -0.0073948745 -0.0040077046 -0.00035214078 0.00253152 0.002957487 0.0056576654 0.00281923
-0.009962539 -0.000726932 0.0023034578 0.0024223686 0.0012325277 0.019486547 -0.0008806787 -0.0013262666
00000000: 2c01 ed3a 3350 f6ba dbb6 0bbb 34b6 b0bb
00000010: 2948 013b 335b e5bb 9672 92bb 6525 0b3b
00000020: afb6 d6ba 8bc4 253a e3e5 a9bc 5338 793b
00000030: d8b5 013b e3c5 893a 922d 90bc 4f7c 0abd
00000040: 3a52 803b 2034 31bc f4c1 d93b 7b60 d0bb
00000050: 77e6 58ba a3c3 34bd d3e5 dc3b 2814 2d3b
00000060: cf4e 99b8 fb49 04bc 0b62 d7bb 22c8 68ba
00000070: 29af d5bb 7efb 0ebb 317f 403b fa0a b739
00000080: b2b9 733b da28 04bc 523d 613b adcc 67bb
00000090: 8df6 2ebb 33b8 1f3b b32c 8bbc d3fe 6c3b
000000a0: 777b ab38 465c abbc cc43 4e3a 5b56 9cbb
000000b0: 844c 243c 3738 5abc 6015 21bc ee76 9cbb
000000c0: b37d 19bb 2263 f939 350d 2ebb d25c 9b3b
000000d0: ae4f 85bb cfe2 6f3a 146b 5f3b ea7e a3ba
000000e0: 01c5 a9bc 39b9 ee39 bdd4 c33b c4b3 2e3b
000000f0: 513d 013c 7618 773c ed53 83ba 8b02 9ebb
00000100: 6dae 9abc 8641 bdba 98b2 c53b 9b6f 423c
00000110: d5d6 0dbc b873 95bc 9b39 93b9 7015 5cbc
00000120: f855 e6ba 4327 81bc fbe5 573c 0248 753c
00000130: 8899 25bb 1622 ebba a737 bc3a c8d9 5a3d
00000140: 9bd9 0bbc e065 133c 302f 0bbb e3fe 8cbb
00000150: f496 073c 6f08 8a3d 268d 9bbc 5533 afbc
00000160: 12e9 1bbd cda1 533b 868f 9d3b 35b9 1e3c
00000170: 6c75 533c ccca b1ba 856b be39 5125 e6bb
00000180: c59d 99bc 94b0 6ebb 8c70 0fba 2afb cebb
00000190: 0892 513c cae2 a43c b5b7 de3c 13d1 aabc
000001a0: 243e 26bb be44 eb3c c4b6 5d3c 3d4f c03b
000001b0: aff3 2ebc 29b7 fb3c 29a5 163c be98 24bc
000001c0: 1ecf 8bba d96d 80bc ac1a 71bc 9f96 8bbb
000001d0: f778 42bc de90 e1bc 5515 303b 79a7 f3ba
000001e0: 57d6 103d dfa5 83b9 7331 83bb 29ed ad3a
000001f0: a0a0 4d3b 40e1 5cbd 2f4c 1fbb 3676 033c
00000200: b230 283c 06c2 cdb9 1c30 87bb df69 8a3b
00000210: 3166 82ba edf6 33bc 8c51 003b 351a 633a
00000220: 5c7c 43bc b229 ee3b b47a 2dbc f1db 473b
00000230: a120 e53a 5fec c13a eb9c 92bc 432f 24bd
00000240: 910b fcbb eab9 413b 8b37 b1bb 5fc6 a5bb
00000250: 5da2 51bc e326 1dbd 85af f9ba e8d0 aa3c
00000260: 580c 373c 7574 02bc e8d6 24bb fe3a bf3b
00000270: d7e9 883a 3794 a73a ee90 baba 37a7 97bb
00000280: 32cc 063c 5af3 1dbc 3893 32ba f4ca 253b
00000290: 0592 6eba 47e3 66ba 30b4 8ebc 62c6 553c
000002a0: 39cf 19bc de72 a1bc 8f98 98bb 2897 2b3a
000002b0: 6f7b 413b a5b8 65bc bc40 eb3a d21c adbb
000002c0: 31c8 17b9 4d02 bdbb 1660 ea3a f8d0 3cbb
000002d0: 1b3b 073c fbb0 d1b9 6b10 01bc ff07 3abc
000002e0: e118 6bbc 30c1 f6b9 7c29 8a3b e6c4 7fbc
000002f0: 09db 53bb 4b33 653c 0371 2b3b 7807 41bc
00000300: 9794 873b 044f 483a 7da9 18bb aaaa 6cbb
00000310: 4c49 073b 752c dbbb 1280 15bb d13b 6f3a
00000320: b7c5 523c 92e2 823b b157 a4bc 0d87 85bc
00000330: b8b3 50bc c744 56b9 4868 26bc 2be1 febc
00000340: 0339 e53b 6d33 54bb fd89 06bb 826a 853c
00000350: 9b75 11bb 6bc4 fbbc d3f8 23bb 4a8d 593a
00000360: e59b 433c 4a50 6ebc 7890 97bb 03fb e5bb
00000370: 91a7 82bc c088 87bb 6c68 92bb ea31 473c
00000380: 01e4 a23b 53ae 94bc cb2c f23a 82bf d33b
00000390: 51d3 4bbc b5dd f8bb 89cc 67bb 1f7c b6ba
000003a0: 0510 dfbb 7746 48bc 130a 09bc 8798 6a3b
000003b0: fd88 c93b d1ff 7cbc 38f5 2fbb 184b 33bc
000003c0: d17f 823a b450 f2bb 1053 83bb 899f b8b9
000003d0: dce7 253b 66d2 413b f063 b93b d5c2 383b
000003e0: eb39 23bc 958f 3eba 9cf5 163b 9ac0 1e3b
000003f0: c48c a13a 40a2 9f3c 59dd 66ba 1fd6 adba

bias f4 [5]
-0.017681941 0.00047318247 -0.009546555 -0.011867284 -0.008384697
00000000: b8d9 90bc 7a15 f839 2769 1cbc ff6e 42bc
00000010: f85f 09bc
