model/tiny-4/IA2C/model_agent2_seed1.pt (torch, 101825 bytes, 11 tensors)

weight f4 [64, 119]
00000000: 2afd de3c 8a61 32be 6a3f c13c 1156 343c
00000010: 46d7 373c c322 3fbe fbf3 003e 9ca9 c1bd
00000020: a8fb 873d 7d88 233e 6b1a 2dbd 13c2 903d
00000030: 384e 873d a621 343d fd15 303e 85cb 3ebb
00000040: bb3a 10be 657f 353d e527 e0bd 6e2d 91bd
00000050: 5443 03be 633f 4d3e 1918 4abd d950 dd3c
00000060: 7e89 423e f751 a93d b666 be3d a98e 243d
00000070: d081 373d 066a 63bd 6548 59be 51a4 35bd
00000080: 3dd2 fdbd deac c1bd ade1 07be 97bf b93d
00000090: 1530 dbbd fd4b 063e b0e8 a6bd e91c 29bd
000000a0: 17c5 8abd 4fc6 793c 830c cfbb 4bc2 c83c
000000b0: be21 263e 91d0 1c3e 00f1 1c3d 07a8 213e
000000c0: f9f6 7c3e aa63 153e 830f 4bbe 4feb 9abc
000000d0: 08d4 143c 4a07 e43b 6fcc 97bc 6d88 733d
000000e0: dd78 9abd e3b4 e4bd ce24 463e 90c7 913d
000000f0: 5897 9e3d 8a98 883c 4484 5f3e 2ed5 d43e
00000100: 565f fb3d c8c2 eebd c460 80be 99b9 70bd
00000110: 6c9e 6a3c 89a9 203d f2db c93d 0d68 0a3e
00000120: 022a 103e cacc 6abe 636c 073d d32f aebd
00000130: 2982 15bd fbaf 08be 23e2 393e 1308 4a3e
00000140: 7143 133e 7ef8 243e 58c9 133e 1612 43be
00000150: ff5b 6f3d cc96 4a3e fb97 7c3e 06cc c93d
00000160: 6b25 90be ccce bebc 5183 99bc 34b0 d5bd
00000170: cd4a e3bd adca 3d3e 7fe5 fdbd 234f 36bd
00000180: c465 93be 5ec7 bcba 2117 efbb 0f6c 003e
00000190: 3724 3dbe e379 f1bd b880 91bd f29b 1a3e
000001a0: a017 72bd f37f 073e 8168 753d edfc e8bd
000001b0: 00a0 73bd 0f81 11bd 4ac1 7a3d 0d95 483b
000001c0: 15c9 e83d 42c1 a63e c82a b23d 225d 163d
000001d0: f87a b5bd a615 f13d f402 ad3d cd8d 81be
000001e0: 893b 2e3e 223d a8bd 951b a73a b18f 373e
000001f0: 36d2 063e 1645 d93d 7e00 53bb e51a 733d
00000200: 0c64 e3bb 8901 803c b675 9e3d d159 29be
00000210: dd0c 0abb 3e68 c03c 857e a43d 78cb 08be
00000220: 3dc0 05bd 308a f2b9 1221 b2bd f075 d8bd
00000230: 23c8 b43d 2594 7c3d e270 aabc 13a2 df3d
00000240: 1c84 43bc 2fb2 9cbd 7886 39bd da6f bf3b
00000250: 79e4 2b3d 21d2 8ebe d36a ac3d bff0 c1bb
00000260: 7eb3 083d 5b85 033d 97cd a23e d34f a43d
00000270: 5c09 09be 793d 47be c5c3 30bd 1ada 833e
00000280: 91bc a73b 9179 6cbe f2f1 a7bc 9514 183e
00000290: 42ea 7bbd 34d5 babd 1b32 e93d 7e53 733e
000002a0: 1c10 2e3e b051 c63d fa0f 9a3d 69bc 8f3e
000002b0: 810d 61be 936c 1dbe 6f26 923d 622a 313e
000002c0: 02fa f13d 0807 0e3d bb41 cf3c 9e46 7a3d
000002d0: d913 073d 8f58 a23d e003 09be 8029 c7bd
000002e0: 71bd 513d 867d 3b3e 5d99 d2ba 6359 dcbd
000002f0: d725 41be f52d c2bd 376f aa3d 551c 6b3c
00000300: 565e d83d 7080 81bd 9306 103e d491 4b3e
00000310: cb45 87bd 41e1 14be 3258 0cbe 4b4f c6bb
00000320: 3ca6 b3bc f7ec d33c bbd5 b0bd 626a b83d
00000330: 4960 9dbd 5f51 80be 7302 cdba 1530 c2bd
00000340: 8aaa 10be b13d 063e 5534 bbbd cf92 6abd
00000350: bc5b e7bc e0a9 ca3c 5b46 153e 734e 42be
00000360: 0e74 523c b183 2c3e e0e2 cdbd bc12 d33c
00000370: 0d7a 8ebd 4691 2d3e 4338 91bd 9baf 933d
00000380: 4b29 36be 4ff0 023d 62f6 0c3d db1c 9bbd
00000390: 3b71 6b3d 7368 52be 9a7f 57bd d23d 00be
000003a0: 4ffa b13e e42b a23e 8d46 cf3d 5c5e 933e
000003b0: 6aeb 28be f7f1 073e 0eda 413e 999e e0bc
000003c0: d18f d33d 90b5 6dbe 510b da3d 72d4 f73d
000003d0: 8cf8 44be 2e7e 2e3e 5d09 3e3e e8f3 433e
000003e0: 8804 bfbc 42df 893d e26f 823c 6e34 f63d
000003f0: ea3f 3c3d 8fdb 02be 742d 89bd 331a b13b
0.027220327 -0.1742002 0.023589808 0.011006848 0.011220759 -0.18665604 0.12593071 -0.094561785
0.066397965 0.15970035 -0.042261522 0.07068267 0.06606716 0.043977402 0.17195888 -0.0029113006
-0.14084904 0.044310946 -0.10945109 -0.07088743 -0.12818652 0.20043711 -0.049339388 0.02701609
0.18997762 0.08267587 0.09296934 0.040175114 0.044801533 -0.055521034 -0.21219023 -0.044346157
-0.123936154 -0.094568 -0.13269682 0.09069746 -0.1070253 0.13114925 -0.0814985 -0.041287336
-0.06775873 0.015245034 -0.00631863 0.024506709 0.16223809 0.15313937 0.038315773 0.15786754
0.24703588 0.145888 -0.19830136 -0.018911032 0.009083755 0.0069588767 -0.018530099 0.059456278
-0.07542584 -0.11167314 0.19349977 0.07118142 0.0774371 0.016674299 0.21827799 0.41568893
0.12274043 -0.11658245 -0.25073826 -0.05877075 0.014319997 0.03922418 0.09856404 0.13516255
0.14078525 -0.22929683 0.03306235 -0.085052155 -0.036501084 -0.13348381 0.1815267 0.19729643
0.14381196 0.16110417 0.14432275 -0.19049868 0.058437344 0.19784087 0.24667351 0.098533675
-0.28153548 -0.023291968 -0.018739374 -0.10433999 -0.110982515 0.18534346 -0.123972885 -0.044509064
-0.2878858 -0.0014402678 -0.0072964584 0.12541221 -0.18470846 -0.11790826 -0.07104629 0.15098551
-0.05910456 0.13232403 0.059914116 -0.11376367 -0.05947876 -0.03552347 0.06121949 0.003060642
0.11366478 0.3256932 0.08699566 0.036709912 -0.08861345 0.11771707 0.08447829 -0.25303498
0.17014898 -0.08214785 0.0012749309 0.17925908 0.13166127 0.1060888 -0.0032196338 0.05935182
-0.0069394168 0.015625732 0.07737295 -0.16538168 -0.0021064796 0.023487207 0.08031944 -0.13358867
-0.032654036 -0.00046260795 -0.08697714 -0.1056937 0.088272355 0.06166472 -0.02080578 0.10919585
-0.011933353 -0.07651173 -0.045294255 0.005842191 0.041965935 -0.2789469 0.084188126 -0.0059185917
0.033374302 0.0321096 0.31797478 0.08023038 -0.13382477 -0.19457044 -0.04315545 0.25752336
0.0051189144 -0.23093249 -0.02050111 0.14851601 -0.061502703 -0.091226965 0.1138651 0.23762318
0.16998333 0.096835494 0.075225785 0.28073433 -0.21977808 -0.15373449 0.07136237 0.17301324
0.11815263 0.034674674 0.025299897 0.061102502 0.032977913 0.079270475 -0.13380384 -0.09724712
0.051206056 0.18309602 -0.0016067434 -0.10759237 -0.18862091 -0.09481422 0.08321994 0.014350017
0.10564868 -0.06323326 0.14065008 0.19879848 -0.06605109 -0.14539053 -0.13705519 -0.006051933
-0.021929853 0.02586983 -0.08634516 0.09004666 -0.076843806 -0.2506208 -0.0015640989 -0.09481827
-0.14127555 0.13109471 -0.09140841 -0.057268914 -0.028241985 0.024739206 0.1457762 -0.18975239
0.012845052 0.16847111 -0.100530386 0.02576577 -0.06956873 0.16949949 -0.07090809 0.072112285
-0.1778919 0.031967457 0.034414656 -0.07573863 0.057481032 -0.20547657 -0.052611925 -0.12523583
0.34761283 0.3167411 0.10120878 0.28782928 -0.16496053 0.13275896 0.18930838 -0.027419375
0.10330165 -0.23213792 0.1064669 0.121010676 -0.19235438 0.17040321 0.1855826 0.19136012
-0.02331759 0.06732036 0.01592249 0.12021719 0.04595939 -0.12779067 -0.066981226 0.0054047345

bias f4 [64]
00000000: 2dff 89bb d253 adbb 16b0 49bc 7669 a9bb
00000010: 4185 44ba c0c5 2bbc 8325 44bb eedd bbbc
00000020: 6131 1a3b 210e a5bc 4b04 9a39 aad2 59bc
00000030: 8f35 6bbb be98 ccbb 7b1d 673b 1a14 ddb9
00000040: 656c bebb 3fbc b7bb 8d06 87bc 0a23 8cb8
00000050: 8d30 bfbc aa25 adbc 2e90 2cbb 120a 0eb8
00000060: 601e 90bc 718b 02bc 6b1b 9c3a ede3 ecb9
00000070: 763c 84b8 947e 12bb abfe 1bba 127a 22b9
00000080: a1df 7338 697d 2bbb 86cb f639 2369 d8ba
00000090: 20f1 4b3b bebd 57bc 24b2 27bc 73ce 733b
000000a0: 1197 1bbc 0f94 debb 3da7 d7bb 8496 47bc
000000b0: 1adf 0dbb 77cd 8d3a 1e57 af3b ad75 1eba
000000c0: e2d1 86bc f75e 10b9 2cfb 7d3b 8b62 8cbc
000000d0: 85e0 d4bc 9bbb 2ebb 8407 c3bb 8178 adb8
000000e0: 4d60 efbb f22b 933a 43a8 1bbc 438f 333a
000000f0: 3cdb 63bb 1b96 4ebb 0df4 45ba 3321 89bc
-0.0042113275 -0.005289533 -0.012310049 -0.0051700426 -0.0007496663 -0.010484159 -0.0029929585 -0.022932973
0.0023527967 -0.020148339 0.00029376367 -0.013294855 -0.0035890078 -0.006243794 0.0035265374 -0.00042167382
-0.0058112615 -0.0056071575 -0.016482616 -6.682247e-05 -0.02333858 -0.021136124 -0.0026331055 -3.3864817e-05
-0.017592609 -0.007967816 0.0011910027 -0.00045183246 -6.305512e-05 -0.0022353278 -0.0005950729 -0.00015494999
5.8143985e-05 -0.002616728 0.00047072413 -0.0016510825 0.0031119063 -0.013167797 -0.010235343 0.003720191
-0.009496466 -0.0067925523 -0.0065812157 -0.012181882 -0.0021647871 0.001081868 0.0053509613 -0.0006044757
-0.016457502 -0.00013768287 0.0038754446 -0.017136833 -0.025985966 -0.0026662115 -0.0059518237 -8.2717284e-05
-0.007305181 0.0011228307 -0.009500566 0.0006849656 -0.0034768125 -0.0031522575 -0.000755132 -0.016739463

weight f4 [64, 64]
00000000: 1508 af3c 554c bebd 12f2 213e b736 b5bd
00000010: 8281 ab3c ed15 2abe f969 9c3d 95c4 993e
00000020: c430 cbbe 4346 6c3e cfaf e63e f7d2 053e
00000030: ae07 4abe c26d acbd 3ae1 87be 87c6 0e3d
00000040: cefb 08be b399 613d f5e5 85bd 0598 c2be
00000050: 54b6 593c ba6d 66be bae9 233e 6034 c1bd
00000060: d341 e53c ff16 80bd 0378 73be 8d3c a63a
00000070: 096f ccbd a480 fc3d f6e3 4abe 6bc5 04be
00000080: bbf7 a4be 5f5d 3a3d a109 bb3e a5ba 49be
00000090: 2e80 fcbc fcdb 5ebe 1fe3 6fbe 7753 82bc
000000a0: 39bf 063e afbd 83be dbc8 c23d eb5c d23d
000000b0: 601f 463e e485 0e3e 1de4 ecbc 1453 2abd
000000c0: 4c22 a4bd 0d8a dabb f6f1 87be cfa9 9f3d
000000d0: a610 733d 8aa2 8e3d 95a4 ab3e 1e0d 8bbc
000000e0: 8ffe 073d 68dd a33d ac38 133e 5b9a 2cbc
000000f0: 095c d6bc 7cb5 7bbe 6473 9e3d 9f26 2e3e
00000100: ebfd 34be 5c92 babd 2ea4 113e 6d0e a13e
00000110: bfe7 8ebc 14f9 44be 3083 e2bc f44e 2cbe
00000120: c7ef 213e 13a7 16bd 14d1 0ebe 1eb2 d7bc
00000130: 5b3b a4be 0b46 723e 93e6 40be dc63 58be
00000140: 9b3b d2be 592a 8a3d 2819 803c 1f7c 3f3e
00000150: c493 553e 74f1 633c ba11 87bd 8455 49be
00000160: c5a1 9bbd d4c5 fa3d 5446 1bbd ec7b 92be
00000170: 1626 983d c66a 80be 2804 07bf ed21 64bd
00000180: 0c1e 8c3d d830 a13d b23b eebd 710b 8c3e
00000190: 9ac8 033e c090 193e da5d 8e3c a829 d73d
000001a0: 3fdf b43d c63d efbd 6230 65be b543 fe3d
000001b0: 820a b23c 6900 113e 50ff 12be d463 0cbe
000001c0: 28db 583e 619f 2bbe 85a6 d2bd b530 cbbd
000001d0: 33f9 c93d 47ba 4abe 2cad b73d 70d6 613d
000001e0: 83ce d63e afcf e3bd 34c4 c4bc fa01 523d
000001f0: c94c dbbd 36c2 6ebe d24e 363e e7da f2bb
00000200: c2a7 b63e 2fbc 5fbe e393 ae3d 3651 d53d
00000210: d657 16be 1cc2 02bd 47d2 d7bd d91e a83d
00000220: 9823 3dbe 4e41 bbbd 62b4 1c3e 32de a4be
00000230: 562d d43e 1850 323e cfb9 82be 9009 843c
00000240: ccd0 a0bd d631 38bd 6a31 3ebe 3c08 b43e
00000250: 1a8a 7d3d dd2a 60bc 1b16 ea3d 1f06 5dbc
00000260: 8d5a 8c3e 2a91 7fbe ae71 a9bc 6396 a13d
00000270: ab32 6c3e a713 c7ba 8d2a 4d3d bf33 b8bd
00000280: 43bf e9bc a0c7 f23e ada9 a43d 6075 5f3e
00000290: 256a 8c3d 000f ceb7 8eac 303c f372 2d3e
000002a0: bbe6 aebd 4a9a 753c 72f8 0e3d 76b3 2e3c
000002b0: f50f 963d b2a5 fabd d811 c6bd f480 b4be
000002c0: 1a21 2f3e fbdd 1dbc 2f4d 1a3d 15f8 8a3e
000002d0: 3d6f 283c c757 3e3e 7c01 97bc dbcd 44be
000002e0: 89bd 3cbe 8869 02be ea24 123e 1a3f 453d
000002f0: a9ee a2bd 9c34 533e 70d8 b53e 233c 34be
00000300: eddb 13bd 084d 603c 12e5 283d 5359 b93e
00000310: d612 403e 6c88 903c 1353 38be 508e 0d3f
00000320: 104e 89bd 9071 13be daad bc3e 1fca 54bd
00000330: f68b 6ebd 7e70 92be 6849 2b3e 7228 f23d
00000340: ffbb 07be f202 2e3e dd96 fc3d e678 593c
00000350: e63c 6f3d 9957 9abd 6b31 02bf c3f5 813d
00000360: d3d2 ee3c b816 a13e 9f82 11be b57c b23d
00000370: 83a7 3b3d ee07 873d 2a96 b13d b296 983b
00000380: b369 09bc 415b 203e e52e dbbe 6345 893c
00000390: f029 2538 d411 483c bc41 6a3e 4001 dd3d
000003a0: ec2b de3c 803c 743e f802 da3d 46a6 9ebd
000003b0: 752e e1bd e91d 723c 9342 f4bd a15a e5bd
000003c0: 9a6b f9bd 686f 82be 5821 6cbe f759 993b
000003d0: 0f0b 433e 134b 383d d7a2 a6bd c32d 9b3d
000003e0: 3168 d13d c514 d33c 8ed8 903c e0fe e9bd
000003f0: ed38 503e f691 373e ac85 3ebc 94dd c93d
0.021366159 -0.09291903 0.15814999 -0.08848327 0.020935778 -0.16609927 0.076374 0.30032793
-0.39685643 0.23073678 0.45056006 0.13068758 -0.19729492 -0.08419372 -0.26539022 0.0348573
-0.13377306 0.05507822 -0.065380014 -0.38006607 0.013288099 -0.22502795 0.16007128 -0.09433818
0.027985489 -0.06254386 -0.2377625 0.001268284 -0.09982116 0.12329224 -0.19813523 -0.12965934
-0.32220253 0.045499202 0.36530784 -0.19700105 -0.03082284 -0.21763605 -0.23426484 -0.01590894
0.13158883 -0.25730655 0.095109664 0.10271629 0.19347906 0.13918263 -0.028917367 -0.041583136
-0.08014354 -0.006669289 -0.2655179 0.0779606 0.05934205 0.069645956 0.33524004 -0.016974028
0.03320175 0.08001214 0.14377087 -0.010534848 -0.026166933 -0.2458095 0.07736853 0.1700692
-0.17674987 -0.09109947 0.14222786 0.31456318 -0.01744449 -0.19235641 -0.027650446 -0.16826993
0.15814124 -0.03678043 -0.13946944 -0.02633005 -0.32076535 0.23659532 -0.18837957 -0.21131843
-0.410611 0.067463584 0.015636995 0.18699692 0.2085715 0.013912547 -0.06595178 -0.19661528
-0.075992145 0.12244764 -0.037908867 -0.2861017 0.07429139 -0.25081462 -0.52740717 -0.055696417
0.068416685 0.07870644 -0.1163248 0.2735248 0.12869492 0.14996624 0.017378736 0.10505992
0.08831643 -0.11681704 -0.22381738 0.12415258 0.021733526 0.14160313 -0.14355206 -0.13709956
0.21177351 -0.16760017 -0.10285667 -0.099213995 0.09861984 -0.19797622 0.08968577 0.055136144
0.4195443 -0.11123597 -0.024019338 0.051271416 -0.10708005 -0.23316273 0.17803505 -0.007411349
0.35674864 -0.2184913 0.08524301 0.104158804 -0.14681944 -0.0319234 -0.10538154 0.08209009
-0.18470609 -0.09143315 0.15303186 -0.32200772 0.4144084 0.17413366 -0.25532386 0.016117841
-0.07852325 -0.044969402 -0.18573537 0.35162532 0.061899282 -0.013682094 0.114299975 -0.013490229
0.27412835 -0.2495772 -0.02068409 0.07890012 0.23066203 -0.0015188352 0.050089408 -0.08994245
-0.028533584 0.47417927 0.080401756 0.21822119 0.06856183 -2.4564099e-05 0.010783328 0.16938381
-0.08540102 0.014990399 0.034904905 0.010662904 0.07327262 -0.12238635 -0.09671372 -0.35254633
0.17102471 -0.009635444 0.037671264 0.27142397 0.0102804275 0.18588172 -0.018433325 -0.19219153
-0.18431677 -0.1273557 0.14271894 0.04815588 -0.07955677 0.20625538 0.3551669 -0.17601065
-0.03609841 0.013690241 0.041234083 0.3620096 0.18757185 0.017643176 -0.1800044 0.55295277
-0.06704342 -0.1439879 0.36851388 -0.05195057 -0.058238946 -0.2860145 0.16727221 0.118241206
-0.13255309 0.16993311 0.123334624 0.013273453 0.058407687 -0.07536239 -0.50856656 0.063457035
0.029153263 0.31462646 -0.14209984 0.08715192 0.04581405 0.06593309 0.0867122 0.004656636
-0.008387017 0.1565981 -0.42809215 0.016756719 3.9378123e-05 0.012211282 0.22876638 0.10791254
0.027120553 0.23851204 0.106450975 -0.07746558 -0.10995189 0.014777639 -0.119267605 -0.11198927
-0.121787265 -0.2547562 -0.23059595 0.004679914 0.19047187 0.04499347 -0.08136528 0.07577088
0.10224951 0.02576674 0.017681386 -0.11425567 0.20334215 0.17926773 -0.01162855 0.09856716

bias f4 [64]
00000000: f1ea 32bc 0740 5ebb 5b51 00bc 05ed a4bc
00000010: 8a6f 14bb 5b0d b8bc 7cc0 32bc b620 b1b8
00000020: f627 b4bc f087 dfbb 2ff8 a4ba 7ff2 fdb9
00000030: 9800 a3ba 8468 8bbb 0edb 68bc 8616 1abc
00000040: a4c4 6abc d2de d939 43fb cbbb b109 8fbc
00000050: a6a0 e2bb a493 9abc 1a2d dab7 eb0c 23bc
00000060: c050 21bc 5c51 46bc fdcd 35bc a358 9938
00000070: 9369 a3bc b421 a0bc 5f83 51bb aafe f8b9
00000080: f236 b1bc dee7 9fba 8fb3 b639 aa1c 00b9
00000090: 34d7 a9bb 0ee3 90bc 2760 6fba 3508 5ebb
000000a0: f8f2 8bba 3231 a8bb 5e7b 32ba 5611 85bb
000000b0: d62b 96bb 8a70 00bc 3c05 ed3a 8606 2bba
000000c0: df46 2c37 d9a0 50bc c914 48bb 93d3 89bc
000000d0: eed1 06bc 2325 19bb 6bb2 99ba bc83 e5bb
000000e0: 7ade b639 b465 afbc 9845 efbb 85c7 03b9
000000f0: 077d 97bb 0c0a 5d35 f9ec b0ba 0dff 21bc
-0.010920272 -0.0033912675 -0.007831897 -0.020132551 -0.002264949 -0.022467306 -0.01091015 -8.4461106e-05
-0.021991711 -0.006821625 -0.0012586172 -0.00048436594 -0.001243609 -0.0042544026 -0.014212383 -0.009404784
-0.014329109 0.0004155548 -0.006225021 -0.017460676 -0.0069161234 -0.018869229 -2.6008627e-05 -0.00995181
-0.009845912 -0.0121043585 -0.011096475 7.3121184e-05 -0.019947803 -0.01954732 -0.0031969172 -0.00047491986
-0.021632645 -0.0012199839 0.00034847527 -0.0001221771 -0.005183125 -0.017686393 -0.0009131454 -0.0033879403
-0.0010677269 -0.0051328177 -0.0006808544 -0.0040609045 -0.0045828624 -0.007839331 0.0018083225 -0.00065241044
1.02685e-05 -0.012733662 -0.0030529967 -0.01682452 -0.008228762 -0.0023368082 -0.0011726146 -0.0070042294
0.00034879503 -0.0214108 -0.0073019974 -0.0001256746 -0.0046230587 8.2343536e-07 -0.0013498358 -0.009887469

weight f4 [64, 119]
00000000: 78ed 243e 3f62 11bc a844 e33d 3524 e83d
00000010: 4bc6 c93d 9f84 e7bb c24b 8ebd 6b7b 96be
00000020: a35c b9bc 3fff 41be a8f8 10bd 2ad2 863e
00000030: ec4d 8b3c 98c8 3b3e f3e8 49bd 2329 113e
00000040: cbb6 3ebc a2a9 483d 540c 1a3b e7a0 37be
00000050: fe8f 03bd c83c a3be d4b5 fd3c fe96 763e
00000060: 9a4d cc3d c305 98be 33ee 9abd 75fb d53d
00000070: fac8 b53a d565 263e d702 9fbe f2b0 3bbe
00000080: 0429 f93b b128 d4bd 54ad a6bc 7ff2 93bd
00000090: cf5d 943c 455a 343e 030d 9e3b 622d 163e
000000a0: c4ae d7bd 6965 54be 4a93 943e b206 de3d
000000b0: 6086 b2bd 303c b63d ab8c 1a3e a7f0 783c
000000c0: b2ad 403d fc68 e63d 84d5 853e 3fe2 06bd
000000d0: 0f8d bb3d a7ba b13d 3541 2cbc 605b 05bd
000000e0: de97 3cbe 14b5 aa3d 35c4 153d 0880 e23d
000000f0: 85e2 13be 43f0 bbbb 34fd ad3d 1c6e a1bd
00000100: 231d 60bd e531 a0bc 385f 1abe 65c2 363c
00000110: 7fd1 84bd ff4e 0cbe c407 3f3d 3986 8f3d
00000120: ba41 813d da2d 13bd 240f 81be ee05 79bd
00000130: 3a5d 46bc bfdf 9d3d ef6b f63c 42eb 333e
00000140: b230 a4be a373 ba3d 36f3 f03d ed26 863e
00000150: 0a2d c7bc d10e fa3d 6dde 1bbe e229 9f3d
00000160: 4406 09be dd9d 8a3d 417f ef3d 8c84 d9bc
00000170: 0838 ffbc 0dd9 a73d c57a 013e a7da 043e
00000180: f5d7 3e3d fc08 d3b9 7c1e eabc d431 4ebc
00000190: eb8b 91bd 7134 e0bd 6bf2 8f3d c932 963d
000001a0: 36bf 21be 349a 7cbe acb9 613d 0c63 273c
000001b0: e83b b03d de6b 48bd 13ad 1ebe a618 b3bb
000001c0: 4037 0dbe 42d8 423d 6bb3 1fbe ba54 023e
000001d0: 6b84 2dbe 8ef7 f23d 7200 bd3c b0df 213d
000001e0: a8f4 e23d e2de fcbc f7ac 0a3e 17f2 ddbd
000001f0: 2ab4 be3d 07e6 b03d 0a06 50bd 349c cebd
00000200: 4ed3 8d3e 2dce 80bc 18b7 1c3e d5d6 933c
00000210: 0b54 91bd dbac f1bd 1190 ba3d 6197 d2bd
00000220: 4894 e43d 7d04 a53d c2b5 4bbd a4fe 10bd
00000230: d4f9 abbc 765c 48bd 0bdc 953d e234 0e3e
00000240: a28e 893e 61d1 d2bd 9d59 83bc 7e23 06be
00000250: 1482 fbbd 95c2 f93c 0cb2 233d 05b0 97bd
00000260: 01a1 fbbd 1dcf 283d 361e 563e d6a7 c6bd
00000270: 70d6 913d f7c6 993d 808e 743d 5956 c4bd
00000280: 09e3 8f3d d073 d03d 990b f33d 6ded 32bd
00000290: 62eb 2abc bb53 30be e7f6 15be 6bc9 693e
000002a0: 4296 fdbd 470e 863e cf08 0fbd 53cd 2dbe
000002b0: f168 17be a993 683e d0aa a63c f83d 6ebd
000002c0: b179 38bd 87d7 34bd 730e 91bd 5e15 753d
000002d0: 9eed 8fbe 6f43 673e 9dbe 5a3d a85e 3fbe
000002e0: e78f 11be 7060 1b3d 445e 8b3d a435 443d
000002f0: c24a 9d3d cd14 55bd 8c57 83be 19eb af3c
00000300: 1d0a 48be 3184 9bbd 5e0f a73d 6e53 65bd
00000310: 0464 6ebd 744d ffbd 7d8a da3d b83c 83bd
00000320: 534b e9bc 7524 073d 9c41 dbbd 26e3 d23d
00000330: 127b 523d ee0b 31bc 4b5d 61bb 8d53 e73d
00000340: 374b eabd 1e66 8bbd c122 e5bb 331e 563e
00000350: dc9d 72bd 5c47 bf3d 8d2f c7bd 9666 b33d
00000360: 0a11 51bc 8188 a8bd 84fb 4cbe 4c4f 983e
00000370: 5211 babd c029 843e 60c1 023e 03b4 48be
00000380: ae8c fc3d 90e8 33be 1d02 97bd d4eb 913d
00000390: 1bb2 973c 77f6 133e b5a5 cf3d cd3c 803d
000003a0: d359 8bbe 9c5e 2fbe ef36 3f3e 1bd3 debc
000003b0: b9e4 69be f926 7f3c 0587 fd3d 03e6 f9bc
000003c0: 885d 2cbe 23e8 61bc 24c1 d03c 3e31 3b3c
000003d0: 3e0b a3bc c191 37be c367 c23c a53d b03b
000003e0: 967c 0cbe ca74 16be 10e3 90be 7619 dcbd
000003f0: 2c22 e4bb 3b32 243e 9b9b e73d 7398 b63c
0.16106212 -0.008873521 0.110970795 0.11335031 0.098522745 -0.00706537 -0.069480434 -0.29391035
-0.02262718 -0.18945025 -0.035393387 0.26332217 0.01700493 0.18338239 -0.049294423 0.14175849
-0.011640261 0.0489899 0.0023505883 -0.17932473 -0.032119744 -0.3188231 0.030970491 0.24081036
0.09975739 -0.29691896 -0.07564964 0.10448352 0.00138691 0.16249783 -0.31056854 -0.18329218
0.0076037664 -0.10359324 -0.020346321 -0.07223987 0.018111138 0.1761256 0.0048233285 0.1466575
-0.10531381 -0.2074181 0.29018623 0.10841121 -0.08717036 0.088981986 0.15092723 0.015194095
0.04704065 0.11250493 0.26139462 -0.03293061 0.09157764 0.08678179 -0.010513593 -0.032557845
-0.18417308 0.08335319 0.03656407 0.11059576 -0.14441879 -0.0057354285 0.0849556 -0.0788233
-0.054715287 -0.019555042 -0.15075386 0.011154746 -0.06485271 -0.1370201 0.046638265 0.07008023
0.063113645 -0.0359324 -0.25206864 -0.06079667 -0.012107188 0.07708692 0.030080764 0.17570212
-0.32068402 0.09104087 0.11765139 0.26201573 -0.024313468 0.12209857 -0.15221567 0.077716604
-0.13381296 0.06768391 0.11694194 -0.026552461 -0.031154647 0.08195696 0.12644489 0.12974034
0.04659267 -0.0004025175 -0.02857899 -0.012585122 -0.07106765 -0.109475024 0.070286594 0.07333905
-0.15795597 -0.24668199 0.05510871 0.010216486 0.08605176 -0.048930995 -0.1549571 -0.005465585
-0.13790607 0.04756952 -0.15595786 0.12727633 -0.16945045 0.118636236 0.023071501 0.039519966
0.11081821 -0.030867998 0.13542543 -0.108371906 0.09311707 0.08637624 -0.05078701 -0.10088387
0.27700275 -0.015723312 0.1530422 0.018046776 -0.07096108 -0.11800548 0.0910951 -0.102827795
0.11161095 0.08057497 -0.049733885 -0.035399094 -0.02099315 -0.048916303 0.073173605 0.1388736
0.26866633 -0.10293842 -0.016033942 -0.13099477 -0.1228067 0.030488292 0.03996472 -0.0740662
-0.122865684 0.041213144 0.20909962 -0.09699981 0.07120979 0.07508653 0.05970621 -0.09586782
0.070257254 0.101783395 0.118674465 -0.043683458 -0.010432096 -0.1721944 -0.14644967 0.22830741
-0.12382175 0.26182768 -0.03492051 -0.16972856 -0.14786126 0.22712578 0.020345122 -0.058164567
-0.04503793 -0.044150855 -0.07082834 0.05983483 -0.28110975 0.22584318 0.05340444 -0.18688452
-0.1421505 0.037933767 0.06805089 0.04790272 0.076802745 -0.05202179 -0.2565273 0.021474408
-0.19535108 -0.07593573 0.08157228 -0.055987768 -0.05820085 -0.12465945 0.10670946 -0.064080656
-0.0284783 0.032993753 -0.10705873 0.102972314 0.0513869 -0.010806067 -0.0034387882 0.11295233
-0.11440127 -0.06806587 -0.0069926684 0.20909958 -0.059232578 0.093397826 -0.097258665 0.08759801
-0.01276041 -0.08229161 -0.2001782 0.29748 -0.09085335 0.25813103 0.12769079 -0.19599919
0.1233152 -0.17569184 -0.0737345 0.07125059 0.018517544 0.14449488 0.10139028 0.06261597
-0.27216968 -0.17125934 0.18673299 -0.027200272 -0.22841157 0.015573257 0.123792686 -0.030505186
-0.16832554 -0.013788256 0.025482722 0.0114253145 -0.019902822 -0.17926694 0.023731118 0.0053784424
-0.13719401 -0.14692989 -0.28298235 -0.10747044 -0.0069620814 0.16034786 0.11308976 0.02228949

bias f4 [64]
00000000: c881 21bc a249 d83c 6695 45bc 193c 11bd
00000010: f51c 2abc 42f6 07bc bf57 cbbc b848 18bd
00000020: cae7 603c ca5a f4bc f14b 313b a97e 00bd
00000030: 8bf8 26bd e2c4 97bc 0200 f4bc 712f fbbc
00000040: c500 89bb 45da 58bc 0711 833c 5a00 01bc
00000050: 0ebd 253d bf4d b4bc 2e57 c3bc 0895 fcbc
00000060: f550 82bb e567 adbb fb65 8dbc 4bd0 1abd
00000070: 7316 bdbc e0d7 483a e1c9 fdbc 9d6b 5aba
00000080: 0cc3 fbbc c049 243c edb4 84bc 66a7 0dbd
00000090: 691e 91bc 8a27 b8bc 9858 093d 7220 5cbd
000000a0: 4965 6cbd 4e91 2dbc 49b2 603b 0fb6 203c
000000b0: cb86 40bd 958c 77bc 2c04 19bd 214e 9bbb
000000c0: 73d1 943a 9b2a 50bd 6906 ecbc e2ff 84bd
000000d0: ed83 d1bc 990d 10bd 2b5e e3bc 76a4 823c
000000e0: 5387 1fbd 7a39 07bd 2736 70bc 0419 cabc
000000f0: f943 a8bc a755 90bc 06b7 12bd 79a5 c6bc
-0.009857602 0.026402298 -0.012059545 -0.035457704 -0.01038288 -0.0082984585 -0.024822114 -0.037178725
0.013727138 -0.029828448 0.0027053321 -0.031370793 -0.040764373 -0.018526498 -0.02978516 -0.03066227
-0.004181 -0.013235633 0.01599933 -0.007873619 0.0404635 -0.022009728 -0.023845281 -0.030832782
-0.003976936 -0.005291926 -0.017260542 -0.0377963 -0.023081994 0.00076615624 -0.030980052 -0.00083320757
-0.030732654 0.010027349 -0.016199553 -0.03458347 -0.017714696 -0.022479791 0.033531755 -0.05374188
-0.05771378 -0.010593725 0.0034285954 0.009809031 -0.04700355 -0.015109201 -0.037357494 -0.0047395383
0.0011353925 -0.05082188 -0.02881165 -0.06494118 -0.025575602 -0.035169218 -0.027754864 0.015947562
-0.038947415 -0.0330138 -0.014661348 -0.024670132 -0.020540224 -0.017618967 -0.035819076 -0.024248825

weight f4 [64, 64]
00000000: 2e58 aebe ef7c 8fbc a828 83bd 7e75 2d3e
00000010: 68cc 0f3e b481 a5bd 9e36 943e 481f a6bd
00000020: 6bf5 debc 6c73 d4be 2c42 d4bb 423b eb3d
00000030: df01 b8bd 0d01 903e 72fb d5be 1c03 81be
00000040: a58a 4dbd c1e8 29bd 66f1 4ebe 294c af3d
00000050: a3cd a0be ef4d 6fbd a58a 4abe 73d5 7ebd
00000060: 0595 793e 965a 473e 4914 d4bc f884 02bd
00000070: 89a3 6dbe a2ba 1fbe 4b4c 883e 8386 7cbe
00000080: 417e fdbd 15b8 1ebd 4c39 383e 9bf9 183e
00000090: 7bdc ca3b 38c8 893e bd5a 8bbd c265 8ebe
000000a0: d1e1 7dbe a4fe 993c 16fa f33c d1ac 90be
000000b0: 3fa8 5e3d 9236 1cbd 95cb 67be 47ae d83d
000000c0: 5dfa 34be e99a 923e 5402 ecbd f69e ccbd
000000d0: 3576 c5bd 4779 44bc b762 f43d ef7e fdbd
000000e0: b0d3 8dbd 4688 e63d 585e 173e 1036 903d
000000f0: 1c2d fbbd 625e 1bbe 1ef8 423c f96a 173e
00000100: 097e 883e 4c9f e93d e050 593e ea39 d4ba
00000110: 5a0f 193e fc1c 0abd 301b 48bd 606f 2b3e
00000120: 6839 54bd 8633 e7bc 457f 73bd 8a90 9dbc
00000130: 86a6 49be 5ff2 213d 3d18 24bc 0bef 2c3e
00000140: 1f46 1dbe 0813 1bbd d45d 0f3f 9fbf f3ba
00000150: ebdc 663d 3f2b 57bd 64b0 3bbe 8d3a bfbe
00000160: 91e1 333d 22ec 3bbe aeee 9e3e 125b 7f3c
00000170: 1524 12be bf63 7ebe 087f 02be 8242 443e
00000180: e07e 6b3d cd4c aab9 ee32 88bc 3b47 1ebd
00000190: 23ef 9d3c df18 713e 1445 91bd 062b b43d
000001a0: 5d78 f1bc 04ae 30bd e773 c73d 02d5 05be
000001b0: 8f91 ca3e 1033 a43e df5a 80be d957 003e
000001c0: 6107 ecbd 7b56 f53d dae0 67be 1d43 133d
000001d0: 0b9f 65be 5b12 be3c 3f53 69bd 0484 a9bd
000001e0: 5c15 913e 8672 8fbd 2a2f 37bb 8b01 2cbe
000001f0: 201d 72be c5f4 3d3e 03b3 d3bc a4f6 a0bd
00000200: ddc8 d7bd ee99 efbd e57d fcbd 601b 3e3e
00000210: b817 493e 94d2 5a3c 53ca 313d 4f81 33be
00000220: 5dea 113e 1bca 883c dceb f3bd f019 cb3d
00000230: 3d8a 30be faac 41be 5c37 be3d 2d67 ce3d
00000240: fca2 df3c 4667 083e fe49 ac3d 4ae6 5d3e
00000250: f7f9 b53c f581 18be 7c38 b7be 235b c8bd
00000260: fbfe 3abd fb6e d7be 454a 96bc 6b4a 7ebe
00000270: f60c 173e 7d9e a23d d9fc 62be a043 4dbd
00000280: cba6 6fbd a2d5 a33e c63d 2cbe d392 4dbe
00000290: cb9a 0e3e 7e95 26be 2841 cebd 3d6c 2b3d
000002a0: c984 53bd 3147 9fbe 59ff 8bbd 8832 9fbd
000002b0: 790c 37be 47d1 74be 2af5 183d eda8 bf3c
000002c0: 1ff6 77be 949b a53e 65bf b5be 7ce0 df3d
000002d0: 4b62 0f3e 7f35 0abd 058a 8c3e bc38 a8be
000002e0: 20d2 87be 25db a03d 51c2 35be 3e9c b1bd
000002f0: f00d 733e 3d13 f0bd 9bb5 c9bd 138b 36be
00000300: 7a2f 1c3e c395 6cbe 62f7 883d c7e5 b3bd
00000310: 5311 fa3d f45d 133e c708 37be 2f05 9ebd
00000320: 6587 d6be 6a84 8dbd 1191 19bb a209 57bd
00000330: c8be 053d 0fda a73e cb93 eb3d 9120 a23e
00000340: 1933 6a3d da86 9c3e 557e c23d 9757 cc3d
00000350: b2fc 83be 7056 9f3d decf b0bc d97f 02be
00000360: 8cd4 7dbd d502 f13d 8d2a 8a3e 62b9 433e
00000370: 259d 76bd dfb9 9d3e 524b dc3d bec0 d0bd
00000380: 314c 3cbe b2e4 aa3c 39fb 073e 5554 0c3e
00000390: 1a9f efbd 0c5a 37be 6ad8 8fbd aa6f 813e
000003a0: 2373 a93c 59e7 5c3e 1510 b9bd 62ce 83be
000003b0: b0ac 503e fd96 37be e887 213e 3311 87be
000003c0: 3fdc c83d 7157 d0bc 89ce f4bd a702 cabe
000003d0: 5d23 903d c129 1abe 3ac4 493e ff92 f3bd
000003e0: 2d52 3ebe 998d a1bd 0343 453e 4774 98be
000003f0: 7eb1 163e df61 21be f9c4 e33d 5b3e 8ebd
-0.3405165 -0.017515628 -0.06404239 0.16939351 0.14042819 -0.080813795 0.2894792 -0.08111435
-0.027216634 -0.4149431 -0.006477615 0.11485912 -0.08984732 0.28125802 -0.417934 -0.25197685
-0.05018105 -0.041481737 -0.20209274 0.08559448 -0.31406888 -0.058423933 -0.19779451 -0.06221528
0.24373253 0.1946815 -0.025888579 -0.03186509 -0.23206915 -0.15598539 0.26620707 -0.24660687
-0.12377597 -0.038749773 0.17990607 0.14938967 0.006190834 0.26910567 -0.06804416 -0.2781201
-0.24793173 0.01879818 0.029782336 -0.28256848 0.05435967 -0.03813798 -0.22636254 0.10580116
-0.17673631 0.28633812 -0.115238816 -0.09991257 -0.09641687 -0.011991805 0.11932891 -0.12377726
-0.06925142 0.11256461 0.14782083 0.070415616 -0.12264463 -0.15172723 0.011899976 0.147869
0.26658657 0.114073366 0.21222258 -0.0016191576 0.14947262 -0.033719048 -0.048854053 0.16741705
-0.05181256 -0.02822281 -0.059447546 -0.01923396 -0.1969243 0.039537784 -0.0100155445 0.16888063
-0.1535878 -0.037859946 0.56002545 -0.0018596536 0.056363028 -0.052531477 -0.18329006 -0.37349358
0.04391629 -0.18351796 0.31041473 0.015585678 -0.14271577 -0.24842738 -0.12743771 0.19165996
0.057494044 -0.00032482148 -0.016625848 -0.03864215 0.019279068 0.23544644 -0.07093254 0.087972686
-0.029476339 -0.043134704 0.097389035 -0.13069537 0.39564177 0.32070208 -0.2506933 0.12533511
-0.11524845 0.119793855 -0.22644368 0.035952676 -0.22423951 0.023202112 -0.056964155 -0.08277133
0.28336608 -0.070042655 -0.0027951696 -0.16797464 -0.23643923 0.18550403 -0.025842195 -0.07859543
-0.105363585 -0.11699282 -0.123287 0.1856513 0.19637954 0.01335587 0.043405842 -0.17529796
0.14249559 0.016697934 -0.11910221 0.099170566 -0.17240234 -0.18913642 0.09287903 0.10078273
0.027299397 0.13320646 0.084125504 0.2166988 0.02221392 -0.14893325 -0.35785282 -0.09783008
-0.045653325 -0.4207686 -0.018345961 -0.24833076 0.14751038 0.079403855 -0.22166766 -0.05011332
-0.058508676 0.31998926 -0.1682044 -0.2007554 0.13926236 -0.16267964 -0.10071021 0.04185127
-0.051640306 -0.31109002 -0.06835813 -0.0777331 -0.17875852 -0.23907958 0.03734318 0.02339598
-0.24214981 0.3234526 -0.35497585 0.10931489 0.1400234 -0.033742424 0.2744905 -0.32855785
-0.265275 0.078542985 -0.17749907 -0.08672379 0.23735785 -0.117224194 -0.098490916 -0.1782649
0.15252486 -0.23104005 0.066878095 -0.08784061 0.122103356 0.14391309 -0.17874442 -0.077158324
-0.41900173 -0.069100216 -0.0023432414 -0.05249942 0.032652646 0.32783553 0.11502799 0.3166547
0.057177637 0.30571634 0.09496752 0.09977644 -0.2577873 0.077801585 -0.021583494 -0.12744083
-0.06197028 0.11768118 0.2698559 0.19113687 -0.06020846 0.3080587 0.10756554 -0.10193013
-0.1838844 0.020861004 0.13279428 0.13704045 -0.11700268 -0.17905444 -0.070236996 0.25280505
0.020684784 0.21572627 -0.090362705 -0.25743395 0.20378375 -0.17928691 0.157745 -0.2638031
0.098076336 -0.02543232 -0.11953456 -0.3945515 0.07037995 -0.1505499 0.1970376 -0.11893272
-0.18586035 -0.07888336 0.19263844 -0.29776213 0.14716145 -0.15759991 0.11121554 -0.06945487

bias f4 [64]
00000000: 97c3 d3bb 4cbb 833c 1736 9bbc e640 5fbc
00000010: ea2a 3ebc d240 b9bb 2350 fe3c e360 6fbc
00000020: 87b2 82bc 5f8e 0cbb 57d8 92bd 8f6e 44bc
00000030: f339 43bb 8a20 78bb 3a5a 983c 1e89 10bd
00000040: 3ea0 a1bb bcfc dbba aab3 f4bc 5980 8fbc
00000050: 2508 97bc 07e0 80bd 3608 a2bc b63d bdbc
00000060: b945 993b 0301 c73b 57de 593d 8524 1b3b
00000070: cad0 95bc 1545 b0bc ee5c ddbc 459f ccba
00000080: fd2e ccbc 6e4a 3dbb 1a48 b7b7 f76a 12bc
00000090: fd33 283b 9548 b33b 2312 24bd eca6 e3bb
000000a0: c752 21b9 b0f9 4abc 2089 2fbd d0e9 fdbb
000000b0: b3e2 9e3c b27a 23bd d7cc 2fbd 9a06 0abd
000000c0: f71a 15b9 1b4f 79ba efbc 5cbc e080 51bc
000000d0: bcd6 08bd 3fd5 c1bc f1c9 c2bb 191d d23c
000000e0: 5930 78bc 8519 72bd 2f23 253b 4a8e c5bb
000000f0: 1b93 5b3c 5485 71bd dc55 4ebc 0b8c b1bc
-0.006462525 0.016080521 -0.01894669 -0.013626313 -0.011606911 -0.005653479 0.031044072 -0.014610502
-0.01595427 -0.0021447164 -0.0717017 -0.01198925 -0.002978918 -0.0037861192 0.01859771 -0.035287015
-0.0049324324 -0.0016783695 -0.029870827 -0.017517256 -0.0184365 -0.0629273 -0.019779306 -0.023100715
0.004677501 0.0060731187 0.053190555 0.002367289 -0.018288035 -0.021517316 -0.027021851 -0.0015611431
-0.02492475 -0.0028883475 -2.1848875e-05 -0.008936635 0.0025665753 0.005471299 -0.04005636 -0.006947389
-0.00015384993 -0.012388632 -0.042855382 -0.00774882 0.019395208 -0.039911933 -0.04291996 -0.033697702
-0.00014219793 -0.0009510384 -0.01347278 -0.012787074 -0.03340791 -0.023661254 -0.0059444834 0.02564864
-0.015148246 -0.05910637 0.0025197973 -0.006028925 0.013401772 -0.058965042 -0.012593713 -0.021673223

weight f4 [1, 64]
00000000: 4dd6 4b3e 9470 02bc d882 80bd a965 443d
00000010: 9795 f839 f8fc ca3d 9571 afbb 5485 ecba
00000020: 02f5 43ba ed86 733d f520 053e b0fb 7dbd
00000030: 99b3 84bb 7d88 4a3b 9bc7 14bc 8c60 913e
00000040: b887 af3c 5bcb 113c ac5d 7d3a a7c9 ba3a
00000050: f0c6 e0bd 6be7 ce3e 3851 3fba 542e ef3c
00000060: 3444 463a 0d07 19bb e9d5 7fbc ef8c 143c
00000070: 3ea2 7e3e cf2e c8ba 982a 053b 69a5 4dbb
00000080: 6ef3 23bb 7ee1 9dbc d132 053c 8170 323c
00000090: 9f41 783a c4a9 d7bc 5363 ccbe e895 02bd
000000a0: c837 49be 7349 893e e543 043d 8201 8db8
000000b0: fc23 723b 744b 18be 30e1 7cbe d069 64be
000000c0: 0b84 373c b661 3b3b 588a ecbd 63ce 90b9
000000d0: 3e93 50bc cf72 7d3a 646a 9cbb 8c8f c3bc
000000e0: 5897 56bd 1200 49be 6785 ef3b d633 05b8
000000f0: a27c 88ba 3f2e 9b3e 85a7 46bb 5f1b 813e
0.19905968 -0.007961411 -0.062749565 0.047948513 0.000474137 0.09911531 -0.005354116 -0.0018045106
-0.00074751687 0.059454847 0.13000853 -0.062007606 -0.00404973 0.0030904107 -0.009080793 0.28393972
0.02142702 0.008898581 0.0009665142 0.0014250771 -0.10975444 0.40410933 -0.00072981743 0.029196896
0.00075632636 -0.002335015 -0.015614965 0.009066804 0.24866578 -0.0015272739 0.0020319577 -0.003137911
-0.0025016922 -0.019272562 0.008129791 0.010891081 0.00094702275 -0.026326068 -0.39919528 -0.031881243
-0.19650185 0.2681385 0.03229131 -6.723685e-05 0.0036947718 -0.14872533 -0.24695277 -0.2230599
0.011200915 0.0028592176 -0.115498245 -0.0002761959 -0.012730418 0.0009668292 -0.004773425 -0.02387216
-0.052390426 -0.19628933 0.007309604 -3.1757947e-05 -0.001041312 0.3030872 -0.0030312252 0.25216195

weight f4 [5, 64]
00000000: eb67 253c a44d 48bb 804c a9bb 86d7 74bc
00000010: de64 a5b9 bc41 e43b a9f3 cfbb 6552 96bb
00000020: 1b4b 10bd 5656 afba 7953 20bb afc9 fcbb
00000030: a302 c8ba 0a29 9fbc c8da 87bb 2e31 83ba
00000040: 7ebf d3bb 369a e1bb d445 4f3b def4 28bc
00000050: d6a4 063c 6635 10bc a3f7 76bb 55e1 73bb
00000060: 18e7 cb3b 40a7 593c 6e36 5cbb 066a 50bb
00000070: 9d52 1cbc 5f5b 3f3a 7716 703b ad98 413b
00000080: af9a 67bc e0d4 c6ba e24b cb3b 78a8 58bb
00000090: fc99 abbb eed9 f43b 582c 0ebd e4af 16bd
000000a0: 9e6b 8d3a 73ad 323b fb36 68bb d41b 0b3c
000000b0: 5080 19bc 0cb1 f23a c185 96bc 8310 f7bb
000000c0: 7b6d 97ba 136f 2bbc 6370 0cbc 4517 193c
000000d0: b762 c13b 8744 de3b e996 51b9 7824 1fbc
000000e0: 7a8b f53b ab7b d7bc 8462 37bc b8a4 87bb
000000f0: 09f1 103c 6985 efba 06af b0bb fb0f 773b
00000100: 92e6 febc 5be3 b9bb 476a c83c a330 77ba
00000110: 875f 13bc 8c6d 16bd 38c9 62bb 5840 afb9
00000120: 8507 fe3b 70e1 64bc 19b8 33bb fc9f adba
00000130: 6d68 75bc 7ced ab3b 48cd 1b3b 4272 753c
00000140: a411 933b 0b06 9a3b c98d 16bc ca0c dbbb
00000150: 2029 11bd 72b0 fbba cbeb d3ba dad3 293c
00000160: 0060 e3bc 2c2e 4cbd ba12 7d3c 35e6 1bbb
00000170: e5c8 80ba 9009 c5bb 8dfc 25bc b770 09bc
00000180: d1d0 88bc c14e dfbb 9f66 ddbb 448a 1f3a
00000190: c0db 3b3c efbe eebc e77e 333d aa6a 8c3d
000001a0: 9ccc 51bb b2b0 cc3b d3ec cabb b223 35bd
000001b0: b15c 813b c7ca 3dbb 18d4 c13c c882 8f3c
000001c0: 5fef e0ba d0a0 123d d25c 9d3b bc0f bbbc
000001d0: b21a 07bd c425 16ba 21b4 dcba 02ec e93c
000001e0: d18a 86bc 2e36 983b 1b2e 6abc d2fe 0d3b
000001f0: e395 99bb b27f 20bb 7618 1ebc 7611 1abc
00000200: 7f66 073c 70e2 77ba 057c b0bc 1078 3ebc
00000210: 8af9 8fb9 eb65 c03a 96c7 d3bb 4ed0 47bb
00000220: 50e5 e7bc 1b02 053c 3015 8eba 46d4 0539
00000230: 277e a23a 02ec 89bc ecca c138 261b c4ba
00000240: cf79 41bb 99aa 763b 8900 533c 01a5 39bc
00000250: a639 ff3b d495 bebb 34ab 76ba 620b 7cbb
00000260: 011b ad3b 5380 5e3c 7b0e 77bb 5237 a63b
00000270: d753 53bc 3015 0f3b 40ab 2ebc ab1e 763b
00000280: 046a 5abc a126 9dba 845d 913b a133 1cb9
00000290: c956 71b8 4db7 bb3b 9887 00bd d078 0cbd
000002a0: d7ae f73a 67e6 a0bb 8b9c 903b d80b aa3b
000002b0: 9c20 87bc d25d fcb9 fdc0 6fbc 2156 74bc
000002c0: e2e2 0a3b 344a 90bb 1a57 00bb c464 4b39
000002d0: a703 223c a43a e53b fcce 253b 19b3 70bc
000002e0: e493 6e3b 8ae0 eabc 57d7 3f38 b70f adbb
000002f0: 138f da3a 87f5 893b da26 3f3b 989f 4c3b
00000300: be5a 273c 55a5 893b dca9 f9bb 310c debb
00000310: cfef 113c 0cbc b13b bcff 63bc dc5c fc3a
00000320: 36cf 0abd 9d95 823b 1dd8 243b b230 513b
00000330: 80af 6a3c 9059 2bbb 337e 0e3b dd79 13bc
00000340: 17a8 0c3a 1590 e13b 078f edba e8bd 30bc
00000350: 4e20 023c f2be 2bbc 6fff b5ba 4f01 6dbb
00000360: 3ab9 e53b 9db4 3a3c 6adc 35bb 60d0 d339
00000370: d0ad 55bc 6325 09ba 7804 823b 2d6e 6f3b
00000380: 2402 70bc a08e b13b b52d 10bb a2ff 993b
00000390: c645 5a3b e405 e53b ad78 34bd 6c12 2fbd
000003a0: 4e32 cd3b fc1a a6bb 9e40 323c 9b1b c83c
000003b0: f40c 5bbc f792 263b 7b7b a8bb 9d34 30bc
000003c0: dea8 a3b8 9061 9fbb 0b32 25bc bb40 043c
000003d0: 715d 1c3c d135 7fbb e657 3e3b 7bfe 06bc
000003e0: abfb 883b 2244 fdbc adb9 9dba c9e7 f13b
000003f0: 1cba 52bb 12ec 143b d14c 3f3b 07d5 d83b
0.010095577 -0.0030563856 -0.00516659 -0.014943963 -0.00031546404 0.006965844 -0.006346185 -0.004587459
-0.035227876 -0.001337717 -0.0024463816 -0.0077144722 -0.0015259575 -0.019428749 -0.004145954 -0.0010009164
-0.0064620366 -0.0068848385 0.0031627314 -0.010312287 0.008218011 -0.008801794 -0.0037684224 -0.0037213166
0.006222617 0.013284504 -0.0033601779 -0.0031801476 -0.009541181 0.0007299687 0.0036634484 0.0029540465
-0.014136001 -0.0015169643 0.0062041143 -0.00330594 -0.005236862 0.0074722683 -0.03471026 -0.036788836
0.0010789519 0.0027264028 -0.0035433162 0.008490521 -0.009368971 0.0018515899 -0.018374326 -0.00753981
-0.0011553013 -0.010463494 -0.008571717 0.009343927 0.0059016603 0.0067830714 -0.00019988012 -0.009713285
0.0074934335 -0.026304087 -0.011192922 -0.004139509 0.00884653 -0.0018274012 -0.005391958 0.0037698734
-0.031115804 -0.005672855 0.02446474 -0.00094295497 -0.008994943 -0.036725566 -0.00346048 -0.0003342654
0.0077523612 -0.013969764 -0.0027422963 -0.0013246532 -0.01497851 0.005246816 0.002377348 0.0149808545
0.004488187 0.0047004274 -0.009189078 -0.006684874 -0.03543961 -0.0019202365 -0.0016168294 0.010365451
-0.027755737 -0.04984872 0.015446359 -0.0023788337 -0.0009825496 -0.006013103 -0.010131014 -0.00838869
-0.016701134 -0.006814808 -0.006756618 0.0006085972 0.011465967 -0.029143779 0.043822195 0.06856282
-0.0032012826 0.0062466497 -0.0061927824 -0.044223495 0.0039478173 -0.0028959976 0.023660704 0.017518416
-0.0017161182 0.035797894 0.004802325 -0.022834651 -0.032984443 -0.00057276734 -0.001683835 0.02855492
-0.016423615 0.0046451306 -0.014293219 0.0021666777 -0.0046870573 -0.0024490175 -0.009649387 -0.009403577
0.008264183 -0.0009456044 -0.021543512 -0.011625305 -0.00027461007 0.0014678811 -0.0064630015 -0.003048915
-0.028307587 0.008118178 -0.0010840055 0.00012762946 0.0012397215 -0.01683617 9.240754e-05 -0.0014961704
-0.0029522066 0.0037638305 0.012878546 -0.011330844 0.0077888547 -0.0058162007 -0.00094096665 -0.0038458933
0.00528276 0.0135804 -0.003769784 0.0050725127 -0.012898407 0.0021832697 -0.010660946 0.00375549
-0.01333094 -0.0011989662 0.0044361968 -0.00014896553 -5.7539703e-05 0.0057286383 -0.031379312 -0.034294903
0.0018896711 -0.0049102786 0.0044131926 0.0051894 -0.016495042 -0.00048135087 -0.014633414 -0.014913113
0.0021192362 -0.004403377 -0.0019583167 0.00019397127 0.009888566 0.006995516 0.0025300374 -0.014691138
0.0036404068 -0.028671522 4.57385e-05 -0.0052814144 0.001667472 0.0042101773 0.0029167444 0.0031223055
0.010214506 0.0042006173 -0.007619126 -0.0067763557 0.0089072725 0.0054240283 -0.013915952 0.0019253748
-0.033889018 0.0039851204 0.0025153228 0.0031919894 0.014324069 -0.0026145913 0.00217427 -0.009001222
0.00053656235 0.006883631 -0.001812429 -0.010787465 0.007942272 -0.010482537 -0.0013885329 -0.003616411
0.007010606 0.011395601 -0.0027749785 0.00040400308 -0.013041928 -0.00052317063 0.003967818 0.0036534176
-0.014648948 0.0054186136 -0.00219999 0.0046996633 0.0033305748 0.0069892276 -0.044060398 -0.042742178
0.0062621003 -0.0050691348 0.010879664 0.024427226 -0.0133697875 0.0025417188 -0.005141673 -0.0107547315
-7.8039e-05 -0.0048639253 -0.010082732 0.008072074 0.009543763 -0.003894199 0.002904409 -0.008239384
0.004180392 -0.030916277 -0.0012033485 0.0073823673 -0.0032154387 0.0022723717 0.0029190073 0.0066171917

bias f4 [5]
00000000: 51d2 43bc eab8 14bc f547 4bbc 8743 53bc
00000010: 5a5c 1abc
-0.011951999 -0.00907729 -0.012407293 -0.012894518 -0.009421432
