model/medium-2/A2C/model_agent0_seed3.pt (torch, 109505 bytes, 11 tensors)

weight f4 [64, 134]
0	0x3de51ace	0.11186753
1	0xbd6a337a	-0.057177998
2	0x3e1013d0	0.14070058
3	0xbd2edf0e	-0.04269319
4	0xbdcea96a	-0.10090907
5	0xbddd976b	-0.10819896
6	0xbe1cf5a2	-0.15328076
7	0xbe605c5e	-0.21910235
8	0x3e01a283	0.1265965
9	0x3d8a08fe	0.067399964
10	0xbd2a6582	-0.04160071
11	0xbd40ea9c	-0.04709874
12	0xbd3ade64	-0.045622244
13	0xbcf97188	-0.030449644
14	0xbe64f018	-0.22357213
15	0x3d835b62	0.06413914
16	0x3e72ed52	0.23723343
17	0xbdf0058e	-0.117198095
18	0x3de2756f	0.11057555
19	0xbcc0ba23	-0.023526257
20	0xbcdd5762	-0.027019206
21	0xbe2c69e3	-0.16837268
22	0x3dd17c44	0.1022878
23	0x3e3d1729	0.18465866
24	0xbde27423	-0.110573076
25	0x3e1965af	0.14980195
26	0x3e4c4f77	0.19952188
27	0xbdbc2189	-0.09186084
28	0xbe2ae180	-0.16687584
29	0xbe02d78c	-0.12777537
30	0x3d86b049	0.065765925
31	0x3da04297	0.07825201
32	0xbe479dd2	-0.19493797
33	0x3db600d6	0.08886878
34	0xbddef0d1	-0.10885776
35	0xbd70f728	-0.058829457
36	0xbe81c855	-0.25348154
37	0x3c75ebf2	0.015009867
38	0x3d45e848	0.048317224
39	0xbc6353d2	-0.013874965
40	0x3d8d1516	0.068887874
41	0x3dbcc524	0.09217289
42	0x3def996a	0.11699183
43	0xbe1ae78e	-0.15127394
44	0x3d444cb8	0.047924727
45	0xbdca3470	-0.09873283
46	0xbb01e7fa	-0.0019822107
47	0xbd10911a	-0.03529463
48	0x3e0fa7cd	0.14028855
49	0x3c718e5d	0.014743415
50	0xbc9e7ccc	-0.019346617
51	0xbd7ac624	-0.061224118
52	0xbd0a51d1	-0.033769432
53	0xbcf6e1ff	-0.03013706
54	0xbe94e127	-0.29078028
55	0xbd9f2cb6	-0.077722
56	0xbe0d24ca	-0.13783565
57	0xbd094b11	-0.033518855
58	0xbe602e6d	-0.2189271
59	0x3e003fcd	0.12524338
60	0xbde5ed01	-0.112268455
61	0xbdb391b2	-0.087680236
62	0x3bcd54df	0.006266221
63	0x3e4530ec	0.19256943
64	0xbdcbeff4	-0.09957877
65	0xbcf819b4	-0.030285694
66	0xbe29d8ad	-0.16586562
67	0xbce59239	-0.028023826
68	0xbc97db4e	-0.01853719
69	0x3e23b322	0.15986302
70	0xbdbdbb5c	-0.092642516
71	0x3e2efde7	0.17089044
72	0x3dcf2f07	0.10116392
73	0xbd97fb09	-0.07420928
74	0xbe12d464	-0.14338833
75	0x3e32d066	0.1746231
76	0x3d8707ed	0.065933086
77	0x3d326c06	0.04356005
78	0x3e141c57	0.14463936
79	0x3e237528	0.1596266
80	0x3e1a0421	0.15040638
81	0x3e65669d	0.22402425
82	0x3e0dceaa	0.13848367
83	0x3cab7399	0.020929145
84	0xbe55fd69	-0.2089745
85	0xbeb48203	-0.3525544
86	0x3d120abd	0.035654772
87	0xbd6915e7	-0.056905653
88	0x3d739815	0.05947121
89	0xbe0ac98d	-0.13553448
90	0x3d84e1a1	0.06488348
91	0x3de59fe1	0.11212135
92	0x3b24f9d0	0.0025173314
93	0xbe3f87a0	-0.1870408
94	0x3d574877	0.052559342
95	0x3e04f9e5	0.12985952
96	0x3c2f00bb	0.0106813265
97	0x3e6b84f3	0.22999935
98	0xbdbac97a	-0.0912046
99	0x3e266ef3	0.16253261
100	0x3cdb958f	0.026804714
101	0x3cbf5b86	0.023359071
102	0xbd8aeeef	-0.06783854
103	0x3e11b459	0.14228953
104	0x3e066a75	0.13126548
105	0x3df0fba1	0.117667444
106	0xbdafe921	-0.08589388
107	0x3d801d41	0.0625558
108	0xbdc9e7b7	-0.09858649
109	0x3c9c5262	0.019082252
110	0xbdcb2609	-0.09919364
111	0x3dee0c98	0.11623496
112	0xbc7f74f2	-0.015591847
113	0x3d9ca612	0.07648863
114	0x3d8d8ae2	0.069112554
115	0xbd4cc22c	-0.049989864
116	0xbe1f3350	-0.15546918
117	0x3d87de8c	0.06634244
118	0x3a8ca8f0	0.00107315
119	0xbd230849	-0.039802823
120	0x3e27a2f8	0.16370761
121	0x3cb6f965	0.022335717
122	0x3d1d4926	0.038399838
123	0xbc845f4f	-0.016158728
124	0xbd691c60	-0.056911826
125	0xbe4c4c78	-0.19951046
126	0xbccab334	-0.024743654
127	0x3e775e1a	0.2415699
128	0xbd3d696a	-0.04624311
129	0x3e57f618	0.21089971
130	0xbd04ed14	-0.032452658
131	0xbd5bf440	-0.05369973
132	0xbe6237cd	-0.22091599
133	0x3c19b367	0.009381152
134	0xbcdc269c	-0.02687388
135	0xbd8353f5	-0.06412498
136	0xbcaa738f	-0.020807056
137	0xbe142a4a	-0.14469257
138	0x3e935ff5	0.28784147
139	0xbcdbf873	-0.026851868
140	0xbd153db1	-0.036435787
141	0x3da7f71f	0.082014315
142	0xbe18a6f0	-0.14907432
143	0xbd0ea4f4	-0.03482528
144	0xbd0058e7	-0.031334784
145	0x3dc9c0d2	0.09851231
146	0x3c7a7aec	0.015288096
147	0xbd5d5e08	-0.054044753
148	0xbe7e1429	-0.24812378
149	0x3d2b1714	0.041770056
150	0xbc58c567	-0.013230658
151	0xbd8e06d8	-0.06934899
152	0x3e26c24a	0.16285053
153	0x3e825319	0.25454023
154	0xbdea836e	-0.114508495
155	0x3e064e81	0.13115884
156	0x3e125c39	0.14292993
157	0x3dac2d1c	0.084070414
158	0x3dd231b6	0.10263388
159	0x3d0c84c9	0.03430632
160	0x3d512175	0.051057298
161	0x3e49dd73	0.19713382
162	0xbddf9566	-0.10917167
163	0x3d071a3c	0.032984003
164	0xbe26b0a3	-0.16278319
165	0x3e263c70	0.16233993
166	0x3cd0f43f	0.02550709
167	0xbcf9e372	-0.030503962
168	0x3c09e8b0	0.008417293
169	0x3d7fcfbd	0.062453974
170	0xbe098739	-0.1343049
171	0xbb6b213c	-0.0035877964
172	0x3d2f65ed	0.042821813
173	0x3dcdf4b8	0.10056442
174	0xbe45eb98	-0.19328153
175	0x3e24a6b9	0.16079225
176	0xbd200e70	-0.03907627
177	0x3d275163	0.0408491
178	0x3d0ace04	0.033887878
179	0xbe097d5c	-0.13426727
180	0xbd9e9ec2	-0.077451244
181	0xbe3b96b1	-0.18319203
182	0x3e05b56c	0.13057488
183	0x3e4ffd6c	0.20311517
184	0x3e42d1fe	0.19025418
185	0xbdb03514	-0.08603874
186	0x3dc8b5ad	0.09800277
187	0xbc3475ff	-0.011014461
188	0xbe958897	-0.29205772
189	0x3c067db1	0.008208678
190	0x3da41e2b	0.080135666
191	0x3e0a9fa3	0.13537459
192	0x3d409835	0.047020156
193	0x3dd9a94f	0.10627996
194	0xbda81853	-0.082077645
195	0x39ddb09c	0.0004228399
196	0x3db1045d	0.0864341
197	0xbe106eed	-0.14104815
198	0x3e14d03f	0.14532565
199	0xbddea285	-0.10870842
200	0x3e383b83	0.17991452
201	0xbe415407	-0.1887971
202	0x3e6a61c1	0.22888853
203	0xbe35d4cd	-0.17756958
204	0xbe1a3c9c	-0.15062183
205	0x3d6845d4	0.05670722
206	0xbd142a07	-0.036172893
207	0x3e4f204d	0.20227166
208	0xbb6e43c4	-0.003635631
209	0xbde06bfd	-0.10958097
210	0xbd727d25	-0.05920138
211	0x3c6afdee	0.014342768
212	0xbdb71fac	-0.08941588
213	0x3d91c09a	0.07116814
214	0xbec5ecdd	-0.38657275
215	0xbd1d55ae	-0.03841179
216	0x3e04202c	0.12902898
217	0x3d05e6ff	0.032691
218	0x3d494373	0.04913659
219	0xbd72c2bb	-0.05926774
220	0x3c5c9dd2	0.013465362
221	0xbd276fb3	-0.04087801
222	0xbe1e7b98	-0.15476835
223	0xbd52c83b	-0.051460486
224	0x3dd87458	0.10569066
225	0x3e0c9237	0.13727652
226	0x3e745976	0.23862252
227	0xbd473c09	-0.04864124
228	0xbe20d06f	-0.15704511
229	0x3da91375	0.08255664
230	0x3d51c962	0.051217444
231	0x3cec8adb	0.028874805
232	0xbc0bfdd1	-0.008544401
233	0x3ddcb257	0.10776203
234	0x3b83b475	0.004019315
235	0xbcb65a06	-0.022259723
236	0xbdc9859d	-0.09839938
237	0xbd259343	-0.040423643
238	0x3df1a1fd	0.11798475
239	0xbc8da1a7	-0.017288996
240	0x3e1749aa	0.14774194
241	0x3cf4073f	0.029788611
242	0x3dd794b3	0.10526409
243	0xbe4a9690	-0.19783998
244	0x3e11768e	0.14205381
245	0x3e32d708	0.1746484
246	0x3d6324ac	0.055454895
247	0x3e027752	0.1274083
248	0xbcced763	-0.025249189
249	0xbdfc9a68	-0.12334138
250	0x3e2480f7	0.16064821
251	0xbd1b88cc	-0.037972257
252	0x3da92111	0.0825826
253	0xbd990cef	-0.0747317
254	0xbc14a74b	-0.009073089
255	0xbd2c642e	-0.042087726

bias f4 [64]
0	0x3ae3a3c3	0.001736753
1	0xbaf869bb	-0.0018952409
2	0xbc186d33	-0.009303379
3	0xbb11b95a	-0.0022235722
4	0x3a2f4ed2	0.00066874654
5	0xbc6ddff8	-0.01451873
6	0xbb719c96	-0.0036867014
7	0xb921e710	-0.00015440234
8	0xbbcf15cd	-0.0063197375
9	0x3a0b9bf6	0.0005325669
10	0xbbb4d8b1	-0.0055189957
11	0xb9ec87ec	-0.00045114697
12	0xbca739bf	-0.020413278
13	0xbb8ccf2d	-0.004297158
14	0xbbc9e450	-0.00616125
15	0xbb1c4f4e	-0.002385098
16	0x3be7f27e	0.007078468
17	0xbc4a1662	-0.012334438
18	0xbc770668	-0.015077211
19	0xbab08d72	-0.0013469888
20	0x3728c540	1.0059506e-05
21	0xb9519f8d	-0.0001999123
22	0xbae64fce	-0.0017571391
23	0xbc162d56	-0.009166082
24	0xbc939787	-0.01801659
25	0xba76d3e0	-0.0009415727
26	0xbbbc46d6	-0.005745749
27	0xbca0885f	-0.019596277
28	0x3af439dd	0.0018632967
29	0x3b163a5f	0.0022922975
30	0xbb461736	-0.0030226237
31	0xbb950294	-0.0045474265
32	0xbc7757ae	-0.015096588
33	0xbc2dfd27	-0.010619438
34	0xbac86ab6	-0.0015290591
35	0x33e41e5d	1.06226004e-07
36	0xb95cc2c5	-0.00021053392
37	0xbc8beb9c	-0.01708012
38	0xbaf13042	-0.0018401223
39	0xbb137b69	-0.0022503978
40	0xb9d7a875	-0.00041133506
41	0x00000000	0.0
42	0xbb8588e7	-0.004075158
43	0xbbce73a1	-0.006300405
44	0x3a4b04ec	0.0007744569
45	0xb96eeb82	-0.00022785182
46	0x39f0cddf	0.00045929753
47	0x39f09d3e	0.00045893522
48	0xbb19c0d2	-0.0023460877
49	0xbb44e16e	-0.0030041593
50	0xbba17005	-0.004926684
51	0xbbe92969	-0.007115532
52	0xbbff5671	-0.007792287
53	0xba8e14a1	-0.0010839888
54	0xbc7b623c	-0.015343245
55	0x3b85f003	0.0040874495
56	0xbbd9f03e	-0.0066509536
57	0x3ab577a5	0.0013844861
58	0xbc3f949d	-0.011693147
59	0xbcb610dd	-0.022224838
60	0xbbb06b40	-0.005383879
61	0x3b4b731b	0.003104395
62	0xb9ae236b	-0.00033214255
63	0xbcadd7c1	-0.021221044

weight f4 [64, 64]
0	0x3e745d37	0.23863684
1	0xbde6a9b7	-0.11262839
2	0xbe623064	-0.22088772
3	0xbe2eccab	-0.17070262
4	0xbdc7577b	-0.097334825
5	0x3e4b6bab	0.19865291
6	0xbda95671	-0.082684405
7	0x3db12ff1	0.08651722
8	0x3d15e19d	0.036592115
9	0x3daf4fae	0.085601196
10	0x3e19867a	0.14992705
11	0x3d93f64f	0.07224714
12	0x3dbdde0d	0.092708685
13	0x3ea4919f	0.3214235
14	0xbd074beb	-0.033031385
15	0x3d8b7541	0.06809474
16	0xbded84c9	-0.115975924
17	0x3d43cac0	0.04780078
18	0x3eb69ff4	0.3566891
19	0x3d8eec29	0.06978638
20	0x3e489d50	0.1959126
21	0xbd3ef95e	-0.046624534
22	0xbe0c9e9c	-0.1373238
23	0x3c9bd610	0.019022971
24	0x3d8978c3	0.067124866
25	0xbd13b8b8	-0.036064833
26	0x3de2112f	0.11038434
27	0x3d42ca22	0.04755605
28	0x3e9c8d6f	0.30576655
29	0xbe62366f	-0.22091077
30	0xbd58c81f	-0.052925225
31	0xbc2143bb	-0.009842808
32	0x3dc233de	0.09482549
33	0xbe835ecc	-0.25658262
34	0x3d1e3e82	0.03863383
35	0xbd92843e	-0.071541294
36	0xbe36d6e4	-0.17855412
37	0x3e9f974c	0.31170118
38	0x3e89b630	0.2689681
39	0xbe922318	-0.285424
40	0xbe474335	-0.19459231
41	0xbe690da0	-0.22759104
42	0x3dbe0831	0.09278906
43	0xbb511521	-0.0031903463
44	0x3de70fef	0.11282336
45	0xbe1262ce	-0.14295503
46	0xbdabc848	-0.0838781
47	0xbe4b2108	-0.19836819
48	0xbd340ebc	-0.043959364
49	0xbcca1377	-0.024667485
50	0xbe1d6241	-0.15369512
51	0x3ed851ce	0.42249912
52	0x3bc544f5	0.006020183
53	0xbb833574	-0.004004175
54	0x3cc676fe	0.024226662
55	0x3d96c2a0	0.073613405
56	0xbdc1b282	-0.09457876
57	0xbe784294	-0.24244148
58	0x3edea5d7	0.434859
59	0x3e901e39	0.28148058
60	0xbe01b332	-0.12666014
61	0x3d51dd6e	0.051236562
62	0xbc4952bc	-0.012287792
63	0x3e2cf6d8	0.16891038
64	0xbd505295	-0.050860006
65	0xbd87861b	-0.066173755
66	0x3d2cb803	0.042167675
67	0xbbddde65	-0.0067708963
68	0xbe6fc7b1	-0.2341602
69	0xbd96b1d2	-0.07358135
70	0xbeacbaa9	-0.3373616
71	0xbe163004	-0.14666754
72	0xbe298e6e	-0.16558239
73	0xbdc1d13c	-0.094637364
74	0x3c169fe7	0.009193397
75	0xba1f2ef3	-0.00060723646
76	0xbe35a586	-0.17738923
77	0xbdab1a06	-0.08354573
78	0xbdf2bcb1	-0.11852396
79	0xbdd36170	-0.10321319
80	0x3d850497	0.06495016
81	0xbdf1b728	-0.118025124
82	0xbe2a10f2	-0.16608027
83	0x3e5cc56a	0.21559682
84	0x3e29d61e	0.16585585
85	0xbd1777ea	-0.036979593
86	0x3de9ce12	0.11416258
87	0xbd4f19f6	-0.050561868
88	0xbec17016	-0.37780827
89	0x3df40bab	0.11916288
90	0xbda9b7ef	-0.08287036
91	0xbdd86ddb	-0.10567828
92	0xbe8b5d84	-0.27219784
93	0xbe8b9925	-0.27265278
94	0xbd46f40a	-0.048572578
95	0xbea49c6b	-0.32150587
96	0x3dc98606	0.09840016
97	0xbcea4fd1	-0.028602513
98	0x3c4b8ee1	0.012424202
99	0x3d471781	0.0486064
100	0xbec85d4b	-0.39133677
101	0x3e4def84	0.20110899
102	0xbe06bbbd	-0.13157554
103	0xbe1600b1	-0.14648701
104	0x3e423fad	0.18969603
105	0xbc4d2124	-0.012520108
106	0x3e776baf	0.24162172
107	0xbdff36ad	-0.124616005
108	0xbc6ec9f6	-0.014574518
109	0xbe37ce2c	-0.17949742
110	0xbe6bde5e	-0.23034045
111	0xbd31256e	-0.043248586
112	0xbe8f3078	-0.27966666
113	0xbd172cdb	-0.036908012
114	0xbe927606	-0.2860567
115	0xbe242641	-0.16030218
116	0x3cb4de38	0.022078618
117	0x3db101c1	0.08642913
118	0xbd47017e	-0.048585407
119	0xbeecfe18	-0.46287608
120	0x3db25f0d	0.08709536
121	0xbdeda32b	-0.116033874
122	0x3e7c6601	0.24648286
123	0x3d5d0f12	0.05396945
124	0xbe3beeb4	-0.18352777
125	0xbe8fa566	-0.28055876
126	0xbda6a2fe	-0.08136557
127	0xbe896a2a	-0.2683881
128	0xbed9e34f	-0.42556235
129	0x3e894d11	0.2681661
130	0x3e124616	0.14284548
131	0xbe77671b	-0.24160425
132	0xbdc973bf	-0.0983653
133	0xbe2b3725	-0.16720255
134	0x3d2cff58	0.042235702
135	0xbdbd1c20	-0.0923388
136	0x3ed2febf	0.4120998
137	0xbdf316c1	-0.11869574
138	0xbcb1fa20	-0.021725714
139	0xbec107ff	-0.37701413
140	0xbd2b7493	-0.04185922
141	0x3e833146	0.2562353
142	0x3dfd35a2	0.12363745
143	0xbe33b8d9	-0.17550983
144	0xbde79f09	-0.113096304
145	0xbe24022b	-0.16016452
146	0xbe199c16	-0.15000948
147	0xbe4626c8	-0.19350731
148	0x3d9f07ec	0.07765183
149	0x3e0054d9	0.12532367
150	0xbe3ccd6d	-0.18437739
151	0x3eb0744c	0.34463727
152	0xbd8e0b57	-0.06935757
153	0xbccca816	-0.024982493
154	0x3d1fef27	0.039046433
155	0x3e63974c	0.22225684
156	0x3e4f36f1	0.20235802
157	0xbc760856	-0.015016636
158	0xbe1a0d59	-0.15044154
159	0x3ba7934d	0.005113995
160	0xbdbc41e4	-0.09192255
161	0xbe30b52b	-0.1725661
162	0xbda73bb6	-0.08165686
163	0x3d3b2505	0.0456896
164	0x3d1b0ac8	0.03785208
165	0xbdc77950	-0.097399354
166	0x3d689f09	0.056792293
167	0x3cbd1be5	0.02308459
168	0x3db868ad	0.0900434
169	0xbd6f1987	-0.058373954
170	0x3e767efe	0.24071881
171	0x3d649273	0.055803727
172	0xbc3f5d17	-0.011679909
173	0xbe875124	-0.26429093
174	0xbe002a87	-0.12516223
175	0xbd7938c5	-0.060845155
176	0x3de8f79f	0.11375355
177	0x3e48b215	0.19599183
178	0x3e34a482	0.1764088
179	0xbe1074dd	-0.1410708
180	0x3e88c7b0	0.2671485
181	0xbe1f8a1c	-0.15580028
182	0xbe0e015c	-0.13867706
183	0xbe9a65da	-0.30155832
184	0x3d560950	0.052254975
185	0x3a588131	0.0008258997
186	0x3d032eff	0.03202724
187	0x3e3acaa2	0.18241361
188	0x3e3714b5	0.17878993
189	0xbd0e00a6	-0.034668587
190	0xbebfb815	-0.3744513
191	0x3e2fe7f6	0.1717833
192	0x3d86e808	0.06587225
193	0x3ea30fbe	0.31847948
194	0xbd537e54	-0.051634148
195	0x3e45aa69	0.19303288
196	0x3dd8a2e3	0.10577943
197	0xbdde18ba	-0.1084456
198	0x3e321181	0.1738949
199	0xbd96011b	-0.073244296
200	0x3e32a89f	0.17447136
201	0xbd856b24	-0.06514576
202	0xbd56bf00	-0.052428246
203	0x3dc4db65	0.09612159
204	0x3f03795f	0.5135707
205	0xbe101fc1	-0.14074613
206	0xbdc6af9e	-0.09701465
207	0xbe9b27a1	-0.30303672
208	0xbd99674d	-0.07490406
209	0xbe297ba5	-0.16551073
210	0x3c7727ec	0.015085202
211	0xbcc0ea29	-0.023549156
212	0x3de1bfc9	0.11022908
213	0x3db8839d	0.09009478
214	0x3e5fb296	0.21845469
215	0xbd42b236	-0.047533236
216	0x3e10af78	0.14129436
217	0x3e0f6a64	0.14005429
218	0x3e146493	0.14491491
219	0xbe390f4b	-0.1807224
220	0xbe0c1814	-0.1368106
221	0xbd09ec13	-0.033672404
222	0xbe86bdbe	-0.26316637
223	0xbdb5ca87	-0.0887652
224	0x3e9b2819	0.3030403
225	0xbe60b8f1	-0.2194555
226	0x3e057cdc	0.13035911
227	0x3ede171e	0.43377012
228	0xbd840519	-0.06446285
229	0xbdd7e4f0	-0.10541713
230	0xbe3fb9a0	-0.18723154
231	0x3e80fd09	0.2519305
232	0x3c817834	0.015804388
233	0xbdf27ddf	-0.11840414
234	0xbe706aa2	-0.23478177
235	0x3becf2e9	0.0072311056
236	0x3e97cd21	0.29648688
237	0x3c7659ca	0.015036056
238	0xbd43dc13	-0.0478173
239	0xbdf738dd	-0.12071393
240	0xbbba1876	-0.0056791855
241	0xbebb9fc6	-0.36645335
242	0x3e1ce14e	0.15320322
243	0x3e2b0f6c	0.16705102
244	0x3d7db786	0.0619426
245	0xbd853110	-0.065034986
246	0x3da37ac2	0.079823986
247	0x3d0d560f	0.0345059
248	0xbc5f7b32	-0.013640212
249	0xbe61f399	-0.22065581
250	0x3d45acd9	0.048260543
251	0x3b30c4e9	0.0026972836
252	0x3d065191	0.03279263
253	0xbe8f4694	-0.27983534
254	0xbe4ede61	-0.20202018
255	0xbe3ac9cf	-0.18241046

bias f4 [64]
0	0xbceda3c6	-0.029008757
1	0x00000000	0.0
2	0xbc5aee66	-0.013362503
3	0xbc7568e7	-0.014978624
4	0xbbd6674b	-0.006543075
5	0xbc174ee2	-0.009235116
6	0xbb6ccd7d	-0.0036133223
7	0xba1c8710	-0.00059710536
8	0xbbe7e502	-0.0070768604
9	0xbbb52fe5	-0.005529391
10	0x3727dbda	1.0005164e-05
11	0xbc3dbc82	-0.011580588
12	0xbc944ed6	-0.018103998
13	0xb90faa85	-0.00013701066
14	0xba9b27d9	-0.0011837437
15	0xbb447721	-0.0029978233
16	0xbc9de5b9	-0.01927458
17	0xbc19145f	-0.009343236
18	0xbc419055	-0.011814197
19	0xbc43f883	-0.011961105
20	0xbce3b729	-0.027797299
21	0x392ff4d9	0.00016780513
22	0xbc85b138	-0.016319856
23	0x373d8443	1.1296072e-05
24	0xbb036f9d	-0.002005554
25	0xbae245c1	-0.001726322
26	0xbc38f264	-0.011288259
27	0xbc12d375	-0.008961548
28	0xbc88060a	-0.016604442
29	0xbc459cae	-0.012061281
30	0xbcb24b85	-0.021764526
31	0xbb9eb2ba	-0.004843083
32	0xbc5b5912	-0.013387935
33	0xb79f7505	-1.9008769e-05
34	0xbaa85d98	-0.0012845276
35	0xbc0d9f20	-0.008643895
36	0xbbe9bd06	-0.007133129
37	0xbc4486f5	-0.011995067
38	0xbcc26326	-0.023728918
39	0xbbbcfe14	-0.005767593
40	0xb9ec2fbc	-0.00045048993
41	0xbc5cec87	-0.013484127
42	0xba9450ab	-0.0011315545
43	0xbc213215	-0.009838601
44	0xbb74c242	-0.0037347232
45	0xbb829b52	-0.003985801
46	0xbbf57e1a	-0.007491839
47	0xbc7900d7	-0.015197954
48	0xbc26fa66	-0.010191536
49	0xb7121e40	-8.709321e-06
50	0xbaa35d0b	-0.0012463642
51	0xba0e9d9c	-0.0005440356
52	0xb75be937	-1.3107717e-05
53	0xbbf6a2a4	-0.0075267125
54	0xba5ed689	-0.0008500596
55	0xb6cdaeac	-6.1298106e-06
56	0xbbb5b95a	-0.0055457773
57	0xbbdb607e	-0.0066948524
58	0xbccc9719	-0.024974393
59	0xb9f5ff4e	-0.00046920258
60	0xbb66a45f	-0.0035193188
61	0xbb96f16f	-0.004606418
62	0xbb2c708e	-0.0026312205
63	0xbc0023b0	-0.007821009

weight f4 [64, 134]
0	0x3d308115	0.043091852
1	0x3d5e4684	0.054266468
2	0x3e519481	0.20466806
3	0xbe7b756d	-0.24556513
4	0xbe191b2f	-0.14951776
5	0x3de121b4	0.109927565
6	0x3d0f5079	0.034988854
7	0xbda8cad3	-0.08241811
8	0x3cdadc65	0.02671642
9	0x3b07310a	0.0020628595
10	0xbda50c27	-0.080589585
11	0x3e13ef77	0.14446817
12	0xbe2fe8d1	-0.17178656
13	0xbdb08e08	-0.0862084
14	0xbd4c29eb	-0.049844664
15	0x3e24baa0	0.16086817
16	0x3ea953ec	0.3307184
17	0x3d7b908c	0.061417148
18	0x3de7dfb5	0.113219656
19	0x3d7bf1d4	0.061509922
20	0xbd72a159	-0.059235904
21	0x3caef76c	0.021358214
22	0x3d825bcc	0.06365165
23	0xbdd7f211	-0.105442174
24	0xbd8323a4	-0.06403282
25	0xbd29d282	-0.04146052
26	0xbe23e752	-0.1600621
27	0xbc8bcb3a	-0.01706468
28	0x3d9f4d9b	0.07778474
29	0xbd906ed9	-0.070523925
30	0xbe2afc81	-0.16697885
31	0x3b1a7946	0.002357082
32	0xba830374	-0.0009995536
33	0x3cf189e8	0.029484704
34	0xbc2f96c0	-0.010717094
35	0xbdcb55a4	-0.09928444
36	0xbcaabf7b	-0.020843258
37	0x3e28c747	0.16482268
38	0xbe1a39d3	-0.1506112
39	0xbea729a2	-0.3264895
40	0x3bf309e8	0.0074169524
41	0x3d3b229b	0.0456873
42	0xbe4aa06c	-0.19787759
43	0xbc9571c4	-0.018242724
44	0xbe14e381	-0.14539911
45	0x3de286b7	0.11060851
46	0xbdedeacc	-0.116170496
47	0xbcb6217b	-0.022232762
48	0x3cf7f6a4	0.030268975
49	0x3d16956e	0.0367636
50	0x3e13fe32	0.14452437
51	0x3e278109	0.16357817
52	0x3d6b9623	0.05751623
53	0xbbcb7d87	-0.0062100324
54	0xbd4673ce	-0.048450284
55	0xbe416cea	-0.18889204
56	0xbc85046d	-0.016237462
57	0xbd7734bc	-0.060353026
58	0x3cc56b83	0.024099117
59	0xbd787359	-0.06065688
60	0x3d870978	0.06593603
61	0xbdc7eb1e	-0.09761642
62	0x3ca33f1c	0.019927554
63	0x3e05b352	0.13056687
64	0x3e731b8e	0.2374098
65	0x3df2b0fc	0.11850163
66	0xbe302e44	-0.17205149
67	0xbda946d1	-0.0826546
68	0xbe60b55d	-0.21944185
69	0xbc5a828b	-0.013336788
70	0xbe55bed2	-0.20873573
71	0x3e2d23a8	0.16908133
72	0x3d7c6b5c	0.061625823
73	0x3e01dfd3	0.12683038
74	0xbbda6a61	-0.0066655134
75	0xbe1b431f	-0.15162323
76	0xbde45098	-0.111481845
77	0xbe2f37c5	-0.17111118
78	0xbdbe8790	-0.093032
79	0xbd184e2d	-0.03718393
80	0x3da04e4b	0.07827433
81	0xbd96042e	-0.07325016
82	0x3d86e6a4	0.0658696
83	0x3debe28e	0.11517821
84	0xbcfb7c2a	-0.030698854
85	0xbe052150	-0.13000989
86	0x3d6c52f0	0.057696283
87	0xbe700e32	-0.23442915
88	0xbced51f2	-0.028969739
89	0x3e7b978a	0.24569526
90	0xbd67d7ba	-0.056602217
91	0x3d628cff	0.055310246
92	0x3dca9629	0.09891922
93	0x3dffa640	0.124828815
94	0x3dfd92bc	0.12381503
95	0x3e4ffb7a	0.20310774
96	0xbdd336ad	-0.10313163
97	0xbd201e74	-0.039091542
98	0xbc05648a	-0.008141646
99	0xbb4d26c2	-0.003130362
100	0xbc980a98	-0.018559739
101	0xbdb3b1f4	-0.08774176
102	0x3aaf8788	0.0013391832
103	0x3dfb3f81	0.12267972
104	0x3c492789	0.012277492
105	0xbd835a80	-0.06413746
106	0x3e3ebb64	0.18626171
107	0xbdfc6477	-0.1232385
108	0xbe36094f	-0.17776988
109	0x3d1947a3	0.037421834
110	0xbc882288	-0.016618028
111	0xbe03be31	-0.12865521
112	0xbd90d755	-0.07072321
113	0x3e8b2c5d	0.27182284
114	0xbc0fb79e	-0.008771805
115	0x3c84f3e2	0.016229574
116	0xbdca4ad1	-0.09877551
117	0xbd8b871c	-0.068128794
118	0xbd3a411f	-0.04547226
119	0xbddb58a1	-0.10710264
120	0xbb4951a6	-0.0030718832
121	0xbdbaa829	-0.09114105
122	0x3e6c1d00	0.23057938
123	0xbd0c0e71	-0.03419346
124	0xbe03db09	-0.12876524
125	0xbdb626e0	-0.088941336
126	0xbe1c5ea8	-0.15270483
127	0xbcffdbfe	-0.03123283
128	0xbcb69f4e	-0.02229276
129	0x3d0e9b59	0.03481612
130	0x3e5406a2	0.20705655
131	0xbd4991e8	-0.049211413
132	0x3e0f7a1f	0.14011429
133	0xbe7c4500	-0.24635696
134	0xbe0104e9	-0.1259953
135	0xbd8ce6ef	-0.068799846
136	0x3ded38a3	0.11583068
137	0x3e040654	0.12893039
138	0xbde49348	-0.11160904
139	0xbd4031fe	-0.046922676
140	0xbe122a2e	-0.14273903
141	0xbce8b588	-0.028406873
142	0xbd0dcbc7	-0.034618165
143	0xbdb1d7b6	-0.08683722
144	0xbd7a87ae	-0.06116455
145	0xbb8f9300	-0.0043815374
146	0x3e3fbcd5	0.18724377
147	0x3e007826	0.12545833
148	0xbe0668c1	-0.13125898
149	0xbbdc3785	-0.0067204856
150	0xbe34971a	-0.17635766
151	0xbd878754	-0.06617609
152	0x3d436036	0.047699176
153	0x3e3ccfd7	0.1843866
154	0xbd055131	-0.032548133
155	0x3d4e9c69	0.050442133
156	0x3ba5ccab	0.0050597987
157	0xbce205ba	-0.027590621
158	0x3e8ebd16	0.27878636
159	0xbdcada1a	-0.09904881
160	0xbcdc115b	-0.026863744
161	0x3e23885d	0.15969987
162	0x3e557560	0.20845556
163	0x3e0525ac	0.13002652
164	0x3e2df7e2	0.16989091
165	0x3e437830	0.19088817
166	0xbe04b1f6	-0.12958512
167	0x3b0a2376	0.0021078265
168	0x3e286701	0.16445543
169	0xbda65b3f	-0.081228726
170	0xbb8ecac6	-0.0043576686
171	0xbe02a355	-0.12757619
172	0xbdd83c52	-0.1055838
173	0xbe0a7739	-0.13522042
174	0x3c44ee9c	0.0120197795
175	0xbd538032	-0.05163593
176	0x3e0ea546	0.13930234
177	0xbe2cefc0	-0.16888332
178	0x3da8ab98	0.08235854
179	0x3dff667c	0.12470719
180	0xbdd8aab5	-0.10579435
181	0x3dc810ed	0.09768853
182	0x3cee5115	0.029091397
183	0xbd3d8778	-0.04627177
184	0x3ccc6d07	0.024954332
185	0xbc472eee	-0.012157185
186	0xbe12ead5	-0.14347394
187	0x3c98e7ee	0.01866528
188	0xbdcf17c6	-0.10111956
189	0xbc6c04b0	-0.014405414
190	0xbc08642c	-0.008324664
191	0xbe2e3559	-0.17012538
192	0x3cee7985	0.02911068
193	0x3c92db94	0.017926969
194	0x3dca218f	0.09869682
195	0xbd93e6ea	-0.07221778
196	0x3c80cb0b	0.015721818
197	0x3e448def	0.19194768
198	0xbe378a3d	-0.17923827
199	0x3d351f9a	0.04421959
200	0xbbac147f	-0.0052514668
201	0x3da57a50	0.0807997
202	0xbd2ba4c5	-0.041905183
203	0xbe1415b3	-0.14461403
204	0x3db7bcd2	0.089715615
205	0x3dca1a6c	0.09868321
206	0x3e20f65c	0.15718979
207	0x3e6c6c38	0.23088157
208	0xbe171a8d	-0.14756222
209	0xbe3113c7	-0.172927
210	0x3d9c2e30	0.07625997
211	0xbd6608b2	-0.056160636
212	0x3c9eadc4	0.019369967
213	0x3e164df6	0.14678177
214	0x3c8cbf37	0.017181022
215	0xbd05cd5b	-0.032666545
216	0xbe3d5661	-0.18489982
217	0xbdec07c1	-0.115249164
218	0xbe335ba9	-0.17515434
219	0xbe295a47	-0.16538344
220	0xbdb5af54	-0.08871332
221	0x3e8de2c5	0.27712074
222	0xbd6d5b2f	-0.057948288
223	0xbd2ca2fe	-0.04214763
224	0x3e0e0017	0.13867222
225	0xbe1d016e	-0.15332577
226	0xbd8ba2e0	-0.06818175
227	0x3d114a07	0.03547099
228	0x3e54c05e	0.20776507
229	0xbdba1446	-0.09085898
230	0x3e18d9ba	0.14926806
231	0x3d6074ac	0.054798767
232	0x3da682ca	0.08130415
233	0xbd344b7c	-0.0440173
234	0x3e68a468	0.22718966
235	0x3d2484f0	0.04016584
236	0x3e65b7ed	0.22433443
237	0x3ccb6697	0.024829192
238	0x3dcf3fa7	0.101195626
239	0xbd86bed0	-0.06579363
240	0x3e71d49f	0.23616265
241	0x3e9e39a1	0.30903342
242	0xbdf372a9	-0.11887104
243	0xbd8301a3	-0.063967966
244	0xbdbe120a	-0.092807844
245	0x3d573a79	0.052546
246	0xbd8cf9db	-0.06883594
247	0x3dfd03cf	0.12354242
248	0x3dc0b626	0.09409742
249	0xbe2f90db	-0.17145102
250	0xbcf11291	-0.029427798
251	0xbdfa8d65	-0.12234
252	0x3e55b8a0	0.2087121
253	0xbc7deaa4	-0.015497837
254	0x3e0102c1	0.12598707
255	0xbcd30de1	-0.025763454

bias f4 [64]
0	0x3ba7a95e	0.0051166257
1	0xbc7cf8fa	-0.01544022
2	0xbcef2f7b	-0.029197445
3	0xbbc756d2	-0.006083348
4	0xbc78587c	-0.015157815
5	0xbc05fa21	-0.008177311
6	0xbaa670c7	-0.0012698405
7	0xbd74003e	-0.059570543
8	0x00000000	0.0
9	0x3c88ee2b	0.01671513
10	0x3c542568	0.0129483715
11	0x3b920ac4	0.00445685
12	0xbcca697c	-0.024708502
13	0xbc197cda	-0.009368146
14	0xbcab9f88	-0.020950094
15	0xbd1774d7	-0.03697666
16	0xbcc085d8	-0.023501322
17	0xbc91b694	-0.017787255
18	0xbc3cb06a	-0.01151667
19	0xbc689d59	-0.014197671
20	0xbc7c7738	-0.015409283
21	0xbb63d579	-0.003476469
22	0x3cebb747	0.028773917
23	0xbc9689a5	-0.01837618
24	0x3c7b1894	0.015325684
25	0xbc206ac7	-0.009791083
26	0xbc192e0d	-0.009349358
27	0xba5ef13a	-0.00085045735
28	0xbb275ad6	-0.002553632
29	0xbcdb659a	-0.026781846
30	0x3bdd3700	0.0067509413
31	0xbaf7da3e	-0.0018909646
32	0xbcf412a5	-0.029794047
33	0xbc7dd24f	-0.015492036
34	0xbc119ac8	-0.008887
35	0xbd0a37ce	-0.033744626
36	0xbc872f5f	-0.01650208
37	0x386449f8	5.4428325e-05
38	0xbc267374	-0.010159362
39	0xbba2b74f	-0.0049656997
40	0x3abb2437	0.0014277761
41	0xbc6e0f61	-0.014530034
42	0xbb9a951f	-0.0047174837
43	0xbd61dc6c	-0.05514185
44	0xbd2eced9	-0.042677734
45	0xbbe5c1b8	-0.0070116185
46	0xbc4e6259	-0.01259669
47	0xbbdacbc6	-0.0066771237
48	0xbcd9e832	-0.026599977
49	0xbb7f9071	-0.0038996006
50	0xbc907ba2	-0.017637078
51	0xbc30e63c	-0.01079708
52	0xbc646ada	-0.013941491
53	0xbbae727b	-0.0053237057
54	0xbb49217c	-0.0030690124
55	0xbceefa39	-0.02917205
56	0xbce180c6	-0.027527224
57	0xbd0dd5b9	-0.03462765
58	0xbc8236ae	-0.015895214
59	0xbcd995d9	-0.02656071
60	0x3c62e2ef	0.0138480505
61	0xbd12d166	-0.03584423
62	0xbc90da58	-0.01768224
63	0xbc13ad33	-0.009013462

weight f4 [64, 64]
0	0xbd12e238	-0.03586027
1	0x3d95b4b2	0.073098555
2	0x3d3e7064	0.046493903
3	0x3ca22976	0.01979516
4	0xbdf0e4bf	-0.1176238
5	0x3e840dff	0.25791928
6	0x3d7009cd	0.058603097
7	0xbe9ac1fa	-0.30226117
8	0xbc9d018a	-0.019165773
9	0x3e07b4eb	0.13252608
10	0xbec232e2	-0.37929446
11	0x3e4f7c6c	0.20262307
12	0x3dae7b5b	0.08519622
13	0x3d176394	0.0369602
14	0xbe7703ec	-0.2412259
15	0xbde46dfe	-0.11153792
16	0xbdd6843c	-0.104744405
17	0xbd267c67	-0.040645983
18	0xbd155bda	-0.03646455
19	0xbdba2820	-0.090896845
20	0x3d98014e	0.07422124
21	0x3ea5adfb	0.323593
22	0xbe30f4b4	-0.17280847
23	0x3e748998	0.23880613
24	0x3de6e641	0.11274386
25	0xbe6ceb85	-0.23136719
26	0xbeaa037c	-0.33205783
27	0xbdbf5762	-0.09342839
28	0x3e198eac	0.14995831
29	0xbd0619a9	-0.032739315
30	0xbdeda2ba	-0.11603303
31	0xbe89b0ee	-0.268928
32	0x3e7fca8a	0.24979606
33	0xbb526531	-0.0032103772
34	0x3d750006	0.059814475
35	0x3d2e8433	0.042606544
36	0x3e1801e0	0.14844465
37	0x3e72dbe6	0.23716697
38	0x3f0e1037	0.5549349
39	0xbdcc6bbd	-0.09981487
40	0x3d3523aa	0.044223465
41	0x3d89973f	0.06718301
42	0x3dff8866	0.12477188
43	0xbdd4c337	-0.10388797
44	0xbe5dcb22	-0.2165952
45	0x3e34135e	0.17585513
46	0x3e0e5581	0.13899805
47	0x3e01a7c7	0.12661658
48	0x3e1ef785	0.15524109
49	0x3e7dfb92	0.24802998
50	0xbde5461c	-0.11195013
51	0xbe87e47f	-0.26541516
52	0xbe73a250	-0.23792386
53	0xbc938b4d	-0.01801076
54	0xbdcec6b2	-0.10096492
55	0x3d3fcd9c	0.046826944
56	0x3db60675	0.0888795
57	0xbdc85b10	-0.09782994
58	0x3e7ed7b8	0.24886978
59	0xbdb57001	-0.08859254
60	0xbdf248ae	-0.11830269
61	0xbdfce909	-0.123491354
62	0xbd8cefaa	-0.0688165
63	0x3c86ad9e	0.016440209
64	0x3be2a00e	0.0069160527
65	0xbdd5ef0d	-0.10445986
66	0x3e0795f8	0.13240802
67	0x3e81b0d6	0.25330228
68	0xbdbe0309	-0.09277923
69	0x3d8c55ff	0.0685234
70	0x3e07e45a	0.13270703
71	0x3cfe59bb	0.031048646
72	0x3d8bad38	0.06820148
73	0xbe0260e8	-0.1273228
74	0x3ca9d357	0.020730658
75	0xbe23dfd1	-0.16003348
76	0x3d579906	0.05263617
77	0xbe505a8e	-0.20347044
78	0x3d8ae3ab	0.067817055
79	0x3e81761f	0.25285432
80	0x3d883739	0.06651158
81	0xbe988182	-0.29786307
82	0x3d39c8b5	0.045357425
83	0xbd982580	-0.074290276
84	0xbe899cbf	-0.268774
85	0x3e9f6496	0.31131428
86	0x3ce88e25	0.028388092
87	0xbe1b6ea3	-0.15178923
88	0xbd43263f	-0.047643896
89	0x3e25643a	0.16151515
90	0xbd4c11de	-0.049821727
91	0xbdba6340	-0.09100962
92	0x3d08db07	0.033412006
93	0xbd387900	-0.04503727
94	0xbe53580b	-0.20639054
95	0xbbc2bcc6	-0.0059429137
96	0x3e7ceaa0	0.24698877
97	0x3de08a2d	0.10963855
98	0xbe2854ef	-0.1643865
99	0x3f094292	0.53617203
100	0x3c4c5ef8	0.012473814
101	0x3e332522	0.17494634
102	0x3e17601f	0.14782761
103	0xbe8d2a5f	-0.2757139
104	0xbe4c1075	-0.19928153
105	0xbe4a9991	-0.19785143
106	0x3e42d0fb	0.19025032
107	0xbc6850be	-0.014179407
108	0xbe1da9ac	-0.15396756
109	0xbeb1d8f3	-0.34735832
110	0xbe712004	-0.23547369
111	0x3da88219	0.08227939
112	0xbdb518cf	-0.088426225
113	0xbe25f48f	-0.16206573
114	0x3c08a0c4	0.008339111
115	0xbc3605ed	-0.011109811
116	0x3eda7fd9	0.42675665
117	0xbb678655	-0.003532787
118	0x3d827ab4	0.0637106
119	0xbeca2624	-0.39482224
120	0xbdf2c1ad	-0.11853347
121	0x3e024ec6	0.12725362
122	0x3d1041c8	0.035218984
123	0xbc87d86a	-0.016582686
124	0xbe2d236f	-0.16908048
125	0x3e407921	0.18796207
126	0xbce58758	-0.028018638
127	0x3d6ff6ee	0.0585851
128	0x3e5152f4	0.204418
129	0x3e011a77	0.12607752
130	0x3bc0c866	0.0058832644
131	0xbe5b32b0	-0.21406054
132	0x3e6b00df	0.22949551
133	0x3e14fe53	0.14550142
134	0x3e89e8cc	0.26935422
135	0xbe003937	-0.12521826
136	0x3db96381	0.09052182
137	0xbbdd1d6d	-0.0067478926
138	0xbe02ae82	-0.12761882
139	0xbdfac865	-0.122452535
140	0xbd674507	-0.056462314
141	0xbe432a22	-0.19059041
142	0xbe21da4c	-0.1580593
143	0x3e568bc1	0.2095175
144	0xbd97d720	-0.07414079
145	0xbe8a3169	-0.26990822
146	0x3d8f22af	0.06989037
147	0x3e23a798	0.159819
148	0xbe545632	-0.20736006
149	0xbe0bb544	-0.13643366
150	0x3e11062d	0.14162512
151	0x3e80f4ca	0.2518676
152	0x3cfbc3b5	0.030732969
153	0x3dcda0a2	0.10040404
154	0x3e84c545	0.25931755
155	0x3d90f264	0.07077482
156	0xbd491878	-0.0490956
157	0x3e1ad8dc	0.15121788
158	0x3e087073	0.13324146
159	0x3c81de3c	0.01585304
160	0x3e62b029	0.22137512
161	0xbdcc55b8	-0.09977287
162	0x3db840d0	0.08996737
163	0xbd6d5481	-0.057941917
164	0x3e58a39a	0.21156159
165	0xbe0adb13	-0.13560133
166	0x3dcaabda	0.09896059
167	0x3e1f4a57	0.15555702
168	0x3dd7696a	0.10518153
169	0xbed9201b	-0.42407307
170	0x3e9642e5	0.2934791
171	0xbdc359cc	-0.09538612
172	0x3cb2485c	0.02176302
173	0xbdf52e9b	-0.1197178
174	0x3c57d713	0.013173836
175	0xbe853876	-0.2601964
176	0x3bc99884	0.0061522145
177	0x3e70b0c1	0.23504926
178	0x3d35cd42	0.044385202
179	0x3d850cee	0.06496607
180	0x3d0efed2	0.034910984
181	0x3eabba5a	0.33540612
182	0x3ddbd8a0	0.10734677
183	0x3df44e7d	0.11929033
184	0x3de70ee1	0.11282135
185	0xbe6f879a	-0.23391572
186	0xbe8b2000	-0.27172852
187	0xbe32a7ea	-0.17446867
188	0x3e1040ca	0.14087215
189	0x3d9ede0e	0.07757197
190	0xbead7704	-0.33879864
191	0xbeb1c67d	-0.34721747
192	0xbe3195ac	-0.17342252
193	0xbe49965f	-0.19686268
194	0x3e45a78a	0.19302192
195	0x3dcd360a	0.10020073
196	0xbeb53a3f	-0.35396
197	0x3c731a37	0.014837793
198	0x3e45a3bb	0.1930074
199	0x3d4de0ef	0.05026334
200	0x3ef7a822	0.48370463
201	0x3b0a7ca9	0.0021131432
202	0x3e32890c	0.17435092
203	0x3de328ba	0.11091752
204	0xbe885898	-0.26630092
205	0x3e313030	0.17303538
206	0xbe8dfb16	-0.27730626
207	0x3e24c4ae	0.16090652
208	0xbe016790	-0.12637162
209	0xbe9a4d17	-0.3013694
210	0x3c11755d	0.008878079
211	0x3d2328d8	0.039833874
212	0xbe0256bc	-0.12728399
213	0xbdf2fdef	-0.1186484
214	0x3d4e7587	0.05040505
215	0xbd8f5da0	-0.070002794
216	0x3dca6c68	0.09883958
217	0xbd9f3db8	-0.07775444
218	0xbcd5e185	-0.026108513
219	0x3d2e8022	0.042602666
220	0xbcd13aff	-0.025540827
221	0xbe539afc	-0.2066459
222	0x3e53fd80	0.20702171
223	0xbe6e22ed	-0.2325551
224	0xbe9023cd	-0.28152314
225	0xbde9b668	-0.11411744
226	0xbc39e2b5	-0.011345555
227	0x3e048624	0.12941796
228	0x3e9f4531	0.31107476
229	0xbe10c9d8	-0.14139497
230	0xbd9adced	-0.075616695
231	0x3e9f5612	0.31120354
232	0xbd5caf5a	-0.053878166
233	0x3de7bc4a	0.1131521
234	0x3d9de05f	0.07708811
235	0x3e29dcc4	0.16588122
236	0x3edbb221	0.4290934
237	0xbcfcd08b	-0.03086116
238	0xbd936c49	-0.07198388
239	0xbbe36544	-0.006939562
240	0x3e2155a6	0.15755329
241	0x3e447ed6	0.19189009
242	0xbe93058b	-0.28715166
243	0xbddb550b	-0.1070958
244	0xbcbfb315	-0.023400823
245	0x3e12ed88	0.14348423
246	0xbe110b48	-0.1416446
247	0x3cec3950	0.028835922
248	0xbd72319c	-0.059129342
249	0x3e1e8bdf	0.15483044
250	0x3d81fe43	0.06347325
251	0x3e0fefb3	0.14056282
252	0xbe8d9930	-0.27655935
253	0x3bf1c3ff	0.007378101
254	0xbc738268	-0.014862634
255	0x3e445aa3	0.191752

bias f4 [64]
0	0x3c34fc3d	0.011046466
1	0xbceb8893	-0.028751647
2	0xbbb317f8	-0.005465504
3	0xbc2adf22	-0.010429176
4	0x3ce14827	0.027500225
5	0xbca4c5d8	-0.02011387
6	0xbdc2b448	-0.09507042
7	0x3ce2c0e9	0.027679877
8	0x3c3f4476	0.011674037
9	0xbc0354ab	-0.008015792
10	0xbd11686e	-0.035499983
11	0xbb4a5549	-0.0030873588
12	0xbc8a72a2	-0.016900364
13	0xbcfb951f	-0.030710755
14	0xbc1fb274	-0.009747136
15	0xbc3eecc2	-0.011653127
16	0x3c18a887	0.009317524
17	0x3c019acd	0.007910443
18	0xbbf2d6d7	-0.007410865
19	0xbc282ea8	-0.01026503
20	0xbb3fd077	-0.0029268542
21	0x3c197589	0.0093664015
22	0xbb360585	-0.0027774286
23	0xbc00833f	-0.0078437915
24	0xbc740599	-0.014893913
25	0x3cf7c7e7	0.030246688
26	0xbbbecd8c	-0.005822843
27	0x3b5b73bd	0.0033485733
28	0x3b84669f	0.0040405537
29	0x3ca4c15d	0.020111734
30	0xb7fb1762	-2.993242e-05
31	0xbd24bd7e	-0.040219776
32	0x3c2b1a2b	0.010443251
33	0xbcf534d9	-0.029932426
34	0xbd3320b0	-0.043732345
35	0xbc2192ef	-0.009861692
36	0xbc5a5de4	-0.013328049
37	0xbbd29079	-0.006425914
38	0x3c083b23	0.008314881
39	0x3b9dad69	0.004811932
40	0x3c39e12c	0.011345189
41	0xbaeb0224	-0.0017929715
42	0xbc559bb5	-0.013037612
43	0xbcafd902	-0.021465782
44	0x3b1f8b9e	0.0024344693
45	0xbc283c9a	-0.010268355
46	0xbb0d5578	-0.0021565836
47	0x3c9ee76d	0.019397462
48	0xbb93b047	-0.004507098
49	0xbc679ad2	-0.014136033
50	0x3b332de5	0.0027340588
51	0xbc9c75cd	-0.01909914
52	0xbce5f5ad	-0.028071249
53	0x3cdba6d0	0.02681294
54	0xbcaaa974	-0.020832755
55	0x3bdf175f	0.006808206
56	0xbc555eea	-0.013023118
57	0xbccc5e42	-0.02494729
58	0x3bacb1f9	0.0052702394
59	0xbd01ad76	-0.031659566
60	0x3a0a5d3a	0.0005278174
61	0xbd0ff897	-0.035149183
62	0xbd0160fd	-0.031586636
63	0xbc3dacde	-0.011576859

weight f4 [1, 64]
0	0xbe017b69	-0.12644733
1	0x3da53a33	0.08067741
2	0x3ae2ca03	0.0017302636
3	0xbaf62c67	-0.0018781543
4	0xbe23310e	-0.15936682
5	0xbe90ba8f	-0.28267333
6	0x3e1e4b66	0.1545845
7	0xbd08f914	-0.033440664
8	0x3dafe86f	0.08589255
9	0xbdc988cc	-0.09840545
10	0x3db8294d	0.089922525
11	0xbd83c7e3	-0.0643461
12	0xb98b24c6	-0.00026539544
13	0x3d2518c7	0.040306833
14	0xbbfc1efa	-0.0076941224
15	0x3b9c03e4	0.004761206
16	0x3dfef6ab	0.12449392
17	0x3e76b4a2	0.24092343
18	0x3c882014	0.016616859
19	0x3c2bdd84	0.010489825
20	0xbe17333d	-0.1476564
21	0xbda6a29b	-0.08136483
22	0xbb0c2dd9	-0.0021389632
23	0x39528430	0.00020076404
24	0x3830c735	4.2147196e-05
25	0xbe200973	-0.15628605
26	0xbc76e784	-0.015069846
27	0x3d5eebd5	0.054424126
28	0x3cdcbba6	0.026944946
29	0xbda9af9e	-0.082854494
30	0x37e519b5	2.7310898e-05
31	0xbe35ad2b	-0.1774184
32	0x3cee308d	0.029075885
33	0xbea232e3	-0.31679448
34	0x3e9d7600	0.3075409
35	0xbdc9feab	-0.09863027
36	0xbb9ea81b	-0.004841817
37	0x3d42b73e	0.047538035
38	0x3d3b2217	0.045686807
39	0xbd6eae54	-0.05827172
40	0x3e5bd04d	0.21466179
41	0x3e776094	0.24157935
42	0x3aa87789	0.0012853007
43	0xbc76f258	-0.015072428
44	0xbc82f978	-0.015988097
45	0x3e6cb2ee	0.23115131
46	0x3c0d3f69	0.008621075
47	0xbc4ef165	-0.012630795
48	0x3b346f32	0.0027532098
49	0x3b87f07f	0.0041485424
50	0x3ccbe6ab	0.024890264
51	0xba8613cd	-0.001022929
52	0x3eeb8645	0.46000877
53	0x3e5ee2bf	0.21766184
54	0x3b9af3af	0.0047287564
55	0xbd030bca	-0.031993665
56	0x3e0d0ebe	0.13775155
57	0xbd54fb01	-0.05199719
58	0xbc0101dc	-0.0078739785
59	0xbc8ba323	-0.017045563
60	0xbe025bbc	-0.12730306
61	0x3e0f95e2	0.1402202
62	0x3e3befff	0.1835327
63	0x3843fba7	4.6725992e-05

weight f4 [5, 64]
0	0x3b66cc9f	0.0035217179
1	0xba004a83	-0.00048939156
2	0x3b18d697	0.0023321265
3	0x3b1969eb	0.002340908
4	0x3a92e69e	0.0011207645
5	0xbbea3c5f	-0.00714831
6	0xbbbba344	-0.00572625
7	0xbc252921	-0.010080607
8	0xbaba6113	-0.0014219604
9	0xbc7be868	-0.015375234
10	0xbb8ee494	-0.0043607447
11	0x3c21be5a	0.0098720435
12	0x3b254fa4	0.0025224471
13	0x39e179ce	0.00043006096
14	0xbbe3d432	-0.006952786
15	0x3bc9bcd3	0.006156543
16	0x3b932b8b	0.0044912747
17	0x3ac7b9ed	0.0015237905
18	0x3a8db8a3	0.0010812472
19	0xbb0986eb	-0.0020984958
20	0xba292c23	-0.0006453415
21	0x3bd8f9a8	0.006621558
22	0x3b853ca1	0.0040660654
23	0x3ae57bb4	0.001750818
24	0xbb814ebd	-0.003946154
25	0xbc455d95	-0.0120462375
26	0xbb9289e8	-0.004472006
27	0x38dfd0e8	0.000106723804
28	0x3b858c3e	0.004075556
29	0x3bc40f79	0.00598329
30	0x3a1865d6	0.00058135146
31	0x3b89c208	0.0042040385
32	0x3b9e0c13	0.0048232167
33	0x3b720003	0.0036926277
34	0xbbce39cf	-0.0062935124
35	0xbb60437f	-0.0034219918
36	0x3c12b78b	0.008954893
37	0x3bf00c07	0.0073256525
38	0x3b4d564a	0.003133195
39	0xbb5c7117	-0.0033636743
40	0xbb28c6f6	-0.0025753356
41	0x3a334b7a	0.0006839555
42	0xbbb9d31c	-0.005670918
43	0xbb158e7f	-0.002282053
44	0xbc2dc53d	-0.010606107
45	0xbb647c0c	-0.0034863977
46	0x3c69bb78	0.014265887
47	0x3ae8829e	0.0017739122
48	0xbbf5ed6d	-0.00750511
49	0xba99df82	-0.0011739584
50	0xbbaa9a52	-0.0052063847
51	0xbb88fe92	-0.004180738
52	0xba1e565e	-0.00060400914
53	0xbb5096f5	-0.0031828259
54	0xbba489f8	-0.00502133
55	0xbaf12bf4	-0.001839994
56	0xb9ec3ed4	-0.00045060238
57	0x3c8ccdcc	0.017187975
58	0x3bb97977	0.0056602317
59	0xbb4cc759	-0.003124675
60	0x3b90277c	0.004399238
61	0xbb82ed36	-0.003995563
62	0xbbf52cba	-0.0074821385
63	0xbbc62c79	-0.006047782
64	0x3bfb4bb8	0.0076689385
65	0xbb0da2d0	-0.0021611936
66	0x3c08b652	0.00834425
67	0xb7d028b1	-2.481448e-05
68	0xbbd5f321	-0.0065292274
69	0x3c0a9178	0.008457534
70	0x3c233ad5	0.009962757
71	0x3c8e69dd	0.017384464
72	0x3b91a5ec	0.0044448283
73	0x3c7be9c7	0.015375561
74	0xbb040558	-0.0020144787
75	0xbbafeea6	-0.0053690253
76	0x3a7e2eb7	0.0009696292
77	0x3a852621	0.0010158458
78	0xbabd3bf1	-0.001443742
79	0x3c827c12	0.015928302
80	0x3c210048	0.009826727
81	0x3c92af72	0.017905924
82	0xbc035de5	-0.008017992
83	0x3b64d07b	0.0034914303
84	0x3b5d0770	0.0033726357
85	0xbb8ca543	-0.0042921617
86	0x3c990797	0.018680377
87	0x3b51a632	0.003198993
88	0xba574246	-0.00082114746
89	0x3c4482bd	0.011994061
90	0x3c430aac	0.0119044
91	0x3b099b7a	0.0020997212
92	0x3b8151fd	0.0039465413
93	0xba0c9019	-0.00053620484
94	0x39e886e5	0.00044350993
95	0x3c302be9	0.0107526565
96	0xbb4c1929	-0.0031142926
97	0x3aead9ae	0.0017917657
98	0x39c2af05	0.00037132963
99	0x3c042903	0.008066419
100	0xb9ef1e98	-0.00045608426
101	0xbbeecbbe	-0.0072874716
102	0x3be5a249	0.0070078713
103	0x3c79a37b	0.015236731
104	0xba7d38dd	-0.00096596574
105	0x3bde69f1	0.0067875315
106	0x3b065210	0.002049569
107	0xb7e76142	-2.7582635e-05
108	0x3c6b3c32	0.014357613
109	0xbb6dcdb9	-0.003628595
110	0xbc81e6b8	-0.015857086
111	0x3b45ad58	0.0030163135
112	0x3b56e837	0.003279222
113	0xbab91aa5	-0.001412232
114	0x3ba40fc3	0.0050067618
115	0xbab6a858	-0.0013935668
116	0xba585c8c	-0.00082535367
117	0x3c808c32	0.01569185
118	0x3c2379c4	0.009977762
119	0xb9dab5ff	-0.00041715798
120	0xbb043d5c	-0.0020178175
121	0xbc3ea5b1	-0.011636184
122	0xba102822	-0.00054991443
123	0xbb068ecc	-0.002053189
124	0xb917dcf7	-0.00014482798
125	0x3a33f9d4	0.00068655354
126	0x3c691f2f	0.014228626
127	0x3ade64d0	0.00169673
128	0x3b96280c	0.0045824107
129	0xb9a66322	-0.00031735847
130	0xbc5438bf	-0.012952982
131	0xb9122854	-0.00013938668
132	0x3c82534a	0.015908856
133	0x3bf23989	0.0073921126
134	0x3b13e0ea	0.002256448
135	0xbc0d3f91	-0.008621112
136	0xba31f056	-0.0006787827
137	0xbbe7f6bd	-0.007078974
138	0x3bab9198	0.005235862
139	0x3ae45517	0.0017420378
140	0x3c04a4a3	0.008095893
141	0xbad9adfb	-0.0016607636
142	0x39418d20	0.00018458487
143	0xbbd2d2ec	-0.0064338353
144	0xba93775d	-0.0011250783
145	0xbc2a6454	-0.010399897
146	0x3b1a11a5	0.0023509052
147	0x3bb8e4b2	0.005642497
148	0x3babd091	0.005243369
149	0xb9fa2692	-0.00047712453
150	0xbaa91cdd	-0.0012902279
151	0xbb3e94de	-0.002908043
152	0x3bb32ed4	0.005468229
153	0x3b3db92b	0.002894948
154	0x37d425c8	2.5289963e-05
155	0xba81519b	-0.0009866239
156	0x3b194d28	0.0023391936
157	0x3a640e8a	0.0008699676
158	0x3b138e11	0.0022515098
159	0xbbaeee1c	-0.0053384434
160	0x3b75d54a	0.0037511163
161	0xba0e0902	-0.00054182124
162	0xbab46c9b	-0.0013765277
163	0x3a12c207	0.00055983703
164	0x3a61f4f2	0.00086195685
165	0x3c2109a4	0.009828959
166	0x3a3be428	0.0007167482
167	0x3b7c6439	0.0038511886
168	0xbc094738	-0.008378796
169	0xbadab5eb	-0.0016686296
170	0x3b7597d5	0.0037474532
171	0xb967dd87	-0.00022112402
172	0x3c221cdc	0.009894576
173	0x3c0377c3	0.008024159
174	0x3b9b5eac	0.0047415104
175	0xbb0cb502	-0.0021470194
176	0x3b5a7399	0.0033333062
177	0x3a62fdfc	0.00086590624
178	0xbc259676	-0.010106673
179	0xbacf2d3b	-0.0015806326
180	0xb842fe26	-4.64899e-05
181	0x3b406fa8	0.0029363427
182	0x3b3e49ea	0.0029035755
183	0x3b075ac3	0.0020653463
184	0x3c60c9d6	0.013719996
185	0xbc1d1862	-0.009588333
186	0x3b972a80	0.0046132207
187	0x3bb93f33	0.005653286
188	0x3c46c0cb	0.012130926
189	0x3b412bae	0.0029475498
190	0x3b2bfc6e	0.002624299
191	0x3c0f72ed	0.008755428
192	0x3b54af15	0.003245299
193	0xb9bccb82	-0.0003600978
194	0xba3da35b	-0.00072341197
195	0xbaf7cffe	-0.0018906591
196	0xbb6ee62d	-0.0036453113
197	0x3bba6374	0.0056881253
198	0xbba1fe75	-0.0049436637
199	0x3b57fe2c	0.0032957895
200	0xbc0734da	-0.008252347
201	0x3c59d618	0.013295673
202	0x3ab2cdf7	0.0013641705
203	0x3c5fc8c3	0.013658705
204	0x3af67b19	0.0018804997
205	0x3affe117	0.0019522038
206	0x3bcf3d6e	0.0063244617
207	0xbc890f3b	-0.016730895
208	0xb93ddc4f	-0.00018106516
209	0x3b7202d7	0.0036927962
210	0xbb820d63	-0.003968881
211	0xbbf5db03	-0.007502915
212	0x3ba8ea49	0.005154882
213	0x3ab342ca	0.0013676521
214	0xbadf191a	-0.0017021031
215	0xbacd14ef	-0.0015646497
216	0x3be483c6	0.0069737164
217	0xba03b882	-0.0005024747
218	0x3aeb059e	0.0017930751
219	0xbb18addd	-0.002329699
220	0x3c0bd5de	0.008534877
221	0x37d067a6	2.4843797e-05
222	0x3be5a115	0.007007728
223	0xbc80af41	-0.015708568
224	0x3b28dd16	0.0025766543
225	0xbb0219b8	-0.0019851755
226	0x3b3620e1	0.0027790593
227	0x3c319062	0.010837646
228	0xbc18fe24	-0.009337936
229	0x3b117b8c	0.0022198884
230	0x3bb890e4	0.0056325067
231	0xbb401878	-0.002931146
232	0x3b964da0	0.0045868903
233	0x3be28df1	0.0069138934
234	0x3b28045a	0.002563736
235	0x3b463a5c	0.0030247187
236	0xbcaa4bf6	-0.020788174
237	0x3bb52607	0.005528215
238	0x3ba4bac2	0.005027146
239	0x3780e847	1.5366952e-05
240	0xbbe4a594	-0.0069777463
241	0xb977a1c9	-0.00023616025
242	0xba874b63	-0.001032215
243	0x3b7aea57	0.003828665
244	0xb99f398b	-0.00030369716
245	0xbbe0d6c8	-0.0068615414
246	0xbc1e1d7e	-0.009650586
247	0xba1ec369	-0.000605634
248	0xbc04ba9a	-0.00810113
249	0x3bf9da74	0.0076249186
250	0xb95525ca	-0.0002032734
251	0x3bf11298	0.007356953
252	0xbb740584	-0.0037234733
253	0x3bbed95a	0.00582425
254	0xbbfd30ed	-0.0077267797
255	0xbabf175b	-0.0014579104

bias f4 [5]
0	0x39c419b4	0.00037403184
1	0x3b80958f	0.003924079
2	0x3bdccb11	0.0067380746
3	0x3b0a41dc	0.0021096384
4	0x3b90915b	0.004411859
