model/medium-2/A2C/model_agent1_seed2.pt (torch, 109505 bytes, 11 tensors)

weight f4 [64, 134]
0	0x3d8ab8c5	0.06773523
1	0xbdfb2cae	-0.12264381
2	0x3c95d97f	0.018292187
3	0xbd43014e	-0.047608666
4	0x3e07e70c	0.13271731
5	0xbd3ff431	-0.04686374
6	0x3e457a5f	0.19284962
7	0xbe310ff3	-0.1729124
8	0x3db1b17e	0.08676432
9	0x3e6066db	0.21914236
10	0x3e5d444b	0.21608083
11	0x3bffa2aa	0.0078013735
12	0x3e565b0d	0.2093317
13	0xbe0f827e	-0.14014623
14	0x3e08d4c7	0.13362418
15	0x3e08309b	0.13299792
16	0x3e980ea6	0.29698676
17	0x3d1a9503	0.037739765
18	0xbd1882ba	-0.037234046
19	0xbe296356	-0.165418
20	0xbd4b18e3	-0.04958428
21	0x3ce4ee1f	0.027945576
22	0xbdc79866	-0.097458646
23	0xbd0b3cab	-0.033993404
24	0xbc564f78	-0.01308047
25	0x3d9d63a2	0.07685019
26	0xbc272cad	-0.010203523
27	0x3d4419d0	0.04787618
28	0xbd391e7d	-0.04519509
29	0xbd883c0f	-0.0665208
30	0xbdab0c2b	-0.0835193
31	0x3d646a98	0.05576572
32	0xbd2f9116	-0.042862974
33	0xbce433e2	-0.02785677
34	0x3e2755bb	0.16341297
35	0xbce1503b	-0.027504077
36	0xbdc9a6f9	-0.09846301
37	0x3dd16989	0.10225207
38	0xbe198f6d	-0.14996119
39	0x3d89882c	0.06715426
40	0xbd475a6e	-0.048670225
41	0xbd4c6ce3	-0.04990853
42	0xbd947e3f	-0.07250642
43	0x3b7336cd	0.0037111521
44	0x3dbf9648	0.09354836
45	0x3d6883c9	0.056766305
46	0xbd95aa90	-0.07307923
47	0x3c4ca011	0.012489335
48	0x3d8a8c63	0.06765058
49	0x3d3ece22	0.046583302
50	0x3bf47bd4	0.0074610505
51	0x3d433b8e	0.047664218
52	0xbd25f006	-0.040512107
53	0xbe09547d	-0.13411136
54	0x3ddbc1dc	0.10730335
55	0x3deb6992	0.11494745
56	0x3d3dbd09	0.046322856
57	0x3d103cb0	0.035214126
58	0xbe21c151	-0.157964
59	0x3e1080d7	0.14111648
60	0xbdcda6fc	-0.10041615
61	0xbe51cf93	-0.2048934
62	0xbe35f36f	-0.17768644
63	0xbe6404ce	-0.22267458
64	0x3c43f366	0.011959886
65	0x3e24e68b	0.1610357
66	0x3e70d953	0.23520403
67	0xbdba5c77	-0.090996675
68	0x3d3777c5	0.044791956
69	0x3d4706db	0.048590522
70	0x3e8b5b35	0.27218023
71	0x3d6ebf73	0.05828805
72	0x3b89e217	0.00420786
73	0x3d856be4	0.06514719
74	0x3dcefa8b	0.10106381
75	0x3bb2f2a3	0.0054610535
76	0x3d3ba182	0.045808323
77	0x3e0595d4	0.13045436
78	0x3e3e5941	0.18588735
79	0x3dc1b9ab	0.094592415
80	0xbcd14e55	-0.025550047
81	0x3d15ab15	0.03654011
82	0xbd96b28a	-0.073582724
83	0x3d0ff51b	0.03514586
84	0x3d1dfc44	0.038570657
85	0x3d334458	0.04376635
86	0x3e3f3188	0.18671238
87	0xbe3812fd	-0.17975993
88	0xbd194530	-0.037419498
89	0x3e011f65	0.12609632
90	0xbc242a77	-0.01001989
91	0xbe15abe8	-0.14616358
92	0x3e13aac7	0.14420615
93	0xbe135964	-0.14389569
94	0x3e7aa94c	0.24478644
95	0xbca9bcb1	-0.020719858
96	0x3de817a1	0.11332632
97	0xbd6c66a6	-0.05771508
98	0xbd519939	-0.051171515
99	0x3dc798ec	0.097459644
100	0x3e1a159b	0.15047304
101	0x3bc2b8a7	0.0059424224
102	0x3e24e6b0	0.16103625
103	0xbc54f19b	-0.012997056
104	0x3d756796	0.05991324
105	0x3d49c78d	0.049262572
106	0xbda9a817	-0.08284014
107	0xbe3465a6	-0.17616901
108	0x3e926953	0.2859598
109	0x3db67bf4	0.08910361
110	0x3c8e03f3	0.017335868
111	0xbd07f0e4	-0.033188716
112	0x3d8b1ff4	0.06793204
113	0xbda62c1c	-0.08113882
114	0x3ec0114e	0.37513202
115	0x3d801050	0.06253111
116	0x3e4e2dfb	0.20134728
117	0x3d92dcf7	0.07171052
118	0xbaec0e33	-0.0018009603
119	0x3d2d54da	0.04231725
120	0xbd72361b	-0.05913363
121	0xbd15398c	-0.036431834
122	0x3e70b106	0.23505029
123	0xbdae6152	-0.08514656
124	0xbe0f778c	-0.14010447
125	0xbdcac159	-0.099001594
126	0x3c82f2d3	0.015984928
127	0xbdd1e11e	-0.10248016
128	0x3e717d88	0.23583043
129	0xba91108a	-0.0011067551
130	0xbe844ac2	-0.25838286
131	0x3c851809	0.016246812
132	0x3e475f49	0.19469942
133	0xbe4bcae1	-0.19901611
134	0x3d3319e7	0.043725874
135	0xbeb534e1	-0.35391906
136	0xbe5f6bd0	-0.21818471
137	0x3c80cb60	0.015721977
138	0xbdb9ead0	-0.0907799
139	0x3bd78185	0.006576719
140	0xbc83acd5	-0.016073624
141	0x3de757f6	0.11296074
142	0xbd5efd19	-0.05444059
143	0x3dd1225a	0.1021163
144	0xbd6fcb6e	-0.058543615
145	0x3c94f6a6	0.018184017
146	0xbbaf40b4	-0.0053482894
147	0x3e002ca8	0.12517035
148	0x3caa3f02	0.020781998
149	0x3d8aca09	0.067768164
150	0xbbfcfee0	-0.007720813
151	0xbe314ed4	-0.17315227
152	0x3cf1f97d	0.02953791
153	0x3e09ec17	0.13468967
154	0xbe319744	-0.1734286
155	0x3d03b375	0.032153565
156	0x3bb846e5	0.0056236857
157	0x3d2024bc	0.039097533
158	0x3c8bc76b	0.017062863
159	0xbe3b47e1	-0.18289138
160	0xbc0fe543	-0.008782688
161	0x3c1623d2	0.009163814
162	0xbc5489e8	-0.012972333
163	0x3e18ba83	0.14914899
164	0xbd73c3d8	-0.059512943
165	0x3d991847	0.07475334
166	0x3c526e09	0.012843617
167	0xbdc739e0	-0.09727836
168	0xbdca51ea	-0.09878905
169	0x3dc3bd5d	0.095576026
170	0xbe008819	-0.12551917
171	0x3d4235b0	0.04741448
172	0x3e051b57	0.1299871
173	0x3e5b5018	0.21417272
174	0x3dd71af9	0.105031915
175	0x3dcd371c	0.10020277
176	0xbd7babdf	-0.061443206
177	0xbe44c2f7	-0.19214998
178	0xbdcd33e5	-0.10019664
179	0x3e19d544	0.1502276
180	0xbde461fb	-0.11151501
181	0x3d95b3b3	0.073096655
182	0xbd0ad165	-0.0338911
183	0x3e1e8548	0.1548053
184	0x3e03773a	0.1283845
185	0x3e84afc9	0.25915363
186	0xbdea3cac	-0.114373535
187	0x3df1d1d3	0.11807599
188	0xbdf8a799	-0.12141342
189	0xbcff464b	-0.031161448
190	0x3de80562	0.11329152
191	0x3dbf1601	0.09330369
192	0xbe825694	-0.2545668
193	0xbe58acd0	-0.21159673
194	0xbe861645	-0.26188865
195	0x3ddb083e	0.106949314
196	0x3c99e942	0.018787984
197	0x3df4bf43	0.11950543
198	0xbcb9ad3d	-0.022665614
199	0x3a8f1eca	0.001091921
200	0x39880ec6	0.00025950948
201	0xbe1dcf91	-0.15411212
202	0xbc6d2aaf	-0.014475509
203	0xbdea6ea5	-0.11446885
204	0x3de8a82f	0.113602035
205	0xbe0e7f58	-0.13915765
206	0x3d434b8c	0.04767947
207	0x3d97fbc5	0.07421068
208	0x3e9cd7e6	0.30633467
209	0xbdb5cb8f	-0.08876716
210	0xbe79d592	-0.24397877
211	0x3d272819	0.040809724
212	0xbe159251	-0.14606597
213	0x3e338113	0.17529707
214	0xbd8e9085	-0.06961159
215	0x3e021b37	0.12705694
216	0x391fe496	0.00015248577
217	0xbd442f59	-0.047896717
218	0x3e0048e3	0.12527804
219	0x3dbf38fc	0.09337041
220	0xbcc32e11	-0.023825677
221	0x3e5b18de	0.21396205
222	0x3d9dcbc4	0.07704881
223	0x3dd0ba05	0.101917304
224	0x3d0001b1	0.031251613
225	0x3d4b07eb	0.049568098
226	0x3db55213	0.08853545
227	0xbdd21b2c	-0.10259089
228	0xbe2a8b7b	-0.1665477
229	0xbe4210d0	-0.18951726
230	0xbb88983c	-0.0041685384
231	0x3ca2435e	0.019807514
232	0x3d06f8a9	0.032951985
233	0xbbec39a6	-0.0072090207
234	0x3d3cda85	0.046106834
235	0xbde21134	-0.110384375
236	0x3dbe159a	0.09281464
237	0x3c364afe	0.011126278
238	0xbe32f777	-0.17477213
239	0x3e6ece0c	0.23320788
240	0xbe142dde	-0.14470622
241	0x3d498133	0.04919548
242	0xbdbb863b	-0.09156462
243	0xbc0bd467	-0.008534527
244	0xbdc48c06	-0.0959702
245	0xbcb601ce	-0.022217657
246	0xbe0c0b54	-0.13676196
247	0x3c8b4a38	0.017003164
248	0xbd7241e7	-0.05914488
249	0x3e3d680a	0.18496719
250	0x3e690769	0.22756733
251	0x3e2fdc4d	0.17173882
252	0x3e19cd2f	0.15019678
253	0x3e34f693	0.17672186
254	0xbd89df8c	-0.06732091
255	0x3e2ffb3a	0.17185679

bias f4 [64]
0	0x3917e700	0.00014486536
1	0xbc306b7a	-0.010767812
2	0xbb2385dc	-0.0024951613
3	0xbcb21b1e	-0.021741446
4	0xbbc44abd	-0.005990355
5	0xba0a1841	-0.00052678963
6	0xbab03c4d	-0.0013445705
7	0xbca308fe	-0.019901749
8	0xbb583088	-0.0032987911
9	0xbb5e0d10	-0.0033882298
10	0xbc168f0a	-0.009189377
11	0xbae8fd24	-0.0017775637
12	0xb9834b23	-0.00025042248
13	0xb8e6ce91	-0.000110057306
14	0xbbb9f71d	-0.00567521
15	0xbc8cebfe	-0.017202374
16	0x38a66e21	7.93601e-05
17	0x387024f8	5.725489e-05
18	0xbae8db72	-0.0017765595
19	0xbc5ffb9f	-0.013670831
20	0x3a22106e	0.0006182258
21	0xbc6065cf	-0.013696148
22	0xba98539e	-0.00116216
23	0xbc7d6fc5	-0.015468542
24	0xbc2abfa3	-0.010421666
25	0xbc21a8c0	-0.009866893
26	0xbc62b5b5	-0.013837268
27	0xbc15df78	-0.009147517
28	0xb9344883	-0.0001719315
29	0xb7bb4397	-2.2323611e-05
30	0x389741a0	7.212465e-05
31	0xbb33f444	-0.0027458826
32	0xbc74d91d	-0.014944342
33	0x39b1961e	0.00033871917
34	0xbc08bb62	-0.008345457
35	0x3a24bf91	0.0006284649
36	0xb8696caa	-5.565273e-05
37	0xb98bd49b	-0.0002667055
38	0xbbf7598a	-0.0075485157
39	0xba8c7b3f	-0.0010717883
40	0xb8910057	-6.914202e-05
41	0x3a359c5e	0.00069279026
42	0xbc235fef	-0.009971603
43	0x39147caf	0.00014160828
44	0xbb6d07cc	-0.0036167977
45	0x3708b01a	8.1472335e-06
46	0xbcf6d045	-0.030128608
47	0x3a21c155	0.00061704713
48	0x39bc8bce	0.00035962317
49	0xbc4a651a	-0.012353206
50	0xb937f464	-0.00017543283
51	0xbb84f1cc	-0.0040571447
52	0xbb00703b	-0.0019598145
53	0xbb35a9a2	-0.0027719517
54	0xba6154ab	-0.00085956854
55	0x3a93b91e	0.0011270379
56	0xbc55c50b	-0.013047467
57	0x39825abf	0.00024863143
58	0xbcb31439	-0.021860229
59	0x39a6d741	0.00031822364
60	0xbc29e7f9	-0.010370248
61	0xbbc02e9d	-0.0058649317
62	0xbb7cf29a	-0.003859675
63	0x38e996a1	0.000111383626

weight f4 [64, 64]
0	0x3db619d7	0.08891647
1	0x3e154f2d	0.14580984
2	0x3ec8dbe5	0.39230266
3	0xbe8c2987	-0.27375433
4	0x3e8ae779	0.27129725
5	0x3e26bfa7	0.16284047
6	0xbeb936e8	-0.36174703
7	0x3cd15b2e	0.025556173
8	0x3e527591	0.2055266
9	0x3d5bfed1	0.05370981
10	0x3d5c9bb5	0.05385943
11	0xbe0f4bc1	-0.13993742
12	0x3e1138e5	0.1418186
13	0x3db760ab	0.08953985
14	0xbea04ce1	-0.31308654
15	0xbea69c32	-0.32541043
16	0x3c7823ff	0.015145301
17	0x3dca1545	0.09867338
18	0x3bc16040	0.0059013665
19	0x3e24b274	0.160837
20	0x3da7adf2	0.08187474
21	0x3de7a070	0.11309898
22	0xbe494e11	-0.19658686
23	0x3d2fd95a	0.042931892
24	0xbeba3af8	-0.36373115
25	0xbe8e9d55	-0.2785441
26	0xbd13b2d7	-0.036059227
27	0xbe1a0cf6	-0.15044007
28	0xbdec00a1	-0.115235575
29	0x3dd4f35d	0.1039798
30	0xbdadae72	-0.084805384
31	0x3d617b92	0.055049486
32	0x3e94d76b	0.290706
33	0x3c0037ff	0.0078258505
34	0x3df2c4d6	0.1185395
35	0xbea7c580	-0.32767868
36	0x3e0d619f	0.1380677
37	0xbe09ae8c	-0.1344549
38	0x3ca12f03	0.019675737
39	0xbdc68713	-0.09693732
40	0x3e82cafe	0.25545496
41	0x3e195644	0.14974314
42	0xbdfe5143	-0.12417843
43	0x3d02a838	0.031898707
44	0xbc40fd53	-0.011779147
45	0x3ca3a7ad	0.019977415
46	0xbd7625f4	-0.06009479
47	0x3d78ba15	0.060724337
48	0x3cd0de17	0.025496526
49	0x3db1653c	0.08661887
50	0xbc24b84d	-0.010053706
51	0x3ec5f0ac	0.3866018
52	0x3e607a0b	0.21921556
53	0xbbcab765	-0.006186413
54	0xbd57e53a	-0.05270884
55	0x3e12bce9	0.14329876
56	0x3dde94ca	0.10868223
57	0xbe067d12	-0.13133648
58	0xbe34c17e	-0.17651936
59	0xbd882a27	-0.06648665
60	0xbd0a7d06	-0.033810638
61	0x3ecdd19e	0.40198988
62	0xbe057d76	-0.13036141
63	0x3d48ba3c	0.049005732
64	0xbe334f92	-0.17510822
65	0x3d254a63	0.040354144
66	0x3e1ca6d7	0.1529802
67	0xbe6fb35b	-0.23408262
68	0xbe1455e4	-0.1448589
69	0xbdc2482c	-0.09486422
70	0xbd64527f	-0.055742737
71	0x3e08805d	0.13330217
72	0xbe80bbe5	-0.25143352
73	0x3787812c	1.6153404e-05
74	0x3e727dde	0.23680827
75	0xbebf9561	-0.37418655
76	0x3e726118	0.23669851
77	0xbe04271d	-0.12905546
78	0x3e3d6e80	0.18499184
79	0xbd5bc577	-0.053655114
80	0xbe907dcb	-0.28220972
81	0x3c6de2a5	0.014519368
82	0x3d779010	0.060440123
83	0x3e9699da	0.29414254
84	0x3e368691	0.1782477
85	0x3df2b52e	0.118509635
86	0xbcf3cf2e	-0.029761877
87	0xbe5486cc	-0.20754546
88	0xbd423c53	-0.04742081
89	0xbd5038ad	-0.0508353
90	0x3d29c179	0.041444276
91	0x3ece966d	0.4034914
92	0x3e032b5e	0.12809512
93	0x3d0bc781	0.03412581
94	0xbe01605d	-0.12634416
95	0xbe7a7f46	-0.24462613
96	0x3dad6f55	0.084685005
97	0xbd4c14b8	-0.049824446
98	0xbe79a77a	-0.24380293
99	0xbc832623	-0.016009396
100	0xbe388f7c	-0.18023485
101	0xbe3acd2a	-0.18242326
102	0x3e4c2587	0.1993619
103	0xbdca2347	-0.0987001
104	0xbe82617c	-0.25465
105	0xbdb48c40	-0.08815813
106	0x3e0622d9	0.13099231
107	0x3ed4a8d3	0.41535053
108	0x3e39fbdb	0.18162481
109	0x3d8877c8	0.066634715
110	0xbdd8582b	-0.10563692
111	0x3df5559b	0.119792186
112	0xbc987753	-0.018611586
113	0xbd9dfcd4	-0.07714239
114	0xbe9b8374	-0.30373728
115	0x3c4788c9	0.012178608
116	0xbeb63693	-0.35588512
117	0xbca544c6	-0.020174395
118	0x3de41943	0.11137631
119	0x3e10f9d3	0.141578
120	0xbe6b9e40	-0.23009586
121	0xbdea60ad	-0.11444221
122	0xbe27d830	-0.16391063
123	0xbe4eb42a	-0.20185915
124	0xbd6d72c7	-0.05797079
125	0xbd8a3b69	-0.06749613
126	0xbe1d131e	-0.15339324
127	0xbdd25de6	-0.10271816
128	0xbdb5499b	-0.0885193
129	0x3d4a3467	0.04936638
130	0xbe8432a2	-0.2581988
131	0xbc86a29c	-0.01643496
132	0xbea8814c	-0.32911146
133	0x3e1cd01e	0.15313765
134	0xbe0c43b7	-0.13697706
135	0xbdbc85b1	-0.09205187
136	0xbdadbf6e	-0.08483778
137	0xbd959878	-0.07304472
138	0xbc2fc554	-0.010728199
139	0xbbd80ba6	-0.0065931855
140	0x3e8bb0d6	0.27283353
141	0x3d5d2cdb	0.053997856
142	0x3e28fd40	0.16502857
143	0xbd006b5a	-0.03135238
144	0x3dbedf0e	0.09319888
145	0x3acad5fc	0.0015475149
146	0x3dc7de93	0.097592495
147	0xbe1b4146	-0.15161619
148	0x3e2e5760	0.17025518
149	0xbe612c47	-0.21989547
150	0xbe2f341b	-0.1710972
151	0xbe894344	-0.26809132
152	0x3e651fc4	0.22375399
153	0xbdb2bd04	-0.08727458
154	0x3ed57a15	0.41694704
155	0xbe8df01a	-0.27722245
156	0x3d00c18c	0.03143458
157	0x3ebd1911	0.36933187
158	0x3de48bba	0.11159463
159	0xbd2107cd	-0.03931408
160	0x3f04fe56	0.51950586
161	0x3d08271b	0.03324042
162	0xbc3e31df	-0.01160857
163	0xbeaa03bb	-0.3320597
164	0x3ce7edc0	0.02831161
165	0xbdd11e7b	-0.10210892
166	0xbcbd8334	-0.023133852
167	0xbe6e5201	-0.2327347
168	0x3c43bf5d	0.01194748
169	0x3e4486c3	0.19192033
170	0x3ca57e24	0.02020175
171	0xbe1e2d1c	-0.15446895
172	0xbd8bb6cb	-0.06821974
173	0x3ba3426e	0.0049822843
174	0xbe38802a	-0.1801764
175	0x3df6fa96	0.12059514
176	0xbd8fdf14	-0.07024971
177	0xbe40b98c	-0.1882078
178	0xbd8de6f3	-0.06928816
179	0xbd47c945	-0.04877593
180	0x3e3d0059	0.18457164
181	0x3e31977a	0.1734294
182	0xbe8e2ff6	-0.27770966
183	0xbddf0f36	-0.10891573
184	0xbd59d568	-0.053182036
185	0x3e11ce83	0.14238934
186	0x3cef814c	0.029236458
187	0xbe00e401	-0.12586977
188	0x3defe113	0.117128514
189	0xbebc3660	-0.36760235
190	0x3da82f85	0.08212189
191	0xbdca4bda	-0.09877749
192	0xbe7c24b1	-0.24623372
193	0x3c8a798d	0.016903663
194	0xbd89701f	-0.067108385
195	0x3da7746d	0.08176503
196	0xbd863286	-0.06552605
197	0x3e36daf2	0.17856959
198	0x3eada1fd	0.3391265
199	0xbcbb4eb7	-0.022864683
200	0xbda31d8f	-0.07964622
201	0x3e287a35	0.16452868
202	0x3ea3a08e	0.3195843
203	0xbe60fdb6	-0.21971783
204	0x3e41c181	0.18921472
205	0xbe7493c3	-0.23884492
206	0xbdb7ddeb	-0.08977874
207	0xbe3cc177	-0.18433176
208	0x3d1461c2	0.03622604
209	0x3d1090fd	0.03529452
210	0x3ebe6965	0.37189785
211	0x3de2e1bd	0.110782124
212	0x3e201667	0.15633546
213	0xbec0af2c	-0.37633646
214	0x3e971d82	0.295147
215	0x3e966e97	0.29381248
216	0xbd92688a	-0.071488455
217	0x3d98160c	0.0742608
218	0x3de593ff	0.11209869
219	0xbd5a7f72	-0.053344198
220	0x3e43f2e3	0.19135623
221	0xbdca30cf	-0.09872591
222	0xbe9ee1ba	-0.3103159
223	0x3e6b08f4	0.22952634
224	0xbe284a38	-0.16434562
225	0x3e91501b	0.28381428
226	0xbe377263	-0.17914729
227	0xbd9860cc	-0.074403375
228	0x3dc27361	0.09494663
229	0x3c6f4171	0.014603005
230	0x3daf5572	0.08561219
231	0x3d6711e7	0.056413557
232	0x3e65f9cc	0.22458571
233	0x3e65971a	0.22420922
234	0x3d779e28	0.060453564
235	0xbe7ed30a	-0.24885193
236	0xbe1421e6	-0.14466056
237	0x3c5e103b	0.013553674
238	0x3cc1c997	0.023655696
239	0xbde70597	-0.11280363
240	0xbe1c52d5	-0.15265973
241	0x3d0b5522	0.034016736
242	0x3e3e5c4a	0.18589893
243	0xbbe2432e	-0.006904981
244	0xbd1db6d9	-0.038504455
245	0xbdbe7738	-0.09300083
246	0xbd996467	-0.07489853
247	0xbe344baf	-0.17606996
248	0xbe788a53	-0.24271517
249	0xbd05a3ed	-0.032627035
250	0xbd3e9b53	-0.046534847
251	0xbea66304	-0.32497418
252	0x3d61043c	0.05493568
253	0x3e4e7acd	0.20164032
254	0x3c33e964	0.010980938
255	0x3e27608f	0.16345428

bias f4 [64]
0	0xbbef4d2d	-0.0073029012
1	0xbbbafac2	-0.005706162
2	0xb793c84d	-1.7617038e-05
3	0xbc8286cb	-0.015933415
4	0xbb31d59f	-0.0027135385
5	0xbc5967cc	-0.013269376
6	0xbc8e41ef	-0.017365424
7	0xbcdad924	-0.026714869
8	0xbccafa66	-0.024777602
9	0xbcac78ea	-0.02105375
10	0xbb62e851	-0.0034623335
11	0xbc9871d4	-0.018608965
12	0xbb26303f	-0.0025358347
13	0xbb43b70d	-0.0029863745
14	0xb8ffe0d1	-0.00012201223
15	0xbb593722	-0.0033144434
16	0xbc953ac2	-0.018216494
17	0xbcb9abcb	-0.022664925
18	0xbc4a69d5	-0.012354334
19	0xbb765e68	-0.0037592892
20	0xbc5ef286	-0.013607627
21	0xbc22bca8	-0.0099326745
22	0xbccd866e	-0.025088515
23	0xbbc58103	-0.0060273423
24	0xbb9c1de2	-0.0047643045
25	0xbc98d060	-0.018654048
26	0xbbd2ab01	-0.0064290767
27	0xbc050bfd	-0.008120534
28	0xbb8f1e79	-0.0043676463
29	0xb7d6c111	-2.5600692e-05
30	0xbc0b1a07	-0.008490092
31	0xbb6bce26	-0.0035981028
32	0xbb7573df	-0.0037453098
33	0xbcc4bd1e	-0.02401596
34	0xbb8f8491	-0.004379817
35	0xbc0b289b	-0.008493568
36	0xbc385014	-0.011249561
37	0xbcda4301	-0.026643278
38	0xbba4b5aa	-0.005026539
39	0xbcb1f22e	-0.021721926
40	0x00000000	0.0
41	0xbbc880be	-0.006118863
42	0xbb82ed1c	-0.003995551
43	0xbc778de6	-0.015109515
44	0xbb527f9c	-0.0032119518
45	0xba95abee	-0.0011419037
46	0xbb27762b	-0.0025552611
47	0x36f8c9a8	7.414452e-06
48	0xbc1d4979	-0.009600037
49	0xbbda1f3d	-0.006656556
50	0xbb2c3a37	-0.0026279816
51	0xbd032a35	-0.032022674
52	0xbbb12aa5	-0.005406695
53	0xbb04e819	-0.0020279943
54	0xbc2cb2b7	-0.010540656
55	0xba7526fe	-0.00093518186
56	0xbb948c66	-0.0045333384
57	0x391a20b1	0.00014698763
58	0xbac55f28	-0.0015058266
59	0xbc049e87	-0.0080944365
60	0xbc0d2780	-0.008615375
61	0x36f4111f	7.27376e-06
62	0x3403e1cc	1.228247e-07
63	0xbb847ae2	-0.004042969

weight f4 [64, 134]
0	0xbdfa2fb2	-0.122161284
1	0xbd8f308b	-0.06991681
2	0xbe2cf3c4	-0.16889864
3	0x3d9fe407	0.07807165
4	0xbd8b6308	-0.06805998
5	0x3df28e99	0.118436046
6	0xbcf42976	-0.029804926
7	0xbe4052a4	-0.18781525
8	0x3de27156	0.11056773
9	0x3e467c41	0.19383337
10	0xbcc5d1b3	-0.024147844
11	0x3dd4d4b8	0.103921354
12	0xbc5a7feb	-0.013336162
13	0xbd9b6e5e	-0.0758941
14	0xbe00390c	-0.12521762
15	0x3db36fd4	0.08761564
16	0xbe4f4db1	-0.2024448
17	0x3ddbda8b	0.10735043
18	0xbcb3a1fa	-0.021927822
19	0x3cb846c3	0.02249468
20	0xbe4e7ea4	-0.20165497
21	0xbe28f794	-0.16500694
22	0xbd7e2cde	-0.062054507
23	0xbd6271fb	-0.05528448
24	0xbc2614d9	-0.010136806
25	0xbdfe4a44	-0.12416509
26	0xbe13ea08	-0.14444745
27	0xbd6ee5a6	-0.05832448
28	0xbe0971e8	-0.13422358
29	0xbdfc40ca	-0.12317045
30	0xbddc2124	-0.107485086
31	0xbe038ff8	-0.12847888
32	0xbdeb6c61	-0.11495281
33	0x3bc85088	0.0061131157
34	0x3dac50ec	0.08413872
35	0xbe33ed2a	-0.1757094
36	0xbd51296a	-0.051064886
37	0x3e1c3870	0.15255904
38	0xbd9b1eec	-0.07574257
39	0x3b916c78	0.0044379793
40	0x3dfc4778	0.12318319
41	0x3d769ecd	0.060210038
42	0x3de43750	0.111433625
43	0xbd64f6ff	-0.055899616
44	0xbd0912e1	-0.03346527
45	0xbe195a81	-0.14975931
46	0xbd6bac43	-0.05753733
47	0xbd717f92	-0.05895955
48	0xbd9a9116	-0.07547204
49	0x3e7581b6	0.23975262
50	0xbdf5117c	-0.119662255
51	0x3c7f85f5	0.015595903
52	0xbdb0f3f3	-0.086402796
53	0xbe3f233b	-0.18665783
54	0x3e3044ce	0.17213747
55	0xbdb7db49	-0.08977372
56	0x3d8c83ec	0.068610996
57	0x3d58db77	0.052943673
58	0xbdc0c9ce	-0.09413491
59	0x3e02d20b	0.12775438
60	0xbd87b950	-0.066271424
61	0xbd94e8ee	-0.0727099
62	0xbd8a34be	-0.06748341
63	0x3d08b1d6	0.033372723
64	0xbdb08e40	-0.08620882
65	0x3d87d040	0.066315174
66	0xbe08d6ad	-0.13363142
67	0x3c9ce1a6	0.019150566
68	0xbdafffe0	-0.08593726
69	0x3eaab15b	0.33338436
70	0xbbb1f399	-0.0054306504
71	0xbb169b5c	-0.0022980785
72	0xbe396e63	-0.18108515
73	0xbe0c9286	-0.1372777
74	0xbcf9003d	-0.030395621
75	0xbc95ee05	-0.018301973
76	0x3deb2e79	0.11483473
77	0x3f02e9e4	0.5113814
78	0x3e6d0967	0.23148118
79	0x3d9ece14	0.0775415
80	0x3da4ddc8	0.08050114
81	0xbcfb196d	-0.030651772
82	0xbc5e8849	-0.013582298
83	0xbd88e5e5	-0.06684474
84	0xbca8b5d7	-0.02059452
85	0x3e175930	0.14780116
86	0x3e390333	0.18067627
87	0xbd841ab7	-0.06450408
88	0xbe5b01c1	-0.21387388
89	0x3ce76e79	0.02825092
90	0x3c53037d	0.01287925
91	0x3dadcd81	0.084864624
92	0x3d89f73b	0.067366086
93	0xbce7e65c	-0.028308086
94	0x3d3feccb	0.046856683
95	0x3c716cc3	0.0147354035
96	0x3e1495fe	0.14510342
97	0x3dfcf4ce	0.1235138
98	0xbd65fbad	-0.05614822
99	0x3e6b681d	0.22988935
100	0x3d0157ef	0.031578
101	0x3e2907e5	0.16506918
102	0xbdd3b194	-0.10336605
103	0xbd50daaf	-0.050989803
104	0x3e106a60	0.14103079
105	0x3e0a8557	0.13527428
106	0x3d507ce3	0.05090035
107	0x3dc6a639	0.09699673
108	0x3d5de3e3	0.054172408
109	0xbd0ab313	-0.033862185
110	0xbd8d6705	-0.06904415
111	0xbd16f57a	-0.0368552
112	0xbd9622e8	-0.073308766
113	0x3de3a47c	0.11115357
114	0xbd16cd57	-0.03681692
115	0x3e815a63	0.25264272
116	0x3c84bbbd	0.016202802
117	0x3e01960f	0.12654899
118	0xbda03d43	-0.07824185
119	0xbd257a2b	-0.04039971
120	0xbdc6f86b	-0.09715351
121	0x3dcbe9b9	0.099566884
122	0xbde6ac63	-0.11263349
123	0x3e1282f0	0.14307761
124	0xbe49b7d5	-0.19699033
125	0x3d47f4c2	0.048817404
126	0x3ca72a66	0.02040596
127	0x3e89406a	0.26806957
128	0xbdf4c417	-0.11951464
129	0xbe378a66	-0.17923889
130	0x3d72929f	0.05922186
131	0xbd07f002	-0.033187874
132	0xbd83a620	-0.0642817
133	0xbe2989b6	-0.16556439
134	0xbb8bf11f	-0.0042706872
135	0x3d4c23a1	0.049838666
136	0x3dda1ba8	0.10649806
137	0xbb5bd891	-0.0033545832
138	0xbdabc822	-0.08387782
139	0x3e0a52ee	0.13508198
140	0x3dc0d1cb	0.09415015
141	0x3c7e195a	0.015508974
142	0x3c33091d	0.010927466
143	0x3d9723c2	0.07379867
144	0x3e729006	0.23687753
145	0x3cc44e35	0.023963073
146	0x3d64bb78	0.055842847
147	0xbdd1758c	-0.102274984
148	0xbccddd42	-0.025129918
149	0x3e48b7d2	0.19601372
150	0xbe10af59	-0.1412939
151	0xbc7e8267	-0.01553402
152	0x3de80cff	0.11330604
153	0xbd1ebfca	-0.038757123
154	0x3c36ea1f	0.011164217
155	0x3dd00143	0.10156491
156	0xbc19ffbf	-0.0093993535
157	0xbc3715eb	-0.011174659
158	0x3dc25731	0.09489287
159	0xbcca69ed	-0.024708712
160	0x3da7b3ae	0.08188568
161	0x3d0e739d	0.034778226
162	0x3d19233d	0.03738712
163	0xbdd65213	-0.10464873
164	0xbe2fb20e	-0.17157766
165	0xbdc13656	-0.09434192
166	0xbce640f3	-0.028107142
167	0x3e0d1984	0.13779265
168	0x3d588d28	0.052868992
169	0x3d22ed2b	0.039776962
170	0xbca3ab08	-0.019979015
171	0x3da6f25a	0.08151694
172	0x3d717f90	0.058959544
173	0xbe472d2e	-0.19450828
174	0x3cd131fc	0.02553653
175	0x3d8e6cf9	0.06954379
176	0xbd183bf0	-0.037166536
177	0xbe001eb7	-0.12511717
178	0xbe0bce24	-0.13652855
179	0x3e0ea0b9	0.13928498
180	0xbe66d69e	-0.22542807
181	0x3d00e588	0.031468898
182	0xbe4ed81b	-0.20199625
183	0x3d9a68b1	0.075394996
184	0xbd5baea6	-0.053633355
185	0xbea05d9f	-0.31321427
186	0xbd0d0cb3	-0.03443594
187	0x3b1881f4	0.0023270817
188	0xbe369f6f	-0.17834257
189	0xbe7cf5f7	-0.24703203
190	0xbdbedb15	-0.0931913
191	0xbd56f6f1	-0.052481595
192	0xb923fd9f	-0.00015639373
193	0xbc1bc5f4	-0.009507645
194	0x3da912db	0.082555495
195	0x3e2afaeb	0.1669728
196	0x3e1663a2	0.14686444
197	0xbe389ada	-0.18027821
198	0xbdc45e09	-0.09588248
199	0x3e44f8b1	0.19235493
200	0x3dd9adc9	0.1062885
201	0x3e9c40f1	0.30518296
202	0xbd14a81b	-0.03629313
203	0x3d300116	0.042969786
204	0x3cb25c0a	0.021772403
205	0xbdb2a27a	-0.08722396
206	0x3d1de517	0.038548555
207	0x3db5c59c	0.088755816
208	0xbe5e6fa4	-0.21722275
209	0x3d445519	0.047932718
210	0x3e8694ab	0.262853
211	0xbe51b171	-0.20477845
212	0xbe5fcb52	-0.21854904
213	0x3ce172c0	0.027520537
214	0x3dd88fd5	0.10574309
215	0xbdc9bad5	-0.098500885
216	0xbe045860	-0.12924337
217	0xbdbbefb2	-0.09176578
218	0xbe5ddb0b	-0.2166559
219	0xbe0dec58	-0.13859689
220	0x3dc5b41e	0.09653495
221	0xbe502690	-0.2032721
222	0xbe2b735b	-0.16743223
223	0xbd44fe86	-0.048094295
224	0xbe348435	-0.17628558
225	0xbe1002a6	-0.1406351
226	0xbe4568b6	-0.19278225
227	0xbdd86c76	-0.10567562
228	0x3d3d6373	0.04623742
229	0xbd9f4e86	-0.07778649
230	0x3d8182da	0.06323786
231	0x3daa0650	0.08301985
232	0xbd2abdb8	-0.041684836
233	0xbdef9215	-0.11697785
234	0x3d790362	0.06079424
235	0x3d1f25fa	0.038854577
236	0xbc999ded	-0.018752063
237	0x3e24c5ae	0.16091034
238	0xbd310f1b	-0.043227296
239	0xbd59a257	-0.053133335
240	0xbda2c797	-0.07948225
241	0x3c011381	0.007878185
242	0xbd5e8862	-0.054329284
243	0xbd5e83be	-0.054324858
244	0x3d589c87	0.05288365
245	0xbca1c215	-0.019745866
246	0x3c8ca2be	0.017167445
247	0xbb694a6a	-0.0035597333
248	0xbd8aed8d	-0.067835905
249	0xbd6afabe	-0.057368033
250	0x3e045216	0.12921938
251	0xbd420672	-0.047369428
252	0x3c5be670	0.01342164
253	0xbd033def	-0.032041486
254	0xbdbc71b1	-0.092013724
255	0xbdd1f33e	-0.10251473

bias f4 [64]
0	0xbc1c108e	-0.009525431
1	0x3aad50b1	0.00132229
2	0x39fcc00b	0.0004820827
3	0xbcaa16c1	-0.020762803
4	0xbcd03db6	-0.025420051
5	0xbc892aa5	-0.016743967
6	0xbd08846d	-0.033329416
7	0xbbc2df40	-0.0059470236
8	0xbc9a88ce	-0.018864062
9	0x3b600f04	0.0034188638
10	0x3b9a4077	0.004707392
11	0xbd0524f4	-0.032505944
12	0xbc37e740	-0.011224568
13	0xbcac25e0	-0.021014154
14	0xbd4714f0	-0.048603952
15	0xbc9278e1	-0.017879905
16	0xbca6cff9	-0.020362841
17	0xbd2c5e37	-0.042082038
18	0xbc41e5da	-0.011834586
19	0xbd009a32	-0.031397052
20	0x00000000	0.0
21	0xbc9d7ff8	-0.01922606
22	0x3c33b96b	0.0109695
23	0xbaff1b30	-0.0019463059
24	0xbc965f93	-0.01835612
25	0xbd175ab2	-0.03695173
26	0xbd5ba892	-0.053627558
27	0xbbdb6e01	-0.006696463
28	0xbd5ab76c	-0.05339758
29	0xbc1b2184	-0.00946844
30	0x00000000	0.0
31	0xbc0fb934	-0.008772183
32	0xbd07d359	-0.03316054
33	0x3beb4a03	0.0071804537
34	0x3b1adbcc	0.0023629544
35	0xbd03d6b1	-0.032187168
36	0xbcb0c75f	-0.021579443
37	0x3b918aee	0.0044416105
38	0xbc89401b	-0.0167542
39	0xbca9665e	-0.020678695
40	0xbcfa07b5	-0.030521253
41	0xbc95e1ed	-0.018296206
42	0xbce742b9	-0.028230058
43	0xbcdf762f	-0.027278034
44	0xbd283230	-0.041063488
45	0xbbe919e8	-0.007113684
46	0x3ba64181	0.0050737266
47	0xbc8a0f2f	-0.016852943
48	0xbc15c496	-0.009141108
49	0xbcaab3d6	-0.020837706
50	0xbc999ba3	-0.018750971
51	0x3b63afe6	0.0034742295
52	0xbc42aee1	-0.011882515
53	0xbd10fe08	-0.035398513
54	0xbc9920ce	-0.0186924
55	0xbd0801ae	-0.033204727
56	0xbd11a98e	-0.03556209
57	0x00000000	0.0
58	0xbc6ca9d7	-0.01444479
59	0x00000000	0.0
60	0xbc0f9f81	-0.008766056
61	0xbcb7eab7	-0.022450788
62	0x3c10dd98	0.008841895
63	0xbc0493c5	-0.008091872

weight f4 [64, 64]
0	0xbd0facc4	-0.03507687
1	0xbe7c1e37	-0.24620901
2	0x3d03ac46	0.032146715
3	0xbd91f689	-0.07127101
4	0xbdcaed67	-0.09908562
5	0xbd376b80	-0.044780254
6	0xbecbaae4	-0.39778817
7	0xbd61fb8e	-0.055171542
8	0xbe6c71ee	-0.23090336
9	0xbeabc78b	-0.33550677
10	0xbe048042	-0.12939551
11	0xbdcb7acf	-0.09935533
12	0x3e31ed16	0.17375597
13	0xbe88553a	-0.26627523
14	0xbb8ce2f5	-0.0042995163
15	0x3da52a19	0.0806467
16	0x3d3b5e2c	0.045744106
17	0xbdd5d037	-0.104401045
18	0x3bb43c36	0.0055003418
19	0xbcafad01	-0.0214448
20	0x3e4a4f72	0.19756868
21	0x3a1f4493	0.0006075587
22	0xbe4498c8	-0.19198906
23	0xbd1ee599	-0.03879318
24	0xbdf03444	-0.11728719
25	0x3e6345fe	0.22194669
26	0x3e9f012f	0.3105559
27	0x3e5c4c98	0.21513593
28	0xbd7501d8	-0.05981621
29	0xbe477f3a	-0.19482127
30	0x3e85a5f7	0.26103184
31	0x3e20aa76	0.15690026
32	0xbdd38f3a	-0.10330053
33	0x3e50081d	0.20315595
34	0xbdea97aa	-0.11454709
35	0x3e92ada4	0.28648102
36	0xbc9f5122	-0.019447867
37	0xbddb6f58	-0.107145965
38	0x3cd9b756	0.02657668
39	0xbebf61ea	-0.3737939
40	0x3ea1d419	0.3160713
41	0x3e2e560a	0.17025009
42	0x3da4048a	0.08008678
43	0x3dc0751d	0.093973376
44	0xbe5ac759	-0.21365108
45	0xbd277545	-0.04088332
46	0xbe909ae9	-0.28243187
47	0xbe68edad	-0.22746916
48	0xbe82164a	-0.2540763
49	0xbd6b7ae6	-0.057490252
50	0x3e683c2c	0.22679204
51	0x3c9fc54c	0.019503258
52	0xbe223154	-0.1583913
53	0xbdf4781c	-0.119369715
54	0x3e2ac830	0.16677928
55	0xbd20cb29	-0.03925625
56	0xbe5220f4	-0.20520383
57	0xbe21819a	-0.15772095
58	0xbe11b2c4	-0.1422835
59	0x3e70b939	0.23508157
60	0xbd018261	-0.03161848
61	0xbe1102f8	-0.14161289
62	0xbdcfa5fe	-0.10139082
63	0x3e5053f7	0.2034453
64	0x3d9c1b42	0.076223865
65	0xbc5e9fa9	-0.013587871
66	0xbe6a336c	-0.22871178
67	0xbdea9c1c	-0.11455557
68	0xbe83067d	-0.25590888
69	0x3daf563a	0.08561368
70	0x3d427b6a	0.047480978
71	0x3e4ac3ad	0.19801207
72	0xbdba4d88	-0.09096819
73	0x3e502c00	0.20329285
74	0xbe917a14	-0.2841345
75	0xbcac050f	-0.020998506
76	0xbe02b4e0	-0.12764311
77	0x3e7cb3f9	0.24678029
78	0xbe9921b2	-0.2990852
79	0xbe041e16	-0.12902102
80	0xbe7d4ec2	-0.24737075
81	0xbd08a95b	-0.033364635
82	0xbea39f50	-0.31957483
83	0x3ea1beae	0.3159079
84	0x3e83f438	0.25772262
85	0x3ce999a1	0.028515639
86	0x3df2edc6	0.11861758
87	0xbe46096f	-0.19339536
88	0xbdf69b52	-0.12041344
89	0xbe41c23a	-0.18921748
90	0x3d5ffdfe	0.054685585
91	0xbdd5848f	-0.10425674
92	0x3db4f1a7	0.08835154
93	0x3d2c8b11	0.04212481
94	0xbdafb5f6	-0.08579628
95	0x3ea012d3	0.31264362
96	0x3db16013	0.08660903
97	0xbea87c49	-0.32907322
98	0x3d2b0ecb	0.041762155
99	0x3b4d9589	0.0031369647
100	0x3e36a132	0.17834929
101	0xb9c50a54	-0.00037582463
102	0xbe8ab2b7	-0.27089474
103	0xbe3f3e2a	-0.18676057
104	0x3e709b7c	0.23496813
105	0xbea0ee49	-0.31431797
106	0xbdc2cac9	-0.095113344
107	0x3e13d6ab	0.14437358
108	0xbdd8ed6f	-0.10592162
109	0xbe0304b8	-0.12794769
110	0xbe8a4301	-0.27004245
111	0xbe5146f9	-0.2043723
112	0xbc7a7d0a	-0.015288601
113	0xbdf0e4ac	-0.11762366
114	0xbe0ca59d	-0.13735051
115	0xbe5791b7	-0.2105168
116	0x3d32856c	0.043584272
117	0xbe40fd56	-0.1884664
118	0x3e31dac9	0.17368616
119	0xbde9a2af	-0.114079826
120	0xbe575d70	-0.21031737
121	0xbd2459ef	-0.04012483
122	0x3e84e094	0.2595259
123	0xbdcc4e3f	-0.09975862
124	0x3c456f2b	0.01205043
125	0x3e59b8a7	0.21261846
126	0xbe163560	-0.14668798
127	0xbd07eff3	-0.033187818
128	0xbd70029b	-0.058596235
129	0x3b9def3e	0.0048197797
130	0xbe20d15c	-0.15704864
131	0xbe47b66d	-0.19503184
132	0xba4e0fd1	-0.0007860633
133	0x3daceaee	0.08443247
134	0xbe9e73b2	-0.30947644
135	0x3da97777	0.08274739
136	0xbe3d5cde	-0.18492457
137	0x3cc4619a	0.023972321
138	0xbc96cb1d	-0.018407399
139	0x3e1608c8	0.14651787
140	0xbe3abdc1	-0.18236448
141	0xbcd9686d	-0.026539052
142	0x3e6666d9	0.22500171
143	0x3d059d98	0.032620996
144	0x3e343dbc	0.17601675
145	0xbda0bb09	-0.07848174
146	0xbe6ef943	-0.23337273
147	0xbe353551	-0.1769612
148	0x3f048354	0.5176289
149	0x3d01ca7d	0.03168725
150	0x3eb8325b	0.35975918
151	0xbd7aec1a	-0.06126032
152	0x3d0ed997	0.03487548
153	0xbe2c23e0	-0.1681056
154	0x3ea78d0e	0.32724804
155	0xbdfc5b03	-0.123220466
156	0xbe33ee9b	-0.1757149
157	0xbdb344d8	-0.08753365
158	0xbd7a09c6	-0.061044477
159	0xbeb6bcf3	-0.35691032
160	0x3e075748	0.13216889
161	0xbce528f6	-0.027973633
162	0xbca47fa6	-0.020080399
163	0x3cf07462	0.02935237
164	0xbcb6091f	-0.022221146
165	0xbda9e13c	-0.08294913
166	0xbe88abc0	-0.26693535
167	0xbd73b9c3	-0.059503328
168	0xbeb5f297	-0.35536644
169	0x3eb129c6	0.34602183
170	0x3ea40f73	0.32043037
171	0xbd71fed3	-0.05908091
172	0x3dc166c1	0.09443427
173	0x3ddddf2c	0.10833582
174	0x3e605859	0.21908702
175	0xbdd03072	-0.1016549
176	0x3e29ef8c	0.16595286
177	0xbc8f47a3	-0.017490214
178	0x3e3d1a3e	0.18467042
179	0x3ca5cb9f	0.020238696
180	0x3d4a00db	0.049317222
181	0xbcc86c72	-0.024465773
182	0x3df09481	0.11747075
183	0x3dbc59e8	0.09196836
184	0x3c9d4fe2	0.01920313
185	0xbdca7b67	-0.098868184
186	0x3ec9a9e8	0.3938744
187	0x3d84ce0a	0.06484611
188	0xbd0de98e	-0.034646563
189	0x3c7317d7	0.014837227
190	0x3dedfdaa	0.11620648
191	0xbe2ee55c	-0.17079681
192	0x3e884305	0.26613632
193	0x3e9914ee	0.2989878
194	0x3e5ce878	0.21573055
195	0x3e03c17a	0.12866774
196	0x3dd30e05	0.103054084
197	0x3e8d363c	0.2758044
198	0xbe204c5c	-0.15654129
199	0xbe89f3ca	-0.2694381
200	0x3e5b3551	0.21407057
201	0x3eb5384c	0.35394514
202	0xbe5efef8	-0.2177695
203	0xbe9e7bb9	-0.30953768
204	0x3d615e64	0.05502166
205	0x3cf89d53	0.030348456
206	0xbdae8a61	-0.085224874
207	0x3de43428	0.111427605
208	0xbe3109ed	-0.17288943
209	0xbdcaab9f	-0.098960154
210	0x3e2d3206	0.16913614
211	0xbe5794b6	-0.21052822
212	0x3e82e6fa	0.25566846
213	0x3d78cebe	0.06074404
214	0xb8e9cebb	-0.00011148812
215	0x3e16ccbb	0.14726536
216	0xbe6eb0a7	-0.23309575
217	0x3e5ae55c	0.21376556
218	0x3d9d0afc	0.07668111
219	0x3c9d6e97	0.019217772
220	0xbdb05602	-0.08610155
221	0xbe1091c1	-0.141181
222	0x3e1dc659	0.15407695
223	0xbc1f4154	-0.009720165
224	0x3dcb37f2	0.0992278
225	0x3cff851b	0.0311914
226	0xbe1814d0	-0.1485169
227	0x3d9aab31	0.075521834
228	0xbe957e87	-0.29198095
229	0xbe13b7f7	-0.14425646
230	0x3dba1b44	0.09087232
231	0xbd864d16	-0.06557672
232	0xb8e11797	-0.0001073323
233	0xbe5f2188	-0.21790135
234	0xbd943324	-0.07236317
235	0x3d4d9d18	0.050198644
236	0x3d0ac86b	0.03388254
237	0x3e2c1fbc	0.1680898
238	0x3e779fa1	0.24181987
239	0xbe5475ff	-0.20748137
240	0x3e3c06e9	0.18362011
241	0x3e0b4f0d	0.13604374
242	0xbe2e4504	-0.17018515
243	0xbdb9c6cd	-0.09071121
244	0xbea5e3f9	-0.32400492
245	0x3e252a9b	0.16129534
246	0x3ec93459	0.3929775
247	0xbdee7ed0	-0.11645281
248	0xbdd58caa	-0.1042722
249	0x3e7be82d	0.24600287
250	0x3d0bf427	0.03416839
251	0xbe27b260	-0.16376638
252	0x3e3d34d7	0.18477188
253	0x3b6da63c	0.0036262413
254	0x3c8e6594	0.01738242
255	0xbe27ff5a	-0.16406003

bias f4 [64]
0	0xbc8d4dab	-0.017248949
1	0xbc2aa232	-0.010414647
2	0xbb51e8d6	-0.003202965
3	0xbc6aa462	-0.0143214185
4	0xbca86e1e	-0.02056032
5	0x3d1b3171	0.037888948
6	0xbc7e8d2c	-0.015536588
7	0x3a3400a2	0.00068665494
8	0x3cd3edd4	0.025870241
9	0x3cb27dce	0.021788504
10	0xbcc0b990	-0.023525983
11	0xbcc81f03	-0.02442885
12	0x3bb504a0	0.005524233
13	0xbc4a0976	-0.012331357
14	0x3c539074	0.012912858
15	0x3b5935b5	0.0033143584
16	0xbac61713	-0.0015113078
17	0xbb8e172b	-0.004336258
18	0xbb452061	-0.0030079114
19	0x3b31051b	0.00270111
20	0xbb77aeae	-0.0037793326
21	0xbc06be11	-0.008224026
22	0xbd5aa9bd	-0.05338453
23	0xbc788ded	-0.0151705565
24	0x3bae7fa2	0.0053252736
25	0xbcba1c1e	-0.022718485
26	0x3acd629d	0.0015669648
27	0x3c81fca9	0.015867548
28	0xbc5ec051	-0.0135956565
29	0xbd9183b4	-0.071051985
30	0xbd6762b5	-0.05649062
31	0xbcbac95d	-0.022801096
32	0xbc755f93	-0.0149764
33	0xbaf8d01e	-0.0018982922
34	0x3d1ca0dd	0.03823935
35	0xbc2adc3c	-0.0104284845
36	0x39d1f775	0.00040047956
37	0xb8ab3874	-8.1644306e-05
38	0xbc0efd9f	-0.00872746
39	0x3bc26380	0.0059322715
40	0xbc842d4e	-0.016134884
41	0xbca46f68	-0.020072654
42	0xbd3827ed	-0.04495995
43	0xbd2f4b81	-0.042796616
44	0xbbb0ddeb	-0.0053975484
45	0xbc8c3539	-0.017115222
46	0x3d4dc1f5	0.0502338
47	0xbd801b41	-0.06255198
48	0x3c9cbf61	0.019134225
49	0xbba794d9	-0.0051141796
50	0xbba3a2de	-0.0049937805
51	0xbc9ff772	-0.01952717
52	0x3ce98112	0.028503928
53	0x3cbba78f	0.022907047
54	0x3cc16c62	0.023611251
55	0x3c993879	0.018703686
56	0x3ce32347	0.027726782
57	0xbc182e9f	-0.009288459
58	0xbcda7f35	-0.026671985
59	0x3bdcc5dd	0.0067374543
60	0x3d2ecece	0.042677693
61	0xbc2eb207	-0.010662562
62	0xbc33a83b	-0.010965402
63	0x3cebac9f	0.028768836

weight f4 [1, 64]
0	0xbb0748c7	-0.0020642744
1	0x3de8103f	0.11331224
2	0xbcd2010c	-0.025635265
3	0x3b8b8197	0.0042573917
4	0x3992076f	0.00027852828
5	0xbd968439	-0.07349438
6	0x3a68f081	0.00088859355
7	0x3d9a4458	0.07532567
8	0x3d9cf975	0.07664768
9	0x3e0a7daf	0.13524507
10	0x3a96b153	0.0011496939
11	0xbc5eb3b2	-0.013592647
12	0x3a6ed6be	0.00091109786
13	0xbe806974	-0.25080454
14	0xbd011a61	-0.031519298
15	0xbe145537	-0.14485632
16	0xbcd2e09e	-0.025741871
17	0x3ab03689	0.0013443987
18	0xbcd04972	-0.025425646
19	0x3c89a7d5	0.016803661
20	0x3da7f5ba	0.082011655
21	0xbd5c93e8	-0.053851992
22	0xbe44f350	-0.19233441
23	0xb9dc2850	-0.00041991705
24	0x3e0a2d93	0.13493948
25	0x3b82204b	0.003971135
26	0x3c241521	0.010014803
27	0xbd664bc8	-0.056224614
28	0xbb962c40	-0.0045829117
29	0xbe1e5283	-0.15461163
30	0x3dd57b50	0.104239106
31	0xbd6cc715	-0.057807047
32	0xbcecab7e	-0.028890368
33	0x3e997b04	0.29976666
34	0xbd7c93a6	-0.061664246
35	0xbd4dbaf4	-0.05022712
36	0x3da1b53f	0.07895898
37	0x3c8d5301	0.017251493
38	0xbd944bc0	-0.07241011
39	0xbe81d4f5	-0.25357786
40	0x3e4be70e	0.19912359
41	0x3eca3f86	0.3950159
42	0x3deaa8d7	0.11457985
43	0x3b576cb4	0.0032871189
44	0xbd112365	-0.035434145
45	0x3923c803	0.00015619402
46	0x3da3be01	0.07995225
47	0xbe413f75	-0.18871863
48	0x3d3243eb	0.043521803
49	0xbdd162ff	-0.1022396
50	0x3c96c35f	0.018403707
51	0xbd26afb7	-0.04069492
52	0x3e1b707f	0.15179633
53	0x3c6e1b05	0.014532809
54	0xbd998872	-0.07496728
55	0xbc504c32	-0.012713479
56	0x3dbf434f	0.0933901
57	0x3b64cb15	0.0034911085
58	0x3d21be0f	0.039487895
59	0x3d861ee7	0.06548863
60	0xbd123d15	-0.035702784
61	0x3abde787	0.0014488556
62	0xbbce99d2	-0.006304958
63	0xbc7173ff	-0.014737128

weight f4 [5, 64]
0	0xb9f1e776	-0.00046139554
1	0xbbb48fe8	-0.005510319
2	0x3890d69d	6.90643e-05
3	0x3ba8073c	0.0051278155
4	0x3c67c860	0.014146894
5	0x3b8df844	0.004332574
6	0xbbc0ec60	-0.005887553
7	0x3c168679	0.009187334
8	0x3b3d2c24	0.0028865421
9	0x3a0d08b5	0.00053800206
10	0x3a96e574	0.0011512474
11	0x3c0f7f2e	0.008758349
12	0x3a9ca8a9	0.001195212
13	0x3c6ed2bf	0.014576613
14	0x3b1faf2f	0.0024365892
15	0xbc4c7d37	-0.012481025
16	0xbb8549f0	-0.004067652
17	0xbae9e40b	-0.0017844451
18	0x3a68ad89	0.00088759564
19	0xbc0249fa	-0.007952208
20	0x3c0b1d25	0.008490835
21	0x3bc95210	0.006143816
22	0x3bff9713	0.007799992
23	0xbb5f48a8	-0.0034070406
24	0xbc67546f	-0.014119252
25	0x3b500d70	0.003174629
26	0x3ad0d11b	0.0015931459
27	0xbc0ba92d	-0.008524221
28	0x3acb042f	0.0015488918
29	0xbba7cd33	-0.005120897
30	0x3b9baf73	0.00475114
31	0xbb1b8830	-0.0023732297
32	0xbc08074f	-0.008302524
33	0x3be8243e	0.0070843985
34	0x3a655714	0.00087486324
35	0xbba15092	-0.004922935
36	0x3a581c61	0.0008243975
37	0x3a8f8d01	0.0010952057
38	0xb9f15031	-0.0004602685
39	0x3b73464a	0.0037120753
40	0x3ae3280b	0.0017330659
41	0x3b2d8cfc	0.0026481738
42	0x3bc51640	0.0060146153
43	0x3b9fa174	0.0048715416
44	0x383f9c79	4.5683675e-05
45	0x38919ad4	6.942978e-05
46	0x3bb6e08f	0.0055809687
47	0xba1f38e2	-0.0006073845
48	0x3c67fe52	0.014159756
49	0xba1996fc	-0.0005858985
50	0xbbfe01bf	-0.007751673
51	0x3ba7b778	0.0051183067
52	0xb9beac02	-0.0003636778
53	0xbb122553	-0.002230008
54	0xbbb0d7d9	-0.005396825
55	0x3b7de11a	0.0038738907
56	0x3b47e583	0.003050179
57	0x3a730e65	0.00092718593
58	0xba7f17fa	-0.0009731051
59	0xbc37000e	-0.011169447
60	0xbbfdcb97	-0.007745217
61	0xba338b0b	-0.0006849027
62	0x3a94f4ac	0.0011364422
63	0x3bcb5e63	0.00620632
64	0xbb032bf9	-0.0020015223
65	0x3ac9e890	0.0015404392
66	0x3b585c36	0.0033013946
67	0xbb6310d3	-0.003464748
68	0xbc48d072	-0.0122567285
69	0x3b49a3d0	0.0030767806
70	0x3bc102a4	0.0058902074
71	0x3be4479d	0.006966545
72	0x3a1ae9d7	0.00059094786
73	0x3c4c7e9a	0.012481356
74	0xbae9a664	-0.0017826078
75	0xbbe67014	-0.0070324037
76	0x3b86f152	0.004118123
77	0x3b16c0b0	0.0023003034
78	0x39d9b3f8	0.00041523552
79	0x3baf1ee4	0.0053442586
80	0x3b2d812b	0.0026474695
81	0x3baf6575	0.005352671
82	0x3bc402f2	0.0059817964
83	0x3b7009f8	0.0036627036
84	0xba453f52	-0.0007524389
85	0xbba9bd5a	-0.005180043
86	0x3b298b98	0.0025870558
87	0xbc69fae8	-0.014281012
88	0xbc47327c	-0.0121580325
89	0x3afaa1b6	0.001912168
90	0xbba004f3	-0.0048834025
91	0x3c8db18e	0.017296579
92	0xbb9f96c4	-0.0048702676
93	0x3b042040	0.0020160824
94	0x3aa4ca12	0.0012572429
95	0xbb2acc13	-0.002606158
96	0x3c53e58f	0.012933149
97	0x3b4e2588	0.0031455476
98	0x3ae3e27a	0.0017386221
99	0xb78d7cbc	-1.6866594e-05
100	0xbadde3dd	-0.001692887
101	0x3bbfad0b	0.0058494858
102	0x3c2a19f3	0.010382163
103	0x3bf0dfe5	0.007350909
104	0x3a84bf5a	0.0010127828
105	0xbc2b0bc3	-0.010439816
106	0x3c361982	0.01111448
107	0xb9576bc5	-0.00020544145
108	0x3be36734	0.006939793
109	0x3c0aaac3	0.008463564
110	0xb9e06843	-0.0004280229
111	0x3b09c848	0.0021023918
112	0xbc5d0699	-0.013490343
113	0xbc6200c0	-0.013794124
114	0x3ac31e83	0.0014886413
115	0x3a909faa	0.0011033912
116	0xbb85251f	-0.004063263
117	0xbc42a664	-0.011880491
118	0x3aa32f63	0.0012450035
119	0x3b7d9950	0.0038696118
120	0xbadb0b86	-0.0016711808
121	0xbbacac4e	-0.0052695638
122	0x3c061794	0.008184332
123	0x3b3f26f3	0.0029167503
124	0x3ab032af	0.0013442839
125	0x365bd435	3.2757064e-06
126	0xba30b6a1	-0.0006741081
127	0xbb4ce7be	-0.0031266059
128	0x3b432233	0.0029775023
129	0xbb746287	-0.0037290172
130	0x3a8a04c5	0.0010529986
131	0x3abf73fe	0.0014606712
132	0xbb0eb34e	-0.0021774354
133	0x3c3691d5	0.0111431675
134	0x3a7b2309	0.0009580111
135	0x3b9b73d5	0.004744033
136	0x3c18a19a	0.009315873
137	0x3afbf2ff	0.0019222199
138	0x3a2fa0ff	0.00066997105
139	0x3c01d0cc	0.007923316
140	0x3c4bf26d	0.0124479355
141	0x3a7a488c	0.00095475535
142	0xba8487a6	-0.0010111227
143	0x3ae330a5	0.0017333223
144	0x3c3267bc	0.01088899
145	0x3b756ea7	0.0037449987
146	0xb929209c	-0.00016129244
147	0x3b973199	0.004614067
148	0xbb522083	-0.0032062836
149	0x3b0f4fa1	0.002186753
150	0x3b7242b8	0.0036966037
151	0x3bdfa24a	0.0068247663
152	0x3b577f26	0.0032882183
153	0x3a10fea2	0.00055311073
154	0x3c0c490e	0.0085623395
155	0xbabcc0a1	-0.001440067
156	0x3b967a10	0.0045921877
157	0x3b797920	0.003806658
158	0x3a969238	0.0011487668
159	0xbba554c5	-0.0050455057
160	0x3b67c61e	0.003536589
161	0x38b77998	8.7487686e-05
162	0x3bec1e83	0.0072057857
163	0x3bee0fb6	0.0072650565
164	0x3a5abbf3	0.00083440467
165	0x3c23adf0	0.0099902
166	0x3b62d6d3	0.0034612908
167	0x3b0d8e75	0.0021599804
168	0x3a8d17f0	0.001076458
169	0x3bc0f1cc	0.0058881994
170	0xbbbf9eaa	-0.0058477717
171	0x3b0b7266	0.0021277904
172	0xbb2be3a6	-0.0026228218
173	0x3b470747	0.0030369328
174	0x3b523d60	0.003208004
175	0x390756df	0.00012906965
176	0xbc8900e2	-0.016724054
177	0x3b1d17c6	0.002397047
178	0x3c00ead1	0.007868485
179	0x3c040f6b	0.008060317
180	0xbb332270	-0.0027333759
181	0xbb8e7467	-0.0043473723
182	0x3b37f180	0.002806753
183	0x3b4171d2	0.0029517305
184	0x3c0bf64f	0.008542611
185	0x3b8408fd	0.004029392
186	0xbc45da5f	-0.0120759895
187	0x3c8c0de2	0.017096464
188	0x3b14f3d2	0.0022728336
189	0xbab80ae8	-0.0014041336
190	0x39dd46af	0.00042205068
191	0xbb2db725	-0.0026506868
192	0x3b4f1344	0.0031597177
193	0x3c02fdae	0.007995052
194	0xbbb4ab78	-0.0055136047
195	0x3c0f7bac	0.008757513
196	0xbbc208c7	-0.0059214565
197	0xbb4ee015	-0.0031566669
198	0x3c498b5f	0.012301295
199	0x3b7d9a06	0.0038696541
200	0x3b8f1fdf	0.004367813
201	0x3a43724c	0.0007455691
202	0xbbf30b40	-0.0074171126
203	0xbb5ca820	-0.0033669546
204	0x3a93f171	0.0011287165
205	0xbb82feb3	-0.0039976477
206	0x3974c8ba	0.0002334443
207	0x3bbc6a12	0.0057499493
208	0xba451e33	-0.00075194536
209	0xbabc1db4	-0.0014352114
210	0x39eef6f3	0.0004557889
211	0xb987d747	-0.000259096
212	0x3b730ef3	0.0037087768
213	0x3a89b8a9	0.0010507304
214	0x3c12ccb7	0.008959941
215	0x3c52565b	0.012837972
216	0x3b9db0be	0.004812329
217	0x3c306ec5	0.010768597
218	0xbbb7a89e	-0.0056048175
219	0xb9dc625f	-0.00042034962
220	0xbbd7f96a	-0.006591012
221	0x3b0b7315	0.002127831
222	0xbc0e1a16	-0.008673212
223	0x3bb102ad	0.0054019303
224	0xbb0df546	-0.0021661087
225	0x3b0a3a2c	0.0021091802
226	0xbb86a805	-0.004109385
227	0xb91b0cd1	-0.00014786726
228	0x3a8f47e6	0.0010931462
229	0xbb684910	-0.003544394
230	0x3b6b5134	0.0035906555
231	0x3a325e6a	0.000680423
232	0x3acc44fc	0.0015584524
233	0x3c7a0113	0.015259045
234	0xbbcf7dd0	-0.0063321367
235	0x3b6edff9	0.0036449416
236	0xbbc69c71	-0.0060611297
237	0xbb2f8f18	-0.0026788171
238	0xbaa7783c	-0.0012776922
239	0xba8410a8	-0.0010075765
240	0x3bfc0622	0.007691161
241	0x3c4b74e2	0.012418004
242	0x3ba6f5c7	0.005095217
243	0x3b0feb48	0.0021960307
244	0x3ba3e0d2	0.005001166
245	0x3c72efe3	0.014827701
246	0x3c188131	0.009308145
247	0xbbfd2aaf	-0.0077260355
248	0x3aab8bc0	0.0013087913
249	0x3b2dfc26	0.0026547997
250	0xbb219911	-0.0024657885
251	0xba8702e9	-0.001030055
252	0x3bbc212d	0.0057412595
253	0xb8d95900	-0.00010363944
254	0xba01069b	-0.0004921944
255	0x3be7326d	0.007055572

bias f4 [5]
0	0xba9249fd	-0.0011160966
1	0x3b69b6e1	0.0035661983
2	0x3a2d9b23	0.00066225434
3	0x3b35649b	0.0027678374
4	0x3bc9581c	0.0061445367
