model/medium-2/A2C/model_agent0_seed2.pt (torch, 109505 bytes, 11 tensors)

weight f4 [64, 134]
00000000: 1527 5f3e 07d4 dc3d 5819 6dbd 9711 a33d
00000010: 72d8 2abe 944e 163c 3a05 063d f013 2d3e
00000020: 2fee b1bc 8056 05bd 66b5 f6bd e775 17bc
00000030: 07b4 d2bd efd0 4e3e 63c2 f63c 8990 053e
00000040: 77b0 e9bd 6e31 2a3d caa2 1ebd 1013 183e
00000050: c0d1 9ebd d67a 203e 908a ccbc d6e9 083e
00000060: bd26 193e 6df1 3c3e 0e68 a73d 98e1 a0bb
00000070: bb0b 83bd 40ea da3d 4f02 88bd 2da0 8a3d
00000080: bbf6 173e 4d91 123d 267a cbbd b4c3 e7bc
00000090: 1a24 80bc 9e32 073c 973b e63d 373c 11be
000000a0: 6212 513e 93e9 17bd 8b81 0c3d b1c5 563c
000000b0: a071 e1bd 1b68 73be 5514 213e 9c1a c0bc
000000c0: b56c 84bd 9dc7 843d 5668 11be 3d3f b53d
000000d0: 3b41 f0bc 2f00 35bd 6e85 bd3d bf3b 823d
000000e0: c493 90bc 9455 f3bc 71bf 24bc 66e0 d33d
000000f0: 8744 2a3e de3e 80bd 15bd 0c3e a0c8 583e
00000100: f691 953e 4bf8 01be 220c 613e a519 f6bd
00000110: 723e d5bd 1d84 54bc cc95 4b3d de03 003e
00000120: 2fcf a9bd c6c9 873e da64 ef3d 4f46 e5bd
00000130: 2892 e8bd 208e 123d 9d5b 1d3e 81ec 2c3e
00000140: 5436 c53d 5830 cfbc bd93 da3c a13c a73d
00000150: 4b43 053e 182f 1a3d 4484 1f3e 9ca2 86be
00000160: 8d95 f23d fbea 92be ab6f 473e 08d1 0fbd
00000170: 6a6c 63be 6bc5 91be cd2e 95bd aa63 91bd
00000180: 63dc c3bd 8d7e 0dbd 0646 8bbd da17 533d
00000190: 0155 2e3d b7c7 6bbc ef10 323c 1d71 f33c
000001a0: 2c38 9abd 7f68 e23d 999c 10be c230 b53d
000001b0: 0f1d dcbc 4d59 173e 6dc4 583d 02b9 b93d
000001c0: de85 1b3e 01a0 8fbe 4700 803b 46a4 aebd
000001d0: bfcd 453b f0a2 ee3a f45f 78bd 6123 21bd
000001e0: 3964 373e 7e8b ef3d 7598 4a3e 7bdf 85bd
000001f0: ce57 65be 3aec 963d 8841 403e 7107 4dbe
00000200: cc59 e2bd 510c 893d 07b9 91bc f802 61bc
00000210: ec7e 583b 805b e83c a7b3 92bd f120 013e
00000220: 9ccb 18be 76a1 8f3d 8709 f2bd a78d 78be
00000230: 6fc3 90bd e5e2 ffbd 4327 923d 141b 47be
00000240: d0f2 32bd cd9e 103e ff75 85be fbe9 07bc
00000250: 25aa 303d c6fb 10be 3fd7 183e e7e0 a03e
00000260: 536b 2b3d 0349 80bd 22fb be3d 60f7 42bd
00000270: 3b4f 643d 5bc9 abbe 4398 583d a24b 2d3e
00000280: f759 8a3d 1226 4abd 0a69 86bc 4819 8bbb
00000290: 08ad fabc 1e81 a7bc 8f36 05bd 21b6 4a3e
000002a0: c552 5b3d df7b 923e 2d2a f9bd c149 eb3b
000002b0: ef08 5d3e 39c5 9d3c b995 3cbe b690 713d
000002c0: 43e6 913d e80d 373d 7f5b 8bbd ca71 ac3b
000002d0: 6ecf f6bb 40c0 7f3d 137e 503e 8bb4 fb3d
000002e0: 65e9 e4bd ee7f e43c df81 60bd 84d3 02be
000002f0: 4e58 f7bb 8b50 28be adea fbbd a777 ffbd
00000300: d1bf 313e f9f9 3f3d aab4 e9bc cba2 26be
00000310: 2590 873c 31d8 463d 4920 23bd b6d9 f03c
00000320: d364 6dbd ed40 a6bd 56a1 483b 714e 40be
00000330: c841 a33d 96a8 083e 039a babc 899f a73d
00000340: aa0e e5bd 17cc 0abe e571 663d 89db 4fbe
00000350: 1c30 febd c632 dbbd bbff a93c 9108 42be
00000360: 2ba1 3fbe cdb2 40be 0082 2a3e df76 d9bc
00000370: b06c 24be 7382 c7bc 48c0 98bd 57f8 a1bd
00000380: f40d 1d3e ed94 c63d 2f01 8f3d baf8 113e
00000390: 15e1 63bd 000c b3bd 2615 3b3e fbe7 2bbe
000003a0: 6044 d4bd 1d4e 5f3d 8b8c 953c f35c aa3e
000003b0: bed8 7039 0e7d a7bd a684 273e 2344 4abd
000003c0: 897d 63be b49c 293d 4630 553e 0845 b03c
000003d0: 73a0 25bd da96 4b3e 8d3f 2dbc 8465 e93c
000003e0: c797 22bd 9200 16bd ada2 27bb e0ec 093e
000003f0: 6538 8ebd ed53 d6bb aa01 05bd 255e 083e
0.21792252 0.107826285 -0.057885498 0.07962339 -0.1668413 0.009174008 0.03271983 0.16902137
-0.02172002 -0.032553196 -0.12046318 -0.009244419 -0.10288244 0.2019689 0.030121988 0.13043417
-0.11410611 0.041551046 -0.038729466 0.14851022 -0.077548504 0.15671858 -0.024968415 0.13370451
0.14956184 0.18451472 0.08174144 -0.0049097054 -0.06398722 0.10689211 -0.06641065 0.06768832
0.14840214 0.0357831 -0.09935407 -0.02829156 -0.015642215 0.008251814 0.112418346 -0.14183126
0.20417169 -0.037087988 0.03430323 0.013108657 -0.110080004 -0.23770182 0.15730412 -0.023450188
-0.06466047 0.06483386 -0.14199957 0.08849952 -0.02932798 -0.04418963 0.09253965 0.06359052
-0.017648585 -0.029703893 -0.010055409 0.10345535 0.16627704 -0.06261991 0.13744004 0.21170282
0.29212922 -0.12692373 0.21977285 -0.1201661 -0.10412301 -0.012970951 0.049703404 0.12501475
-0.0829147 0.26521128 0.11689158 -0.11195051 -0.11356002 0.035780072 0.15366979 0.16887094
0.09629503 -0.025291607 0.026681775 0.08165861 0.13013951 0.03764257 0.15577799 -0.26295936
0.11844931 -0.286949 0.19476192 -0.035111457 -0.22209325 -0.2847093 -0.07284317 -0.070990875
-0.0956352 -0.034544516 -0.06800465 0.05153642 0.042561535 -0.014390877 0.010868295 0.029717023
-0.07530245 0.11055087 -0.14122237 0.088471904 -0.026869325 0.1478016 0.0529217 0.090684906
0.15187785 -0.2805176 0.003906283 -0.085274264 0.0030182449 0.0018206518 -0.060638383 -0.03934038
0.17909326 0.11696528 0.1978472 -0.06536766 -0.22396776 0.073692754 0.18774998 -0.2002237
-0.11052284 0.06691802 -0.017788423 -0.013733618 0.0033034636 0.028363943 -0.07163172 0.12610222
-0.14921421 0.07013218 -0.118182234 -0.24272786 -0.07068526 -0.124944486 0.07136395 -0.19443923
-0.043688595 0.14123078 -0.26066586 -0.008295531 0.043131012 -0.14158544 0.1492586 0.31421587
0.0418504 -0.06263926 0.093252435 -0.047599196 0.055739623 -0.3355206 0.052879583 0.16923383
0.06755441 -0.049352713 -0.016407508 -0.004244957 -0.030600086 -0.02044731 -0.032522734 0.19796039
0.053545732 0.2861013 -0.121662475 0.007180423 0.21585439 0.019259082 -0.1841649 0.058975898
0.07123997 0.044690996 -0.06804561 0.005262588 -0.0075320518 0.062439203 0.20360593 0.12290295
-0.11177329 0.027893033 -0.054811355 -0.12776 -0.0075483685 -0.16436975 -0.1230062 -0.12473994
0.17358328 0.046869252 -0.02852853 -0.16273038 0.016548226 0.04854602 -0.03982571 0.029400688
-0.05795748 -0.08117852 0.0030613742 -0.18779923 0.07971531 0.1334556 -0.022778517 0.08184726
-0.111844376 -0.13554417 0.056260962 -0.2029859 -0.1241152 -0.10703044 0.020751825 -0.1894858
-0.18713824 -0.18818207 0.16651154 -0.02654594 -0.16057086 -0.024354195 -0.0745855 -0.07908695
0.15337354 0.09696374 0.06982648 0.14255038 -0.055634577 -0.08742523 0.18269786 -0.16787712
-0.10364604 0.054517854 0.018255493 0.3327404 0.00022968926 -0.08178149 0.16359195 -0.049381386
-0.22215857 0.04140921 0.20819196 0.021517292 -0.04043622 0.19881764 -0.010574234 0.02849079
-0.039695527 -0.036621638 -0.002557914 0.13469267 -0.0694435 -0.0065407665 -0.03247229 0.13317163

bias f4 [64]
00000000: e80b 77bb 68fe d4ba e887 dbb9 6543 88ba
00000010: 6536 2cbb a8e8 18bc d819 10bb 1c42 cd39
00000020: d256 d7ba 48d2 28bb 39de 86ba c0bc 83bc
00000030: 88b2 9abb aa0b a2ba edb7 84ba ef4a f03a
00000040: ee92 c839 798d 7f3a 71e9 afbb 723d b7bb
00000050: b734 5d3c d69b fbb9 8d93 8ebb 6cdd 91bb
00000060: 0caf 3fbb f761 963b 22c1 62bc bbf5 5d3b
00000070: 0487 73ba 162a ddba df19 08bc 2952 ae3c
00000080: f80d 44bb fb9d 65bc 3cca 35bb 56a1 34bc
00000090: 58bf 6c39 d307 413b 52c4 363a 9c48 34bb
000000a0: 84b1 86bc 8f82 18bc 21a7 c2bb 61da d5ba
000000b0: 2fa4 ddbb 11be 68bb 9aa6 feba 252e fbb9
000000c0: a02a 4b3b 4ed5 ccbb a808 e3b8 fa2c ddbc
000000d0: 14a1 463c 27ca 843a 9056 fcbb a477 9cba
000000e0: 34ed 1abb 0000 0000 6510 e73a efc9 1ebc
000000f0: e8f5 7dba dbc1 1abb 3189 a63b 365d 3ebc
-0.0037696306 -0.0016250135 -0.00041872193 -0.0010396062 -0.002627754 -0.009332813 -0.002198806 0.00039149902
-0.0016429073 -0.0025760103 -0.0010289616 -0.016081214 -0.0047209896 -0.0012363095 -0.0010125615 0.0018332879
0.00038256444 0.0009748559 -0.0053684046 -0.0055920416 0.013501338 -0.00047990558 -0.0043510855 -0.0044514444
-0.0029248623 0.004589315 -0.013839992 0.003386839 -0.0009289833 -0.0016873505 -0.008306949 0.021279411
-0.0029915553 -0.014014716 -0.002773895 -0.011024794 0.00022577995 0.0029454126 0.0006972003 -0.00275091
-0.016442068 -0.009308471 -0.0059403335 -0.0016315692 -0.006763957 -0.003551368 -0.0019428313 -0.0004790883
0.0031000748 -0.006251014 -0.00010825816 -0.026998986 0.012123365 0.0010131047 -0.0077007487 -0.0011937511
-0.002363992 0.0 0.0017628787 -0.009691699 -0.0009687827 -0.0023614082 0.0050822725 -0.011618903

weight f4 [64, 64]
00000000: 3373 b33c c1a7 213e 8aca 2f3e 6c89 203d
00000010: 4c93 8c3d 7fb5 1f3c d3ef 5d3d ba20 6d3d
00000020: dddd 9bbb 0156 0bbc f949 2bbe b560 473e
00000030: 7594 df3d 854a 46be 8d76 db3d 0eb2 05bd
00000040: 510f d13e 29cb 513e df4e 1abd 5b0f b6bc
00000050: 552b d33c c96c 87be 6db9 0fbe 7b0d 873e
00000060: f545 c9bc e659 833e 102a 2dbd 4c05 873d
00000070: 0372 d83b 82e2 ef3d 2829 efbd 492e 4b3e
00000080: b406 9c3d f1ee 7cbe 7c91 d93d 244d 4cbe
00000090: b07e 9e3e d60f 123e feba 55bd bd79 bcbe
000000a0: 01a1 b13e 87c5 303e 99b5 abbe 7e6f 063e
000000b0: cfca 323e cb9b 67be be1c 113e ae2b 9c3b
000000c0: 01c8 7b3c 0826 abbd 8c24 abbe 7592 793d
000000d0: 04a6 b13e 3eda ffbc f6ee 63be 8fc5 d23c
000000e0: b25a 0cbe 9635 4dbd c450 89be 2519 9b3e
000000f0: 5aad 9cbc 9024 103d d742 613e eafe c3bd
00000100: 5856 94be 5334 42bd c138 65be 14bd 1ebe
00000110: d087 723e d3dc ecbd c6c5 fe3d 0bc7 943d
00000120: e97b 80bd 20cd ef3d ab2e 2fbe cb2b 31bd
00000130: 2eeb 74bd da35 cebd 0de7 1ebe ce8a 39bd
00000140: 0f6a f23d 18bd 953e a877 ad3d 59b6 92be
00000150: a2ec 113e fbca aebd 0b2c c7bd c77e 373e
00000160: 749e 9fbe e2e7 36be 3e3c 07be 0bc1 f8bc
00000170: b1f6 bc3d 437e 98bd 399b cbbd 28ba 8ebe
00000180: 1399 bdbe 46a3 593d dde2 44be 2a17 76be
00000190: 8021 4e3d 0d38 2bbe 5f04 89be 0791 6c3e
000001a0: 78e3 74be f00e a93e 828d 0c3e 568c e43d
000001b0: 70cf 183e c57e 4c3e 710e a83e d1ce ad3c
000001c0: e1b4 1ebd 0d88 62be 2d8f 9a3c 0bc8 993e
000001d0: 82bb 693c f778 a2bd 7d7d 09be 2b1c 24be
000001e0: fac4 7a3d b337 8c3e a533 9bbd 9bb0 dfbd
000001f0: 0a90 2d3e 3f0f 843e f0b1 653d ee79 c93d
00000200: 9801 7cbe 73c1 8e3e a33f 913d 944f 48be
00000210: f0c5 4cbe 1ae1 57bd 78cf e2bd 4d07 0c3e
00000220: c3b2 ab3e 4255 923c 29d6 b0be 5905 13bc
00000230: 51de b33d 285e e23e a30b ee3d 1917 303e
00000240: a192 823d b1e6 c5bc 155e 9ebc 9720 a13d
00000250: fff7 47bb 4f36 88bd 3754 17bd 031d 38bd
00000260: 3529 9dbc ed1b b0be 8932 88bc b4ce 09bf
00000270: 3d58 ec3d e679 683e da40 8abb 02f4 22ba
00000280: e8f7 c73e 2dc0 44bc e2f9 c7bd af92 83bc
00000290: 0e6d febd 033a 34bd d93b 1cbe dcfc f7bd
000002a0: 38bd 933b ad5b 923e cee6 1dbe 0349 76be
000002b0: a45a 183d 9900 163e 9b34 953d dc8d 06be
000002c0: d9ab 43bc fe01 c33d 2c8a a63e 96d7 353e
000002d0: 54db 98bd 6758 dfbd 5b27 44bd 4742 04be
000002e0: 214f 57be 80f5 27be 2d4b 223d 75cd 4a3d
000002f0: 80fb 27be 826e 913d 3f96 e83d 6df2 13be
00000300: 8f4c dc3d 0a54 abbd 8fe1 d43d fe94 bc3c
00000310: a309 7b3d 6322 583e df14 5b3e 4a54 0dbd
00000320: a278 153e 633c f93d a887 62be 9557 c73e
00000330: 18ca 7a3e fa9c 18bd aad4 abbe 1ac7 d53c
00000340: 514c 38bc 0c33 1bbe 76cd ea3c 62a1 6d3e
00000350: f35f d93d ac5c 99bd 48a1 16be af41 20be
00000360: 6013 4bbe d168 9fbe 81d0 aa3d cf03 e33d
00000370: 084e 0dbe 742a e1bd eefe b53d 632b a2bd
00000380: 558e cfbc 3c78 83be d7fc ec3d a058 59be
00000390: df20 ec3d fc2e 0ebe d8fe aebe 37a7 103e
000003a0: 3f44 2f3e e2fe 70be 3270 583e 4748 b23d
000003b0: da7b 903e c022 7abc 133b 99be 68c8 9abe
000003c0: b982 473d dc33 1e3d 96c0 ae3e c45d 22bd
000003d0: 41de 553e 2812 c83d d681 4dbd c85a b73d
000003e0: 9633 dbbd 5518 e63d dcde 82bd 18e6 1f3e
000003f0: 4cb2 863c 616d 0dbc 03b6 bebe 0c9d b63d
0.021905517 0.1578665 0.17167106 0.039193556 0.06864032 0.009747862 0.054183792 0.05789254
-0.004756673 -0.008504392 -0.16727437 0.19470485 0.10916988 -0.19364364 0.10715971 -0.03264051
0.40831998 0.20487656 -0.037672874 -0.022224119 0.025777498 -0.26450184 -0.14035578 0.26377472
-0.02456949 0.25654525 -0.042276442 0.06592807 0.006605388 0.11713125 -0.11677772 0.19841875
0.07618466 -0.24700524 0.10623452 -0.19951302 0.3095603 0.14263853 -0.052180283 -0.3681163
0.3469315 0.1726285 -0.33536986 0.13128468 0.17460178 -0.22618024 0.1417112 0.004765949
0.015367509 -0.08356863 -0.3342632 0.060930688 0.34696972 -0.031231996 -0.22259125 0.025728969
-0.13706473 -0.05009993 -0.26819432 0.3029262 -0.01912563 0.03519112 0.21998154 -0.095701054
-0.28972125 -0.04741318 -0.22384931 -0.15501815 0.23684621 -0.115655564 0.12440066 0.07264527
-0.06273634 0.11709046 -0.17107646 -0.043254655 -0.059794597 -0.10068865 -0.15517826 -0.04529839
0.11836635 0.2924583 0.08470088 -0.28654745 0.14250425 -0.08534809 -0.097251974 0.17919455
-0.31175578 -0.17861894 -0.13206574 -0.030365488 0.0922674 -0.074459575 -0.09941716 -0.278764
-0.3703085 0.053134225 -0.19227166 -0.24032274 0.050324917 -0.167206 -0.26761147 0.23102199
-0.23914897 0.3301921 0.13725856 0.111595795 0.14922881 0.19970234 0.32823518 0.021216782
-0.03874672 -0.22122212 0.0188671 0.30035433 0.014265897 -0.079332285 -0.13426776 -0.1602637
0.061223008 0.27386245 -0.0757821 -0.10922357 0.16949478 0.25792882 0.056077898 0.09837709
-0.24609983 0.27881965 0.07092216 -0.19561607 -0.19997382 -0.052704908 -0.11074728 0.1367466
0.33534822 0.01786292 -0.3453839 -0.008973443 0.08782638 0.4421246 0.11623313 0.17196311
0.063756235 -0.024157854 -0.019331971 0.07867544 -0.0030512807 -0.066509835 -0.036945548 -0.044949543
-0.019184688 -0.34396306 -0.01662566 -0.5383103 0.115402676 0.2270275 -0.0042191567 -0.00062161696
0.39056325 -0.012008709 -0.09764458 -0.016061155 -0.12423144 -0.044000637 -0.15257205 -0.12108776
0.0045086406 0.28585568 -0.15420076 -0.2405129 0.037195817 0.14648665 0.07285424 -0.13140053
-0.011942827 0.09521864 0.32527292 0.17758021 -0.074637085 -0.10905533 -0.047889095 -0.12915908
-0.21026279 -0.16402245 0.039622474 0.049512345 -0.16404533 0.07101156 0.11356782 -0.14447947
0.1075679 -0.083656386 0.103945844 0.023020264 0.061288487 0.21106867 0.2139468 -0.034504212
0.14596799 0.12169721 -0.22122061 0.38934007 0.24491155 -0.03725908 -0.33560687 0.026095916
-0.011248664 -0.15156192 0.028662425 0.23206094 0.10614004 -0.07488379 -0.14709961 -0.15650056
-0.1983161 -0.31134656 0.0834055 0.11084711 -0.13799298 -0.109944254 0.088865146 -0.079184316
-0.025336424 -0.2567767 0.11571663 -0.21225214 0.11529707 -0.1388511 -0.34178805 0.14126287
0.17115878 -0.2353473 0.21136549 0.08705192 0.2821949 -0.015267074 -0.29927883 -0.30231023
0.04870865 0.038623676 0.34131306 -0.039640203 0.20885564 0.09769088 -0.05017265 0.08952862
-0.107031986 0.1123511 -0.06390163 0.15615118 0.01644244 -0.008632035 -0.3724824 0.08916673

bias f4 [64]
00000000: 72f4 f8ba 0000 0000 bb5e 8cbc 5d43 97bc
00000010: 67e4 91bc 5a3c c0b7 4076 1fbc 2c4a 74bb
00000020: 03fb 49bc 8e9f b3b6 50f5 c0bb ade3 1fbc
00000030: a10b a0bc b7ef e1ba 5ea8 73bc ce8a d4bb
00000040: 4d45 2537 04af cbbb ed56 70b6 40a5 32bc
00000050: 3f33 11bc e31d 2cbc 1f0d d7b9 ed9e da38
00000060: 26b8 16bc 1965 05bc 97a9 aabc d912 2cbc
00000070: 0301 06bc 22ab efbb b4e8 56bc 0c17 aebb
00000080: 8068 2fbc c310 c2ba 0000 0000 9675 3bbc
00000090: 18de 9cbc eac9 28bc c9ba 5634 25e6 00bc
000000a0: cf92 52bc c9b8 b5bb 747e 55bb 05e3 5dbb
000000b0: 0000 0000 0459 3bba 105b 20bc bb61 41bc
000000c0: 7955 f7b8 8ef4 e4bc 2a2c db37 40c4 36bc
000000d0: a41d a4bb 8bfd 80bc a8e6 72bb d223 60bc
000000e0: 92f3 7eb8 7d76 d4bb 590a 85bb b665 81bc
000000f0: 0000 0000 de1a abbc c7ad 39bc b49e 59bc
-0.0018993749 0.0 -0.017135015 -0.018464739 -0.017809106 -2.2916287e-05 -0.009732783 -0.0037275655
-0.012327912 -5.3531903e-06 -0.0058886185 -0.009758872 -0.019536795 -0.0017237578 -0.014871685 -0.0064862734
9.850902e-06 -0.006215932 -3.5813384e-06 -0.0109036565 -0.008862316 -0.010505172 -0.00041017772 0.00010424652
-0.009199178 -0.008141779 -0.02083282 -0.0105025405 -0.008178952 -0.007314102 -0.013117004 -0.005312806
-0.010706067 -0.0014806021 0.0 -0.011441609 -0.019148871 -0.010302046 1.9998255e-07 -0.007867371
-0.012852385 -0.0055457097 -0.0032576593 -0.0033857238 0.0 -0.0007146748 -0.009787336 -0.011803086
-0.00011793798 -0.027948644 2.61274e-05 -0.011155188 -0.0050084163 -0.015745899 -0.0037063751 -0.013680415
-6.078516e-05 -0.0064838515 -0.0040600714 -0.01579557 0.0 -0.020886835 -0.011332936 -0.013282467

weight f4 [64, 134]
00000000: e6a1 ea3d 229c 1f3e f2fa 70be da88 df3d
00000010: a76e e03c 4572 b5bd a267 22be 3f64 383d
00000020: 9106 51bb c555 babd 82c2 353e 29d2 f23c
00000030: 5b82 9abd de99 cabd ccd7 903e c8a5 5dbe
00000040: d03e 8f3b 6478 0b3e a51c 573e f994 2e3e
00000050: 2fb4 053d 1611 663d 3d5a 863d 3ef3 c93c
00000060: d200 293e 7071 b53b 01cc b6bc 085e 12bc
00000070: 31d5 44be 1fbf 4f3d 0b31 bdbd 5577 e3bd
00000080: 45db e23c 853a 0d3d 405c fd3d 761e 463d
00000090: 26cf afbb b906 13bd 0fb8 28bd 8a59 7a3b
000000a0: cfac 803d af60 b73c a63f 6dbc dd8c f0bc
000000b0: b058 283c 23a2 69bc ceb8 b93d c86b a3bd
000000c0: ded9 8abd 7607 4dbd af6e 6a3e f6e8 263e
000000d0: 67e0 29be 3b4f a53c c9e9 e3bd dc19 22be
000000e0: edf3 303d ecf1 763e b260 aabd d6f3 0c3e
000000f0: 9b4d 4fbc 66b2 d03d 7a47 8fbd 19a4 f0bd
00000100: 65c7 063c 7f2b aebd ac21 a1bc 6b01 fabc
00000110: e2d3 313e acb8 1a3d 0a30 6e3d e86f 12bd
00000120: 4bd9 80bd dc8b 0abe 904a 1bbe f863 08bd
00000130: 924d 6bbc 4924 2b3d e1e8 6cbc 2cb1 6f3d
00000140: b691 8a3e 353b df3d e784 91bd 3238 bc3c
00000150: 72a5 99be 55d6 ea3d 15f6 ecbd fc9c b13b
00000160: 350b 373e e883 1c3d 5a87 21bc f15c 42bd
00000170: 7e96 523d f6fa 44be eea8 49bd 0377 8b3d
00000180: 64d7 48be ffef 463e 8419 91bd 6e85 c4bd
00000190: 1d37 1e3e 6144 633e 9a54 0cbd 0d4d 36be
000001a0: a0e2 703d 7ac0 633c 1a9c 1abe b262 ef3c
000001b0: cf34 943d e27c 62be 13ab 80bb b163 363d
000001c0: 7aeb 863e 23fe dabd a5d2 f5b9 6988 c3bd
000001d0: da74 3fbe d512 08bd bdcf c2be e41e a13c
000001e0: f5cb e33d 8db4 ea3c 50bf febd ab04 48be
000001f0: f09a 6fbd ec55 033e 7982 143d 4185 ee3c
00000200: ed44 c5bc cbd6 59bd cf4b 7fbc 00f5 72bd
00000210: bc20 b23b d0a0 8fbe 9b85 b43d cfe1 02bc
00000220: 773f 0bbe 8514 72be ceb8 26be 13a6 93be
00000230: 56e2 8f3d e8d9 79bd 5cce 16bd 6b5c 4ebd
00000240: 03c4 d2bd 4a7e fd3d 9038 0eb9 449a 04bd
00000250: f24e d53d e1b9 1d3e b1ff a83d 9bfd 4d3c
00000260: 34af efbc edae 29be 3381 5d3d 41b2 493d
00000270: 503a 4f3d 93b5 83be 1f34 323e 08ac c13d
00000280: dec9 c83b 88ec 9d3c aa86 763d d18a 963b
00000290: 53cc d7bd 1a8d 8d3d b68d 31be e714 88bc
000002a0: dddd 60bd 324f 0f3c 4a9b 0b3e 8398 983d
000002b0: 74cf 2e3e 0b40 1c3d 86ee 93bd fe8b 163e
000002c0: e61c 303d e340 d33d 1431 2e3d 2e85 f33d
000002d0: c140 7bbe 60a9 14be 4c0d cebd 8987 96bd
000002e0: b7a2 013d 522f 10be 7c21 4fbe dfb2 183e
000002f0: 1d1b d93d 0f52 39bb 99e6 73bb 612a b2bd
00000300: 4bf1 bb3d 25db 23be e8b5 443d 168a 8bbb
00000310: d639 2bbe 93b1 533e 57ab fd3d 4d76 173d
00000320: 03ba c63c c5da 3c3b 437a c83d 73a5 263e
00000330: fc82 11bc 3781 913c fd01 1e3e de13 323e
00000340: 0a21 98be 872e 083e 596a 663e 827d 0a3e
00000350: b6f2 c2bd abca 8c3d 1bc9 733c 65fe 263e
00000360: a12c 42bd 6173 593d 1bd9 7cbd fe07 1d3e
00000370: 964b 67bd 4bc0 cabc a086 123e ca64 f2bd
00000380: 142d a83c ee6d 853e 1f01 043d cff5 0ebe
00000390: d7eb 33be b1e0 dc3d 326a 98bb c5dd 7ebd
000003a0: 559a e33c 0f23 b9bc 9314 61be 43ca 3c3e
000003b0: 2f2a 73be c941 93bd 78e0 b43d 5270 a2bd
000003c0: bd69 a4bd c491 1b3d 1554 d9bd d836 22bd
000003d0: b3bb e0bd 780d d13d abbb 34be 08ad be3d
000003e0: 48ba e93d b609 60bb 6129 c53d 17b7 24bc
000003f0: 0060 7f3e 0e56 29bd 3bc9 d13b 187e d2bc
0.11456661 0.15586904 -0.23533228 0.10914774 0.027396513 -0.08859686 -0.15859845 0.045017477
-0.0031894783 -0.090983905 0.1774998 0.029641228 -0.075443946 -0.09892629 0.2828964 -0.21645272
0.0043715015 0.13620144 0.21007021 0.17049016 0.03264254 0.05616864 0.0656018 0.02465212
0.16504219 0.0055372044 -0.022314074 -0.008933552 -0.19221951 0.050719377 -0.0923787 -0.11106745
0.027692446 0.034479637 0.12371111 0.048368894 -0.00536527 -0.035895083 -0.041191157 0.0038200342
0.062829606 0.02238497 -0.014480507 -0.029364044 0.010275051 -0.014259848 0.09068452 -0.07979542
-0.06779836 -0.050055943 0.22893785 0.16299805 -0.16589509 0.020179382 -0.11128575 -0.15830177
0.043201376 0.24115723 -0.083192244 0.13764891 -0.01265278 0.10190277 -0.06996055 -0.11750049
0.00822625 -0.0850439 -0.019669376 -0.030518254 0.17365983 0.037773773 0.058151282 -0.035751253
-0.06291445 -0.13529915 -0.15165162 -0.033298463 -0.014361756 0.04178265 -0.0144598195 0.058518574
0.27064294 0.10899965 -0.07105427 0.022976015 -0.30009037 0.11466662 -0.11570374 0.0054203253
0.17875369 0.038211733 -0.0098589305 -0.047451917 0.05141305 -0.19236359 -0.04923337 0.06809809
-0.19613415 0.19427489 -0.07084945 -0.09595762 0.15450712 0.22194053 -0.03426037 -0.1780283
0.058809876 0.01390087 -0.1509861 0.029221866 0.07236635 -0.22117952 -0.0039266436 0.044528667
0.2635153 -0.10693004 -0.00046886984 -0.095475025 -0.18696919 -0.033221085 -0.38049117 0.01966805
0.11122886 0.028650546 -0.12438834 -0.1953303 -0.05849737 0.12825745 0.03625724 0.029116275
-0.024080718 -0.05318336 -0.015582039 -0.05931568 0.005436031 -0.28052378 0.08814546 -0.007988407
-0.13598429 -0.2364064 -0.16281435 -0.28837642 0.07025592 -0.060998827 -0.036817893 -0.050381105
-0.102912925 0.12377603 -0.00013563246 -0.03237368 0.10415448 0.15402938 0.08251894 0.012572671
-0.029258348 -0.16570635 0.054078292 0.04924226 0.05059272 -0.25724468 0.17402695 0.094566405
0.00612758 0.019277826 0.06018702 0.004594185 -0.105370186 0.069116786 -0.17339215 -0.01661153
-0.054899085 0.008746909 0.13633457 0.07450964 0.17071325 0.038147014 -0.07223229 0.1470184
0.04299631 0.103151105 0.042527273 0.118906364 -0.2453642 -0.14517736 -0.1006113 -0.0735007
0.031649318 -0.14080551 -0.20227617 0.14911984 0.106008746 -0.002827767 -0.0037216304 -0.086994894
0.09176882 -0.16001566 0.04802504 -0.0042584045 -0.16721281 0.20673208 0.12386196 0.036978055
0.02425862 0.002881692 0.097889446 0.16274051 -0.008881327 0.01776181 0.15430446 0.17390391
-0.29712707 0.13298999 0.22501506 0.1352444 -0.0951895 0.06874593 0.01487949 0.16307981
-0.047405843 0.05308855 -0.061730485 0.1533508 -0.05646857 -0.024749896 0.14309168 -0.1183563
0.020529307 0.26060432 0.03222763 -0.13960956 -0.17570435 0.10785044 -0.0046513313 -0.062223215
0.027783552 -0.022599725 -0.21980505 0.18436532 -0.2374656 -0.07190282 0.088318765 -0.0793158
-0.080279805 0.03798081 -0.106117405 -0.039603084 -0.10973301 0.10207647 -0.17649715 0.09310347
0.114124835 -0.0034185476 0.09627033 -0.010053418 0.24938965 -0.041341834 0.0064021624 -0.025694892

bias f4 [64]
00000000: cb98 743c dfba 16bb 7540 3a3c 2241 cf3a
00000010: 5046 0bbc d0da a9bc a49b 42bb 14e7 08bd
00000020: 1884 80bb 6270 30bb 5411 12bc 9401 693c
00000030: 7034 ef3a da18 9d3c 4393 23bd fdad 38bd
00000040: 0000 0000 6758 f6bc 236a 3cbc 7791 cfbc
00000050: 4109 113b 52fb 623b 8d38 3a3b 2b37 2abb
00000060: d862 7f3c f5aa c7bc e272 10bd b1e5 febc
00000070: 7dc2 8cbc f661 e8bb 45b2 1d3a 1ef5 d6ba
00000080: 2e4d 12bc 55a8 60bc e23c e03a c0ce babc
00000090: f5ad d4bb dd96 9ebc 762f 80bc a8a0 f3bc
000000a0: cd5a bfbc d3fa b8bc 896c 9b3b b2d2 8ebc
000000b0: 385b f73c baac f23c d3d8 95bc 1946 533c
000000c0: 48d1 96bc c61c 4e3c 0a0f aebb 6ec4 313c
000000d0: a766 89bc e88d 4ebb fb86 b8bc f614 1abd
000000e0: 7684 ebbc fb11 8f3c 6ac6 a6bc a698 99bc
000000f0: 4419 733b bcba 4d3b 1208 02bd cba8 8bbc
0.014929007 -0.0022999567 0.011367907 0.0015812258 -0.0085006505 -0.02073422 -0.002969482 -0.0334235
-0.003921997 -0.0026922454 -0.008915264 0.014221568 0.001824988 0.01917689 -0.03993536 -0.045087803
0.0 -0.03007145 -0.011499914 -0.025337918 0.002213076 0.0034634662 0.0028415055 -0.0025972824
0.015587531 -0.02437351 -0.03526581 -0.031115385 -0.017182583 -0.007091756 0.0006015639 -0.0016399955
-0.008929534 -0.0137120085 0.0017107988 -0.022803664 -0.006490464 -0.019359047 -0.015647631 -0.029739693
-0.023358727 -0.02258054 0.004743163 -0.017434452 0.030194864 0.029623378 -0.018291866 0.012895131
-0.01841034 0.012580102 -0.0053118514 0.010850055 -0.016772581 -0.0031517688 -0.022525301 -0.037617646
-0.028749686 0.017464628 -0.020358283 -0.018749546 0.0037093917 0.003139182 -0.031745978 -0.01704826

weight f4 [64, 64]
00000000: 6d1d 6cbe c27a e53d 76ff e13d 0526 853e
00000010: 195e 25bd 4e6b cd3d e11c 093e fd73 643d
00000020: 80dc 2a3e 1773 343e ee28 ad3d 121a be3c
00000030: d498 f83d 4344 613e 5604 11bd 6e21 0b3e
00000040: bfb7 143e 1dfe 243e c38a 62be 53f4 0d3d
00000050: 64c3 433e 13db 2bbc 85d2 06be 2c7a 50bd
00000060: ebf7 88be 27c9 923c cfc6 2ebe b360 043e
00000070: cc92 ef3e cce7 553e f51d 01be 5e8f b5be
00000080: f163 bebe 53cf b2be 1f9a 883d e4d2 49bd
00000090: 48ad 6f3d 2e00 34be 4e5c 443d 2cfe bf3c
000000a0: 7db4 c63c 1fc3 9a3e b616 e43d dbe3 17be
000000b0: e72f 293e d0cb 073e 314f 16bd 8d5a 3fbe
000000c0: a7a9 d4bc 03d1 00be 7fa4 80bb b283 cebd
000000d0: 0ef2 1fbe 8671 36be bee7 853e 1f03 b2bd
000000e0: c592 8f3d 3749 c2bd d98c 023d 3610 853e
000000f0: fb5b 12bd 95a8 41be 9a2d 80bd 6b49 8ebe
00000100: ea43 47be a1ae dabd c7a5 783c 6293 83bd
00000110: 1a2c 0c3f ff9e cf3d 4ade 6dbe ad7a 9f3d
00000120: 7e70 43be 1496 d13d e5fa f03c 2f7c 57bd
00000130: 3e4f 6cbe 0bd5 69bd f0ac 3bbe cb9a 18be
00000140: 831d 823e 4f75 32be a249 99bb 8ead 413d
00000150: 4a80 343e 08ea 01be 2aba fb3d a149 f53d
00000160: af7c 88bc 189f 82be 14f4 593e b40b d5bb
00000170: 19b5 5c3e d1be cdbe 2dbc 26bd 511c 8f3e
00000180: f034 ef3c 24df 63be 39d1 63bc 88a3 1d3c
00000190: c513 31be 39a2 243e 6558 8d3e 0be7 b03d
000001a0: 70dc 043e c43d a83d 6440 f63a a795 f6bd
000001b0: 0134 40be ded5 383e 81f1 0abd 26e3 00be
000001c0: e2f9 20be 7c9c 30be 2ebc 523b f2f3 3cbe
000001d0: 9993 d53d 9d3c db3c dfd2 713e 5fdf efbe
000001e0: 1238 5ebe 533d 3d3e 522e cebd 833e d0bb
000001f0: eb3f b2bd e190 1a3d af57 cfbd 5188 5e3e
00000200: ac64 263e 78fd b8be 93e5 0c3e b5c2 56be
00000210: 94fc 853d 581c b9be 78de 7b3d bf9a a7be
00000220: 0407 c0be c3f0 dcbd c90f 23be e9a9 19be
00000230: 3e0c c5bd 5090 853e 1c41 983e 716e 28bd
00000240: 2d6e 503e 6dda 61be 780d afbe c16c 053e
00000250: a29a f5bb 8118 113d cfee 6e3c 84c5 1a3e
00000260: 5600 82be db75 f03d a735 9dbd 5797 b03d
00000270: 24c2 cebd 2089 c83c 350c 9bbd 9c43 5ebe
00000280: c83f 9f3e c3b4 573d be78 f0bc 0eeb a5bb
00000290: 0e0f 583d 01a0 5abd 8db5 9b3c f501 59be
000002a0: 3549 a83d ffbd 95bc 1f14 8d3e 2d1f 3f3e
000002b0: 2d13 293e 0921 f1bd ac93 81be b7cb c1bd
000002c0: c5ae c5bd e3ec 003e 73e3 13be 0cca e53d
000002d0: 5533 013e 72b9 aebd 0727 783e dd02 87bd
000002e0: 271e a2be 4e11 94be 2a63 16bd 371e f03d
000002f0: 7ea2 0fbe c250 613d 36c8 fdbd 94e3 3cbd
00000300: 2171 c2bc d3ca 723e ab06 5e3e 440c e4bd
00000310: 3b02 853e 7114 943c b644 6c3e 9d4f 3bbe
00000320: 9341 003e ba73 283e 41bb 903e b596 d4bd
00000330: fe51 5bbe ec57 d83d 1b1d 043e 2f06 b43e
00000340: 6714 983d f250 883e a3e3 863c 67b8 a9bd
00000350: 9d8c 173e d972 263e ba92 d9bd 19a2 6cbd
00000360: 85f5 2d3d a638 c2bd 741b 72bc 0442 bdbe
00000370: 60bb d6bd 7836 7a3e 1132 87bd f37a 573c
00000380: ace0 4dbe 09b2 8c3e 510b 43be 9a66 003d
00000390: 0964 adbe c36f a03d a6af 5c3e 9cef 973c
000003a0: cbc0 6b3d 349b a63d 13ee 5f3e fd4c c3bd
000003b0: 7b94 65bd d276 63be 597a 043d 7d87 54be
000003c0: 20d8 7dbe b6b8 263e d0c9 e03d fb70 89bd
000003d0: 004e 1abd 3aa7 5c3d d5de 183d 79f3 7a3e
000003e0: b882 8cbe 8990 bbbd 39b5 0f3c 0f96 53be
000003f0: 9aa4 d3bd 19ba 8cbc af74 713c 134b c93e
-0.230581 0.11205055 0.110350534 0.2600557 -0.04037294 0.10030232 0.13389923 0.055774678
0.16685677 0.17622028 0.08455072 0.02320579 0.12138525 0.21998696 -0.035404526 0.13586971
0.14523219 0.16112562 -0.22123246 0.034656834 0.19117504 -0.010489243 -0.13166244 -0.050897762
-0.26751646 0.017918183 -0.17068027 0.12927513 0.46791685 0.20889205 -0.12609084 -0.35460943
-0.37185624 -0.349238 0.06670021 -0.049273387 0.058514863 -0.17578194 0.04793959 0.023436628
0.024255985 0.3022699 0.11137144 -0.14833014 0.1652218 0.13261342 -0.036696617 -0.18686886
-0.025959803 -0.12579732 -0.0039258595 -0.10083713 -0.1561968 -0.17816743 0.26153368 -0.086920016
0.07010416 -0.09486621 0.031872604 0.2598893 -0.03573225 -0.18911965 -0.06258698 -0.27790388
-0.19459501 -0.10677839 0.015176243 -0.064245954 0.54754794 0.10137748 -0.23229328 0.077870704
-0.19085881 0.10233703 0.02941651 -0.052608665 -0.23077103 -0.05708794 -0.18327689 -0.14902799
0.2541314 -0.17427562 -0.004677967 0.047284655 0.17627063 -0.12686932 0.12291367 0.11976934
-0.016661016 -0.25512004 0.21284515 -0.0065016393 0.21553458 -0.40184644 -0.040706802 0.2795129
0.029200047 -0.2225309 -0.013904863 0.009621508 -0.17292698 0.16077508 0.27606502 0.08637818
0.12974715 0.08214906 0.00187875 -0.12040263 -0.18769838 0.18050334 -0.033921722 -0.1258665
-0.15720323 -0.17247194 0.003215562 -0.18452433 0.10428543 0.026762301 0.23615597 -0.46850106
-0.21701077 0.18480425 -0.10067429 -0.006355108 -0.08703598 0.037735824 -0.10124146 0.21731688
0.16249341 -0.3613088 0.1375945 -0.20972712 0.06542316 -0.36154437 0.06149146 -0.3273525
-0.37505352 -0.10788109 -0.1592399 -0.15006222 -0.09621476 0.26086664 0.29737175 -0.04112095
0.20354529 -0.22055979 -0.34189963 0.13029768 -0.0074952403 0.03542376 0.014583304 0.15114409
-0.2539088 0.11741229 -0.07676249 0.08622616 -0.10095623 0.024479449 -0.07570688 -0.21705478
0.3110335 0.052662622 -0.02935445 -0.005063421 0.052748732 -0.053375248 0.019007469 -0.21192153
0.08217088 -0.018279074 0.27554414 0.18664236 0.16511221 -0.11773879 -0.25307977 -0.09462684
-0.09652475 0.12590365 -0.14442234 0.11220178 0.12617238 -0.08531465 0.24233638 -0.06592343
-0.3166363 -0.28919452 -0.036715664 0.11724513 -0.1402683 0.055008657 -0.12391703 -0.046115473
-0.023735585 0.23710184 0.21682231 -0.11135152 0.25978264 0.018076153 0.23073086 -0.18292089
0.12525015 0.16450396 0.28267863 -0.103803076 -0.21417996 0.10563645 0.12901728 0.35160968
0.074257664 0.26624256 0.016465968 -0.08287125 0.14799733 0.16254748 -0.10623689 -0.057771776
0.042470474 -0.09483461 -0.014777053 -0.36964428 -0.10484958 0.2443484 -0.06601346 0.013151872
-0.20105237 0.2747958 -0.19047286 0.03134785 -0.33865383 0.07833817 0.2155138 0.018546872
0.05755691 0.081350714 0.21868162 -0.09536169 -0.056049805 -0.22213295 0.032343242 -0.2075481
-0.24789476 0.16281399 0.10975993 -0.067110024 -0.037672043 0.053870417 0.037321884 0.2450694
-0.2744348 -0.09158427 0.008771234 -0.20662712 -0.1033413 -0.017178582 0.014737292 0.3931509

bias f4 [64]
00000000: c67f 1ebc fedb adbc fbd4 26bc 31e6 c4bc
00000010: 56e5 43ba a027 abbb 42ff a53b 9e84 33bc
00000020: ca35 60bb 8824 433a 18a7 2cbc 3743 2d3b
00000030: dfe6 40bc b125 59bc c367 c1bc 5029 cdbc
00000040: d599 30bc 3d22 85bb db55 40bc 2e1a 8dbc
00000050: 2af0 7dbc da6a 00ba 7d86 d8bb ce53 a1bc
00000060: 4c78 23bd fa9f edba a8d0 4a3c d937 b6bc
00000070: 6832 b7bc e2ca f0bb 125b 82bc 4ccb 7dbc
00000080: 0d3a fabb 0279 87bd b149 d93b adea 9cb7
00000090: 6eac 583c df66 f2bb 8b96 00bd cd90 3eba
000000a0: 089e 123c e9ec c5bb 1bbe e0bc 862a 56bc
000000b0: e688 4c3a d1cf 48bb 8a85 5dbc af2e e6bc
000000c0: 5170 983c 7ada a1bc feea f2bc c34f 7bbc
000000d0: 1c52 4abd 4562 06bd 2a3f bebc 9341 c8bc
000000e0: edee 2dbc 4431 273b a95a 93bc 8cff 24bc
000000f0: 40fb ea39 86fb bcbb d6a3 08bb dfa9 42bb
-0.009674018 -0.021223065 -0.010182614 -0.024035545 -0.00074728334 -0.0052232295 0.0050658295 -0.010956911
-0.0034211748 0.0007444103 -0.010537885 0.0026437768 -0.011773794 -0.013253615 -0.023609048 -0.025044113
-0.010778864 -0.0040629194 -0.01173922 -0.017224398 -0.015499154 -0.00048987346 -0.006607829 -0.019693282
-0.039909646 -0.0018129342 0.012378849 -0.022243427 -0.022362903 -0.0073484043 -0.015912566 -0.015490364
-0.0076363147 -0.06614877 0.006631099 -1.8705929e-05 0.013224704 -0.007397517 -0.03139357 -0.0007269502
0.00894881 -0.006040205 -0.0274344 -0.013071662 0.0007802382 -0.0030641446 -0.013520608 -0.028098432
0.018608244 -0.019757498 -0.029653069 -0.015338841 -0.04939471 -0.03280856 -0.023223478 -0.02444533
-0.010616046 0.0025511542 -0.017987566 -0.010070693 0.00044819154 -0.0057672886 -0.0020849607 -0.0029703302

weight f4 [1, 64]
00000000: 33c6 5b3d 749f 3e3c 56d6 caba b2af 4bba
00000010: 26b4 72be e786 a9be c044 6f3d f6dd d5bb
00000020: 8f78 563a 1000 4c3d 79a3 f8bb d61d 593d
00000030: e33e 01be 3582 be3c 32ab d5bd 9254 8bbd
00000040: 8b25 cd3d 1a95 393b 3bf1 c93c 56b3 a8bb
00000050: cb1e 0c3e 921d b1bc bde0 babc 56a4 ccbb
00000060: 0190 e9bc dbcb 0e3d 13e8 0bbd 4e4d 7abc
00000070: c41b 39bb a547 ff3c d236 923b f6d7 12b9
00000080: fe78 2f3d 04f8 cebe beb8 c03c 7082 77bc
00000090: 1f2a 33be 0b40 02bd 3beb f63d 2df8 e0bb
000000a0: 612a 55bc 1c92 6e3a d5bc a23e 7b3b 5f3b
000000b0: 0e15 6fbd 1fe2 613c 3d7c f4bc 68cd 62b9
000000c0: 544f 09bc 5d72 fcba 7311 393e b708 8a3d
000000d0: f66d 3f3e 7c8a 423d cb8a f23c 685a 8cbe
000000e0: 8fea bcba 92c5 dd3a f884 9c39 7a96 f139
000000f0: 87e2 dd3c 0d57 31bd a88e 2e3a ae0e 0fbb
0.053655814 0.011634696 -0.0015475254 -0.0007770016 -0.23701534 -0.33110735 0.058415174 -0.006526704
0.0008181417 0.049804747 -0.007587847 0.05300697 -0.12621646 0.023255447 -0.104330435 -0.0680324
0.100169264 0.0028317631 0.02465116 -0.0051483316 0.13683622 -0.021620546 -0.022812242 -0.0062451763
-0.02851105 0.03486238 -0.03415687 -0.01527722 -0.002824531 0.031162092 0.0044621015 -0.00014004097
0.042839997 -0.40423596 0.023525592 -0.015106782 -0.17496537 -0.031799357 0.120565854 -0.0068655224
-0.013010592 0.00091007515 0.31784692 0.0034062553 -0.05836969 0.013786822 -0.029844398 -0.0002162956
-0.00838073 -0.0019260157 0.18073063 0.067399435 0.1869429 0.04749535 0.029607197 -0.27412724
-0.0014413166 0.0016919842 0.00029853708 0.00046079216 0.027085556 -0.04329591 0.00066588307 -0.0021828818

weight f4 [5, 64]
00000000: bbe0 873c 24ef dd39 5dfe 9abb 5280 aa3b
00000010: 2593 62bc 4b60 803a dcd7 50b9 c049 ffba
00000020: 4dbf 813a 537e a5ba dc9e 0f3b fcda 793b
00000030: a1ed 1a3c d26b 313b 8282 15bc 2039 6c3a
00000040: ccb6 cd3a 1157 a53b e574 bcb9 c807 2bbc
00000050: 5efd ddba 0de0 42bc 95c2 baba c68b 9fbb
00000060: 3510 feba ca53 653c 0ca2 5e3a d488 293b
00000070: d4d8 033a 8da1 3b3b 9243 a0ba 8f26 3abc
00000080: 2d49 063c d1b1 133c 32a1 3b3a d105 63bb
00000090: 9708 153a 347e c03b 8ce3 4aba 3a32 9b3b
000000a0: 8a78 1cbc 26e9 303c da43 8d3c 5a37 f33b
000000b0: c941 943a a292 91bc fb98 7dbc 959f 933b
000000c0: beea 733b 10ff 3d3c 221c ceba 09fe 253c
000000d0: 924f fb3b 8eec 163c 4eb1 813b 5a15 01bc
000000e0: af73 4c3b cb7c 50ba da2d 223c 773d c8ba
000000f0: 929d a8ba 8074 eaba c69b 1e3c d378 123c
00000100: e8ee f03a 3e75 20ba 241c 83ba 9761 473b
00000110: 88de 103c 67ff ffba d9cc 0d3c 9057 60bb
00000120: 3b7e 283b 9046 dbba 1724 4abb eb8c b13c
00000130: 19d8 753c 52fe 2b3c 095a ed3b e632 0c3c
00000140: ba36 4cba f322 23bb bc75 f838 5a0d 3e3a
00000150: 733a c5bc 3c42 9ebb 7142 9e3a 7b1f 61ba
00000160: 8a9b 0e3c 325e 44bb 6c16 123c efeb 84b8
00000170: 2ad3 febb d263 21b9 d866 2e3c a87f ef39
00000180: d609 50bb 8130 333c ea9b d1b8 51f1 aaba
00000190: ef44 4cbb c7f0 78bb 046d 39b9 6939 41bc
000001a0: 48f6 a13b b20f 7bbb badb c6bb a095 60bc
000001b0: 78c1 25bb 3c42 733b a456 33bb abad 10ba
000001c0: 2d86 65b9 d928 5dbb 8cfd 52bb 5ebd 98ba
000001d0: d63d 303c 001c 123b f19d 3dbb 2079 2f3c
000001e0: 1cc7 153b 15f5 7ebb d6cd ab3a 04ae 623b
000001f0: e991 f8ba d35c 263c 4d9c 52bc 34d7 e7bb
00000200: d1c8 78bc 0657 f6b9 948c 7b3b c1ab 593b
00000210: e506 073b ab28 abba fe64 adba 16be 313c
00000220: 10b6 2abc b9bf bf3a ed64 03bc 8999 cdbb
00000230: af08 3e3c 1be9 0fbb 981c 70bb d87e 0ebc
00000240: 9c03 3b3b 128f 3d3c b3d5 613a b758 07bc
00000250: 6e17 323c d506 fb3b 1a25 a63b 0067 51bc
00000260: 9ac5 dfbb 45cb c2bb 0066 9c3b 5e23 a539
00000270: 05c5 09bb 91c0 12bc 4716 243b 92f8 90bb
00000280: b80a 07bc c21c e6bb ecee 5fba da6e 083c
00000290: 19e8 4a3c 1459 a6ba 2c14 c7b9 72c2 1c3c
000002a0: b73c e03a 9518 0a3c 4206 bcbc 2344 ac38
000002b0: 7d3a 733b e0ee 56bb 4ad6 303c bc22 fa3b
000002c0: 69ff 903b d181 ba3b 6bf8 19ba 8c5b 0b3c
000002d0: c42a 4fbc 58e7 093c 7b95 1ebc 5193 c53b
000002e0: 2c01 4c3a 2155 713c c9b8 133c ee62 0d3b
000002f0: 9475 6338 1b10 30bc 352c 393b c06a ac3b
00000300: 774b 203c ce23 e4b9 f8fa 69bb 6488 ce3a
00000310: f70c 51bb 775b 8bb9 e832 50ba 72e8 9cba
00000320: 8695 373b 1f2c 7b37 4e60 82bb 4b83 5f3c
00000330: d363 80bc ecfa 66bc 71ac a0bb e912 febb
00000340: ed67 a537 302a c0ba 8e91 94ba da48 a63b
00000350: 6b41 713b 3fd5 b3ba edac afbb 9812 fe3a
00000360: 2128 923b c5b6 0d3c 6ee9 533c ccfd 49bb
00000370: 4e32 873b 317a f93b 04d1 a13a e859 243c
00000380: 3b0c ed3b 57ec 9b3a 3dec 5d3a 00a5 b83b
00000390: 5c5c cb3b 9f55 df3b e324 a539 2356 86ba
000003a0: a97c 033b 79e4 f13a bb29 673c 5448 31bb
000003b0: 7d31 2dba e7c0 303c 140a db3b 95ed 183c
000003c0: 6c70 08bc 688b 503a b1a8 4c3b 8c66 84ba
000003d0: 8d89 043c e185 763b 92a6 a53a cf82 7abb
000003e0: e03a c436 2c7d 5a3b 0b8e 87bb efc0 66ba
000003f0: 155e bf3a 044f 253b 7ae1 d03b 4aa1 3fbc
0.016586652 0.00042330578 -0.0047300295 0.0052032853 -0.013829027 0.0009794323 -0.0001991684 -0.0019476935
0.0009898931 -0.0012626149 0.0021914756 0.003812491 0.009456069 0.0027072323 -0.009125354 0.0009011198
0.0015694737 0.0050457795 -0.00035945248 -0.010438867 -0.0016936471 -0.011894238 -0.0014248664 -0.004868957
-0.0019383492 0.013997028 0.0008492775 0.002586891 0.00050295633 0.0028630227 -0.0012227169 -0.011361732
0.008196157 0.009014563 0.0007157504 -0.0034640918 0.0005685179 0.0058744196 -0.00077395956 0.004736212
-0.009550223 0.010797774 0.017244268 0.00742237 0.0011311109 -0.017770115 -0.015478368 0.0045051076
0.0037218775 0.011596456 -0.0015724937 0.0101313675 0.0076693976 0.0092116725 0.003957904 -0.007878626
0.0031196882 -0.0007953166 0.009898627 -0.0015277107 -0.0012864342 -0.0017887503 0.009680694 0.00893994
0.0018381746 -0.0006120986 -0.0010002893 0.0030423158 0.008842118 -0.0019531072 0.0086547965 -0.0034231879
0.0025710005 -0.0016729403 -0.0030844265 0.02167364 0.015005135 0.010497646 0.007243399 0.008557057
-0.00077901373 -0.0024892658 0.00011847491 0.00072499143 -0.024075722 -0.004829673 0.0012074244 -0.000858776
0.008704076 -0.0029963371 0.008916479 -6.3381965e-05 -0.0077766376 -0.00015391342 0.010644637 0.00045680744
-0.0031744144 0.010936857 -9.994938e-05 -0.0013041889 -0.0031169017 -0.0037985311 -0.00017683586 -0.011793473
0.004942689 -0.0038308916 -0.006068674 -0.013707548 -0.0025292318 0.0037118336 -0.0027364874 -0.00055190426
-0.00021889126 -0.003374627 -0.0032194583 -0.0011653116 0.01075693 0.0022294521 -0.0028933252 0.010710031
0.0022854274 -0.0038903404 0.0013107609 0.0034588585 -0.0018964383 0.010153967 -0.012854648 -0.0070752148
-0.015184597 -0.00046985614 0.0038383352 0.0033213946 0.0020603475 -0.0013058385 -0.001322895 0.010848543
-0.010419384 0.0014629281 -0.008019668 -0.0062744063 0.01159875 -0.002195901 -0.0036638137 -0.008697234
0.0028536087 0.011569755 0.00086149125 -0.008260897 0.010869844 0.0076607266 0.005070341 -0.012780905
-0.006828976 -0.005944642 0.0047729015 0.00031497603 -0.0021021974 -0.008957044 0.0025037692 -0.004424163
-0.008242302 -0.007022471 -0.0008542377 0.00832721 0.012384438 -0.0012691342 -0.00037971267 0.009567844
0.0017107938 0.008428712 -0.022952203 8.2142906e-05 0.003711372 -0.003279619 0.010793278 0.007633535
0.0044249785 0.005691745 -0.0005873504 0.008505713 -0.012644473 0.008416973 -0.009679194 0.0060295244
0.0007782157 0.014729769 0.009016224 0.002157386 5.423052e-05 -0.010746027 0.002825511 0.005261749
0.009783617 -0.00043514225 -0.0035702568 0.00157572 -0.0031898597 -0.00026580293 -0.0007942156 -0.001197113
0.0028012707 1.4971039e-05 -0.0039787656 0.0136421425 -0.0156726 -0.01409791 -0.004903369 -0.007753719
1.9717927e-05 -0.001466101 -0.0011334883 0.0050746026 0.0036812674 -0.0013720168 -0.0053611905 0.0019384203
0.00446035 0.008649533 0.012934072 -0.003082144 0.00412587 0.0076134433 0.0012345617 0.010031201
0.007234124 0.0011895996 0.0008465683 0.005634904 0.0062060785 0.0068156268 0.00031498735 -0.0010249059
0.0020063317 0.0018454931 0.01410907 -0.0027051168 -0.00066068006 0.010788179 0.006684551 0.009333988
-0.008327585 0.00079553435 0.0031228478 -0.0010101362 0.008089435 0.003761642 0.0012638143 -0.003822494
5.848109e-06 0.0033338768 -0.004136806 -0.0008802553 0.0014600182 0.00252241 0.006374535 -0.011696169

bias f4 [5]
00000000: abc2 41ba 7b6d 703b 09bb ac3a 0207 bd3a
00000010: bf78 7e3b
-0.00073913735 0.003668635 0.0013178299 0.0014421644 0.0038829294
