model/tiny-2ag/A2C/model_agent1_seed5.pt (torch, 101825 bytes, 11 tensors)

weight f4 [64, 119]
-0.059413675 0.18434612 0.09191082 -0.19084916 -0.10801744 0.08816485 -0.17105414 -0.17288634
0.057785343 -0.09762883 0.021839358 0.104413986 0.06794194 -0.16299129 0.08475615 0.13100317
-0.1844684 0.16255687 0.04081795 -0.18762445 -0.13087952 0.03047277 0.27956793 0.057261165
-0.09749913 -0.20310289 0.1565299 0.08629164 -0.20799884 -0.22217534 -0.030062655 -0.045054823
0.008405747 -0.13018805 0.005679839 0.048833594 0.18475968 0.010102552 -0.019418541 -0.16074654
-0.21889931 0.117104314 -0.013834139 0.07145895 0.24613528 -0.027999572 -0.065597475 -0.114682436
-0.012740612 -0.14590919 -0.045820314 0.054148816 -0.12156388 -0.19113906 -0.062562495 0.16720587
-0.032241754 -0.018123256 -0.23900363 0.004035946 0.20867373 0.009963272 0.07287206 -0.1809947
0.03355605 0.017653622 -0.08167227 0.042057615 0.02530755 0.07691633 -0.10431837 2.8165987e-06
-0.13634305 0.13395077 0.09811858 -0.09874702 -0.04042961 -0.017868165 -0.1350903 -0.18444447
-0.14934109 -0.010306735 0.047518805 -0.1372833 -0.07148211 -0.12616949 -0.22263294 0.13518244
-0.25012317 0.15366782 0.0787045 0.048045594 0.051909268 -0.27348745 -0.14933613 0.11546577
-0.00089090783 -0.2802111 -0.01635966 -0.17102827 0.06713619 0.18878062 -0.092941746 0.007666944
-0.17061056 -0.101774365 -0.12932394 -0.10719246 -0.09382943 0.12849759 -0.041675754 0.11810523
-0.15360627 -0.26682648 0.005226479 -0.20821993 0.0039621117 -0.05606146 -0.099848166 -0.005312645
-0.09626693 0.00032823038 0.11796941 0.026831198 0.25771782 0.082705386 -0.07255156 0.12313262
-0.01432251 0.01823665 -0.11624356 -0.118454665 0.058284488 -0.16347098 -0.08550413 -0.023239588
-0.0005875451 -0.10727398 0.08175306 -0.12088994 0.19610997 0.10129338 0.06732613 0.07414819
0.14324248 0.07951167 -0.07107857 0.1323402 -0.14378396 0.24062446 0.07848686 0.016834073
0.09133385 0.14290045 -0.009557914 -0.060834322 0.116278395 -0.10138414 0.32958075 -0.16151358
-0.14208642 -0.38040486 0.023238396 0.083466955 -0.18601258 0.06457486 -0.12975572 0.0069162576
0.020119315 0.2603941 -0.15148512 -0.14880016 -0.03801663 0.016722646 -0.009198101 -0.09574852
0.019936115 0.14103724 0.086247325 -0.014350726 -0.18894082 -0.024924384 -0.115407094 -0.07365943
0.069318876 -0.109041 -0.1349068 -0.10550418 0.098428376 0.029316422 0.22733533 0.23650852
-0.10250234 -0.14748019 -0.2079453 -0.031130094 -0.14435804 -0.005891849 -0.10232594 -0.29371196
0.09257448 -0.036922175 -0.25705394 0.17064698 -0.06466949 -0.006259617 -0.030473977 -0.038149033
-0.039523248 -0.013937961 -0.030081782 -0.19069107 -0.1327327 -0.14161927 0.06293038 0.03953804
-0.16263251 0.014875554 0.066703625 0.026289802 0.24956477 0.01518388 0.09506633 -0.19523838
0.20514637 0.078108184 0.25487375 -0.014637284 -0.04871731 -0.10142052 -0.14776833 0.13365506
0.07304322 -0.16442887 0.041193437 0.061020933 0.24563846 -0.08083756 0.103628576 -0.05263121
-0.06096205 -0.010611389 0.051908277 0.049405146 0.01300322 -0.14469638 -0.046711158 -0.162215
0.049208313 0.17222372 -0.079364926 0.1039353 0.13114932 0.33600986 0.06567992 -0.07629241
00000000: c15b 73bd 3bc5 3c3e bd3b bc3d f66d 43be
00000010: 3f38 ddbd c68f b43d d128 2fbe 1e09 31be
00000020: 53b0 6c3d a0f1 c7bd 74e8 b23c 00d7 d53d
00000030: 2525 8b3d 30e7 26be a294 ad3d b225 063e
00000040: 49e5 3cbe 4f75 263e b930 273d a020 40be
00000050: 4805 06be 08a2 f93c 8723 8f3e af8a 6a3d
00000060: a0ad c7bd 34fa 4fbe 6049 203e acb9 b03d
00000070: a6fd 54be ef81 63be f545 f6bc 688b 38bd
00000080: 42b8 093c 0450 05be f11d ba3b bc05 483d
00000090: a431 3d3e 2d85 253c a213 9fbc be9a 24be
000000a0: 2427 60be 63d4 ef3d 96a8 62bc 1259 923d
000000b0: e30a 7c3e 5c5f e5bc f857 86bd a0de eabd
000000c0: 00be 50bc 3869 15be 15ae 3bbd 26cb 5d3d
000000d0: 7cf6 f8bd f5b9 43be c420 80bd 0438 2b3e
000000e0: ee0f 04bd 3977 94bc 5ebd 74be f83f 843b
000000f0: 91ae 553e fe3c 233c f23d 953d ad56 39be
00000100: 1272 093d 549e 903c cb43 a7bd 9b44 2c3d
00000110: c751 cf3c 4f86 9d3d dfa4 d5bd cc04 3d36
00000120: 839d 0bbe 642a 093e 65f2 c83d e13b cabd
00000130: 8599 25bd 4260 92bc 1d55 0abe 03df 3cbe
00000140: dfec 18be 94dd 28bc 14a3 423d fe93 0cbe
00000150: 3665 92bd 9332 01be e4f9 63be 446d 0a3e
00000160: 2510 80be 195b 1d3e d32f a13d 75cb 443d
00000170: d09e 543d 8c06 8cbe 92eb 18be 5179 ec3d
00000180: d08b 69ba d477 8fbe b204 86bc 0922 2fbe
00000190: b37e 893d b54f 413e 3e58 bebd fd3a fb3b
000001a0: 89b4 2ebe 146f d0bd 7f6d 04be b887 dbbd
000001b0: a529 c0bd df94 033e 32b4 2abd 28e1 f13d
000001c0: f64a 1dbe 7b9d 88be e242 ab3b 9b37 55be
000001d0: 9ad4 813b b4a0 65bd 327d ccbd b215 aebb
000001e0: 9927 c5bd 5616 ac39 f299 f13d 1acd db3c
000001f0: 97f3 833e 7161 a93d ea95 94bd f42c fc3d
00000200: f6a8 6abc 0765 953c 1b11 eebd 5c98 f2bd
00000210: b7bb 6e3d f064 27be ca1c afbd f360 bebc
00000220: 7c05 1aba 76b2 dbbd 266e a73d 2595 f7bd
00000230: 0dd1 483e e772 cf3d 48e2 893d 02db 973d
00000240: 28ae 123e 04d7 a23d a491 91bd 3084 073e
00000250: 1a3c 13be 4266 763e b8bd a03d 9ce7 893c
00000260: 3e0d bb3d 7f54 123e cc98 1cbc 692d 79bd
00000270: 5e23 ee3d 7da2 cfbd cfbe a83e d163 25be
00000280: 1a7f 11be 6dc4 c2be 735e be3c b9f0 aa3d
00000290: 157a 3ebe d33f 843d afde 04be c6a1 e23b
000002a0: 43d1 a43c 6052 853e ea1e 1bbe 125f 18be
000002b0: 53b7 1bbd eefd 883c a2b3 16bc cd17 c4bd
000002c0: 1051 a33c 116c 103e 70a2 b03d 4f1f 6bbc
000002d0: b479 41be 392e ccbc 8e5a ecbd c1da 96bd
000002e0: 0ef7 8d3d e350 dfbd 0225 0abe 9312 d8bd
000002f0: d194 c93d fe28 f03c 98ca 683e 4a2f 723e
00000300: bfec d1bd 0c05 17be 9def 54be 8a04 ffbc
00000310: 98d2 13be 6910 c1bb 4390 d1bd 6a61 96be
00000320: b097 bd3d b53b 17bd 939c 83be 15be 2e3e
00000330: 7071 84bd 791d cdbb 90a4 f9bc 2942 1cbd
00000340: 21e3 21bd 0c5c 64bc 126e f6bc 8544 43be
00000350: 15eb 07be a404 11be a5e1 803d a4f2 213d
00000360: 2389 26be 98b8 733c e99b 883d b65d d73c
00000370: e88d 7f3e cfc5 783c 23b2 c23d 92ec 47be
00000380: e411 523e 2ff7 9f3d d07e 823e 38d1 6fbc
00000390: cd8b 47bd 90b5 cfbd 9550 17be dfdc 083e
000003a0: af97 953d 0b60 28be 73ba 283d 16f1 793d
000003b0: a688 7b3e 2a8e a5bd 383b d43d d393 57bd
000003c0: 58b3 79bd 64db 2dbc c69d 543d 0d5d 4a3d
000003d0: 750b 553c 4a2b 14be 3354 3fbd b01b 26be
000003e0: a88e 493d 6a5b 303e 148a a2bd 08dc d43d
000003f0: 024c 063e 7c09 ac3e 3283 863d 323f 9cbd

bias f4 [64]
-0.005958768 0.0008607796 -0.010841442 -0.0039760447 -0.0040842164 -0.004857563 0.00010663253 -0.0067261653
-0.0026188265 -0.00013798958 -0.008413739 -0.01673264 -0.002493642 -0.002760562 0.0009156161 0.0019496393
-0.00015587223 -0.012605663 0.0027186905 0.009424371 -0.0220062 -0.007326995 -0.0005229162 0.0005569227
-0.006753489 -0.0053727473 0.004169955 0.0 -0.016366638 -0.007542832 0.00068156485 -0.0132190455
-0.0047397274 -0.008024932 -0.015941327 0.00034810675 -8.4811894e-05 -0.0027322895 -0.0030429757 -0.005585553
-0.0030655353 -0.0001957259 -0.001176231 -0.008020875 0.0023212356 -0.0057178894 -0.010564827 -0.0055859247
-0.02481939 -0.0005171831 0.00011523268 0.00014605229 -0.004824441 0.00045094214 -0.027649017 -0.0029134222
7.712543e-05 0.0012288685 -0.011483356 -0.0002542737 3.5223162e-05 -0.0041546794 0.0003945131 -0.00092466135
00000000: c541 c3bb f1a5 613a 4ea0 31bc 7b49 82bb
00000010: e4d4 85bb 312c 9fbb e79f df38 2a67 dcbb
00000020: 9ea0 2bbb 4cb1 10b9 c7d9 09bc e412 89bc
00000030: 5f6c 23bb 8cea 34bb f505 703a 0a8b ff3a
00000040: a271 23b9 fc87 4ebc 0f2c 323b ad68 1a3c
00000050: 5946 b4bc 4a17 f0bb 5014 09ba 73fe 113a
00000060: 5f4c ddbb df0d b0bb 1ea4 883b 0000 0000
00000070: 5413 86bc dc29 f7bb 0bab 323a b294 58bc
00000080: b74f 9bbb 017b 03bc 6397 82bc 1982 b639
00000090: 0add b1b8 3610 33bb a96c 47bb 0407 b7bb
000000a0: 26e7 48bb c53b 4db9 c32b 9aba fd69 03bc
000000b0: df1f 183b 225d bbbb 1918 2dbc 220a b7bb
000000c0: 0952 cbbc 9293 07ba 13a9 f138 9d25 1939
000000d0: 5816 9ebb 6e6c ec39 3180 e2bc 1def 3ebb
000000e0: 66be a138 fc11 a13a b024 3cbc 0a50 85b9
000000f0: 95bc 1338 fa23 88bb a7d6 ce39 f964 72ba

weight f4 [64, 64]
-0.122082345 0.028629297 0.25945428 0.09586498 -0.10414982 0.09130687 -0.005262244 -0.24125706
-0.2282581 0.050620254 -0.09303627 -0.07763266 0.086893864 0.14441839 0.112537794 -0.09178701
0.22268292 0.08420239 -0.14934543 -0.4657787 0.07829187 -0.11906556 -0.10414009 -0.080709964
0.04678696 0.0867121 0.39764306 0.20406236 -0.20897152 0.2066644 0.02424463 0.14294001
-0.14476559 0.05168902 -0.3154222 -0.1342775 -0.10053127 -0.36295947 -0.05641609 0.2691188
-0.09901831 -0.2245797 -0.2799164 -0.019364957 0.3004342 0.06705854 0.16575815 0.058882833
0.28929794 -0.19627975 0.0144590875 -0.17242056 -0.02471789 -0.18990365 0.049710732 0.057741426
0.049394567 -0.011651785 -0.30463427 -0.18226443 -0.13392295 0.17128165 0.18382585 -0.18132415
-0.08332904 0.03576004 0.18783349 0.1906805 -0.17062598 0.19082388 -0.06942484 -0.5025964
0.11807634 -0.30276138 -0.06969269 -0.114694946 0.031818423 -0.21058647 -0.16741472 -0.09688395
0.17605498 -0.07987483 -0.16460739 -0.20121667 -0.1961573 -0.07970674 0.34569976 0.07281451
-0.08728791 0.042732075 0.018038915 -0.1196449 -0.11096861 -0.1577538 -0.019297503 -0.15175527
-0.16253452 -0.14476822 0.4218669 -0.032957368 0.09047571 -0.17802511 0.28722402 -0.123040676
-0.010389926 -0.15157565 0.21757154 0.07086631 0.01288299 0.15996306 0.033430025 0.22027105
-0.124126256 0.18102458 -0.30534396 0.26589426 -0.26666003 0.0665134 -0.12187447 -0.041020717
-0.03513851 -0.0043233093 0.15238725 0.17408057 -0.13244744 0.35619563 -0.025377266 -0.11273837
0.015574377 0.159508 -0.09736821 -0.09786584 0.0012301991 -0.03249727 -0.013811395 0.110932894
0.21065919 -0.0467127 -0.20951581 -0.047294416 0.03127338 -0.19074221 -0.2526407 0.050572414
0.054405574 -0.0071073556 0.31141636 -0.13967687 0.31610316 -0.2142383 -0.075916216 -0.23112589
-0.20716976 0.20938198 -0.14137295 -0.01072232 -0.0735517 -0.13441321 -0.023745732 -0.013511581
-0.0485975 -0.16866352 0.16321394 0.080444075 -0.020594433 0.013292248 0.029659586 0.36679608
0.16261607 -0.04086829 0.2578004 -0.2997041 0.17465773 0.49784827 0.10532292 -0.04871729
0.24735959 -0.07211862 -0.16208726 0.064520225 0.16956364 -0.13198315 -0.12538908 -0.18772033
-0.119463235 0.3156286 -0.05022809 -0.40947652 0.13573943 -0.08333339 -0.15121639 0.27262485
0.08728463 -0.046161737 -0.19338185 -0.08753107 -0.11386696 -0.4414464 0.0072494675 -0.14878502
-0.065253936 0.084588766 -0.2776124 0.004573071 -0.023167092 0.13590066 -0.03724276 0.04977886
0.051809374 -0.34008747 -0.07659607 -0.06972022 -0.03589344 0.13016038 -0.15124922 0.33760262
0.19612554 0.07909792 -0.029535865 -0.18751441 0.16305804 -0.020280534 -0.005872918 0.16151606
-0.04082596 -0.14323537 -0.05123503 -0.18202369 -0.10316612 -0.082391396 0.1248768 -0.0457213
0.007303377 0.13615155 -0.032461435 -0.2992665 -0.09437434 0.022258803 0.10696214 0.31808478
0.0012109176 -0.07491067 0.15793593 0.22846197 0.11961963 -0.35591093 0.087144054 0.15282215
-0.37107113 0.3789903 0.16755891 0.18225388 -0.48104176 -0.100593045 0.13828012 0.054520704
00000000: 4f06 fabd fd87 ea3c 31d7 843e dc54 c43d
00000010: 804c d5bd 19ff ba3d e76e acbb 170c 77be
00000020: 7ebc 69be 2f57 4f3d cd89 bebd dffd 9ebd
00000030: 69f5 b13d 6ae2 133e 377a e63d d4fa bbbd
00000040: fe06 643e 4d72 ac3d 02ee 18be 8c7a eebe
00000050: 7d57 a03d a5d8 f3bd 6647 d5bd 444b a5bd
00000060: afa3 3f3d 1d96 b13d df97 cb3e b9f5 503e
00000070: a1fc 55be d59f 533e ad9c c63c de5e 123e
00000080: 6e3d 14be deb7 533d 057f a1be 0a80 09be
00000090: 57e3 cdbd d3d5 b9be 8f14 67bd f0c9 893e
000000a0: 1dca cabd 39f8 65be 3451 8fbe 42a3 9ebc
000000b0: 83d2 993e fd55 893d 81bc 293e 202f 713d
000000c0: dc1e 943e 8ffd 48be cfe5 6c3c 048f 30be
000000d0: 2c7d cabc 1a76 42be 7b9d 4b3d 4682 6c3d
000000e0: f551 4a3d 21e7 3ebc 06f9 9bbe 87a3 3abe
000000f0: 1923 09be 7564 2f3e d83c 3c3e 0aad 39be
00000100: 6aa8 aabd 1f79 123d 6c57 403e c041 433e
00000110: 94b8 2ebe 5667 433e 9c2e 8ebd 28aa 00bf
00000120: 02d2 f13d 8a03 9bbe 0bbb 8ebd 2fe5 eabd
00000130: 0954 023d fba3 57be c46e 2bbe 186b c6bd
00000140: c247 343e 6a95 a3bd d78e 28be be0b 4ebe
00000150: 76dd 48be 4a3d a3bd 8fff b03e c61f 953d
00000160: 01c4 b2bd d407 2f3d 59c6 933c 6308 f5bd
00000170: 8343 e3bd 368a 21be cc15 9ebc bc65 1bbe
00000180: 736f 26be 1f3e 14be f0fe d73e 4efe 06bd
00000190: 544b b93d 374c 36be 070f 933e c0fc fbbd
000001a0: 823a 2abc a636 1bbe 13cb 5e3e 5b22 913d
000001b0: 2d13 533c 5bcd 233e eced 083d bc8e 613e
000001c0: e835 febd 825e 393e 0b56 9cbe 4b23 883e
000001d0: aa87 88be 2d38 883d 5299 f9bd 5705 28bd
000001e0: 66ed 0fbd 8caa 8dbb 670b 1c3e 2d42 323e
000001f0: 4da0 07be 465f b63e fce3 cfbc 60e3 e6bd
00000200: ac2b 7f3c 1156 233e fc68 c7bd e36d c8bd
00000210: a23e a13a db1b 05bd 3049 62bc c930 e33d
00000220: 0bb7 573e d155 3fbd 508b 56be cab7 41bd
00000230: 8418 003d ed51 43be 1f5a 81be 0525 4f3d
00000240: 61d8 5e3d d2e4 e8bb f771 9f3e 7407 0fbe
00000250: 46d8 a13e 4961 5bbe f679 9bbd 44ac 6cbe
00000260: 4f24 54be 3b68 563e 12c4 10be abac 2fbc
00000270: 46a2 96bd 9ea3 09be 6986 c2bc ae5f 5dbc
00000280: 2c0e 47bd 21b6 2cbe 8e21 273e ddbf a43d
00000290: a8b5 a8bc bbc7 593c a9f8 f23c b2cc bb3e
000002a0: d484 263e 8265 27bd 6afe 833e d172 99be
000002b0: 7ad9 323e f8e5 fe3e 8bb3 d73d c88b 47bd
000002c0: d54b 7d3e edb2 93bd 34fa 25be 2e23 843d
000002d0: 17a2 2d3e 9726 07be ff65 00be c239 40be
000002e0: 24a9 f4bd 129a a13e f8bb 4dbd e8a6 d1be
000002f0: 47ff 0a3e b2aa aabd 78d8 1abe 7c95 8b3e
00000300: 49c2 b23d 1714 3dbd e405 46be 7d43 b3bd
00000310: 1533 e9bd 4305 e2be f18c ed3b 1a5b 18be
00000320: dba3 85bd e03c ad3d 3623 8ebe b3d9 953b
00000330: eac8 bdbc 8b29 0b3e dd8b 18bd ebe4 4b3d
00000340: 1136 543d f21f aebe 66de 9cbd 7ac9 8ebd
00000350: 0005 13bd c348 053e 13e1 1abe 40da ac3e
00000360: 22d5 483e 17fe a13d 33f5 f1bc c703 40be
00000370: b0f8 263e 5d23 a6bc 9b71 c0bb 7764 253e
00000380: 1f39 27bd 4bac 12be d3db 51bd 6b64 3abe
00000390: c248 d3bd d2bc a8bd 68bf ff3d 4246 3bbd
000003a0: 2b51 ef3b 506b 0b3e 48f6 04bd 7539 99be
000003b0: 5547 c1bd 1858 b63c f70e db3d 02dc a23e
000003c0: a7b7 9e3a c46a 99bd f5b9 213e eff1 693e
000003d0: 23fb f43d f539 b6be 9578 b23d 697d 1c3e
000003e0: 09fd bdbe 040b c23e 9094 2b3e c3a0 3a3e
000003f0: 1b4b f6be ba03 cebd 4e99 0d3e 1a51 5f3d

bias f4 [64]
-0.0033255033 -9.884439e-06 -0.010738037 -0.003549149 -0.012205181 -0.008467701 -0.014735846 -0.015193621
-0.009383436 -0.0015554895 -0.00053198007 -0.002665026 -0.018774195 -0.0015310994 -8.759418e-06 -0.000473989
-0.0039598825 -0.007638694 -0.0052742106 0.00044418717 -0.012091978 -0.003426356 -0.0020262564 -0.0047313306
1.633762e-05 -0.008450259 -0.0112817045 -0.0046718954 -0.01575408 -0.008890445 -0.00031856567 -7.867827e-05
-8.589837e-06 -0.018287273 -0.003603398 -0.013875591 -0.013343681 -0.0023007318 -0.009563036 -0.010755349
-0.003610827 -0.012761595 -0.00018756375 -0.00262285 -0.005939203 -0.00042861176 0.0002798273 -0.00061403855
-0.008404002 -0.007056001 -0.015730018 2.3783234e-05 -0.013312412 -4.501472e-05 -0.007771617 -0.013063422
-0.015254033 -0.009827084 -0.0022506642 -0.018000528 -0.008916104 -0.011477994 -0.00020883972 -0.013053472
00000000: b0f0 59bb 58d5 25b7 97ee 2fbc d798 68bb
00000010: 3df8 47bc 1dbc 0abc 9e6e 71bc aaee 78bc
00000020: fcbc 19bc 91e1 cbba 9474 0bba b8a7 2ebb
00000030: 57cc 99bc 2caf c8ba 6af5 12b7 ba81 f8b9
00000040: e7c1 81bb 024e fabb 49d3 acbb cbe1 e839
00000050: 6f1d 46bc b78c 60bb f1ca 04bb 4709 9bbb
00000060: c60c 8937 f572 0abc e6d6 38bc b316 99bb
00000070: b30e 81bc 3ba9 11bc 2905 a7b9 1300 a5b8
00000080: 121d 10b7 31cf 95bc fd26 6cbb 7256 63bc
00000090: 749f 5abc e0c7 16bb 48ae 1cbc 3437 30bc
000000a0: a0a3 6cbb 0216 51bc c3ac 44b9 1fe4 2bbb
000000b0: a59d c2bb 4cb7 e0b9 c9b5 9239 6ef7 20ba
000000c0: f0b0 09bc 0736 e7bb 3ddc 80bc 1b82 c737
000000d0: 4e1c 5abc 30ce 3cb8 0ca9 febb f707 56bc
000000e0: 0dec 79bc c701 21bc e17f 13bb d875 93bc
000000f0: da14 12bc 320e 3cbc fcfb 5ab9 3bde 55bc

weight f4 [64, 119]
-0.0782246 0.03846725 -0.061146535 0.19154498 -0.0021847433 0.10795212 0.09631345 0.11270419
-0.13014732 0.3428755 -0.20249186 -0.17990956 -0.28049555 0.042098396 0.08409549 -0.0070673376
0.18846977 0.040042557 0.07234817 0.080534495 -0.17472765 0.106965415 -0.18375793 0.06468317
0.0842476 -0.2123599 -0.044993628 0.08295199 -0.14113213 -0.22123142 0.014569829 0.04839049
0.24364273 -0.030525269 0.09564276 -0.11176852 -0.28625557 0.21587859 0.081784144 0.036295287
-0.11465433 -0.1059741 0.022538416 -0.08925669 0.0924102 0.10737955 0.05482331 0.13287805
-0.0006188931 0.10436423 -0.21941957 -0.11261447 -0.1173365 0.049969584 0.087961145 0.23604825
0.055578362 -0.047217514 -0.19520949 -0.06007954 0.06281746 0.071111575 0.0086701 0.012717228
0.13545285 -0.29702073 0.060433477 0.14951 0.051864583 -0.1920236 0.049673453 -0.062384352
-0.054944273 -0.10504908 -0.06228233 0.009628428 0.13405944 -0.06558986 -0.027811317 0.085428804
-0.07347215 -0.025966754 0.19010355 0.08835794 -0.12797533 -0.034819853 -0.052994 0.09215434
-0.091347896 -0.0059125493 -0.023456091 0.022630017 -0.08706775 0.20038125 -0.21164897 -0.04538419
0.22570664 0.1672384 -0.11009861 -0.091338 0.09791115 -0.18357776 -0.06010606 0.0968331
0.296922 -0.004526073 0.16343176 -0.041278005 0.060744334 0.016444808 -0.22886457 -0.14813943
0.1808155 0.13638148 0.1507955 -0.08588184 0.056241017 0.025799366 -0.042479996 0.02176813
0.044571303 0.025774047 0.13690795 -0.113516584 0.010993778 0.124044 0.11712579 0.080872156
0.041817334 0.13978654 0.075840354 0.067957826 0.015389909 0.21491322 -0.15901007 -0.020272769
-0.10569737 -0.10532832 -0.20019238 0.07327144 0.12892027 -0.026255824 0.07350604 0.05624689
0.13618909 -0.15877149 0.041948065 -0.009126938 0.15814888 -0.07331051 -0.06772809 -0.15560894
-0.111547805 0.037146978 -0.18305431 -0.16361207 -0.043869086 0.03773077 -0.10373587 -0.1875811
0.0580481 0.07296776 -0.015571364 0.087698996 0.017045636 -0.13282178 0.012383756 -0.23533767
0.17749421 0.1665992 0.26972434 0.0108079715 0.075349905 -0.11488394 0.14299493 -0.10436953
0.036258 -0.0031347529 0.13968621 -0.0404169 0.25880843 -0.022011954 0.013030448 0.07237099
-0.05978004 -0.16261296 -0.033722263 0.00765791 -0.01832172 -0.06536544 -0.24538092 0.12516789
0.017028144 -0.1656957 0.011209373 0.09155562 -0.07123597 -0.024742277 -0.012066723 -0.17952012
-0.0032147893 -0.25057158 -0.09093712 -0.19942941 -0.008880204 -0.020771684 -0.2508823 -0.020444412
-0.18499826 0.09271777 -0.094249316 0.012995104 0.18752293 -0.023737468 -0.13467361 -0.11199179
0.13064016 -0.027574746 -0.201214 0.02162119 0.053434033 0.17387523 0.24046004 -0.079292916
0.14729173 -0.15108997 -0.031520195 -0.019341743 0.018774046 0.060665224 -0.32217386 -0.03777376
-0.28716925 0.019292358 -0.0012176671 0.0031303333 -0.03317199 -0.13392974 -0.060280778 -0.13562599
-0.020602027 0.29480773 -0.12899119 0.092597045 0.031067595 -0.036150094 0.22496618 -0.3561979
-0.068649665 -0.13638587 -0.060049124 -0.084784195 -0.16168357 -0.09627212 -0.10901625 -0.04926155
00000000: 3834 a0bd d68f 1d3d ca74 7abd 5e24 443e
00000010: e92d 0fbb 0016 dd3d fc3f c53d 74d1 e63d
00000020: 5745 05be 618d af3e 075a 4fbe 363a 38be
00000030: 1d9d 8fbe 5e6f 2c3d 423a ac3d 2095 e7bb
00000040: 38fe 403e aa03 243d 472b 943d 45ef a43d
00000050: ceeb 32be af10 db3d 0a2b 3cbe 9c78 843d
00000060: 018a ac3d e074 59be 3d4b 38bd bce2 a93d
00000070: f184 10be 7d8a 62be 4bb6 6e3c 1b35 463d
00000080: 7b7d 793e 2110 fabc 5ae0 c33d e5e6 e4bd
00000090: 1790 92be 470f 5d3e 727e a73d 5eaa 143d
000000a0: e4cf eabd f308 d9bd 7ca2 b83c 36cc b6bd
000000b0: 8f41 bd3d cfe9 db3d 688e 603d 2f11 083e
000000c0: 363d 22ba eabc d53d 86af 60be 6aa2 e6bd
000000d0: 1e4e f0bd e8ac 4c3d f924 b43d a2b6 713e
000000e0: 23a6 633d 2767 41bd ffe4 47be f715 76bd
000000f0: 71a6 803d f2a2 913d 090d 0e3c ec5b 503c
00000100: 27b4 0a3e 1a13 98be 1889 773d 2619 193e
00000110: f56f 543d d6a1 44be 6476 4b3d bc86 7fbd
00000120: 3f0d 61bd f923 d7bd c21b 7fbd 8ec0 1d3c
00000130: e146 093e fa53 86bd 8fd4 e3bc 4cf5 ae3d
00000140: 9178 96bd 3bb8 d4bc 81aa 423e 02f5 b43d
00000150: f70b 03be 439f 0ebd 3d10 59bd 6abb bc3d
00000160: 9b14 bbbd 0fbe c1bb fd26 c0bc 9662 b93c
00000170: 9450 b2bd be30 4d3e 82ba 58be c6e4 39bd
00000180: a41f 673e 8b40 2b3e 617b e1bd 6b0f bbbd
00000190: a485 c83d cffb 3bbe c631 76bd 6f50 c63d
000001a0: 2906 983e 744f 94bb a85a 273e 2013 29bd
000001b0: 0dcf 783d 43b7 863c 795b 6abe ddb1 17be
000001c0: b327 393e 96a7 0b3e 236a 1a3e d1e2 afbd
000001d0: fb5c 663d 3159 d33c 81ff 2dbd 1453 b23c
000001e0: 6690 363d 1824 d33c 9931 0c3e 627b e8bd
000001f0: 3f1f 343c c80a fe3d a5df ef3d 4da0 a53d
00000200: a748 2b3d 3424 0f3e 3052 9b3d 792d 8b3d
00000210: f525 7c3c 3612 5c3e 89d3 22be 1413 a6bc
00000220: dd77 d8bd 60b6 d7bd 3bff 4cbe 560f 963d
00000230: ad03 043e 7416 d7bc 568a 963d 2463 663d
00000240: 2775 0b3e fe94 22be bcd1 2b3d 2789 15bc
00000250: c8f1 213e d223 96bd 06b5 8abd f357 1fbe
00000260: 2d73 e4bd 6e27 183d 9772 3bbe ec89 27be
00000270: 12b0 33bd 948b 1a3d 7973 d4bd 4315 40be
00000280: d8c3 6d3d 1f70 953d 091f 7fbc 889b b33d
00000290: 4aa3 8b3c 6f02 08be 3de5 4a3c 5cfc 70be
000002a0: 0bc1 353e fb98 2a3e 4f19 8a3e eb13 313c
000002b0: 0d51 9a3d 4548 ebbd 436d 123e b1bf d5bd
000002c0: 4583 143d 6d70 4dbb e709 0f3e 318c 25bd
000002d0: 8a82 843e 6a52 b4bc a97d 553c 3e37 943d
000002e0: eadb 74bd 0384 26be 5b20 0abd 35ef fa3b
000002f0: 6f17 96bc 51de 85bd 2345 7bbe 032c 003e
00000300: 9b7e 8b3c 22ac 29be 85a7 373c 8381 bb3d
00000310: 2ae4 91bd 51b0 cabc 81b3 45bc 1fd4 37be
00000320: 37af 52bb eb4a 80be 3e3d babd 3937 4cbe
00000330: 467e 11bc 6129 aabc a573 80be 0a7b a7bc
00000340: 2f70 3dbe d0e2 bd3d c905 c1bd 6be9 543c
00000350: 0306 403e 1475 c2bc e1e7 09be f45b e5bd
00000360: 89c6 053e 6fe4 e1bc 0b0b 4ebe ec1e b13c
00000370: a5dd 5a3d 590c 323e 283b 763e 5364 a2bd
00000380: a5d3 163e 54b7 1abe 521b 01bd 9372 9ebc
00000390: 07cc 993c 197c 783d f9f3 a4be a8b8 1abd
000003a0: d907 93be 020b 9e3c 219a 9fba 4726 4d3b
000003b0: 5adf 07bd e124 09be fae8 76bd 8ae1 0abe
000003c0: 95c5 a8bc 0af1 963e 4416 04be 85a3 bd3d
000003d0: 7881 fe3c 1f12 14bd 895d 663e 925f b6be
000003e0: 3298 8cbd bda8 0bbe 12f6 75bd 56a3 adbd
000003f0: 6190 25be 512a c5bd e943 dfbd 7bc6 49bd

bias f4 [64]
-0.014812282 0.009503881 -0.055683438 -0.031643704 0.027718967 -0.04520038 -0.01618701 -0.009320025
-0.011378518 -0.008050811 -0.026791489 -0.024693727 0.02052147 -0.011013257 0.018605275 0.0015996407
-0.040496722 0.020765428 0.013282634 -0.0065950463 -0.037873268 -0.019694395 -0.0011323261 0.0035774482
-0.032641374 -0.04528924 -0.0107580405 -0.00554566 -0.04542662 -0.02065085 -0.033947125 -0.036765005
0.021375153 -0.022151848 -0.0153687075 -0.028663492 -0.0150219565 -0.01408111 -0.008520248 -0.0018155586
-0.003158775 -0.0027821357 -0.0058381995 -0.021072568 -0.025295423 -0.0041204276 0.0008487996 -0.024532733
-0.042142104 -0.04280509 -0.054374333 -0.005497759 0.006258092 -0.02790539 0.00905121 -0.023639673
-0.03192169 -0.008105914 -0.013563478 -0.026826227 -0.037390005 -0.028804943 -0.025581947 -0.0007391716
00000000: 37af 72bc 2bb6 1b3c 5114 64bd d49c 01bd
00000010: e312 e33c 0924 39bd 9f9a 84bc 05b3 18bc
00000020: f76c 3abc 8ce7 03bc d379 dbbc 804a cabc
00000030: a41c a83c f370 34bc 176a 983c 09ab d13a
00000040: e4df 25bd 421c aa3c 689f 593c 421b d8bb
00000050: 0021 1bbd 2456 a1bc 8f6a 94ba 9f73 6a3b
00000060: f6b2 05bd 3681 39bd 7e42 30bc 5eb8 b5bb
00000070: 4311 3abd f92b a9bc 240c 0bbd e796 16bd
00000080: f21a af3c cb77 b5bc 08cd 7bbc b3cf eabc
00000090: a71e 76bc 75b4 66bc 8398 0bbc 0af8 edba
000000a0: 7303 4fbb 7e54 36bb 5e4e bfbb 61a0 acbc
000000b0: 5938 cfbc a704 87bb fa81 5e3a dff8 c8bc
000000c0: 339d 2cbd 6454 2fbd 9fb7 5ebd 8c26 b4bb
000000d0: ae10 cd3b d899 e4bc 874b 143c fda7 c1bc
000000e0: 51c0 02bd abce 04bc 5a39 5ebc adc2 dbbc
000000f0: 4326 19bd 58f8 ebbc 3b91 d1bc f7c4 41ba

weight f4 [64, 64]
-0.10381877 0.1885618 0.25568768 0.16620176 -0.021757003 -0.24831793 0.0798217 -0.07973635
0.20926204 -0.14483699 0.17225794 -0.069275185 0.019906264 0.22703376 0.031266157 -0.2671134
0.27296585 -0.16363275 -0.09553273 -0.042310122 0.34137693 0.3455882 -0.15927465 0.079779714
0.04620516 -0.2764999 0.19156024 0.090574525 -0.23539916 -0.053688757 0.0659866 0.14500375
0.4106094 0.071312875 0.10267548 0.0052802325 0.10684509 -0.1987276 -0.04694207 0.108814195
0.06801214 0.114049315 -0.080802254 0.34750092 -0.12423834 -0.17545043 0.19223607 0.15958266
-0.2085575 0.052079752 0.01078579 0.032135017 -0.3062209 -0.091139324 0.20158228 -0.19019538
-0.0609739 -0.18284014 -0.05376285 -0.028162604 -0.3342107 -0.012172705 -0.14563103 -0.057141494
0.21138203 0.2843015 0.04707204 -0.23451996 -0.19268931 0.03881856 -0.12163567 -0.06782864
0.0947672 0.002913281 -0.028819935 0.06594424 0.017763713 -0.12407291 -0.41941142 -0.040733457
-0.18426372 0.07257469 -0.28217748 0.084309906 0.116312265 -0.09841373 -0.12192037 0.09349584
0.12531659 0.16344316 0.092163116 0.03586917 0.4223935 -0.12800449 -0.17066981 0.21631783
-0.22881001 -0.23121996 0.32573712 -0.053874437 0.27099657 -0.2145671 0.10591861 -0.03465798
-0.076589115 -0.020352157 0.1905894 -0.0076972903 -0.13089891 0.07490818 0.46450093 0.16328815
0.18766934 -0.02342836 0.12363919 -0.19048561 -0.029358003 0.2308328 0.19884697 -0.17261122
0.12652902 0.16930862 0.012800626 -0.15465502 -0.03694776 -0.1002714 0.19919127 -0.22809099
0.20317198 -0.00047504902 0.23337783 -0.04303424 -0.17423989 -0.0018865003 -0.09514385 -0.01599509
0.13380316 0.023303524 -0.14046721 0.096482694 0.021581015 0.006260376 0.20842089 -0.35411173
-0.046553336 0.08341653 0.21488582 -0.15515529 -0.44289804 -0.10243079 0.21042775 0.14242154
0.1287834 -0.13532451 0.32919484 0.3698122 -0.15950404 -0.07084838 0.1778495 0.28089157
-0.23976766 0.11631426 0.015144275 0.08482274 -0.12271225 -0.11354497 -0.017855888 0.2631824
-0.26131466 0.28264257 0.012045577 0.25504148 0.17873228 -0.07969198 -0.046120197 0.019617671
-0.08704706 -0.032743998 0.098240845 0.07845358 0.105324425 0.052557074 0.006284566 0.043833848
-0.10098865 0.1770092 -0.1508092 -0.048379418 0.24131295 0.2655653 0.3064962 0.20093848
-0.12936227 0.12632118 -0.14990245 0.39094615 0.29711425 0.20464647 -0.24356815 -0.24158692
0.16819902 0.19347681 0.14459799 -0.17473444 0.020667499 -0.16632532 -0.28638262 0.116505556
0.16367862 0.12222587 -0.0064074155 0.11487102 -0.18557535 -0.47493646 -0.036378425 -0.11647811
0.1965905 -0.4215308 0.03794602 0.044490173 -0.23953034 -0.14852972 -0.15171708 -0.26226676
0.19719632 -0.04819665 0.008485854 -0.38309535 0.0041576563 -0.15789345 -0.26214415 0.25629732
0.04991876 0.06634257 0.0530768 -0.23664287 0.22865753 -0.059848074 0.054405734 0.05563972
-0.04439166 0.022344226 0.016349979 -0.058248617 0.0045822184 0.22314125 0.006052276 -0.03664169
-0.016773531 0.107115254 -0.009760769 -0.015537338 0.077308476 -0.0016655383 -0.0245331 -0.039275207
00000000: ef9e d4bd 5816 413e 7fe9 823e cb30 2a3e
00000010: be3b b2bc 0e47 7ebe 8f79 a33d d04c a3bd
00000020: ca48 563e 2650 14be 6364 303e 26e0 8dbd
00000030: 7612 a33c 8a7b 683e f110 003d 16c3 88be
00000040: 2ec2 8b3e 588f 27be aaa6 c3bd 614d 2dbd
00000050: f5c8 ae3e f0f0 b03e e518 23be 8c63 a33d
00000060: 9f41 3d3d 6591 8dbe 5e28 443e 237f b93d
00000070: 7a0c 71be bee8 5bbd fc23 873d dd7b 143e
00000080: 653b d23e 7c0c 923d 8647 d23d cd05 ad3b
00000090: 99d1 da3d 3f7f 4bbe 5446 40bd fad9 de3d
000000a0: f349 8b3d b092 e93d a77b a5bd a4eb b13e
000000b0: ac70 febd 47a9 33be 88d9 443e a369 233e
000000c0: 1990 55be 9451 553d e2b6 303c 02a0 033d
000000d0: fcc8 9cbe 41a7 babd 966b 4e3e 94c2 42be
000000e0: c5bf 79bd 723a 3bbe 6f36 5cbd 43b5 e6bc
000000f0: aa1d abbe 0670 47bc 4d20 15be 330d 6abd
00000100: 8874 583e f78f 913e 9dce 403d 0026 70be
00000110: 5950 45be 3600 1f3d 1f1c f9bd bee9 8abd
00000120: 4e15 c23d bfec 3e3b c917 ecbc c60d 873d
00000130: 3585 913c f019 febd 18bd d6be 20d8 26bd
00000140: a1af 3cbe 0aa2 943d 9179 90be acaa ac3d
00000150: 2035 ee3d 238d c9bd 63b1 f9bd bf7a bf3d
00000160: fe52 003e a55d 273e 04c0 bc3d 8deb 123d
00000170: f643 d83e 9c13 03be 11c4 2ebe 6c82 5d3e
00000180: 2c4d 6abe edc4 6cbe 04c7 a63e 71ab 5cbd
00000190: 10c0 8a3e 7ab7 5bbe dbeb d83d 87f5 0dbd
000001a0: c1da 9cbd 91b9 a6bc de29 433e 8d39 fcbb
000001b0: 5d0a 06be 7669 993d 11d3 ed3e 0235 273e
000001c0: 642c 403e d5ec bfbc 8b36 fd3d a90e 43be
000001d0: 3280 f0bc 6f5f 6c3e 8a9e 4b3e ffc0 30be
000001e0: d390 013e 3d5f 2d3e b8b9 513c e35d 1ebe
000001f0: 8956 17bd 175b cdbd ccf8 4b3e af90 69be
00000200: 510c 503e 0010 f9b9 99fa 6e3e ac44 30bd
00000210: f16b 32be 7244 f7ba c7da c2bd 2308 83bc
00000220: b203 093e 08e7 be3c a3d6 0fbe b898 c53d
00000230: abca b03c d723 cd3b 496c 553e 224e b5be
00000240: b6ae 3ebd 49d6 aa3d 070b 5c3e 07e1 1ebe
00000250: 88c3 e2be 3cc7 d1bd 5f7a 573e f4d6 113e
00000260: ccdf 033e 8292 0abe 3a8c a83e 0658 bd3e
00000270: 0755 23be f518 91bd 2e1e 363e 05d1 8f3e
00000280: a785 75be 2c36 ee3d b11f 783c 8bb7 ad3d
00000290: 8f50 fbbd 448a e8bd 8346 92bc d8bf 863e
000002a0: 09cb 85be 87b6 903e d05a 453c cc94 823e
000002b0: 9805 373e 8c35 a3bd 88e8 3cbd 3db5 a03c
000002c0: bb45 b2bd 921e 06bd 7f32 c93d 45ac a03d
000002d0: 55b4 d73d 1646 573d c3ee cd3b 1f8b 333d
000002e0: 23d3 cebd e641 353e ba6d 1abe 7f29 46bd
000002f0: be1a 773e 2df8 873e 12ed 9c3e d1c2 4d3e
00000300: 8b77 04be 575a 013e 0780 19be 182a c83e
00000310: 5c1f 983e d88e 513e ee69 79be 9062 77be
00000320: 5d3c 2c3e c91e 463e 7f11 143e 96ed 32be
00000330: e34e a93c 2f51 2abe bea0 92be 779a ee3d
00000340: 5e9b 273e 8f51 fa3d 4cf5 d1bb 7f41 eb3d
00000350: 7707 3ebe df2a f3be 8b01 15bd 138c eebd
00000360: 054f 493e e3d2 d7be 496d 1b3d 543b 363d
00000370: 7147 75be 2d18 18be b95b 1bbe d447 86be
00000380: d5ed 493e da69 45bd 4008 0b3c 1325 c4be
00000390: f33c 883b d2ae 21be c237 86be 6739 833e
000003a0: 9d77 4c3d 9dde 873d 0f67 593d 8252 72be
000003b0: 3325 6a3e 4123 75bd 8cd8 5e3d 7ae6 633d
000003c0: 07d4 35bd 3d0b b73c 64f0 853c 1a96 6ebd
000003d0: 6f26 963b 247f 643e 2c52 c63b 9915 16bd
000003e0: a568 89bc 3e5f db3d a2eb 1fbc 5290 7ebc
000003f0: e853 9e3d 314e daba a4f9 c8bc 0adf 20bd

bias f4 [64]
0.01946589 -0.021719944 0.007895199 -0.014014165 -0.0051832017 -0.008954097 -0.00829707 0.0017305962
-0.010778143 -0.036106534 -0.024092803 -0.05768713 0.0019614252 0.015113051 -0.00034061514 -0.0067901774
-0.011840148 -0.0019640676 -0.0086567635 -0.04178173 -0.035238884 -0.0041144444 0.0 0.0027981463
0.0037052447 0.011474329 0.009578052 0.011785813 0.0009391701 -0.018913168 0.004328955 -0.009858895
0.005340241 -0.02484716 -0.0076906364 0.0068316455 -0.013845478 -0.023801489 -0.00868223 0.02788845
0.0068760472 0.0057336655 0.038536284 -0.053105555 -0.0048096683 -0.023861118 0.027042408 0.011379134
0.00029843216 0.017704083 0.048309732 -0.0107687 0.0018949761 0.037675116 0.011004759 -0.0059927143
-0.040718354 -0.015194769 -0.032099664 -0.019222619 0.0072169215 0.0094678225 -0.019634899 -0.005554387
00000000: ee76 9f3c 06ee b1bc dd5a 013c ab9b 65bc
00000010: d9d7 a9bb 34b4 12bc 6ff0 07bc 2cd5 e23a
00000020: cf96 30bc 72e4 13bd 455e c5bc 5749 6cbd
00000030: 418b 003b bb9c 773c 9794 b2b9 2380 debb
00000040: 2efd 41bc 96b7 00bb 19d5 0dbc 5223 2bbd
00000050: a656 10bd 76d2 86bb 0000 0000 1b61 373b
00000060: b1d3 723b d3fe 3b3c 43ed 1c3c 4819 413c
00000070: a332 763a caef 9abc e8d9 8d3b 3487 21bc
00000080: 30fd ae3b 458c cbbc bc01 fcbb ffdb df3b
00000090: 25d8 62bc 57fb c2bc e93f 0ebc 5276 e43c
000000a0: 7750 e13b 79e1 bb3b 39d8 1d3d 3685 59bd
000000b0: 6c9a 9dbb 6478 c3bc 0a88 dd3c 8c6f 3a3c
000000c0: e376 9c39 2708 913c 6de0 453d 346f 30bc
000000d0: d960 f83a 3951 1a3d 4e4d 343c 885e c4bb
000000e0: 4ac8 26bd 7bf3 78bc f07a 03bd c178 9dbc
000000f0: ed7b ec3b ed1e 1b3c 5ed9 a0bc 9301 b6bb

weight f4 [1, 64]
0.15518098 8.040331e-06 0.15862632 -0.0057532717 0.00042010192 -4.272538e-06 0.001410614 -0.019415319
0.0062668207 -0.24300478 -0.2600661 0.37046936 -0.01805643 0.22307204 -0.1556966 -0.003121596
-0.012172828 -0.26925716 0.037975762 -0.0005268036 0.34700313 -0.24567054 -0.3235808 -0.120458834
0.0011263421 0.16800931 -0.08935477 -0.019537324 0.28461385 0.0024402477 0.04231611 -0.00732029
0.052326884 -0.00047402293 -0.19473982 -0.019650053 -0.09141713 -0.0027120523 0.062134683 0.1739843
0.05253198 0.047991063 -0.08190908 -0.17932062 -0.0013587613 0.028480642 0.001421881 -0.19505143
0.030184338 0.0064106984 -0.06702623 -0.0031865693 -0.21226914 0.038217347 -0.03321648 0.15682112
0.3166752 -0.017206501 -0.029496081 -0.08568778 0.076675065 -0.083653145 -0.00077793637 0.0004603958
00000000: c3e7 1e3e f5e4 0637 f06e 223e f185 bcbb
00000010: 2041 dc39 d25c 8fb6 5ae4 b83a e00c 9fbc
00000020: e759 cd3b 3fd6 78be 6227 85be 29ae bd3e
00000030: 14eb 93bc ff6c 643e ee6e 1fbe b193 4cbb
00000040: 8b70 47bc 13dc 89be 798c 1b3d 3119 0aba
00000050: 65aa b13e 0f91 7bbe 62ac a5be 1fb3 f6bd
00000060: c5a1 933a a20a 2c3e a2ff b6bd bd0c a0bc
00000070: e8b8 913e 90ec 1f3b a853 2d3d 0bdf efbb
00000080: b754 563d 4886 f8b9 e069 47be 26f9 a0bc
00000090: e738 bbbd b0bc 31bb f080 7e3d f128 323e
000000a0: c62b 573d 4792 443d f3bf a7bd d39f 37be
000000b0: 7718 b2ba 3c50 e93c 695e ba3a 90bb 47be
000000c0: 2545 f73c d610 d23b 0c45 89bd c3d5 50bb
000000d0: 155d 59be cb89 1c3d 010e 08bd b795 203e
000000e0: 4023 a23e a6f4 8cbc c4a1 f1bc 137d afbd
000000f0: d107 9d3d 5752 abbd 6dee 4bba 4761 f139

weight f4 [5, 64]
0.011358087 0.0012811525 -0.00985332 0.002365872 -0.0021259454 0.0069376356 0.006173876 0.006243661
0.00357068 -0.0070286235 -7.195474e-05 0.011373375 -0.013234997 0.012230749 -0.0006137188 0.004630579
0.0064722113 -0.00014964028 0.0006307571 0.009693176 -0.0061001293 -0.0045145946 0.004784838 -0.00072660635
0.0038165764 -0.0020718467 0.0016210926 -0.003444403 0.0069686435 0.0018334364 0.001759665 0.0037091423
-0.00070997654 0.0022312414 -0.0043961615 0.0011274195 0.0047521205 0.00670086 0.0046239537 -0.0073978635
0.0024230368 -0.0076703927 0.0038365843 -0.0016855182 -0.0004281302 0.009125581 0.0016344462 0.00034691644
-0.0057621156 -0.0018876292 -0.004440422 0.00089971727 0.011829475 -0.0031318085 -0.012218087 0.0024447553
0.001584306 -0.004041547 -0.01124194 0.0040852437 0.0010581776 0.007330324 -0.001185172 -0.011505777
-0.007978912 -0.0022163081 0.028852737 0.0065157255 0.012583207 -0.012642533 0.0015097621 -0.0094804
0.0035310495 -0.0028805598 -0.0055009434 0.0022023781 -0.0026420616 -0.00888165 0.0014809738 -0.0034497583
-0.011283548 -0.001544273 0.0010205585 -0.0055311117 -0.0063691265 0.0022828423 0.01088943 -0.0038114856
0.0017207407 0.010401655 0.006181042 -0.009589026 -0.017515754 -0.0031823667 -0.010633294 0.0047459253
3.2339292e-05 0.00071283453 0.011802292 -0.0010579564 -0.010712727 -0.004401037 0.0020269242 -0.00074603606
-0.007245646 0.016301813 -0.001280929 -0.007656119 -0.022840833 -0.013275591 -0.0026994506 0.0042165215
0.00062099914 0.007993189 -0.0042730565 -0.001193269 -0.024340436 -0.00092660746 0.011585115 -0.007296616
0.0048262873 0.01407497 0.003812398 0.0040456695 -0.0040395395 0.0025287345 -0.001287128 0.010670661
-0.0030882582 0.0020143674 -0.0018043036 -0.011314777 -0.0032036472 -0.0010092027 -0.01092019 0.001801916
-0.0037051353 0.0026041039 0.0042525693 -0.0065896274 -0.0064625205 -0.0010111353 -0.0015300786 -0.0002566648
-0.0007985962 0.005215613 -0.009247573 0.0046224347 0.005061648 -0.0016616117 -0.0005903928 0.004199752
3.1701944e-05 6.871555e-05 0.0011985363 0.014219237 0.0009247793 -0.00029763055 0.0073229466 -0.004788799
0.0011669244 -0.0011335987 -0.011810168 0.004137134 0.0021195202 0.0043561906 -0.0024064488 0.000540343
0.0054866914 -0.0040847817 0.004749629 0.0060747513 0.0047830567 0.005873375 0.013953245 0.00046413654
0.011048675 0.0008408899 0.0027764163 0.006324924 0.0069723753 0.0007549862 -0.007652521 -0.0029642475
-0.009326058 -0.0015960247 0.0028004 -0.009738282 0.007717533 -0.008160958 0.0009774243 -0.005930093
0.0026949735 0.0007168157 -0.009181943 -0.007989825 -0.0012787951 0.005570723 0.0030385377 -0.0033217436
-0.0015525806 0.0014453327 0.005601894 0.0005983858 -0.000921543 -0.0017889309 -0.00078268064 -0.0045125755
0.005875974 -0.0061411303 -0.000999643 0.00235273 0.0100358995 0.0020556469 -0.013059615 0.00247841
-0.0040596584 -0.0014714175 0.0035550864 0.0052574216 -0.00063681096 0.004299428 0.008243321 -0.0017809289
-0.0012421256 -0.0029357004 -0.007937538 -0.002432331 0.0085604945 -0.005137729 -0.004684901 0.006174542
0.00019687765 -0.0070448704 -0.00466492 0.007491803 0.008185967 -0.00425062 -0.0074493834 0.006078349
0.003983209 0.003000786 0.004241427 -0.010008215 0.0017174059 -0.0008053772 -0.004764687 0.008477398
-0.007016413 0.0003135211 0.00065310305 -0.0028944192 -0.0012713498 -0.0027696788 0.00081313594 -0.007908289
00000000: 4517 3a3c 58ec a73a d26f 21bc bf0c 1b3b
00000010: 7253 0bbb 1b55 e33b 3a4e ca3b a097 cc3b
00000020: 1202 6a3b 5e50 e6bb 68e6 96b8 6457 3a3c
00000030: 9ad7 58bc 7b63 483c f9e1 20ba 1dbc 973b
00000040: d814 d43b c2e8 1cb9 6459 253a 20d0 1e3c
00000050: 98e3 c7bb 2aef 93bb 21ca 9c3b ba79 3eba
00000060: 871f 7a3b d2c7 07bb d77a d43a 7ebb 61bb
00000070: 3859 e43b eb4f f03a 8fa4 e63a 1515 733b
00000080: b81d 3aba 053a 123b ad0d 90bb ecc5 933a
00000090: adb7 9b3b e392 db3b 8984 973b c769 f2bb
000000a0: d0cb 1e3b eb57 fbbb 346f 7b3b 9bec dcba
000000b0: aa76 e0b9 7683 153c ea3a d63a 56e2 b539
000000c0: 21d0 bcbb 536a f7ba f680 91bb 01db 6b3a
000000d0: 6ad0 413c 073f 4dbb 5f2e 48bc 3038 203b
000000e0: 7da8 cf3a f46e 84bb 1d30 38bc 82dd 853b
000000f0: 8cb2 8a3a 3733 f03b c657 9bba ba82 3cbc
00000100: fcb9 02bc 7b3f 11bb 935c ec3c de81 d53b
00000110: cc29 4e3c a022 4fbc 36e3 c53a ae53 1bbc
00000120: 2e69 673b c6c7 3cbb 4241 b4bb c655 103b
00000130: 7026 2dbb 5784 11bc 3c1d c23a 5715 62bb
00000140: a1de 38bc 3469 caba 43c4 853a 543e b5bb
00000150: 1bb4 d0bb bd9b 153b 9469 323c 1eca 79bb
00000160: 7a8a e13a b46b 2a3c 578a ca3b 4a1b 1dbc
00000170: 337d 8fbc 418f 50bb 4437 2ebc b583 9b3b
00000180: 0da4 0738 84dd 3a3a 675e 413c 20ab 8aba
00000190: 6f84 2fbc 9336 90bb 25d6 043b a291 43ba
000001a0: e26c edbb 618b 853c d8e4 a7ba 2ee0 fabb
000001b0: b31c bbbc dd81 59bc 44e9 30bb bf2a 8a3b
000001c0: 8cca 223a ddf5 023c ff04 8cbb 7767 9cba
000001d0: 9865 c7bc 93e7 72ba 7fcf 3d3c 7418 efbb
000001e0: d525 9e3b b49a 663c 6dd9 793b 8991 843b
000001f0: 1d5e 84bb 20b9 253b d9b4 a8ba ffd3 2e3c
00000200: 6064 4abb 7a03 043b 627e ecba 9d61 39bc
00000210: 48f4 51bb 3947 84ba 99ea 32bc 452e ec3a
00000220: dbd1 72bb 9da9 2a3b 2359 8b3b cded d7bb
00000230: 8dc3 d3bb 1288 84ba eb8c c8ba f790 86b9
00000240: e258 51ba bce7 aa3b 2283 17bc cb77 973b
00000250: 2edc a53b 70ca d9ba 97c4 1aba 139e 893b
00000260: b4f7 0438 611b 9038 3418 9d3a cdf7 683c
00000270: e36c 723a 4c0b 9cb9 54f5 ef3b 5ceb 9cbb
00000280: 7cf3 983a 4395 94ba 6f7f 41bc cc90 873b
00000290: a6e7 0a3b 60be 8e3b 83b5 1dbb cea5 0d3a
000002a0: b4c9 b33b a2d9 85bb c7a2 9b3b b50e c73b
000002b0: 30bb 9c3b 7175 c03b 279c 643c 5a57 f339
000002c0: 8005 353c 2a6f 5c3a 89f4 353b 4f41 cf3b
000002d0: 8678 e43b 44ea 453a 00c2 fabb d243 42bb
000002e0: 53cc 18bc b431 d1ba ea86 373b 518d 1fbc
000002f0: 5ce3 fc3b 8ab5 05bc eb1c 803a 3a51 c2bb
00000300: 279e 303b b0e8 3b3a dc6f 16bc c1e7 02bc
00000310: 3e9d a7ba 9d8a b63b 3422 473b 9cb1 59bb
00000320: f67f cbba 5171 bd3a 1890 b73b fedc 1c3a
00000330: b493 71ba 8f7a eaba cf2c 4dba 3ade 93bb
00000340: 3e8b c03b 893b c9bb 7406 83ba 4230 1a3b
00000350: 9d6d 243c 08b8 063b fff7 55bc d26c 223b
00000360: e206 85bb 94dc c0ba 74fc 683b 7346 ac3b
00000370: a9ef 26ba 37e2 8c3b ff0e 073c 0f6e e9ba
00000380: d2ce a2ba e164 40bb 730c 02bc be67 1fbb
00000390: 5141 0c3c 655a a8bb cc83 99bb d053 ca3b
000003a0: f170 4e39 a8d8 e6bb 2fdc 98bb cc7d f53b
000003b0: 6f1e 063c c948 8bbb f519 f4bb e32c c73b
000003c0: 9485 823b d6a8 443b abfb 8a3b 7ff9 23bc
000003d0: 941a e13a f31f 53ba 1721 9cbb c9e4 0a3c
000003e0: f0e9 e5bb 1760 a439 0135 2b3a 4cb0 3dbb
000003f0: 6ca3 a6ba 8083 35bb a128 553a c591 01bc

bias f4 [5]
-0.0065063825 -0.004717068 -0.001253117 -0.0035437061 -0.0024529386
00000000: 7e33 d5bb a291 9abb a13f a4ba 863d 68bb
00000010: 7bc1 20bb
