model/tiny-2ag/A2C/model_agent1_seed3.pt (torch, 101825 bytes, 11 tensors)

weight f4 [64, 119]
000000 c5 1b a0 bd 10 08 66 be 74 57 58 bc 81 32 e8 3b
       -0.078177966 -0.22464013 -0.013204444 0.0070860987
000010 24 ba 65 3d fd c2 39 3e 13 97 f0 bd 2e 1d bc 3c
       0.05608572 0.18140788 -0.11747565 0.022963133
000020 63 16 12 be 6a 6d 53 bd 32 af 4d 3d d3 24 30 3e
       -0.14266352 -0.051618017 0.050215907 0.17201547
000030 03 b3 63 3d 6a ea 35 3e a6 a6 21 bd e5 5a 52 3e
       0.05559064 0.17765203 -0.03946557 0.20542486
000040 9f ae 0d bd d1 f4 2c 3e e2 39 c9 3c d6 82 15 be
       -0.03459036 0.16890265 0.024563733 -0.14600691
000050 54 ed 97 3d de 04 4a bb 81 9e 5f 3e 06 01 ab be
       0.074183136 -0.0030825655 0.21837808 -0.33399218
000060 9a 7b 5f 3d 70 be 1b be 12 46 29 be 7c 78 0a be
       0.054561235 -0.15209365 -0.16530636 -0.13522524
000070 64 64 40 3d 2d 09 25 be 2f 47 d2 3d e4 7e 87 3e
       0.04697074 -0.16116782 0.102674834 0.26463997
000080 94 63 57 bd 02 84 08 3e 4c 5a c8 3d c6 8f 7e 3c
       -0.0525852 0.13331607 0.09782848 0.015537208
000090 83 cc ed bd 8d 77 40 38 87 38 9a bc 67 89 c9 bd
       -0.11611273 4.5887708e-05 -0.018825782 -0.098406605
0000a0 fa da 49 3d d8 ee 39 3d e7 77 7c bd 11 f6 4d be
       0.049281098 0.045393795 -0.061637785 -0.20113398
0000b0 b9 71 ad 3d d2 5c 82 3b 7a 78 11 3e 53 30 b1 bd
       0.084689565 0.00397835 0.14206114 -0.08651795
0000c0 34 e2 c5 3d 53 82 25 be 03 32 89 be e6 7b 7d 3d
       0.096622854 -0.16162996 -0.26795968 0.061885737
0000d0 06 8d 79 bd 3e fb 8c 3b 24 7b cf bd c0 48 ff bc
       -0.060925506 0.0043024113 -0.10130909 -0.03116262
0000e0 a4 df 08 3e f0 a5 de bd 9d 48 cc 3c 14 57 5a 3c
       0.13366562 -0.10871494 0.024936968 0.013326425
0000f0 3f a8 b5 be 9e 37 a1 bd 26 f1 40 3e 7a 39 e2 3d
       -0.35479924 -0.07871936 0.18841991 0.11046119
000100 e1 a7 e4 bb bf 92 c1 bd d0 2b 2a 3e 87 ec 4b bb
       -0.0069780205 -0.09451818 0.16618276 -0.0031116323
000110 b7 d1 82 3d bb 45 fe 3d e0 06 d6 bd 39 df 8e 3d
       0.06387656 0.12415644 -0.1045053 0.0697617
000120 04 26 d3 3d 46 d0 ad be 75 2b a0 3d 49 bf 7b be
       0.10309985 -0.33947963 0.07820789 -0.24584688
000130 ed be 8c bd e6 78 d1 bd 7d 37 2a 3e 27 65 3b be
       -0.06872354 -0.10228138 0.1662273 -0.18300305
000140 52 cb 39 3d 78 08 bd 3d 9d c8 32 bd 22 69 bd bc
       0.045359917 0.09230131 -0.04364835 -0.02312142
000150 b0 d4 28 3e 67 c5 16 bd 46 be 68 be 7e ea e8 bc
       0.16487384 -0.03680935 -0.22728834 -0.028432127
000160 d0 76 0e 3e c1 b0 31 be 45 4a b0 bc 26 eb 8c bd
       0.13912511 -0.17352583 -0.02151979 -0.068807885
000170 03 05 f4 3d 16 45 c6 bc cf 59 00 3e b9 ff b0 3d
       0.119150184 -0.024202865 0.1253426 0.08642525
000180 4b 0c 65 3e 69 41 66 3d db 7e a3 3c fc fb b8 bb
       0.2236797 0.056214724 0.01995795 -0.0056452733
000190 8d 2f 0d 3e c3 f0 23 be 48 f8 7d bd 5e 4f b5 3d
       0.1378767 -0.16009812 -0.062004358 0.08853029
0001a0 60 39 78 bd 27 da 26 3d fa ad 63 3d 57 80 e1 3c
       -0.060601592 0.04073539 0.05558584 0.027527018
0001b0 ab 60 92 3c b9 ee 8c 3e e1 3e f9 bd 8a 9c 8b be
       0.01786836 0.2752588 -0.12170196 -0.27267867
0001c0 8c 5a 61 3c 66 da cc 3c 72 2d a7 ba 0a 6f 6a be
       0.013754498 0.025006484 -0.0012754633 -0.2289392
0001d0 fa 7d 2c 3d 43 0e d7 3c 81 97 15 be b2 cb 73 bc
       0.042112328 0.026251918 -0.14608575 -0.014880108
0001e0 c1 d5 d2 bb 21 0e b8 3d 38 db e0 bd f6 9b 8b bd
       -0.006434173 0.0898707 -0.10979313 -0.068168566
0001f0 a7 e8 da 3d d5 9a b2 bd da 73 44 bd 94 47 7b 3d
       0.10688906 -0.08720938 -0.047962047 0.06134756
000200 73 79 22 3d e9 11 bb bc 04 e0 cb 3d b9 68 5c 3d
       0.039666604 -0.022835689 0.09954837 0.05381081
000210 c2 ee 8b 3d 63 25 19 be f6 a8 5f bd 08 5a 6c 3e
       0.06832649 -0.14955668 -0.054604493 0.23081219
000220 a6 65 2b 3e 2e 58 05 bc de db a6 3b 9b b9 f1 bd
       0.16737995 -0.008138699 0.005092128 -0.118029796
000230 34 02 bd 3c f3 46 a3 be 32 33 96 3d 46 a4 38 3e
       0.02307234 -0.31890067 0.073339835 0.18031415
000240 01 30 10 bd c8 85 39 be 31 ee 3d 3e 9a 8b df 3d
       -0.03520203 -0.1811744 0.18547894 0.10915299
000250 47 4c 0c 3e 9c 01 c5 3d ab a2 91 3c b2 20 0d 3e
       0.13700972 0.096194476 0.017777761 0.13782004
000260 d0 5b b8 be 77 3a df bd 14 ea 01 3e 8f 8c 96 bd
       -0.36007547 -0.10899823 0.1268695 -0.07351028
000270 f4 3e 27 3d 60 5a 2f be 66 c2 18 3d 13 92 45 be
       0.04083152 -0.17124319 0.037294768 -0.19294004
000280 a2 ac b9 bd 2e bc d5 3c 0f ff 8e b9 2c 25 fb bc
       -0.0906613 0.026090708 -0.00027274384 -0.030657373
000290 bb 04 e5 bd 1d d4 38 3e 8b fa 0f 3e 19 fa 66 bd
       -0.11182543 0.18049665 0.14060418 -0.056390855
0002a0 c6 34 3c 3e b7 d9 83 be 4d fa 09 bd d9 90 0f be
       0.18379506 -0.2575204 -0.03368597 -0.14020099
0002b0 55 8a d7 3d 76 ad 0a be 5e 8f 0c be e7 61 94 be
       0.105244316 -0.13542733 -0.13726565 -0.28980944
0002c0 47 a1 3f 3e 6e 22 82 3e c0 4d ef 3c 39 09 ad bb
       0.18713866 0.25416893 0.029211879 -0.0052806404
0002d0 be 54 d4 3d 13 1f ad bd 4d 8c c1 bd cf e2 82 be
       0.10367726 -0.084531926 -0.094505884 -0.25563666
0002e0 fd 89 a4 bc 88 a9 47 3e 81 97 d7 3d 03 4c 6e 3c
       -0.02008533 0.19498265 0.10526944 0.01454449
0002f0 f6 0b c2 3d 9e bf 7f 3b 11 92 c7 bc cd d4 8a bd
       0.094749376 0.0039024125 -0.024361642 -0.0677887
000300 39 26 50 be 05 0a 98 3e d6 bb 4d bd 9f 27 dd 3c
       -0.20327081 0.29695144 -0.050227962 0.026996432
000310 db 1c ea 3d 0a 97 17 3e 00 a3 76 3c 2e 9f ac 3d
       0.11431285 0.1480371 0.015053511 0.084287986
000320 22 0b 38 3d f6 5b 7d 3c 0f e4 04 3d 38 62 3f bd
       0.044932492 0.01546382 0.032444056 -0.046724528
000330 64 7a 00 3e 82 24 94 3c 8a 6b e9 bd 7e 6e 53 3d
       0.12546688 0.018083815 -0.113974646 0.051619045
000340 f8 66 4b bc dd 52 4d 3e b8 4e 06 be a6 e3 f1 bd
       -0.012414686 0.20051141 -0.13115966 -0.118109986
000350 ef 93 43 3e 8b e5 e8 bd cf 6f 6f 3e 85 ba 0f 3d
       0.19099401 -0.11371907 0.23382495 0.03508999
000360 f1 6c 52 be 88 22 b9 be 76 41 c1 bd 47 c5 67 bc
       -0.2054937 -0.36159158 -0.09436314 -0.014146156
000370 cb 40 0a be 01 e1 e7 bc 87 03 db bc ef 22 10 be
       -0.13501279 -0.028305532 -0.02673508 -0.14075826
000380 1a 04 88 bd c8 6c 21 be c4 5d 61 3d 3e f6 01 bd
       -0.06641407 -0.15764153 0.055021062 -0.031728975
000390 9b 06 cc 3d 1b aa e7 3d fa 77 bc 3d 8b 0a a8 3d
       0.099621974 0.11311742 0.09202571 0.08205136
0003a0 87 01 58 bc cb cb 91 3d 2a 3f 25 3d 0c 6c a4 bd
       -0.013183958 0.071189485 0.04034344 -0.08028421
0003b0 c6 19 3e bd 1b b3 27 3e db 53 71 3d 65 6c 8d 3e
       -0.0464113 0.16376917 0.05891786 0.2762176
0003c0 fb 91 df 3d 23 96 ed 3c c7 74 26 3b 07 1b d3 3d
       0.109165154 0.029002255 0.0025399195 0.103078894
0003d0 09 81 9e be d7 f7 1a be fb b6 a2 bd c0 44 93 3d
       -0.3095782 -0.15133606 -0.07945057 0.071908474
0003e0 69 93 77 bd 7b c9 4a be a8 65 d6 3c 37 75 15 3e
       -0.060443316 -0.19803421 0.02617152 0.14595495
0003f0 4d e8 43 3e cb cd 08 3e 09 d7 0f bd dc 18 08 be
       0.19131584 0.13359754 -0.035117183 -0.13290733

bias f4 [64]
000000 3a 1a 53 b8 f5 0d 84 3b e1 e6 10 3c fd 2f 63 3a
       -5.0330746e-05 0.004029984 0.008844108 0.00086665136
000010 7a 2f 04 bc 41 6a db 3a fb 6f 2e bb 98 a4 c9 38
       -0.00806796 0.001674004 -0.0026617039 9.615085e-05
000020 39 c8 13 bb 9e e1 53 ba 8a d2 08 3a d6 27 50 ba
       -0.0022549762 -0.0008082631 0.0005219361 -0.00079405063
000030 6f 2e 0a bc fc b7 1e bc 79 b4 01 bb 6b 88 47 39
       -0.008433922 -0.00968742 -0.0019791408 0.00019028939
000040 a4 de f4 b9 33 9e 62 bb 2b 14 c9 3b c0 4c c9 39
       -0.00046705187 -0.0034579157 0.0061364374 0.0003839489
000050 47 66 e2 ba 37 3c 38 3c b8 75 48 bb 19 b1 e1 b5
       -0.0017272913 0.011244825 -0.0030587744 -1.6815349e-06
000060 45 fa 38 bc d1 1b 8b 3b c2 61 cf bb df e5 59 38
       -0.011290138 0.0042452593 -0.0063287923 5.1950916e-05
000070 83 a5 d9 3a 34 97 0c bc ca 01 64 bb 36 f5 92 bc
       0.0016605112 -0.0085809715 -0.0034791105 -0.017939191
000080 82 19 2e 3c 93 1a 20 bc 4f 98 36 3c 1b b2 f1 3a
       0.010626199 -0.009771961 0.011144712 0.001843992
000090 8d 08 88 b8 35 78 44 bc 1a 33 98 bb 44 7b 87 bc
       -6.486578e-05 -0.01199155 -0.0046447637 -0.01653827
0000a0 13 3d 10 bc 7c 60 4e bc b2 58 60 bc ad 55 f7 ba
       -0.008803624 -0.012596246 -0.013693022 -0.0018870138
0000b0 c0 be ab bc a0 8d 3f 3c 86 b8 36 3b 98 67 84 bb
       -0.02096498 0.011691481 0.002788098 -0.0040406696
0000c0 a3 6b c9 3b 4b 53 bf b9 40 bb 68 bc 5d bf c4 ba
       0.0061468645 -0.00036492417 -0.0142048 -0.0015010644
0000d0 a3 ed f7 3b c6 cd d5 ba d1 cb 01 b9 80 a1 33 bb
       0.0075661703 -0.0016311936 -0.00012378326 -0.0027409494
0000e0 5c 27 02 3b 0a 47 44 bb 67 8c 69 3b 28 e4 9d bc
       0.0019859886 -0.002994957 0.0035636665 -0.019273832
0000f0 67 1a c1 bc c9 9f 01 ba 51 44 b2 3a de d9 b8 ba
       -0.02357216 -0.00049447693 0.0013600682 -0.0014103015

weight f4 [64, 64]
000000 9a d5 2f be ff 3e 5a bd d1 f0 6a 3b 79 9c c1 be
       -0.17171326 -0.053282734 0.0035849104 -0.37814692
000010 67 0b 19 3e d8 8e 1a 3e 1b df 08 3d 6d 23 5c be
       0.14945756 0.15093553 0.033415895 -0.21497889
000020 71 f3 e5 3c b3 94 6e 3d 88 bc 90 bd 28 09 ab bd
       0.028070183 0.05824728 -0.070672095 -0.08351356
000030 82 83 a2 be 17 bc ef 3c 33 e3 11 3e 5f d6 39 3c
       -0.31740957 0.029264493 0.14246826 0.011342614
000040 78 05 7a be ab ab e7 bd d7 87 08 be 6f fe 58 be
       -0.24416149 -0.1131204 -0.13333069 -0.21190809
000050 5d bb a5 3b e8 7e fe bd 37 f5 58 be ce 34 d9 be
       0.005057736 -0.12426549 -0.21187292 -0.424231
000060 a4 9c 35 3d 25 92 bf 3d ea ed 33 3e 43 1b b9 be
       0.044338837 0.09354047 0.17571226 -0.36153612
000070 0e 3b b0 be 7d 02 25 3d 75 0b 6a be ab b4 17 be
       -0.34420055 0.040285576 -0.22855933 -0.14815013
000080 ee 84 13 3e 9a 50 18 bc 25 04 2f bd a6 d2 30 3d
       0.14406177 -0.009296561 -0.042728562 0.04316964
000090 44 23 0a 3e 7c 16 bd bc ff 29 77 3e 28 55 a6 bc
       0.13490015 -0.02308201 0.24137114 -0.020304278
0000a0 ef b0 50 3e dc 65 35 bd 5e 39 dc bc 96 b0 38 be
       0.20379995 -0.044286594 -0.026882824 -0.18036112
0000b0 16 59 d4 3d 53 10 d0 3d 36 1a 24 3e 50 b7 4c bd
       0.10368554 0.101593636 0.16025624 -0.049979508
0000c0 dc 83 35 3e ab 81 3e 3e 79 fa 77 3d ad fb 66 bc
       0.17726082 0.18604152 0.060541604 -0.01409809
0000d0 64 2b e3 be 60 f2 a9 3d 0a 5d 25 be 5c 14 44 3d
       -0.44369042 0.082981825 -0.16148773 0.04787098
0000e0 2b 94 33 bd 71 46 9e 3d bf 06 9c 3e 1d 78 6a be
       -0.043842476 0.077282794 0.30473897 -0.22897382
0000f0 19 b8 42 3e 04 19 35 be 90 71 85 3d 1e 60 9e 3e
       0.1901554 -0.17685324 0.06515801 0.30932707
000100 38 3d 21 bd a4 49 f0 bd 79 c6 ae 3d f3 84 b9 bd
       -0.039365023 -0.11732796 0.085339494 -0.09058561
000110 04 2e 11 be b8 85 cf bd 18 2d ca 3e 0c a4 04 3e
       -0.1417771 -0.10132927 0.3948753 0.12953204
000120 4e 18 61 bd d1 01 fb bb 7c a7 e1 3d c0 25 62 3e
       -0.05495482 -0.0076601286 0.11018273 0.22084713
000130 4a 61 3c be 7e 95 32 3c b2 5b ee be aa b0 b4 be
       -0.18396488 0.0108998995 -0.46554333 -0.35291034
000140 f5 51 9a bd 7e 95 b7 3c ce 1c 93 3b 73 cc 80 3d
       -0.07535163 0.02241015 0.004489518 0.062889956
000150 db 15 2c 3e ec 66 d5 be 3f 1d 75 3c b1 59 c5 3d
       0.16805212 -0.41680086 0.014960586 0.09636248
000160 53 66 2d bc 59 37 13 3e 4a e5 98 3d da 13 cd bd
       -0.010583478 0.14376582 0.074656084 -0.10013552
000170 70 b6 5f bc bc 64 44 be a1 56 38 bd d4 f7 dc 3d
       -0.013654336 -0.19179052 -0.04500449 0.10789457
000180 f0 08 5d 3d 74 3c 64 3d 41 7e 12 be 84 7b de 3c
       0.0539636 0.055721715 -0.14305975 0.027158506
000190 5e 8b 8f be fc 1d 36 3e 4f eb 04 be 0b b7 4f 3e
       -0.28036016 0.17784876 -0.12980388 0.20284669
0001a0 f8 9a 84 3e 5f a3 be bc 45 2f d5 bb 29 51 6d bd
       0.25899482 -0.02327126 -0.006505879 -0.05793873
0001b0 d9 bb 8e bd 26 d1 e6 bd c2 f5 eb bd 66 6e 33 bd
       -0.06969423 -0.11270361 -0.11521484 -0.043806456
0001c0 6c 32 09 be b7 20 f2 bd 5e ca 68 3e 1c 71 3a 3e
       -0.1339814 -0.11822646 0.22733447 0.1820721
0001d0 a0 78 f5 3b 4e cd a5 3d 6c 36 a7 3e db fb 36 be
       0.0074911863 0.080957994 0.32658708 -0.17869513
0001e0 07 56 a4 be 0c 45 11 3e 64 aa 13 be 5b e8 2b be
       -0.32096884 0.14186496 -0.14420468 -0.16787855
0001f0 59 44 77 3e b1 52 41 be d1 4a d6 3e 18 0d 9e bd
       0.24147166 -0.188792 0.41853955 -0.07717341
000200 21 f9 84 3e 9d fd b5 3b e0 04 31 3e 28 82 7e 3e
       0.2597132 0.0055539147 0.17287016 0.24854338
000210 62 5a ab 3c 0f c5 0a 3e 53 70 96 3e 29 fe 89 bd
       0.020917121 0.13551734 0.29382572 -0.0673793
000220 59 8a e1 bd e5 09 bf bd 38 21 88 bd a6 cc cf bd
       -0.11012716 -0.09328059 -0.06646961 -0.101464555
000230 96 5b de bd de b9 8b bd 39 7c b5 3c 11 6e 00 3e
       -0.108573124 -0.06822561 0.02215396 0.12541987
000240 d4 c2 f5 bc f9 45 c4 bd 6a d9 44 3e db 06 7f bb
       -0.030000128 -0.09583659 0.19223562 -0.0038913998
000250 ca 8d d0 bc 84 e4 34 3c 53 a6 d8 bd 43 5a 81 be
       -0.025458235 0.0110408105 -0.10578599 -0.25264177
000260 3c 70 15 3e 3c 36 d0 3d 09 34 32 be 55 7d a8 be
       0.14593595 0.101665944 -0.17402662 -0.3290812
000270 c7 83 b7 3d 34 0a b5 bd 2c 33 d9 3d e6 e1 b7 be
       0.089606814 -0.08839837 0.106054634 -0.35914534
000280 9d da 52 be 60 01 1d be 18 d1 1c be b4 3f af 3d
       -0.20591207 -0.15332556 -0.15314138 0.08557072
000290 77 14 c0 bd 17 2d 0d be d6 45 ad bd 9b b4 63 be
       -0.09378903 -0.13786732 -0.08460586 -0.22236864
0002a0 41 26 37 3c 7f 9b eb be 9a b7 d0 3c 2d 84 32 bd
       0.011178554 -0.46017072 0.025478173 -0.043583084
0002b0 f8 c2 f9 bd 5e b8 bf be d5 31 46 3d b9 eb 78 3d
       -0.121953905 -0.37445349 0.048387367 0.060771678
0002c0 52 55 ab bc b2 ca 96 3e db 40 bc bc 2b 9f 5c be
       -0.020914707 0.2945152 -0.022980144 -0.21545093
0002d0 12 34 dc bd 1f fc ae 3e f5 3a f7 3d d2 1c c9 bd
       -0.10752119 0.34176728 0.12071792 -0.0981995
0002e0 10 44 70 3e ad 08 fe bd dc 38 4e bc 2b 36 2d 3e
       0.23463464 -0.124039985 -0.0125867985 0.16915195
0002f0 25 6a e3 bd a1 86 51 3b 0e 42 82 3e ce a3 e1 be
       -0.1110423 0.0031971114 0.2544102 -0.44070286
000300 29 4c c6 3d ae 3f 2a 3b 08 1d a5 be b3 72 de bd
       0.09682495 0.0025977897 -0.32248712 -0.10861721
000310 15 ed 56 bd 65 ce b8 bd 5b b2 99 3d 35 22 63 be
       -0.052472193 -0.09023742 0.07504722 -0.22181018
000320 2a fe 9e 3c 24 12 58 3d 2a ab 2b 3d 65 90 df bc
       0.019408304 0.052751675 0.04191128 -0.027290532
000330 b3 83 61 3e e0 fa 8a bd f1 1a ac be f4 37 f3 3d
       0.22022896 -0.06786132 -0.33614305 0.118759066
000340 11 c0 7b 3e 9a 34 b7 3c 9d 75 cb 3e c4 65 88 be
       0.24584986 0.02236395 0.3973817 -0.2664014
000350 79 a4 48 bd 87 1a 21 3e b5 0d c4 3c 19 c1 33 bd
       -0.04898498 0.15732776 0.023932317 -0.043885324
000360 e9 ef 90 3a 61 1a 93 3e df f0 75 bd 70 d2 64 3d
       0.0011057827 0.28731063 -0.060044166 0.05586475
000370 a1 94 da 3d d0 17 eb bd 1c 53 93 bd 42 20 17 be
       0.1067288 -0.11479151 -0.07193586 -0.14758399
000380 cc 5e 39 bd 26 58 fa bd d0 8e 02 be 62 c7 0a 3d
       -0.04525642 -0.12223844 -0.12749791 0.033881553
000390 d0 e8 0a 3d f2 0a a7 be ee 64 0e 3e 5d 55 64 bd
       0.033913434 -0.32625538 0.13905689 -0.05574547
0003a0 3e 4e 5c 3e a7 3f e2 3e 4f b2 28 3d 25 06 bb 3a
       0.21514222 0.44189188 0.041185673 0.0014268799
0003b0 73 37 11 3b dc f2 37 be 22 91 b0 3c ed dc ee 3e
       0.0022158294 -0.17963737 0.02155358 0.46652928
0003c0 57 e4 db 3e 42 3d 0a 3e 2b dc 2d 3e 96 ce 67 3e
       0.42947647 0.1349993 0.16978519 0.226374
0003d0 47 0a e0 bc 2d 92 54 be 3b d3 16 3e 03 48 08 be
       -0.02734865 -0.20758887 0.14729016 -0.1330872
0003e0 41 8e ad 3d df 41 e1 bc 50 1f 37 bd 3d e4 5c 3e
       0.084743984 -0.02749723 -0.044707596 0.21571441
0003f0 dd ba 42 3e 2f 9c ab 3c 0d f8 5b 3d 19 4c 4d 3e
       0.19016595 0.020948498 0.053703357 0.2004856

bias f4 [64]
000000 ba 35 d3 bb 06 4f 18 bc 7c b3 b0 37 f0 1b f2 bb
       -0.0064456137 -0.009296184 2.1064414e-05 -0.0073885843
000010 49 2e 46 bc 91 bd 30 bc e1 bb 01 bb 5d 64 9d bc
       -0.012095996 -0.010787384 -0.0019795822 -0.019212896
000020 00 00 00 00 17 78 97 ba d3 8c 9c bb 49 78 24 b8
       0.0 -0.0011556175 -0.0047775297 -3.921267e-05
000030 71 7e 9a bb 13 c6 a8 bb 4e 43 1b bb 4c d0 a7 bb
       -0.00471478 -0.0051505654 -0.002369124 -0.0051212665
000040 e1 aa 92 38 c3 7a cd b8 8e d4 86 bc 4a eb 84 bc
       6.993651e-05 -9.798028e-05 -0.016458776 -0.016225476
000050 35 46 a9 37 f9 e0 bb ba 82 97 36 bc eb 20 ab ba
       2.0179063e-05 -0.0014334015 -0.011144521 -0.0013056075
000060 ca 0b 75 bc 00 00 00 00 00 00 00 00 de c5 47 bc
       -0.014956424 0.0 0.0 -0.012193171
000070 ae e7 42 ba c1 5f de bb a6 fc bb bb 6d e2 5f bc
       -0.00074350357 -0.006786317 -0.005736905 -0.013664824
000080 27 b3 04 bc 08 9f 07 bc 43 18 13 bc c0 5e b7 ba
       -0.008099354 -0.008277662 -0.008977952 -0.001399003
000090 46 a6 2a b8 dd 3b 88 b6 31 62 8d bc ac 5f 84 ba
       -4.0686013e-05 -4.060085e-06 -0.017258735 -0.0010099313
0000a0 4b 6f ac bb 5e e3 92 ba 08 a8 c6 bb 41 66 8e bb
       -0.0052622906 -0.0011206677 -0.0060625114 -0.0043456857
0000b0 a8 ff 7f bc ae 4b aa bc c0 4f a5 bb 90 0c 69 bc
       -0.015624918 -0.02078804 -0.0050449073 -0.014224187
0000c0 8b b9 43 bc 08 bb 42 3b 34 ec d1 bb d3 40 bb b9
       -0.011946092 0.002971353 -0.0064063314 -0.00035715717
0000d0 63 65 44 36 86 63 41 39 d8 74 60 bc e0 05 17 bb
       2.926529e-06 0.0001844299 -0.013699733 -0.0023044273
0000e0 ea ac 13 37 cd f1 51 37 da 40 63 bc 2d 59 23 bc
       8.8021425e-06 1.2513669e-05 -0.013870442 -0.009969992
0000f0 e1 d4 4a b9 87 43 2e b8 bf 77 c8 bb 2b 9e 64 bc
       -0.00019343525 -4.1547723e-05 -0.0061177905 -0.013953726

weight f4 [64, 119]
000000 f8 fa 1d 3d 7e 81 b9 bd 8f 6d 08 be 2a a5 a6 3c
       0.03856942 -0.09057902 -0.13323043 0.020342428
000010 08 a3 0c be fd d0 97 bd cf fa 03 be 98 b2 1a 3d
       -0.13734066 -0.07412908 -0.12888645 0.037767977
000020 1d 51 6a bd 4a 53 6a bb 40 f8 03 3d a4 61 41 bd
       -0.057206262 -0.003575521 0.03221917 -0.047212258
000030 02 f8 ff 3d 40 9a a2 3e f1 56 2e 3e ad 69 ee 3b
       0.124984756 0.31758308 0.17025353 0.007275781
000040 90 81 9f be 87 81 ec bb 2a ab 2e be 04 d5 bf 3d
       -0.31153536 -0.0072175893 -0.17057481 0.093668014
000050 76 74 dc bd 26 da 20 3e 91 a2 a0 3e f5 ba 66 bc
       -0.10764401 0.15708217 0.31374028 -0.01408266
000060 47 84 19 3e 33 7a 38 be d5 33 0a 3e 89 8a b7 3d
       0.14991866 -0.18015365 0.13496335 0.0896197
000070 b4 35 63 bd 83 6e 5e 3d 8e d4 a9 bd 52 07 6a 3e
       -0.055471137 0.05430461 -0.08292495 0.22854355
000080 2b 1d 2c be 0f 6a 04 3e 1a fe c8 3c 73 d8 d8 bd
       -0.16808002 0.12931083 0.024535228 -0.105881594
000090 99 9d 47 3d a3 4e 79 3e 33 57 01 be 63 49 ec bd
       0.04873428 0.24346404 -0.1263092 -0.11537435
0000a0 84 ea a1 be c0 ea 40 3c bc d2 f2 bd ad 54 91 3d
       -0.31624234 0.011774719 -0.11856601 0.07096229
0000b0 89 a7 9c 3d 52 f5 42 3e f4 58 81 bc ee 0d 90 3e
       0.07649142 0.19038895 -0.015789486 0.28135628
0000c0 0b 4d c8 3d e6 16 2c be f4 1c c1 3d 7d f8 49 bb
       0.0978032 -0.1680561 0.094293505 -0.0030818277
0000d0 25 8e 17 bc 99 74 af bd 8b 67 87 3d d8 59 37 3e
       -0.0092501985 -0.08567161 0.06611546 0.17905366
0000e0 22 9c 17 be 67 0e df 3b b4 6d 3d bd 21 a7 24 3e
       -0.14805654 0.006807137 -0.0462472 0.1607938
0000f0 63 f0 fc bb 60 52 35 be 38 e6 8f 3d 7f 9c 14 be
       -0.007719086 -0.17707205 0.070263326 -0.14512824
000100 4d 9f cf bd fc c5 ea 3c 6a f9 ae 3c 33 0c 16 be
       -0.10137806 0.02865886 0.021359164 -0.14653091
000110 d6 70 49 3e 3e 34 01 3d d0 b1 bf bd 51 65 54 bd
       0.1967195 0.031543963 -0.09360087 -0.051854435
000120 9a 91 8d 3d 68 70 31 3d d7 04 d3 3d 02 d3 e3 3c
       0.06912537 0.04332009 0.103036575 0.027810577
000130 19 70 25 3d 41 9b 1c be 24 a1 0b be e9 80 3b 3c
       0.040390108 -0.152936 -0.13635689 0.011444309
000140 51 bf 61 3d 9c cf e4 3d 73 f2 be 3d 3d 18 c6 bd
       0.055114094 0.11172411 0.09323587 -0.09672592
000150 6c ba 1d 3e 15 44 4b 3e 20 a9 87 3d 85 a3 0c bb
       0.15403146 0.1985019 0.06624055 -0.002145977
000160 c3 f9 29 3e ea f5 21 3e ec 14 42 3e 5d d2 a6 bc
       0.16599183 0.15816465 0.18953294 -0.02036398
000170 65 56 64 bd 14 bf 8e bd f7 6f e9 bd 6b 2d 1c 3e
       -0.055746455 -0.06970039 -0.11398309 0.152517
000180 d6 af 90 bc 21 56 1f 3e 87 69 e6 3c f2 4e 99 bc
       -0.01766197 0.155602 0.028126491 -0.018714402
000190 d1 6e b3 bd d0 69 87 bd 78 74 0d be 1e 02 3d 3d
       -0.08761371 -0.06611979 -0.1381396 0.046144597
0001a0 68 23 16 3d c5 a7 48 bd 5d cc ca 3d d5 b6 82 3e
       0.03665486 -0.048988122 0.099022605 0.25530115
0001b0 80 a0 e7 bd 54 8d 96 3c f2 59 02 bd 34 70 80 3d
       -0.1130991 0.018377937 -0.03182406 0.06271401
0001c0 6f 62 b9 3e 50 47 ce 3c 73 ff 36 3c d0 5f dd bc
       0.3620791 0.025180489 0.011169302 -0.027023226
0001d0 11 2c ff 3d 50 53 b7 3d 80 82 1f 3e ba 58 1b 3d
       0.12459577 0.089514375 0.15577126 0.037926413
0001e0 b0 de ef bc 60 b5 cc 3d 06 d4 19 be e0 af 94 bc
       -0.02928099 0.09995532 -0.15022287 -0.01815027
0001f0 61 88 d0 bd 88 5e 49 bd 06 97 e4 bd 79 af c1 3b
       -0.10182262 -0.049162418 -0.11161618 0.0059108105
000200 c7 7a 1b be c9 84 9b bd 2f 20 3b 3d be af cf bd
       -0.15183555 -0.07593686 0.04568499 -0.10140942
000210 0b 33 a0 3d d4 4a 7d bd c1 80 a8 3c 00 71 4e 3e
       0.07822236 -0.06183894 0.020569207 0.20160294
000220 15 e9 0d 3e 66 a4 8b 3e fe 91 48 3d 36 ce 63 bd
       0.13858445 0.27273864 0.048967354 -0.05561658
000230 d9 7e 25 3e 1f 23 a8 bc cf 5c cc 3d b8 28 06 3e
       0.1616167 -0.02052456 0.09978639 0.1310147
000240 1a 46 f7 3d 91 0c ce 3d cf 37 f1 3d 7c 1d 33 be
       0.12073918 0.100609906 0.11778223 -0.17491716
000250 2e 56 00 be 08 73 82 3d 46 84 73 3d 97 e2 df bd
       -0.12532875 0.06369597 0.059452318 -0.109318905
000260 50 ca cc bc 66 24 3a 3c c6 31 95 bd fc 17 58 bd
       -0.024998814 0.011361217 -0.07284884 -0.05275725
000270 2c 90 c4 bd 3b 12 5a 3d 55 54 86 bd 0e ca 04 bd
       -0.09597811 0.053240042 -0.06559054 -0.032419257
000280 99 79 32 3e a4 8e 67 bd b8 3f 5b 3e 31 f4 b8 3d
       0.17429198 -0.056532517 0.21411026 0.09030951
000290 32 b8 d0 3d 7b f4 0a 3e 89 66 52 3b 24 4f d9 3d
       0.101913825 0.13569824 0.0032104573 0.10610798
0002a0 40 59 13 3c 61 aa 87 3c 98 7d 03 be bd 5e 2f be
       0.008993447 0.016560735 -0.12840879 -0.17125984
0002b0 00 7a 59 3e d3 41 bb 3c 90 f9 c1 bd c6 64 4a 3e
       0.21237946 0.022858536 -0.094714284 0.19765005
0002c0 d2 3e 09 be dd b4 df bd 83 18 cd bd b2 6f 89 3d
       -0.1340287 -0.10923169 -0.10014441 0.06710757
0002d0 c1 98 8c bd 1c d5 a2 bd 47 26 e7 3d 1c 87 1a 3e
       -0.06865073 -0.07950804 0.11286598 0.15090603
0002e0 d3 2c 1a 3d 19 5d f1 3d 53 c2 73 3d 64 f5 ab 3c
       0.037640404 0.11785335 0.059511494 0.020991035
0002f0 78 49 04 3e f8 4c bc bc fe 44 22 be 7a f1 ce 3d
       0.12918651 -0.02298592 -0.15846631 0.10104652
000300 9b 2d 9d bd f3 e5 d0 3d b8 56 a5 bd 8f 32 47 bc
       -0.07674714 0.10200109 -0.08073181 -0.01215805
000310 8c 2e f2 be 4a 01 62 be a7 ec 87 3d 48 d0 5c 3e
       -0.47301137 -0.22070804 0.06636935 0.21563828
000320 29 89 05 3d fa 99 69 3e 28 fd af 3c a6 49 5c be
       0.03260151 0.22812644 0.021483019 -0.2151247
000330 c1 d9 2c b9 62 c6 cf bd 37 0e 28 be 0c f0 3a 3d
       -0.00016484318 -0.101452604 -0.16411673 0.045639083
000340 01 64 6e be 7a 51 da 3d 29 8c e8 3c 06 f4 12 be
       -0.23280336 0.10660072 0.028387146 -0.143509
000350 87 71 66 bc 50 5a 39 3e ed 41 05 3e 0f a5 de bd
       -0.014065153 0.18100858 0.1301343 -0.10871326
000360 5b 54 25 be d0 1b 5b be ac 8f 21 be ca ae 20 3e
       -0.1614546 -0.21397328 -0.15777463 0.15691677
000370 dc 3c b7 3d ad 14 0f be cd 00 39 be 89 dc e6 3c
       0.08947155 -0.13972731 -0.18066712 0.028181331
000380 96 7a 0a 3e 21 26 0b 3e b5 29 41 3e b1 7a bb bd
       0.13523325 0.13588764 0.18863566 -0.09154261
000390 72 da 05 3e 68 be 6a 3d 53 cb 9f 3c 86 75 88 3d
       0.13071612 0.05731049 0.019506132 0.06663041
0003a0 66 09 f3 3d 04 59 af bc 16 f8 e6 3d b3 c6 ac bd
       0.11867027 -0.02140475 0.112777874 -0.08436336
0003b0 b9 0a 45 3d 02 98 05 be e0 19 73 be 3d ea 02 bc
       0.04810593 -0.13046268 -0.2374034 -0.007990417
0003c0 db c5 4e 3e 62 07 2f be 4b 3f 06 be 87 37 e6 bd
       0.20192663 -0.1709266 -0.13110082 -0.1124106
0003d0 a7 be 89 be 85 6f 67 3d 19 45 57 be 1d e5 87 be
       -0.2690327 0.056502838 -0.21022452 -0.26541987
0003e0 1f cf 75 bd a3 7f 24 3e 7f a2 27 be c0 8d 21 be
       -0.06001198 0.16064315 -0.16370581 -0.1577673
0003f0 ae d0 81 bd 3d 3c b7 3d 5e 2c c8 3d 25 90 24 3e
       -0.063386306 0.089470364 0.09774087 0.16070612

bias f4 [64]
000000 ab ec c9 bc 74 34 8f bc 03 dd 71 bc 0b db 07 bd
       -0.024648985 -0.017481066 -0.014762166 -0.03316788
000010 b4 11 05 3b c0 cd 86 bb b6 6e a6 3b c0 da 16 bc
       0.0020304741 -0.004113883 0.0050791157 -0.0092074275
000020 73 23 c0 bb c7 d0 a1 bb 29 2e be 3b eb cb da bb
       -0.005863601 -0.0049382183 0.0058038426 -0.006677141
000030 f6 08 59 3c 22 e3 a8 bc 16 26 02 3d f5 62 99 bb
       0.013246765 -0.020616118 0.031774603 -0.004680986
000040 ff 70 30 3c 7d a9 ef ba 9d c8 b9 bc d7 3d 7f bc
       0.010769128 -0.0018284764 -0.022678668 -0.015578709
000050 ed fa be bc 48 99 ce ba a4 af 91 bc a0 e0 26 bc
       -0.02331301 -0.0015762234 -0.017783947 -0.010185391
000060 18 7c a1 ba 1a 75 5f bc d8 c9 6a ba b6 45 cc bc
       -0.0012320308 -0.013638759 -0.00089564687 -0.024935585
000070 7a 6d 53 bc c7 7a 58 bc 99 a3 19 3b fb ab 11 bd
       -0.012904519 -0.013212866 0.002344346 -0.035564404
000080 e8 9e b2 bc f7 ab af bb fc 31 bb bc c4 fb 08 bd
       -0.021804288 -0.005361076 -0.022850983 -0.033443227
000090 e9 57 f8 bc 40 7c ad 3c 59 5a bd ba 2c 1d f1 bc
       -0.030315356 0.021177411 -0.0014446481 -0.029432856
0000a0 f1 f5 13 bd 07 65 55 bc 68 a9 95 3c 5d c0 9f bc
       -0.03612322 -0.013024575 0.018269256 -0.019500906
0000b0 b6 b8 95 bc ad 9a bf bc bc 11 85 bc 6d 74 ee bc
       -0.018276554 -0.023389185 -0.016243808 -0.02910825
0000c0 87 f5 21 bd e7 f4 1c bc 27 3a 2c 3c af e9 f5 3b
       -0.039540794 -0.009579874 0.0105119115 0.007504664
0000d0 04 7a 12 bd 6d 4a 8e bc cd 21 2f 3c f6 b6 4e bc
       -0.035760894 -0.017369473 0.010689211 -0.0126168635
0000e0 49 f9 94 bc 60 7e d1 bc 52 00 03 bd 1d 3c c1 3b
       -0.018185275 -0.025572956 -0.031982727 0.0058970586
0000f0 00 38 87 bb 31 ac 09 bd 18 ec 63 ba 5f ac 55 bb
       -0.0041265488 -0.03361148 -0.00086945435 -0.0032603962

weight f4 [64, 64]
000000 df 2c 4d be b4 af f6 3c f8 1c 46 bd 51 67 1c 3e
       -0.20036648 0.030113079 -0.04836747 0.15273787
000010 91 35 19 bd e9 4b 28 3e db c4 d1 be 63 44 16 be
       -0.0374046 0.16435207 -0.409705 -0.14674525
000020 95 4c 33 be 84 51 92 be 65 34 e5 bc 93 e6 b3 bd
       -0.17509682 -0.28577816 -0.027979085 -0.08784213
000030 92 34 ac bd b0 dc dc 3d cc 4f fe 3d f4 5a 9b 3c
       -0.084084645 0.1078428 0.12417564 0.018964268
000040 e3 06 47 3d 5e fe de bb 8c a3 7f 3e ab 3b ce 3d
       0.048590552 -0.0068052253 0.24964732 0.100699745
000050 00 46 7a 3d a1 47 60 be 81 2e 1b be e5 16 d3 bd
       0.061101913 -0.21902324 -0.15154459 -0.10307101
000060 a3 a9 4e be 0f 19 df bd f3 e4 90 bd a7 0f 39 3e
       -0.20181899 -0.108934514 -0.070749186 0.18072377
000070 97 70 79 be 72 29 98 3d b8 97 76 3e be 74 8e 3e
       -0.24359356 0.0742978 0.24081314 0.27823442
000080 66 a7 66 be d8 70 b3 3d eb 3e 39 3e c5 3a bd 3d
       -0.22524795 0.087617576 0.18090408 0.09239725
000090 fa 0f 6c 3d 69 eb c3 be 8f 86 4a 3e 60 e7 51 be
       0.057632424 -0.3826554 0.19777893 -0.20498419
0000a0 32 5d 82 3e f0 b5 2e 3c 44 f5 56 3b 3d 02 94 bd
       0.25461727 0.0106634945 0.0032799998 -0.072269894
0000b0 3f a9 17 be 4f 4a 54 3e 04 15 2d bc 19 5d cd 3e
       -0.14810656 0.20731471 -0.010564093 0.4011009
0000c0 40 5a 4a 3e 4e eb b0 bd 62 04 ba 3d fb d0 3a 3e
       0.1976099 -0.08638631 0.09082867 0.18243782
0000d0 38 4b 64 3d 82 1b b3 be a0 75 0a be 72 36 f9 bc
       0.055735797 -0.34981924 -0.13521433 -0.03042147
0000e0 bb f1 9a 3e aa c4 d6 bd 03 c8 7a 3d de b7 4a be
       0.3026255 -0.104867294 0.061225902 -0.19796702
0000f0 c3 b6 04 be a0 f5 8c 3e 27 8a a8 bb 4b 4f af 3d
       -0.12960343 0.27531147 -0.005143422 0.08560046
000100 5e 95 26 3d 8f be 81 be d7 ed 40 bd c8 06 c2 bd
       0.04066979 -0.25340697 -0.04710182 -0.0947395
000110 04 38 c0 be b7 28 df 3c 04 1a 59 3d 98 71 3a 3e
       -0.37542737 0.027241094 0.053003326 0.18207395
000120 55 b4 d0 bd 80 e7 64 3e 05 c3 5e 3e 53 90 82 3e
       -0.101906456 0.22353935 0.21754082 0.25500736
000130 c8 f8 83 3c 18 da 12 3e 30 13 3c be dc 5d 26 3d
       0.01610984 0.14341009 -0.18366694 0.040616855
000140 a3 7e 70 3e 42 f3 ac 3e 7a de 39 3e e4 8b 5f 3c
       0.23485808 0.3377934 0.18151274 0.013644192
000150 70 1d 04 3d c9 bf af bd 1b 1f 18 3e 20 71 0c 3e
       0.032254636 -0.08581502 0.14855616 0.13715029
000160 d6 59 5b 3d 9b 46 84 3e c7 89 27 be a3 b3 65 bd
       0.05355247 0.25835118 -0.16361152 -0.056079518
000170 a3 15 81 3e c3 dc 93 b8 80 c5 8c 3d d2 b7 96 3e
       0.2521182 -7.050626e-05 0.06873608 0.2943712
000180 18 74 2d be 6e 1d 8b bd 95 47 88 be 45 e8 04 3e
       -0.16938818 -0.06792723 -0.26617113 0.12979229
000190 e3 9c a0 bb 9e 1c 2d be de 7e a0 3d 7f 76 c8 3c
       -0.004901515 -0.16905448 0.07836698 0.024470566
0001a0 16 df d8 bd 4d bb 95 3d fe 90 82 3e 7c 25 ae 3d
       -0.10589425 0.073111154 0.25501245 0.08503243
0001b0 e9 19 d3 bc 27 d0 2b be 04 a3 e0 bc 77 94 57 3d
       -0.02576919 -0.16778623 -0.027421482 0.05263182
0001c0 c8 6f 87 3e fb cb 8f 3e 0f cc 0e 3e e7 41 43 bc
       0.2645247 0.28085312 0.1394503 -0.011917568
0001d0 46 63 82 be a4 fe cb bd a7 7c 63 bd 70 b5 10 3e
       -0.25466365 -0.09960678 -0.0555388 0.14131713
0001e0 a9 0e 45 bb 6b 7f da bc ba 10 2d 3e 27 ef 40 3e
       -0.0030068553 -0.026672086 0.16900912 0.1884123
0001f0 7c fd 5e be 3f bd 98 bd 73 a0 ae be aa e1 4a bd
       -0.21776384 -0.07457971 -0.34106788 -0.049531616
000200 87 99 dc bd d8 bf 5a be b2 16 ba bb 2e 68 34 3e
       -0.107714705 -0.21362245 -0.005678975 0.17617866
000210 25 20 a1 3d 47 a1 05 be de 84 a9 3d 69 0e c7 bd
       0.07867459 -0.13049804 0.082772955 -0.097195454
000220 e7 53 a6 bc 8b 8f a7 bd 35 e7 2f bd f6 1b 13 be
       -0.02030368 -0.081816755 -0.042945106 -0.14366135
000230 a7 01 44 bc 4f b3 93 bd 04 3d a5 3d 7c 77 f0 3d
       -0.011963285 -0.07211935 0.080682784 0.1174154
000240 65 01 e5 3d 3d 5a a2 be fd e9 00 3f a8 4d 39 3e
       0.111819066 -0.3170947 0.5035704 0.1809603
000250 fa 1e 5e 3e de ed 85 bd 39 a0 8f 3d 22 0d 33 3e
       0.21691504 -0.0653951 0.07012982 0.17485479
000260 82 e5 66 be 80 2b 5f 3e e2 d9 35 be 13 c3 29 3d
       -0.22548488 0.21793938 -0.17758897 0.041445803
000270 75 12 43 be 76 ad a1 3e 9c a2 ad 3c 64 85 c2 bd
       -0.1905001 0.31577653 0.021195702 -0.094980985
000280 d5 0c 2a 3e 12 ea 44 be c2 27 fc bc 0d 37 38 3b
       0.16606458 -0.19229916 -0.030780677 0.0028108985
000290 fc c5 20 3d ce c8 0c bd 18 e1 4b be be a1 5c 3e
       0.039251313 -0.03437119 -0.19910085 0.21546075
0002a0 dd 9c 0c be 30 e9 00 3e 5d 39 38 3d fa 94 d2 bd
       -0.13731714 0.12588954 0.04497658 -0.10282321
0002b0 43 d6 83 bd 7d 33 18 be 55 56 85 be e9 6b 73 be
       -0.064373516 -0.14863391 -0.2604243 -0.23771633
0002c0 7a a4 fd bd 64 ac a0 bd c7 78 a4 3d 11 33 c1 be
       -0.12384887 -0.07845381 0.08030849 -0.37734273
0002d0 e3 38 72 be f2 3f 2d 3e ef 2a a9 3d f7 9f 6b be
       -0.23654513 0.16918924 0.08260142 -0.2301024
0002e0 9e 19 ff 3d be fb b5 ba 06 39 83 be d0 ba 89 bc
       0.12456058 -0.0013884229 -0.25629443 -0.016812712
0002f0 4d a9 e3 be be 18 9a 3e 43 1b 49 bc 33 ed ed 3d
       -0.44465104 0.30097002 -0.012274566 0.11617508
000300 e5 eb dc bb 75 d5 78 bc 43 d5 16 3e b2 f0 25 be
       -0.006741988 -0.015187611 0.1472979 -0.16205099
000310 da 0a 33 3e 6d 91 53 3e ef 8b 08 3d b4 d3 c1 be
       0.17484608 0.20660944 0.033336576 -0.3785683
000320 6c a1 3e 3e 2a ab fe 3c 27 56 ad be 03 6f 92 3d
       0.18616265 0.031087477 -0.33854792 0.0715008
000330 d9 77 09 3e 66 b5 ee bd da 58 a2 be 61 78 40 be
       0.13424625 -0.11655693 -0.31708413 -0.18795921
000340 1e eb a3 ba 36 5f 18 3e 39 75 5f 3e 18 6d 8d 3d
       -0.0012505983 0.1488007 0.2182206 0.069055736
000350 bc c2 ca 3c e2 04 50 3d af cb 23 be 0f 53 0c bd
       0.02475106 0.050785907 -0.15995668 -0.0342589
000360 37 87 52 bd 9b 9a 50 be dc 57 3b be 08 48 12 3e
       -0.051398482 -0.20371477 -0.18295234 0.1428529
000370 09 ca b2 3d 28 37 ac be 4b 42 cc 3e ed 6f 5e 3d
       0.087299414 -0.3363583 0.39894328 0.05430596
000380 7e 41 41 be 51 4b 9c 3d 56 b7 9d 3d 76 1a 89 3e
       -0.1887264 0.07631553 0.07700984 0.26778
000390 a0 ad 5c 3e 23 b6 33 3e da 24 0e be 96 9c 5e 3e
       0.21550608 0.17549948 -0.13881245 0.2173942
0003a0 ae 38 1a 3d c8 96 ea 3d a6 d6 46 3e 76 ec 67 3e
       0.03765171 0.114545405 0.1941782 0.22648796
0003b0 d9 b2 ab 3c 3c 1f 24 bd f9 ec 55 3d 36 6c 59 be
       0.020959305 -0.04006885 0.052227948 -0.21232685
0003c0 71 e4 0f be b5 98 74 bd da 70 bc 3d 6e 8b c4 3d
       -0.14051987 -0.059715945 0.09201212 0.095969066
0003d0 2d 85 a0 bd 66 e6 26 3e e6 ae d5 be 81 df 88 be
       -0.07837901 0.16298828 -0.41735 -0.2673302
0003e0 dc 17 8d bd c6 01 b1 3e 53 30 db 3d 45 9d 0d be
       -0.068893164 0.34571666 0.107025765 -0.13829525
0003f0 d6 f9 38 bd 90 3b 7b bd ad ed 01 be 1c ca cd 3d
       -0.045160137 -0.0613361 -0.12688322 0.10048315

bias f4 [64]
000000 22 44 be bc ab 93 38 3c ab 5f c1 bc 7c dc f0 3a
       -0.023225848 0.011265676 -0.023605188 0.0018376256
000010 00 00 00 00 80 ea b5 3a 43 01 94 3c eb a8 01 bd
       0.0 0.001387909 0.018067008 -0.031655233
000020 b9 98 33 3d be 57 9f bc 50 1c 5b 3c 67 6b af bc
       0.04384682 -0.019451018 0.013373449 -0.021413518
000030 ee 81 2c bc de 8b 54 bc 1b 85 4f 3a 6e 04 45 bc
       -0.0105290245 -0.0129728 0.00079162576 -0.012024982
000040 ea 8f 98 bc 03 37 e7 3b 43 d1 2b 3c 73 bd d4 bc
       -0.018623311 0.0070561185 0.010486904 -0.025969243
000050 92 94 34 bb 6d fc 8b 3b 57 56 9c bc a6 ef 8b bc
       -0.0027554375 0.004272035 -0.019084139 -0.017082047
000060 85 ef f8 bb 90 dd 09 bc 8f 1a 76 bc db e3 9c bc
       -0.0075969123 -0.008414641 -0.0150209805 -0.019151619
000070 95 47 dc bb ca 8a 62 bc 86 7d 45 bc 1a b2 29 bd
       -0.0067224004 -0.013827035 -0.012053853 -0.041429617
000080 d4 68 04 ba 09 f6 a3 b9 94 d7 12 bd 7e f5 e8 bc
       -0.0005051021 -0.00031273093 -0.035850123 -0.028437372
000090 fc 3f 8a bc 25 90 bd 3c 5e 13 21 bc bd f1 c5 bb
       -0.016876213 0.023140023 -0.009831278 -0.0060407803
0000a0 f6 32 6a bd 69 fc 5d bc 1a 53 cf bb 75 1b 12 bd
       -0.057177506 -0.013548949 -0.006327045 -0.035670716
0000b0 1b 7c 0c 3d bc a0 e5 bc 6b 98 47 3c bc 24 5b bc
       0.034298044 -0.028030746 0.012182335 -0.013375457
0000c0 39 6b 34 bc 71 32 29 bb 37 c7 8a 3b 35 e4 fa 3c
       -0.011011892 -0.002581742 0.004235174 0.030626396
0000d0 1d 99 22 bc d1 ca cb bb 43 17 cd 3b 2f f8 fa 3b
       -0.0099242 -0.006219246 0.0062588765 0.0076589803
0000e0 09 e1 e2 bc 43 2d ac bc 00 00 00 00 62 09 b3 bc
       -0.027695196 -0.021017676 0.0 -0.02185506
0000f0 7d 62 4d bc b3 8e 85 bc 80 de 9c bb 8a 32 37 3b
       -0.0125356885 -0.016303396 -0.0047872663 0.0027953708

weight f4 [1, 64]
000000 07 53 ac 3d d0 0f b4 3d f7 21 c2 3d 2c 82 da 3a
       0.08414274 0.087920785 0.094791345 0.0016670874
000010 e5 05 48 be 62 10 42 3b 78 ef 53 bd 18 84 7a bb
       -0.19533499 0.0029611816 -0.051742047 -0.0038225707
000020 80 99 c8 3d 2d c2 1a 3a 71 eb f3 bc e5 eb f7 39
       0.09794903 0.0005903568 -0.029775353 0.00047287266
000030 0f 26 82 bd 9f fd ad ba f6 db 49 bc 36 2b e9 3c
       -0.06354915 -0.0013274438 -0.012320509 0.028462987
000040 00 7b 88 3a 31 ab 7d bc b5 77 ae 3d 32 43 b9 3a
       0.0010412633 -0.01548271 0.08518926 0.0014134406
000050 33 54 0d 3b ba e9 62 3d ef 33 51 bb 08 5d 23 3e
       0.002156508 0.05539868 -0.0031921824 0.15953457
000060 7f 81 e4 3a 48 7e 01 be d7 ae 29 3e 17 cc 3f bb
       0.0017433612 -0.12645829 0.16570602 -0.0029265934
000070 e0 af 71 ba 4a 83 1f 39 f0 50 c5 b9 15 3f c5 3e
       -0.0009219628 0.0001521233 -0.0003763507 0.3852469
000080 eb 3f b1 3d 30 ff 17 3d 3c 1a d2 be 9f c7 4f be
       0.086547695 0.0371086 -0.4103564 -0.20290993
000090 db eb 16 3d 3d d1 37 bd 07 16 75 3d 7f 97 6f bb
       0.036846023 -0.04487728 0.05983546 -0.0036558805
0000a0 a5 64 72 be c5 4d 88 bd 80 00 14 bb 6b 54 8b be
       -0.23671205 -0.06655458 -0.0022583306 -0.27212843
0000b0 88 13 f6 bd e9 41 58 3d f8 3e b8 bb fc 1c 10 3e
       -0.12015444 0.05279723 -0.005622741 0.14073557
0000c0 ae f5 81 3b f9 40 89 3b 20 4e f1 bd 07 64 7f bd
       0.003966055 0.0041886535 -0.11782479 -0.062351253
0000d0 72 a1 79 bb 6c 16 0b 3b e6 bf 29 3e 14 bd bb 3c
       -0.0038090614 0.0021223081 0.1657711 0.022917308
0000e0 ce 14 48 3e 12 4c a1 bc 49 8a e9 3d 16 6f 60 ba
       0.19539186 -0.019689593 0.11403329 -0.0008561475
0000f0 bc 8e 7a 3c 65 e7 34 3e c3 f9 5e bc 6e 0d 59 bb
       0.01529282 0.17666395 -0.0136093525 -0.0033119577

weight f4 [5, 64]
000000 5b 9c 0a 3c b5 1f eb 3b d4 b0 bb b9 b8 6a 05 b3
       0.00846013 0.0071754106 -0.00035799167 -3.1063536e-08
000010 bc b2 0c 3c 56 d1 df bb cd f2 bd 3a d2 a6 54 bb
       0.0085875355 -0.0068303747 0.0014491916 -0.0032448065
000020 86 4d 32 b8 e6 31 3a b9 5a 8b 85 bb 88 0f a8 ba
       -4.2510706e-05 -0.00017756931 -0.00407545 -0.0012822011
000030 0f 1f 04 bb 6c c4 a0 bb 07 55 44 3a b4 05 0d b9
       -0.0020160114 -0.004906228 0.00074894767 -0.00013448932
000040 f4 68 17 ba be ce 05 3c 8d 1b 5a 3b b9 42 4d bb
       -0.0005775832 0.008166967 0.0033280582 -0.0031320287
000050 05 53 f6 b9 87 7d cd 3a a7 64 13 3c a3 30 56 bb
       -0.0004698263 0.0015677669 0.008996165 -0.0032682798
000060 40 ec 89 3c c4 d4 97 ba f7 7d e0 3a 6b 76 d5 3a
       0.016836286 -0.0011583795 0.0017127384 0.0016285902
000070 ee a4 b5 ba 36 7b 89 bb 40 53 89 3b 4a 54 f1 3b
       -0.0013858357 -0.004195596 0.0041908324 0.0073647844
000080 67 ac 72 ba 44 78 38 3c 82 26 8d 3b 25 90 ef 3b
       -0.00092572573 0.011259142 0.004307569 0.0073108845
000090 3b 23 79 ba 6f ed 18 bb f2 88 36 3c 00 21 07 39
       -0.0009503846 -0.002333488 0.011141049 0.00012886897
0000a0 ed 62 59 3c 46 57 71 3c e1 90 f6 3b e4 f4 6a 3c
       0.013268215 0.01473028 0.007524595 0.014340613
0000b0 e7 7a 3d bb 31 89 09 3c 4c 94 36 3b 85 c7 0f bc
       -0.0028912367 0.008394525 0.0027859388 -0.0087755965
0000c0 77 fc 16 3c 72 db 8b bc 34 6d 98 bc 68 22 06 bc
       0.009215466 -0.017072413 -0.01860676 -0.008186914
0000d0 28 3f 82 3a c0 f6 73 3b ad 53 34 bb be b1 72 bc
       0.0009937035 0.0037225932 -0.0027515695 -0.014812885
0000e0 7d 20 bd 3a 03 44 7c bb ac 1f ac ba c2 af cc 3a
       0.0014429238 -0.0038492687 -0.0013131998 0.0015616345
0000f0 2c 1e 85 3a df ff 0c 3b 3a 8b 5e bb c8 8d 28 bc
       0.0010156087 0.0021514816 -0.0033957497 -0.0102877095
000100 8a 1c 1c bc 13 c1 e6 3b df 20 e2 b9 9e 1a 21 3b
       -0.009528289 0.007042059 -0.0004313057 0.0024582515
000110 09 6b 8a bc ba 9b 73 3c 38 69 39 bc 4c 21 d3 3a
       -0.016896741 0.014868671 -0.01131659 0.0016107946
000120 25 52 2c 3b ab b8 0d 3c 0c 8c 22 bc 8c c5 03 bb
       0.002629408 0.008649985 -0.009921085 -0.002010676
000130 40 7f 33 3b 2b f9 cf bb f3 c0 4e bc 12 0c dd bb
       0.002738908 -0.006346842 -0.012619245 -0.0067458237
000140 26 e5 e0 3a 83 a0 9e 3b e8 48 53 3c d8 c2 c6 3a
       0.0017158135 0.004840912 0.0128958 0.0015164269
000150 23 35 7b ba 84 64 19 bc 97 ff 0b 3b 3c 03 2b 3c
       -0.0009582808 -0.009362344 0.002136206 0.010437783
000160 e3 e4 f8 bc 62 74 5c ba 19 d0 1b bb 73 88 cf bb
       -0.03038258 -0.00084096764 -0.002377516 -0.0063334047
000170 96 8f bb 3b 7e 64 54 bc 47 ba 0b bc b6 5e dd bc
       0.005723904 -0.012963412 -0.008528299 -0.0270227
000180 6b 77 04 bb 9c c5 95 bc 4c 61 5f 3b bf b7 15 b9
       -0.002021278 -0.018282704 0.0034085093 -0.00014278198
000190 c8 7a 1c b9 4e fb ff 39 06 f5 b6 bc 17 f3 b9 3b
       -0.00014923059 0.00048824627 -0.022333633 0.0056747305
0001a0 e3 fb 00 bd fd b6 24 bb 40 bb 28 3b 86 57 92 bb
       -0.031490218 -0.0025133484 0.0025746375 -0.004466
0001b0 b8 5f d7 38 32 fb f3 ba 54 9c 93 3b 08 dc 8b 3c
       0.00010269828 -0.0018614291 0.0045047197 0.017072693
0001c0 dd b0 7a bb 54 5d 1e 3d a3 e2 9f 3c 20 d3 a6 b9
       -0.0038252391 0.038663223 0.019517248 -0.00031819288
0001d0 eb ae 9b 39 bc 79 c6 bb f4 6b 07 3b 0e 69 25 bb
       0.00029694228 -0.0060569923 0.002066371 -0.002523962
0001e0 96 80 0d 39 5b 61 73 ba f0 0b d7 3b d3 f2 8e 3b
       0.0001349471 -0.00092842215 0.0065627024 0.004362443
0001f0 fe c0 84 ba d6 55 89 3b 09 62 06 3b f3 24 30 3c
       -0.0010128317 0.0041911406 0.002050521 0.010750997
000200 dc 2f 1e 3c 47 6c d1 bb 76 2d cd b8 48 ab aa bb
       0.009654965 -0.0063910815 -9.7836295e-05 -0.0052084066
000210 9a 50 e5 3a b5 13 ca bb 7a 1e 13 3c 3e e1 33 38
       0.0017495335 -0.0061669 0.008979434 4.28867e-05
000220 20 c7 81 ba 96 17 d5 bb 29 d8 0c 3c d2 cc 2d b9
       -0.0009901263 -0.006503056 0.0085964585 -0.00016574867
000230 84 a1 16 bb e8 e4 6a 3c 3d a6 2b bc 6c ea 9a bb
       -0.0022984454 0.014336802 -0.010476646 -0.0047276523
000240 9e 10 3d 3b 68 25 ab bb c1 66 b6 bb 76 66 d6 ba
       0.0028849016 -0.005222965 -0.0055664484 -0.001635744
000250 3a fb 0f ba 93 78 a5 bb d3 28 c1 ba 69 2d 81 3b
       -0.0005492453 -0.005049774 -0.0014736898 0.003942181
000260 2c 1f 50 3c c0 bc 95 b9 2a ed 98 39 35 4a 74 3b
       0.012702744 -0.00028560124 0.000291684 0.0037275676
000270 5a 21 79 3c ba 43 c4 39 45 91 09 bb 0e 23 ff 3b
       0.015205706 0.00037434493 -0.0020991128 0.0077861613
000280 3e 80 1d 3b 6e 72 76 3b 20 40 d8 3a 5c 1f ba bb
       0.0024032737 0.0037604827 0.0016498603 -0.005680008
000290 b1 9a 37 3a c2 b5 33 bb 00 b2 30 3b 32 65 60 ba
       0.0007003947 -0.0027421569 0.0026961565 -0.0008560001
0002a0 70 1f 5d 3c 7c 77 11 3a 65 98 e9 bb 2c f2 fc ba
       0.013496265 0.00055491156 -0.0071287625 -0.0019298247
0002b0 b9 3d a3 3b ce 72 50 3b a3 1f 37 3a 04 fa 7f bb
       0.004981723 0.003180671 0.000698561 -0.0039058933
0002c0 c5 3f 18 3b 93 63 94 bc 24 eb 93 bc 0d 61 1a 3c
       0.002323137 -0.018113887 -0.01805646 0.009422553
0002d0 7f 5b 00 3a fb 7d ea ba dd 1d 98 3a 06 d1 3b 3c
       0.00048964465 -0.0017890328 0.001160558 0.011463409
0002e0 fb b3 93 39 8d f9 91 3a 6b 6f 01 3b 68 81 6f bc
       0.0002817212 0.0011136994 0.0019750248 -0.014618255
0002f0 7e c8 b7 3b b5 66 93 bb 2f 7c 90 3b b2 40 da bb
       0.0056086173 -0.0044983276 0.004409335 -0.0066605443
000300 2f 92 24 3c ba b6 50 3b 54 49 29 bb 15 4b 0d 3b
       0.0100446185 0.0031847195 -0.002583106 0.0021559645
000310 23 84 1b 3b 3e 2b 0a bc 61 87 21 3c 5d 61 6d 3a
       0.0023729883 -0.008433161 0.009858937 0.0009055341
000320 b0 e5 39 ba 74 b6 21 ba 7e 67 af 3a 42 30 18 3a
       -0.0007091416 -0.000616885 0.0013382284 0.0005805531
000330 7d 9a 77 3b a4 d9 05 bc 5a ce 42 3c 43 a3 c9 3b
       0.0037781291 -0.008169565 0.011890018 0.0061534955
000340 29 19 8f bb fe 07 c1 bb 54 e7 33 bc ca 90 5f 3a
       -0.004367013 -0.0058908453 -0.010980446 0.000852835
000350 1a 51 7c 3b 23 3a 2e 3c d8 15 42 bc 3a b5 62 bc
       0.0038500489 0.010633978 -0.011846028 -0.013837153
000360 86 08 ac 3b 2d 76 45 b9 21 dd 23 3a 8a e0 01 3c
       0.0052500395 -0.00018831408 0.00062509073 0.007927069
000370 63 9f df bb e3 9a ac 39 a3 5f 2c 3c 62 fd 05 3c
       -0.0068244203 0.00032921796 0.010520848 0.008178087
000380 f9 75 57 b9 2b 76 7a 3c 1a 2f 90 bc aa fa 8d bb
       -0.00020547946 0.0152869625 -0.017600585 -0.00433286
000390 1f 8f 7c ba a9 b8 a9 3a 3e 21 79 3a 7a a5 a8 ba
       -0.0009634364 0.001294871 0.00095035497 -0.0012866699
0003a0 08 74 0b ba bb 64 f5 bb e8 2a 7c 3b 08 7a 5c bc
       -0.0005319719 -0.0074888146 0.0038477723 -0.013456829
0003b0 3b 57 e4 3a b4 21 3a 3b 6f 5e 63 bc 54 a9 8b bc
       0.0017421016 0.0028401436 -0.013877495 -0.017048515
0003c0 97 36 dd bb cb 7d 9c bc ea a5 5f bc 58 a7 8d 3c
       -0.0067508924 -0.019102952 -0.013650397 0.01729171
0003d0 98 16 ac ba ce a9 ae 3b 3e 18 a7 3a 83 60 d4 3b
       -0.0013129292 0.005330301 0.0012748314 0.0064812317
0003e0 20 93 7d ba f3 97 08 bb 3e a5 5c bc 5b 00 89 38
       -0.00096731074 -0.0020842522 -0.013467131 6.532735e-05
0003f0 d5 bf 9e bb 5c d3 86 b9 bc e4 98 3a a4 1c 7b bc
       -0.0048446455 -0.00025715947 0.0011664848 -0.015326653

bias f4 [5]
000000 04 a6 56 bc a0 f6 c8 bb df 2c 75 bc 0a 8e 0f bc
       -0.013101105 -0.0061329156 -0.014964311 -0.008761892
000010 89 2d 24 bc
       -0.010020622
