model/tiny-2ag/A2C/model_agent1_seed2.pt (torch, 101825 bytes, 11 tensors)

weight f4 [64, 119]
0	0x3cd86616	0.026415866
1	0xbdc90dff	-0.09817123
2	0x3c315583	0.01082361
3	0x3af4d736	0.001867986
4	0xbe5159ac	-0.20444363
5	0xbaf76330	-0.0018874165
6	0x3e25f77b	0.16207688
7	0xbdb44658	-0.088024795
8	0x3d89859b	0.06714936
9	0x3e210b1a	0.15726891
10	0xbc9dfbf5	-0.019285182
11	0xbd20860c	-0.039190337
12	0x3e598636	0.21242604
13	0x3d7db5bf	0.061940905
14	0x3e7a12a9	0.24421181
15	0x3c7327a6	0.014840996
16	0xbcde501b	-0.027137807
17	0xbd9447a1	-0.07240225
18	0xbd82deba	-0.06390138
19	0xbe076bfe	-0.1322479
20	0x3e250b4c	0.1611759
21	0xbd5c4ccc	-0.053784177
22	0x3d7ec89b	0.06220303
23	0xbe310b49	-0.17289461
24	0xbe110bac	-0.14164609
25	0x3d49aa0e	0.049234442
26	0xbdcf7f24	-0.10131672
27	0x3dcbd704	0.0995312
28	0xbde3e975	-0.11128513
29	0xbd0fde19	-0.03512392
30	0xbde4f933	-0.111803435
31	0x3cf7b9f2	0.030240033
32	0xbe34d08a	-0.17657676
33	0xbd0381db	-0.03210626
34	0xbc290aa2	-0.0103174765
35	0xbe4e2f19	-0.20135154
36	0x3e0e8ace	0.13920137
37	0x3e21de4e	0.15807459
38	0xbdf3c4a6	-0.11902742
39	0x3db1a94f	0.08674871
40	0xbe2bde6d	-0.16784067
41	0x3d709488	0.0587354
42	0x3e132251	0.1436856
43	0x3e586005	0.21130379
44	0xbe867958	-0.26264453
45	0xbdf0d7b1	-0.1175989
46	0x3d2c36af	0.042044338
47	0xbd6dad0f	-0.05802637
48	0xbe8c0ba8	-0.27352643
49	0x3d63222a	0.055452503
50	0xbdc2b605	-0.09507374
51	0x3c37b2bb	0.011212046
52	0xbe0ada24	-0.13559777
53	0xbba16739	-0.004925635
54	0x3dcd3b7f	0.100211136
55	0xbda08782	-0.07838346
56	0xbdbbcf27	-0.091703705
57	0x3cde5656	0.027140778
58	0xbdd76ea7	-0.10519152
59	0x3e1ea37f	0.15492056
60	0x3e848c0e	0.25888103
61	0x3d83cb59	0.0643527
62	0x3ca3cb16	0.0199943
63	0x3d8c39e7	0.068469815
64	0x3c09830e	0.008393062
65	0x3dfb664a	0.122753695
66	0x3e716f51	0.2357762
67	0x3c4f4d98	0.012652777
68	0xbe8ccbaa	-0.27499133
69	0x3d67c529	0.05658451
70	0xbe2708ef	-0.16312002
71	0xbce90594	-0.028445043
72	0xbe49ddff	-0.19713591
73	0xbeb42383	-0.35183343
74	0xbe2aad14	-0.16667587
75	0x3e09bea7	0.13451634
76	0x3e14edef	0.1454389
77	0xbd5e565e	-0.054281585
78	0x3c52af1f	0.012859135
79	0x3ca45ed2	0.020064745
80	0xbd3ab0c6	-0.04557874
81	0x3cfe2a15	0.031025926
82	0x3d902388	0.07038027
83	0x3de96cfc	0.1139774
84	0x3e24d11c	0.16095394
85	0xbe8aa549	-0.27079228
86	0x3d5cee41	0.053938154
87	0x3cfdf6cf	0.031001477
88	0x3dccd560	0.100016356
89	0x3be3259c	0.0069319736
90	0x3e7a68cc	0.2445404
91	0xbd55226b	-0.052034777
92	0xbdfa3fc0	-0.122191906
93	0xbe8272ab	-0.2547811
94	0xbd2af26c	-0.041735098
95	0x3d1af922	0.037835248
96	0x3c829458	0.015939876
97	0x3df0a18d	0.11749563
98	0x3bbb4306	0.005714777
99	0xbe84ba7e	-0.25923532
100	0x3e587cd4	0.21141368
101	0x3db1d906	0.08683972
102	0xbd8f7aa3	-0.07005813
103	0x3e6acbac	0.22929257
104	0xbcf8e4e1	-0.030382575
105	0x3deebdec	0.116573185
106	0x3c4dd6e5	0.012563442
107	0x3d82cc2f	0.06386601
108	0xbde83851	-0.113388665
109	0xbdf9ac8a	-0.12191112
110	0x3e3acb14	0.1824153
111	0x3d34e1ee	0.044160776
112	0xbe194fd4	-0.14971858
113	0xbd3b7988	-0.045770198
114	0x3ccf8ecc	0.025336646
115	0x3e275a5f	0.16343068
116	0x3d9f0c13	0.07765975
117	0x3d4c535e	0.049884193
118	0xbe219230	-0.15778422
119	0x3c5a975f	0.013341754
120	0x3c98af86	0.018638384
121	0x3db8c7a1	0.09022451
122	0xbe0fc979	-0.140417
123	0xbdb629eb	-0.08894714
124	0xbe2fa80e	-0.17153952
125	0xbda48c88	-0.08034617
126	0xbd0cf847	-0.034416463
127	0x3d84f6a4	0.064923555
128	0xbb842318	-0.004032504
129	0xbc3b7900	-0.011442423
130	0xbd873dfc	-0.066036195
131	0x3d084177	0.033265557
132	0xbe4eaf7f	-0.20184134
133	0xbe588440	-0.211442
134	0x3dc0cf19	0.09414501
135	0x3cad474a	0.021152157
136	0x3e4f0bc0	0.20219326
137	0xbe38567a	-0.18001738
138	0x3c62621a	0.013817335
139	0xbc2c04ce	-0.010499192
140	0xbe4c6aab	-0.19962566
141	0x3cac5d30	0.021040529
142	0xbd946342	-0.072454944
143	0x3d5a81ee	0.053346567
144	0x3e40ef08	0.18841183
145	0x3cd4559f	0.025919734
146	0xbd019db7	-0.03164455
147	0xbe81d150	-0.25355005
148	0xbe37a17f	-0.179327
149	0x3dcbe7f4	0.09956351
150	0x3e4e3088	0.201357
151	0x3c8e41c1	0.017365338
152	0xbdbbeb3f	-0.09175729
153	0xbda34667	-0.079724126
154	0xbc928cc0	-0.01788938
155	0x3c78ec2b	0.015193026
156	0xbe71746a	-0.23579565
157	0x3c4fc646	0.012681549
158	0xbe183c76	-0.14866814
159	0xbd601833	-0.05471058
160	0xbe5482f5	-0.20753081
161	0x3d9b02b2	0.075688735
162	0xbe4e7390	-0.20161271
163	0x3d449ac8	0.047999173
164	0x3d40acbc	0.047039732
165	0x3ca055ed	0.019572223
166	0x3e7d64de	0.24745509
167	0xbdf15106	-0.11783032
168	0xbbd17b35	-0.0063928613
169	0x3e1b69de	0.15177104
170	0xbd1f388b	-0.038872283
171	0x3c9c4339	0.019075023
172	0xbd31cf92	-0.043410845
173	0xbcc0c963	-0.023533529
174	0x3e0fffa4	0.14062363
175	0x3d0cfd59	0.0344213
176	0x3d95d5c4	0.07316163
177	0x3d195915	0.03743847
178	0xbdd32d42	-0.103113666
179	0x3cd24972	0.025669787
180	0xbe0e00d8	-0.1386751
181	0x3dfb1154	0.122591645
182	0xbe2d8a6f	-0.1694734
183	0xbe05739b	-0.13032381
184	0xbd729422	-0.0592233
185	0xbcd320f8	-0.025772557
186	0xbdfa7311	-0.122289784
187	0xbe0468ff	-0.12930678
188	0xbe8471e0	-0.2586813
189	0xbe0dc9eb	-0.13846557
190	0xbe0e2627	-0.13881741
191	0xbda0dc6a	-0.07854541
192	0xbe491ace	-0.19639131
193	0xbd827b6a	-0.063711956
194	0xbe64581a	-0.22299233
195	0x3e8534a7	0.26016733
196	0x39ad4df0	0.000330552
197	0x3e59bc45	0.21263225
198	0x3dd7b699	0.105328746
199	0x3e790565	0.24318464
200	0xbc760456	-0.015015682
201	0xbdae0a8a	-0.08498104
202	0xbdf4d675	-0.11954967
203	0x3d7c0281	0.061525825
204	0x3dcf3341	0.10117198
205	0xbd158e92	-0.03651292
206	0xbe5b8a8f	-0.21439575
207	0x3c0cdb78	0.008597247
208	0x3db9474b	0.09046801
209	0x3ceda0f4	0.029007412
210	0x3e235192	0.15949085
211	0xbe46c9a1	-0.19412853
212	0x3d520ccf	0.051281746
213	0x3d5730d8	0.052536815
214	0xbe607932	-0.21921232
215	0x3de44363	0.111456655
216	0xbe06f543	-0.13179497
217	0x3e3fe029	0.18737854
218	0xbcc927bc	-0.02455508
219	0x3e348dff	0.17632292
220	0x3bdc1b21	0.006717101
221	0x3e2b7d01	0.16746904
222	0xbce7e816	-0.02830891
223	0x3e24139e	0.16023108
224	0x3c1cc297	0.009567878
225	0xbeb12a45	-0.34602562
226	0xbe402e87	-0.18767749
227	0xbe7a008b	-0.2441427
228	0xbe0e43a9	-0.13892998
229	0x3e27a7a4	0.16372544
230	0xbde7a840	-0.11311388
231	0x3d9cf314	0.07663551
232	0x3d83d3e6	0.06436901
233	0xbdd812a9	-0.10550434
234	0x3c3c4e83	0.011493328
235	0xbdc7e65b	-0.09760734
236	0x3dd56873	0.10420313
237	0xbd9bcbcd	-0.07607231
238	0xbccba5e2	-0.024859373
239	0xbe153295	-0.14570077
240	0x3cb87fbc	0.022521846
241	0xbdaa5917	-0.08317774
242	0xbed628eb	-0.41828093
243	0xbe51b389	-0.20478643
244	0xbc502b86	-0.012705689
245	0xbe39fd46	-0.18163022
246	0xbe647696	-0.22310862
247	0xbe139f8c	-0.14416331
248	0x3cc49bc0	0.024000049
249	0xbdfd17f1	-0.12358082
250	0xbdf3f9a6	-0.11912851
251	0x3e2bfd1b	0.16795771
252	0x3e009791	0.12557818
253	0xbd1c768b	-0.03819899
254	0xbd109dff	-0.035306927
255	0xbe611a88	-0.21982777

bias f4 [64]
0	0x3a7dc013	0.00096798054
1	0x3ab5d7b7	0.0013873492
2	0xb98df015	-0.0002707249
3	0xb8ea1edb	-0.00011163737
4	0xbbac1f2e	-0.0052527403
5	0x39a555f0	0.0003153528
6	0xbb92f81f	-0.0044851447
7	0xbc68ca3c	-0.014208373
8	0x3aa982a8	0.0012932615
9	0xbbb8241f	-0.0056195403
10	0xbbb71116	-0.0055867536
11	0xb6706eca	-3.5827275e-06
12	0xbcbedb61	-0.023297967
13	0xbb7e5066	-0.0038805245
14	0x37f0dc53	2.8712826e-05
15	0xbb99c84d	-0.004693067
16	0x38ef4353	0.00011408948
17	0xbb96ed0b	-0.0046058944
18	0xba211608	-0.00061449455
19	0xbc3d1565	-0.011540745
20	0x3ab344b4	0.0013677091
21	0xb72e4ffd	-1.0389832e-05
22	0xbc0b266e	-0.008493049
23	0xbc9a8f5c	-0.018867187
24	0xbc00ea26	-0.007868325
25	0xbcad1950	-0.021130234
26	0xbbea4e09	-0.007150416
27	0xbcc7a234	-0.024369337
28	0xb8ab0ae8	-8.155947e-05
29	0xba8a67ed	-0.0010559537
30	0x38b7fe8c	8.773533e-05
31	0xb8776210	-5.8980717e-05
32	0xb9f3b0da	-0.00046480336
33	0x3bb1718f	0.0054151486
34	0xbbc42bae	-0.0059866523
35	0x3baffbd8	0.0053705983
36	0xbbb42e1a	-0.00549866
37	0xbc2bc537	-0.010484031
38	0xbc5eed45	-0.013606374
39	0x38ccb63f	9.761424e-05
40	0xbbe0408f	-0.0068436335
41	0xbbfc091e	-0.0076915165
42	0xbae6bb2b	-0.0017603388
43	0x00000000	0.0
44	0x3aa0059a	0.0012208701
45	0xbbfb9e6b	-0.007678797
46	0xbaccb8ff	-0.0015619098
47	0xbc72e62c	-0.014825385
48	0xbc4d5d5b	-0.012534465
49	0xb9bc8a4d	-0.00035961196
50	0xbc5fdf21	-0.013664038
51	0xbb94b90d	-0.0045386613
52	0xbac1433f	-0.0014744772
53	0xba6dbb49	-0.000906874
54	0xba973f43	-0.0011539239
55	0xbc4e259b	-0.012582208
56	0xbbfbc481	-0.007683337
57	0x39d78c6e	0.00041112624
58	0xbc047bb2	-0.008086132
59	0xbb3dae2e	-0.002894293
60	0xbc13546e	-0.008992298
61	0xbc5b06d3	-0.013368326
62	0xbb920503	-0.004456164
63	0x39b5ab54	0.0003465066

weight f4 [64, 64]
0	0xbda8354a	-0.08213289
1	0x3d96030f	0.07324802
2	0xbe57464e	-0.21022913
3	0xbed57b3d	-0.41695586
4	0xbe0333a4	-0.12812668
5	0xbd33c7b7	-0.043891635
6	0xbe3c994c	-0.18417853
7	0x3c6fb02c	0.014629405
8	0xbd86a77c	-0.06574914
9	0x3e904217	0.28175423
10	0x3df0aa6e	0.11751257
11	0x3e529046	0.20562848
12	0x3d237930	0.039910495
13	0xbe3b4b40	-0.18290424
14	0x3d8fa67d	0.07014177
15	0x3de04171	0.10949982
16	0x3e33062c	0.17482823
17	0xbe3a0cfc	-0.18169016
18	0x3b6789b6	0.0035329885
19	0x3dc8ff8d	0.098143674
20	0xbe84e1d6	-0.2595355
21	0xbe523d89	-0.20531286
22	0x3d897f13	0.067136906
23	0xbea912e6	-0.3302223
24	0x3d922226	0.071354195
25	0x3de30df9	0.110866494
26	0xbd7859d0	-0.060632527
27	0xbebca746	-0.3684637
28	0xbe6fe5cb	-0.23427503
29	0x3e3b01c0	0.18262386
30	0x3e5a82b5	0.21338923
31	0xbe738a0e	-0.23783132
32	0x3d8947d3	0.067031525
33	0xbd850447	-0.064949565
34	0x3e3c46a9	0.1838633
35	0x3d80ac00	0.062828064
36	0x3e8e51cb	0.27796778
37	0x3e83f73e	0.25774568
38	0x3e9796b7	0.29607174
39	0x3db3e306	0.08783536
40	0xbe8086f0	-0.2510295
41	0xbbf41d83	-0.007449807
42	0xbe94f2ad	-0.29091397
43	0x3ebbe1a9	0.36695603
44	0xbe859161	-0.26087478
45	0x3dff936c	0.1247929
46	0xbe091b2f	-0.13389276
47	0x3cf04932	0.029331777
48	0xbd81bc24	-0.06334713
49	0xbe1bf204	-0.1522904
50	0xbddfb9bb	-0.10924097
51	0x3d909b40	0.070608616
52	0x3e8c70b1	0.27429727
53	0xbd7aa4c0	-0.061192274
54	0x3c86a962	0.01643819
55	0xbddd2038	-0.10797161
56	0x3c817b18	0.015805766
57	0x3d21b9c2	0.039483793
58	0x3db6b7cd	0.08921776
59	0x3be05614	0.006846199
60	0xbdac25fc	-0.084056824
61	0xbdba75f4	-0.09104529
62	0xbe1bf782	-0.15231135
63	0x3e2c9ec5	0.16857441
64	0x3dcc4d0e	0.099756345
65	0xbdc0c491	-0.09412492
66	0x3e1d84dd	0.15382715
67	0xbe8d8374	-0.27639353
68	0x3d940ae9	0.072286434
69	0xbe41f82b	-0.18942325
70	0x3e1ac63c	0.15114683
71	0x3e59bbdf	0.21263073
72	0xbe0e2beb	-0.13883941
73	0x3d2c6ac3	0.042094003
74	0xbe415807	-0.18881236
75	0xbcbca9b7	-0.023030145
76	0x3ea5e492	0.32400948
77	0x3e8b247c	0.27176273
78	0xbc35d45a	-0.011097992
79	0x3d9bf167	0.07614403
80	0xbb4b09f0	-0.0030981265
81	0x3d4f99d1	0.0506838
82	0xbdd93763	-0.10606267
83	0x3c9e12b8	0.019296035
84	0xbd8dbe94	-0.069211155
85	0xbe39d995	-0.18149407
86	0xbe05f351	-0.13081099
87	0x3e0bf11f	0.13666199
88	0xbd7b236a	-0.06131307
89	0xbe628682	-0.22121623
90	0xbe78c589	-0.24294104
91	0xbe3f0ce7	-0.18657266
92	0xbe75bb26	-0.23997173
93	0xbe013272	-0.126169
94	0x3c7ed3ac	0.015553396
95	0xbddfa492	-0.10920061
96	0xbeaa501f	-0.33264253
97	0xbeb39536	-0.35074776
98	0x3dd57133	0.10421982
99	0xbc39b960	-0.011335701
100	0xbe8d949a	-0.27652436
101	0xbd9d269c	-0.0767338
102	0xbe60c4be	-0.21950051
103	0x3e083411	0.13301112
104	0xbeba9b30	-0.36446524
105	0x3e2fa88c	0.1715414
106	0x3e9c1963	0.3048812
107	0x3dfa5285	0.122227706
108	0xbe5ec7b8	-0.21755874
109	0xbd8d4e38	-0.06899685
110	0x3ea95282	0.3307076
111	0x3e5694fc	0.2095527
112	0xbe3af9a7	-0.18259297
113	0xbc8f609d	-0.017502123
114	0xbc68c87a	-0.014207954
115	0x3ce745b2	0.028231476
116	0xbe360a02	-0.17777255
117	0xbe0ac0cd	-0.1355011
118	0xbd7810cb	-0.06056289
119	0xbdfbba28	-0.12291366
120	0x3dfde858	0.12397832
121	0xbdfe60c7	-0.124208026
122	0xbd086aef	-0.033305105
123	0x3e3abc57	0.18235908
124	0xbe3db011	-0.18524195
125	0x3ea5e585	0.32401672
126	0xbdbdbdd3	-0.09264722
127	0xbe1912fd	-0.1494865
128	0xbd766902	-0.060158737
129	0xbe68c4e1	-0.22731353
130	0x3b8e8859	0.00434975
131	0x3dea7af9	0.114492364
132	0x3e45e576	0.19325814
133	0xbda286e3	-0.07935884
134	0x3d882b3c	0.06648871
135	0xbe26a2f1	-0.16273095
136	0x3dbde12d	0.092714645
137	0x3d6ec0b3	0.05828924
138	0x3aca5da6	0.0015439286
139	0xbe7ed292	-0.24885014
140	0xbe9e16a7	-0.30876657
141	0xbea9d30d	-0.3316883
142	0xbdee208c	-0.116273016
143	0x3d14ff3f	0.036376234
144	0x3db98d06	0.09060101
145	0xbd451f7a	-0.04812572
146	0xbdb3e423	-0.08783748
147	0x3eb9677d	0.36211768
148	0xbda5551d	-0.08072875
149	0xbe242add	-0.16031976
150	0xbcc0192b	-0.023449501
151	0xbe807e5c	-0.25096405
152	0x3e287ea1	0.16454555
153	0xbd0cdcae	-0.034390144
154	0xbdfd5ca5	-0.12371186
155	0x3e190c7f	0.14946173
156	0x3be67c83	0.007033886
157	0xbdb16cbf	-0.0866332
158	0xbeb3323c	-0.34999263
159	0xbeee5450	-0.465487
160	0xbd806fda	-0.06271334
161	0x3cf0dc03	0.029401785
162	0xbe0ad982	-0.13559535
163	0x3e3a5948	0.1819812
164	0x3dbbc1fe	0.091678604
165	0xbd705a2d	-0.05867975
166	0xbcd4784b	-0.025936266
167	0xbe024f0e	-0.1272547
168	0x3e1778ab	0.14792125
169	0xbd195b49	-0.037440572
170	0x3e32fdc2	0.17479613
171	0xbe84b3ae	-0.25918335
172	0xbe9bf6de	-0.30461782
173	0x3d7a8eb8	0.061171263
174	0x3e065e8f	0.13122009
175	0xbcb356a4	-0.0218919
176	0x3d1f2df7	0.038862195
177	0xbdf3b99e	-0.11900638
178	0xbd911a5d	-0.070851065
179	0xbcc03d78	-0.02346681
180	0xbdbfe1e9	-0.09369261
181	0xbe886bc5	-0.26644722
182	0x3ed36fad	0.4129614
183	0xbea9b4e6	-0.33145827
184	0xbc81f779	-0.015865074
185	0x3ded70ff	0.11593818
186	0xbddf9665	-0.10917357
187	0x3d22c29c	0.039736375
188	0xbea3e73c	-0.32012355
189	0xbe142724	-0.14468056
190	0xbd53ddaf	-0.051725086
191	0xbe622ba4	-0.2208696
192	0xbd96621c	-0.07342932
193	0xbe87f788	-0.2655604
194	0x3d420aa9	0.047373448
195	0xbd597319	-0.05308828
196	0xbe637c3c	-0.2221536
197	0xbce13619	-0.027491616
198	0xbcb91a5e	-0.02259558
199	0x3e21cc05	0.15800484
200	0xbe28980d	-0.16464253
201	0x3d9cbafa	0.076528504
202	0xbdc82a75	-0.09773723
203	0x3cf2799f	0.02959901
204	0xbee835ef	-0.45353648
205	0xbcba58fb	-0.022747507
206	0x3e3ba833	0.18325882
207	0xbe172418	-0.14759862
208	0x3de13652	0.10996689
209	0xbe32f13b	-0.17474835
210	0x3e33f1c7	0.175727
211	0xbcea808c	-0.028625749
212	0xbe53327d	-0.20624729
213	0x3e5a85af	0.21340059
214	0xbc3038bb	-0.010755713
215	0x3cfb9c98	0.030714318
216	0xbd6c3d53	-0.05767567
217	0xbddc34f3	-0.10752287
218	0xbd4ec488	-0.050480396
219	0x3e301c9b	0.17198412
220	0xbe4213aa	-0.18952814
221	0xbc95db68	-0.018293098
222	0xbe877234	-0.26454318
223	0x3d2547f7	0.040351834
224	0xbe2d936e	-0.16950771
225	0x3e86b63e	0.26310915
226	0x3e714968	0.23563159
227	0xbe08e574	-0.1336878
228	0xbeac9d9b	-0.33713993
229	0x3eb812a3	0.3595172
230	0x3e2611e2	0.16217759
231	0xbe117254	-0.14203769
232	0x3dc3ed32	0.09566726
233	0xbd014c85	-0.031567115
234	0xbc6a13cb	-0.014286946
235	0xbe205187	-0.156561
236	0xbd9ca8cc	-0.07649383
237	0x3e14bf29	0.14526047
238	0x3e2aad9b	0.16667788
239	0x3c1e584b	0.009664605
240	0xbd5a5892	-0.053307123
241	0x3eb097bb	0.3449076
242	0xbe535997	-0.20639645
243	0xbd761f96	-0.060088716
244	0x3d87f131	0.066378005
245	0x3da3b3cb	0.07993277
246	0xbe5f6e3d	-0.21819396
247	0x3c2aa866	0.010416126
248	0x3c14f137	0.009090713
249	0xbda1f047	-0.079071574
250	0x3f076b58	0.5289817
251	0xbe3132e0	-0.17304564
252	0xbd7c3fca	-0.06158427
253	0x3e3f6afe	0.18693158
254	0xbe890242	-0.26759535
255	0xbde4dc2c	-0.11174807

bias f4 [64]
0	0xb915db85	-0.00014291525
1	0xbb33697f	-0.0027376113
2	0xbaa76c01	-0.0012773277
3	0xbba0330f	-0.004888899
4	0xbb2c746f	-0.0026314517
5	0xbc761469	-0.015019515
6	0xbc0bb35f	-0.008526652
7	0x390e446b	0.00013567663
8	0xbc6bdb38	-0.014395528
9	0xbc331ff8	-0.010932915
10	0xbc8101c3	-0.01574791
11	0xba470e1a	-0.0007593349
12	0xbc39b738	-0.011335187
13	0xbc2dbfeb	-0.010604839
14	0xbaf1f33e	-0.0018459333
15	0xbb08fc26	-0.0020902245
16	0xbb2be41f	-0.00262285
17	0xbca04d8b	-0.019568225
18	0xbb646994	-0.0034852969
19	0xbbc0a944	-0.005879553
20	0x392829da	0.0001603732
21	0xbb3109f0	-0.002701398
22	0xbb029984	-0.0019927928
23	0xba4c88a1	-0.0007802342
24	0x389ebeee	7.5695905e-05
25	0xb9fdf650	-0.00048439438
26	0xbc844097	-0.01614408
27	0xb91231ae	-0.00013942152
28	0xbb605483	-0.003423006
29	0x37e9feea	2.7894468e-05
30	0xbc7c0524	-0.015382085
31	0xbbf1efd4	-0.007383326
32	0xb9f7c83f	-0.00047260706
33	0xb654566c	-3.1640766e-06
34	0xbc4d6a3a	-0.012537533
35	0xba995865	-0.0011699317
36	0xbc70bf91	-0.0146941105
37	0xbb27f9f8	-0.002563117
38	0xbc7e9bdd	-0.01554009
39	0xbc08e24b	-0.008354734
40	0xbb83df6d	-0.004024437
41	0xbc417532	-0.011807727
42	0xba960f42	-0.0011448639
43	0xb95c2b00	-0.00020996854
44	0xbc69980b	-0.014257441
45	0xbcc57c98	-0.024107262
46	0xbc3d4652	-0.01155241
47	0xbbc3f875	-0.005980546
48	0xbca0c3e7	-0.019624664
49	0xb76a6918	-1.3971956e-05
50	0xb7b00d4e	-2.098703e-05
51	0xbc23ce59	-0.009997928
52	0x37abebb7	2.0494552e-05
53	0xbbf21a4e	-0.0073883897
54	0xbcaab0fd	-0.020836348
55	0xbc376297	-0.011192939
56	0xbc644413	-0.013932246
57	0xbc8d210b	-0.01722767
58	0x38a5a49f	7.898476e-05
59	0xbc038760	-0.008027881
60	0xbb4dbe2c	-0.003139387
61	0xbb0be4d5	-0.0021346111
62	0xbc1238e7	-0.008924699
63	0xb8aba1f7	-8.184084e-05

weight f4 [64, 119]
0	0xbd55cf71	-0.052199785
1	0xbc3e223d	-0.011604843
2	0xbe0e2a55	-0.13883336
3	0x3de79ada	0.113088325
4	0x3d4c71c2	0.049913175
5	0xbd6955bc	-0.05696653
6	0xbb3bb2be	-0.0028640474
7	0x37e7e805	2.7645388e-05
8	0x3e07b291	0.13251711
9	0x3dbdccad	0.092675544
10	0x3c07cc5f	0.008288472
11	0xbe8aaad3	-0.27083454
12	0x3d7e146c	0.062031195
13	0x3c8a3400	0.016870499
14	0xbe210c9d	-0.15727468
15	0xbde125c1	-0.10993529
16	0xbe193a1b	-0.14963572
17	0x3de97a93	0.11400332
18	0x3d2ed0cc	0.042679593
19	0x3cb7052c	0.022341333
20	0xbe1205e3	-0.14260058
21	0x3d51345f	0.051075336
22	0x3b1a62b9	0.0023557378
23	0x3e3e2e85	0.18572433
24	0x3e04f6d4	0.12984782
25	0x3d38f803	0.045158397
26	0x3e927004	0.28601086
27	0x3d68303f	0.056686636
28	0xbb84c3de	-0.0040516695
29	0xbdfe5fce	-0.12420617
30	0xbdbec499	-0.09314842
31	0xbe057258	-0.130319
32	0x3db54b65	0.08852271
33	0xbe1b2d25	-0.1515394
34	0x3d97f862	0.07420422
35	0x3e809963	0.25117025
36	0xbd2032c0	-0.0391109
37	0xba199aba	-0.0005859543
38	0xbccd5e92	-0.025069509
39	0xbe614bb4	-0.22001535
40	0x3e109c37	0.14122091
41	0x3e0fffde	0.1406245
42	0xbddef365	-0.108862676
43	0xbd202e64	-0.03910674
44	0xbe7381d7	-0.23779999
45	0x3de005fe	0.10938643
46	0x3da7d73c	0.081953496
47	0xbd3e7d45	-0.046506185
48	0xbe0a621a	-0.13513985
49	0xbc206b95	-0.009791275
50	0x3da7b1c8	0.08188206
51	0x3ba1ff02	0.0049437294
52	0xbdf9b077	-0.12191861
53	0x3d0f176c	0.034934446
54	0x3d316e3e	0.043318026
55	0xbeb2594f	-0.34833762
56	0xbd6b2345	-0.057406683
57	0x3d9ed8f8	0.07756227
58	0xbda5306d	-0.08065877
59	0xbe703b52	-0.23460129
60	0x3d270452	0.040775605
61	0x3e19c32b	0.15015857
62	0xbe1a1aa2	-0.15049222
63	0x3e56f7d0	0.2099297
64	0x3dbf829e	0.09351085
65	0x3cec37ca	0.028835196
66	0x3dbcea11	0.09224332
67	0xbe22c5c8	-0.1589576
68	0x3d5dcd0a	0.05415062
69	0xbcc53ce5	-0.024076888
70	0x3de0c743	0.10975506
71	0xbe5d6b16	-0.21622881
72	0x3d8c6d0f	0.06856739
73	0xbdbb9ec6	-0.09161143
74	0xbd6a2460	-0.057163596
75	0xbe145ea0	-0.14489222
76	0x3e2e54d8	0.17024553
77	0x3d98fb8f	0.07469856
78	0x3b63c150	0.0034752674
79	0x3d27244e	0.040806107
80	0xbda0a405	-0.07843784
81	0x3e5c7b80	0.21531487
82	0x3e0d929b	0.13825457
83	0xbdeadf66	-0.11468391
84	0x3c654ac4	0.013994876
85	0xbe7f3253	-0.24921541
86	0xbe494ff7	-0.1965941
87	0x3cba50cf	0.02274361
88	0xbe5e77b7	-0.21725355
89	0x3db6f028	0.08932525
90	0xbdb2b861	-0.08726574
91	0x3d00c0bf	0.031433817
92	0x3d7c7662	0.061636336
93	0xbcdec696	-0.027194303
94	0x3e6e3f91	0.23266436
95	0x3e40b3de	0.18818614
96	0x3e14e9f6	0.14542374
97	0x3e457e58	0.19286478
98	0xbe16e949	-0.14737429
99	0x3d449e7c	0.048002705
100	0xbe15de1c	-0.14635509
101	0x3ca0d2ba	0.019631732
102	0xbd74dc79	-0.05978057
103	0xbd37ad4c	-0.044843003
104	0xbd97bf2b	-0.07409509
105	0x3ccb0be2	0.02478594
106	0xbea0c586	-0.31400698
107	0xbe1e11fe	-0.15436551
108	0x3cd98efd	0.02655744
109	0x3e591409	0.21199049
110	0xbe557814	-0.20846587
111	0x3dc3d9eb	0.09563049
112	0xbcd8e211	-0.026474984
113	0x3e481f1e	0.1954312
114	0xbdc35e08	-0.095394194
115	0x3cf45064	0.02982349
116	0xbe335b9e	-0.17515418
117	0x3e37ca84	0.17948347
118	0xbcece27b	-0.028916588
119	0x3b6c21cb	0.0036030884
120	0xbe4429ea	-0.19156614
121	0xbd455b2c	-0.04818265
122	0xbae70b8c	-0.0017627343
123	0x3d9207e2	0.0713041
124	0xbd4d4829	-0.050117645
125	0xbdf57e4e	-0.11986981
126	0xbdc30a50	-0.09523451
127	0x3d712ecb	0.058882516
128	0x3dfbaa02	0.12288286
129	0xbd3aa079	-0.045563195
130	0xbd046415	-0.03232201
131	0xbdd68a3a	-0.104755834
132	0xbd8ace78	-0.06777662
133	0xbe04b11d	-0.12958188
134	0x3d97bba5	0.07408837
135	0xbd6771c8	-0.056504995
136	0xbea29de9	-0.317611
137	0x3d75774b	0.05992822
138	0x3d93fdf1	0.0722617
139	0x3d75353c	0.05986522
140	0x3db3e6e3	0.087842725
141	0xbec639d4	-0.38715994
142	0xbdb74868	-0.08949357
143	0xbd96b4f2	-0.07358731
144	0xbdbd904f	-0.0925604
145	0xbe1dfd00	-0.15428543
146	0xbe3967aa	-0.18105951
147	0x3e59f239	0.21283807
148	0x3dba7c90	0.0910579
149	0xbd47da37	-0.04879209
150	0xbdae3995	-0.08507077
151	0xbe38815e	-0.180181
152	0x3d6ed686	0.058310054
153	0xbdd2be8d	-0.10290251
154	0xbe63f8c8	-0.22262871
155	0xbd05e6f4	-0.032690957
156	0xbd336723	-0.04379953
157	0xbda5a3c6	-0.08087878
158	0x3e30caec	0.17264909
159	0x3d8cfe82	0.06884481
160	0x3e5f1a87	0.21787463
161	0x3d265243	0.040605795
162	0xbe49578b	-0.19662301
163	0x3d48eb12	0.049052306
164	0xbdc512de	-0.09622739
165	0xbc3de1a6	-0.011589443
166	0x3ccc0a43	0.024907237
167	0x3cbadc4f	0.02281013
168	0xbd5f81f7	-0.054567304
169	0x3de6cf01	0.112699516
170	0x3d972be8	0.07381421
171	0xbd794076	-0.06085249
172	0xbdf3a81a	-0.11897297
173	0xbd411394	-0.04713781
174	0x3ce447e5	0.027866313
175	0xbe9d0dbb	-0.30674538
176	0xbdcf016f	-0.10107695
177	0x3ccb5402	0.024820331
178	0xbda53815	-0.080673374
179	0xbdba4dcc	-0.0909687
180	0xbca4411f	-0.020050583
181	0xbc6ac965	-0.014330243
182	0xbdd20fd8	-0.10256928
183	0x3dc81103	0.0976887
184	0xbccb9c4f	-0.024854807
185	0xbeaa5865	-0.33270565
186	0xbd81d501	-0.063394554
187	0x3e67c7e6	0.22634849
188	0xbd865686	-0.06559472
189	0xbe329693	-0.17440252
190	0xbdb79a28	-0.0896495
191	0x3e406b4e	0.18790933
192	0x3e8befb0	0.27331305
193	0xbda531fb	-0.08066174
194	0xbe2a6ed4	-0.1664384
195	0xbc2eaf9f	-0.0106619885
196	0xbe80b6f2	-0.25139576
197	0x3d279ef8	0.04092309
198	0x3db598b2	0.08867015
199	0xbe4d758f	-0.20064376
200	0x3d60e97f	0.05491018
201	0xbd830eb7	-0.06399291
202	0x3c134ab9	0.008989983
203	0x3e433234	0.1906212
204	0xbd04da18	-0.032434553
205	0x3c1593ad	0.009129447
206	0x3d86cf7e	0.06582545
207	0x3e2be882	0.16787913
208	0x3e85eaa2	0.26155573
209	0xbe2bec20	-0.16789293
210	0xbd26f2b6	-0.04075881
211	0x3dfd5e59	0.12371511
212	0xbcd9c95e	-0.026585277
213	0x3e035df6	0.12828812
214	0xbcd01a35	-0.025403121
215	0x3db89ca8	0.09014255
216	0x3d03ec46	0.03220775
217	0xbdc18f38	-0.09451145
218	0x3e7f6562	0.24941018
219	0x3e1c0204	0.15235144
220	0x3d7f4e89	0.062330756
221	0x3e0012b8	0.1250714
222	0xbe0771dd	-0.13227029
223	0xbc683f3c	-0.0141752325
224	0x3d666f02	0.05625821
225	0xbdedf963	-0.11619832
226	0xbe366e71	-0.17815568
227	0xbd395406	-0.045246147
228	0x3e230ef8	0.15923679
229	0x3e19202b	0.14953677
230	0x3dade865	0.08491591
231	0xbe03546a	-0.1282517
232	0x3e1187ef	0.14212011
233	0xbde7d373	-0.113196276
234	0x3d5e0fad	0.05421417
235	0x3de3e674	0.1112794
236	0xbdae1294	-0.08499637
237	0x3df1966d	0.117962696
238	0x3e27b4cb	0.16377561
239	0xbdae295e	-0.08503984
240	0x3bbac349	0.0056995493
241	0xbcdbc0d8	-0.026825354
242	0x3e0c7866	0.13717803
243	0x3dca78aa	0.09886296
244	0xbd8d46bf	-0.06898259
245	0x3c894a65	0.016759107
246	0x3e2d05fa	0.16896811
247	0x3d2752a2	0.04085029
248	0x3d5b0727	0.053473618
249	0xbc28f98f	-0.010313406
250	0xbe1ce4b0	-0.15321612
251	0x3e52fa33	0.20603256
252	0xbaa7963d	-0.0012785863
253	0xbe0a9af4	-0.13535672
254	0xbcb5d983	-0.022198444
255	0x3d91e549	0.07123811

bias f4 [64]
0	0xbbaddbb1	-0.0053057303
1	0xbc70fedc	-0.014709201
2	0x395a5804	0.00020822888
3	0xbc00f2e3	-0.007870409
4	0xbc8a13d9	-0.016855167
5	0x3c0a66bb	0.008447344
6	0x3a827a34	0.0009954632
7	0xbcac1946	-0.021008145
8	0x3b498aa9	0.0030752814
9	0x3c3713c4	0.011174146
10	0xb8673658	-5.5125303e-05
11	0xbd4ccd89	-0.0500007
12	0xbced846b	-0.028993806
13	0xbce7d1b0	-0.028298229
14	0xbd02911f	-0.03187668
15	0xbcd2c85e	-0.025730308
16	0xbc485287	-0.012226707
17	0xbc8e07e3	-0.017337745
18	0xbd1e25f8	-0.03861043
19	0xbd0852be	-0.033282034
20	0x3c39f636	0.011350205
21	0xbd5dd919	-0.05416212
22	0xbc525a91	-0.0128389755
23	0xbaa2371f	-0.0012376047
24	0xbc75adef	-0.014995082
25	0xbce2e0aa	-0.027695019
26	0xbc323549	-0.010876962
27	0xba0c066f	-0.0005341535
28	0xbcb84e2b	-0.02249821
29	0xbcb85e59	-0.022505926
30	0xba072c4a	-0.0005156441
31	0xbd6f4f5b	-0.05842529
32	0xbc7f057e	-0.015565274
33	0xbd2fcb9d	-0.04291879
34	0xbb992717	-0.0046738493
35	0xbbf594c2	-0.00749454
36	0xbabb5fcc	-0.0014295517
37	0xbc8ea31f	-0.017411767
38	0xbaaf7e40	-0.0013389066
39	0x3b8dec80	0.0043311715
40	0xbcc8a670	-0.024493426
41	0xba97f447	-0.0011593186
42	0xbcf46ccb	-0.029837033
43	0xbcac3c9f	-0.021025
44	0xbd10b7fd	-0.035331715
45	0xbc8eb47d	-0.017420048
46	0xbc657604	-0.014005188
47	0xbc92bb37	-0.017911537
48	0xbc51e18e	-0.012810124
49	0xbd08e647	-0.033422735
50	0xbd111f62	-0.03543032
51	0xbb9c42a0	-0.0047686845
52	0xbc4fce0c	-0.012683403
53	0x3bc5d0aa	0.0060368376
54	0x3c0f5826	0.008749044
55	0x3c626296	0.01381745
56	0xbcc92367	-0.024553014
57	0xbcf00be0	-0.029302537
58	0xbcdda091	-0.027054103
59	0xbcb7b85d	-0.022426778
60	0xbca059fd	-0.01957416
61	0xbcf4c3c2	-0.0298785
62	0xbce9c35f	-0.028535543
63	0x3c26b0e3	0.010174009

weight f4 [64, 64]
0	0x3b32a9c2	0.0027261828
1	0x3c88db54	0.016706146
2	0x3bd8a00e	0.006610877
3	0xbec66b60	-0.38753796
4	0x3de94ca7	0.113915734
5	0xbc7e7a0d	-0.015532029
6	0x3d9e1b58	0.07720059
7	0xbdd8c4e9	-0.10584433
8	0x3e05a136	0.13049778
9	0xbe0a4b8e	-0.13505384
10	0xbe7d24f4	-0.24721128
11	0x3dbf64d3	0.093454026
12	0xbe0c404f	-0.13696407
13	0x3c1b0100	0.009460688
14	0x3d8c0cb7	0.06838363
15	0xbeacf514	-0.3378073
16	0x3dce9354	0.10086694
17	0xbe6e669f	-0.23281334
18	0x3d381bec	0.044948503
19	0x3db785f8	0.089610994
20	0x3e432a0b	0.19059007
21	0xbe8397ca	-0.25701743
22	0x3d6b181a	0.057396032
23	0xbd35bd3c	-0.04436992
24	0x3e2e3a54	0.17014438
25	0x3d11368d	0.035452414
26	0xbbd701bf	-0.0065614874
27	0xbe4c605c	-0.19958633
28	0xbe0fe2d9	-0.1405138
29	0x3ef6429f	0.48097703
30	0xbd6d128b	-0.057879012
31	0xbe32d2fb	-0.17463295
32	0x3dd36bad	0.10323272
33	0x3d1c754c	0.0381978
34	0xbe95b54a	-0.29239875
35	0xbe1ce533	-0.15321808
36	0x3c1b871d	0.009492663
37	0x3e95d4d2	0.29263932
38	0x3ddc6801	0.10762025
39	0x3e7dcbb9	0.24784745
40	0xbddafee0	-0.10693145
41	0xbd4cc56f	-0.049992975
42	0x3e823ead	0.25438443
43	0x3e816970	0.25275755
44	0x3ea2a5d8	0.31767154
45	0x3de5c917	0.112199955
46	0x3cebd8c4	0.028789885
47	0xbcb5eebd	-0.022208566
48	0xbd1892fc	-0.03724955
49	0xbd4fd2d8	-0.050738186
50	0x3e6240c2	0.22095016
51	0x3dac56c1	0.084149845
52	0x3ca4f72d	0.020137394
53	0xbdec55e3	-0.11539819
54	0xbe2ce9b6	-0.16886029
55	0x3deadd8c	0.11468038
56	0x3a66ec13	0.00088089815
57	0x3d66afcf	0.056320008
58	0x3dd92fb7	0.10604804
59	0xbde5acdf	-0.11214613
60	0xbe26fc2e	-0.16307136
61	0xbe4db028	-0.2008673
62	0x3c07121c	0.008244064
63	0x3da1088f	0.078629605
64	0xbd933b49	-0.07189042
65	0x3e7ed2e8	0.24885142
66	0xbe85b86d	-0.26117268
67	0x3d9f2e7c	0.07772538
68	0x3e81a59a	0.25321656
69	0xbe8216de	-0.2540807
70	0xbe6fc2fa	-0.23414221
71	0x3e3a91d6	0.18219694
72	0xbe58ce0d	-0.21172352
73	0xbd39ffb6	-0.04540988
74	0x3e13ebb0	0.14445376
75	0xbb73afdf	-0.0037183685
76	0xbdd1aa18	-0.10237521
77	0x3dc64864	0.09681776
78	0xbded91f1	-0.11600102
79	0x3d8640e7	0.06555348
80	0xbe6fe5de	-0.23427531
81	0xbe03fbf6	-0.12889084
82	0xbe0cdb97	-0.13755642
83	0xbd9c51e4	-0.07632807
84	0xbe174bc8	-0.14775002
85	0x3dc34ab4	0.09535733
86	0xbe2ad8e2	-0.16684297
87	0x3e1f19b5	0.1553715
88	0x3c2907d0	0.010316804
89	0x3e808567	0.25101778
90	0xbe9e8047	-0.30957243
91	0x3b946c5f	0.0045295204
92	0x3d5ebff7	0.05438229
93	0x3e8c4f31	0.27404168
94	0x3e48d226	0.19611415
95	0x3d92498c	0.07142934
96	0xbdb2abad	-0.08724151
97	0x3d8f46b2	0.06995906
98	0xbec7b324	-0.3900386
99	0x3c12a79b	0.008951093
100	0x3e5792ef	0.21052144
101	0x3df15a13	0.117847584
102	0x3dc0d875	0.09416286
103	0x3b094579	0.002094595
104	0x3dac606f	0.08416831
105	0x3e68b8cd	0.22726746
106	0x3e4d80c7	0.20068656
107	0xbe04ef42	-0.12981895
108	0xbea30bf2	-0.3184505
109	0x3cd97532	0.02654514
110	0xbe150c4c	-0.14555472
111	0xbe7809f5	-0.24222548
112	0xbe3d7cb6	-0.18504605
113	0xbd94b623	-0.07261302
114	0xbdc3bb91	-0.0955726
115	0x3df42681	0.119214065
116	0xbdf4d32a	-0.11954339
117	0xbcddfaeb	-0.027097186
118	0xbe64bc27	-0.223374
119	0xbe5cfb39	-0.21580209
120	0x3d9cf283	0.07663443
121	0xbe7b845b	-0.24562208
122	0x3d6efecb	0.05834846
123	0x3ecad4c9	0.39615467
124	0xbb413bda	-0.0029485137
125	0xbea54b53	-0.3228403
126	0x3d196172	0.037446447
127	0xbe4d3da0	-0.2004304
128	0xbe4aca44	-0.1980372
129	0x3e98af5e	0.29821295
130	0x3d04a5de	0.032384746
131	0x3e3c6728	0.18398726
132	0x3e15c75b	0.1462683
133	0xbcbece1f	-0.023291646
134	0xbb77f2f9	-0.0037834032
135	0xbe322c73	-0.17399769
136	0x3d9dd7a9	0.077071495
137	0xbed7ecbc	-0.42172801
138	0x3e711183	0.23541836
139	0x3d9d10cf	0.076692216
140	0x3dbd6ce1	0.09249283
141	0xbda50ec2	-0.080594555
142	0xbcfaf2f2	-0.030633423
143	0xbd7a9527	-0.0611774
144	0x3e454480	0.19264412
145	0x3ee0b266	0.43886107
146	0x3d968791	0.07350076
147	0xbda2c301	-0.0794735
148	0x3ddcfe81	0.1079073
149	0xbe481b57	-0.1954168
150	0xbd2f2c25	-0.04276671
151	0xbd36f272	-0.044664808
152	0x3e1b46fa	0.15163794
153	0x3df24c35	0.118309416
154	0x3e135b9b	0.14390413
155	0x3e320dcc	0.17388076
156	0x3e981aef	0.2970805
157	0x3e311106	0.1729165
158	0xbe69f068	-0.22845614
159	0xbd6a3878	-0.05718276
160	0xbdcafd6e	-0.09911619
161	0x3e90af0f	0.2825856
162	0xbeb5ad72	-0.3548389
163	0x3e1048a5	0.14090212
164	0x3d43d583	0.047811043
165	0x3dd85ecc	0.10564956
166	0xbe8540d1	-0.26026013
167	0xbca206f2	-0.019778702
168	0x3e1c9fde	0.1529536
169	0x3e2f2d9f	0.17107247
170	0xbedb2c4e	-0.4280724
171	0xbe8c3883	-0.27386865
172	0x3d5bd786	0.053672336
173	0xbcfef6a9	-0.031123476
174	0x3dcf54ab	0.10123571
175	0xbcb9e659	-0.022692846
176	0x3d61aeb7	0.05509826
177	0x3d7685da	0.060186245
178	0x3e45c45f	0.19313191
179	0x3d19fa50	0.037592232
180	0x3e8684e1	0.26273254
181	0x3d0fde86	0.035124324
182	0x3d09c471	0.033634607
183	0x3e8eab64	0.27865136
184	0x3c0bdbc9	0.008536288
185	0xbcfe07d5	-0.031009594
186	0xbd87e781	-0.06635953
187	0xbe445529	-0.19173111
188	0x3d227b0b	0.039668124
189	0xbd7eddbd	-0.062223185
190	0x3e49b03e	0.19696137
191	0xbe14d63c	-0.14534849
192	0xbe4f9a1f	-0.20273636
193	0xbdcc9bd6	-0.09990661
194	0xbe92c8b3	-0.28668746
195	0x3dfd8387	0.123786025
196	0x3e2848ee	0.1643407
197	0x3e1f88a6	0.15579471
198	0xbe5b6a0f	-0.21427177
199	0x3d57357c	0.05254124
200	0xbdf04804	-0.11732486
201	0xbc4d6758	-0.012536846
202	0xbe72c510	-0.23707986
203	0xbed4e046	-0.41577357
204	0x3d8810c2	0.06643821
205	0x3dba6347	0.09100967
206	0x3ce9fda1	0.028563322
207	0xbced63ab	-0.02897819
208	0x3df50ab1	0.1196493
209	0x3e78e716	0.24306902
210	0x3e9fb25f	0.31190774
211	0x3de12a25	0.109943666
212	0xbeb307df	-0.34966943
213	0xbeb8c595	-0.36088243
214	0x3d1e2b1b	0.038615327
215	0x3dd24ff4	0.10269156
216	0xbd130b3f	-0.035899397
217	0x3ee73ced	0.4516367
218	0xbde98aa8	-0.114034
219	0x3dddc77b	0.108290635
220	0xbe38b487	-0.18037616
221	0x3e140a29	0.14457001
222	0x3d681848	0.05666378
223	0xbe13f380	-0.14448357
224	0xbc8e2e1e	-0.017355975
225	0x3d72a16b	0.05923597
226	0x3e098e15	0.13433106
227	0xbe323450	-0.17402768
228	0xbe114b3c	-0.14188856
229	0xbe2d818a	-0.16943946
230	0xbe349cc5	-0.17637928
231	0x3e0961b1	0.13416173
232	0xbe63a70b	-0.2223169
233	0xbe9132e2	-0.28359133
234	0x3df7528b	0.12076291
235	0x3d9e1fbc	0.077208966
236	0xbeac5882	-0.33661276
237	0x3d4bbfcc	0.04974346
238	0x3d002b4d	0.031291295
239	0x3e52c595	0.20583184
240	0x3e158b3d	0.14603896
241	0xbd2f3525	-0.042775292
242	0xbca08f22	-0.019599501
243	0xbd8282c2	-0.06372596
244	0x3dcc450f	0.099741094
245	0xbe121131	-0.1426437
246	0xbe47b811	-0.1950381
247	0x3e15787e	0.14596745
248	0xbe1343fa	-0.143814
249	0x3d269990	0.040673792
250	0xbdd996d2	-0.1062447
251	0xbe01753d	-0.12642379
252	0x3e41eae2	0.18937257
253	0xbd4a2544	-0.049351946
254	0xbe5a3337	-0.213086
255	0xbe2db2e1	-0.16962768

bias f4 [64]
0	0xba89a963	-0.0010502752
1	0xbccaafb8	-0.024741992
2	0x3c188ea3	0.009311351
3	0xbc493db2	-0.012282776
4	0x3c980051	0.018554838
5	0xbb25117a	-0.0025187419
6	0x3cda438c	0.026643537
7	0xbd33c049	-0.04388455
8	0x3c4b7cd4	0.012419898
9	0xbcc392fd	-0.0238738
10	0x3a173514	0.0005768102
11	0xbd109351	-0.035296742
12	0xbd0858c2	-0.03328777
13	0xbca7849c	-0.020448975
14	0xbd2aa244	-0.041658655
15	0xbc8d7ba5	-0.017270872
16	0x00000000	0.0
17	0x3c1325b0	0.008981153
18	0x3b0cca74	0.0021482976
19	0x3cdb383b	0.026760211
20	0xbc9516a6	-0.018199276
21	0x3ccb22de	0.0247969
22	0x390059b0	0.00012240442
23	0x3c90351f	0.017603455
24	0xbbef1d0c	-0.007297164
25	0xbd1c115d	-0.038102496
26	0xbce0b2d3	-0.02742902
27	0xbd04870f	-0.032355364
28	0xbcefeadd	-0.029286796
29	0x3b96f2ca	0.0046065794
30	0x3bfb5182	0.0076696286
31	0x00000000	0.0
32	0xbc7a37c5	-0.015272086
33	0x3c827da0	0.015929043
34	0xbce1679d	-0.027515227
35	0xbc8ef8db	-0.017452648
36	0x3a4c18a8	0.00077856565
37	0xbceff038	-0.02928935
38	0x3c4c20a1	0.012458951
39	0x3c2d2189	0.010567077
40	0xbc8a9400	-0.016916275
41	0xbcef7055	-0.029228369
42	0xbcbfab23	-0.023397034
43	0x3b8274da	0.003981215
44	0xbc71c04f	-0.014755323
45	0xbcc107e6	-0.023563337
46	0xbd45feac	-0.048338577
47	0xbc9ade8d	-0.018904949
48	0xbba7b4ea	-0.005118002
49	0xbc01e55d	-0.00792822
50	0xbc94c488	-0.01816012
51	0x3b974d56	0.0046173735
52	0xbbac222d	-0.0052530975
53	0x3abf1a52	0.0014579988
54	0xbb0fb7b0	-0.0021929555
55	0xbb9984e7	-0.0046850326
56	0x3b8cc99e	0.0042964956
57	0x3bca87e0	0.0061807483
58	0xbcb3bfaa	-0.021941978
59	0x3c665f66	0.014060831
60	0xbb8a5ed8	-0.004222732
61	0x3ba72021	0.0051002656
62	0x3d1daff0	0.038497865
63	0xbcb6fb90	-0.022336751

weight f4 [1, 64]
0	0xbe8ee17f	-0.27906415
1	0xbe554aff	-0.2082939
2	0x3d24647d	0.040134896
3	0x3d971f19	0.07378978
4	0xbd15f43e	-0.03660988
5	0x3a6b894b	0.0008984997
6	0x3e11504e	0.1419079
7	0x3ed9b632	0.42521816
8	0xbe011869	-0.12606968
9	0x3ac0dfe3	0.0014715161
10	0xbe472e12	-0.19451168
11	0x3bed5ede	0.007243975
12	0xbe4df5c8	-0.2011329
13	0xbdc11219	-0.0942728
14	0xbe3975da	-0.18111363
15	0xbd6063dc	-0.054782733
16	0x3e35229a	0.1768898
17	0x3d259fc5	0.04043557
18	0xbdc8cdf8	-0.098049104
19	0xbe6c1882	-0.23056224
20	0x3b44d656	0.003003498
21	0x3d819109	0.063264914
22	0xbca283b1	-0.019838186
23	0xbc37b567	-0.011212683
24	0xbd522d2f	-0.05131262
25	0xbda5e16c	-0.080996364
26	0x39b91c58	0.00035307067
27	0xbee5cd89	-0.44883373
28	0x3d82ee4c	0.06393108
29	0x3d06d6a4	0.03291954
30	0x39d80eac	0.00041209662
31	0x3e7abfc8	0.24487221
32	0x3bfacc7b	0.0076537705
33	0xbd816c2c	-0.0631946
34	0x3c9577af	0.018245546
35	0x3cc5a563	0.024126714
36	0x3e2c7ed1	0.16845252
37	0x3e2d77d5	0.16940244
38	0x3e69c9bf	0.22830866
39	0x3cf4fc05	0.029905329
40	0xbea2d2a5	-0.31801334
41	0xbda27863	-0.07933118
42	0xbe574418	-0.2102207
43	0x3e390038	0.1806649
44	0xba3831ec	-0.0007026482
45	0xbc52dc73	-0.012869942
46	0x3e57d1b7	0.21076094
47	0xbcd96ce9	-0.02654119
48	0x3d4d1140	0.05006528
49	0xbda7c7f9	-0.08192439
50	0x3806b2e3	3.211469e-05
51	0x3ac4eded	0.0015024521
52	0x3e06bfb6	0.1315907
53	0x3ce92931	0.028462024
54	0xbc2a9e16	-0.010413667
55	0xbaeac4ba	-0.0017911412
56	0xba00bcc4	-0.0004910941
57	0xb9b0effd	-0.0003374814
58	0xbbeb46f0	-0.0071800873
59	0x3d340e13	0.043958735
60	0x39f1b1c1	0.0004609954
61	0xba911024	-0.0011067432
62	0x3d09c651	0.033636395
63	0xbe6cf997	-0.23142086

weight f4 [5, 64]
0	0x3b08129a	0.002076304
1	0x3ba20731	0.004944705
2	0x3c0ff84a	0.008787224
3	0x3c3aa40c	0.011391651
4	0x3b8a9a22	0.0042298
5	0xbc328670	-0.01089631
6	0x3b95c1a8	0.0045702048
7	0xbb52dea3	-0.003217616
8	0x395cb11b	0.00021046812
9	0xbc2460ee	-0.010032875
10	0x3c2a780f	0.010404601
11	0xbb63194a	-0.0034652525
12	0xbb8656f5	-0.0040997216
13	0x3c3ae5b1	0.011407302
14	0xbb0280fb	-0.0019913304
15	0xba6a0c0f	-0.00089281885
16	0xbb64dfab	-0.0034923356
17	0x3b2d7a80	0.002647072
18	0x3b8a16bb	0.0042141355
19	0xbba41a9a	-0.005008054
20	0xbb113466	-0.0022156476
21	0xbb93ac1f	-0.0045066024
22	0x3bb8ee8b	0.005643671
23	0x3ad6d634	0.0016390742
24	0x3b4e64e5	0.0031493243
25	0x3aadd07f	0.0013260989
26	0xbc99ea93	-0.018788612
27	0xbc081ed7	-0.008308134
28	0xbbc31b91	-0.005954214
29	0x3a64b679	0.00087247003
30	0xbbe4067e	-0.0069587817
31	0xbb3bab81	-0.002863616
32	0x3ba2ba96	0.0049660904
33	0x39c78104	0.00038052362
34	0x3b833a0d	0.004004723
35	0x3bc74a97	0.00608189
36	0x3bf6151a	0.0075098397
37	0x3badfc50	0.005309619
38	0xbb1ecb46	-0.0024230047
39	0x3c50f897	0.012754581
40	0x3beaab94	0.007161567
41	0xbb021739	-0.0019850268
42	0x3b56cedf	0.0032777113
43	0x3c0b509d	0.008503106
44	0xbb1125e6	-0.0022147833
45	0xbb4c8a6f	-0.0031210443
46	0xbb8d05c6	-0.0043036668
47	0x3b058668	0.0020374302
48	0xbc03da78	-0.0080476925
49	0xba26990c	-0.0006355203
50	0x3a21fce7	0.0006179348
51	0x3c1118bd	0.008855996
52	0x3ad6c90d	0.0016386822
53	0xba095b38	-0.0005239728
54	0xbc10f250	-0.008846834
55	0xbad7a552	-0.0016452468
56	0xb98e3573	-0.00027124173
57	0x3b923e92	0.0044630254
58	0x3b99f1ac	0.004697999
59	0xbbf0ab60	-0.0073446482
60	0xbc28e3bd	-0.010308203
61	0xb924244b	-0.00015653779
62	0x3bd7877e	0.006577431
63	0x3abbe712	0.0014335832
64	0xbbd0b0e6	-0.006368744
65	0xbb338623	-0.0027393184
66	0xbb69416b	-0.003559197
67	0xbb041e83	-0.0020159788
68	0xbbabe49c	-0.005245758
69	0x3cdee443	0.027208453
70	0x3bbeb100	0.00581944
71	0xba43af96	-0.0007464824
72	0xbce114ff	-0.027475832
73	0x3c61832d	0.013764185
74	0xbcd75e7f	-0.026290176
75	0x3befcddc	0.0073182415
76	0xbc673ad1	-0.014113144
77	0xbd0486c7	-0.032355096
78	0x3b8294ba	0.0039850147
79	0x3ba15a45	0.004924091
80	0xbcbf3211	-0.023339303
81	0xbcbf0ac9	-0.023320572
82	0xbbb5d18b	-0.005548661
83	0xba3b0794	-0.0007134613
84	0x3b6fbb5e	0.0036580185
85	0xbba900b4	-0.0051575545
86	0xbbf26431	-0.0073971977
87	0x3a8b0b09	0.0010608147
88	0xbb0efd73	-0.0021818548
89	0x3c26edc4	0.010188524
90	0x3c8a23a5	0.0168627
91	0x3ba24f80	0.004953325
92	0xb9a55c04	-0.0003153981
93	0x3a549050	0.00081086624
94	0xbc154aba	-0.0091120545
95	0x3b916d00	0.0044380426
96	0xbaeb3f47	-0.0017947935
97	0xb9308e21	-0.00016837615
98	0xbc0f0e1a	-0.008731389
99	0xbc7a6f5d	-0.01528534
100	0xbc24abf1	-0.01005076
101	0x3ba43cae	0.0050121164
102	0xbb38c265	-0.002819204
103	0xbd0dc453	-0.034611057
104	0xbc9c89a7	-0.019108607
105	0xbc8c720a	-0.017144222
106	0x3b91330a	0.004431133
107	0x3b14fa90	0.0022732355
108	0x3c28dd39	0.01030665
109	0xb9257f9c	-0.00015783164
110	0x3c40d1b6	0.011768749
111	0xbc87e3f4	-0.016588189
112	0x3b80715c	0.0039197635
113	0xba7d336e	-0.00096588477
114	0x3b647f3d	0.003486588
115	0xbce0baa1	-0.027432742
116	0x3b09df15	0.0021037508
117	0x3c0b16ac	0.008489292
118	0x3be3f0c6	0.0069561927
119	0xbb2d03ce	-0.0026399973
120	0x39d05983	0.00039739543
121	0xbc13eac9	-0.009028145
122	0xbbc7abad	-0.0060934634
123	0x3b03c929	0.0020108914
124	0x3b997590	0.004683204
125	0x3b44af65	0.003001177
126	0xbbe70f45	-0.007051381
127	0xbaeb4163	-0.0017948564
128	0xbbde023c	-0.0067751687
129	0xba823f84	-0.0009937142
130	0x3af542fd	0.0018711981
131	0x3bc7aa5b	0.006093306
132	0x3a9fa8aa	0.0012181003
133	0xbc93b55b	-0.018030813
134	0x3a81fa5c	0.0009916532
135	0xbc0beb38	-0.008539967
136	0x3c1ae178	0.00945317
137	0xbc58cae5	-0.013231968
138	0x3c13db70	0.009024486
139	0xbacf806b	-0.0015831118
140	0x3bf25536	0.007395412
141	0x3bc5359f	0.006018355
142	0x3be4cffb	0.006982801
143	0x3aefe2c7	0.0018301838
144	0x3a9fba07	0.0012186178
145	0xbb7a7408	-0.0038216133
146	0x3bfa3dd9	0.0076367673
147	0x3bcee5dc	0.0063140225
148	0xbc2aaa4b	-0.010416578
149	0xbb4ef975	-0.0031581793
150	0xbb8442e4	-0.0040362943
151	0xba96f5d6	-0.0011517357
152	0xbb3bda34	-0.0028663995
153	0xbbb95cc4	-0.0056568105
154	0xbc944986	-0.018101465
155	0x3c2f64af	0.010705157
156	0xbba7f702	-0.005125881
157	0x3adecfe1	0.0016999209
158	0xbbd7baf4	-0.006583566
159	0xbb5571bb	-0.003256901
160	0x3a3561cc	0.0006919175
161	0xba7dcdef	-0.00096818706
162	0x3babb6c3	0.0052402928
163	0x3c61c031	0.013778732
164	0x3b7094c4	0.0036709765
165	0xbb71ef54	-0.0036916332
166	0x3b8cfef2	0.004302853
167	0x3c470b3a	0.012148673
168	0x39b3d79b	0.0003430218
169	0x3b4f2ad6	0.0031611226
170	0xbc9188da	-0.017765451
171	0x3b379ede	0.0028018276
172	0xbb651b87	-0.0034959035
173	0xbc6df525	-0.014523779
174	0xbc0d565b	-0.008626546
175	0xba7da421	-0.0009675641
176	0xbc4d4551	-0.012528733
177	0xb97028a6	-0.00022903326
178	0xbac33274	-0.0014892356
179	0x3c2bccee	0.010485871
180	0x3a8610b8	0.0010228371
181	0x3b9fe620	0.004879728
182	0xbc475f1f	-0.012168675
183	0x3934b50e	0.00017233586
184	0xbaab342c	-0.0013061813
185	0x3b6298f0	0.003457602
186	0xba844b99	-0.0010093331
187	0x3bd13a45	0.00638512
188	0x3a3a06ad	0.00070963317
189	0xbbaaef0d	-0.0052164854
190	0x3b50913c	0.0031824848
191	0x37cdc72e	2.4530655e-05
192	0x3ae781e4	0.0017662612
193	0x3bcb2a72	0.0062001282
194	0xbb9ce75f	-0.004788324
195	0xbb4a9feb	-0.0030918072
196	0xbbd0b4e2	-0.006369219
197	0xbcb43efd	-0.022002691
198	0x3be04619	0.006844294
199	0x3b88f5dd	0.0041797
200	0x3c20cd8d	0.009814632
201	0xbc2af8cb	-0.010435293
202	0x3bb604ee	0.005554787
203	0xba790eea	-0.00095008186
204	0x3b2b3779	0.0026125594
205	0x3c7dd871	0.015493498
206	0xbb27d6b1	-0.0025610144
207	0xbc255ee3	-0.010093424
208	0x3c491655	0.012273391
209	0xb9e16d1f	-0.00042996646
210	0xba99f013	-0.0011744521
211	0x3b5f3e66	0.0034064292
212	0x3aa3fa4f	0.0012510511
213	0x3b96540f	0.0045876573
214	0x3bd25d96	0.0064198477
215	0x39d3946d	0.00040355642
216	0xba8ce493	-0.0010749273
217	0xbc2a6cae	-0.010401888
218	0xbc076248	-0.008263178
219	0xbc00f0a3	-0.007869872
220	0x3c090329	0.00836257
221	0xbb886a33	-0.0041630506
222	0xbb73f27d	-0.0037223392
223	0x3ba9e2a6	0.0051844893
224	0x3a90e34c	0.0011054068
225	0xba4f9cf2	-0.000791981
226	0x3bb0d068	0.0053959377
227	0xba8101b2	-0.0009842424
228	0x3b66a06a	0.003519083
229	0x3bdf3541	0.0068117683
230	0xbb7c0c42	-0.0038459455
231	0x3b6ecc84	0.0036437819
232	0x3bd551df	0.006510004
233	0x3c017098	0.00790038
234	0x3987062c	0.00025753805
235	0xbbdb4f04	-0.006692769
236	0xbb219f38	-0.0024661552
237	0xbac0bbc5	-0.0014704397
238	0xbc0d6fbe	-0.008632598
239	0x3c39f1c2	0.011349143
240	0xbc389201	-0.011265279
241	0xbac35709	-0.0014903258
242	0xbb0f2187	-0.0021840052
243	0x3b15a6fb	0.0022835124
244	0xbac548fd	-0.001505166
245	0xbc1f63a1	-0.009728343
246	0xbbe56df0	-0.007001631
247	0xbba1d5cb	-0.004938816
248	0x3a60c548	0.0008574319
249	0x3bbec9c8	0.005822394
250	0x3bfa41f8	0.0076372586
251	0xbad9922a	-0.0016599346
252	0xbb427d2e	-0.0029676664
253	0x3ca129ca	0.019673247
254	0xbb74581c	-0.0037283963
255	0xbb676b70	-0.003531184

bias f4 [5]
0	0xbbd6f27e	-0.006559669
1	0x3ca5dea0	0.020247757
2	0xbc938a1b	-0.01801019
3	0xbc0cbc71	-0.00858985
4	0xbc0dcb4f	-0.00865443
