model/tiny-2ag/IA2C/model_agent1.pt (torch, 101825 bytes, 11 tensors)

weight f4 [64, 119]
0	0x3d50b041	0.05094934
1	0xbb883ff6	-0.0041580154
2	0xbdac359e	-0.08408664
3	0xbde3e744	-0.11128095
4	0x39a6bfba	0.00031804835
5	0x3e0f1add	0.13975091
6	0x3cb946b6	0.022616725
7	0x3e5e41f0	0.2170484
8	0xbd45e121	-0.048310403
9	0x3d931fc3	0.071837924
10	0xbd99c7a7	-0.07508784
11	0x3d89c5e7	0.067272
12	0x3e025713	0.12728529
13	0xbe30c5bc	-0.1726293
14	0x3e4ea133	0.2017868
15	0x3e3750b8	0.17901886
16	0x3e807faf	0.25097415
17	0x3e0cfcd0	0.13768315
18	0xbe811cdc	-0.2521733
19	0xbcdb8967	-0.026798917
20	0xbcf13c5a	-0.029447723
21	0xbd3aa4a9	-0.04556719
22	0x3e0e8be5	0.13920553
23	0xbe1ee891	-0.15518405
24	0x3e58e9c7	0.21182929
25	0xbdd3533e	-0.103186116
26	0x3cc72062	0.024307434
27	0x3d9fd0a8	0.0780347
28	0xbdb4e612	-0.08832945
29	0xbda49a27	-0.08037215
30	0xbe0a2021	-0.13488819
31	0x3e4d5c64	0.20054775
32	0x3e102ff3	0.14080791
33	0xbd4eb858	-0.050468773
34	0x3de09093	0.10965075
35	0x3d095593	0.033528876
36	0x3ddef60b	0.10886773
37	0xbd633411	-0.055469576
38	0x3e1d94c6	0.15388784
39	0x3c22b53c	0.009930905
40	0x3e7bf747	0.24606048
41	0x3d59cc95	0.05317362
42	0x3ce16c2e	0.027517404
43	0xbde8817f	-0.113528244
44	0x3d1fe164	0.03903331
45	0xbe476b7e	-0.19474599
46	0x3e9616d7	0.293143
47	0xbc9ce1ad	-0.01915058
48	0x3dd9a851	0.10627807
49	0x3dac63fe	0.084175095
50	0x3d83a2b2	0.06427516
51	0xbd3fa267	-0.04678574
52	0x3d8ff087	0.07028299
53	0x3c81d40c	0.015848182
54	0x3e342317	0.1759151
55	0x3d7739b8	0.06035778
56	0xbd646036	-0.055755816
57	0x3d430f3f	0.04762196
58	0xbca52394	-0.020158567
59	0x3cd21d42	0.025648717
60	0xbde80f78	-0.113310754
61	0xbd6f4c43	-0.05842234
62	0x3d4a14c6	0.049336217
63	0x3e7899c3	0.24277405
64	0x3e714eae	0.2356517
65	0x3d31198f	0.043237265
66	0x3dd3b0fc	0.103364915
67	0xbd33c2a4	-0.043886796
68	0xbe3a5b0b	-0.18198793
69	0xbd4b632d	-0.04965513
70	0x3dcfb0b8	0.10141128
71	0x3e13b4bc	0.14424413
72	0x3c9bbd4f	0.019011168
73	0xbceda08d	-0.02900722
74	0xbdf64a9e	-0.12025951
75	0xbddf801c	-0.10913107
76	0xbe3b6692	-0.18300846
77	0xbd27c7c7	-0.040962007
78	0xbd0f2e01	-0.034955982
79	0xbe60a0b2	-0.219363
80	0xbda8163f	-0.08207368
81	0xbe2d2fb1	-0.16912724
82	0xbd670c03	-0.05640794
83	0x3e022d62	0.12712625
84	0x3c9cfefb	0.019164553
85	0x3d1db5e6	0.03850355
86	0x3e0513e4	0.12995869
87	0xbd181fd9	-0.037139747
88	0x3e4ed13c	0.20197004
89	0xbe851b5f	-0.25997445
90	0xbe314ecc	-0.17315215
91	0x3e4eeb71	0.20207001
92	0xbe52ff4e	-0.20605204
93	0x3c7c0699	0.015382432
94	0xbde43a09	-0.11143882
95	0xbc745683	-0.014913204
96	0xbe800831	-0.2500625
97	0xbe412cc1	-0.18864729
98	0x3d8c91fe	0.06863783
99	0x3e39a670	0.18129897
100	0x3d9ea4af	0.07746255
101	0x3e4b995b	0.19882719
102	0xbd809ce7	-0.06279927
103	0xbc7bb8f6	-0.015363922
104	0xbe68744e	-0.22700617
105	0xbda00b43	-0.07814648
106	0xbd4eabdf	-0.050456878
107	0xbdc6acf1	-0.09700955
108	0xbe2a77e9	-0.16647305
109	0xbe4315ff	-0.1905136
110	0x3de8e989	0.11372668
111	0xbce49fdd	-0.02790826
112	0xbe18fa30	-0.14939189
113	0x3cbac2f4	0.022798039
114	0x3d199ce0	0.037503123
115	0xbdf79416	-0.12088792
116	0x3e51190a	0.20419708
117	0x3e09ebd3	0.13468866
118	0xbe001d2a	-0.12511125
119	0xbe3eff97	-0.18652187
120	0x3e028d1b	0.1274914
121	0xbdc5dfdf	-0.09661841
122	0x3d2f1746	0.042746805
123	0xbdfe64ca	-0.12421568
124	0xbd8042ac	-0.06262717
125	0x3d6e21c9	0.05813769
126	0xbe720eec	-0.23638505
127	0x3ea18a8a	0.3155101
128	0x3a821254	0.0009923675
129	0xbdf42978	-0.11921972
130	0x3d84c121	0.06482149
131	0xbe14a1bf	-0.14514826
132	0xbe436b27	-0.19083844
133	0xbe21e232	-0.15808943
134	0xbde08750	-0.10963309
135	0x3e57b6c1	0.21065809
136	0x3d907a77	0.07054608
137	0x3e91cced	0.28476658
138	0x3d0b4a5d	0.034006465
139	0xbe2ff3ac	-0.17182797
140	0xbd2e3078	-0.042526692
141	0x3db03d42	0.08605434
142	0xbde88890	-0.11354172
143	0xbcc6771f	-0.024226723
144	0xbd092619	-0.0334836
145	0x3d0d7ce7	0.034542944
146	0xbd0438f1	-0.032280866
147	0x3d483db0	0.048886955
148	0x3dab208d	0.08355818
149	0xbc63ebe0	-0.013911217
150	0x3cdd461f	0.027010975
151	0xbde3e0ad	-0.11126838
152	0x3c922ba5	0.017843077
153	0x3e12c63d	0.14333434
154	0xbe1927b6	-0.14956555
155	0xbda3f7bb	-0.08006235
156	0xbca2aa4a	-0.01985659
157	0xbc83ee49	-0.016104834
158	0xbd5eefbc	-0.054427847
159	0x3da8373d	0.08213661
160	0x3d18e5d5	0.03732856
161	0x3cda5a87	0.026654495
162	0x3e9feffa	0.31237775
163	0x3d41c7ae	0.04730957
164	0xbe37c5e2	-0.1794658
165	0xbc9ac067	-0.018890573
166	0xbdf5bb7f	-0.11998653
167	0xbc929be5	-0.017896602
168	0xbbf042b6	-0.0073321713
169	0xbe23c986	-0.15994844
170	0xbe57c3cd	-0.21070786
171	0x3e8a60db	0.2702702
172	0xbce5701b	-0.028007558
173	0x3e079f25	0.13244303
174	0x3d1db73c	0.038504824
175	0xbcb7a63a	-0.02241813
176	0xbd970576	-0.073740885
177	0xbca898f1	-0.02058074
178	0x3d859562	0.06522633
179	0x3c9b6224	0.018967696
180	0xbe022b96	-0.12711939
181	0x3a911850	0.0011069868
182	0x3d4bb434	0.049732402
183	0x3bb8cca3	0.005639629
184	0x3d723b27	0.059138443
185	0xbddaceb2	-0.10683955
186	0x3dd78e46	0.105251834
187	0xbde1d23f	-0.110264294
188	0xbd695a2b	-0.056970757
189	0x3c57aea5	0.013164197
190	0x3c9cdcda	0.019148279
191	0xbe4ee8dc	-0.20206016
192	0xbe6b4e73	-0.22979145
193	0x3e4aa559	0.19789638
194	0xbd22baa0	-0.03972876
195	0xbd8e36ac	-0.069440216
196	0xbe394ab9	-0.1809491
197	0x3d53f321	0.051745538
198	0x3c240578	0.0100110695
199	0xbcb70cd1	-0.022344979
200	0x3dd6f9b2	0.10496844
201	0xbe8baed6	-0.27281827
202	0xbe0dee5d	-0.1386046
203	0x3cdf2b67	0.027242376
204	0x3d059455	0.032612164
205	0x3d47024f	0.048586186
206	0xbcc2cf3e	-0.023780461
207	0x3e14be9f	0.14525841
208	0x3d1a7d61	0.037717227
209	0xbe9ec758	-0.31011462
210	0x3df3df94	0.119078785
211	0xbd72e1cc	-0.059297368
212	0x3e96d412	0.29458672
213	0x3bc7f0ae	0.0061016893
214	0xbc5614bb	-0.013066466
215	0x3d95aa89	0.073079176
216	0x3ec15a2d	0.3776411
217	0xbdfb9638	-0.12284511
218	0xbd9a6092	-0.075379506
219	0x3dd63c80	0.10460758
220	0x3d747863	0.059685122
221	0x3e24e8a0	0.16104364
222	0x3dab5274	0.08365336
223	0xbe4cc0ce	-0.19995424
224	0xbd9d8124	-0.07690647
225	0x3e0839a7	0.13303243
226	0x3d3078fb	0.043084126
227	0xbc9dacf9	-0.019247519
228	0xbe294872	-0.16531542
229	0xbd192d76	-0.03739687
230	0xbe140b55	-0.14457448
231	0xbba9dc1c	-0.00518371
232	0xbc803f6e	-0.015655246
233	0xbe1e4bbc	-0.15458578
234	0xbe2673c7	-0.16255103
235	0xbe8cbc11	-0.27487233
236	0xbe25a60f	-0.16176628
237	0xbca781ef	-0.0204477
238	0xbd77e74d	-0.06052332
239	0x3c31573b	0.01082402
240	0x3dfb8b18	0.122823894
241	0xbd80697c	-0.062701195
242	0xbe6e1069	-0.23248447
243	0x3c187459	0.009305083
244	0x3ea07683	0.31340417
245	0x3cc12496	0.023577016
246	0x3e12df93	0.143431
247	0xbe026a84	-0.12735945
248	0xbdb2e5c3	-0.0873523
249	0xbf0116b6	-0.5042528
250	0x3daaf20c	0.08346948
251	0xbcf03a82	-0.029324774
252	0xbccc506e	-0.024940696
253	0xbe221c5a	-0.15831128
254	0xbd90f100	-0.07077217
255	0x3d169408	0.036762267

bias f4 [64]
0	0xbc157b38	-0.009123616
1	0xba53d3e0	-0.0008080583
2	0xbb92a73c	-0.0044755023
3	0xbbddf34f	-0.0067733894
4	0xbb65be44	-0.0035056034
5	0x3c06e00e	0.00823213
6	0xba29b47c	-0.00064737326
7	0xbb98a093	-0.004657814
8	0x37fe5f9c	3.0323681e-05
9	0xb9a34c26	-0.00031146518
10	0xbc36e8a2	-0.011163862
11	0xbc43e116	-0.01195552
12	0xbb463ebd	-0.0030249797
13	0xbb3938e9	-0.002826268
14	0xba7ef160	-0.0009725299
15	0xbcb90545	-0.02258552
16	0xbb87c9d7	-0.004143934
17	0xbb7311aa	-0.0037089386
18	0xbc86d76e	-0.016460147
19	0xbcb15f32	-0.021651838
20	0xbaf240a8	-0.0018482404
21	0xbaf57a80	-0.0018728524
22	0xba03aead	-0.0005023282
23	0xbadb13ac	-0.0016714237
24	0xbc8a26c3	-0.016864186
25	0xbbe6418e	-0.0070268577
26	0x3ad1a9fc	0.0015996094
27	0xbbe5a6c6	-0.0070084063
28	0xbb6b17e2	-0.003587239
29	0xbbad4065	-0.0052872174
30	0x3b84f581	0.0040575867
31	0xbbefa622	-0.0073135057
32	0x3ac84510	0.0015279371
33	0x39713563	0.00023003439
34	0xb9d5196c	-0.00040645467
35	0xbba246c2	-0.0049522826
36	0x3b1f1974	0.0024276646
37	0xbbb414ad	-0.005495629
38	0xbc3a2bd8	-0.011362992
39	0xbb83ea80	-0.0040257573
40	0xbbf276bf	-0.0073994095
41	0xbbde16b4	-0.0067776088
42	0xbacfbb99	-0.0015848755
43	0xbc68183f	-0.014165937
44	0x37bf0303	2.2770377e-05
45	0x39e10afc	0.00042923528
46	0x398ff6f4	0.0002745908
47	0xbb45c48c	-0.0030176966
48	0xbb95a923	-0.004567282
49	0xb7d404cf	-2.5274609e-05
50	0x3c0d330f	0.00861813
51	0xbc382871	-0.011240111
52	0x3a956219	0.0011397033
53	0x3bbc8f4b	0.0057543865
54	0xbc243e90	-0.010024682
55	0xbcee4e45	-0.029090056
56	0x00000000	0.0
57	0xb9bcd378	-0.0003601571
58	0xbc0fb05c	-0.008770075
59	0xbc184252	-0.009293156
60	0x39ff02a2	0.00048639352
61	0xbab44655	-0.0013753871
62	0xbc65987e	-0.014013408
63	0x382fa5bc	4.1877604e-05

weight f4 [64, 64]
0	0x3b9847cd	0.004647231
1	0x3e9e3a03	0.30903634
2	0xbd02e307	-0.03195479
3	0x3e84146f	0.2579684
4	0x3e03e008	0.1287843
5	0xbe1dceaa	-0.15410867
6	0x3d66c8f2	0.05634398
7	0xbe95522a	-0.2916425
8	0x3d6ecb69	0.058299456
9	0x3e0eddda	0.13951817
10	0xbdae1438	-0.0849995
11	0xbe817c1f	-0.2529001
12	0x3dc51186	0.09622483
13	0x3cf826f0	0.030292004
14	0xbe20fc72	-0.157213
15	0x3d9dbfb5	0.07702581
16	0xbe45ba6d	-0.19309397
17	0x3e5bb086	0.21454057
18	0x3e7c96ba	0.24666873
19	0x3de6373a	0.112410024
20	0x3d14a8c6	0.036293767
21	0x3ea70155	0.32618204
22	0x3e0be00a	0.13659683
23	0x3e790c69	0.2432114
24	0x3c86eea0	0.016471207
25	0xbe8cd525	-0.27506366
26	0xbd95678f	-0.07295143
27	0x3e040889	0.12893881
28	0x3d430791	0.047614638
29	0x3e11e1c7	0.14246283
30	0x3d269650	0.040670693
31	0x3e8037ab	0.2504247
32	0xbd86ec91	-0.0658809
33	0xbe528041	-0.20556737
34	0x3ee16b4a	0.44027168
35	0xbde8836c	-0.11353192
36	0xbd8554c4	-0.065103084
37	0xbe6f0a7a	-0.2334384
38	0xbcf885e2	-0.030337278
39	0xbe79c5e6	-0.24391899
40	0x3e1ba14e	0.15198252
41	0x3e84ec46	0.25961512
42	0xbdfa1e5c	-0.12212822
43	0x3e71529a	0.23566666
44	0xbe044d23	-0.1292005
45	0xbbd5b095	-0.0065212944
46	0xbdac247f	-0.084053986
47	0xbde9aef0	-0.1141032
48	0xbd799f53	-0.06094296
49	0x3e8874d4	0.26651633
50	0x3c29ab15	0.010355731
51	0xbed270ec	-0.41101778
52	0xbe184126	-0.14868602
53	0xbcbd3ad8	-0.023099348
54	0x3e038be3	0.12846331
55	0xbe289b66	-0.1646553
56	0x3e14c608	0.14528668
57	0xbe3f81ec	-0.18701905
58	0xbd90ac62	-0.070641294
59	0xbe11e82e	-0.14248726
60	0xbe6f4305	-0.2336541
61	0xbd1293c4	-0.03578545
62	0xbe025c55	-0.12730534
63	0xbde0ee59	-0.10982961
64	0xbd7adaa7	-0.06124368
65	0xbd65ec2b	-0.05613343
66	0xbbaad8cf	-0.005213834
67	0x3d7af7e8	0.061271578
68	0xbc779019	-0.015110039
69	0xbda317dd	-0.07963536
70	0x3e599a70	0.2125032
71	0xbc92a709	-0.017901914
72	0x3db771e9	0.089572735
73	0xbdd5421b	-0.10412999
74	0xbdca6930	-0.09883344
75	0x3d734435	0.05939122
76	0xbec44667	-0.38334963
77	0xbdcbb4b1	-0.099465735
78	0xbe8c02bd	-0.2734584
79	0xbd934c57	-0.07192295
80	0x3ef1bb81	0.47213367
81	0x3dc25fa1	0.09490896
82	0xbe462c04	-0.19352728
83	0x3d4e38b0	0.05034703
84	0xbe324dc1	-0.17412473
85	0x3d89762d	0.06711993
86	0x3e26fbf8	0.16307056
87	0x3dd7052d	0.10499034
88	0x3e348559	0.17628993
89	0x3e06005e	0.13086078
90	0xbdd4933f	-0.103796475
91	0xbe51ad3a	-0.20476237
92	0x3ea6694a	0.32502204
93	0x3e3ab25c	0.18232101
94	0xbe27bda4	-0.16380936
95	0xbdebc3ae	-0.11511932
96	0xbe08331e	-0.1330075
97	0x3e9b4126	0.30323142
98	0xbe7b1499	-0.24519576
99	0xbdc1ce53	-0.09463181
100	0x3c0b8987	0.008516676
101	0xbeb517c4	-0.35369694
102	0xbe223217	-0.1583942
103	0x3dbe0a41	0.092792995
104	0x3e5e6f0c	0.21722049
105	0x3e5f78f7	0.21823488
106	0xbd9a37a0	-0.07530141
107	0xbcebc3ac	-0.028779827
108	0xbe205d10	-0.156605
109	0xbdacbfeb	-0.08435043
110	0xbeaf50f8	-0.34241462
111	0xbe5dba72	-0.21653154
112	0x3dd43bd2	0.10362972
113	0xbdfc6eb5	-0.12325803
114	0xbe16eb56	-0.14738211
115	0xbe0d86a6	-0.13820896
116	0x3d89d811	0.067306645
117	0xbdc3275d	-0.09528992
118	0x3e139a85	0.14414413
119	0x3dc3a650	0.09553206
120	0xbeb7795a	-0.3583477
121	0xbe7efda0	-0.24901438
122	0xbdd6d8f6	-0.10490601
123	0xbe424aed	-0.18973894
124	0x3e4d5e21	0.20055439
125	0x3db50fd3	0.08840909
126	0xbdc99508	-0.098428786
127	0xbd818b4a	-0.063253954
128	0xbebc384d	-0.36761704
129	0x3cb931d5	0.02260677
130	0xbe597d02	-0.21239093
131	0x3e81afdb	0.2532948
132	0xbe578a12	-0.21048763
133	0x3d0c07e9	0.03418723
134	0xbe3d463b	-0.18483822
135	0xbd9aa118	-0.075502574
136	0x3d3be53c	0.04587291
137	0xbd6a8bf3	-0.057262372
138	0xbdf1a98b	-0.11799916
139	0x3e040fc5	0.1289664
140	0x3c8c6cae	0.017141666
141	0x3eaf2dc8	0.34214616
142	0x3e035780	0.12826347
143	0x3e518392	0.20460346
144	0xba921c4e	-0.0011147351
145	0xbd032c2d	-0.03202455
146	0xbe8c516b	-0.27405867
147	0x3e36f07d	0.17865176
148	0xbe4b8009	-0.1987306
149	0x3dc44610	0.09583676
150	0xbc89ab4d	-0.016805315
151	0xbdbdb280	-0.09262562
152	0xbd107ca6	-0.035275124
153	0xbd6d36bc	-0.057913527
154	0xbe174440	-0.14772129
155	0x3d46d30c	0.048541114
156	0xbe7e663c	-0.24843687
157	0xbdef6f7f	-0.11691188
158	0x3e20bf0e	0.15697882
159	0x3e1b3dc8	0.15160286
160	0x3c9b4b11	0.018956693
161	0xbdc3e732	-0.095655814
162	0xbcb48b27	-0.02203901
163	0x3b0409a3	0.0020147345
164	0xbe44743c	-0.19184965
165	0x3d814646	0.06312232
166	0x3dbb64f3	0.09150114
167	0xbd58634f	-0.052829083
168	0xbda21c36	-0.07915537
169	0xbe02aa21	-0.12760212
170	0xbbb6d10b	-0.005579119
171	0x3e0b632f	0.13612054
172	0xbe5fe432	-0.21864393
173	0x3ec4f081	0.3846474
174	0xbefcf2d6	-0.4940402
175	0x3e595d0f	0.21226905
176	0x3de775af	0.11301743
177	0xbe354327	-0.17701398
178	0xbe9b0d83	-0.30283746
179	0xbe9618b6	-0.29315728
180	0x3dcb6916	0.09932153
181	0xbcd6a24f	-0.026200442
182	0x3da3bed2	0.079953805
183	0x3e074429	0.13209595
184	0x3dd17693	0.10227694
185	0xbd9e32e1	-0.07724548
186	0xbc29a755	-0.0103548365
187	0x3ec950f9	0.3931959
188	0x3e8e37d3	0.27776965
189	0x3e1ae96c	0.15128106
190	0xbcc8395c	-0.024441414
191	0x3d886b13	0.06661048
192	0x3e54c1c2	0.20777038
193	0x3d2124d8	0.039341778
194	0x3e399653	0.1812375
195	0x3ce95836	0.028484445
196	0x3eb2e166	0.3493759
197	0xbdff99ce	-0.12480508
198	0xbe21072b	-0.1572539
199	0x3e7e3005	0.24823005
200	0xbe365866	-0.17807159
201	0x3d7fc24a	0.062441148
202	0x3dbbc3ed	0.09168229
203	0x3ea5c2dc	0.32375228
204	0x3d965833	0.073410414
205	0x3e707e3f	0.23485659
206	0xbee2fd98	-0.44334102
207	0x3dfcc91a	0.123430446
208	0xbd6931d7	-0.056932297
209	0xbdc73ce0	-0.09728408
210	0xbec6d596	-0.38834828
211	0x3e0aa376	0.13538918
212	0xbd56def8	-0.052458733
213	0x3dd6586d	0.10466085
214	0xbe3a2649	-0.18178667
215	0x3ce55caa	0.027998287
216	0x3e6bf86e	0.23043987
217	0x3ca8039f	0.02050954
218	0xbdd4ecb7	-0.10396712
219	0xbb97fc42	-0.004638226
220	0xbbf4be3e	-0.0074689677
221	0xbdcd4d3d	-0.10024498
222	0xbe20bc01	-0.15696718
223	0xbe3298c2	-0.17441085
224	0x3e182bcb	0.14860456
225	0x3dab84b4	0.083749205
226	0x3dfd6894	0.12373462
227	0x3dad1e5b	0.084530555
228	0xbbe20910	-0.006898053
229	0x3df04769	0.117323704
230	0x3e1e4a4c	0.1545803
231	0xbea5b176	-0.32361954
232	0x3cbefbfb	0.023313513
233	0xbdf22bcf	-0.11824762
234	0xbd9a84c1	-0.07544852
235	0x3d9c6b1d	0.07637618
236	0x3e831104	0.2559892
237	0xbea60ac2	-0.32430083
238	0xbdace425	-0.084419526
239	0x3e29ad51	0.16570021
240	0x3eacdac9	0.3376067
241	0x3e7d5d86	0.24742708
242	0xbe784d18	-0.24248159
243	0xbe2fddb3	-0.17174415
244	0x3d893d98	0.06701201
245	0xbe3bc643	-0.1833735
246	0xbea7a845	-0.32745567
247	0xbd976656	-0.07392566
248	0xbce898b3	-0.028393125
249	0xbd3f682f	-0.046730217
250	0xbd97cd51	-0.07412208
251	0xbddb8eef	-0.10720622
252	0xbda4922d	-0.08035693
253	0xbd9adebb	-0.07562014
254	0x3d843f1b	0.06457349
255	0xbdcbfad9	-0.09959955

bias f4 [64]
0	0xbac626db	-0.0015117781
1	0x38adaf66	8.281953e-05
2	0xbc3caa1d	-0.011515168
3	0xbc80c447	-0.015718592
4	0xbbfe319f	-0.00775738
5	0xbc32660d	-0.010888589
6	0xbc80aead	-0.015708292
7	0xbc324321	-0.010880263
8	0xba9077d8	-0.0011022044
9	0xbc535672	-0.012899028
10	0xbcc28948	-0.023747101
11	0xbb221589	-0.0024732074
12	0xbc41e7ec	-0.01183508
13	0xbc1d5262	-0.009602161
14	0xb9404f44	-0.00018340076
15	0xb8b0dce6	-8.4334795e-05
16	0xbcd3b926	-0.025845122
17	0xb890411a	-6.878581e-05
18	0xbc4df477	-0.012570492
19	0xba7188d7	-0.0009213811
20	0xbb0b514d	-0.0021258176
21	0xbbde4453	-0.006783047
22	0xbc1073b6	-0.00881665
23	0xbb8399f8	-0.0040161572
24	0xb9250a1d	-0.00015739394
25	0xbc8deae0	-0.017323911
26	0xbc918631	-0.017764183
27	0x00000000	0.0
28	0xbb178f3f	-0.0023126153
29	0xbba1f9de	-0.0049431166
30	0xbc1c03f9	-0.0095224315
31	0x38b6b7c3	8.7126646e-05
32	0x00000000	0.0
33	0xbc3b19ca	-0.011419723
34	0xbaae8b58	-0.0013316674
35	0xb98e0e63	-0.0002709507
36	0xbb8380df	-0.0040131654
37	0xb5c6fd33	-1.482584e-06
38	0xbc2f2621	-0.010690243
39	0xbab319f6	-0.0013664353
40	0xbc029911	-0.007971064
41	0xbc29ea89	-0.010370859
42	0xbc1311d0	-0.008976415
43	0xbb358e12	-0.0027703089
44	0xbc4c2051	-0.012458877
45	0xbbe63ad7	-0.007026057
46	0xbc118280	-0.008881211
47	0xbb8842ae	-0.0041583395
48	0xba360ff4	-0.0006945126
49	0xbb80007f	-0.003906309
50	0xbb7f175a	-0.003892383
51	0xbcafcd53	-0.02146021
52	0xbac0315e	-0.001466315
53	0x398f8c11	0.00027379443
54	0xbc135d6f	-0.008994444
55	0xbc11cdef	-0.008899196
56	0xb93bd392	-0.00017912526
57	0xbc0abf2c	-0.0084684305
58	0xbc398376	-0.011322847
59	0xbc5a6589	-0.013329872
60	0xbbaeaed1	-0.0053308983
61	0xb66c9bd2	-3.525744e-06
62	0xbc9c19f5	-0.019055346
63	0xbbe3a355	-0.006946961

weight f4 [64, 119]
0	0xbc9d9035	-0.019233802
1	0xbe546b0d	-0.20743962
2	0xbd9c30ff	-0.07626533
3	0x3d9c9698	0.07645911
4	0xbd2b89e3	-0.041879546
5	0x3e3221f3	0.17395763
6	0x3cc387fe	0.023868557
7	0xbe3e0b4b	-0.18558995
8	0x3d06a173	0.032868814
9	0xbccb3f6f	-0.024810521
10	0x3db69669	0.08915407
11	0x3d85a4ad	0.0652555
12	0x3c0f4973	0.008745539
13	0xbadff8d9	-0.0017087712
14	0xbcecbcd1	-0.028898628
15	0xbc800e4f	-0.015631823
16	0xbd2db4bc	-0.04240869
17	0xbd8615b6	-0.0654711
18	0xbd7f2ca9	-0.06229845
19	0xbd914e93	-0.07095065
20	0xbd5d6f61	-0.054061297
21	0xbdd954a8	-0.1061185
22	0x3d85c548	0.06531769
23	0x3cc8e173	0.024521565
24	0x3e1d7431	0.15376355
25	0xbd466c3c	-0.048443064
26	0xbdd2d9f8	-0.102954805
27	0xbe036f84	-0.12835509
28	0xbe3bfccb	-0.18358152
29	0xbe4f78a2	-0.20260862
30	0xbe0bbfe5	-0.1364742
31	0xbe1a0410	-0.15040612
32	0xbe15949e	-0.14607474
33	0x3d63e8f1	0.055642072
34	0x3dc10a06	0.0942574
35	0x3da6ad70	0.08138549
36	0xbe0862cf	-0.13318942
37	0xbd7f6978	-0.062356442
38	0x3e0a16c6	0.1348525
39	0x3db46a69	0.088093586
40	0xbab9afc0	-0.0014166757
41	0xbe11d701	-0.14242174
42	0x3d858583	0.06519606
43	0x3da4f825	0.08055142
44	0xbe2956c7	-0.16537009
45	0x3eb0e0ca	0.345465
46	0x3d6dcdcb	0.058057588
47	0xbe162065	-0.14660795
48	0xbc89c072	-0.016815398
49	0x3da25d2d	0.07927928
50	0xbe321a24	-0.17392784
51	0xbd98fe8c	-0.07470426
52	0xbdc6747a	-0.09690185
53	0xbe040521	-0.12892582
54	0x3c8dbf5c	0.017303161
55	0x3db9aa30	0.09065664
56	0xbba23538	-0.004950192
57	0x3bc82e33	0.006109023
58	0x3e8cf448	0.27530122
59	0xbd6defdb	-0.058090072
60	0x3e06997b	0.13144486
61	0xbd804abe	-0.06264256
62	0x3dcd2d06	0.10018353
63	0xbe583eff	-0.21117781
64	0x3db05f1c	0.08611891
65	0xbe0b7b5b	-0.13621275
66	0x3e927a21	0.28608802
67	0xbe6102ef	-0.21973775
68	0x3d7d1cc6	0.06179502
69	0xbe84c75d	-0.25933352
70	0x3d2634a4	0.040577546
71	0x3df8bcf7	0.12145417
72	0xbd92883f	-0.07154893
73	0x3e887a28	0.26655698
74	0xbe16cdf0	-0.14726996
75	0x3d954a71	0.07289589
76	0x3ca6b89f	0.020351706
77	0xbe0f9073	-0.14019947
78	0x3dba9fb1	0.0911249
79	0x3d9a78d4	0.075425774
80	0x3d2b165a	0.041769363
81	0xbcd456fa	-0.02592038
82	0x3e9a5ddb	0.3014973
83	0xbdc8bc91	-0.09801591
84	0xbd5a93d1	-0.053363625
85	0x3dbf9ba7	0.0935586
86	0x3ec4b5fc	0.38420093
87	0x3e39cad9	0.18143786
88	0x3d2974d4	0.04137118
89	0x3da49f19	0.08038158
90	0xbd837dc3	-0.064204715
91	0xbdfb1885	-0.12260536
92	0xbdfb0710	-0.122572064
93	0xbe033294	-0.12812263
94	0xbcb110be	-0.021614429
95	0x3e483e46	0.19555005
96	0xbdecbb18	-0.11559123
97	0x3daae123	0.08343723
98	0xbe0f364d	-0.13985558
99	0xbca3a8ef	-0.019978015
100	0x3d9aa87c	0.07551667
101	0x3e830182	0.25587088
102	0x3e87f081	0.26550677
103	0xbe3b2afe	-0.18278119
104	0x3d96d0ae	0.07364021
105	0xbca825e6	-0.020525884
106	0xbd7bb1eb	-0.061448973
107	0xbcd9a224	-0.026566572
108	0x3e777596	0.24165949
109	0xbd7a31ee	-0.061082773
110	0x3e2a8fea	0.16656461
111	0x3dd0b152	0.10190071
112	0x3d610ad8	0.054941982
113	0x3b73fa87	0.0037228183
114	0xbdea68a5	-0.114457406
115	0xbddd04a9	-0.107919045
116	0xbaa3b9bb	-0.0012491265
117	0xbd7d428b	-0.06183104
118	0xbcee3a1a	-0.02908044
119	0x3d5684b2	0.05237264
120	0xbd882a63	-0.066487096
121	0xbe85555e	-0.26041692
122	0xbdf75d3c	-0.1207833
123	0xbdc076d3	-0.09397664
124	0x3df16fef	0.11788928
125	0x3c2b2620	0.010446101
126	0x3e0b33f1	0.13594033
127	0x3dbcc0b5	0.092164434
128	0xbda64893	-0.08119311
129	0x3c865431	0.016397567
130	0xbcd51678	-0.02601169
131	0x3b6c4519	0.0036051928
132	0xbde0806c	-0.109619945
133	0xbea62878	-0.3245275
134	0xbc0b54d0	-0.008504108
135	0xbda7c6d4	-0.0819222
136	0x3c750022	0.014953645
137	0xbcb4f7d3	-0.022090828
138	0xbcc68f3a	-0.024238218
139	0xbdd70c61	-0.10500408
140	0x3cc54325	0.024079869
141	0x3de07b14	0.10960975
142	0x3c27a8c8	0.010233112
143	0xbd85fd69	-0.06542475
144	0x3d992039	0.07476849
145	0xbdf6e348	-0.12055069
146	0x3e382fb2	0.17986944
147	0xbc865e89	-0.0164025
148	0xbe11e671	-0.14248063
149	0xbda648d5	-0.0811936
150	0x3e3c6b83	0.18400387
151	0xbd6287c8	-0.055305272
152	0xbe3b4c03	-0.18290715
153	0xbe3425ac	-0.17592496
154	0x3d191dfe	0.03738212
155	0xbe28db4a	-0.16489902
156	0x3cf79bb1	0.030225607
157	0xbd1ecd32	-0.03876991
158	0x3cb51ce2	0.022108499
159	0xbe4cd40c	-0.20002764
160	0x3d8eeb04	0.069784194
161	0x3da1cf70	0.07900894
162	0x3d390e31	0.04517955
163	0x3a55f5dc	0.0008161941
164	0x3bc95f84	0.0061454196
165	0x3d94b3a4	0.07260826
166	0x3e92a806	0.28643817
167	0x3e4247e2	0.18972734
168	0xbdb9a035	-0.0906376
169	0x3e263731	0.16231991
170	0xbe420f03	-0.18951039
171	0xbe2107d1	-0.15725638
172	0xbd36db38	-0.044642657
173	0xbe7f4637	-0.24929129
174	0xbe9ccdca	-0.30625755
175	0x3c81b83c	0.01583492
176	0x3e102ffb	0.14080803
177	0xbdd4be47	-0.10387855
178	0x3e7fdd25	0.24986704
179	0xbd335a36	-0.043787204
180	0xbcbc2002	-0.022964481
181	0x3e3b7268	0.18305361
182	0xbd913b6d	-0.07091413
183	0x3e23c6b6	0.15993771
184	0xbc4c1401	-0.012455941
185	0xbe1b0c47	-0.15141402
186	0x3e4106fc	0.1885032
187	0x3c6063f0	0.013695702
188	0xbdd50411	-0.10401166
189	0xbd815411	-0.063148625
190	0x3e8cc6fc	0.27495563
191	0x3e0ff02a	0.14056459
192	0xbdfe9f58	-0.12432736
193	0x3d884fda	0.066558555
194	0x3d5c6f86	0.053817295
195	0x3d8e84d3	0.06958928
196	0x3c3a8121	0.011383326
197	0xbcda1bfb	-0.02662467
198	0xbce96051	-0.02848831
199	0xbd7f50c6	-0.06233289
200	0x3e37ccd3	0.17949228
201	0x3d8aca6d	0.06776891
202	0x3e95d3ba	0.29263097
203	0x3e509822	0.20370534
204	0xbdcc0baf	-0.09963166
205	0x3e051b34	0.12998658
206	0xbdc72c9b	-0.09725305
207	0x3cf699e4	0.030102678
208	0xbe52f8be	-0.206027
209	0xbcd29298	-0.025704667
210	0xbd8cb6ea	-0.068708256
211	0xbec22e43	-0.3792592
212	0xbd973264	-0.07382658
213	0x3e81e1e5	0.25367656
214	0x3dd4bd0b	0.103876196
215	0xbe42fefe	-0.19042584
216	0x3d8a891f	0.06764435
217	0x3d0c1f35	0.03420945
218	0xbd316993	-0.043313574
219	0x3d952059	0.072815605
220	0x3d3d0b97	0.04615363
221	0x3de8aac8	0.11360699
222	0x3de3577d	0.111006714
223	0xbc5be0cf	-0.013420298
224	0xbd6a1365	-0.057147402
225	0xbdeac9bd	-0.1146426
226	0x3da17512	0.078836575
227	0xbd47554f	-0.04866534
228	0xbd2340ca	-0.03985671
229	0x3e4c549b	0.1995415
230	0xbdb3edd1	-0.08785594
231	0x3dbb10a7	0.091340356
232	0xbd6f037b	-0.05835293
233	0x3d87f19d	0.06637881
234	0x3d867b21	0.06566454
235	0x3de928a8	0.11384708
236	0xbd99d8a5	-0.07512025
237	0xbdf5addb	-0.11996051
238	0x3cbab811	0.022792848
239	0xbe181e53	-0.14855318
240	0x3d93b122	0.0721152
241	0xbe18196a	-0.14853445
242	0xbd4e55ef	-0.05037492
243	0xbe0c8550	-0.1372273
244	0xbe360d38	-0.1777848
245	0xbe1e2c51	-0.15446593
246	0xbe1574db	-0.14595358
247	0x3df52464	0.119698316
248	0x3db3a92c	0.08772501
249	0x3e7ba548	0.24574769
250	0xbcf9be76	-0.030486327
251	0x3e5aace7	0.2135502
252	0xbe9aa38a	-0.30202895
253	0x3df7ccab	0.12099584
254	0x3d577077	0.05259749
255	0xbdd66bb8	-0.104697645

bias f4 [64]
0	0xbcc9d68b	-0.024638435
1	0xbcf1ab81	-0.029500725
2	0xbc7a89b9	-0.015291625
3	0x3c413973	0.011793482
4	0xbb95ddd2	-0.004573562
5	0xbba8b391	-0.005148359
6	0xbcb2dacf	-0.021832852
7	0xbcaf8854	-0.021427311
8	0xbd740b10	-0.059580863
9	0x00000000	0.0
10	0xbc2a9e48	-0.010413714
11	0xbd2a790e	-0.041619353
12	0xbc7accbf	-0.015307604
13	0xbca55cf0	-0.020185918
14	0xbd5e9522	-0.054341443
15	0xbd23ba24	-0.03997244
16	0x3c1d3154	0.00959428
17	0xbcc74101	-0.024322988
18	0xbca42507	-0.020037187
19	0xbc9e84bc	-0.019350402
20	0xbce87b4a	-0.028379101
21	0xbcc28383	-0.02374435
22	0xbc60fc53	-0.013732034
23	0xbd2174b8	-0.039417952
24	0xbd1d196c	-0.038354322
25	0xbd453c94	-0.048153475
26	0xbb587fed	-0.0033035234
27	0xbd49876b	-0.04920141
28	0xbd05f908	-0.032708198
29	0xbcc0edf9	-0.023550974
30	0x3c4e52c9	0.01259298
31	0xbca630a7	-0.020286871
32	0xbd2b713b	-0.041856032
33	0xbcfccd23	-0.030859536
34	0xbcbc5676	-0.022990447
35	0xbc94559d	-0.01810723
36	0xbb309ec9	-0.0026950112
37	0xbd484272	-0.048891492
38	0x393922ef	0.00017655989
39	0xbc4a2bfd	-0.012339589
40	0xbcb5986b	-0.022167405
41	0xbd0d375d	-0.034476627
42	0x3ca9f3b3	0.020746088
43	0xbd3cfbce	-0.046138577
44	0xbb3ae611	-0.0028518478
45	0xbc83c0c1	-0.016083123
46	0xbd02e09f	-0.031952497
47	0xbbb04654	-0.0053794775
48	0xbc44e4d4	-0.0120174475
49	0xbcec9e42	-0.028884057
50	0xbcef2b5f	-0.029195486
51	0xbbeefd0a	-0.007293348
52	0xbc8da8bc	-0.017292373
53	0xbd4d9de8	-0.05019942
54	0xbd77b122	-0.06047166
55	0xbd40f3f6	-0.04710766
56	0x3c7a45a8	0.015275396
57	0xbd66b9b7	-0.056329455
58	0xbc93762a	-0.018000681
59	0xbc7f75a5	-0.0155920135
60	0xbd11ca6d	-0.03559344
61	0xbd6c032d	-0.057620216
62	0xbd3e9615	-0.046529848
63	0xbd14c9f9	-0.03632543

weight f4 [64, 64]
0	0x3e495b77	0.19663797
1	0xbdb21be9	-0.0869673
2	0xbe469374	-0.19392186
3	0xbea7f8dc	-0.32807052
4	0x3d5c0fef	0.053726133
5	0xbe812a19	-0.2522743
6	0x3cf08712	0.029361282
7	0x3da564cf	0.08075868
8	0x3d3fe2bf	0.0468471
9	0x3ed18c3e	0.4092731
10	0xbe4f26d6	-0.20229658
11	0x3e257a5d	0.16159959
12	0x3e31cb80	0.17362785
13	0x3dcb9b2c	0.09941706
14	0x3e94348e	0.28946346
15	0x3e1d13ee	0.15339634
16	0xbe86cefa	-0.26329786
17	0xbda0035f	-0.07813143
18	0x3e3345b9	0.17507066
19	0xbe4f3656	-0.20235571
20	0xbdde19f4	-0.10844794
21	0xbd6161ba	-0.05502484
22	0xbe85a568	-0.26102757
23	0xbdc38d17	-0.09548395
24	0xbdee7eb7	-0.11645263
25	0x3e1a8f80	0.15093803
26	0x3e6cee7c	0.2313785
27	0x3e569613	0.20955686
28	0xbe1e648b	-0.15468042
29	0xbeabf644	-0.33586323
30	0x3db43444	0.087990314
31	0x3d96da2a	0.0736583
32	0xbe4a9faa	-0.1978747
33	0x3d0a77fb	0.03380583
34	0xbe35d3ec	-0.17756623
35	0xbcc95872	-0.024578307
36	0xbea933d4	-0.33047354
37	0x3d06b6b2	0.032889076
38	0xbe3e0f5b	-0.18560545
39	0xbe9ac68c	-0.30229604
40	0xbe8ba688	-0.2727549
41	0xbe8b83ce	-0.27248996
42	0x3e253ca2	0.16136411
43	0xbc130270	-0.008972749
44	0xbdecf339	-0.115698285
45	0x3e0ad691	0.13558413
46	0xbe28cab8	-0.16483581
47	0xbdf446bf	-0.11927556
48	0x3d821aba	0.06352754
49	0xbe5c1dfe	-0.21495816
50	0xbe5adf86	-0.2137433
51	0xbe13f1f8	-0.14447773
52	0xbdd4f027	-0.10397368
53	0xbd9150b2	-0.070954695
54	0xbd131518	-0.03590879
55	0xbe274f77	-0.16338907
56	0xbda7446f	-0.081673495
57	0x3e82ca83	0.2554513
58	0xb9eb24de	-0.0004485016
59	0xbe3e1cba	-0.18565646
60	0xbd00520e	-0.031328253
61	0xbdbf4137	-0.093386106
62	0xbd1d9f2c	-0.038481876
63	0x3d881644	0.06644872
64	0xbe4f738f	-0.20258926
65	0x3d88dc46	0.06682639
66	0xbda2b2a2	-0.07944228
67	0x3e2b774a	0.16744724
68	0xbcc53cc1	-0.024076821
69	0xbb995e42	-0.004680426
70	0x3ce4e738	0.027942285
71	0x3e317eb8	0.17333496
72	0x3d675f5c	0.056487426
73	0xbd01ddf6	-0.03170582
74	0xbebdc828	-0.3706677
75	0xbd3f8511	-0.04675776
76	0x3e412b62	0.18864205
77	0xbe92db64	-0.28683007
78	0xbe32d82f	-0.1746528
79	0x3d1a8ba5	0.03773083
80	0xbd36d8ed	-0.04464047
81	0x3db6db09	0.089284964
82	0xbd0dc881	-0.034615044
83	0xbe079699	-0.13241042
84	0x3ebabc09	0.36471584
85	0xbe32fc9a	-0.17479172
86	0xbdc6dacf	-0.09709703
87	0xbe0fff0d	-0.14062138
88	0x3e659af9	0.22422399
89	0x3e9c5e82	0.30540854
90	0x3e6169fb	0.22013085
91	0x3e6dad4f	0.23210643
92	0x3d547f0b	0.05187897
93	0xbe45f369	-0.19331135
94	0xbd81ed40	-0.0634408
95	0x3ec644b3	0.38724288
96	0x3e2fdcd5	0.17174084
97	0xbdec58b3	-0.115403555
98	0xbe7cb7d3	-0.24679498
99	0x3e3d859a	0.18507996
100	0x3e6805ec	0.22658509
101	0x3d123e31	0.03570384
102	0x3e7e6c31	0.24845959
103	0xbd7470a6	-0.059677742
104	0x3e2ae5bf	0.16689204
105	0xbdfda220	-0.123844385
106	0xbe3b302a	-0.18280092
107	0x3d8ea96e	0.0696591
108	0x3e81b5b8	0.25333953
109	0xbdfd3596	-0.12363736
110	0xbdd5164b	-0.10404643
111	0x3e9dfed0	0.3085847
112	0x3d98e221	0.07465006
113	0xbd5e50fe	-0.05427646
114	0x3eab433c	0.33449733
115	0x3b855f2c	0.0040701833
116	0xbe3c0fe5	-0.18365438
117	0xbd8a70a1	-0.067597635
118	0x3cd815b1	0.02637753
119	0x3e57d56d	0.21077509
120	0xbe30d201	-0.1726761
121	0x3e573dac	0.2101962
122	0x3e6f05dc	0.23342079
123	0xbda2f160	-0.07956195
124	0x3dbde748	0.09272629
125	0xbcf8dc9c	-0.030378632
126	0xbb98776f	-0.0046529095
127	0x3e716c19	0.23576392
128	0xbda3ea90	-0.080037236
129	0x3d250542	0.040288217
130	0x3df43e09	0.11925895
131	0x3dd2a229	0.10284836
132	0xbd8279f2	-0.063709155
133	0x3d836d73	0.0641736
134	0x3c1832ea	0.009289483
135	0x3cd2a9b1	0.02571568
136	0xbd16c0ee	-0.036805086
137	0xbe07f2d1	-0.13276221
138	0x3c8c421d	0.017121369
139	0xbcacee37	-0.021109683
140	0x3c0121d3	0.0078815995
141	0x3e4800ee	0.19531605
142	0x3e549c4c	0.20762748
143	0x3eba1b51	0.36348966
144	0xbb6bd105	-0.003598274
145	0x3e872b66	0.26400298
146	0xbe96871f	-0.29399964
147	0xbe4b88e8	-0.19876444
148	0x3eed9149	0.46399906
149	0xbe965a33	-0.29365692
150	0xbda4e08c	-0.080506414
151	0x3c033dbc	0.008010324
152	0x3e0435e9	0.1291119
153	0xbeb7f998	-0.35932612
154	0x3c65544c	0.013997149
155	0xbc9d5df8	-0.019209847
156	0x3e3e3cef	0.18577932
157	0x3dab2b47	0.08357864
158	0x3b98031f	0.004639044
159	0x3de60ff2	0.1123351
160	0xbeea654b	-0.45780405
161	0xbaeef935	-0.0018232228
162	0x3c457ced	0.01205371
163	0x3d09a49a	0.033604242
164	0x3de067de	0.10957311
165	0x3e18df8f	0.14929031
166	0xbdd77cbf	-0.1052184
167	0xbeb05d3b	-0.3444613
168	0x3e13b363	0.144239
169	0xbdbb4891	-0.091447
170	0xbe1e608b	-0.15466516
171	0x3d431a3d	0.047632445
172	0xbece6af7	-0.40315983
173	0xbce6c9f7	-0.028172476
174	0xbde7f25b	-0.113255225
175	0x3e12bb0d	0.14329167
176	0x3e2c33ab	0.16816585
177	0x3e601c67	0.21885835
178	0xbc8e3003	-0.017356878
179	0xbd9e1d06	-0.077203795
180	0x3c38325b	0.011242474
181	0x3e76e5e5	0.24111135
182	0xbe36abc3	-0.1783896
183	0xbe1ff171	-0.15619446
184	0xbe4024cc	-0.18764037
185	0xbde98469	-0.11402208
186	0xbe52d9a8	-0.20590842
187	0xbe173082	-0.14764598
188	0xbe7a80b4	-0.24463159
189	0x3e307c0c	0.1723482
190	0x3d4ea5e0	0.05045116
191	0xbd9c7000	-0.0763855
192	0x3c6e66fb	0.01455092
193	0xbe381495	-0.17976601
194	0xbcb54462	-0.022127334
195	0x3e168061	0.1469741
196	0xbe37a404	-0.17933661
197	0xbea533fd	-0.32266226
198	0xbe6c6d86	-0.23088655
199	0xbd8bd2ea	-0.06827338
200	0xbd063875	-0.032768685
201	0x3e3180e1	0.1733432
202	0xbd6970b0	-0.056992233
203	0xbdf5ac8a	-0.119958
204	0xbe0c8f3c	-0.13726515
205	0xbd1f7c7d	-0.03893708
206	0xbd6561fa	-0.05600164
207	0xbde5a2c4	-0.11212686
208	0x3c034103	0.0080111055
209	0xbea23ab8	-0.31685424
210	0xbdbad58f	-0.09122764
211	0xbd9e0560	-0.07715869
212	0x3d45c794	0.048286036
213	0xbd594741	-0.05304647
214	0x3e2e69b6	0.17032513
215	0x3d8bae56	0.06820361
216	0x3eabcca2	0.3355456
217	0xbd9f5c1f	-0.077812426
218	0xbe79ff20	-0.24413729
219	0x3e4ad7e0	0.19808912
220	0xbe0e1b6d	-0.1387765
221	0xbe4866c6	-0.19570455
222	0x3e17ee7c	0.14837068
223	0xbc142ee6	-0.009044385
224	0xbd4df9e9	-0.05028716
225	0x3c2e4669	0.010636904
226	0xbe7ab830	-0.24484324
227	0x3cb0959e	0.021555718
228	0xbe674a69	-0.22586979
229	0xbd223be0	-0.039607882
230	0x3e94c8dd	0.29059497
231	0x3dd3c54e	0.10340367
232	0xbeaf4aeb	-0.34236845
233	0xbdeb4ba0	-0.11489034
234	0xbe219b27	-0.15781842
235	0x3e95578b	0.29168352
236	0xbe6e7b4e	-0.23289225
237	0xbe4ae8fd	-0.1981544
238	0xbe79a229	-0.24378265
239	0xbe70b880	-0.23507881
240	0x3b03fc2d	0.0020139322
241	0x3d066696	0.032812677
242	0x3c02f08b	0.00799192
243	0xbe1d28f9	-0.15347661
244	0xbdeda0b3	-0.116029166
245	0x3ecb5565	0.39713588
246	0x3e5a42cc	0.21314543
247	0x3e52d992	0.20590809
248	0xbc3270d6	-0.01089116
249	0xbea7a412	-0.32742363
250	0x3cf9b591	0.030482085
251	0x3dc50f2a	0.09622033
252	0x3e35702c	0.17718571
253	0x3e477585	0.19478424
254	0x3e7517a8	0.23934805
255	0xbe29e686	-0.16591844

bias f4 [64]
0	0xbd7787d8	-0.060432285
1	0xbc1c6672	-0.009545909
2	0xbc928b08	-0.01788856
3	0xbcc826b0	-0.02443251
4	0xb9d717f7	-0.0004102585
5	0x3d0550e9	0.032547865
6	0xbcf66eb7	-0.03008209
7	0xbc64f1bf	-0.013973652
8	0x3d1a4fd9	0.037673805
9	0x3cd20428	0.025636747
10	0x3d40a0e0	0.047028422
11	0xbc8e7508	-0.01738979
12	0xbcab0bac	-0.020879589
13	0xbc2f6ee3	-0.01070759
14	0x3ca59a09	0.020215051
15	0xbd03b860	-0.032158256
16	0xbdcee4b9	-0.10102219
17	0x3c6f6ad9	0.014612877
18	0xbd2bbf6e	-0.04193061
19	0x3b29837a	0.002586572
20	0xbceb4209	-0.028718011
21	0xbd43e4c8	-0.047825605
22	0xbc597d81	-0.013274551
23	0xbcb8933e	-0.022531148
24	0x3c739ba6	0.014868652
25	0x3c354585	0.011063938
26	0xbb899e34	-0.0041997675
27	0xbca52f74	-0.020164229
28	0x3c775c52	0.0150976945
29	0xbc5e9d6b	-0.013587336
30	0xb9ffa21c	-0.0004875817
31	0x3c0574b0	0.008145496
32	0xbbdfc5e1	-0.006829009
33	0xbd30633a	-0.04306338
34	0x3d5fa2a0	0.05459845
35	0xbd11cc29	-0.035595093
36	0xbd0e6a2d	-0.034769226
37	0x3b4ec35c	0.0031549549
38	0xbca225bd	-0.019793386
39	0x3c6edfd2	0.01457973
40	0xbcd45fa8	-0.025924519
41	0x3c0cbe30	0.008590266
42	0xbcd9e106	-0.026596557
43	0x3cb7e937	0.022450073
44	0x3c1e2105	0.009651427
45	0xbc5ecd6e	-0.013598783
46	0xbda5cf71	-0.08096207
47	0x3cc40fc2	0.023933295
48	0x3b20767d	0.0024484687
49	0x3d472ffb	0.048629742
50	0x3b9eb45c	0.004843278
51	0xbb6abf09	-0.0035819432
52	0xb79481ee	-1.7703478e-05
53	0x3c91e34c	0.017808579
54	0xbcd3241a	-0.02577405
55	0x3c8542b7	0.016267164
56	0xbc0ec0ca	-0.008712957
57	0xbcb656bc	-0.022258155
58	0x3c0b1db7	0.008490971
59	0xb9f43905	-0.0004658179
60	0x3ca301df	0.019898353
61	0xbd229899	-0.03969631
62	0xbbfac42a	-0.007652779
63	0x3d206250	0.039156258

weight f4 [1, 64]
0	0x3e227e8e	0.1586859
1	0x3d5dd19e	0.054154985
2	0x3de1b395	0.11020581
3	0xbe334d43	-0.17509942
4	0x3b4fda50	0.0031715818
5	0x3d0cfe47	0.034422185
6	0x3c4c3880	0.0124646425
7	0xba03c87f	-0.00050271297
8	0x3e1a644e	0.15077326
9	0xbd9086d4	-0.070569664
10	0xbd963b8c	-0.073355764
11	0xbdad5452	-0.084633484
12	0x3bcfa957	0.0063373256
13	0xbdf2b1bf	-0.118503086
14	0xbe1f3528	-0.15547621
15	0xbd386bbe	-0.045024626
16	0xbeb95c72	-0.36203343
17	0x3d1da40a	0.038486518
18	0xbe5e2f1b	-0.21697657
19	0xbd522d22	-0.051312573
20	0x3ce4f272	0.027947638
21	0x3e72636f	0.23670743
22	0xba41faeb	-0.00073997554
23	0x3c55b00b	0.01304246
24	0x3d491206	0.049089454
25	0x3d5794e4	0.052632228
26	0x3a83aa52	0.0010045266
27	0xbd2c5889	-0.04207662
28	0x3dc95353	0.09830346
29	0x3d744b7c	0.0596423
30	0x3c91b43c	0.017786138
31	0xbdcd19b5	-0.10014669
32	0x3a5a4a18	0.0008327081
33	0x3e915075	0.28381696
34	0xbd185715	-0.037192423
35	0xbdad37d3	-0.08457913
36	0x3b082e63	0.0020779602
37	0x3b18d0b3	0.0023317754
38	0x3e19b320	0.15009737
39	0x3d71d16c	0.05903761
40	0xbdb42c4f	-0.08797514
41	0xbd88baa0	-0.06676221
42	0x3daee08d	0.085389234
43	0x3d973e78	0.07384962
44	0xbcbe1780	-0.023204565
45	0xbe21fe59	-0.15819682
46	0xbeb275fe	-0.34855646
47	0xbd5093e9	-0.050922308
48	0x3c5222d0	0.012825683
49	0x3e136942	0.14395621
50	0xbc14018a	-0.00903357
51	0xbc8cb77d	-0.017177338
52	0x3b535106	0.0032244339
53	0xbd9af306	-0.07565884
54	0xbd4098f3	-0.047020864
55	0xbda6034d	-0.08106098
56	0xbb09965e	-0.0020994167
57	0xbc8392d3	-0.016061222
58	0xbd265f29	-0.040618096
59	0x3db5ff74	0.088866144
60	0x3defa3bc	0.11701152
61	0x3ca5d52d	0.020243252
62	0x3e203e00	0.15648651
63	0xbe2a408a	-0.16626182

weight f4 [5, 64]
0	0xbc2de9b7	-0.010614804
1	0xb8c40585	-9.3470364e-05
2	0xbb2bb587	-0.0026200728
3	0xbbb8afd3	-0.0056361943
4	0x3c088527	0.008332527
5	0xbbd3c79e	-0.006463005
6	0x3b4b8aaa	0.0031057992
7	0xbbb43845	-0.005499872
8	0xbb908afa	-0.0044110985
9	0xb8cab421	-9.665662e-05
10	0xbb64446a	-0.0034830817
11	0xbb6327d7	-0.0034661198
12	0x3b307108	0.002692284
13	0xbba9ca72	-0.005181604
14	0x39983082	0.0002902784
15	0xbb5cfdda	-0.0033720643
16	0xbbc635fd	-0.0060489164
17	0xba0686b3	-0.0005131766
18	0x3b6a8aa7	0.003578821
19	0xbb40e4ca	-0.0029433244
20	0xbaaf3651	-0.0013367628
21	0xbc036533	-0.008019733
22	0xbc20a433	-0.009804773
23	0xba17df14	-0.0005793434
24	0x3a4db2a6	0.000784675
25	0xbc0333b6	-0.008007934
26	0x3b4c3e8d	0.0031165213
27	0xba66cd64	-0.00088044093
28	0x3a9d95cc	0.0012022792
29	0xbc12a90f	-0.0089514395
30	0x3b9445ff	0.0045249457
31	0xbbf69d4c	-0.0075260755
32	0xbad0552a	-0.0015894521
33	0xbb3691bb	-0.0027857858
34	0xba1911d3	-0.0005839143
35	0xbc426ab4	-0.01186626
36	0xbb7b1c9f	-0.003831662
37	0xba98bd9f	-0.0011653191
38	0xb91131d6	-0.00013846843
39	0x3b03c008	0.0020103473
40	0xbc2791ec	-0.010227662
41	0x3a11a202	0.0005555452
42	0x3c427e7c	0.011870977
43	0x3b844b9d	0.004037334
44	0xbb83e7b9	-0.004025426
45	0xbb41f806	-0.0029597296
46	0xbc881eca	-0.016616244
47	0xba30e4c9	-0.0006747959
48	0x3b238dc4	0.0024956325
49	0x3836a83f	4.3548873e-05
50	0xbb315ba9	-0.002706269
51	0x3b9fb09a	0.0048733475
52	0x3c419ddb	0.011817421
53	0x378fd887	1.7147757e-05
54	0x3bfdde8b	0.0077474765
55	0xbb9ed331	-0.0048469533
56	0xbba6a6b4	-0.0050857905
57	0xbbb49065	-0.005510377
58	0xbb58f6d1	-0.0033106098
59	0xbc0e90dc	-0.008701529
60	0xbb6921d0	-0.0035573132
61	0xba9b3d6a	-0.0011843864
62	0x3b54d03e	0.0032472755
63	0x3c0cf304	0.008602861
64	0xbbb08375	-0.0053867646
65	0x3a8a0e34	0.0010532797
66	0xbbdca4c4	-0.006733509
67	0xbaaf2a0c	-0.0013363971
68	0xbce679a2	-0.02813417
69	0x39085e76	0.0001300516
70	0x3b3400d5	0.0027466316
71	0xbb6eabc8	-0.0036418308
72	0xbb0e95f8	-0.0021756869
73	0xbbc4fdc8	-0.0060116984
74	0xbc20e936	-0.009821227
75	0xbc54545a	-0.012959564
76	0x3af84fe1	0.0018944704
77	0x3c465dfb	0.012107368
78	0xbb296aad	-0.0025850937
79	0x3b27bb17	0.0025593692
80	0x3b1da56f	0.0024054905
81	0x3b5ae321	0.003339954
82	0xbbca4946	-0.0061732857
83	0x39f782ee	0.0004720906
84	0xbc8d98b7	-0.017284734
85	0x3ba8ab87	0.005147401
86	0x3cfca80d	0.030841852
87	0x3ae582db	0.0017510311
88	0xbb85b6ac	-0.004080614
89	0xbc7d8cc7	-0.015475458
90	0x3acf5c2b	0.0015820315
91	0xb992caf7	-0.0002799851
92	0xbc5b58ba	-0.013387853
93	0x3b32d41f	0.0027287079
94	0xbc8b9164	-0.017037101
95	0x3b9e262b	0.0048263273
96	0x3adb8f86	0.0016751147
97	0xbb2b140d	-0.002610448
98	0x3b78be7e	0.003795534
99	0x3abf4606	0.0014593012
100	0xbba1d663	-0.004938887
101	0xb8f7c4a9	-0.000118145086
102	0x3b82a590	0.0039870217
103	0xba34cd2b	-0.00068970275
104	0xb9d73050	-0.0004104399
105	0xbc8ebb6a	-0.01742335
106	0xbc482a8b	-0.012217174
107	0xbc16588e	-0.0091763865
108	0x3bfc3339	0.007696536
109	0x3c483a23	0.012220892
110	0x3c7bf77f	0.015378832
111	0xbbfbb0ca	-0.007680987
112	0x3ac22f97	0.0014815208
113	0xbc0db849	-0.008649894
114	0xbbd5bd55	-0.0065228143
115	0xbc228904	-0.009920362
116	0xbbad366d	-0.005286029
117	0xbba93d84	-0.005164804
118	0xb81596a1	-3.5664652e-05
119	0x3c26e929	0.010187426
120	0xbb1fbb9a	-0.0024373294
121	0xbae59dca	-0.0017518338
122	0x3c0f6b84	0.008753661
123	0x3bee1824	0.0072660614
124	0x3bcb3c02	0.006202222
125	0x39ca2bb7	0.00038561012
126	0x3b4aa655	0.0030921896
127	0xbbdf3d41	-0.006812722
128	0x3bf97c3c	0.007613687
129	0xb8c0f8f5	-9.201645e-05
130	0x3b51f19d	0.0032034882
131	0xbbe120a8	-0.006870348
132	0x3be69fe7	0.007038105
133	0xbb795662	-0.0038045873
134	0x3ae749d2	0.0017645902
135	0xbbb1a7a2	-0.0054215947
136	0xbb87e67e	-0.00414735
137	0x3b3ddc2b	0.0028970342
138	0xbb5441ff	-0.003238797
139	0x3b0e1001	0.002167702
140	0x3bd279ec	0.0064232256
141	0xbbf8c0f0	-0.0075913593
142	0x3a94b11c	0.0011344287
143	0x3aab234e	0.0013056786
144	0xbb9d999e	-0.0048095724
145	0xbb8b5102	-0.0042516002
146	0x3be00135	0.0068360814
147	0x39f21890	0.00046176137
148	0x3baf2287	0.005344692
149	0xbb5b922c	-0.0033503873
150	0xbc9b045b	-0.018922975
151	0xbb9db4d3	-0.0048128157
152	0x3a660354	0.00087742996
153	0xbbf4b876	-0.0074682785
154	0xbb1f1fd9	-0.0024280457
155	0x3a0d2553	0.0005384285
156	0x3b9be7a8	0.00475784
157	0xbbbf0a3c	-0.0058300775
158	0x3b890d3a	0.004182485
159	0xbba5af94	-0.005056331
160	0x3a9d3f2d	0.0011996977
161	0xbc34e58a	-0.0110410545
162	0xbc2f2dd9	-0.010692083
163	0x3a92a92f	0.0011189337
164	0xb6cb4f95	-6.059136e-06
165	0x38ba86e6	8.894298e-05
166	0x3b9915c6	0.004671785
167	0x3b1f6211	0.0024319927
168	0x3be34649	0.006935869
169	0x3b8fd016	0.0043888194
170	0xb9fa63bb	-0.0004775802
171	0x3a8520e8	0.0010156902
172	0xbb58c7d5	-0.0033078094
173	0xbb41c48f	-0.002956662
174	0xbc9e4bd0	-0.01932326
175	0xbb72ea2f	-0.0037065854
176	0xbc7a978a	-0.015294919
177	0x3b2cf900	0.0026393533
178	0xbabea723	-0.001454566
179	0xbb21f011	-0.002470974
180	0xbb1197bd	-0.0022215687
181	0x3bd0e264	0.006374644
182	0xbb6683d5	-0.0035173793
183	0x3b6402cd	0.0034791708
184	0x3af78dd1	0.0018886869
185	0x3b4e9c8d	0.0031526417
186	0xbc0ec4ff	-0.00871396
187	0xba355109	-0.0006916677
188	0x3aeb608d	0.0017957852
189	0x3b1028ff	0.0021997092
190	0xbba276e2	-0.0049580196
191	0x3b9d49ce	0.004800058
192	0xbad36039	-0.0016126699
193	0x3b82b58f	0.0039889286
194	0xba9240a9	-0.0011158186
195	0xb9f05067	-0.00045836272
196	0x3b163c53	0.002292414
197	0xbad77857	-0.0016439062
198	0xbb2e162a	-0.0026563504
199	0xbb62b8b0	-0.0034594946
200	0x3c3d713f	0.0115626445
201	0x3b62b16c	0.0034590615
202	0xbc41d857	-0.011831365
203	0xbb6bc999	-0.0035978316
204	0xbbb8b158	-0.0056363754
205	0xbc3bc27e	-0.011459945
206	0xbb22ccfd	-0.002484142
207	0x3b341774	0.00274798
208	0xbba8aa90	-0.0051472858
209	0x3b7e4734	0.0038799765
210	0x396edeb5	0.00022780414
211	0x3c3e9fb4	0.011634756
212	0x3978cd71	0.00023727656
213	0xbc43aa4b	-0.0119424565
214	0xbc651fe1	-0.013984651
215	0xba411ecf	-0.00073669566
216	0x3b3aee6a	0.0028523454
217	0xbbb9942d	-0.005663416
218	0xbbcc4e2a	-0.006234904
219	0x39dcc590	0.00042108865
220	0x3bb45b93	0.0055040806
221	0xbc0ecca9	-0.008715787
222	0x3b867a87	0.004103962
223	0x3bd942d0	0.006630279
224	0xba89926f	-0.0010495911
225	0xbb85632c	-0.00407066
226	0x3bd64c09	0.006539826
227	0x3c2ca0af	0.010536357
228	0x3bf5dcf9	0.0075031486
229	0xb90c6451	-0.00013388811
230	0x3b23ad4b	0.0024975117
231	0xbc01f8c9	-0.00793285
232	0xbad9067e	-0.0016557721
233	0xbb0390f0	-0.0020075403
234	0x3c2c5f73	0.010520804
235	0x3b22a4fa	0.0024817572
236	0x3ba80f23	0.0051287576
237	0xbbdd779a	-0.0067586424
238	0xbbebd76e	-0.007197312
239	0xbba93f44	-0.0051650126
240	0x3c03cf8f	0.008045091
241	0x3b464ca9	0.0030258095
242	0xbb5ec78f	-0.0033993458
243	0x3bb441f8	0.005501028
244	0xbb03e944	-0.002012805
245	0x3b2685ca	0.0025409334
246	0xbab9fafe	-0.0014189181
247	0xbba27659	-0.004957956
248	0x3b027e1f	0.00199116
249	0x3b8a722e	0.004225037
250	0xbbd61e8b	-0.0065344027
251	0xbaad4591	-0.0013219585
252	0xbad81254	-0.0016484954
253	0xb933576a	-0.00017103335
254	0x3a29bdf3	0.0006475143
255	0xbbb2af28	-0.005453009

bias f4 [5]
0	0xbb3125e4	-0.0027030641
1	0xba932784	-0.0011226987
2	0xbc0b861f	-0.008515864
3	0xb8da7f96	-0.00010418815
4	0xbbc16e1a	-0.0059030177
