model/tiny-2ag/IA2C/model_agent1_seed4.pt (torch, 101825 bytes, 11 tensors)

weight f4 [64, 119]
0	0xbdbde102	-0.092714325
1	0xbd96e01f	-0.073669665
2	0xbc644b19	-0.01393392
3	0xbdff2acc	-0.12459335
4	0x3da1a97f	0.07893657
5	0xbe23cc8a	-0.15995994
6	0x3e30bae5	0.17258795
7	0x3e3ca595	0.1842254
8	0xbdbd06fe	-0.09229849
9	0xbe40cbb9	-0.18827714
10	0x3c99bb13	0.018765962
11	0xbd06e5db	-0.03293405
12	0xbdc12598	-0.094309986
13	0x3daa79ef	0.08324038
14	0x3d723a15	0.059137423
15	0xbcfced2f	-0.030874817
16	0x3e823554	0.2543131
17	0xbe332b4b	-0.17496984
18	0xbdda8439	-0.10669751
19	0x3d9ea810	0.07746899
20	0x3da61b45	0.0811067
21	0xbe318e4f	-0.17339443
22	0xbe6e31c4	-0.23261172
23	0xbe83512c	-0.25647867
24	0x3e02cb1f	0.12772797
25	0x3e66e63b	0.22548763
26	0xbd7c243e	-0.061558
27	0x3d15c7c3	0.03656746
28	0x3c98d170	0.018654555
29	0xbe4f2949	-0.20230593
30	0x3d8e27ed	0.06941209
31	0x3cd9fad2	0.026608858
32	0x3d6b0a4e	0.057382874
33	0x3e758a9a	0.23978654
34	0xbdf853e3	-0.12125375
35	0x3d8160f3	0.0631732
36	0x3c7fe6bf	0.015618979
37	0xbd8a959f	-0.06766819
38	0xbd5185cf	-0.051153
39	0xbe6747e3	-0.22586016
40	0x3b0ed805	0.0021796238
41	0x3cf98fde	0.030464109
42	0xbe60f2b6	-0.21967587
43	0xbce23804	-0.027614601
44	0x3e445058	0.19171274
45	0x3def02e3	0.116704725
46	0xbe400499	-0.18751754
47	0x3d3840d0	0.044983685
48	0xbd4a2897	-0.049355116
49	0xbd823bbf	-0.06359052
50	0x3c582224	0.0131917335
51	0xbda19dfa	-0.0789146
52	0xbdb57fc0	-0.08862257
53	0x3e1054b2	0.14094809
54	0xbe407f1f	-0.18798493
55	0x3b71c6b6	0.0036892123
56	0x3d81008e	0.06298934
57	0xbc3fa64d	-0.011697364
58	0xbe6c0bde	-0.23051402
59	0x3e63700e	0.22210714
60	0x3dca7e71	0.09887398
61	0x3bcc09ed	0.006226769
62	0xbdc2dec8	-0.095151484
63	0x3e145697	0.14486156
64	0xbd71201b	-0.05886851
65	0x3e3eee4c	0.1864559
66	0xbd07aec6	-0.03312566
67	0x3c879588	0.016550794
68	0xbd8f5b1e	-0.06999801
69	0x3db937e6	0.09043865
70	0xbd13f269	-0.036119852
71	0x3e03c5be	0.12868401
72	0xbdf75134	-0.12076035
73	0xbcc9b722	-0.024623457
74	0xbd555b1a	-0.052088834
75	0x3cfe2f73	0.031028485
76	0xbcae89c5	-0.021305928
77	0x3e5472f1	0.20746972
78	0x3d559708	0.052145988
79	0xbc192699	-0.009347581
80	0x3d11ed78	0.03562686
81	0x3d3312b6	0.043719016
82	0x3dec19aa	0.115283325
83	0xbe58402a	-0.21118227
84	0xbe8ba3ae	-0.27273315
85	0xbe2d0c07	-0.1689912
86	0xbd26062f	-0.04053324
87	0xbc68f921	-0.014219553
88	0xbe6d59f3	-0.23178844
89	0x3d7fbc6b	0.06243555
90	0xbe57cee5	-0.21075018
91	0xbdeed0ba	-0.11660905
92	0x3e155d8b	0.14586465
93	0x3e18c585	0.14919098
94	0xbe688a59	-0.22709025
95	0x39e43d45	0.00043533198
96	0xbcba54bd	-0.022745484
97	0xbe2953b1	-0.16535832
98	0x3d9f3545	0.07773832
99	0x3d8467f3	0.06465139
100	0xbca49c1a	-0.020093966
101	0x3cb513a5	0.022104094
102	0x3e138509	0.14406218
103	0xbd912fe1	-0.0708921
104	0x3e5616d7	0.2090715
105	0xbdf1c184	-0.11804488
106	0x3d9004e7	0.07032185
107	0xbe1394a0	-0.14412165
108	0x3e0d569c	0.1380257
109	0x3d4ca6e1	0.049963836
110	0x3e25a590	0.16176438
111	0x3e64d6be	0.22347543
112	0xbd05ace1	-0.032635573
113	0xbc0570c6	-0.008144563
114	0xbcae314a	-0.021263737
115	0xbcb73625	-0.022364685
116	0xbea6bb97	-0.32564995
117	0xbe6fa0fd	-0.23401256
118	0x3d3b572e	0.045737438
119	0xbcb63e2a	-0.022246439
120	0xbda84507	-0.08216291
121	0xbd947434	-0.072487265
122	0x3d6d3c1f	0.057918664
123	0x3e5c9e62	0.21544793
124	0xbdebcbfd	-0.11513517
125	0xbc999a61	-0.018750371
126	0xbddae53f	-0.106882565
127	0x3cb11e02	0.021620754
128	0xbdfc7870	-0.12327659
129	0x3d0de7eb	0.034645002
130	0xbeb538cb	-0.35394892
131	0xbdbe485a	-0.09291144
132	0xbd00dcc2	-0.03146053
133	0xbdc8570c	-0.09782228
134	0x3d7eb5b0	0.06218499
135	0xbc84edc3	-0.016226655
136	0xbcfe0354	-0.031007446
137	0x3c8c8560	0.017153442
138	0x3e3d3b0a	0.18479553
139	0x3e32dafc	0.17466348
140	0x3d7e315b	0.062058788
141	0x3dec4d98	0.11538237
142	0x3c9ab35c	0.018884353
143	0xbe663af5	-0.22483428
144	0x3dd16722	0.10224749
145	0x3c30c39b	0.0107888235
146	0x3e20ce76	0.15703759
147	0x3ce74ee4	0.02823586
148	0xbdad5ecf	-0.08465349
149	0x3ec29323	0.3800288
150	0xbd7372fb	-0.059435826
151	0xbe1800a2	-0.14843991
152	0xbd99d7c6	-0.07511859
153	0xbd3487bb	-0.044074755
154	0x3a9b19a2	0.0011833201
155	0x3e23d756	0.16000113
156	0x3d0599a6	0.032617234
157	0xbea7749d	-0.32706156
158	0xbe197ddf	-0.14989422
159	0x3b985974	0.0046493355
160	0xbd5752b0	-0.05256909
161	0x3d8b0909	0.06788833
162	0xbe0ded73	-0.13860111
163	0x3d352149	0.044221196
164	0x3ddc3593	0.10752406
165	0xbdac635b	-0.08417388
166	0xbda3d443	-0.0799947
167	0xbdab64de	-0.08368848
168	0xbd16ebf6	-0.036846124
169	0x3c1493fd	0.009068486
170	0xbe34d3b2	-0.1765888
171	0x3d406bd0	0.046977818
172	0xbe24cc25	-0.160935
173	0x3baaa8d7	0.0052081156
174	0xbda09022	-0.07839991
175	0xbdf20d48	-0.118189394
176	0xbe2db468	-0.16963351
177	0xbe10b778	-0.14132488
178	0x3e266707	0.1625024
179	0x3b8363f7	0.0040097195
180	0xbc8dfe3d	-0.017333144
181	0xbd3fd059	-0.046829555
182	0x3cf3438a	0.029695291
183	0xbd6a9f94	-0.05728109
184	0x3d6a4ef0	0.057204187
185	0x3dcfaea5	0.10140733
186	0xbcec07a8	-0.028812245
187	0x3ca6a821	0.020343842
188	0x3ced7229	0.0289851
189	0x3db9bedd	0.090696074
190	0xbe3fad33	-0.18718414
191	0xbe4315c3	-0.1905127
192	0x3e610cda	0.21977559
193	0x3e6957e3	0.22787432
194	0x3cae2fef	0.02126309
195	0x3e565b93	0.2093337
196	0xbdb2d5f8	-0.087322176
197	0x3a48d937	0.0007661762
198	0xbe9afe38	-0.3027208
199	0x3e687d03	0.22703938
200	0x3d5701d2	0.05249197
201	0xbb55d47c	-0.0032627871
202	0xbe24d318	-0.16096151
203	0x3dd7d631	0.10538901
204	0x3d2041ef	0.03912538
205	0x3cff614f	0.03117433
206	0x3babab12	0.005238899
207	0xbcc11c52	-0.023573074
208	0xbe083ffe	-0.13305661
209	0xbbfba7fa	-0.0076799365
210	0x3e51acaa	0.20476022
211	0xbc9bc254	-0.019013561
212	0xbd551c7b	-0.052029114
213	0x3e521eae	0.20519516
214	0x3dde0d2a	0.108423546
215	0x3e184cc1	0.1487303
216	0xbe956dff	-0.29185483
217	0xbe0142e3	-0.12623172
218	0xbd9fb058	-0.07797307
219	0x3d617def	0.05505174
220	0xbca3d530	-0.019999117
221	0xbd998474	-0.074959666
222	0xbd9f7b51	-0.077871926
223	0x3d86d8e9	0.06584341
224	0x3c03c730	0.0080430955
225	0xbd0995e3	-0.03359021
226	0xbe272087	-0.16321002
227	0xbd7fd108	-0.062455207
228	0xbc482acd	-0.012217236
229	0xbcbadc74	-0.022810198
230	0x3e1380f1	0.14404656
231	0x3e6a82ec	0.22901505
232	0x3c540d43	0.012942615
233	0x3dbb9357	0.09158962
234	0xbdbed061	-0.09317089
235	0x3ebdf8aa	0.37103778
236	0x3e2fe20c	0.17176074
237	0x3e2038fc	0.15646738
238	0xbe61abf5	-0.22038253
239	0x3d2072c0	0.039171934
240	0x3e00b2ad	0.1256816
241	0xbe3f0afe	-0.18656537
242	0x3d6fcc10	0.05854422
243	0xbdfaa1d9	-0.12237901
244	0x3e4267dc	0.18984932
245	0xbd7fe5a0	-0.062474847
246	0x3e3add38	0.18248451
247	0x3c9d0c08	0.019170776
248	0xbe7c164d	-0.24617882
249	0x3e2f1ee8	0.17101634
250	0x3cbbf8a6	0.022945713
251	0x3c1dff59	0.009643399
252	0x3d99f8e2	0.07518174
253	0xbe4d3bbf	-0.20042323
254	0x3e1f4e57	0.15557228
255	0x3db52b0b	0.088461004

bias f4 [64]
0	0xb9a3dadf	-0.00031252854
1	0x3a5c3c01	0.0008401275
2	0x3c102ba0	0.0087994635
3	0xbac318da	-0.0014884726
4	0xb7c1be0d	-2.3095892e-05
5	0xbc14149a	-0.009038115
6	0xbc294c81	-0.010333181
7	0xbcc642a3	-0.024201697
8	0x3a686f3d	0.00088666735
9	0xbc36015c	-0.011108723
10	0xbace3f6f	-0.0015735457
11	0xbc2de437	-0.010613493
12	0xbc25d486	-0.01012147
13	0xbc3e718a	-0.0116237495
14	0xb42fcdca	-1.637301e-07
15	0xb9126047	-0.00013959511
16	0x3a36fd2c	0.00069804746
17	0x399c5980	0.0002982132
18	0x3b5f98d0	0.0034118183
19	0xba892a2f	-0.0010464842
20	0xbb89932a	-0.0041984515
21	0xbb6824eb	-0.0035422395
22	0xbb865927	-0.0040999833
23	0xbac4375a	-0.0014970109
24	0xbaa290ac	-0.0012402735
25	0xbbd03b8f	-0.006354756
26	0xbaf175ac	-0.001842191
27	0xb8c027ca	-9.162685e-05
28	0x3bc325bc	0.005955426
29	0xbbf2ff60	-0.007415697
30	0x38bbcfdd	8.9555724e-05
31	0xbbedc0a0	-0.0072556287
32	0xba2a22e9	-0.00064901874
33	0xbbe426cb	-0.0069626323
34	0xbc49e0ea	-0.01232169
35	0xbc0c4df2	-0.0085635055
36	0xbaff36f4	-0.0019471333
37	0x395ec449	0.00021244692
38	0xb900018f	-0.00012207612
39	0xbc6d13d2	-0.014470058
40	0xbbd824b0	-0.0065961704
41	0xbc2fed34	-0.010737706
42	0xbc950a35	-0.018193344
43	0xbc471367	-0.012150622
44	0xbad8af17	-0.0016531673
45	0xbb5e7b93	-0.0033948168
46	0xbc58444d	-0.013199878
47	0xba960365	-0.0011445103
48	0xb9a0ede1	-0.00030694812
49	0x3999e147	0.0002935028
50	0xbbcfdaef	-0.0063432376
51	0xbc2576fe	-0.010099171
52	0xbafd7e75	-0.0019340055
53	0xbc26d43c	-0.010182437
54	0xbc1c8bf2	-0.00955485
55	0xbc6a24e5	-0.014291023
56	0xbc07ce85	-0.008288984
57	0x39b074ea	0.00033656444
58	0xbc025ae0	-0.007956237
59	0xbba8c834	-0.005150819
60	0x00000000	0.0
61	0x3ad84d77	0.0016502579
62	0xba64e736	-0.0008731963
63	0x3a00a4fd	0.00049073977

weight f4 [64, 64]
0	0xbec179d1	-0.3778825
1	0xbe0a0009	-0.13476576
2	0xbdd53835	-0.10411111
3	0x3e66c206	0.22534952
4	0xbe1c80d6	-0.15283522
5	0xbe6313d6	-0.22175536
6	0xbe15d4f6	-0.1463202
7	0xbdcbd537	-0.09952777
8	0x3cd5c757	0.02609603
9	0x3d2cc960	0.042184234
10	0xbdc80f1a	-0.097685054
11	0x3da603a1	0.08106161
12	0xbdae4303	-0.08508875
13	0x3d8916d1	0.06693805
14	0x3e873806	0.2640993
15	0xbc0a2c7d	-0.008433458
16	0x3dd44ea0	0.10366559
17	0x3d164b4b	0.0366929
18	0xbe00012a	-0.12500444
19	0xbe463864	-0.19357449
20	0x3e0814c4	0.13289171
21	0xbe6eca77	-0.23319422
22	0xbdf382b0	-0.11890161
23	0xbdcff196	-0.10153501
24	0x3e2b8d44	0.16753107
25	0x3e240c5f	0.16020344
26	0x3b8e106a	0.004335453
27	0x3ce6b9ff	0.028164862
28	0x3c4fb6f2	0.012677895
29	0xbdf20f63	-0.11819341
30	0xba7d968e	-0.00096736185
31	0x3daf2d39	0.085535474
32	0xbe4956b6	-0.19661984
33	0x3dc0810a	0.09399612
34	0xbd2caf16	-0.042159162
35	0xbd36403c	-0.044494852
36	0x3d95e3d8	0.07318848
37	0x3e50154a	0.20320621
38	0x3e9bfaf2	0.30464894
39	0xbeab3c5b	-0.33444485
40	0x3c1576f1	0.009122596
41	0xbe3f1556	-0.18660483
42	0x3e199a7c	0.15000337
43	0x3eb0db4e	0.34542316
44	0xbe6366eb	-0.22207229
45	0x3e1ec442	0.15504554
46	0x3e828de1	0.2549887
47	0x3d9fbe53	0.07799973
48	0xbe5652fb	-0.20930092
49	0x3e44c5f3	0.19216137
50	0x3c2a80bb	0.010406668
51	0xbe98c115	-0.2983481
52	0x3eb841b1	0.3598762
53	0xbe19fa94	-0.15036994
54	0xbe25d2f2	-0.1619375
55	0xbdad9951	-0.084765084
56	0xbe13fb94	-0.14451438
57	0x3eb707a8	0.3574803
58	0x3e39a6df	0.18130063
59	0x3e9fa3fa	0.31179792
60	0xbe30f958	-0.17282617
61	0x3e212701	0.15737535
62	0x3df9f37c	0.12204644
63	0x3db9cfcd	0.09072838
64	0x3dbc18be	0.09184407
65	0xbe663b96	-0.22483668
66	0x3e61a8e6	0.22037086
67	0x3be4102e	0.0069599366
68	0x3e154eb8	0.1458081
69	0xbd094fdb	-0.03352342
70	0x3e514745	0.20437343
71	0x3dbf36d3	0.09336629
72	0xbeb0241e	-0.34402555
73	0xbcec486e	-0.02884313
74	0xbdf51b2e	-0.11968075
75	0x3e98d45c	0.29849517
76	0xbe1f995f	-0.1558585
77	0x3cab3adf	0.020902095
78	0x3dea7897	0.11448782
79	0x3ec60d22	0.38681895
80	0xbc9af910	-0.01891759
81	0xbec22201	-0.37916568
82	0x3dd1607f	0.10223483
83	0xbdc7be65	-0.09753112
84	0x3e3167c0	0.17324734
85	0x3dbb3d1a	0.091425136
86	0x3cbf6d16	0.023367446
87	0xbe177c5b	-0.14793532
88	0x3d805153	0.06265511
89	0x3e7799e0	0.24179792
90	0xbcbb8fe6	-0.022895765
91	0xbeb7e051	-0.35913327
92	0x3e80d3bb	0.25161538
93	0xbd874229	-0.06604416
94	0x3e71e29a	0.23621598
95	0x3c881ce8	0.016615346
96	0xbc65fbcc	-0.014037084
97	0x3dcd1d2c	0.1001533
98	0x3d356279	0.044283364
99	0xbd5fad2c	-0.05460851
100	0xbdf6bb5d	-0.120474555
101	0xbe8437c0	-0.25823784
102	0xbe51e178	-0.20496166
103	0x3d8adc43	0.06780293
104	0xbea5614f	-0.32300803
105	0xbdf8c2a3	-0.12146499
106	0x3ddbbe92	0.10729708
107	0x3b0d96d4	0.0021604793
108	0xbe9031cb	-0.2816299
109	0x3e725d5a	0.23668423
110	0x3e77b840	0.2419138
111	0xbe5a36c3	-0.21309952
112	0x3d96f70e	0.07371341
113	0x3e88b8be	0.26703447
114	0xbe7e290a	-0.24820343
115	0x3d884389	0.06653506
116	0x3c9c45fc	0.01907634
117	0x3d802f1e	0.06258987
118	0xbe77a66d	-0.2418458
119	0xbe060a8b	-0.1308996
120	0x3e235a9c	0.15952533
121	0xbd9b659d	-0.075877406
122	0xbc015fca	-0.007896373
123	0xbe20b81d	-0.15695234
124	0x3da9275a	0.08259459
125	0xbdc445a0	-0.095835924
126	0x3c970196	0.018433373
127	0xbe687f91	-0.22704913
128	0x3d992db8	0.07479423
129	0x3cf75c71	0.030195447
130	0x3e84ca18	0.25935435
131	0xbd3db93e	-0.04631924
132	0xbebb7e76	-0.3661992
133	0xbe6b7d11	-0.22996928
134	0x3d2d1746	0.042258523
135	0x3e46485f	0.19363545
136	0xbdf82979	-0.12117285
137	0xbdbf5a61	-0.0934341
138	0xbe424b71	-0.18974091
139	0x3c2fcaa8	0.010729469
140	0x3d78d710	0.060751975
141	0xbdd1213c	-0.10211417
142	0xbec5a26f	-0.3860049
143	0xbd9223fd	-0.071357705
144	0xbe029510	-0.12752175
145	0x3ea53336	0.32265633
146	0x3d904500	0.07044411
147	0x3d318d04	0.043347374
148	0x3e3873e3	0.18012957
149	0xbe9694d5	-0.29410425
150	0xbd63c6f8	-0.055609673
151	0x3e34bde0	0.17650557
152	0xbd9ebd26	-0.07750921
153	0x3e83dd98	0.25755
154	0x3e88da53	0.26729068
155	0xbd3a648a	-0.045506038
156	0xbd6183cb	-0.05505733
157	0x3dff4d2c	0.12465891
158	0x3df17abf	0.1179099
159	0xbe87c397	-0.2651641
160	0x3d04722c	0.032335445
161	0xbd3c7234	-0.04600735
162	0xbde12f0e	-0.10995303
163	0x3d8e7ce1	0.069574125
164	0x3e8f33ca	0.279692
165	0xbdc3392c	-0.09532389
166	0xbd7b5fb7	-0.061370578
167	0xbecf0a42	-0.40437514
168	0xbe950cbd	-0.2911128
169	0x3d15b146	0.036546014
170	0xbc9071f0	-0.017632455
171	0xbd4f0889	-0.05054525
172	0x3e87efbe	0.26550096
173	0xbdcc0147	-0.09961181
174	0x3d2e908b	0.042618316
175	0x3eb15a46	0.34639186
176	0xbd11d5c1	-0.035604242
177	0x3e6dc11b	0.23218195
178	0xbe7fba99	-0.24973525
179	0xbe373fc5	-0.1789542
180	0xbd6c71cd	-0.057725716
181	0x3e3831fa	0.17987815
182	0x3de67023	0.11251857
183	0xbcb98c28	-0.02264984
184	0x3e5a31d7	0.21308075
185	0x3dc36e20	0.09542489
186	0x3e383426	0.17988643
187	0xbc288a59	-0.010286891
188	0x3df913a4	0.12161949
189	0xbe244607	-0.16042338
190	0xbe55b66f	-0.20870374
191	0xbd71e299	-0.05905399
192	0x3c982116	0.018570464
193	0xbd960f6c	-0.0732716
194	0xbd45a383	-0.04825164
195	0x3d998eb1	0.07497919
196	0xbeb6bf57	-0.35692856
197	0x3d663305	0.056201
198	0x3bad4719	0.0052880165
199	0xbe376b94	-0.17912132
200	0xbdb16634	-0.08662072
201	0x3de07099	0.10958976
202	0x3e9b1e23	0.3029643
203	0xbdce917a	-0.10086341
204	0xbd457b63	-0.048213374
205	0xbd9ad8a6	-0.07560854
206	0xbe00a6d0	-0.12563634
207	0xbe2bbb31	-0.16770627
208	0x3e115ec4	0.14196306
209	0xbd874016	-0.0660402
210	0xbb282368	-0.002565587
211	0x3ccc8f0e	0.024970558
212	0xbe247843	-0.16061501
213	0x3dbdf8a4	0.0927594
214	0xbe0167cb	-0.1263725
215	0x3d414068	0.047180563
216	0x3d354d91	0.044263426
217	0x3e0a29f3	0.13492565
218	0x3e68a19f	0.22717904
219	0xbdeca94c	-0.11555728
220	0x3dbd230d	0.09235201
221	0xbe806b8a	-0.25082046
222	0x3e397cea	0.18114057
223	0xbef84145	-0.48487297
224	0xbddadfa1	-0.10687185
225	0xbe40f035	-0.18841632
226	0xbd3e4d66	-0.04646053
227	0xbe6a3764	-0.22872692
228	0xbded2a76	-0.115803644
229	0x3e06b473	0.13154773
230	0x3e11b5fd	0.1422958
231	0x3e93ced7	0.28868744
232	0x3da4c4e9	0.0804537
233	0x3e7b2689	0.24526419
234	0xbe055db5	-0.13024028
235	0xbd2e6db9	-0.04258511
236	0x3d42c4bf	0.047550913
237	0x3d7f9395	0.062396605
238	0xbd22cac0	-0.03974414
239	0xbe94fcbb	-0.29099068
240	0xbdc10068	-0.094239056
241	0x3de38f1a	0.11111279
242	0xbe1b833e	-0.15186784
243	0x3eb0da91	0.34541753
244	0x3eea1b8f	0.4572415
245	0x3c015b26	0.007895267
246	0xbd7adb13	-0.06124408
247	0xbd986d35	-0.074427046
248	0x3e521999	0.20517577
249	0x3d67a1e1	0.056550864
250	0x3dd03512	0.10166372
251	0x3e04b9cf	0.12961505
252	0x3ed064ac	0.40701807
253	0x3e568899	0.20950545
254	0xbe2093fc	-0.15681452
255	0x3e53d58c	0.2068693

bias f4 [64]
0	0xb8f7fa03	-0.00011824446
1	0xbc2ad7e6	-0.010427451
2	0xbb26ef4a	-0.0025472217
3	0xbbba551e	-0.0056864163
4	0xbc168117	-0.009186051
5	0xbb09d1de	-0.0021029632
6	0xbc986d83	-0.018606907
7	0xbab85c94	-0.0014065676
8	0xba90c48d	-0.0011044905
9	0xbb7deddf	-0.0038746519
10	0xbaaecfa4	-0.0013337028
11	0xbba29d2a	-0.004962583
12	0xbc296427	-0.01033882
13	0xba67f75b	-0.00088488095
14	0xb98437c9	-0.00025218565
15	0xbc2105e0	-0.009828061
16	0x38cdd907	9.815586e-05
17	0xbc98f9f2	-0.01867387
18	0xba4f7e7c	-0.0007915271
19	0xba0b59b1	-0.0005315794
20	0xbc58f82b	-0.013242762
21	0xb8e5a0e2	-0.00010949538
22	0xb8eb2af5	-0.000112136746
23	0xba7e64d9	-0.00097043585
24	0xbb3eb556	-0.0029099784
25	0x34cd4330	3.823311e-07
26	0xbb7cbaf4	-0.0038563581
27	0xbc724eee	-0.014789326
28	0xbc128269	-0.008942225
29	0xb9028b17	-0.00012449581
30	0xbc229a44	-0.009924475
31	0x38ad62a1	8.267654e-05
32	0xbc1ed9d9	-0.009695494
33	0xbb9113a7	-0.0044273916
34	0x00000000	0.0
35	0xbcb4c7d1	-0.022067936
36	0xbc7728a9	-0.015085378
37	0xbbcf533a	-0.00632706
38	0xbb7ef2c0	-0.0038902014
39	0xbb8e8545	-0.004349383
40	0xba9f1f19	-0.0012140005
41	0xbc295358	-0.010334812
42	0xba141917	-0.00056494906
43	0xbbe4e806	-0.006985667
44	0xba4863ce	-0.00076442666
45	0xbc871956	-0.016491573
46	0xbc2d37a9	-0.010572352
47	0xbaa31cff	-0.0012444555
48	0xbbbadfb2	-0.005702936
49	0xbc84f851	-0.016231688
50	0xbc269977	-0.010168425
51	0xbb47b34f	-0.0030471866
52	0xbc28e913	-0.0103094755
53	0xbca1397e	-0.019680735
54	0xbb61d4e9	-0.003445918
55	0xba9171ff	-0.0011096596
56	0xbb4035fe	-0.0029329057
57	0xb98abfab	-0.00026464215
58	0xbc464f7c	-0.0121039115
59	0xbc4b8cec	-0.012423735
60	0xb9c9e0e7	-0.00038505273
61	0xbbdff94c	-0.0068351384
62	0xbc775e55	-0.015098174
63	0xbbc78894	-0.0060892794

weight f4 [64, 119]
0	0xbd61f72a	-0.055167355
1	0xbdb57e50	-0.08861983
2	0xbe30286c	-0.1720292
3	0xbdedf537	-0.11619037
4	0xbe66dc0f	-0.22544883
5	0xbd519318	-0.05116567
6	0x3e2b28e8	0.16714823
7	0x3e20edbc	0.15715688
8	0xbdf97e9c	-0.12182352
9	0x3ccedbde	0.025251325
10	0xbd8a762d	-0.067608215
11	0x3e163a7b	0.14670746
12	0x3e1254de	0.14290187
13	0x3e8cba77	0.2748601
14	0xbe0abf54	-0.13549548
15	0xbb2639ce	-0.0025364044
16	0xbe0f23f8	-0.13978565
17	0xbddc10a7	-0.10745364
18	0x3da000e3	0.07812669
19	0x3e1b537f	0.1516857
20	0xbdd54893	-0.10414233
21	0x3daea588	0.08527666
22	0xbdd62c98	-0.10457724
23	0xbc352f34	-0.011058617
24	0x3d78ad48	0.06071213
25	0xbd04102e	-0.032241993
26	0x3e973c09	0.2953799
27	0x3ddf98fc	0.10917851
28	0x3c041b53	0.008063155
29	0xbd0a242d	-0.033725906
30	0x3e153e3d	0.14574523
31	0x3d1099d4	0.035302952
32	0xbe3de197	-0.18543087
33	0xbdc396fa	-0.09550281
34	0xbe7d8aa6	-0.24759921
35	0xbd988032	-0.07446326
36	0xbe7ef7c6	-0.24899206
37	0x3dd5ecc5	0.10445551
38	0x3daa6114	0.083192974
39	0xbe375b2e	-0.17905876
40	0x3e3c7c28	0.18406737
41	0x3e203795	0.15646203
42	0x3d27ebfb	0.040996533
43	0x3ce6067e	0.028079268
44	0x3c357636	0.011075547
45	0x3d0d1a45	0.03444888
46	0x3d07e8d2	0.03318102
47	0xbe9700fb	-0.29492936
48	0xbe4357d3	-0.19076471
49	0x3db2f208	0.0873757
50	0xbe4fb17d	-0.2028255
51	0xbe0ba886	-0.13638505
52	0xbc439deb	-0.011939506
53	0xbddcd978	-0.10783666
54	0x3dbfec13	0.093711995
55	0xbd4f4ca2	-0.050610192
56	0x3e709ad9	0.2349657
57	0x3da67995	0.08128659
58	0x3c8a583b	0.016887775
59	0x3e0f2275	0.13977988
60	0xbd96ab5f	-0.07356905
61	0x3e0af38b	0.13569467
62	0xbd331e5e	-0.043730132
63	0x3d906b7b	0.0705175
64	0x3e8c62d2	0.27419144
65	0x3e14cf05	0.14532097
66	0x3e16fb2b	0.1474425
67	0x3d01ba9f	0.031672116
68	0x3e6c89a4	0.2309938
69	0xbe2a5986	-0.16635713
70	0xbe0979d5	-0.13425381
71	0xbd86745b	-0.06565162
72	0x3bd98919	0.006638658
73	0x3db78ea7	0.08962756
74	0x3d0f54ab	0.034992855
75	0x3e85092e	0.25983566
76	0x3df9e50a	0.12201889
77	0xbc41ea41	-0.011835636
78	0x3d9241dc	0.07141468
79	0xbcc11152	-0.02356783
80	0x3d7fcae6	0.06244936
81	0x3e185b6f	0.14878629
82	0x3d731b3d	0.05935215
83	0x3de3f744	0.111311466
84	0xbe1bafdd	-0.15203805
85	0xbe737372	-0.23774508
86	0x3d120fc0	0.03565955
87	0xbe25411e	-0.16138121
88	0xbe16dada	-0.14731923
89	0x3b27e363	0.002561771
90	0xbda2f543	-0.07956936
91	0xbd799e22	-0.060941823
92	0xbe0e88f4	-0.13919431
93	0xbe4d0597	-0.20021664
94	0xbd8d9858	-0.06913823
95	0xbca5686f	-0.0201914
96	0xbe13b69c	-0.14425129
97	0xbcb2f65e	-0.021845993
98	0x3da852ec	0.08218941
99	0x3c8f5747	0.017497672
100	0xbe09dd4d	-0.13463326
101	0xbe011e29	-0.12609161
102	0xbd8e8328	-0.0695861
103	0xbdaae44d	-0.08344326
104	0x3e2b3c03	0.16722111
105	0x3dabde40	0.08392
106	0xbd140d51	-0.036145512
107	0xbe024470	-0.1272142
108	0xbd5799f8	-0.05263707
109	0x3ce771ea	0.02825256
110	0xbe38263a	-0.17983332
111	0x3e9c97d4	0.30584586
112	0x3dd4e0ef	0.10394465
113	0x3c7bc1f3	0.015366065
114	0xbd091c41	-0.03347421
115	0xbca09644	-0.019602902
116	0xbd58802d	-0.052856613
117	0xbc9f2180	-0.019425154
118	0xbdfd4dd5	-0.12368361
119	0xbdc9cd6d	-0.09853635
120	0x3d0ba5c9	0.034093652
121	0xbdda1f27	-0.10650473
122	0x3db5a844	0.08869985
123	0x3d5ffa5a	0.054682113
124	0xbde57b8b	-0.112052046
125	0x3e626a15	0.2211078
126	0xbe6f0d41	-0.233449
127	0xbd832b52	-0.06404747
128	0x3e7f54bd	0.24934669
129	0x3b3cd96d	0.002881612
130	0x3df5d6e5	0.120038785
131	0x3d379ab3	0.044825267
132	0xbe325905	-0.17416771
133	0xbd4a7f18	-0.049437612
134	0xbdc5fa73	-0.0966691
135	0xbc226b62	-0.009913297
136	0x3dc7a0c1	0.09747458
137	0x3cc75b84	0.02433563
138	0x3e27bcbc	0.1638059
139	0xbcbb3b42	-0.022855405
140	0xbc9a77c9	-0.018855946
141	0x3adbb965	0.0016763626
142	0xbdee0647	-0.11622291
143	0xbe1425bc	-0.1446752
144	0xbe01f491	-0.12690951
145	0xbdb9c9e6	-0.09071712
146	0x3de3aa41	0.11116458
147	0x3dcb5057	0.09927433
148	0xbd38f894	-0.045158938
149	0x3dc5db9b	0.09661027
150	0xbe01f9b5	-0.12692912
151	0x3dcd6c0d	0.10030375
152	0xbe323db4	-0.1740635
153	0x3bce3e8b	0.006294077
154	0x3d00a238	0.031404704
155	0xbe4eccdd	-0.20195337
156	0xbdca3bd8	-0.098746955
157	0xbdd1d96d	-0.10246549
158	0xbda49568	-0.080363095
159	0xbe4bb633	-0.19893722
160	0x3ce07d5c	0.027403526
161	0xbb223d53	-0.002475579
162	0xbe421b1e	-0.18955657
163	0xbd498726	-0.049201153
164	0xbe29e258	-0.1659025
165	0xbce7ade5	-0.028281162
166	0x3dac6278	0.08417219
167	0xbe2ffbe8	-0.17185938
168	0xbdecc586	-0.11561112
169	0xbcad2285	-0.021134624
170	0xbc88f3be	-0.016717788
171	0xbdbc541e	-0.091957316
172	0x3ddc257a	0.107493356
173	0x3db44ef7	0.08804124
174	0x3e13aea2	0.14422086
175	0x3d8aefb4	0.06784001
176	0xbe4dfc0b	-0.20115678
177	0x3e4fe03a	0.2030038
178	0x3c768b1e	0.015047817
179	0x3df7f485	0.12107185
180	0x3d7708d9	0.060311172
181	0xbe8cb3ce	-0.2748093
182	0xbdd681e7	-0.10473996
183	0x3e294ede	0.16533992
184	0xbe280536	-0.16408238
185	0xbe61a97b	-0.22037308
186	0x3e1f0922	0.15530828
187	0x3e158734	0.14602357
188	0x3d77ec32	0.060527988
189	0x3d24681d	0.040138353
190	0xbe69b1b9	-0.22821702
191	0x3ceae266	0.028672408
192	0xbd55807a	-0.052124478
193	0x3d3df60f	0.046377238
194	0xbe062ac5	-0.13102253
195	0xbdc02130	-0.0938133
196	0x3e0e4a28	0.13895476
197	0xbdc4c203	-0.09607317
198	0xbe0535f3	-0.13008861
199	0xbe04075c	-0.12893432
200	0xbe2aa809	-0.16665663
201	0xbebd3416	-0.369538
202	0xbd94da87	-0.07268243
203	0xbe6c5e80	-0.23082924
204	0x3da894e3	0.08231523
205	0x3e3b14bf	0.18269633
206	0xbdaa7d9a	-0.08324738
207	0xbdbd6c11	-0.09249128
208	0xbe7c6947	-0.24649535
209	0xbe0f5fb4	-0.14001352
210	0xbe2e4cb9	-0.17021455
211	0x3b8184a7	0.003952581
212	0x3d9d03df	0.07666754
213	0xbc9f84a5	-0.01947243
214	0xbd886455	-0.06659762
215	0xbe4afd51	-0.19823195
216	0xbdcd064e	-0.10010968
217	0x3e04fbd7	0.12986694
218	0xbd82e05c	-0.063904494
219	0xbe10bf53	-0.14135484
220	0xbca40b38	-0.02002488
221	0x3db5bef9	0.08874316
222	0xbd0fe5bd	-0.035131205
223	0x3dd9a901	0.10627938
224	0xbe2e14b5	-0.17000087
225	0x3c933a9c	0.017972283
226	0xbc5f36f2	-0.01362394
227	0x3dff86f7	0.124769144
228	0x3dd7e16c	0.10541043
229	0xbdb86f07	-0.09005552
230	0xbe4cfe95	-0.2001899
231	0x3dc897fa	0.09794612
232	0x3e259aa8	0.16172278
233	0x3d62ef50	0.055404007
234	0x3e9f6d76	0.311382
235	0xbdc23065	-0.09481887
236	0x3cd9ac36	0.026571374
237	0xbdc58aaa	-0.09645589
238	0x3d2ff6f7	0.042960133
239	0x3c52240f	0.01282598
240	0x3dc1f221	0.094700105
241	0x3e549539	0.20760049
242	0xbb836ec6	-0.004011008
243	0x3e888939	0.26667193
244	0x3e177d67	0.14793931
245	0xbde1e1a3	-0.11029365
246	0x3d4e9d73	0.050443124
247	0x3b23492f	0.0024915447
248	0x3d910c68	0.070824444
249	0x3dc72c8e	0.09725295
250	0x3dd127a0	0.10212636
251	0xbda89505	-0.08231548
252	0x39f6d344	0.00047078182
253	0xbd2d6a81	-0.0423379
254	0xbda2ca38	-0.079487264
255	0x3dcdc3ba	0.100470975

bias f4 [64]
0	0xbcc692c5	-0.024239907
1	0xbd4fdd8e	-0.0507484
2	0xbbcb1ede	-0.006198748
3	0xbd084b8e	-0.03327518
4	0xbbd0f478	-0.006376799
5	0x3c0a2d50	0.008433655
6	0xbd1ee343	-0.038790952
7	0xba327f26	-0.0006809108
8	0xbca5f56f	-0.020258633
9	0xbd329e64	-0.043608084
10	0xbbdfb381	-0.0068268185
11	0xbbfb337b	-0.007666049
12	0xbbf05482	-0.007334293
13	0xbcf882d0	-0.030335814
14	0xbd53e0b6	-0.051727973
15	0xba91de69	-0.0011128905
16	0xbcf39af9	-0.029736983
17	0xbd83bc97	-0.06432455
18	0xbbcf8897	-0.0063334215
19	0xbcf8b58c	-0.030360006
20	0xbbbea0bc	-0.005817501
21	0xbc14ffaa	-0.009094158
22	0xbbd24816	-0.0064172847
23	0x00000000	0.0
24	0xbc50ce57	-0.012744508
25	0xbcaa32f5	-0.020776251
26	0xbb9cdf3e	-0.0047873547
27	0x3ba790ec	0.0051137116
28	0xbcafee68	-0.021475986
29	0xbd3ae110	-0.045624793
30	0xbd4c744c	-0.049915597
31	0xbcdcfd1d	-0.026976163
32	0xbd0d48cd	-0.034493256
33	0x00000000	0.0
34	0x3c4272a2	0.011868151
35	0xbbff9c56	-0.007800619
36	0xbc04b0d3	-0.008098799
37	0xbd20f7d0	-0.039298832
38	0xbc0cb85d	-0.0085888775
39	0xbd0096aa	-0.031393684
40	0xbce66026	-0.028122019
41	0xbd5cb7c0	-0.053886175
42	0xbcb118cd	-0.021618271
43	0xbd126cd4	-0.035748318
44	0xb97b2391	-0.00023950475
45	0xbcb1cd57	-0.021704359
46	0xbd25f0bd	-0.04051279
47	0xbcfec844	-0.031101353
48	0xbd060232	-0.032716937
49	0xbc9995c2	-0.018748168
50	0xbcab186f	-0.020885674
51	0xbcdf52af	-0.027261106
52	0xbbb30e9b	-0.0054643876
53	0xbd3c1038	-0.045913905
54	0xbcbc2fc8	-0.022972003
55	0xbce68875	-0.02814124
56	0x3bd32336	0.0064434065
57	0xbd0f83b6	-0.03503772
58	0xbd4b1937	-0.049584594
59	0xbd2e066f	-0.042486604
60	0xbd956af3	-0.072957896
61	0xbce206cc	-0.027591132
62	0xbcd6c396	-0.02621631
63	0xbd4447a7	-0.047919895

weight f4 [64, 64]
0	0xbcc8a33a	-0.024491895
1	0x3b371905	0.0027938497
2	0x3d454408	0.048160583
3	0xbe37c6e0	-0.17946959
4	0x3d80b253	0.06284013
5	0xbe1cf577	-0.15328012
6	0x3e3e2bc0	0.18571377
7	0xbd6c23aa	-0.0576512
8	0xbc9271de	-0.017876562
9	0xbd33b65f	-0.043875095
10	0x3e099cfa	0.13438788
11	0xbdd2df75	-0.10296527
12	0xbe94b9e1	-0.29048064
13	0x3da9dabf	0.08293676
14	0x3eb78da0	0.3585024
15	0x3ddcec24	0.10787228
16	0x3e2394b7	0.15974699
17	0x3d85b544	0.06528714
18	0x3c67e07d	0.014152643
19	0xbe5752cc	-0.21027678
20	0xbed4eee9	-0.41588524
21	0xbe191868	-0.14950716
22	0x3d9af622	0.07566477
23	0x3d975047	0.073883586
24	0x3d24ddf2	0.040250726
25	0x3d17e59d	0.03708421
26	0xbe712fdc	-0.23553413
27	0xbe3d3184	-0.1847592
28	0x3cd03911	0.025417836
29	0xbe37e279	-0.17957486
30	0x3d443363	0.04790057
31	0x3cb84192	0.022492204
32	0xbce8c2c3	-0.028413182
33	0x397b8afd	0.00023989003
34	0xbe6250a6	-0.22101077
35	0xbead0cb6	-0.3379876
36	0xbe82f950	-0.25580835
37	0xbe342cab	-0.17595164
38	0xbddd0f91	-0.10793985
39	0x3e640a12	0.22269467
40	0x3e5accbe	0.21367165
41	0xbdea1d84	-0.11431411
42	0xbe2409d2	-0.16019371
43	0x3e99ca1d	0.30037013
44	0x3e583c38	0.21116722
45	0xbde47d58	-0.1115672
46	0xbdaf24ee	-0.08551966
47	0x3e121f28	0.14269698
48	0xbc6ff8a9	-0.014646688
49	0x3ea820a2	0.32837397
50	0xbd9faf38	-0.07797092
51	0x3dbc1bf1	0.09185017
52	0x3c510949	0.012758561
53	0x3dea8f47	0.11453109
54	0x3b31d881	0.0027137103
55	0xbcd7a10b	-0.026321908
56	0xbd8cef1a	-0.068815425
57	0x3e087f2e	0.13329765
58	0x3e942429	0.28933838
59	0x3e80d0a1	0.2515917
60	0x3e4722b5	0.19446833
61	0xbe40c103	-0.18823628
62	0xbe85b68e	-0.2611584
63	0x3e6e61b2	0.23279455
64	0x3e1a3560	0.15059423
65	0xbd239f68	-0.039946944
66	0xbded5b49	-0.11589677
67	0xbc35d252	-0.011097508
68	0x3eb4a9cc	0.35285795
69	0x3d08c726	0.033393048
70	0xbe8faecb	-0.28063044
71	0xbcf567f6	-0.029956799
72	0x3d9656d2	0.073407784
73	0x3e70b616	0.2350696
74	0xbd7de5e7	-0.06198683
75	0xbe43b1e9	-0.19110836
76	0x3ec2b3cc	0.380278
77	0xbc8b1e1f	-0.016982136
78	0xbe433e33	-0.19066696
79	0x3e82b8dc	0.25531662
80	0xbe8bccad	-0.27304593
81	0xbd341c80	-0.043972492
82	0xbdd03992	-0.10167231
83	0xbcc045d8	-0.023470804
84	0xbdf8b219	-0.121433444
85	0xbe70b958	-0.23508203
86	0x3d2f41d5	0.04278739
87	0x3c9415c0	0.018076777
88	0xbe897f5d	-0.26854983
89	0xbde3a1ac	-0.11114821
90	0xbe61693b	-0.22012798
91	0xbe523d33	-0.20531158
92	0xbe28bdaf	-0.16478609
93	0xbe61e12f	-0.22058557
94	0xbe0fb25d	-0.14032884
95	0xbe3362f9	-0.17518224
96	0xbd830aa3	-0.06398513
97	0xbecade09	-0.39622524
98	0xbe4a91db	-0.19782202
99	0xbe4f814a	-0.20264164
100	0xbd622b73	-0.055217218
101	0x3e9ea2a2	0.30983454
102	0x3e240c24	0.16020256
103	0x3d6d387e	0.057915203
104	0xbde9d853	-0.11418214
105	0xbe81329a	-0.25233918
106	0x3dd6d6cb	0.10490187
107	0x3e1f34bb	0.15547459
108	0xbde4b71c	-0.11167738
109	0x3e6bcbfe	0.23027036
110	0xbe289af5	-0.16465361
111	0xbdc876f7	-0.09788316
112	0xbdbb275d	-0.09138367
113	0x3db9e79c	0.09077379
114	0x3c4aff10	0.012389913
115	0x3ddad4c3	0.10685112
116	0x3e900a32	0.28132778
117	0x3e476410	0.19471765
118	0x3e4ebdb0	0.20189548
119	0x3d300557	0.042973842
120	0x3d79a2ec	0.06094639
121	0x3e5cfb79	0.21580304
122	0xbafdfd85	-0.0019377923
123	0x3dac8484	0.08423713
124	0xbd9afb7d	-0.07567499
125	0x3e7892dc	0.24274772
126	0x3d9dc302	0.077032104
127	0xbe2fed2d	-0.17180319
128	0x3d2a3786	0.041556858
129	0x3e502780	0.20327568
130	0x3e15d158	0.1463064
131	0x3e7c6a73	0.24649982
132	0xbe075249	-0.13214983
133	0xbed06fdf	-0.4071035
134	0x3b958b06	0.004563692
135	0x3da98f73	0.08279314
136	0xbd95fd50	-0.07323706
137	0xbeda73a1	-0.42666343
138	0xbe4cd2e5	-0.20002325
139	0xbc898384	-0.016786344
140	0xbd8f346b	-0.0699242
141	0xbeaec693	-0.34135875
142	0xbd55bdf1	-0.052183095
143	0xbd39d446	-0.045368455
144	0xbccb3a36	-0.02480803
145	0x3dc64e9d	0.09682963
146	0xbe0d9352	-0.1382573
147	0x3b37e29a	0.002805865
148	0xbda23367	-0.079199605
149	0xbe5c9c20	-0.21543932
150	0xbce40ff1	-0.027839633
151	0x3d69c233	0.05706997
152	0xbd0eef89	-0.034896407
153	0xbeb2c7a9	-0.34917954
154	0xbea66f7f	-0.3250694
155	0xbe14ac68	-0.14518893
156	0xbd974cd6	-0.07387702
157	0x3d907a04	0.07054523
158	0xbe0065bb	-0.12538807
159	0xbe7b8fa8	-0.2456652
160	0xbbb5d7f6	-0.005549426
161	0xbd9c2a4b	-0.07625254
162	0xbdc9f3de	-0.09860967
163	0x3daf4a2d	0.0855907
164	0x3e2e0a1a	0.16996041
165	0x3c8cd30f	0.017190484
166	0xbe0b405f	-0.13598774
167	0xbe3cb59b	-0.18428652
168	0x3cd9d4b1	0.026590677
169	0xbddc7be7	-0.1076582
170	0xbe8d5970	-0.27607298
171	0xbee0ae8c	-0.4388317
172	0x3e4a7289	0.19770254
173	0xbbc93e52	-0.0061414624
174	0xbb72993c	-0.0037017604
175	0xbecc0f91	-0.39855626
176	0x3e198122	0.14990667
177	0xbca187a8	-0.019718006
178	0x3e9299a6	0.2863285
179	0x3dd83b44	0.10558179
180	0x3d2958d3	0.041344475
181	0xbd290b85	-0.04127075
182	0x3e3611bb	0.17780201
183	0xbc621c0e	-0.013800634
184	0xbe70d6a7	-0.23519383
185	0xbdd13013	-0.102142476
186	0x3e7c8718	0.24660909
187	0x3c882eb8	0.01662384
188	0xbdc9dfbc	-0.09857127
189	0xbe2a9d3f	-0.16661547
190	0xbd9734f8	-0.0738315
191	0xbc8e1ccc	-0.017347716
192	0xbdb18d08	-0.08669478
193	0x3cff4b4e	0.031163838
194	0xbe97c599	-0.29642943
195	0xbe7cad0e	-0.2467539
196	0x3cc7dfa8	0.02439864
197	0xbdcc7469	-0.09983141
198	0xbe0bcf58	-0.13653314
199	0x3ea2e3a2	0.31814295
200	0x3e9a7d7b	0.3017386
201	0x3e310b51	0.17289473
202	0xbd880009	-0.06640632
203	0xbc84fbf1	-0.016233416
204	0xbe841502	-0.25797278
205	0x3db3f96e	0.08787809
206	0xbe3da49a	-0.18519822
207	0x3e96bb6b	0.29439864
208	0xbdb62847	-0.08894401
209	0x3e5274a4	0.20552307
210	0xbe0988f0	-0.13431144
211	0xbde0e459	-0.10981054
212	0x3f010969	0.50404984
213	0xbe64dddd	-0.22350259
214	0x3dd0d058	0.101959884
215	0x3d75cfda	0.060012676
216	0xbb4763fc	-0.0030424586
217	0x3e11efc0	0.14251614
218	0xbcbd04bb	-0.023073545
219	0x3cd6a6b3	0.026202535
220	0xbcd6a9af	-0.026203958
221	0xbdf14acd	-0.11781845
222	0x3e2ae161	0.16687538
223	0xbd519b23	-0.05117334
224	0x3e790ebc	0.24322027
225	0xbe91aa91	-0.28450444
226	0xbe6edd1c	-0.23326534
227	0x3c8bd033	0.01706705
228	0x3d4c7f39	0.049926016
229	0xbe8ecd54	-0.27891028
230	0xbe1d76c3	-0.15377335
231	0x3d4844af	0.048893627
232	0x3e5c5273	0.21515827
233	0xbdc4c8cb	-0.09608611
234	0x3dcddd70	0.100520015
235	0xbe116fa9	-0.14202751
236	0xbdb4bd28	-0.08825141
237	0xbe5c7e76	-0.21532616
238	0xbd832e2c	-0.06405291
239	0x3b622fa1	0.0034513252
240	0x3d9efbc4	0.07762864
241	0xbd98aae0	-0.07454467
242	0xbd0bc085	-0.034119148
243	0x3c115517	0.008870385
244	0x3d0e76bf	0.034781214
245	0xbec33658	-0.38127398
246	0xbe8a033f	-0.26955602
247	0x3d4406b9	0.047857974
248	0xbdb5a949	-0.08870179
249	0x3d9c6645	0.07636694
250	0x3e2c9f82	0.16857722
251	0xbd49ff5b	-0.04931579
252	0x3cb1ffdc	0.021728449
253	0xbead68c9	-0.33869007
254	0x3e3668ee	0.17813465
255	0xbe6c7e5a	-0.23095074

bias f4 [64]
0	0xbc8d0046	-0.017212044
1	0xbc470843	-0.012147966
2	0xbce5cd82	-0.028052095
3	0xbcfb704c	-0.030693196
4	0xbcde5518	-0.027140185
5	0xbad24c28	-0.0016044425
6	0xbccacb3e	-0.024755117
7	0xbd8331ec	-0.06406006
8	0xbca31a17	-0.019909902
9	0xbbec5a75	-0.0072129318
10	0xbc94de93	-0.018172538
11	0x3d02e670	0.031958044
12	0xbc935075	-0.0179827
13	0xbb4b2718	-0.0030998643
14	0xbcbd18d2	-0.023083124
15	0x3993f8fa	0.00028223527
16	0xbd3b52a5	-0.045733113
17	0xbd833519	-0.06406612
18	0xbc9642ee	-0.018342461
19	0xbad68c36	-0.001636869
20	0xbc91f5ab	-0.017817339
21	0xbca508b2	-0.020145748
22	0xbc14c9a9	-0.009081283
23	0xbd218d3c	-0.039441332
24	0xba40784c	-0.00073421444
25	0xbca0672e	-0.01958045
26	0xbcf67097	-0.030082984
27	0xbc828bc4	-0.015935786
28	0xbcd3e1ad	-0.025864447
29	0xbd390aed	-0.045176435
30	0xbce0742b	-0.027399143
31	0x3c98a38c	0.018632673
32	0x3cb1f758	0.021724388
33	0xbd112cd0	-0.035443127
34	0x3c7c93e0	0.0154161155
35	0xbd0a78d4	-0.033806637
36	0xbd2c31a6	-0.042039536
37	0x3b91fa11	0.004454859
38	0xbc8fabff	-0.017538069
39	0xbd72810d	-0.059205104
40	0xbbbcdd91	-0.0057637175
41	0x3c927cef	0.017881839
42	0x3ab563c5	0.0013838938
43	0xbd28647e	-0.04111146
44	0x3c81c0bd	0.015838975
45	0x3b6e319e	0.0036345492
46	0xbd37dd90	-0.044889033
47	0xbb0223c4	-0.0019857744
48	0xb96fe1f9	-0.00022876998
49	0xbc561e53	-0.013068753
50	0x3b8e9d70	0.004352264
51	0xbacee366	-0.0015784323
52	0x00000000	0.0
53	0xbd35d8a0	-0.044396043
54	0xbc213460	-0.009839147
55	0xbbe09c69	-0.006854583
56	0xbad35fd5	-0.0016126583
57	0x3a622267	0.0008626342
58	0xbb311b9c	-0.0027024513
59	0xbb2f6867	-0.002676511
60	0xbc549578	-0.012975089
61	0xbd52ff1b	-0.05151282
62	0xbbad3964	-0.0052863825
63	0x3be034d1	0.0068422337

weight f4 [1, 64]
0	0xbdb4e1ac	-0.08832106
1	0x3cfb528b	0.030679008
2	0x3db105de	0.08643697
3	0xbda41ec1	-0.08013678
4	0x3db7dbe2	0.08977486
5	0x3993be9b	0.00028180037
6	0xbde135ef	-0.10996615
7	0x3d4d6ec5	0.050154466
8	0x3acf90f1	0.0015836043
9	0xbd8bf979	-0.068346925
10	0xbb1c5ae0	-0.0023857877
11	0x3d30f59f	0.043202993
12	0x39fb036f	0.0004787701
13	0xbd81c576	-0.06336491
14	0x3a095309	0.00052385085
15	0xbde43bc0	-0.11144209
16	0x3e61568b	0.2200567
17	0xbdbed32d	-0.09317622
18	0xbaa81056	-0.0012822251
19	0xbd1c449d	-0.038151372
20	0xbe0483cd	-0.12940903
21	0x3b57b4f7	0.003291426
22	0x3d525dc7	0.051358964
23	0x3dd1d8c2	0.102464214
24	0x3e520a62	0.20511773
25	0xbd646c05	-0.055767078
26	0x3bbe9113	0.005815634
27	0x3cd49402	0.025949482
28	0xbe86dc26	-0.26339835
29	0x3e903b69	0.28170326
30	0x3df454bb	0.119302236
31	0x3ded33fb	0.1158218
32	0xbd8db826	-0.06919889
33	0x3e3bb1c1	0.18329526
34	0x3d1f8f74	0.038955167
35	0x3e89fb96	0.26949757
36	0xba3cf7ef	-0.0007208576
37	0x3c9e9617	0.019358678
38	0xbe0ebea3	-0.1393991
39	0x3e3ea42b	0.18617313
40	0xbc6f89b6	-0.014620235
41	0xbd9d5e54	-0.07684007
42	0x3b8436c4	0.004034849
43	0x3d1bd6de	0.03804671
44	0xbdbfeefc	-0.093717545
45	0xbdd2e604	-0.10297778
46	0x3d9f3226	0.07773237
47	0x3d907a03	0.07054522
48	0xbda4020d	-0.08008204
49	0x3d3f81f9	0.04675481
50	0x3cad59e3	0.021161025
51	0x3d5b549d	0.05354749
52	0x3e24999c	0.16074222
53	0xbb8cc4d4	-0.0042959247
54	0xbba71e68	-0.0051000603
55	0x3df9fa84	0.12205985
56	0x3d4b3d0f	0.049618777
57	0x3e3a6adc	0.18204826
58	0x3e2803a6	0.16407642
59	0xbc542255	-0.0129476385
60	0xbb41ac2a	-0.002955208
61	0x3e46fa29	0.19431366
62	0x3e18aee5	0.14910467
63	0xbd4eca99	-0.05048618

weight f4 [5, 64]
0	0xbb001a76	-0.0019547022
1	0xb94f2dad	-0.00019758074
2	0x3b5b1850	0.003343124
3	0x3b83721d	0.004011406
4	0x3b3582ee	0.0027696448
5	0x3b799c5d	0.0038087585
6	0xbc117ea5	-0.008880292
7	0xbba4cc31	-0.0050292243
8	0xbb8d805f	-0.0043182815
9	0x3be3c544	0.006951006
10	0xbb87cea2	-0.0041445056
11	0x3b0ca904	0.0021463046
12	0xbbc6296e	-0.0060474193
13	0x3bb6b6d4	0.005575994
14	0xbab05e23	-0.0013455789
15	0xbb1e9657	-0.0024198496
16	0x3b278f49	0.0025567582
17	0xbc23b533	-0.009991932
18	0x3b944d97	0.004525851
19	0xbba8c3ea	-0.005150308
20	0xbb936c3a	-0.0044989856
21	0x3913ffe6	0.00014114342
22	0x3c0a7d5f	0.008452742
23	0x3a83c2e3	0.0010052588
24	0xbc124918	-0.00892856
25	0xb9c54949	-0.0003762937
26	0x3be63085	0.007024827
27	0x3b003133	0.0019560575
28	0x3a4d6bf2	0.00078362145
29	0xbb2e6ba7	-0.0026614459
30	0xbb04f2b9	-0.0020286276
31	0x3b1d918f	0.0024043059
32	0x3bd1aa64	0.006398486
33	0x3c3032e6	0.010754323
34	0xba82e952	-0.0009987748
35	0xbbfa7c17	-0.007644187
36	0x3bf2bbad	0.0074076266
37	0xbb6f5be1	-0.003652327
38	0xba5f8fe5	-0.0008528217
39	0x3bb98de2	0.0056626657
40	0xbb9ea1f4	-0.0048410837
41	0x3b8fb8f4	0.004386062
42	0xbb0bbafe	-0.0021321173
43	0xbbc4e158	-0.0060083084
44	0x3a6260eb	0.0008635658
45	0xbc52502a	-0.012836495
46	0xbb0e220a	-0.002168777
47	0x3b8acd64	0.0042359103
48	0x3c319bf5	0.010840406
49	0xbc7b76a4	-0.01534811
50	0x3b812b74	0.0039419476
51	0xbbf4adfc	-0.0074670296
52	0x3b58f104	0.003310264
53	0xba02aac4	-0.00049845525
54	0x3b39afae	0.0028333473
55	0xbc980198	-0.018555447
56	0x3ac0627d	0.0014677789
57	0x3b663101	0.0035124423
58	0x3bd750fe	0.0065709343
59	0xbaf0bae9	-0.001836625
60	0xbbd36449	-0.006451164
61	0xbae2b91f	-0.0017297602
62	0x39f24de6	0.00046215876
63	0x3b044b40	0.0020186454
64	0x3a6a0fb5	0.0008928732
65	0x3bda61b0	0.0066644773
66	0xbc81d39d	-0.015847975
67	0xbc2b89b7	-0.0104698455
68	0x3c09b844	0.008405749
69	0xb98fc5ae	-0.00027422368
70	0xbb539dd9	-0.003229013
71	0xbb7fede5	-0.0039051708
72	0xbc5bc908	-0.013414629
73	0x3c4e77d4	0.012601811
74	0xbc013273	-0.007885563
75	0xbc9ee1aa	-0.019394714
76	0x3b0df8ab	0.002166311
77	0xb9d38ef9	-0.0004035158
78	0xb9c080c5	-0.00036717035
79	0x3bddec37	0.006772544
80	0xbafbb703	-0.0019204322
81	0x3bf29c42	0.0074038813
82	0xba475490	-0.00076038484
83	0x3c17a466	0.009255504
84	0x3cab14f4	0.020884015
85	0x3a300f8d	0.00067161844
86	0x3ac158c4	0.0014751186
87	0x3ba10f6c	0.0049151685
88	0x3a90a506	0.0011035509
89	0xba0cd2f9	-0.00053720135
90	0x3c610cf2	0.013735997
91	0xbc79444a	-0.015214035
92	0xbc6dd7ec	-0.014516812
93	0xbafeca94	-0.0019439035
94	0xbb8f9f3a	-0.004382995
95	0x3c88645f	0.016649423
96	0xbaf24a2c	-0.001848524
97	0x3b44d71e	0.0030035446
98	0x3a312e4a	0.0006758912
99	0xbb85d9bf	-0.0040847952
100	0xbc6281ed	-0.013824922
101	0xbc0428b8	-0.008066349
102	0x391f6d33	0.00015204102
103	0x3c1bf421	0.009518654
104	0x3c15a9a5	0.009134685
105	0x3aef504d	0.0018258184
106	0xbbca8065	-0.0061798566
107	0x3c32aea9	0.0109059
108	0xbbb1faef	-0.005431525
109	0x3bccb990	0.0062477067
110	0xbbb644d9	-0.0055624065
111	0xbc2da868	-0.010599233
112	0x3c0104dd	0.007874695
113	0x3c2d75bc	0.010587152
114	0xbc00e478	-0.007866971
115	0x3be579e6	0.007003057
116	0xbc404308	-0.0117347315
117	0xba8edcdf	-0.0010899565
118	0x3bb87951	0.0056296964
119	0x3ccb7f51	0.024840983
120	0x3bc861ee	0.0061151898
121	0xbc0d7c5e	-0.0086356085
122	0xbc4c593e	-0.012472449
123	0x3b9503b8	0.0045475625
124	0xbb89e9cb	-0.0042087785
125	0xbc5a53d0	-0.0133256465
126	0x3bdafa7f	0.0066826935
127	0xbbb94917	-0.005654465
128	0xbb9f9655	-0.004870216
129	0x3b9d913e	0.004808574
130	0x3c1ddb4c	0.009634804
131	0x3c14c8a6	0.009081041
132	0xb9c228f9	-0.0003703309
133	0x3af54023	0.0018711131
134	0xbc046a2c	-0.008081954
135	0x3b932b45	0.004491242
136	0x3be3cab7	0.0069516557
137	0xbbbea707	-0.005818251
138	0x3c281787	0.010259516
139	0x3bf5e2d2	0.0075038457
140	0x3a8c519f	0.0010705477
141	0x3ad568fe	0.00162819
142	0x3b906295	0.004406283
143	0xbb9ffcd6	-0.0048824353
144	0x3b1d09a0	0.0023962036
145	0xbbe37bcd	-0.0069422484
146	0x3a29b34f	0.00064735574
147	0x3b4cf428	0.0031273458
148	0xbc586f00	-0.013210058
149	0xba535f77	-0.00080632366
150	0xbc1b79ee	-0.0094895195
151	0x3c51f822	0.012815507
152	0x3ad3973e	0.0016143096
153	0xbad854b0	-0.0016504731
154	0xbc5f689d	-0.013635782
155	0x3bcd2338	0.006260302
156	0x3c880949	0.01660599
157	0x3b699ca8	0.0035646353
158	0xba831cb1	-0.0010003058
159	0xbc6c1cf3	-0.014411199
160	0xbbdf8a1b	-0.0068218834
161	0xbb41285c	-0.002947352
162	0xba900c76	-0.0010990042
163	0xbb27965b	-0.0025571797
164	0x3af4e38e	0.0018683539
165	0x3c36d305	0.011158709
166	0x3ae32677	0.0017330189
167	0xbc04a53c	-0.008096036
168	0x3b28a0b3	0.002573055
169	0x3aedb529	0.0018135655
170	0x3c5500b7	0.013000659
171	0xbb4d1515	-0.0031293083
172	0x3c223b23	0.009901795
173	0x387d8175	6.0440467e-05
174	0x3b73ee0d	0.0037220747
175	0x3ba17308	0.004927043
176	0xbb5753ee	-0.0032856422
177	0xbc1ecf1e	-0.009692935
178	0xb98094d2	-0.00024524942
179	0xb99728be	-0.0002883132
180	0x3c318718	0.0108354315
181	0xbbbdfcf5	-0.005797977
182	0x3aaa52b6	0.001299462
183	0xba3c4398	-0.0007181703
184	0xbb7547c2	-0.0037426804
185	0x3af4e3e3	0.0018683638
186	0x3bee72c3	0.0072768643
187	0x394a9659	0.0001932023
188	0x3c6da5fb	0.014504905
189	0xbb7f2f4f	-0.003893811
190	0xbc16047f	-0.009156345
191	0xbaf17c6b	-0.001842392
192	0x3bbfc6c9	0.0058525545
193	0xbad8604f	-0.0016508194
194	0xbad8142a	-0.0016485502
195	0x3b8ba29d	0.0042613284
196	0xbc33899f	-0.010958104
197	0x3b46ac9f	0.0030315293
198	0xba388e60	-0.00070402585
199	0x3b5f74e7	0.003409678
200	0x3c19eca7	0.009394801
201	0xbc44bc0e	-0.012007726
202	0x3bc6c9fe	0.00606656
203	0x3bb22e11	0.0054376204
204	0x3bc6af0a	0.0060633468
205	0xbbee0f79	-0.007265028
206	0x3a73ba17	0.0009297444
207	0x3b36a088	0.002786668
208	0x3b12f443	0.0022423423
209	0xbbc258be	-0.005930989
210	0xbb7a4e84	-0.0038193772
211	0xbc1156de	-0.008870808
212	0xbbe75bd7	-0.0070605087
213	0x381aa994	3.6874393e-05
214	0x3bc765c2	0.0060851285
215	0xbca1821d	-0.019715363
216	0x3af43c5b	0.001863371
217	0xbac8456c	-0.0015279478
218	0xbc334cfe	-0.010943649
219	0x3b911303	0.004427315
220	0xba4a2ab4	-0.0007712052
221	0x3ad4e55c	0.0016242671
222	0x3b499cdc	0.0030763661
223	0xbba9d846	-0.0051832525
224	0x3c510edb	0.0127598895
225	0xbac1df2e	-0.0014791244
226	0x3b03f4d5	0.0020134945
227	0xbba042db	-0.0048907823
228	0x3bab9ffb	0.005237577
229	0xbb9f15eb	-0.0048549077
230	0xbc0497ed	-0.008092863
231	0x3b56d2b4	0.0032779397
232	0xbc70a613	-0.014688033
233	0xbbb5d9ae	-0.005549631
234	0x3b4e1950	0.0031448193
235	0xbbd1ed13	-0.0064064353
236	0xbc32dc80	-0.010916829
237	0xbabbf401	-0.0014339687
238	0x3b19be29	0.0023459292
239	0x3aad0060	0.0013198964
240	0xbb5df63b	-0.0033868689
241	0xbc64f2d4	-0.01397391
242	0x3b46e1d2	0.0030347002
243	0x39e05634	0.00042788836
244	0x3b9a884e	0.004715956
245	0xbbd64db8	-0.0065400265
246	0xbbe54fe6	-0.00699805
247	0xbb737658	-0.0037149396
248	0xbc731fe8	-0.01483915
249	0x3bc27efb	0.0059355474
250	0x39014fdb	0.00012332147
251	0x3927637c	0.00015963422
252	0xbb7079b4	-0.0036693634
253	0x3b6e4a3c	0.0036360165
254	0xbaa67ebd	-0.0012702566
255	0xbba96be5	-0.0051703327

bias f4 [5]
0	0x3c155e0d	0.009116662
1	0xbc169c5e	-0.009192554
2	0xbb1b3bb1	-0.0023686702
3	0x39d873d5	0.00041285032
4	0xbbe5d55f	-0.007013961
