model/tiny-2ag/IA2C/model_agent1_seed3.pt (torch, 101825 bytes, 11 tensors)

weight f4 [64, 119]
0	0xbd9ed94f	-0.07756292
1	0xbe660b1f	-0.2246518
2	0xbc46778a	-0.012113461
3	0x3be6e076	0.007045801
4	0x3d660554	0.056157425
5	0x3e3acd51	0.18242384
6	0xbdf0ae71	-0.11752022
7	0x3cc628a9	0.02418931
8	0xbe1238a5	-0.1427942
9	0xbd4ec862	-0.05048407
10	0x3d4d7f80	0.05017042
11	0x3e300b7b	0.1719188
12	0x3d63bef1	0.055602018
13	0x3e35c269	0.17749943
14	0xbd21a533	-0.039464187
15	0x3e526a1c	0.2054829
16	0xbd09c3fc	-0.03363417
17	0x3e2cdd37	0.16881262
18	0x3cca6579	0.024706589
19	0xbe15841f	-0.14601181
20	0x3d97fe94	0.07421604
21	0xbb4a0651	-0.0030826519
22	0x3e5fc573	0.21852665
23	0xbeaa90b1	-0.33313516
24	0x3d5f9f0a	0.05459503
25	0xbe1ba9e0	-0.15201521
26	0xbe293cb2	-0.1652706
27	0xbe0a4b62	-0.13505319
28	0x3d406464	0.04697074
29	0xbe2519b2	-0.16123083
30	0x3dd47c09	0.1037522
31	0x3e87746b	0.26456007
32	0xbd576394	-0.0525852
33	0x3e08859b	0.13332216
34	0x3dc82279	0.097722
35	0x3c7e9456	0.015538296
36	0xbdebbe3e	-0.11510895
37	0x36baefc3	5.571144e-06
38	0xbc99a250	-0.018754154
39	0xbdc774ab	-0.097390495
40	0x3d49ac40	0.049236536
41	0x3d3e0d12	0.046399184
42	0xbd7c7815	-0.061637957
43	0xbe4df56f	-0.20113157
44	0x3daf7ef5	0.08569137
45	0x3b825cd2	0.00397835
46	0x3e1178fa	0.14206305
47	0xbdb13053	-0.08651795
48	0x3dc60905	0.09669689
49	0xbe2585b7	-0.1616429
50	0xbe893203	-0.26795968
51	0x3d80cbf8	0.06288904
52	0xbd798d06	-0.060925506
53	0x3b8cfb3e	0.0043024113
54	0xbdcf7b24	-0.10130909
55	0xbd00381d	-0.031303514
56	0x3e08dc3c	0.13365263
57	0xbddea44e	-0.108711824
58	0x3cd45799	0.025920676
59	0x3c5a5956	0.013326963
60	0xbeb5a83f	-0.35479924
61	0xbda12d9f	-0.0787003
62	0x3e41a5ed	0.18910952
63	0x3de278ab	0.11058172
64	0xbbe5c848	-0.007012401
65	0xbdbf70c7	-0.093476824
66	0x3e2a1310	0.16608834
67	0xbb4eb018	-0.0031538066
68	0x3d8305e2	0.063976064
69	0x3e00033c	0.12501234
70	0xbdd5d913	-0.10441794
71	0x3d8edf39	0.0697617
72	0x3dd32604	0.10309985
73	0xbeadd046	-0.33947963
74	0x3da02b75	0.07820789
75	0xbe7bbf49	-0.24584688
76	0xbd8cbeed	-0.06872354
77	0xbdd178e6	-0.10228138
78	0x3e2a377d	0.1662273
79	0xbe3b6527	-0.18300305
80	0x3d39cb52	0.045359917
81	0x3dbd0878	0.09230131
82	0xbd32c89d	-0.04364835
83	0xbcbd6922	-0.02312142
84	0x3e28d4b0	0.16487384
85	0xbd16c567	-0.03680935
86	0xbe68be46	-0.22728834
87	0xbce8ea7e	-0.028432127
88	0x3e0e76d0	0.13912511
89	0xbe31b0c1	-0.17352583
90	0xbcb04a45	-0.02151979
91	0xbd8ceb26	-0.068807885
92	0x3df40503	0.119150184
93	0xbcc64516	-0.024202865
94	0x3e0059cf	0.1253426
95	0x3db0ffb9	0.08642525
96	0x3e650c4b	0.2236797
97	0x3d664169	0.056214724
98	0x3ca37edb	0.01995795
99	0xbbb8fbfc	-0.0056452733
100	0x3e0d2f8d	0.1378767
101	0xbe23f0c3	-0.16009812
102	0xbd7df848	-0.062004358
103	0x3db54f5e	0.08853029
104	0xbd783960	-0.060601592
105	0x3d26da27	0.04073539
106	0x3d63adfa	0.05558584
107	0x3ce18057	0.027527018
108	0x3c9260ab	0.01786836
109	0x3e8ceeb9	0.2752588
110	0xbdf93ee1	-0.12170196
111	0xbe8b9c8a	-0.27267867
112	0x3c615a8c	0.013754498
113	0x3cccda66	0.025006484
114	0xbaa72d72	-0.0012754633
115	0xbe6a6f0a	-0.2289392
116	0x3d2c7dfa	0.042112328
117	0x3cd70e43	0.026251918
118	0xbe159781	-0.14608575
119	0xba8cfee4	-0.0010757116
120	0x3c759b91	0.014990703
121	0x3dc24d9d	0.0948746
122	0xbde23282	-0.1104479
123	0xbd859a22	-0.06523539
124	0x3ddc22bb	0.10748812
125	0xbdaf7a63	-0.08568265
126	0xbd355147	-0.044266965
127	0x3d7bf798	0.06151542
128	0x3d349e4b	0.044096272
129	0xbcbbd6d3	-0.022929585
130	0x3dcb93a7	0.09940272
131	0x3d5d0897	0.05396327
132	0x3d8823dd	0.066474654
133	0xbe192df8	-0.14958942
134	0xbd5f57fd	-0.05452727
135	0x3e70acca	0.23503414
136	0x3e2b171c	0.16708034
137	0xbbfa8982	-0.0076457867
138	0x3ba3ca03	0.004998447
139	0xbdf001e1	-0.117191084
140	0x3cbf526c	0.023354732
141	0xbea342b7	-0.31886837
142	0x3d9eda3d	0.077564694
143	0x3e388441	0.18019201
144	0xbd0f50d1	-0.034989182
145	0xbe398009	-0.18115248
146	0x3e3e3755	0.18575795
147	0x3de0abda	0.10970278
148	0x3e0c30f8	0.13690555
149	0x3dce6384	0.10077575
150	0x3c92401e	0.01785284
151	0x3e0cbd44	0.13744074
152	0xbeb85311	-0.36000875
153	0xbde5001c	-0.111816615
154	0x3e0162f7	0.12635408
155	0xbd8dab43	-0.06917431
156	0x3d2491b5	0.04017802
157	0xbe2c595b	-0.16830961
158	0x3d1b349e	0.037891977
159	0xbe440136	-0.19141087
160	0xbdafb031	-0.08578528
161	0x3cff2173	0.03114388
162	0xba4e4877	-0.00078690745
163	0xbcd0aea5	-0.025473902
164	0xbde549f8	-0.11195749
165	0x3e37f949	0.17966188
166	0x3e10090c	0.14065951
167	0xbd674353	-0.05646069
168	0x3e3b0b13	0.18265943
169	0xbe83765d	-0.25676242
170	0xbcf4354e	-0.029810574
171	0xbe0f2d99	-0.13982238
172	0x3dd7d4d0	0.10538638
173	0xbe0ab953	-0.13547258
174	0xbe0e0351	-0.13868453
175	0xbe943e1d	-0.2895364
176	0x3e3fedd0	0.18743062
177	0x3e8412d4	0.25795615
178	0x3cee5e86	0.029097807
179	0xbba4a1b8	-0.005024161
180	0x3dd54542	0.104136005
181	0xbdae43ed	-0.085090496
182	0xbdc24965	-0.09486655
183	0xbe826a0d	-0.25471535
184	0xbc833dfb	-0.016020766
185	0x3e477bf1	0.19480874
186	0x3dd897e9	0.105758496
187	0x3c6e0ceb	0.014529447
188	0x3dc9067d	0.09815691
189	0x3b9b1cd4	0.004733661
190	0xbcc79211	-0.024361642
191	0xbd8ad4cd	-0.0677887
192	0xbe502639	-0.20327081
193	0x3e980a05	0.29695144
194	0xbd4dbbd6	-0.050227962
195	0x3cdd279f	0.026996432
196	0x3dea1cdb	0.11431285
197	0x3e17970a	0.1480371
198	0x3c76a300	0.015053511
199	0x3dac9f2e	0.084287986
200	0x3d380b22	0.044932492
201	0x3c7d5bf6	0.01546382
202	0x3d04e40f	0.032444056
203	0xbd3f6238	-0.046724528
204	0x3e007a64	0.12546688
205	0x3c942482	0.018083815
206	0xbde96b8a	-0.113974646
207	0x3d536e7e	0.051619045
208	0xbc4b66f8	-0.012414686
209	0x3e4d52dd	0.20051141
210	0xbe064eb8	-0.13115966
211	0xbdf1e3a6	-0.118109986
212	0x3e4393ef	0.19099401
213	0xbde8e58b	-0.11371907
214	0x3e6f6fcf	0.23382495
215	0x3d0fba85	0.03508999
216	0xbe526cf1	-0.2054937
217	0xbeb92288	-0.36159158
218	0xbdc14176	-0.09436314
219	0xbc67c547	-0.014146156
220	0xbe0a40cb	-0.13501279
221	0xbce7e101	-0.028305532
222	0xbcdb0387	-0.02673508
223	0xbe1022ef	-0.14075826
224	0xbd88041a	-0.06641407
225	0xbe216cc8	-0.15764153
226	0x3d615dc4	0.055021062
227	0xbd01f63e	-0.031728975
228	0x3dcc069b	0.099621974
229	0x3de7aa1b	0.11311742
230	0x3dbc77fa	0.09202571
231	0x3da80a8b	0.08205136
232	0xbc580187	-0.013183958
233	0x3d91cbcb	0.071189485
234	0x3d253f2a	0.04034344
235	0xbda46c0c	-0.08028421
236	0xbd3e19c6	-0.0464113
237	0x3e27b31b	0.16376917
238	0x3d759c73	0.059963655
239	0x3e95da91	0.29268315
240	0x3ddc3387	0.107520156
241	0x3ce67b76	0.028135043
242	0x3a0c5a4c	0.00053540315
243	0x3dd794d0	0.105264306
244	0xbe9ddb9c	-0.3083161
245	0xbe1a165c	-0.15047592
246	0xbda30335	-0.07959596
247	0x3d94cda1	0.07265783
248	0xbd7a3278	-0.061083287
249	0xbe4a79af	-0.19772981
250	0x3cd8118f	0.02637556
251	0x3e195ca2	0.14976743
252	0x3e445026	0.19171199
253	0x3e0a2b0d	0.13492985
254	0xbd12c4c7	-0.035832193
255	0xbe07cf72	-0.13262728

bias f4 [64]
0	0x3a79cfd5	0.00095295656
1	0x3c091524	0.008366857
2	0x3c1bd2b4	0.009510685
3	0xbab91b2b	-0.0014122477
4	0xbbdada3e	-0.0066788485
5	0x3b83e480	0.004025042
6	0xbbbc06f2	-0.0057381326
7	0xb8cacd47	-9.6703465e-05
8	0xbb0b4473	-0.0021250516
9	0xbb04c588	-0.002025934
10	0x38c1c671	9.23992e-05
11	0x3a9a1856	0.001175652
12	0xbb95d686	-0.0045726923
13	0xbbea2265	-0.0071452134
14	0xbbb1ae4f	-0.0054223905
15	0x39dd79a7	0.00042243043
16	0xba8164c3	-0.0009871948
17	0xbb3489c5	-0.0027547937
18	0x3c666ca3	0.014063987
19	0xbb470bc0	-0.0030371994
20	0x3ab2fd3b	0.0013655791
21	0x3c4cd7e7	0.012502647
22	0xbb6f337c	-0.0036499193
23	0x00000000	0.0
24	0xbc4ea2f8	-0.012612097
25	0x3b383432	0.0028107283
26	0xbbf09050	-0.007341422
27	0xb8931343	-7.013094e-05
28	0x3aa0eeac	0.0012278161
29	0xbb7a832d	-0.003822516
30	0xbb8542d0	-0.0040668026
31	0xbc9d5eb4	-0.019210197
32	0x3c51c42c	0.012803119
33	0xbc17a06c	-0.009254556
34	0x3c3c95c7	0.011510319
35	0xbad03e49	-0.0015887703
36	0xb78d35be	-1.6833535e-05
37	0xbc15746c	-0.009121995
38	0xbb355707	-0.002767028
39	0xbc9efa5c	-0.01940649
40	0xbbfbb95a	-0.0076820077
41	0xbc71aaa9	-0.014750161
42	0xbc4d1be8	-0.01251886
43	0x39f08fdf	0.0004588356
44	0xbc9d9d35	-0.019240001
45	0x3c18664d	0.009301734
46	0x3af972a2	0.0019031356
47	0xbbd247c3	-0.006417246
48	0x3a6c313b	0.00090100215
49	0xb9190efa	-0.00014596796
50	0xbc516b72	-0.012781965
51	0xbb7c22e4	-0.0038472945
52	0x3bfecd9f	0.007775977
53	0xbb2d3b91	-0.002643321
54	0x39c9e8d0	0.00038511166
55	0xba3c78b0	-0.00071896147
56	0xbabcc344	-0.0014401455
57	0xbbdcbbff	-0.006736278
58	0x3acb7e12	0.0015525243
59	0xbc95dd69	-0.018294053
60	0xbcbb023f	-0.02282822
61	0x39bf5948	0.0003649688
62	0x3b79e6ec	0.0038132025
63	0xb9007dce	-0.00012253897

weight f4 [64, 64]
0	0xbe2fcfbc	-0.17169088
1	0xbd5dd422	-0.054157384
2	0x3bebfeea	0.007202019
3	0xbec1509d	-0.37756816
4	0x3e1893d5	0.14900143
5	0x3e1c2c77	0.15251337
6	0x3d0aad53	0.0338567
7	0xbe5c2eaf	-0.21502183
8	0x3ce4db42	0.027936582
9	0x3d6ed9db	0.058313232
10	0xbd909329	-0.070593186
11	0xbdaa0975	-0.08302585
12	0xbea0b5ee	-0.313888
13	0x3cdceed9	0.02696936
14	0x3e14d486	0.14534196
15	0x3c39aba1	0.011332423
16	0xbe7a2405	-0.24427803
17	0xbde62e05	-0.11239246
18	0xbe080900	-0.13284683
19	0xbe55e6a8	-0.2088877
20	0x3b994bab	0.00467821
21	0xbdfbcaa2	-0.122945085
22	0xbe57cc3c	-0.21074003
23	0xbed934ce	-0.424231
24	0x3d371e10	0.044706404
25	0x3dc2f2bc	0.09518954
26	0x3e3316d3	0.17489175
27	0xbeb91b2e	-0.3615355
28	0xbeb049fe	-0.34431452
29	0x3d2f6f65	0.042830843
30	0xbe6c18e8	-0.23056376
31	0xbe168a5f	-0.14701222
32	0x3e1431ba	0.14472094
33	0xbc05d7b3	-0.0081691025
34	0xbd33e0bb	-0.04391549
35	0x3d31dd44	0.043423906
36	0x3e0a227d	0.13489719
37	0xbcb4147d	-0.021982426
38	0x3e771faf	0.2413318
39	0xbca4ef75	-0.020133713
40	0x3e4f86e4	0.202663
41	0xbd345ce1	-0.04403389
42	0xbcd6fd74	-0.026243903
43	0xbe391c11	-0.18077113
44	0x3ddbb352	0.10727562
45	0x3dcdcdf3	0.10049047
46	0x3e24e423	0.16102652
47	0xbd4a6398	-0.049411386
48	0x3e3594dc	0.17732567
49	0x3e3e757c	0.18599504
50	0x3d78206a	0.060577787
51	0xbc759384	-0.014988784
52	0xbee1e392	-0.44118935
53	0x3da94248	0.08264595
54	0xbe256e12	-0.1615527
55	0x3d4f9f6a	0.05068914
56	0xbd33d8b1	-0.043907825
57	0x3da1b074	0.07894984
58	0x3e9c1c29	0.30490234
59	0xbe68e1ab	-0.22742335
60	0x3e46dd40	0.19420338
61	0xbe34bcd7	-0.17650162
62	0x3d865b88	0.06560427
63	0x3e9f8298	0.31154323
64	0xbd213635	-0.039358336
65	0xbdf3bf64	-0.11901739
66	0x3daaf6ae	0.08347832
67	0xbdb9ec16	-0.09078233
68	0xbe12abaf	-0.14323305
69	0xbdcec8fd	-0.10096929
70	0x3eca4300	0.39504242
71	0x3e04a1af	0.12952302
72	0xbd5ff2c5	-0.054674882
73	0xbc012dd7	-0.007884464
74	0x3de1e4a2	0.110299364
75	0x3e5f534a	0.21809116
76	0xbe3f7f0c	-0.18700808
77	0x3c07d490	0.008290425
78	0xbeeeffb3	-0.46679458
79	0xbeb4bb15	-0.35298982
80	0xbd9b0f26	-0.07571249
81	0x3cbafe48	0.022826329
82	0x3b654ef8	0.0034989696
83	0x3d86b7ea	0.065780476
84	0x3e2b8c1a	0.16752663
85	0xbed4b58d	-0.41544762
86	0x3c5d2e02	0.013499739
87	0x3dc559af	0.096362464
88	0xbc3981ac	-0.01132242
89	0x3e109a1b	0.14121287
90	0x3d9a3afe	0.07530783
91	0xbdcd135a	-0.10013457
92	0xbc5a2b5a	-0.013316
93	0xbe45a0dd	-0.19299646
94	0xbd460345	-0.04834296
95	0x3dd689f3	0.104755305
96	0x3d5f2c17	0.054485407
97	0x3d6a1964	0.05715312
98	0xbe1465ba	-0.1449193
99	0x3ce98db0	0.028509945
100	0xbe8f8b24	-0.28035843
101	0x3e340c15	0.17582734
102	0xbe085986	-0.133154
103	0x3e4fe4de	0.2030215
104	0x3e83d711	0.2575002
105	0xbcb30fdc	-0.021858148
106	0xbc11f346	-0.008908099
107	0xbd6e043a	-0.0581095
108	0xbd92d549	-0.07169587
109	0xbde56dd6	-0.1120259
110	0xbdee393d	-0.11632011
111	0xbd28e6d7	-0.04123577
112	0xbe069d89	-0.13146032
113	0xbdf232ea	-0.11826117
114	0x3e694a61	0.2278228
115	0x3e3b2a76	0.18277916
116	0x3b9b685e	0.004742666
117	0x3da74fb9	0.08169503
118	0x3ea74771	0.32671693
119	0xbe37c594	-0.17946464
120	0xbea4d0c3	-0.32190523
121	0x3e105471	0.14094712
122	0xbe13796e	-0.1440179
123	0xbe2dde47	-0.16979323
124	0x3e7410d5	0.23834546
125	0xbe40c56f	-0.18825315
126	0x3ed62d54	0.41831458
127	0xbd9ebdac	-0.07751021
128	0x3e84f937	0.25971386
129	0x3bb5bf64	0.005546497
130	0x3e30fad8	0.1728319
131	0x3e7e8228	0.24854338
132	0x3cab4c78	0.020910487
133	0x3e0ac626	0.1355215
134	0x3e966faf	0.29382083
135	0xbd89fe29	-0.0673793
136	0xbde18ec5	-0.11013559
137	0xbdbf08b9	-0.093278356
138	0xbd882149	-0.06646974
139	0xbdcfd78e	-0.10148536
140	0xbdde5d96	-0.10857694
141	0xbd8bbd48	-0.06823212
142	0x3cb5762b	0.022151073
143	0x3e006e47	0.12542067
144	0xbcf5bdc6	-0.029997718
145	0xbdc446ac	-0.09583792
146	0x3e44da9a	0.19224015
147	0xbb8044a1	-0.003914431
148	0xbcd0989d	-0.025463397
149	0x3c3464c0	0.011010349
150	0xbdd8aea0	-0.10580182
151	0xbe815a43	-0.25264177
152	0x3e156da6	0.14592609
153	0x3dd03502	0.101663604
154	0xbe323409	-0.17402662
155	0xbea87d55	-0.3290812
156	0x3db783c0	0.08960676
157	0xbdb50ec6	-0.088407084
158	0x3dd922a7	0.106023125
159	0xbeb7e219	-0.35914686
160	0xbe52da9c	-0.20591205
161	0xbe1d0160	-0.15332556
162	0xbe1cd293	-0.15314703
163	0x3daf3a8a	0.08556087
164	0xbdc01477	-0.09378903
165	0xbe0d2cd5	-0.13786633
166	0xbdad4d83	-0.0846205
167	0xbe63b714	-0.22237808
168	0x3c372087	0.011177189
169	0xbeeb9b94	-0.46017134
170	0x3cd0b698	0.025477692
171	0xbd32848b	-0.043583434
172	0xbdf9cfd4	-0.12197843
173	0xbebfb8f8	-0.37445807
174	0x3d462f74	0.0483851
175	0x3d78ebb9	0.060771678
176	0xbcab57ea	-0.020915944
177	0x3e96caaf	0.2945151
178	0xbcbc40fd	-0.022980208
179	0xbe5c9f5a	-0.21545163
180	0xbddc37c5	-0.10752825
181	0x3eaefc09	0.34176663
182	0x3df73af5	0.12071792
183	0xbdc91d2e	-0.09820019
184	0x3e704410	0.23463464
185	0xbdfe0888	-0.12403971
186	0xbc4e6e25	-0.012599503
187	0x3e2d3440	0.16914463
188	0xbde374f2	-0.1110629
189	0x3b5185c2	0.0031970595
190	0x3e823f74	0.25439036
191	0xbee1a3d0	-0.44070292
192	0x3dc65f54	0.09686151
193	0x3b6be2f2	0.0035993424
194	0xbea3e4a2	-0.3201037
195	0xbddf1359	-0.10892362
196	0xbd5576f1	-0.052115384
197	0xbdb9beb7	-0.09069579
198	0x3d9c2f29	0.076261826
199	0xbe632229	-0.22181
200	0x3ca034ec	0.019556485
201	0x3d59e9ed	0.053201605
202	0x3d2c12ff	0.042010304
203	0xbcc3ce67	-0.023902131
204	0x3e63353a	0.22188273
205	0xbd86506f	-0.0655831
206	0xbeabb9b9	-0.33540133
207	0x3df3648e	0.11884414
208	0x3e7b5fcd	0.24548264
209	0x3cb27514	0.021784343
210	0x3ecb9a22	0.39766032
211	0xbe87dcbc	-0.26535594
212	0xbd48ec60	-0.04905355
213	0x3e24469c	0.1604256
214	0x3cc6192e	0.024181928
215	0xbd33c11b	-0.04388533
216	0x3abbce00	0.001432836
217	0x3e9395ec	0.2882532
218	0xbd778e69	-0.060438547
219	0x3d64d508	0.055867225
220	0x3ddb10e9	0.10696585
221	0xbde804e9	-0.113290615
222	0xbd929569	-0.07157404
223	0xbe160c06	-0.14653024
224	0xbd38ab45	-0.04508521
225	0xbdfc565f	-0.123211615
226	0xbe02fff1	-0.12792946
227	0x3d0f22ba	0.034945227
228	0x3d0ae694	0.033911303
229	0xbea6a93d	-0.32550994
230	0x3e0fbe11	0.14037348
231	0xbd5fca9c	-0.054636583
232	0x3e5e149e	0.21687552
233	0x3ee2136a	0.44155437
234	0x3d28c6ac	0.041205093
235	0x3ad6b68b	0.0016381306
236	0x3b59b812	0.0033221287
237	0xbe383e5e	-0.17992541
238	0x3cba631a	0.022752333
239	0x3eee6036	0.46557778
240	0x3edbec0c	0.42953527
241	0x3e0a41e5	0.135017
242	0x3e2ca24a	0.16858783
243	0x3e680511	0.22658183
244	0xbce3c10f	-0.027802018
245	0xbe55312d	-0.2081954
246	0x3e16d1d9	0.14728488
247	0xbe07db72	-0.13267305
248	0x3dadbd37	0.084833555
249	0xbcda8183	-0.026673084
250	0xbd337863	-0.04381598
251	0x3e5d47bc	0.21609396
252	0x3e451636	0.19246754
253	0x3caa49cf	0.020787148
254	0x3d5ca6c4	0.053869978
255	0x3e4cf0be	0.20013711

bias f4 [64]
0	0xbbbe6549	-0.005810414
1	0xbc3927a9	-0.01130096
2	0xb6e96f1d	-6.9568764e-06
3	0xbba0ec8a	-0.00491101
4	0xbc4e80d2	-0.012603955
5	0xbc2e7655	-0.01064833
6	0xbb85603d	-0.0040703104
7	0xbc847f16	-0.01617388
8	0x00000000	0.0
9	0xb98c3027	-0.00026738757
10	0xbb89570e	-0.004191286
11	0x36b930c5	5.519107e-06
12	0xbb910727	-0.0044259015
13	0xbb1e695f	-0.0024171693
14	0xbb327be8	-0.0027234498
15	0xbb5035f5	-0.0031770442
16	0xb8025e3c	-3.1082178e-05
17	0xb9b68304	-0.0003481136
18	0xbc5dcdcb	-0.013537834
19	0xbc988c76	-0.018621664
20	0xb809183e	-3.2685923e-05
21	0xbac2595f	-0.001482766
22	0xbbf56bb7	-0.0074896473
23	0xb9df7ae4	-0.00042625435
24	0xbc7b15d9	-0.015325033
25	0xb5c25c6d	-1.4481026e-06
26	0x00000000	0.0
27	0xbc538c12	-0.012911813
28	0xba7d8261	-0.0009670612
29	0xbc095f4f	-0.00838454
30	0xbc038ccf	-0.008029177
31	0xbc4fbad9	-0.012678825
32	0xbc0648a0	-0.008196026
33	0xbc1ede1d	-0.009696511
34	0xbb8acb8a	-0.0042356895
35	0xba2d2c64	-0.0006606041
36	0xb51b6a45	-5.789664e-07
37	0xb6dcea47	-6.5837844e-06
38	0xbc4610c2	-0.012088956
39	0xb9c9741b	-0.00038424213
40	0xbba0a121	-0.0049020206
41	0xbb185c93	-0.0023248538
42	0xbbdaa1bf	-0.0066721137
43	0xbbadb9c7	-0.0053016874
44	0xbc5f2e0a	-0.013621816
45	0xbca2209a	-0.019790936
46	0xbbaa8585	-0.005203905
47	0xbc8360c6	-0.016037356
48	0xbc4f33e7	-0.012646652
49	0xb9b5cc0e	-0.00034675043
50	0xbc3661ac	-0.011131685
51	0xba75e7ef	-0.0009380569
52	0x3573f5e9	9.08824e-07
53	0x378721f5	1.6109067e-05
54	0xbc7a5607	-0.0152793
55	0xbb3be338	-0.0028669368
56	0x360f49ac	2.1351543e-06
57	0x37db15cd	2.6116986e-05
58	0xbc720aac	-0.014773052
59	0xbbc0e6da	-0.0058868947
60	0xb9325e81	-0.00017010608
61	0xb8bce0ad	-9.006388e-05
62	0xbc1fad47	-0.009745902
63	0xbc80bef6	-0.015716057

weight f4 [64, 119]
0	0x3ca9a1d8	0.020707056
1	0xbdee8474	-0.11646357
2	0xbdf74142	-0.12072994
3	0x3d01283c	0.03153251
4	0xbe10091f	-0.1406598
5	0xbda7a93b	-0.08186575
6	0xbe0521fa	-0.13001242
7	0x3d4df31f	0.050280686
8	0xbd8dcaec	-0.0692347
9	0x3bac8c57	0.0052657533
10	0x3cd35180	0.025795698
11	0xbd53aaa5	-0.05167641
12	0x3dfa6cf3	0.12227812
13	0x3e9aebcb	0.3025802
14	0x3e1ebb67	0.15501176
15	0x3c2a253a	0.010384852
16	0xbea1796c	-0.3153795
17	0xbc4dbe72	-0.012557613
18	0xbe30dd47	-0.1727191
19	0x3ddb089f	0.10695004
20	0xbdef2bb6	-0.11678259
21	0x3e22bb01	0.15891649
22	0x3ea08e83	0.31358728
23	0xbc1c59cf	-0.009542896
24	0x3e1f7b55	0.15574391
25	0xbe3dd1c9	-0.18537058
26	0x3e0acac5	0.13553913
27	0x3d75c094	0.05999811
28	0xbd744aff	-0.059641834
29	0x3d337fe3	0.043823134
30	0xbdabb24d	-0.083836176
31	0x3e673668	0.22579348
32	0xbe2a8ac0	-0.16654491
33	0x3e080184	0.13281828
34	0x3c48345d	0.012219516
35	0xbdd86091	-0.105652936
36	0x3d507f62	0.05090273
37	0x3e826182	0.25465018
38	0xbe04bd4c	-0.12962836
39	0xbdfc21df	-0.12311148
40	0xbea27e0f	-0.317368
41	0x3cb1dcc3	0.021711713
42	0xbe00593e	-0.12534043
43	0x3d95a436	0.073067114
44	0x3d9ec39b	0.077521525
45	0x3e431af5	0.19053252
46	0xbcbc5340	-0.022988915
47	0x3e95694c	0.29181898
48	0x3d899c08	0.06719214
49	0xbe2d28ff	-0.1691017
50	0x3dcdae2e	0.10042988
51	0xbb94ce77	-0.004541214
52	0xbae9285a	-0.0017788515
53	0xbdb39dd7	-0.0877034
54	0x3d918f92	0.07107462
55	0x3e515e02	0.20446017
56	0xbe13c69c	-0.14431232
57	0x3c0c7419	0.008572602
58	0xbd2567c1	-0.04038215
59	0x3e222efe	0.15838239
60	0xbb5b7f4f	-0.003349263
61	0xbe396d75	-0.18108161
62	0x3da2ba9a	0.07945748
63	0xbe0ec356	-0.13941702
64	0xbdbf9607	-0.09354787
65	0x3cda3885	0.026638279
66	0x3cb59215	0.022164384
67	0xbe13ee71	-0.14446427
68	0x3e4adc4f	0.19810604
69	0x3ac92a7c	0.0015347744
70	0xbdd0d6bb	-0.101972066
71	0xbd546551	-0.051854435
72	0x3d8d919a	0.06912537
73	0x3d317068	0.04332009
74	0x3dd304d7	0.103036575
75	0x3ce3d302	0.027810577
76	0x3d257019	0.040390108
77	0xbe1c9b41	-0.152936
78	0xbe0ba124	-0.13635689
79	0x3c3b80e9	0.011444309
80	0x3d61bf51	0.055114094
81	0x3de4cf9c	0.11172411
82	0x3dbef273	0.09323587
83	0xbdc6183d	-0.09672592
84	0x3e1dba6c	0.15403146
85	0x3e4b4415	0.1985019
86	0x3d87a920	0.06624055
87	0xbb0ca385	-0.002145977
88	0x3e29f9c3	0.16599183
89	0x3e21f5ea	0.15816465
90	0x3e4214ec	0.18953294
91	0xbca6d25d	-0.02036398
92	0xbd645665	-0.055746455
93	0xbd8ebf14	-0.06970039
94	0xbde96ff7	-0.11398309
95	0x3e1c2d6b	0.152517
96	0xbc90afd6	-0.01766197
97	0x3e1f5621	0.155602
98	0x3ce66987	0.028126491
99	0xbc994ef2	-0.018714402
100	0xbdb36ed1	-0.08761371
101	0xbd8769d0	-0.06611979
102	0xbe0d7478	-0.1381396
103	0x3d3d021e	0.046144597
104	0x3d162368	0.03665486
105	0xbd48a7c5	-0.048988122
106	0x3dcacc5d	0.099022605
107	0x3e82b6d5	0.25530115
108	0xbde7a080	-0.1130991
109	0x3c968d54	0.018377937
110	0xbd0259f2	-0.03182406
111	0x3d807034	0.06271401
112	0x3eb9626f	0.3620791
113	0x3cce4750	0.025180489
114	0x3c36ff73	0.011169302
115	0xbcdd5fd0	-0.027023226
116	0x3dff2c11	0.12459577
117	0x3db75350	0.089514375
118	0x3e1f8280	0.15577126
119	0x3ce36f02	0.027762894
120	0xbd365a74	-0.044519857
121	0x3defaa68	0.11702424
122	0xbe0c8908	-0.13724148
123	0xbcf196be	-0.029490825
124	0xbe0719f7	-0.13193499
125	0xbd0d18b1	-0.034447376
126	0xbdea59f9	-0.11442942
127	0xbbce17e4	-0.006289469
128	0xbe21dc0e	-0.158066
129	0xbd7e9cc4	-0.062161222
130	0x3cf30015	0.029663125
131	0xbde54bdf	-0.11196112
132	0x3d99524f	0.07486402
133	0xbdb14086	-0.08654885
134	0x3caf724d	0.021416808
135	0x3e416d65	0.18889387
136	0x3e2db4b1	0.1696346
137	0x3e8c8979	0.27448633
138	0x3cf37ef2	0.029723618
139	0xbd86bf4f	-0.06579458
140	0x3e2e9ea5	0.17052706
141	0xbd47be8e	-0.04876571
142	0x3dce57a7	0.10075312
143	0x3de5261d	0.1118891
144	0x3e04a859	0.12954845
145	0x3db070a7	0.08615237
146	0x3de299a3	0.1106446
147	0xbe00b568	-0.12569201
148	0xbe01788d	-0.12643643
149	0x3d63a92f	0.055581268
150	0x3d878591	0.06617273
151	0xbdf6bc9d	-0.12047694
152	0xbd01aa7e	-0.031656735
153	0x3bfc3019	0.0076961634
154	0xbd8101d4	-0.06299177
155	0xbd822a80	-0.063557625
156	0xbda9fb80	-0.08299923
157	0x3d2b9e8c	0.04189925
158	0xbdc3ff6e	-0.09570204
159	0xbc9109f2	-0.017704938
160	0x3e2cca8b	0.16874139
161	0xbd845527	-0.06461554
162	0x3e54a736	0.20766911
163	0x3da64522	0.08118655
164	0x3dc04302	0.09387781
165	0x3e1a2cd3	0.15056162
166	0xbc1b1efc	-0.0094678365
167	0x3d8f02fc	0.06982991
168	0x3c542cec	0.012950163
169	0x3bdaf722	0.0066822926
170	0xbe0bc708	-0.13650143
171	0xbe2e21b8	-0.1700505
172	0x3e5f6a99	0.21818008
173	0x3c85675b	0.016284635
174	0xbe251235	-0.16120227
175	0x3e3e2183	0.18567471
176	0xbe13ec35	-0.14445575
177	0xbde4fab0	-0.11180627
178	0xbdcfb896	-0.10142629
179	0x3da3be79	0.07995314
180	0xbdb7d795	-0.08976666
181	0xbe15d9a5	-0.14633806
182	0x3db8cd89	0.09023578
183	0x3e3cc4df	0.18434475
184	0x3c4b1e64	0.012397382
185	0x3e07448d	0.13209744
186	0x3d77fc1d	0.06054317
187	0x3d0468a5	0.03232636
188	0x3e05f3d4	0.13081294
189	0xbd2138c5	-0.03936078
190	0xbe2244fe	-0.15846631
191	0x3dcef17a	0.10104652
192	0xbd9d2d9b	-0.07674714
193	0x3dd0e5f3	0.10200109
194	0xbda556b8	-0.08073181
195	0xbc47328f	-0.01215805
196	0xbef22e8c	-0.47301137
197	0xbe62014a	-0.22070804
198	0x3d87eca7	0.06636935
199	0x3e5cd048	0.21563828
200	0x3d058929	0.03260151
201	0x3e6999fa	0.22812644
202	0x3caffd28	0.021483019
203	0xbe5c49a6	-0.2151247
204	0xb92cd9c1	-0.00016484318
205	0xbdcfc662	-0.101452604
206	0xbe280e37	-0.16411673
207	0x3d3af00c	0.045639083
208	0xbe6e6401	-0.23280336
209	0x3dda517a	0.10660072
210	0x3ce88c29	0.028387146
211	0xbe12f406	-0.143509
212	0xbc667187	-0.014065153
213	0x3e395a50	0.18100858
214	0x3e0541ed	0.1301343
215	0xbddea50f	-0.10871326
216	0xbe25545b	-0.1614546
217	0xbe5b1bd0	-0.21397328
218	0xbe218fac	-0.15777463
219	0x3e20aeca	0.15691677
220	0x3db73cdc	0.08947155
221	0xbe0f14ad	-0.13972731
222	0xbe3900cd	-0.18066712
223	0x3ce6dc89	0.028181331
224	0x3e0a7a96	0.13523325
225	0x3e0b2621	0.13588764
226	0x3e4129b5	0.18863566
227	0xbdbb7ab1	-0.09154261
228	0x3e05da72	0.13071612
229	0x3d6abe68	0.05731049
230	0x3c9fcb53	0.019506132
231	0x3d887586	0.06663041
232	0x3df30966	0.11867027
233	0xbcaf5904	-0.02140475
234	0x3de6f816	0.112777874
235	0xbdacc6b3	-0.08436336
236	0x3d450ab9	0.04810593
237	0xbe059802	-0.13046268
238	0xbe3a5c1a	-0.18199196
239	0x3d1125f0	0.03543657
240	0x3e682da6	0.22673663
241	0xbe3b5f21	-0.18298008
242	0xbe04be76	-0.1296328
243	0xbdde6c2e	-0.108604774
244	0xbe80b7f1	-0.25140336
245	0x3d64eeb5	0.05589171
246	0xbe56ce5e	-0.2097716
247	0xbe835036	-0.25647134
248	0xbd7a4eea	-0.061110415
249	0x3e26006d	0.162111
250	0xbe27bf00	-0.16381454
251	0xbe1f9b41	-0.15586568
252	0xbd834e76	-0.064114496
253	0x3db23eaf	0.08703362
254	0x3ddaf538	0.10691303
255	0x3e22a4c2	0.15883163

bias f4 [64]
0	0xbcb82945	-0.022480616
1	0xbce7ac6f	-0.028280465
2	0xbbb38bc8	-0.0054793097
3	0xbd33ba97	-0.043879118
4	0xbb35d6f8	-0.002774654
5	0xbca39911	-0.019970449
6	0xbc10f04e	-0.008846356
7	0xbc1c4425	-0.009537731
8	0xbb38da90	-0.0028206445
9	0xbcb9451b	-0.02261596
10	0xbd2ea1cf	-0.04263478
11	0xbcae1aea	-0.021253068
12	0xbc5ea81e	-0.013589887
13	0xbc8f9e73	-0.01753161
14	0x3c223482	0.009900214
15	0xbcd7fd6e	-0.026365962
16	0xbcc92a6e	-0.024556365
17	0xbc23edf5	-0.010005464
18	0xbca44316	-0.02005152
19	0xbc865ef8	-0.016402707
20	0xbd0802e8	-0.033205897
21	0xbc9aba04	-0.018887527
22	0xbcdf9bf9	-0.027296053
23	0xbc91b442	-0.017786149
24	0xbd4be64b	-0.04978017
25	0xbc181014	-0.009281177
26	0xbc1c1235	-0.009525825
27	0xbd0812b5	-0.033220965
28	0xbd16917c	-0.03675984
29	0xbd22a75f	-0.0397104
30	0xbb90acea	-0.004415144
31	0xbcf6425c	-0.03006094
32	0xbc28021d	-0.01025441
33	0xbb8601a2	-0.00408955
34	0xbcbc31ae	-0.022972908
35	0xbd1cd12c	-0.03828542
36	0xbd3eb6f2	-0.04656119
37	0x3b50692c	0.0031800969
38	0xbc1476a7	-0.009061492
39	0xbcef6045	-0.02922071
40	0xbd11af37	-0.03556749
41	0xbc0d89d7	-0.008638821
42	0xbc125a8e	-0.008932723
43	0xbc21f078	-0.009883992
44	0xbd55c121	-0.052186135
45	0xbcb9dc92	-0.022688184
46	0xbc266e6f	-0.010158165
47	0xbcab1c3c	-0.020887487
48	0xbcfa8bb3	-0.030584192
49	0xbc2e0b11	-0.010622756
50	0x3b619fc7	0.003442751
51	0xba57d96f	-0.0008233999
52	0xbd335738	-0.04378435
53	0xbc9f3ea8	-0.019439057
54	0xbb041d2f	-0.0020158996
55	0xbc290cd4	-0.010318
56	0xbc317a32	-0.010832356
57	0xbc99781c	-0.01873403
58	0xbd0d6a24	-0.03452505
59	0xbc876dd4	-0.016531862
60	0x3b94fe54	0.00454692
61	0xbd413cd1	-0.04717714
62	0xbc42e72a	-0.011895934
63	0xbc75e217	-0.015007517

weight f4 [64, 64]
0	0xbe4d08f1	-0.20022942
1	0x3d24ac0a	0.04020313
2	0xbd6965e2	-0.05698193
3	0x3e1a47f4	0.1506651
4	0xbd2191bc	-0.039445624
5	0x3e2c129c	0.16803974
6	0xbecaebc1	-0.3963299
7	0xbe161d69	-0.14659657
8	0xbe3346bb	-0.1750745
9	0xbe8c0753	-0.27349338
10	0xbc685495	-0.014180322
11	0xbd8afce8	-0.06786519
12	0xbdaf0078	-0.08545011
13	0x3ddce726	0.107862756
14	0x3e022634	0.12709886
15	0x3cde7ad7	0.027158184
16	0x3d3da1d5	0.046296913
17	0xbac7476a	-0.0015203778
18	0x3e7ef4b3	0.24898033
19	0x3dce3bab	0.100699745
20	0x3d82c270	0.06384742
21	0xbe576f3a	-0.21038523
22	0xbe201a2c	-0.15634984
23	0xbdbe3bfa	-0.09288783
24	0xbe52b97d	-0.2057857
25	0xbde854ea	-0.11344321
26	0xbd813d3d	-0.063105084
27	0x3e3c7368	0.18403399
28	0xbe749dd6	-0.23888335
29	0x3da67285	0.081273116
30	0x3e7bbc13	0.24583463
31	0x3e91a1ba	0.284437
32	0xbe6d4d40	-0.23174
33	0x3dbc7b15	0.092031635
34	0x3e3aaa42	0.1822901
35	0x3dc56d04	0.09639934
36	0x3d86e72d	0.06587062
37	0xbebf6c0a	-0.37387115
38	0x3e514435	0.20436175
39	0xbe51ceba	-0.20489016
40	0x3e853bd8	0.2602222
41	0x3c2d4ffc	0.010578152
42	0x3c8a2b72	0.01686642
43	0xbd866c84	-0.065636665
44	0xbe1a7d9f	-0.15086983
45	0x3e521585	0.20516022
46	0xbc2d0cdd	-0.010562149
47	0x3ed39025	0.4132091
48	0x3e496778	0.19668376
49	0xbdaee36c	-0.08539471
50	0x3db3b17d	0.087740876
51	0x3e34fec3	0.17675309
52	0x3d88aa3b	0.06673094
53	0xbeb276c6	-0.34856242
54	0xbe03130c	-0.12800235
55	0xbcf93902	-0.030422691
56	0x3e9afbe3	0.302703
57	0xbddb0e01	-0.106960304
58	0x3d8186df	0.06324553
59	0xbe3b4dc3	-0.18291382
60	0xbe0d30c4	-0.13788134
61	0x3e8b4d5e	0.27207464
62	0xbba0f518	-0.00491203
63	0x3db2845e	0.08716653
64	0x3daf1f5f	0.085509054
65	0xbe86af87	-0.26305792
66	0xbdab8307	-0.08374601
67	0xbdae252f	-0.08503186
68	0xbeba5b0a	-0.36397582
69	0x3c1024ed	0.008797866
70	0x3d367e18	0.044553846
71	0x3e40694f	0.18790172
72	0xbdd1bc31	-0.10240973
73	0x3e566ff2	0.20941141
74	0x3e7965d4	0.2435525
75	0x3e637646	0.22213086
76	0x3d3f9757	0.04677519
77	0x3ddbbe94	0.10729709
78	0xbe371426	-0.1787878
79	0xbc239fcd	-0.00998683
80	0x3e7a9d76	0.24474129
81	0x3eaaacbb	0.33334908
82	0x3e0a71d2	0.13519982
83	0x3c56cca4	0.013110314
84	0xbbc86832	-0.0061159367
85	0xbdd2691c	-0.10273954
86	0x3e21558a	0.15755287
87	0x3e291979	0.16513623
88	0x3d05334e	0.03251963
89	0x3e6c36e6	0.23067817
90	0xbe33e5c4	-0.17568117
91	0xbd9ab93a	-0.075548604
92	0x3e668880	0.22513008
93	0xbc4b588d	-0.012411249
94	0x3d45df69	0.048308764
95	0x3e8e1b0f	0.2775502
96	0xbe2d12ee	-0.16901752
97	0xbdddfd9a	-0.10839386
98	0xbe9263dc	-0.28591812
99	0x3e06d518	0.13167226
100	0xbb77d0b9	-0.0037813617
101	0xbe43e1d3	-0.19129114
102	0x3dad8aa0	0.08473706
103	0xbc1e4471	-0.009659872
104	0xbdb237ef	-0.08702075
105	0x3d951834	0.07280007
106	0x3e809cce	0.25119632
107	0x3dacf6cf	0.084455125
108	0x3b316106	0.0027065887
109	0xbe477a01	-0.19480135
110	0xbce81c21	-0.028333725
111	0x3d7775b9	0.060415003
112	0x3e7c4ecf	0.24639438
113	0x3e90baab	0.28267416
114	0x3e2c3618	0.1681751
115	0x3adc1d5d	0.0016793419
116	0xbe74836e	-0.23878261
117	0xbdea00d8	-0.11425942
118	0xbd19940a	-0.037494697
119	0x3e107759	0.14108028
120	0x3a550b14	0.0008126956
121	0xbd56ae49	-0.052412305
122	0x3e06e32c	0.13172597
123	0x3e426699	0.1898445
124	0xbe6d4140	-0.23169422
125	0xbd75de7b	-0.060026627
126	0xbebd1fac	-0.36938226
127	0xbdb2f31d	-0.087377764
128	0xbddcc918	-0.10780543
129	0xbe578978	-0.21048534
130	0xbc0c8820	-0.008577377
131	0x3e3919bd	0.18076225
132	0x3da12025	0.07867459
133	0xbe042ba7	-0.12907277
134	0x3daec00e	0.08532725
135	0xbdc6fe94	-0.09716526
136	0xbca653e7	-0.02030368
137	0xbd9ceafc	-0.07662007
138	0xbd2c28f6	-0.04203125
139	0xbe10afd5	-0.14129575
140	0xbc2ae047	-0.010429448
141	0xbd996b3b	-0.07491156
142	0x3db57f63	0.08862188
143	0x3dff33b2	0.12461032
144	0x3df08b02	0.11745264
145	0xbea07c13	-0.3134466
146	0x3f014fd1	0.50512415
147	0x3e394d75	0.18095954
148	0x3e689af1	0.22715355
149	0xbd7e6430	-0.062107265
150	0x3d97aa85	0.07405571
151	0x3e342f84	0.17596251
152	0xbe5c79b3	-0.215308
153	0x3e60d9e0	0.21958113
154	0xbe33a492	-0.17543247
155	0x3d29c313	0.041445803
156	0xbe3a28dc	-0.18179649
157	0x3ea1b492	0.31583077
158	0x3cae5849	0.021282332
159	0xbdbae1e5	-0.09125117
160	0x3e293274	0.16523153
161	0xbe43b01e	-0.19110152
162	0xbce467f6	-0.027881604
163	0x3b39acc3	0.0028331734
164	0x3d232ee2	0.039839633
165	0xbcfa3459	-0.03054254
166	0xbe4b206f	-0.19836591
167	0x3e5ea3b8	0.21742141
168	0xbe07423b	-0.13208859
169	0x3e00ea02	0.12589267
170	0x3d498c22	0.049205907
171	0xbdd173a5	-0.102271356
172	0xbd6d3ec2	-0.05792118
173	0xbe182f68	-0.14861834
174	0xbe855655	-0.2604243
175	0xbe7474df	-0.23872708
176	0xbdfe0444	-0.12403157
177	0xbda08216	-0.07837312
178	0x3da4cb6b	0.080466114
179	0xbebed252	-0.37269837
180	0xbe7238e3	-0.23654513
181	0x3e30042d	0.17189093
182	0x3db49b59	0.08818693
183	0xbe6b9ff7	-0.2301024
184	0x3dff199e	0.12456058
185	0xb9da9513	-0.0004169127
186	0xbe82b04e	-0.25525135
187	0xbc65c99b	-0.014025117
188	0xbee36366	-0.44411772
189	0x3e9d77df	0.30755517
190	0xbc40e6c2	-0.011773767
191	0x3e00e0b7	0.12585722
192	0x3c12da83	0.00896323
193	0xbca75047	-0.020424021
194	0x3e0d522f	0.13800882
195	0xbe2be945	-0.16788204
196	0x3e32d1b4	0.17462808
197	0x3e3e2e83	0.1857243
198	0xbb807d8d	-0.003921217
199	0xbec15d42	-0.37766463
200	0x3e3f1c9d	0.18663259
201	0xbc1915c8	-0.009343572
202	0xbeaa2ec7	-0.33238813
203	0x3d2db047	0.04240444
204	0x3e0be17d	0.13660236
205	0xbdea5a19	-0.11442966
206	0xbeabb53a	-0.33536702
207	0xbe4c43bd	-0.19947715
208	0xbcab4c04	-0.02091027
209	0x3e03b29e	0.12861106
210	0x3e65961b	0.22420542
211	0x3d8caeac	0.068692535
212	0x3c58cf1f	0.013232975
213	0x3d522e8b	0.051313918
214	0xbe367d4a	-0.17821231
215	0xbd1ebf46	-0.03875663
216	0xbd7609e6	-0.060068034
217	0xbe547736	-0.207486
218	0xbe545554	-0.20735675
219	0x3e05ce31	0.13066937
220	0x3d5a2610	0.053258955
221	0xbeb2eb0b	-0.3494495
222	0x3eccaf3e	0.3997745
223	0x3cf538ec	0.029934369
224	0xbe42d93c	-0.19028181
225	0x3d6f223d	0.05838226
226	0x3d740477	0.05957457
227	0x3e8ef19d	0.2791871
228	0x3e5a94bb	0.21345799
229	0x3e27833e	0.16358659
230	0xbdea9c1d	-0.114555575
231	0x3e5cb593	0.2155364
232	0x3d001f7b	0.031280022
233	0x3dea512b	0.11441263
234	0x3e3f6a27	0.18692838
235	0x3e5a11a7	0.21295796
236	0x3c65c5b4	0.014024187
237	0xbd361542	-0.044453867
238	0x3d54e58a	0.051976718
239	0xbe504baa	-0.20341364
240	0xbe0bdd7b	-0.13658707
241	0xbd722dd5	-0.05912574
242	0x3d87ed84	0.066370994
243	0x3da29a88	0.07939631
244	0xbda26056	-0.07928531
245	0x3e22e3c6	0.15907201
246	0xbee696a4	-0.45036805
247	0xbe88ce53	-0.26719913
248	0xbd8cbbb9	-0.06871743
249	0x3eaf090b	0.34186587
250	0x3dd0e847	0.102005534
251	0xbe16c491	-0.14723422
252	0xbd8472ba	-0.06467195
253	0xbd8cc9a6	-0.06874399
254	0xbe18a078	-0.14904964
255	0x3d57c830	0.052681148

bias f4 [64]
0	0xbcd08332	-0.025453184
1	0xbc681fcf	-0.01416774
2	0xbca934ca	-0.020655055
3	0xbc8f44c3	-0.017488843
4	0x00000000	0.0
5	0xbccadec8	-0.024764434
6	0xbb491102	-0.0030680303
7	0xbd0e7408	-0.034778625
8	0x3ad3a23d	0.0016146373
9	0xbcfda4f3	-0.030962443
10	0x3b4236aa	0.0029634633
11	0xbce27a84	-0.02764631
12	0x3b06cef9	0.0020570143
13	0xbc9ee93f	-0.01939833
14	0xbc0207d6	-0.007936439
15	0xbc9106cd	-0.017703438
16	0xbca457ab	-0.020061335
17	0x3aabe741	0.0013115184
18	0xbc6e3fc9	-0.014541575
19	0xbc091531	-0.008366869
20	0xbc45ca16	-0.012072107
21	0xbb5e9323	-0.0033962212
22	0xbd5a155a	-0.05324302
23	0xbc54fe52	-0.013000088
24	0xbbfcfe67	-0.007720757
25	0xbc46143c	-0.012089785
26	0xbcec8ef6	-0.028876763
27	0xbc4db300	-0.012554884
28	0xbc654192	-0.013992684
29	0xbc7d53a5	-0.015461837
30	0xbcc7d06e	-0.02439138
31	0xbd90178d	-0.07035742
32	0xbc111846	-0.008855885
33	0xbace64f4	-0.0015746639
34	0xbd32a4c0	-0.04361415
35	0xbcb350b4	-0.021889068
36	0x3b2976de	0.0025858204
37	0x3b4863d5	0.0030577083
38	0xbcfdd8ab	-0.030987104
39	0xbcaa9a63	-0.02082557
40	0xbd770918	-0.060311407
41	0xbd0ff776	-0.035148107
42	0xbc8e211f	-0.017349778
43	0xbd3191c9	-0.043351922
44	0x3c6a69a7	0.014307416
45	0xbb92818e	-0.0044710105
46	0xbd2cd236	-0.04219266
47	0xbce64e01	-0.028113367
48	0xbc9cc970	-0.019139022
49	0xbab7798f	-0.0013998019
50	0xbc38b383	-0.011273268
51	0x3cb05450	0.021524578
52	0xbc2c6612	-0.010522382
53	0xbca84830	-0.020542234
54	0x3ac14471	0.0014745129
55	0xbc0beb20	-0.008539945
56	0xbd15cd99	-0.036573026
57	0xbd089bd8	-0.03335175
58	0x00000000	0.0
59	0xbcab7429	-0.020929413
60	0xbceddda4	-0.02903635
61	0xbcc8781a	-0.024471331
62	0xbc8d60b8	-0.017258033
63	0x3a05cafa	0.0005103793

weight f4 [1, 64]
0	0x3cf00a9a	0.02930193
1	0x3c1f34ba	0.009717161
2	0x3dd2c409	0.10291297
3	0x3bfaff7d	0.007659851
4	0xbe4805e5	-0.19533499
5	0x3dae163d	0.08500335
6	0xbc48eafd	-0.012263057
7	0xbb67678a	-0.0035309517
8	0x3c4e6d5c	0.0125993155
9	0x3aefd2cb	0.0018297074
10	0xb92f1ee7	-0.00016700813
11	0x3b544141	0.0032387527
12	0xbc86cd75	-0.016455391
13	0xbbe74c48	-0.007058654
14	0xbb4107aa	-0.002945403
15	0x3c1b91f7	0.00949525
16	0xbb12ec81	-0.00224188
17	0xbcb751e3	-0.022377914
18	0x3c8fa852	0.017536316
19	0x3b603d77	0.0034216323
20	0x3ba58633	0.005051398
21	0x3c549526	0.012975013
22	0xbe38a264	-0.18030697
23	0x3d937e4d	0.07201824
24	0x3b643606	0.003482224
25	0xbd044b65	-0.032298464
26	0x3e34f570	0.17671752
27	0xbb920005	-0.0044555687
28	0x3a80be9d	0.0009822432
29	0x3b3a9cdc	0.0028474843
30	0xba9105d1	-0.0011064355
31	0x3eb8d28a	0.3609813
32	0x3d975527	0.073892884
33	0x3c99aa3c	0.018757932
34	0xbecb9ea8	-0.39769483
35	0xbe74a85c	-0.23892349
36	0x3c95bafd	0.01827764
37	0xbc854a2b	-0.016270718
38	0x3c9702b4	0.018433906
39	0xbe4133ec	-0.18867463
40	0xbe42e1b9	-0.19031419
41	0xbd2bb67a	-0.04192207
42	0xbb1d2a7c	-0.0023981621
43	0xbe8232a5	-0.25429264
44	0xbcfeaa85	-0.03108717
45	0x3c00ac9f	0.007853656
46	0xbda8155f	-0.08207201
47	0x3d8abd58	0.06774396
48	0xb81fb423	-3.807632e-05
49	0x3a95a08c	0.0011415645
50	0xbc35e18f	-0.011101141
51	0xbc8e1644	-0.017344601
52	0xbac68ffe	-0.0015149114
53	0x36f7357a	7.367399e-06
54	0x3d31977e	0.043357365
55	0x3b55cc75	0.0032623087
56	0x3e33c151	0.17554213
57	0xbdcc192c	-0.09965739
58	0x3de98a49	0.11403329
59	0xbb8c0e0e	-0.0042741364
60	0xb9db1b2f	-0.00041791188
61	0x3e340906	0.17581567
62	0xbb3b5b5c	-0.002858839
63	0xbae356cc	-0.0017344593

weight f4 [5, 64]
0	0x3bd57e99	0.0065153358
1	0x3c47f757	0.0122049665
2	0xb9a318bb	-0.00031108208
3	0xbb58467e	-0.0033001
4	0x3c54b481	0.012982489
5	0xbc8599d8	-0.01630871
6	0x3c1bcf17	0.009509823
7	0x3ad2a4cb	0.0016070841
8	0xb8324d86	-4.2510706e-05
9	0xbadb874a	-0.0016748693
10	0xbb51e249	-0.0032025746
11	0xbb03fe70	-0.002014067
12	0x3c4175e0	0.011807889
13	0xb7e1a9f4	-2.690123e-05
14	0xbbc89d22	-0.0061222473
15	0x3b2c2975	0.0026269828
16	0xb88b63aa	-6.6466004e-05
17	0x3b447af1	0.0029980505
18	0xbbdf9f5c	-0.006824417
19	0x3a3e49da	0.00072589295
20	0xbb035c0d	-0.002004388
21	0x3c2b33e2	0.010449382
22	0x3bef6fdb	0.0073070354
23	0xbb58d03e	-0.0033083106
24	0x3a0a2b52	0.00052707375
25	0xba8afc06	-0.0010603673
26	0x3ae07df7	0.0017127384
27	0xbab4631c	-0.0013762447
28	0xbc5f867e	-0.013642905
29	0x3c477914	0.012174863
30	0xba2f26c6	-0.0006681498
31	0x3c32564f	0.010884835
32	0x3b086178	0.002081005
33	0x3c13cad8	0.00902053
34	0x3a73a78a	0.00092946796
35	0x3c0f0462	0.008729072
36	0xb9058ef2	-0.0001273712
37	0xbb150509	-0.0022738597
38	0x3bc2bf71	0.0059432318
39	0x3689723e	4.0962177e-06
40	0x3c03f573	0.008054125
41	0xbb8e6366	-0.0043453453
42	0x3c27ef8c	0.0102499835
43	0x3af67067	0.0018801809
44	0x3b6a2552	0.003572781
45	0x3bd1efa1	0.00640674
46	0xbbfd77fd	-0.007735251
47	0xbbc67eb5	-0.006057585
48	0x3ac1fd6a	0.0014800255
49	0x3b259b7a	0.0025269673
50	0xbc59c8fb	-0.013292546
51	0x3c1904da	0.009339536
52	0x3a867483	0.0010258112
53	0xb9fc2b0b	-0.00048097255
54	0xb9f1f02f	-0.00046146053
55	0xbb58e666	-0.0033096313
56	0x3a84b094	0.0010123425
57	0xbb76373f	-0.003756955
58	0x3c27a6bb	0.010232623
59	0xbc35b7c8	-0.01109118
60	0x3b5c312a	0.003359864
61	0x39e194cd	0.0004302621
62	0x3a9e4b31	0.0012076852
63	0xbc0f85e0	-0.008759946
64	0x3841e9d6	4.6232562e-05
65	0xbbbfcbcd	-0.0058531524
66	0xbaca6d75	-0.0015443998
67	0xbb88a6eb	-0.004170289
68	0xbce7b23e	-0.028283235
69	0xbb49f72b	-0.003081749
70	0xbc17dc24	-0.009268794
71	0xbb46372c	-0.0030245287
72	0x3b2c5225	0.002629408
73	0x3ac60782	0.0015108439
74	0xbbc2b1ca	-0.0059416043
75	0xbb1001ed	-0.0021973804
76	0xbc3a387a	-0.011366004
77	0xbc274932	-0.010210322
78	0x3ba2810e	0.004959232
79	0xbbe6deca	-0.0070456015
80	0xb912471e	-0.00013950138
81	0xbbca8c8a	-0.0061813043
82	0xbb9649d3	-0.0045864373
83	0xb9f21d19	-0.00046179516
84	0x3ac9e17c	0.0015402283
85	0xbbf18929	-0.007371087
86	0x3a942f94	0.0011305683
87	0xbb5a282e	-0.003328811
88	0xbca00a25	-0.019536087
89	0xba721d54	-0.00092359376
90	0xbb1bd019	-0.002377516
91	0x3b2becd4	0.002623369
92	0x3c1dcfcf	0.009632065
93	0x3c5c14c1	0.0134326825
94	0x39852394	0.00025394245
95	0xbca6d417	-0.020364804
96	0xbb298291	-0.0025865177
97	0xbbf8bbb6	-0.0075907363
98	0xbb75750b	-0.0037453796
99	0xba0f2b64	-0.0005461483
100	0xb8ea8e5a	-0.000111845045
101	0x3a17a66c	0.00057849917
102	0xbcc6bfd5	-0.024261395
103	0xbb41efbc	-0.0029592356
104	0xbc11fac9	-0.0089098895
105	0xbbb3e05f	-0.0054893936
106	0xbc800c4e	-0.015630867
107	0xbc2ea631	-0.01065974
108	0xbb889c09	-0.0041689915
109	0xbc589add	-0.013220516
110	0x3c0e601b	0.0086899055
111	0xbacc1f62	-0.0015573318
112	0xbb55fa7e	-0.0032650526
113	0xbc0f992a	-0.0087645445
114	0x3c0243ef	0.007950767
115	0x3ba57bb4	0.005050147
116	0x38b38af9	8.561271e-05
117	0x3afe76d9	0.0019414081
118	0x3b9195ca	0.004442905
119	0xbc2e66c3	-0.0106446175
120	0x3941aeb8	0.00018471002
121	0x386e2005	5.6773442e-05
122	0xbc2258fa	-0.009908909
123	0x3be45687	0.0069683227
124	0xbbaa51c3	-0.005197735
125	0x3ab10fde	0.0013508757
126	0x3b5fbfc2	0.0034141396
127	0xba48b49c	-0.00076563074
128	0x3a02d3e3	0.000499068
129	0xbb0cea9c	-0.0021502143
130	0x3a7b30a5	0.0009582139
131	0x3bd9b987	0.006644431
132	0x3c1ad00f	0.009449019
133	0xbc8600ab	-0.01635774
134	0xbb9f2125	-0.004856246
135	0x3bacea8d	0.005276984
136	0xba81c720	-0.0009901263
137	0xba786b85	-0.0009476471
138	0xbc1b0fa7	-0.009464181
139	0x394ce0e2	0.00019538731
140	0xbb081217	-0.0020762736
141	0xbb1bac26	-0.0023753732
142	0xb9edb531	-0.0004533916
143	0x3a8ab8d7	0.0010583651
144	0x3a72362a	0.00092396385
145	0x3c184431	0.009293602
146	0x3c6c449a	0.014420653
147	0x3b96157f	0.0045801993
148	0xbb282dbc	-0.0025662025
149	0xbadcb692	-0.0016839078
150	0xba0fa350	-0.00054793525
151	0xbbf00064	-0.0073242653
152	0x3b5483c9	0.0032427183
153	0x39bb0897	0.0003567382
154	0x3998ed2a	0.000291684
155	0xbb68c5c1	-0.003551826
156	0x3a4174a1	0.0007379745
157	0xbc9273d8	-0.017877504
158	0x3b9d065b	0.0047920174
159	0x3c027176	0.0079616215
160	0x3b705d09	0.0036676547
161	0xbbda945d	-0.0066705183
162	0x3c0d056f	0.0086072525
163	0xbaedaddb	-0.0018133478
164	0x38c76198	9.507238e-05
165	0xbb315926	-0.0027061193
166	0x3bbb28c1	0.0057116454
167	0xba6e91c4	-0.00091007
168	0xbac3b135	-0.0014930131
169	0x3c4d78b7	0.012540988
170	0x3b92d43a	0.004480866
171	0x3b5b733b	0.003348543
172	0xb95f659d	-0.00021304791
173	0x3be11170	0.006868534
174	0xbb90468e	-0.004402942
175	0xbb5f46bf	-0.0034069268
176	0xbb324dcc	-0.0027207015
177	0x3aef1fd5	0.001824374
178	0x3b29e969	0.0025926477
179	0xbc89b351	-0.016809138
180	0x39f3e32a	0.00046517822
181	0x3bc7124e	0.00607518
182	0xbbbaffae	-0.005706749
183	0x3ba9a039	0.0051765707
184	0x391e3081	0.00015086123
185	0xb9f35278	-0.00046410016
186	0x3b075530	0.002065014
187	0xbc07e033	-0.008293199
188	0x3abc130a	0.0014348936
189	0xbb06a3e6	-0.0020544468
190	0x3b730dd2	0.0037087095
191	0xbb2e16b4	-0.0026563825
192	0xbc2f0d9e	-0.010684399
193	0xbb8cf776	-0.0043019606
194	0xbae52660	-0.001748275
195	0xbc626bd5	-0.0138196545
196	0xbb3e9424	-0.0029079998
197	0xbc17ae10	-0.009257808
198	0xbb1feaff	-0.0024401543
199	0x3a87013a	0.0010300048
200	0xba39e5b0	-0.0007091416
201	0x3bdc03d7	0.006714325
202	0x3c18bd9a	0.009322548
203	0x3a1df228	0.0006025159
204	0x3c4135f6	0.01179265
205	0xbb01172b	-0.0019697647
206	0xbb9866a0	-0.0046509057
207	0x3c101351	0.008793668
208	0x39ad06b0	0.00033002114
209	0xbb4708e5	-0.0030370292
210	0x3a706f60	0.00091718696
211	0x3b379ffa	0.0028018937
212	0x3a6ed603	0.000911087
213	0x3ade7cb6	0.0016974423
214	0xbb3d03d6	-0.0028841398
215	0x3c279ce8	0.01023028
216	0x3b889161	0.004167721
217	0xba6ece2e	-0.00091097027
218	0x3a23dd21	0.00062509073
219	0x3ad776d9	0.0016438618
220	0x3bd52189	0.006504242
221	0xbb235df0	-0.0024927817
222	0x3bb1a164	0.0054208506
223	0x3b04f8a1	0.0020289796
224	0xbc0724fe	-0.008248566
225	0x3be545b4	0.0069968347
226	0x3bdbfbfc	0.0067133885
227	0xbc711425	-0.0147142755
228	0x3a893acd	0.0010469795
229	0x3a917c1e	0.0011099612
230	0x3c5080df	0.012726038
231	0x3bbac67e	0.0056999316
232	0x3b5f51ca	0.003407585
233	0x3bf01df4	0.0073277894
234	0x395f7c0f	0.00021313153
235	0xbc21baf3	-0.009871232
236	0x39acab53	0.00032934043
237	0x3b9d3d8c	0.0047985967
238	0x39d763b5	0.00041082283
239	0x3bd611fc	0.0065329056
240	0x39c196a2	0.0003692406
241	0xba143b2d	-0.000565457
242	0xbb2bf81f	-0.002624042
243	0xb9fa357a	-0.0004772356
244	0xba90d9e8	-0.0011051269
245	0x3a6c4504	0.00090129697
246	0xbb443a5d	-0.0029942014
247	0x3c1fec25	0.009760891
248	0xb9947607	-0.00028316697
249	0xb9b3c421	-0.00034287668
250	0xbaa8095a	-0.001282017
251	0xbc9efa70	-0.019406527
252	0x3aeb5243	0.0017953593
253	0xbae43b0b	-0.0017412616
254	0xbad19b15	-0.0015991653
255	0xbb4e6b75	-0.0031497155

bias f4 [5]
0	0xbccd45a8	-0.025057629
1	0xba348c8b	-0.00068873976
2	0xbcc8693e	-0.024464246
3	0xbc99c419	-0.018770264
4	0xbcb794f5	-0.022409895
