model/medium-4/IA2C/model_agent3_seed1.pt (torch, 109505 bytes, 11 tensors)

weight f4 [64, 134]
000000 eb 2f f1 bc 88 e0 63 bd c2 79 fe 3d 37 70 5d 3b
       -0.029441794 -0.05563405 0.12425567 0.003378881
000010 12 38 5f bd 82 c8 6a bd f3 72 69 3e 58 96 18 be
       -0.054496832 -0.057320125 0.22797756 -0.14901102
000020 0b 65 11 3e e1 0e 2f 3d 0d 79 a5 3d ee 42 4b be
       0.14198701 0.0427388 0.08079729 -0.1984975
000030 a5 68 b7 3d 3f 66 0f be dc 79 dc bd 81 ef 6e bd
       0.08955506 -0.14003848 -0.1076543 -0.058333877
000040 8d 8e 93 3d 51 b0 98 3d 0b 72 0a be 3b 94 c6 3b
       0.07204924 0.07455505 -0.13520066 0.006060151
000050 19 6b 48 3e 80 48 37 3c ac f5 0b 3e 3c 7d ca bb
       0.19572105 0.011186719 0.13667935 -0.00617948
000060 ca f4 d3 bd ba f8 d1 bb 5f d4 26 3e 28 9a ae bb
       -0.10349424 -0.0064078243 0.1629195 -0.0053284355
000070 da 6e e2 bd 02 55 d7 bc 9e 04 97 3d d8 b7 ba 3d
       -0.110562995 -0.026285652 0.073739275 0.09117097
000080 1f f4 18 be 36 a6 1d 3d 70 91 9c bd 32 db 08 bd
       -0.14936875 0.03848859 -0.076449275 -0.033412166
000090 e0 8f aa 3d 09 67 16 bd 83 93 91 3e 79 c7 27 3d
       0.08328223 -0.036719356 0.28432855 0.040961716
0000a0 d2 c0 14 3e 43 e7 31 be b6 99 c1 bd 78 70 c0 bd
       0.1452668 -0.17373376 -0.09453146 -0.09396452
0000b0 56 06 c9 be 93 42 9f bc 9d c9 5d 3e b9 24 5e bc
       -0.39262646 -0.019440925 0.2165894 -0.01355856
0000c0 8c 3d 73 3d 60 52 98 3c 91 61 c5 3d 93 2c 8a 3c
       0.059384868 0.018593967 0.0963775 0.016866958
0000d0 ac f4 c0 bd 5f 94 53 bc 60 be 05 bd 04 0a e0 bd
       -0.094216675 -0.012913792 -0.03265226 -0.1093941
0000e0 23 50 83 bd 07 63 59 3e 13 33 d7 3d 74 8c 73 be
       -0.06411769 0.21229182 0.105077885 -0.23784047
0000f0 cb d7 41 bd 64 ab fc 3d 6f 7b 87 bd 58 00 1c 3e
       -0.047324937 0.12337378 -0.0661534 0.15234506
000100 ba 3b 63 be 0e 5f 4f be a3 03 75 bd 9d dc fc bd
       -0.22190753 -0.20251104 -0.05981792 -0.12346766
000110 2a 88 92 bd 8a 11 4d 3d 3a 30 09 3e 50 0c 36 3c
       -0.071548775 0.050065555 0.13397303 0.011111334
000120 d2 e6 c9 3d 49 b1 3a bc 84 0d 05 bb 05 79 15 be
       0.098584786 -0.011394807 -0.0020302245 -0.14596947
000130 f9 c2 07 3b c0 dd b3 bd e0 be 52 be fc 82 f3 bd
       0.0020715578 -0.0878253 -0.20580626 -0.11890218
000140 12 bc e6 3d c7 f8 70 3b c0 57 b4 3d 95 6f ef bd
       0.1126634 0.0036769377 0.088057995 -0.116912045
000150 d8 46 7b 3d 82 d4 38 3e 47 23 b0 3d 97 53 d9 bd
       0.06134686 0.18049815 0.086004786 -0.106116466
000160 24 c8 29 be 9e 48 a3 3d a7 ba d9 3c 78 a3 a5 3d
       -0.16580254 0.07972835 0.02657826 0.0808782
000170 ec fd c2 bd 51 a6 0b bd 68 b1 62 3d 11 b9 b2 bc
       -0.09521088 -0.03409416 0.05534497 -0.021816762
000180 53 8f 5b bd a0 96 f9 3b 50 26 ce 3c 2c 8e 8e 3d
       -0.05360348 0.007616833 0.025164753 0.06960711
000190 3d 02 2b bd b1 f9 db bc 17 03 d7 bd c4 3c 19 bd
       -0.04175018 -0.02685246 -0.10498636 -0.037411466
0001a0 3b 3a 47 3e a2 08 83 bb 0b 57 ec 3c c0 a7 c4 bd
       0.19455807 -0.003998832 0.0288501 -0.09602308
0001b0 92 8e 59 be ba 4d a7 3d ad 7e d5 3d a9 fc 8d 3e
       -0.21245793 0.08169122 0.10424552 0.27731827
0001c0 08 aa e0 3d 96 9a 7a 3d b5 a1 b9 3c 74 e1 3b bd
       0.10969931 0.06118258 0.022660116 -0.045869306
0001d0 05 44 5b be 34 2c 43 3e 89 71 2c be 85 0d 3f 3e
       -0.21412666 0.19059831 -0.16840185 0.18657501
0001e0 7b f2 a3 3d 56 1c 05 be c8 9d 16 3c 58 6b d4 3c
       0.08005234 -0.1299909 0.009192891 0.025930092
0001f0 73 29 96 3d b5 55 5e 3d 41 3c 1f be fc 23 c7 bc
       0.073321246 0.054280955 -0.15550329 -0.02430915
000200 ed b0 59 be 86 8d 7c 3e 78 04 cf bd 51 c1 1f 3e
       -0.21258898 0.24663362 -0.10108274 0.15601088
000210 ba 27 fa 3c a5 dd a3 3e 6d f8 14 3c 97 a3 dc bc
       0.030536521 0.3200504 0.009092432 -0.026933474
000220 55 20 a0 bc 0a 15 58 bd 07 c1 23 be 20 81 d3 bd
       -0.019546667 -0.05275444 -0.15991603 -0.10327363
000230 e8 77 a1 bd 4b ea 98 3d 2d a4 09 bd 30 0d 1e 3e
       -0.078841984 0.07466563 -0.033603836 0.15434718
000240 10 a7 43 3e ad ff 3a 3d 7b c1 f5 bd f2 22 3f be
       0.19106698 0.045653988 -0.11999794 -0.18665674
000250 fd 35 81 bd 59 a2 f5 3d 90 4b 44 3d b8 ca e8 3d
       -0.063091256 0.11993856 0.047923625 0.113667905
000260 e1 c6 17 3e 2e 59 2b be d9 7e b8 bc 20 fd 92 3d
       0.1482196 -0.16733238 -0.022521423 0.07177186
000270 45 1b 82 3e 1f 04 39 3e 01 e1 b7 3d e9 89 40 3e
       0.2541143 0.18067978 0.08978463 0.18802609
000280 81 d3 2c bd b4 c7 09 3e a0 35 ef 3e 52 76 4f be
       -0.042193893 0.13455087 0.467206 -0.2025998
000290 a4 3f a0 3d 50 93 18 3e 58 45 6e 3e 84 e9 bb 3d
       0.078246385 0.14899945 0.2326864 0.09175399
0002a0 09 4a 0f be 9b 7a fa bc 26 f2 06 be 00 d2 5f 3e
       -0.13993086 -0.030576041 -0.1317831 0.21857452
0002b0 7f 06 92 bd 99 59 21 bc ba 71 81 3d d1 4d 3a be
       -0.07130145 -0.009848022 0.0632052 -0.18193747
0002c0 9d 1d 15 be a4 50 92 bd 00 97 b3 bc 3c f3 bf 3c
       -0.14562078 -0.07144287 -0.021922588 0.023431413
0002d0 d2 e6 6b be c6 a0 79 3b 1e 85 57 be 94 3c ed 3d
       -0.2303727 0.0038090213 -0.21046874 0.1158382
0002e0 25 53 32 bd cb 05 d8 3c f0 e3 9d 3e b6 2f 38 bd
       -0.043536324 0.02636995 0.30837965 -0.044967376
0002f0 3e 52 4b be f4 3f e3 3b e5 0e 89 3d 8d 53 00 3b
       -0.19855592 0.006935114 0.06692294 0.001958105
000300 15 88 84 bd e4 79 b1 3d 54 ef 78 bc 52 a5 17 3c
       -0.06471268 0.08665827 -0.015193779 0.009255724
000310 5f 93 17 bd dd f4 b4 be ef ce 0a bd 20 96 51 bd
       -0.03700578 -0.35343066 -0.033888754 -0.05116856
000320 80 1b b5 3c 6b f5 09 be 08 3b d3 3c b5 d7 1f 3d
       0.02210784 -0.13472526 0.025784984 0.039024074
000330 64 81 1d 3d d4 2b ec b8 40 68 17 be 5b 82 f2 bd
       0.038453475 -0.000112615206 -0.14785862 -0.118412696
000340 c1 c6 2d 3d e5 6b db 3c 3f 35 47 3d 82 20 0c be
       0.042425875 0.026784847 0.048634764 -0.13684276
000350 55 8e 45 3b 88 97 e8 bc 26 3b e5 bc 90 00 8f bd
       0.003014465 -0.028392568 -0.027982306 -0.06982529
000360 3c c5 26 ba 5b 53 d1 bd 96 78 af 3c fb a2 1e be
       -0.00063617877 -0.10220977 0.021419805 -0.1549186
000370 f2 a5 ac 3d 97 0b 11 bd d7 d3 7b be 18 e9 c3 3d
       0.08430089 -0.035411444 -0.24592529 0.095659435
000380 ed 74 b5 bd bc 46 7d 3e c4 30 10 3d ff 5b 81 bd
       -0.088601924 0.24734014 0.035202757 -0.06316375
000390 e8 36 a1 bd 4e 85 b1 bd 6c c2 b8 bd 39 2f 02 bd
       -0.07871801 -0.08668004 -0.09021458 -0.031783316
0003a0 1c 24 00 bc 5c 68 bd bd 56 60 0a 3e 21 53 3b be
       -0.007821109 -0.092484206 0.13513312 -0.1829343
0003b0 7a 01 fc 3c 60 8b d2 3d 63 2e da 3c 71 a3 8b 3d
       0.030762423 0.1028049 0.026633447 0.06818283
0003c0 87 fd 28 bb 4b 41 86 3d ce b9 fb bc 66 ec a3 bc
       -0.002578588 0.065554224 -0.030728247 -0.020010184
0003d0 1d c5 99 3d 5f 93 48 bd ce 26 75 3d 01 08 08 bc
       0.075082995 -0.04896867 0.05985146 -0.0083026895
0003e0 1d 0a 29 be a8 f5 46 be b3 92 0d bc 53 ad 88 3d
       -0.16507764 -0.19429648 -0.008640933 0.06673684
0003f0 6a 21 07 3e 83 90 06 3e 74 55 b2 3d 51 17 72 be
       0.1319634 0.13141064 0.08707705 -0.23641707

bias f4 [64]
000000 10 23 26 37 2a d6 00 bc d0 c8 27 bc 2a 69 1e 39
       9.902535e-06 -0.007863561 -0.0102407485 0.00015107231
000010 6c d7 37 3a c1 d0 7f bb 67 38 f7 ba 20 35 00 3a
       0.00070129964 -0.003903434 -0.0018861414 0.0004890729
000020 9a 85 13 3a 5c 1f 6c 39 d2 17 03 bb 94 f3 94 bc
       0.0005627513 0.00022518396 -0.0020003212 -0.018182553
000030 be 9d 03 bc 0b 75 4b 3b 7a 07 a8 bc 09 5e 2c bc
       -0.008033214 0.0031045105 -0.020511378 -0.010520467
000040 c9 97 e6 3a db 62 6b bb 6b d7 89 bb 64 f6 cb 3a
       0.0017592843 -0.0035917077 -0.004206588 0.0015561101
000050 d2 7b fd bb 5f 54 aa bc 72 85 30 3a db cd a7 ba
       -0.007735708 -0.020792184 0.0006733752 -0.0012802439
000060 51 db 8a ba 9a aa 15 bb 31 b2 5f bb 51 3b 96 b9
       -0.0010593926 -0.0022837282 -0.003413331 -0.00028654424
000070 8f fb 02 b9 ad 7e cc ba 7f 60 ab b8 9c fa 28 bb
       -0.00012491479 -0.0015601717 -8.171889e-05 -0.002578414
000080 3c 3b 1a bc ff 06 d1 bb 67 0a 40 3c 4b 8f 56 bb
       -0.009413537 -0.006379008 0.01172123 -0.0032739218
000090 fe 78 0d 3a f0 e9 d0 bb 38 fc b6 bb 00 00 00 00
       0.00053967524 -0.006375544 -0.005584266 0.0
0000a0 27 55 8f bc 31 67 45 b9 7a 70 61 bb 49 ea 45 bb
       -0.017496658 -0.00018825826 -0.0034399317 -0.003019946
0000b0 9b 68 09 bc 68 bb f0 bb ae 8d 44 bc 16 01 8e bb
       -0.008386756 -0.0073465593 -0.01199667 -0.0043336255
0000c0 95 03 6d 3b 14 3c 4c 3b e8 6f f3 ba c3 a1 a3 bb
       0.0036165465 0.003116374 -0.0018572779 -0.0049936487
0000d0 d0 ca 87 ba 5b e9 b2 38 2d b8 c9 bb 57 77 14 bc
       -0.0010360125 8.531167e-05 -0.0061559887 -0.009061656
0000e0 f1 b3 26 bb 11 dc 79 bc 12 28 e6 ba 53 85 1a 3a
       -0.0025436843 -0.015250222 -0.0017559549 0.00058945006
0000f0 56 a2 15 bc 66 f4 8b bc f0 40 06 bb 29 35 26 bb
       -0.009132942 -0.017084312 -0.0020485483 -0.0025361276

weight f4 [64, 64]
000000 29 bf 7d 3c a1 ae df bd 1d bd 90 be ad 13 91 3e
       0.015487471 -0.1092198 -0.28269282 0.28335324
000010 bf 3a fd bd af e2 1c bd 0e fa 6f bd 68 70 79 bd
       -0.123647206 -0.03830212 -0.05858808 -0.060898215
000020 d7 f1 cb be fc f2 a5 be 82 dc b9 bd b5 da 45 3e
       -0.39832947 -0.32411945 -0.09075262 0.19321711
000030 bb d3 ee 3e e3 4c d2 3d 9b e6 77 be 13 ba aa bd
       0.46645913 0.10268571 -0.24209063 -0.08336272
000040 16 1b bf be ab dc a4 3d 32 bf c4 be 24 97 8b 3e
       -0.37325352 0.080499016 -0.3842712 0.2726375
000050 e0 4c 63 3d bf 8c a6 3e 8e 7d 89 b8 76 29 90 bd
       0.055493236 0.32529256 -6.5560555e-05 -0.07039158
000060 71 81 59 be 6b 96 ea bd 7f f7 90 3d bb 60 84 3d
       -0.21240784 -0.11454471 0.07078456 0.064637624
000070 37 20 a0 bd 9e 16 9c 3d 09 ba 68 bd 5e 83 6d be
       -0.078186445 0.076215014 -0.056818042 -0.23194644
000080 22 2b 43 3d da ea 0f 3e 57 b9 b7 bd 1b d3 e0 bd
       0.047648557 0.14054433 -0.08970898 -0.10977765
000090 6f 0b e8 3c a7 35 0e be 4b bc e6 3d 48 e2 0f be
       0.028325764 -0.13887654 0.11266383 -0.14051163
0000a0 59 64 0b 3d d8 2e dc 3c 81 a2 6d 3c d5 e3 b7 bd
       0.034031246 0.026877806 0.014504076 -0.089790024
0000b0 28 c2 61 be 9b 0c bc be 2d 48 da 3d 63 e2 39 bd
       -0.22046721 -0.36728367 0.10658298 -0.045381915
0000c0 62 41 bb bd 44 6a c2 3d fb 0c 06 3d 47 01 c9 3d
       -0.0914333 0.09492925 0.032727223 0.09814697
0000d0 53 a4 fc 3d 5c 75 83 3e 24 d0 ee bd 68 60 c5 3d
       0.1233603 0.25675476 -0.116607934 0.09637529
0000e0 4d 2a 7f bd c3 ac c5 3d 65 35 df 3d 71 17 98 3e
       -0.0622962 0.09652092 0.10898856 0.29705384
0000f0 43 b4 8c bd 12 c3 57 3d 3d de 6e 3d ff cd dd bc
       -0.0687032 0.052676268 0.05831741 -0.027075766
000100 e4 fd 84 bd ef 28 50 3e 95 06 81 bd 5c 75 c6 bd
       -0.06493738 0.20328115 -0.063000835 -0.09690353
000110 d3 3f 6d 3d f7 fd ae bd 59 70 99 bd f4 ca 2a 3e
       0.057922196 -0.08544534 -0.07492132 0.16678983
000120 7b bd b0 be f2 1b 7d bd 6e 13 bd bd 6f 97 82 3e
       -0.34519562 -0.06179423 -0.092322215 0.2550616
000130 6a b5 95 be 2c 13 81 be 32 05 33 3e 30 eb 34 be
       -0.2923997 -0.2520994 0.1748245 -0.17667842
000140 ae 04 2a be 31 24 6a bd 24 49 63 bd 90 a1 ef bd
       -0.16603348 -0.05716342 -0.055489674 -0.117007375
000150 7b 0d bf be b7 68 42 bd 9f 27 6a bb 0f 86 58 3e
       -0.37314972 -0.047463145 -0.0035729182 0.2114489
000160 94 46 0b 3e 44 55 9f bd e0 82 bb bd fe 31 88 3e
       0.13601142 -0.07779935 -0.09155822 0.2660064
000170 b7 00 32 3e e3 95 a1 3d d0 06 66 3e 37 14 2f be
       0.17383085 0.07889917 0.22463536 -0.17097555
000180 c8 7a 1d 3d ba 27 bc be 82 ae b1 be ec a6 2e 3e
       0.03844717 -0.3674906 -0.3470345 0.17055863
000190 49 4c 2d bd 41 65 ab 3b 35 9c 49 bc 40 3d 8d 3e
       -0.04230908 0.0052305763 -0.012305309 0.27585793
0001a0 06 7e 2c 3e 59 0d 08 3d 4e 62 ba bd 80 ca e2 bb
       0.16844949 0.033215854 -0.091007814 -0.0069211125
0001b0 cd 59 51 3c 0b ab 06 3e cd 54 cf 3e 30 1b ff bd
       0.012777758 0.13151185 0.40494385 -0.124563575
0001c0 ab 58 94 be b1 ac 59 bd e1 5e 3f 3c cf 47 ed bd
       -0.28973898 -0.053143207 0.011680336 -0.11585962
0001d0 00 74 b5 3e ac b2 25 be fd b7 9b 3d f0 e5 91 3d
       0.35440063 -0.16181439 0.07603452 0.07123935
0001e0 69 1c cc bc 2c 64 3a bd c4 44 60 bd 5b 39 59 3e
       -0.02491589 -0.045505688 -0.05475308 0.21213286
0001f0 64 e9 93 be f3 f7 dd bd 98 97 e1 bd f8 1a e8 3c
       -0.28889 -0.10838308 -0.11015242 0.028333172
000200 2e b6 0d be ad 40 d7 be 1f 62 c1 3b ff fa 47 bd
       -0.13839027 -0.4204153 0.0059015895 -0.048823353
000210 84 5c 11 3d 1e 2b 03 be 89 20 26 3e 33 91 aa bd
       0.03548862 -0.12809417 0.16223349 -0.08328476
000220 16 cd 10 3a b5 e3 7b bd a7 41 2a be c3 1f 8d bc
       0.0005523724 -0.061496455 -0.16626607 -0.01722706
000230 6c 19 11 be 97 5d 39 bd 9a 61 59 3e 0a 79 4e be
       -0.14169854 -0.04525527 0.21228638 -0.2016336
000240 5f a2 ca 3e 1a 27 ac bd 9a 1c fc bd 79 14 cb bc
       0.39577004 -0.084058955 -0.12310143 -0.024790036
000250 40 70 39 be 96 1f 9f 3d a4 eb e5 3b b7 b9 16 3e
       -0.18109226 0.077696964 0.007016616 0.14719282
000260 6a 50 a3 bd 29 dc 13 3f 99 74 69 3c 34 5a 53 3d
       -0.07974322 0.5775781 0.01424899 0.051599696
000270 99 eb 27 3e 7f f3 13 be 41 1b a4 3c db 46 0d be
       0.16398467 -0.14448355 0.020032527 -0.1379656
000280 d0 0e ad 3d 6b 9c e9 bd 43 85 61 be 54 9d 05 3e
       0.08450091 -0.114067875 -0.22023492 0.13048297
000290 b0 9c 3d 3e 03 d0 6b bd 31 fc 01 3e 30 20 23 be
       0.18516803 -0.057571422 0.1269386 -0.15930247
0002a0 c6 f5 84 bd 8b 55 83 be dd c5 43 3e c6 dc 20 bc
       -0.0649219 -0.25651202 0.19118448 -0.0098182615
0002b0 27 6b 0d 3e cc b0 81 be 31 e3 26 be 30 ff 8e bd
       0.13810407 -0.25330198 -0.16297604 -0.06982267
0002c0 8e f8 73 be ad 94 14 be cb cb 86 3e f7 99 a0 3e
       -0.23825285 -0.1450984 0.26327357 0.31367466
0002d0 0b 7e 24 bd f9 07 5f 3b 0e 90 e2 bd 6b 6d 55 3e
       -0.040159266 0.0034031852 -0.110626325 0.20842521
0002e0 95 0b 30 3e 65 0c 48 3e 27 d2 f2 3d 28 10 6f bb
       0.17191918 0.19535978 0.1185649 -0.0036478136
0002f0 e5 a6 7d 3d 88 fa a3 3e ab e6 4e 3e b3 c6 35 3e
       0.06192674 0.32027078 0.2020518 0.17751579
000300 71 f7 88 bd 47 3a f8 bd 75 86 0f 3c 51 4f 6e be
       -0.06687821 -0.121204905 0.008760084 -0.23272444
000310 7e 1d ac be 55 81 6d 3e b6 a3 ce be 35 a1 af bb
       -0.3361625 0.23193868 -0.40359277 -0.0053597935
000320 7f 19 94 bd 9f e5 10 3d eb f9 a9 3d 64 0d e2 3d
       -0.072314255 0.035375234 0.08299621 0.1103771
000330 e9 16 cc bd 46 d2 e4 bc e3 ce 0b 3e c1 20 09 be
       -0.09965307 -0.027932297 0.1365314 -0.13391401
000340 d3 74 83 be bd af 86 be 5e a7 5d bd 25 93 62 3e
       -0.25675067 -0.26305953 -0.054114692 0.22126444
000350 ba 27 24 3e 5f b6 ac bd f7 43 b0 be 85 d3 1d be
       0.1603078 -0.08433222 -0.34426853 -0.1541272
000360 b8 f2 fd 3d 37 ec d0 3d 4a 12 70 bd 32 6c 66 3d
       0.123998106 0.102013044 -0.05861119 0.056255527
000370 22 34 f8 bd a6 71 17 be ce a5 1c 3d 0a be 6c be
       -0.121193185 -0.14789447 0.03824406 -0.23119369
000380 53 bd be be 3b 63 0d bd 21 bd a5 bd a3 2b 0a bb
       -0.37253818 -0.03451846 -0.08092714 -0.0021083138
000390 e8 14 e4 3d 80 db 22 be 16 b1 0f bd a6 e1 5f 3c
       0.111368 -0.15904045 -0.03508099 0.013664639
0003a0 c2 e4 0a 3d 1c 42 79 be 11 98 88 bd 7b 25 0f be
       0.033909567 -0.24341625 -0.06669629 -0.13979141
0003b0 86 d3 16 3e de 98 b3 bd 38 3c b8 bd 06 c3 f0 3d
       0.14729127 -0.087693915 -0.08995861 0.11755948
0003c0 50 46 a0 bd df c9 16 be 9a 37 93 3d 18 bc 16 be
       -0.07825911 -0.14725445 0.071883395 -0.1472019
0003d0 47 b5 e9 bd e2 d3 13 be d5 9f c4 be 61 31 a9 be
       -0.11411529 -0.14436296 -0.38403192 -0.33045486
0003e0 e6 b6 16 be 85 c5 8f be 39 73 a8 3e bb 9e 3b be
       -0.14718208 -0.28080383 0.32900408 -0.1832227
0003f0 8c ae 4f be 52 16 2c 3d a6 5b 4c 3e 61 dd 5c be
       -0.20281428 0.042013474 0.19956836 -0.21568824

bias f4 [64]
000000 fb 5a 4e bc 21 e5 24 bc 4f 09 03 bc 00 00 00 00
       -0.012594934 -0.010064394 -0.007997825 0.0
000010 3b ec 3c b9 a4 dd 84 bb 7f 18 5b bb 52 d9 68 b7
       -0.0001801708 -0.004054742 -0.003343135 -1.3878876e-05
000020 00 00 00 00 a0 17 8d b8 8f 89 27 bc b1 02 df ba
       0.0 -6.7278044e-05 -0.010225668 -0.0017014352
000030 bc 0f 0e bb 14 45 84 bc d3 1d 18 bc 69 4b 14 bb
       -0.002167686 -0.01614622 -0.009284454 -0.0022627956
000040 ce 83 06 ba 6f db c2 bb 97 a8 14 bc 03 81 52 b9
       -0.0005131335 -0.0059465687 -0.009073398 -0.00020075221
000050 e2 70 56 bc d9 01 1d bc c7 f6 27 bc 53 7f a4 bc
       -0.013088437 -0.00958296 -0.010251707 -0.020080244
000060 b4 33 6b bc ce 9c 8a bc 34 48 69 bc 8f d3 22 bc
       -0.014355589 -0.016920473 -0.014238406 -0.009938135
000070 2b 23 47 bc 4e 61 d9 bb ab 55 18 b8 f8 ec 02 bc
       -0.012154381 -0.006633914 -3.631941e-05 -0.007991068
000080 d7 e4 93 bc 4d 44 76 bc 4a 9a 98 b9 92 aa d1 ba
       -0.018053455 -0.015030933 -0.00029106654 -0.0015996268
000090 00 00 00 00 7c 06 a6 bb a0 27 a0 ba db dc 05 b9
       0.0 -0.005066691 -0.001221884 -0.00012766143
0000a0 4d 0a 93 ba f7 a0 11 bc d9 c4 99 bc bf 85 2d bc
       -0.001121828 -0.008888475 -0.018770622 -0.01059097
0000b0 d7 b5 9b bc 6c 2f 5a 39 1e ae ff bb 06 8c d5 bb
       -0.019007606 0.00020807766 -0.007802739 -0.0065169362
0000c0 75 d1 cb 39 ef 5e ba ba e6 2a f2 bb 33 62 fd bb
       0.00038875235 -0.0014218966 -0.007390368 -0.0077326535
0000d0 d7 05 2d bb 8a 2d 91 bc 35 0e 9a bb c9 3f c6 bc
       -0.0026401186 -0.01772191 -0.0047014006 -0.024200337
0000e0 41 c4 12 bb 01 84 5f 37 86 32 97 bc af 09 7b bc
       -0.0022394808 1.332257e-05 -0.018456709 -0.015322133
0000f0 d5 86 e4 ba fa 35 97 bc d2 8d 89 bc 74 e2 de ba
       -0.0017435203 -0.018458355 -0.016791258 -0.0017004744

weight f4 [64, 134]
000000 05 2b 60 bd 49 64 0b bd fe 95 a0 be 49 32 d2 3d
       -0.054728527 -0.034031186 -0.31364435 0.102634974
000010 b9 d8 d8 ba 7c c9 c1 3d c6 c1 3f be 9e 30 f1 3d
       -0.001654408 0.09462258 -0.18726262 0.11776851
000020 c8 51 fb 3c eb 9a 2b 3e b5 89 31 be a4 10 ea bb
       0.030678645 0.16758315 -0.17337687 -0.007143097
000030 e0 e2 82 3c 91 c6 1f be 91 ec b7 3d 1a 55 7a 3e
       0.015977323 -0.15603091 0.08980668 0.24446526
000040 56 15 0c be 67 47 98 bd a5 2e d6 3d 0e 28 fe bd
       -0.13680014 -0.07435494 0.104581155 -0.124099836
000050 7b e2 83 bd de 77 24 3e fb d0 56 be f7 09 37 3e
       -0.06439682 0.1606135 -0.20978157 0.17874895
000060 7f ac fc 3d 87 25 de bd 1c a7 e4 bd 5f f2 03 bd
       0.123375885 -0.108470015 -0.11164686 -0.032213565
000070 7a d7 b2 3d 79 e8 18 3d 0d 5d ee bd 39 64 2c 3d
       0.08732505 0.03733108 -0.11638842 0.042087767
000080 42 70 ac bd 18 91 01 be 02 6c 44 3e 57 fb 97 3c
       -0.08419849 -0.12653005 0.19181827 0.018552465
000090 3f 7d cd 3c 65 86 c3 bd 3c 2d eb 3d 6c af 86 3a
       0.025084136 -0.09547118 0.11483237 0.0010275668
0000a0 f3 a3 c0 bd 12 17 af bd c4 54 70 3c 58 ba f9 3d
       -0.09406271 -0.08549322 0.014668647 0.121937454
0000b0 86 25 0f be 01 65 af 3e c4 03 d1 3d 78 7b 03 3c
       -0.13979158 0.34256747 0.10205796 0.008025043
0000c0 53 87 18 3c 43 18 89 bd cc 6d 08 be 56 98 f3 3d
       0.009309608 -0.06694081 -0.13323134 0.1189429
0000d0 db 8b 65 3d ed 94 fc 3d cd 69 4e be af 7a db bc
       0.05604158 0.12333093 -0.20157547 -0.026791899
0000e0 30 42 30 3c 5b 64 77 be c5 d4 00 bd 78 88 2f 3d
       0.010757968 -0.24159376 -0.031452913 0.042854756
0000f0 05 62 3e 3d c2 c9 ce 3c 8c 66 f7 3d 95 91 aa 3d
       0.046480197 0.02524269 0.12080106 0.08328549
000100 aa d6 36 3e d0 98 53 3d 75 20 b4 bd 96 93 c1 3d
       0.17855325 0.051659405 -0.08795253 0.09451978
000110 eb c4 30 bb 51 13 19 be b5 19 36 be 53 56 8b bd
       -0.002697284 -0.14948775 -0.17783244 -0.068035744
000120 f4 80 a9 bd ec fd 2a be 0d e6 0c 3e 29 98 f1 bd
       -0.08276549 -0.16698426 0.13759632 -0.117966
000130 e5 32 17 3d 04 58 44 3d e6 51 2b 3e 59 f9 8f 3c
       0.03691377 0.0479355 0.1673046 0.017574953
000140 02 08 96 3d 32 da 7f 3d 24 1d bd bc 84 47 58 be
       0.07325746 0.062463947 -0.023085184 -0.21121031
000150 7f 78 60 3c 6a a6 e7 3d 58 6c f6 bd 1f 47 39 be
       0.0137006035 0.11311038 -0.12032384 -0.18093537
000160 42 58 c0 3d b2 07 cf bd 8a 11 72 3d c8 03 c0 3d
       0.09391834 -0.1010889 0.059098758 0.09375721
000170 63 8a 06 3e cb 58 bd 3d f5 02 fb 3a 90 f3 66 be
       0.13138728 0.092454515 0.0019150662 -0.22553849
000180 1a 73 5a bd 9a 92 8c bd b6 b7 0f be 38 91 52 3d
       -0.053332426 -0.068638995 -0.14034924 0.051408023
000190 2c bb 0a be e4 52 b5 bd b7 6c ff bb 9d 91 ed 3d
       -0.13547963 -0.08853701 -0.0077949422 0.11600039
0001a0 3d 5a ee 3d e0 a0 a4 3c 9e b3 8c bb ae b6 98 3d
       0.11638305 0.020096242 -0.004293873 0.074567184
0001b0 17 da 46 3e 76 30 24 be 9c b8 39 bd 38 2a c3 3d
       0.19419132 -0.16034111 -0.045342073 0.09529537
0001c0 8a df c9 bc 09 49 74 be b6 3d 1b be be 7b ef bc
       -0.024642725 -0.23855986 -0.1516026 -0.02923381
0001d0 d6 40 34 bd 2f 15 fb bd 62 b5 9b bc ff 37 85 3e
       -0.044007145 -0.122599 -0.019007389 0.26019284
0001e0 a0 29 38 3d 4f d0 ce 3d f9 05 4a 3e 2d 64 21 be
       0.04496157 0.100983255 0.19728841 -0.1576087
0001f0 e1 21 18 3d 20 dc 07 3d ac cb 92 3b 94 e3 35 3e
       0.037141684 0.033168912 0.004479846 0.17762595
000200 62 31 7e 3e 3e df 66 be 8f 47 31 bc 2b ae 5d 3c
       0.24823526 -0.22546098 -0.010820284 0.013530294
000210 9f d4 c7 bc fc 01 87 bb 9f 17 ce 3c c3 8a 95 3b
       -0.024393378 -0.0041201096 0.025157748 0.004563661
000220 b7 d9 08 3e eb d2 90 bd c8 cb d9 3d 2a 2a 0c bd
       0.13364302 -0.070714794 0.10634571 -0.0342199
000230 9a f6 25 bb ad cd 23 3d 2b 50 fe 3c f9 25 16 3e
       -0.0025323988 0.03999107 0.031044086 0.14662923
000240 ab bd 1c bd 51 1c d6 bc eb 19 81 3d fd 33 f8 3b
       -0.03826682 -0.02613655 0.063037716 0.007574557
000250 f0 9c b9 bd ec c0 22 be bf 58 66 3d bf 25 cf 3d
       -0.090631366 -0.15893906 0.05623698 0.10114621
000260 cf 0d 44 3e f6 ea ae bd ea 31 9f bd 01 94 2b bd
       0.19145893 -0.08540909 -0.07773192 -0.041889194
000270 49 5c 99 3d 0c 52 6f 3e 60 3e 40 bd 55 27 cb bd
       0.07488305 0.23371142 -0.046934485 -0.09919611
000280 45 79 63 3c 09 0e 23 bd 87 92 8c bd a6 11 f3 3d
       0.013883893 -0.039808307 -0.068638854 0.118686005
000290 f1 f3 8a 3e 15 2d 5a 3d af e1 fc bc 7b b7 ae bd
       0.27139238 0.05326565 -0.030869333 -0.0853109
0002a0 92 b4 0a be 5c ce 62 be 48 63 5c 3e c3 4f d3 3d
       -0.13545445 -0.22149032 0.21522248 0.10317948
0002b0 20 5f af bd 68 a2 8f 3c ae 26 88 3d 50 b5 09 be
       -0.085630655 0.017533496 0.066480026 -0.13448071
0002c0 a7 2c 06 bc 4d c2 dd 3d d3 8c 2d 3d 47 49 bf 3d
       -0.008189357 0.108280756 0.04237063 0.093401484
0002d0 0d f3 6d bd 10 0d f4 3c 7c 2c 14 be ca 76 d6 3d
       -0.05809312 0.029791385 -0.14470094 0.10471876
0002e0 cc 1e f0 3c 2e 9e 8a 3b fd c4 04 3e 92 68 85 bd
       0.02931156 0.0042302823 0.1296577 -0.06514086
0002f0 e9 79 73 bd d7 f8 3b be c2 ca ab bd d1 bc e1 bc
       -0.059442434 -0.18356644 -0.08388282 -0.027555855
000300 77 f9 53 be 6f 10 be bd f1 a1 2b be 93 4f 16 be
       -0.20700632 -0.09280478 -0.16760994 -0.14678793
000310 73 4c 1e bd 87 22 26 bd 41 06 24 be 10 ec f2 3d
       -0.038647126 -0.04056027 -0.1601801 0.118614316
000320 30 b1 2a 3d 54 78 b8 3d b4 a4 12 3e 21 c4 5c 3c
       0.041672885 0.09007326 0.14320642 0.013474495
000330 6f ea 08 be 48 8a 6a 3e 1b dd be 3d 21 19 0f bc
       -0.1337068 0.22904313 0.09319516 -0.008734019
000340 74 4d 45 3e b2 3e 71 bd 9a 6d 50 3e 92 96 20 3e
       0.19267827 -0.05889768 0.2035431 0.15682438
000350 0a 21 c8 bd 44 b8 0c be 0b fd 92 be 90 ac f5 bd
       -0.09771927 -0.13742167 -0.2870868 -0.11995804
000360 19 d5 0b 3d 68 e0 31 3c 51 e5 0f be 94 a8 cb 3d
       0.034138773 0.010856725 -0.14052321 0.09944263
000370 ed 55 27 3d aa eb 22 3c 0b 86 d1 3d 50 31 06 be
       0.04085343 0.009943882 0.10230645 -0.13104749
000380 46 1c 23 3e da e4 25 3d a5 1a 09 be d0 08 d4 3d
       0.15928754 0.040501453 -0.1338907 0.10353243
000390 2d 88 e3 3c 4c a1 b3 bd ad 49 ae bc 8c c8 b6 3d
       0.027774895 -0.08770999 -0.021275366 0.0892497
0003a0 f4 03 b4 bd 92 62 33 bd cb 38 32 be bf a3 e6 bd
       -0.087898165 -0.043795176 -0.17404477 -0.11261701
0003b0 c0 67 6a bd fb c6 08 be 7c b5 f7 bd 23 79 38 3d
       -0.05722785 -0.13357155 -0.12095162 0.0450374
0003c0 ff f8 cf 3c 59 ba 93 3d 23 9f f2 ba 01 3a 58 be
       0.025387285 0.07213277 -0.0018510561 -0.21115877
0003d0 21 9a 19 3d f7 8e a2 bd 87 83 d1 bd fe c6 f9 3d
       0.037500504 -0.07937425 -0.10230165 0.12196158
0003e0 ed 50 86 3d bc 08 ca bd e1 35 c0 3c a0 64 02 be
       0.06558404 -0.09864947 0.023463191 -0.12733698
0003f0 11 72 63 bd 85 eb 35 3e 29 9b 1a 3e 90 0e 87 bd
       -0.055528704 0.17765625 0.15098251 -0.065945745

bias f4 [64]
000000 5d 13 e1 bc 60 30 40 bd 7e 52 aa bc 14 12 60 bc
       -0.027475053 -0.046921134 -0.020791288 -0.013676185
000010 c0 d9 ba bc 84 91 1b 3b 41 37 90 bc 0c a2 6c bc
       -0.02280891 0.0023737857 -0.017604472 -0.014442932
000020 19 49 66 bc 51 27 19 bd 2b 34 14 bd 17 e8 f7 bc
       -0.014055514 -0.03739101 -0.036182564 -0.030262036
000030 8f d6 0a bd 9d 4e d9 bc 86 96 5b bd f6 ab 2c bc
       -0.033896025 -0.026526744 -0.053610347 -0.010539046
000040 0a 96 a3 bc 08 e7 aa bc 00 00 00 00 90 ab 4d ba
       -0.019969005 -0.020862117 0.0 -0.0007845694
000050 fa db e5 bb 6f 66 a9 bb 8e c3 71 bb 03 8c f7 bc
       -0.0070147486 -0.0051696817 -0.0036890241 -0.03021813
000060 0f 8a 7c bd a1 79 df bc 4a 1f cb bc bd ed 4b bd
       -0.0616551 -0.027279677 -0.024795193 -0.04978727
000070 63 a1 18 bd 98 c3 52 bd 9c 22 2c bc 00 00 00 00
       -0.037263285 -0.051456064 -0.010506298 0.0
000080 5d 01 c3 bc 14 9e ff bc 3c 8c a4 bc 60 a3 26 bd
       -0.023804361 -0.031203307 -0.0200864 -0.04068315
000090 dc 2c 9f bc 5b 9a 8a bc 43 62 d2 bc 24 8e 0a bd
       -0.01943057 -0.016919306 -0.02568162 -0.033826962
0000a0 b6 bf a3 bc 8b cf 42 bd 95 d7 00 bd 45 bb b5 bc
       -0.019988876 -0.04756121 -0.031455595 -0.022184024
0000b0 77 85 cb bc 37 43 9e bb cb 41 02 bd 2c cf 84 bc
       -0.024843914 -0.00482979 -0.031801026 -0.016212068
0000c0 78 5d a8 bc fb 03 9e bc f2 78 c1 bc 13 34 49 bc
       -0.020552382 -0.019289007 -0.023617242 -0.012280482
0000d0 b8 57 28 ba 39 44 24 bd 06 d7 13 3c a1 61 9d 39
       -0.00064217625 -0.040104125 0.009023434 0.00030018113
0000e0 c6 99 6d bd cb 56 3c bc 00 00 00 00 8e a0 5e bc
       -0.058007978 -0.011495302 0.0 -0.013588084
0000f0 33 68 e2 bc eb b8 e8 bc 31 a3 65 bc 5c 1f 32 3a
       -0.027637577 -0.028408488 -0.014015959 0.0006794834

weight f4 [64, 64]
000000 91 31 ed 3d ec d4 23 be 3a d5 6e bd d4 90 b4 bd
       0.1158172 -0.15999192 -0.058308817 -0.08816686
000010 c6 1c 31 be c9 78 31 bd 9a a5 49 3c ab 6a e8 bd
       -0.17296132 -0.04332808 0.012307549 -0.1134847
000020 41 59 1d 3e 8b 3c 1b be f5 ff f1 3d 40 2d b4 3d
       0.15366079 -0.15159814 0.11816398 0.08797693
000030 b1 ee 2f 3e 17 11 91 bd a0 a1 0d 3e 83 4d 0c 3e
       0.17180897 -0.07083338 0.13831186 0.13701443
000040 1b 7b 4d bd 5f 6c 56 be d5 05 de 3d 12 85 2f 3c
       -0.05016623 -0.20939778 0.10840956 0.010712879
000050 cc 7b 8b 3e 37 41 c7 3c 0b ed ce bc f6 8b 64 be
       0.27242887 0.024323089 -0.025259515 -0.22319016
000060 61 af c9 3d 5a 57 d4 bd 25 2b 5a bc 93 e6 d6 be
       0.09847904 -0.103682235 -0.0133159505 -0.4197279
000070 6b b5 57 bd 16 3f 8f 3e 46 4e 9a 3e 46 aa 6a 3e
       -0.052663248 0.27977818 0.30137843 0.22916517
000080 66 d7 77 be 04 42 74 bc 5f 9e 7e 3d b4 99 9d be
       -0.24203262 -0.0149083175 0.062162753 -0.3078133
000090 a1 01 55 3d 3c 17 73 3d 92 ff 42 3e b4 76 e2 be
       0.052003507 0.05934833 0.19042805 -0.44231188
0000a0 d7 95 63 bd 7b 27 0c 3e cb d7 73 3e d8 ef 2b be
       -0.05556282 0.13686936 0.23812787 -0.16790712
0000b0 78 47 1b 3e c0 41 e6 bc 41 5b 81 bd f6 d1 18 3e
       0.15163982 -0.028107524 -0.063162334 0.14923844
0000c0 2b f0 08 3c 98 de 28 3e ef 68 2f be 16 ef 43 3e
       0.008358042 0.16491163 -0.17129873 0.19134173
0000d0 ad 41 03 be 41 a9 f4 bd f5 45 6f 3e 89 74 6b be
       -0.12818022 -0.11946345 0.2336653 -0.22993673
0000e0 9d 56 92 3c e4 eb 56 be 0d 01 80 3e 39 0c 11 3e
       0.017863566 -0.20988423 0.25000802 0.14164819
0000f0 9c d6 ce bc 6b c2 bb 3e 7b 64 24 3d 2e 63 69 be
       -0.025248818 0.36671767 0.04013489 -0.2279174
000100 6b df 80 3c d0 05 8e 3d 77 14 16 be 5e a2 82 3d
       0.015731534 0.069347024 -0.14656244 0.06378625
000110 25 1c 81 bc 35 5a 30 3e 2e e5 c4 bd 39 8e a0 3d
       -0.01576049 0.17221911 -0.09614025 0.07839627
000120 ee 9b 1d be 3f cd 98 be 6c 4e 20 be f5 17 ca be
       -0.15391514 -0.2984409 -0.15654916 -0.39471403
000130 34 65 9a bd 1f af a5 3e 67 6b 4f be 55 7c 02 bd
       -0.07538834 0.3236017 -0.20255814 -0.031856854
000140 38 4e 3e be 83 78 ce bd f0 67 30 be 6f 63 c7 bd
       -0.18584526 -0.100815795 -0.17227149 -0.09735762
000150 ff 67 0a 3e 97 df 14 be 5f 97 50 be 53 e4 ad 3d
       0.13516234 -0.14538418 -0.20370243 0.08490815
000160 0d bf 38 3e a8 d2 6c 3e e1 ba 05 3e 55 cf 27 3d
       0.1804163 0.23127234 0.1305957 0.04096921
000170 e1 56 46 be dd 49 90 bb 04 fa cb bd 65 5e 1c 3e
       -0.19369079 -0.0044033364 -0.09959796 0.15270384
000180 00 c0 91 3e 66 5f 33 be a3 13 31 3d 4b ce 3d bd
       0.28466797 -0.1751686 0.043231618 -0.046339314
000190 a4 2b 21 be de 7c c0 bd a3 63 c6 bc dd f7 a2 bd
       -0.15739304 -0.093988165 -0.024217432 -0.079574324
0001a0 b2 6d b2 3e 7e d4 4f 3e 71 6f b6 3e 2c 5c 5c bc
       0.34849316 0.20295903 0.35631898 -0.01344971
0001b0 d8 90 5c be fa 77 af bd 83 5d 88 be d8 08 26 3e
       -0.21539629 -0.085678056 -0.26633844 0.16214311
0001c0 35 b4 8c bd c2 00 f6 3c 13 d9 af 3d e1 bf 4b 3c
       -0.06870309 0.030029658 0.085863255 0.012435884
0001d0 ed 3a 67 be 4c 25 ac be ad 1b 10 be ae a3 bf 3e
       -0.22581072 -0.33622205 -0.14073057 0.37429565
0001e0 84 81 32 3e 74 6c 1c bd 07 77 66 3d 4c cc a1 3e
       0.17432219 -0.038189366 0.056265857 0.3160118
0001f0 20 05 b3 3d 3c 67 32 3e e4 0a 7c bd f8 36 22 be
       0.08741212 0.17422193 -0.061533824 -0.15841281
000200 9c 05 60 3e 5f 68 10 3e 5d 9e 94 be 78 4a 01 be
       0.2187714 0.14102314 -0.29027072 -0.12626064
000210 30 38 d1 be 0c db 85 3d eb c5 a8 3d 4f 22 51 3d
       -0.4086318 0.065359205 0.08240875 0.05105811
000220 93 5a 09 be 4e b7 2c 3e 3c 86 14 be ec 32 ec bc
       -0.13413458 0.168668 -0.14504331 -0.028832875
000230 82 05 e8 3d dc a6 a3 3e 8b bb 18 3e 51 bc 9f bd
       0.113291755 0.3196324 0.14915292 -0.077995904
000240 52 ae 13 3e 7a de ff 3d 6d 26 0f 3e 7e 42 d4 3d
       0.14421967 0.12493606 0.13979502 0.10364245
000250 ff 34 49 be a4 cf 0e 3e bc 68 2e 3e e1 be 8d bd
       -0.19649123 0.13946396 0.1703214 -0.06921173
000260 19 95 c5 3d eb ce 15 3e 0d 7e c0 be 90 32 80 3e
       0.09647579 0.14629714 -0.3759617 0.25038576
000270 64 b2 bf bd b4 f1 4a be cf 43 09 be 32 4e 07 bd
       -0.09360197 -0.19818765 -0.13404773 -0.033033557
000280 5c 60 58 3b 79 0c ad be fe 68 37 be 7e a8 b0 bd
       0.003301642 -0.33798578 -0.17911145 -0.08625887
000290 90 94 37 be 90 f1 aa 3d d7 de f2 3e a6 8c 08 be
       -0.17927766 0.08346856 0.47435638 -0.13334903
0002a0 bd 94 c7 39 5d 19 81 3e a4 d4 34 be 2a ba 12 be
       0.00038067056 0.25214663 -0.17659241 -0.14328828
0002b0 62 a4 ea 3c 3a 7d ba 3d e7 53 73 bd 40 f1 1d bd
       0.028642837 0.09105916 -0.059406187 -0.038560152
0002c0 08 73 10 3e 4c 9b a8 bb 7d 20 5e be 30 33 28 3e
       0.14106381 -0.005145466 -0.21692081 0.16425776
0002d0 e6 d0 91 3e 94 c4 b1 bc cd 0c 02 3e 8a cf 3d 3e
       0.2847969 -0.021700181 0.12700196 0.18536201
0002e0 9e 11 a5 3d fa ad a7 3c 7f 36 19 be 5d 7f 25 be
       0.08060001 0.0204687 -0.14962195 -0.16161866
0002f0 35 35 82 bd a7 45 60 3d 3f 46 d9 3c 78 56 7d be
       -0.06357805 0.054753926 0.026522754 -0.24740016
000300 99 e3 08 3e 8a bd 7f 3e 66 27 30 3e 64 00 ae be
       0.13368072 0.24974647 0.1720253 -0.33984673
000310 1e e4 d7 bd 54 96 f7 3c e0 d5 2c 3d ae ae cd 3e
       -0.10541557 0.03022305 0.042196155 0.40172333
000320 12 e1 e7 3d d4 76 97 be d4 c1 91 bd 03 8c 16 3d
       0.11322226 -0.29582846 -0.07117048 0.03675462
000330 d9 04 e5 3d 86 de c9 be 9f 89 0f 3d 2d 77 9e 3c
       0.11182565 -0.39427584 0.035043355 0.019343937
000340 87 f2 dd bc 00 0e 6e bd 2f 8d 1b 3e b4 4d dc bd
       -0.027093185 -0.05811882 0.15190576 -0.10757008
000350 21 63 8e be 44 d5 09 be 00 9b aa 3d b9 f0 f0 3d
       -0.27810004 -0.1346026 0.08330345 0.11764664
000360 98 70 7d 3e cd 41 50 3d d9 af 3c 3e 0a 22 f1 bd
       0.24749982 0.050844003 0.18426456 -0.117740706
000370 66 dd bd 3d 19 c8 4e bd 07 24 1d be 05 a8 b2 3d
       0.09270744 -0.050483797 -0.15345775 0.087234534
000380 10 90 c3 3d a4 1b 75 3d d7 80 09 be fa f2 04 3d
       0.09548962 0.059840813 -0.13428055 0.032458283
000390 6d 2b 28 bd cf 46 da 3d 1b b0 6f 3d bd 2a 1c bd
       -0.04105704 0.10658037 0.058517557 -0.038126696
0003a0 9a f9 e9 bd 08 8e 2a 3e e3 4b c6 bd cf 59 b8 be
       -0.11424561 0.16655743 -0.09682443 -0.3600602
0003b0 42 fa 1a be 2d 17 c9 be 87 42 d2 3d b4 5f 7e 3d
       -0.15134528 -0.39275494 0.10266595 0.06210299
0003c0 5b 56 cd 3d f8 96 69 be e3 e3 6d 3e a8 80 3c 3e
       0.100262366 -0.22811496 0.23231463 0.18408453
0003d0 c2 ea a7 3d 73 e5 02 bd b3 1f 81 3e d7 48 db 3d
       0.081990734 -0.0319571 0.25219497 0.107072525
0003e0 57 21 0c 3e 8c ff 15 3d 3c 1d b7 3e 5a ce e1 bd
       0.13684593 0.03662066 0.35764492 -0.110256866
0003f0 de 67 f3 3d 80 2c 09 be 7b 6a 5b bd 4b 80 37 3e
       0.118850455 -0.13395882 -0.053568345 0.17920034

bias f4 [64]
000000 18 aa 75 3b cf 6e 0d bc d5 76 87 3b d3 0e 68 3c
       0.0037485417 -0.008632376 0.004134039 0.014163691
000010 61 b1 27 bc d4 7a f5 3a f3 86 b6 3b 81 fe 1a 3d
       -0.0102351615 0.0018728622 0.0055702864 0.03784037
000020 82 3f 0f bc 12 16 13 bd 93 8b 6d bc f5 3c 8f bc
       -0.008743169 -0.03590972 -0.014498609 -0.017485121
000030 a2 32 eb 3c 70 cf 25 bd bb b9 57 ba 61 48 54 bd
       0.028710667 -0.04048103 -0.0008229275 -0.05182684
000040 d2 33 39 bc 61 69 d6 bc ee 4d d6 b8 52 70 95 bc
       -0.011303859 -0.026173295 -0.00010218831 -0.018242035
000050 82 86 3e 3d 1c c6 6b 3c c6 2e e7 3c 7b eb 19 3c
       0.046514995 0.014390495 0.028220546 0.009394522
000060 31 0d 08 3d 58 bc b9 bc a4 b1 06 3b bf 84 94 ba
       0.033215705 -0.022672817 0.002055266 -0.0011331065
000070 6b eb da bb a3 bc fb bc 7e eb 79 bc dc 0b b4 bb
       -0.006680896 -0.030729597 -0.0152539 -0.005494578
000080 93 32 4b 3c 2a 3d 22 bd 3a 1a 80 3b 27 04 6e bd
       0.012402195 -0.03960911 0.0039093764 -0.05810943
000090 84 86 25 bc 77 19 90 bd 61 1a df ba fc 2d ec ba
       -0.010102872 -0.07036107 -0.0017021411 -0.0018019076
0000a0 61 f4 99 bd 07 3a 8c ba 10 b4 18 bd 67 f4 c3 bb
       -0.07517315 -0.0010698446 -0.037281096 -0.0059800628
0000b0 85 fa 73 bd 7c 53 27 bd 6f 5b 19 bc 13 94 55 bd
       -0.059565086 -0.0408511 -0.009360178 -0.052143168
0000c0 cf e6 9d bc e8 14 0b bc 70 90 6b bd 34 f4 af bc
       -0.019275097 -0.008488871 -0.057510793 -0.02147875
0000d0 e2 69 19 bc 08 85 80 bc 79 37 ee bb e6 59 b2 bc
       -0.009363623 -0.015688434 -0.0072697964 -0.021771383
0000e0 e6 29 89 bc cf ce c4 bb 12 98 50 bc be 6b 24 bb
       -0.016743612 -0.006006099 -0.012731569 -0.0025088633
0000f0 e4 65 0a bd 68 8b 94 bc 6c 60 83 bc fe 8d 2a bc
       -0.033788577 -0.01813288 -0.016037188 -0.01040983

weight f4 [1, 64]
000000 cc be 4d bb 02 8d 43 bb ba df 97 bd 60 e0 26 3d
       -0.0031394241 -0.0029838686 -0.07415719 0.040741324
000010 f1 14 63 39 70 df a2 3d d1 93 5a bd 25 1c 2d bc
       0.00021656208 0.079527736 -0.053363625 -0.010565792
000020 89 b3 58 ba e9 f8 c2 3b 19 a0 31 bb 18 83 e9 b8
       -0.0008266499 0.0059500826 -0.0027103482 -0.00011134724
000030 79 b3 92 3d 27 1d 93 3c 10 8f ee bd 5b 08 40 3e
       0.07163138 0.017958237 -0.11648381 0.18753187
000040 15 3f 86 3b 9a 44 9e bd 97 50 31 3a 6b f2 5b 3e
       0.0040968754 -0.077279285 0.0006764023 0.21479194
000050 ff 20 90 bc 9e 57 2b 3e fb be c4 bd 32 33 5a bd
       -0.017593859 0.16732642 -0.09606739 -0.05327148
000060 1a de b0 3d e9 a1 72 3c fb 45 0e 3b 3b 1c d3 bb
       0.086361125 0.01480911 0.0021709192 -0.0064425743
000070 29 7c 4f bd f0 5e 3c 3b d6 7c 3d bd 17 02 26 bd
       -0.050655518 0.002874311 -0.04626163 -0.040529337
000080 1d c2 8d 3c c1 1b 72 bb 24 1a bb bc fc 69 58 be
       0.017304474 -0.0036942812 -0.022839613 -0.2113418
000090 7f 9c 9d bd b6 1b 8e be 85 0e 8f bb 0d fe 7a bd
       -0.07695865 -0.27755517 -0.0043657445 -0.061277438
0000a0 4f aa 01 3e 12 5a 2c 3e e7 5b 93 bd fb 91 b1 3d
       0.12662624 0.16831234 -0.07195263 0.08670422
0000b0 03 f6 bb 3e b8 a0 58 be f0 0f b5 3a 5c 56 06 be
       0.3671113 -0.2115506 0.0013813954 -0.13118881
0000c0 1f 18 02 bb dc 95 e0 39 e2 2b 2e 3d bb 56 3f bd
       -0.0019850803 0.00042836263 0.04252232 -0.046713572
0000d0 94 eb 5a bb 1a 92 ae 3c 28 65 1b be 6e 2d d2 3d
       -0.0033404576 0.021309901 -0.15175307 0.10262571
0000e0 83 e6 ee ba d5 7a 22 3c 39 2a 7c ba 7b 13 16 be
       -0.0018226657 0.009916981 -0.0009619329 -0.14655869
0000f0 28 4c 4f 3d 89 5d ba 3e 09 96 c5 bc b2 f4 1e 3d
       0.050609738 0.36399487 -0.024119394 0.03880758

weight f4 [5, 64]
000000 1e eb e2 3b e9 07 70 bb f1 17 74 3b 22 e1 aa 3a
       0.006925001 -0.0036625809 0.0037245716 0.0013037066
000010 74 36 2d bb 5d b9 7b bb 77 66 44 3c 63 f1 54 3b
       -0.0026430162 -0.0038410046 0.01198732 0.003249251
000020 97 5d 67 3b d9 61 96 3b ff 77 7b bb 08 19 d3 3b
       0.0035303587 0.004589301 -0.0038371084 0.006442193
000030 58 b7 a5 3b 7e 7a 0d bb 7d d4 a0 38 13 22 c7 3a
       0.0050572567 -0.0021587904 7.6689736e-05 0.001519265
000040 6a 7b a2 3b 2c 72 42 3a d7 c9 c3 3b e5 05 69 3a
       0.0049585598 0.00074175256 0.005974989 0.0008889123
000050 20 42 7f 3a 4a 40 a3 3b 62 7f f8 ba ff cf bc 3b
       0.00097373314 0.004982029 -0.0018958861 0.0057620998
000060 9e a3 9e ba fe dc a0 3a 21 13 0a 3c 30 8c bb 3a
       -0.0012103205 0.0012272892 0.008427412 0.0014308747
000070 aa 58 ec 3a d7 67 c3 b9 4c 80 03 b8 4a 99 ff 3b
       0.0018031795 -0.00037270665 -3.135232e-05 0.007800256
000080 e6 bc a9 ba 2f d4 9f 3b 1b 65 41 3b 9c 6c 7e ba
       -0.0012949973 0.004877589 0.0029509726 -0.0009705515
000090 05 b5 2c ba e3 17 cb 3b 00 74 a2 bb 6b f7 22 bb
       -0.00065882533 0.006197916 -0.004957676 -0.002486671
0000a0 20 8c b6 bc 09 3f 1c 3c 65 44 55 3a 02 7e 39 3b
       -0.022283614 0.009536513 0.0008135497 0.0028303866
0000b0 e9 17 33 3b ee e2 8f 3a 04 c0 73 bb 7e 67 78 3b
       0.0027327484 0.0010977664 -0.0037193308 0.0037903483
0000c0 a2 6c 84 bc 13 98 eb 3b 87 ea 23 bc 23 c4 ca bb
       -0.016165081 0.0071897595 -0.010004646 -0.006187932
0000d0 0d e3 bb bb 7d 5e 96 3b 56 e8 19 3b a2 a6 25 3b
       -0.0057338537 0.0045889006 0.002348443 0.0025276323
0000e0 36 63 7d 3c ea 81 19 3b 37 96 ce 3a c0 6c 6f bb
       0.015465548 0.0023423382 0.001576132 -0.0036533326
0000f0 24 21 06 bc a2 a9 af bb 04 c6 00 3b 73 78 95 3a
       -0.008186612 -0.005360798 0.0019649277 0.0011403695
000100 4e d7 02 bb ad 66 91 3b 6b 8b cb bb a8 e3 13 3a
       -0.0019964757 0.0044372887 -0.0062116883 0.00056415284
000110 cd 0f 66 3a f1 41 82 3c 13 f5 da 38 4b 49 11 3b
       0.0008776158 0.015900584 0.00010440699 0.002216893
000120 a4 96 15 3a b0 28 59 39 5d 6b 16 bc e7 34 0a bc
       0.0005706346 0.0002070989 -0.009180871 -0.008435464
000130 06 a8 1a bc d9 0c 05 ba 87 24 13 3c ea bd 5d 3c
       -0.009439474 -0.0005075462 0.008980877 0.013534049
000140 00 a5 14 3c d3 11 9e 3b c8 69 15 bc 6a 22 34 bb
       0.009072542 0.004823902 -0.0091194585 -0.0027486333
000150 d1 f5 ef bb 3b 49 95 3b 62 41 a1 3a b5 e2 10 3b
       -0.007323005 0.004555849 0.0012302811 0.0022107784
000160 e2 91 33 3b 13 e1 5d 3b 18 b1 24 bb b4 32 57 3b
       0.0027400185 0.0033856079 -0.002512997 0.0032836618
000170 fb da fb bb 7d 75 a5 3a 81 b5 19 3a d7 3d 3b 3a
       -0.0076860166 0.0012623515 0.0005863533 0.0007142699
000180 69 04 59 bb c2 64 c9 b9 02 29 0a bb 4c 26 ee ba
       -0.00331142 -0.00038412778 -0.0021081571 -0.0018169372
000190 70 d9 86 3a 6e dc 85 3c a4 02 28 3b bb 02 90 39
       0.001028819 0.01634046 0.002563634 0.00027467855
0001a0 50 ae a3 3c 5f 66 62 bb d0 f2 d4 3b 2b c5 3f 3b
       0.01998058 -0.0034545881 0.006498672 0.0029261808
0001b0 3b 6b 89 3a 22 db f5 3b 5b ee 0d bb 79 85 b4 3a
       0.0010484228 0.0075029293 -0.0021656964 0.0013772688
0001c0 6f f8 14 bc 07 3c 0b bc a8 15 e9 bb a7 31 67 3c
       -0.009092434 -0.008498198 -0.0071131773 0.014110959
0001d0 98 10 7e 3c 1b 1a 50 ba bd 34 b1 3b d0 5b 25 3a
       0.015506886 -0.00079384603 0.005407898 0.00063079316
0001e0 a5 a8 6b bb 51 67 3c b9 7f 67 9d 3b c3 bd c7 3b
       -0.0035958674 -0.00017967566 0.0048035975 0.0060956194
0001f0 b5 42 1a bc a9 03 5a ba 3a d8 9d 3b 5b 9d 2a bc
       -0.009415318 -0.00083165854 0.004817036 -0.010413493
000200 d9 09 98 bb 8d 00 f5 3b f9 31 a3 bb c0 b0 21 ba
       -0.004639846 0.0074768723 -0.0049803224 -0.00061680004
000210 cf 97 81 bb 31 41 a9 3b 58 3e 20 3b fb 55 1d bb
       -0.0039548646 0.005165242 0.0024451222 -0.0024007547
000220 17 03 70 39 6a 8a 0f bb ca f7 1f 3c d1 78 b4 3b
       0.00022889335 -0.002190257 0.009763667 0.0055075665
000230 d1 97 16 3c 62 c6 8c ba 86 2c 6a 3c cb d7 82 3b
       0.009191469 -0.0010740275 0.014292842 0.0039930097
000240 b3 42 ba bb 55 f5 31 3b 00 c7 a0 3b cf e7 eb 3b
       -0.0056842207 0.0027154286 0.004906535 0.0071992646
000250 5a d1 2d 3c 46 f1 3e b8 71 f0 4d 3b fb 51 ae 3a
       0.010608995 -4.5524233e-05 0.0031423832 0.0013299579
000260 b1 a1 2f 3b 1d 1f e8 3b 4d d9 91 3a 5d a7 40 3a
       0.0026799256 0.007083787 0.0011127383 0.0007349158
000270 0f 93 00 bb 7f 97 5a 3b 3f 9e 08 bb 69 dd 5b bc
       -0.0019618904 0.003335446 -0.0020846275 -0.0134194875
000280 4f 7b 2f bb 15 ec e3 39 1d 65 bb 3b b4 ff 0d 3c
       -0.0026776379 0.0004347271 0.0057188408 0.008666921
000290 a8 4a 9c 3a 28 48 d3 bb 34 d8 08 bb 59 2f 29 3b
       0.0011924105 -0.0064478107 -0.002088082 0.0025815575
0002a0 5a 53 6b 3a c8 ca 65 3b 1f 6e 59 bb 3f db c4 bb
       0.0008976959 0.0035063494 -0.003317721 -0.0060075815
0002b0 eb 95 63 bb 9b 55 da bb d4 72 6d 3c c8 a6 87 bb
       -0.003472681 -0.006663037 0.014492709 -0.004139755
0002c0 04 97 f5 bb 47 f4 13 3b 42 ed 5d 3b 70 8d 0d 3b
       -0.007494809 0.002257602 0.003386334 0.0021599196
0002d0 06 5b 3f ba cd a7 54 3a 4f 07 05 bc 51 5a 55 3b
       -0.00072996353 0.00081121625 -0.008119418 0.0032555053
0002e0 c4 9a 40 3b 0d 19 ae ba d6 bb 3e 3b 5a 10 58 bb
       0.0029389123 -0.0013282612 0.0029103658 -0.003296873
0002f0 26 5c 8d 3b 38 15 67 3b d8 d1 39 bb b7 de a8 3b
       0.0043139635 0.003526045 -0.0028353836 0.005153503
000300 80 08 0a 3c f1 05 d9 ba 3d 8c d3 3b 1e 95 2a bb
       0.008424878 -0.0016557557 0.0064559267 -0.0026028822
000310 55 ac 3c 3b 43 36 64 bc 3b 98 43 bc e3 96 37 ba
       0.0028789241 -0.013928953 -0.01193815 -0.000700338
000320 26 97 df b9 23 83 a0 3a 97 70 b7 3b d3 2e f5 3b
       -0.0004264649 0.0012246113 0.0055981386 0.0074823885
000330 d8 f7 82 ba c3 a5 6e 3b 34 55 3e bb 33 d5 1d 3a
       -0.0009992076 0.003641472 -0.0029042484 0.0006020844
000340 f3 2d 3b bc ca 5a d2 bb ba cc 80 b9 f0 a2 ac bb
       -0.011424529 -0.0064195143 -0.00024566596 -0.005268447
000350 f3 08 bd b8 d0 bc c3 bb 21 40 90 3b 07 a6 66 3b
       -9.013889e-05 -0.005973436 0.004402176 0.0035194175
000360 20 b2 b1 3b 9d ab 21 bb 9b 59 ed ba 2a 8b 92 3b
       0.0054228455 -0.002466894 -0.001810837 0.004472156
000370 9d 8f d8 39 de 42 0f 3b a8 13 26 b9 d5 2e 93 3c
       0.0004130573 0.0021859924 -0.00015838316 0.017966667
000380 7b e6 fe b8 54 ba 8b 3b fb a6 98 ba 86 17 17 bb
       -0.00012154594 0.0042641554 -0.0011646444 -0.0023054793
000390 24 32 c7 39 9b 80 2b bc 2d 19 07 3c d5 81 df bb
       0.00037993595 -0.010467674 0.0082457485 -0.006820897
0003a0 1e 3e ef ba 5f ae 9f bb e6 e8 86 3b 38 7d 2f 3c
       -0.0018252765 -0.0048730816 0.004117119 0.010711007
0003b0 75 5a c7 ba 3a 25 c2 b8 bf 17 c3 bb f3 3f a1 bb
       -0.0015209453 -9.257575e-05 -0.0059537585 -0.0049209534
0003c0 cc 39 68 3c d0 cf 6a bb 84 f3 66 3c 8e cd 28 3c
       0.014173936 -0.0035829432 0.014096145 0.010302914
0003d0 7f 41 75 3b 70 f3 bd bb 4d 96 ef ba ae 86 f6 39
       0.0037423072 -0.0057968423 -0.0018279046 0.0004702112
0003e0 84 05 b9 bb 20 40 7a ba 39 1b b6 3b 4d 00 cf 3b
       -0.0056464095 -0.00095462985 0.0055574444 0.0063171745
0003f0 4a 65 87 3b c6 5d ec 3b de 25 9b 3b f4 7f 4b 3b
       0.0041319476 0.007213327 0.0047347387 0.0031051608

bias f4 [5]
000000 60 ae ee 3a 29 bb 06 3b 33 49 7f 3b b1 80 02 3a
       0.0018209927 0.0020558333 0.0038953542 0.0004978283
000010 c2 1b 2d 3a
       0.00066035625
