model/medium-4/IA2C/model_agent3_seed5.pt (torch, 109505 bytes, 11 tensors)

weight f4 [64, 134]
0	0x3ccdfa4f	0.02514377
1	0x3dda1d69	0.10650141
2	0xbd8b066d	-0.06788335
3	0xbdc91fde	-0.09820531
4	0xbe0332b6	-0.12812313
5	0xbdbd6b91	-0.09249032
6	0x3d28688e	0.041115336
7	0xbdf6c78d	-0.1204978
8	0xbc27bfd9	-0.010238611
9	0xbc82d983	-0.015972858
10	0x3e16a1ac	0.1471011
11	0x3e03ed5e	0.12883517
12	0x3db0ef4e	0.08639394
13	0xbe7bd486	-0.2459279
14	0x3ccb2406	0.02479745
15	0x3de95890	0.11393845
16	0xbdbecc1e	-0.09316276
17	0xbe27749b	-0.16353075
18	0x3c2a1d40	0.01038295
19	0xbc55a8e2	-0.013040753
20	0xbe3ab8b7	-0.18234526
21	0xbebf8b2b	-0.37410864
22	0xbdf77e8e	-0.12084685
23	0xbd39d830	-0.045372188
24	0x3dc97396	0.098364994
25	0x3e3f5bec	0.18687409
26	0x3d2c7cb0	0.0421111
27	0x3e79bf57	0.24389397
28	0x3cabd9f5	0.020977953
29	0xbe329531	-0.17439725
30	0x3daaf105	0.08346752
31	0x3da334ed	0.07969079
32	0xbd33e2f6	-0.04391762
33	0x3bd95d27	0.006633419
34	0x3e3d46a2	0.18483976
35	0xbde8f77e	-0.113753304
36	0x3f01ce76	0.5070566
37	0x3d4f1f3d	0.0505669
38	0x3d9557c6	0.07292132
39	0x3d689358	0.056781143
40	0xbd6d2684	-0.05789806
41	0x3dc7cede	0.09756254
42	0xbc4193b7	-0.011815003
43	0xbd8d33fa	-0.06894679
44	0x3da34196	0.07971494
45	0xbd161646	-0.036642335
46	0x3bd84169	0.0065995944
47	0xbc178fab	-0.009250562
48	0xbdd74ddf	-0.105128996
49	0xbbf9ec33	-0.007627034
50	0x3d7f50a6	0.06233277
51	0x3dae0962	0.084978834
52	0x3e22dbac	0.1590411
53	0x3cca25bb	0.024676194
54	0xbd201e3c	-0.039091334
55	0x3dbb9d9b	0.0916092
56	0x3e737ad6	0.23777327
57	0xbdef9324	-0.11697987
58	0x3d353431	0.044239227
59	0x3d4f58df	0.050621863
60	0x3da2dd53	0.079523705
61	0x3e8a581b	0.27020344
62	0x3d85a9c6	0.06526522
63	0xbe74235b	-0.23841612
64	0xbd36738a	-0.04454378
65	0x3d02c364	0.03192462
66	0xbd09fc8c	-0.033688113
67	0x3ceec894	0.029148377
68	0x3d3be987	0.045877006
69	0xbea5785b	-0.32318386
70	0x3da30457	0.07959812
71	0xbdfa242a	-0.12213929
72	0x3d8faae9	0.070150204
73	0x3dc40424	0.09571102
74	0x3c35e714	0.011102457
75	0x3db2b4ae	0.08725868
76	0xbdce1742	-0.1006303
77	0xbe13f8e6	-0.14450416
78	0xbd3f4c06	-0.04670336
79	0x3d7cf8c5	0.061760683
80	0x3ca0eb66	0.019643497
81	0xbe33c2bc	-0.17554754
82	0xbdb7039d	-0.08936236
83	0xbc1cdd36	-0.009574225
84	0x3e7e652b	0.2484328
85	0x3cbd9754	0.023143448
86	0x3de715f6	0.112834856
87	0xbd8d6484	-0.069039375
88	0x3dc90a98	0.09816474
89	0x3b00e455	0.0019667346
90	0x3d6c3f2e	0.05767744
91	0x3c604b57	0.013689837
92	0x3ca055ad	0.019572103
93	0xbad7dfe4	-0.0016469923
94	0x3d112c46	0.035442613
95	0x3d96887b	0.0735025
96	0xbd8b978e	-0.06816016
97	0x3dfefd54	0.12450662
98	0xbd8da8cf	-0.06916963
99	0xbdb89ea1	-0.09014631
100	0xbd379e5f	-0.04482877
101	0xbc04a8cf	-0.008096888
102	0xbdcca430	-0.09992254
103	0x3c90a113	0.017654931
104	0xbd9d1225	-0.076694764
105	0xbd6e7f95	-0.05822714
106	0xbdf57379	-0.11984915
107	0xbdcfd02c	-0.101471275
108	0x3e40da43	0.1883326
109	0x3d550e60	0.052015662
110	0x3e2c1634	0.16805345
111	0xbdd0b78c	-0.10191259
112	0x3e095cd3	0.13414316
113	0xbd16ca0e	-0.036813788
114	0x3da7905e	0.08181833
115	0x3d9974a0	0.074929476
116	0xbe22f296	-0.15912852
117	0xbc1540fd	-0.009109733
118	0xbe802d3d	-0.25034514
119	0xbe12a30f	-0.14320014
120	0x3e24c329	0.16090073
121	0x3dede37d	0.116156556
122	0xbddf4f4c	-0.109037966
123	0xbe366dec	-0.1781537
124	0x3d386c47	0.045025136
125	0xbd501ba6	-0.050807618
126	0xbdc18378	-0.09448904
127	0x3d75aabf	0.05997729
128	0xbd9abd69	-0.07555658
129	0x3d60852e	0.05481451
130	0x3e45ba56	0.19309363
131	0xbd123c9f	-0.035702344
132	0xbd472978	-0.048623532
133	0xbe068c8a	-0.13139549
134	0x3d969810	0.07353222
135	0x3d86aa01	0.065753944
136	0x3daede7c	0.08538529
137	0xbdeeef08	-0.11666685
138	0x3dcd84a4	0.10035065
139	0x3d07dec1	0.03317142
140	0xbd85a248	-0.06525093
141	0x3d01f470	0.031727254
142	0xbd839a1d	-0.06425879
143	0xbe43ba15	-0.19113953
144	0x3b893653	0.004187384
145	0xbd4620a1	-0.04837096
146	0x3e32a54b	0.17445867
147	0x3e146743	0.14492516
148	0x3d22008a	0.039551295
149	0xbc2a1d44	-0.010382954
150	0xbdacfcfe	-0.08446692
151	0xbd48d65d	-0.049032558
152	0x3d6cc8cb	0.05780868
153	0x3c6f4798	0.014604472
154	0x3d4e917b	0.05043171
155	0x3e45ebcf	0.19328235
156	0xbe230a30	-0.15921855
157	0x3d821a05	0.06352619
158	0xbe0f2d07	-0.1398202
159	0x3c8edc4a	0.017439026
160	0x3e2afea0	0.16698694
161	0xbcdd6378	-0.02702497
162	0xbdbdf981	-0.09276105
163	0xbd1eca03	-0.038766872
164	0xbe155ce1	-0.14586212
165	0x3d50e1eb	0.050996702
166	0xbdb0bb12	-0.08629431
167	0xbdaef1bb	-0.085422
168	0x3e8a5f41	0.27025798
169	0xbdfa1604	-0.122112304
170	0xbd3d7286	-0.046251796
171	0x3c83ea5f	0.016102968
172	0x3e27142e	0.16316292
173	0x3cb64fba	0.022254813
174	0xbde0b214	-0.10971466
175	0x3e1b9686	0.15194139
176	0xbe653ac3	-0.22385697
177	0xbc4e8ac8	-0.01260633
178	0xbe1c52df	-0.15265988
179	0xbe30d639	-0.1726922
180	0xbd93df60	-0.0722034
181	0x3cd15fdf	0.02555841
182	0x3cbee7c7	0.02330388
183	0xbdad6fa2	-0.08468558
184	0x3e02a2e8	0.12757456
185	0x3c1ecef3	0.009692895
186	0x3e386251	0.18006255
187	0x3dc6f76a	0.09715159
188	0xbe70aabc	-0.2350263
189	0xbd6ec87d	-0.05829667
190	0xbcfffcb2	-0.031248424
191	0xbe27f672	-0.16402605
192	0xbe898ddc	-0.26866043
193	0xbe1c72b0	-0.15278125
194	0x3d3260bd	0.043549288
195	0xbc271c6d	-0.010199648
196	0xbddde40f	-0.10834514
197	0x3cc4528f	0.023965148
198	0xbcd6481f	-0.026157437
199	0x3e06baca	0.13157192
200	0x3e30ddad	0.17272063
201	0x3e48470a	0.19558349
202	0x3d5787cf	0.05261975
203	0x3bc922e3	0.006138192
204	0x3dccafda	0.099944785
205	0x3dff962e	0.124798164
206	0x3e740a1c	0.23831981
207	0xbe098eee	-0.1343343
208	0xbde36f81	-0.11105252
209	0x3d7a0ab7	0.061045375
210	0xbe0a898a	-0.1352903
211	0x3d435a49	0.047693525
212	0x3d999a67	0.07500153
213	0x3e8a7d4e	0.27048725
214	0x3e4d193b	0.20029156
215	0x3da3887c	0.07985017
216	0xbe2e3c92	-0.17015293
217	0x3df92132	0.12164535
218	0x3baa04dd	0.005188568
219	0x3e82a216	0.25514287
220	0xbdc5f6c6	-0.09666209
221	0x3d57db2e	0.05269926
222	0xbd052b37	-0.032511916
223	0x3dc9b88b	0.09849652
224	0xbdcb53ea	-0.09928115
225	0xbbbc2ca9	-0.0057426286
226	0xbc0b0bf2	-0.008486735
227	0x3ddb53f2	0.10709371
228	0xbdd4b33e	-0.1038575
229	0xbd8b11e7	-0.06790524
230	0xbd8a4eb4	-0.06753293
231	0xbb834902	-0.004006506
232	0xbe3eb193	-0.18622427
233	0x3e620341	0.22071554
234	0x3e02a765	0.12759168
235	0xbd62c7f1	-0.05536646
236	0xbd22581d	-0.039634813
237	0xbb277ed7	-0.002555778
238	0x3dafa29b	0.085759364
239	0xbd6d1e6d	-0.057890344
240	0xbe81fa4a	-0.25386268
241	0xbd918e9a	-0.07107277
242	0x3d9707d9	0.07374544
243	0x3e36928b	0.17829339
244	0xbe0fd866	-0.14047393
245	0xbdf2a405	-0.118476905
246	0xbe27a875	-0.16372855
247	0x3e0c0e4f	0.13677333
248	0x3e03182a	0.12802187
249	0xbdb899af	-0.09013688
250	0xbb80a3a1	-0.003925756
251	0xbc99bf88	-0.018768087
252	0x3e6f2be8	0.23356593
253	0x3de71745	0.11283735
254	0xbe0d56e3	-0.13802676
255	0x3c39ad15	0.01133277

bias f4 [64]
0	0xbc1df980	-0.009642005
1	0xbc89eec8	-0.016837493
2	0xbbed980c	-0.0072507914
3	0xbc26a3f3	-0.0101709245
4	0xbac6d988	-0.001517103
5	0x3bd15b41	0.006389052
6	0xbbc2b15e	-0.005941554
7	0xbc275d6a	-0.010215143
8	0xbc095a02	-0.008383276
9	0xbc398d13	-0.011325139
10	0xbc3266b3	-0.010888743
11	0xb78b339f	-1.659413e-05
12	0x3b51c151	0.0032006095
13	0xbbb64cab	-0.0055633388
14	0x3c29dbfa	0.010367388
15	0x3bd574c7	0.006514165
16	0xbafa8ddf	-0.0019115767
17	0xbc433dea	-0.011916617
18	0xbbfef513	-0.00778068
19	0xba97bde8	-0.0011576982
20	0x3a2df0aa	0.0006635288
21	0xb966d099	-0.00022012218
22	0xbb33c08a	-0.0027427995
23	0xbac1815f	-0.0014763287
24	0xbc7c8efb	-0.015414949
25	0xbbfac159	-0.0076524434
26	0xba4931fa	-0.00076749886
27	0x3ab468db	0.001376416
28	0xbc676b31	-0.0141246775
29	0xb94da148	-0.00019610405
30	0xbb8ba4dc	-0.004261596
31	0xba5e0722	-0.0008469691
32	0x393bc9c6	0.00017908876
33	0xbbe569e4	-0.0070011485
34	0xb95574a7	-0.0002035672
35	0xb96365ac	-0.00021686283
36	0x00000000	0.0
37	0xbc4e3b89	-0.0125874365
38	0x3878de28	5.9334707e-05
39	0xb98712c6	-0.00025763194
40	0xbc05dece	-0.008170797
41	0xbb528ea2	-0.0032128473
42	0x39b896a0	0.0003520744
43	0x39aec1c4	0.00033332233
44	0xbc0c20d6	-0.008552751
45	0xbc825442	-0.015909318
46	0xbb0e503a	-0.00217153
47	0xba3deee3	-0.0007245375
48	0xbc416387	-0.011803514
49	0xbbaa9d07	-0.0052067074
50	0x388cf5be	6.721493e-05
51	0xbc14f0d9	-0.009090626
52	0xba342fcf	-0.0006873579
53	0xb9aa3a15	-0.000324682
54	0x3bf2cbfd	0.007409571
55	0xbc9c93c5	-0.01911343
56	0xbc1b4bb5	-0.009478499
57	0xbb06c375	-0.0020563279
58	0x3b3870aa	0.0028143325
59	0xb8964f4a	-7.167326e-05
60	0x3a164c17	0.0005733384
61	0xb62cc610	-2.5745285e-06
62	0x3c3baa60	0.011454195
63	0xbc199a3a	-0.009375149

weight f4 [64, 64]
0	0xbd9f624f	-0.07782423
1	0xbe142bcc	-0.14469832
2	0xbe3b3366	-0.18281326
3	0x3dbd4b7b	0.092429124
4	0xbb2aedcd	-0.0026081682
5	0xbe1e4e99	-0.1545967
6	0xbe75eb9d	-0.2401566
7	0xbe5b8a7d	-0.21439548
8	0xbe0acdbb	-0.13555042
9	0xbe48faf6	-0.19626984
10	0xbced617b	-0.028977146
11	0xbd9c1494	-0.076211125
12	0x3ecbb592	0.39786965
13	0x3deeb84b	0.11656245
14	0x3e15c0b5	0.14624293
15	0xbdbbf0d3	-0.09176793
16	0x3d947d2e	0.07250439
17	0xbc3c2f04	-0.011485819
18	0x3e73663d	0.2376947
19	0xbe07b86a	-0.13253942
20	0x3e7d7ee1	0.24755432
21	0xbe41dc0b	-0.18931596
22	0x3c758152	0.014984446
23	0x3b75d2fe	0.0037509794
24	0xbba14f24	-0.0049227644
25	0x3db54552	0.088511124
26	0x3ed35038	0.4127214
27	0x3d73d29c	0.059527025
28	0x3beca14b	0.007221376
29	0xbe1407af	-0.14456056
30	0xbdfeda23	-0.1244395
31	0x3d9e56fe	0.07731436
32	0xbc8a739e	-0.016900834
33	0x3dfdb2ba	0.12387605
34	0x3e399d96	0.1812652
35	0x3e700c0a	0.23442093
36	0x3ba8f0d4	0.005155662
37	0x3dcec5bf	0.10096311
38	0xbe3ba74a	-0.18325534
39	0x3e9914f2	0.29898793
40	0x3e02d69c	0.1277718
41	0x3dd7f3ba	0.10544534
42	0x3e202c86	0.15641984
43	0xbe1cf1a3	-0.15326552
44	0xbd1b362d	-0.037893463
45	0xbe6ce216	-0.2313312
46	0x3e9024c7	0.2815306
47	0x3e26acf3	0.16276912
48	0x3e2419c2	0.16025451
49	0x3e411e30	0.18859172
50	0x3e5b272e	0.21401665
51	0xbe7a0ba8	-0.24418509
52	0x3e06aa3d	0.13150878
53	0x3d8e6d81	0.0695448
54	0xbe5752fa	-0.21027747
55	0xbd2c8254	-0.042116478
56	0x3e13deaa	0.14440408
57	0xba0374e6	-0.00050146726
58	0xbdde527d	-0.10855577
59	0x3e3ec640	0.18630314
60	0xbd8d698c	-0.06904897
61	0x3c1b5a55	0.009481986
62	0xbf0e2d98	-0.5553832
63	0x3cc6fee8	0.02429147
64	0x3d18ccb6	0.037304603
65	0x3e1168d2	0.14200142
66	0x3e54cf21	0.20782138
67	0x3d4cb2fa	0.049975373
68	0x3da223a0	0.07916951
69	0x3e3c322d	0.18378516
70	0xbdf5e32c	-0.1200622
71	0xbe52bdf5	-0.20580275
72	0xbcfaa179	-0.030594574
73	0x3e6dd9f6	0.23227677
74	0x3d6ddfd9	0.058074806
75	0x3e881c95	0.26584306
76	0xbe28704f	-0.16449092
77	0x3d0c548b	0.034260314
78	0xbda0971f	-0.07841324
79	0xbe155d2e	-0.14586326
80	0xbec45dc4	-0.38352787
81	0x3e854a25	0.2603313
82	0xbd912e48	-0.070889056
83	0xbeb84880	-0.35992813
84	0x3e560125	0.20898874
85	0xbe9c55d8	-0.30534244
86	0x3e521644	0.20516306
87	0x3df14eb1	0.11782587
88	0x3ba03a1b	0.004889739
89	0xbe0cb8a0	-0.13742304
90	0xbc352a56	-0.011057457
91	0x3d870ca2	0.065942064
92	0xbd0da002	-0.034576423
93	0x3d0623cb	0.03274898
94	0xbd142c20	-0.036174893
95	0xbe34c4e3	-0.17653231
96	0x3e7214b6	0.23640713
97	0xbe3947a6	-0.18093738
98	0x3e8242ac	0.25441492
99	0x3e0dbe04	0.13842016
100	0x3c81b9ba	0.015835632
101	0x3e4e875b	0.20168822
102	0xbe596d60	-0.2123313
103	0x3caf75de	0.021418508
104	0x3e342185	0.17590912
105	0xbe16febf	-0.14745615
106	0xbd91b64e	-0.0711485
107	0xbe1d944d	-0.15388604
108	0x3eb4e007	0.3532717
109	0x3e2a921d	0.166573
110	0x3c684e6d	0.014178854
111	0xbc2c5ef9	-0.01052069
112	0xbe0c7708	-0.13717282
113	0xbd9e9fd5	-0.07745329
114	0x3d245708	0.040122062
115	0x3e7d8441	0.24757482
116	0xbd22e666	-0.039770506
117	0xbdabfa0a	-0.083973005
118	0xbe575dfe	-0.21031949
119	0xbd311503	-0.04323293
120	0xbd86f910	-0.06590474
121	0xbe3dd5f5	-0.1853865
122	0xbe2d0260	-0.16895437
123	0x3eb70eee	0.35753578
124	0xbec4c39b	-0.38430485
125	0xbe0b78e6	-0.13620338
126	0x3de834f7	0.11338227
127	0xbe367436	-0.17817768
128	0xbe4ca1a3	-0.19983535
129	0x3d6dfadf	0.058100577
130	0xbe0ab9ea	-0.13547483
131	0xbe7f28a7	-0.24917851
132	0xbd8e929c	-0.06961557
133	0xbe0b2a6b	-0.135904
134	0x3e34810c	0.17627352
135	0xbddee62e	-0.10883747
136	0xbd4a7df1	-0.049436513
137	0xbc8d49e4	-0.017247148
138	0x3ddc6c35	0.10762826
139	0xbe609724	-0.21932656
140	0xbe19be21	-0.15013935
141	0xbe528b75	-0.20561011
142	0xbd662a35	-0.056192596
143	0x3d36fb76	0.044673406
144	0xbd043758	-0.032279342
145	0x3d32690a	0.043557204
146	0x3e9b36a0	0.30315113
147	0x3e60e284	0.21961409
148	0xbe7656e7	-0.24056588
149	0xbe0d8bab	-0.1382281
150	0x3e0f9bee	0.14024326
151	0xbec5fd5e	-0.38669866
152	0x3d8912e7	0.066930585
153	0xbee9cad1	-0.4566255
154	0xbbd1b0e2	-0.00639926
155	0xbe086727	-0.133206
156	0xbe530f9b	-0.20611422
157	0x3d412b3d	0.047160376
158	0x3dfab72b	0.12241968
159	0x3e8333ec	0.2562555
160	0x3d0fbc7a	0.035091855
161	0xbe19c367	-0.15015946
162	0x3e9146b0	0.28374243
163	0xbe10cbe5	-0.1414028
164	0xbe941a47	-0.28926298
165	0x3db5cbe8	0.08876783
166	0xbc44e678	-0.012017839
167	0x3e66f5ad	0.22554655
168	0xbccc0b14	-0.024907626
169	0x3eca2c71	0.3948703
170	0xbe526b5f	-0.20548771
171	0x3d8d8963	0.0691097
172	0x3dbc2181	0.09186078
173	0x3bd6aca4	0.006551342
174	0xbd0da9c6	-0.034585737
175	0xbde24d91	-0.11049951
176	0x3e58371b	0.21114771
177	0xbe47a318	-0.19495809
178	0x3dc03298	0.0938465
179	0xbd50118b	-0.05079798
180	0xbe31b335	-0.17353518
181	0x3e36fb35	0.17869265
182	0x3de16b3d	0.11006782
183	0xbd98bff9	-0.07458491
184	0xbc817e92	-0.015807424
185	0x3e03f8c2	0.12887862
186	0xbcf26ab7	-0.029591901
187	0x3e9a5c71	0.30148652
188	0xbe86054c	-0.26175916
189	0x3e886a82	0.2664376
190	0xbd4d413c	-0.05011104
191	0xbdfb3235	-0.122654356
192	0x3d914235	0.07092706
193	0x3e1f3053	0.15545778
194	0x3e1f7333	0.15571289
195	0x3cf34711	0.029696973
196	0x3e19a7c2	0.15005401
197	0xbe4a4b5a	-0.19755307
198	0x3d395cad	0.045254398
199	0x3e912045	0.28344932
200	0x3cbbd4cc	0.022928618
201	0xbd0ccf33	-0.034377288
202	0xbb9b7b13	-0.004744896
203	0x3deebf76	0.11657612
204	0xbe39e770	-0.18154693
205	0xbdb1316f	-0.08652007
206	0xbe8fbc5c	-0.28073394
207	0x3d046382	0.03232146
208	0x3e94000d	0.2890629
209	0xbe5b478e	-0.21414015
210	0x3e3251cb	0.17414014
211	0x3e834a10	0.25642443
212	0xbbf4d4bf	-0.0074716504
213	0xbd9bc57e	-0.07606028
214	0x3ddd88ba	0.10817094
215	0xbdd5f822	-0.10447718
216	0xbdf07148	-0.11740357
217	0x3db8772a	0.09007104
218	0x3e3b1926	0.18271312
219	0x3f01cc7c	0.50702643
220	0xbd00e3f6	-0.0314674
221	0x3de1e0e1	0.1102922
222	0x3d8b1a0d	0.06792078
223	0x3d104044	0.03521754
224	0x3c975b09	0.018476026
225	0x3ede99f6	0.43476838
226	0x3ae69c99	0.0017594277
227	0x3d316e10	0.043317854
228	0x3d3e1ce5	0.046414275
229	0xbe6c7906	-0.23093042
230	0xbd639d3b	-0.05556987
231	0xbe079f6a	-0.13244405
232	0x3e675906	0.22592553
233	0x3d757e2e	0.059934787
234	0x3e524af5	0.20536406
235	0x3e4b56fc	0.198574
236	0xbddb80ae	-0.10717903
237	0xbdd87e57	-0.105709724
238	0xbd6e66ec	-0.058203623
239	0xbe9cdcfb	-0.30637345
240	0xbd9d4343	-0.07678845
241	0xbde7a31a	-0.11310406
242	0x3e3c86b9	0.18410768
243	0x3e830f8c	0.255978
244	0xbdbe0fe0	-0.09280372
245	0x3e0aea37	0.13565908
246	0xbdc4fb23	-0.09618213
247	0x3e407eab	0.1879832
248	0xbd6f0a3c	-0.05835937
249	0xbdb6191f	-0.0889151
250	0xbdaa7678	-0.08323377
251	0x3ed5b1d3	0.41737232
252	0xbdc1652a	-0.09443124
253	0xbeab1197	-0.33411857
254	0xbc9fbc78	-0.019499049
255	0xbccece0d	-0.025244737

bias f4 [64]
0	0xbc962313	-0.018327272
1	0xbbcb910c	-0.0062123593
2	0xbabce80f	-0.001441242
3	0xbcbd2836	-0.023090463
4	0x37f81aa4	2.957631e-05
5	0xb5cc423b	-1.521846e-06
6	0x382f6bb0	4.1823543e-05
7	0xbc477eff	-0.012176274
8	0xbab353ee	-0.0013681629
9	0xbc5d2a90	-0.013498917
10	0xbbfafb6d	-0.007659367
11	0xbc243c21	-0.0100241015
12	0xbc7304f4	-0.014832724
13	0xbc7b6e0e	-0.015346063
14	0xbb801595	-0.003908823
15	0x39896ca2	0.00026211614
16	0xb73a604d	-1.1108886e-05
17	0xbb03ea5c	-0.0020128703
18	0xbc5b0f4e	-0.013370348
19	0xbb807681	-0.0039203768
20	0xbc2b4227	-0.010452784
21	0xbb966c77	-0.0045905667
22	0xbbfa5c7d	-0.00764042
23	0xbc393864	-0.0113049485
24	0x00000000	0.0
25	0xb9389630	-0.00017603557
26	0xbbeb4c13	-0.0071806996
27	0xbc67c922	-0.014147075
28	0xbaf0dc27	-0.0018376157
29	0xbbe7f630	-0.0070789084
30	0xbc4f55a2	-0.012654694
31	0xbc28fee6	-0.010314679
32	0xbb0d90f5	-0.0021601294
33	0xbbdfab57	-0.006825845
34	0xbad870f9	-0.0016513161
35	0xbba5ee75	-0.0050638267
36	0xbbefef55	-0.007322232
37	0x3586ff1c	1.0058025e-06
38	0xbbc3e5a7	-0.0059783044
39	0xbcccf862	-0.025020782
40	0xbb56f6ef	-0.0032800992
41	0xbbe68ca9	-0.007035811
42	0xb9719668	-0.00023039582
43	0xbc8fa56e	-0.017534938
44	0xb9b97c82	-0.00035378715
45	0xbc1abc03	-0.00944424
46	0xba3c61eb	-0.0007186222
47	0xb9473d1f	-0.00019000888
48	0xbb3e881a	-0.0029072822
49	0xb7eb4371	-2.8045588e-05
50	0xbc598b4c	-0.01327784
51	0x38c75c67	9.506271e-05
52	0xbc244484	-0.010026101
53	0xb8f07dfb	-0.000114675575
54	0xbc0feb27	-0.008784092
55	0xba00b2d6	-0.0004909461
56	0xbc545e1d	-0.0129618915
57	0xbca1d155	-0.019753138
58	0xb7c64b14	-2.36384e-05
59	0x3a562113	0.00081683806
60	0xbc575795	-0.01314344
61	0xbc63ea95	-0.013910909
62	0xbb7b832c	-0.0038377745
63	0xbc92e3e9	-0.017930942

weight f4 [64, 134]
0	0x3d8a0304	0.067388564
1	0x3ce8e81a	0.028430987
2	0x3e11f0c1	0.14251997
3	0x3d581e38	0.052763194
4	0x3e5fdc06	0.21861276
5	0x3d5a08b3	0.053230952
6	0x3e3acdec	0.18242615
7	0x3d329d20	0.043606877
8	0xbe23cc81	-0.15995981
9	0x3ba6fa28	0.005095739
10	0xbdd72dea	-0.10506804
11	0xbe416995	-0.18887933
12	0xbe7892b4	-0.24274713
13	0xbd594cc2	-0.053051718
14	0x3caf96a1	0.02143413
15	0xbde5b254	-0.11215654
16	0xbe601113	-0.21881513
17	0xbddce145	-0.10785154
18	0xbde97f20	-0.114012
19	0xbdfb28e5	-0.122636594
20	0x3b2de4e3	0.0026534132
21	0x3df36854	0.118851334
22	0xbc359360	-0.0110825
23	0x3e4f55d4	0.20247585
24	0xbd61ff2b	-0.055174988
25	0xbc94429f	-0.018098174
26	0xbe4c8464	-0.19972378
27	0xbd47e870	-0.048805654
28	0xbd0a8620	-0.033819318
29	0x3e408ea6	0.18804416
30	0x3c9a66b3	0.018847799
31	0x3c7dadc2	0.015483322
32	0x3dba5721	0.0909865
33	0x3da168db	0.07881328
34	0x3e68c71a	0.22732201
35	0xbd17dad1	-0.037073914
36	0x3da82b21	0.08211351
37	0xbd723ffa	-0.059143044
38	0xbe593c3e	-0.21214387
39	0x3dac2fc0	0.08407545
40	0x3b726929	0.003698895
41	0x3bf534e5	0.007483112
42	0xbe8c328f	-0.27382323
43	0x3d663426	0.056202076
44	0xbd5558af	-0.05208653
45	0x3df3af4a	0.11898668
46	0xbdec10dc	-0.11526653
47	0x3d8aafa0	0.06771779
48	0x3e41e13c	0.18933576
49	0x3e431a44	0.19052988
50	0xbdd6dd02	-0.10491373
51	0xbe1c51f5	-0.15265639
52	0x3a89afd0	0.0010504667
53	0xbdf4c71f	-0.11952042
54	0x3b5e6f93	0.0033941015
55	0xbdfbe920	-0.123003244
56	0xbda7b019	-0.08187885
57	0xbc78c981	-0.015184761
58	0x3e1ea304	0.15491873
59	0x3d919f8c	0.07110509
60	0xbe225b15	-0.15855058
61	0xbd64cccc	-0.055859372
62	0xbd06f7cc	-0.03295116
63	0xbd4725ae	-0.04861992
64	0x3d362686	0.044470333
65	0xbda25fd7	-0.07928436
66	0x3d48efbe	0.04905676
67	0xbe71041d	-0.23536725
68	0xbd84f524	-0.06492069
69	0x3caf7745	0.021419177
70	0x3deda6d8	0.116040885
71	0x3cd3a173	0.02583382
72	0x3e09d55f	0.13460301
73	0x3d290e43	0.041273367
74	0xbe0af7fc	-0.13571161
75	0x3de90d87	0.11379533
76	0x3caac580	0.020846128
77	0xbd5fa0eb	-0.054596823
78	0x3b9121e3	0.0044290884
79	0xbe80112d	-0.25013104
80	0x3e31bddc	0.17357582
81	0x3d09a154	0.03360112
82	0x3d21fc12	0.039547034
83	0xbdcc928e	-0.099888906
84	0x3ce3ca4b	0.027806422
85	0x3e2fbbc2	0.17161468
86	0xbe09a1c1	-0.1344061
87	0x3d9e4e69	0.07729799
88	0xbe0b75b9	-0.13619126
89	0xbdbe2ef7	-0.092863016
90	0xbd29f0e3	-0.041489493
91	0x3c196638	0.00936275
92	0x3e1ec995	0.15506585
93	0xbd5e6f80	-0.054305553
94	0xbbcefe81	-0.0063169603
95	0xbdf1359b	-0.117778026
96	0xbd8b6672	-0.06806649
97	0xbdee45d7	-0.11634415
98	0xbc968a10	-0.01837638
99	0xbd9c6dc3	-0.07638123
100	0xbe0b4436	-0.13600239
101	0x3bca91f6	0.0061819507
102	0x3db7aac3	0.08968117
103	0x3ca4397e	0.020046946
104	0x3e89ab26	0.26888388
105	0x3d415771	0.04720253
106	0x3dc0ed4b	0.0942026
107	0x3cbe0c3c	0.023199193
108	0x3dba96f1	0.09110821
109	0xbce212cb	-0.027596852
110	0xbdd4e3f8	-0.10395044
111	0x3d910a95	0.070820965
112	0x3d40cc81	0.04707003
113	0xbe06a4da	-0.13148823
114	0x3d2647e1	0.040595893
115	0x3caa089d	0.02075606
116	0x3c402a5b	0.011728848
117	0xbe2398eb	-0.15976302
118	0xbcb71b2d	-0.022351826
119	0x3da5f0b9	0.08102555
120	0xbe610f03	-0.21978383
121	0xbd61fbfb	-0.055171948
122	0x3af17bb1	0.0018423704
123	0x3d5f973a	0.05458758
124	0xbe1f5948	-0.15561402
125	0xbe8328d1	-0.25617078
126	0x3bfdb5d5	0.0077426233
127	0x3ccd6d2d	0.025076473
128	0xbc440bb7	-0.011965684
129	0xbddb9d05	-0.107233085
130	0x3d41b92d	0.047295738
131	0x3e016cdb	0.12639181
132	0xbbb4e3a3	-0.0055203005
133	0x3e670db1	0.22563817
134	0xbdc6484e	-0.0968176
135	0xbd12d573	-0.035848092
136	0xbe212f39	-0.1574067
137	0x3b63c5c8	0.0034755338
138	0x3e09b0ac	0.13446301
139	0x3de73edf	0.112912886
140	0x3d9ccb66	0.07655983
141	0xbe21de48	-0.1580745
142	0x3dacf22a	0.08444627
143	0x3d8322cf	0.064031236
144	0xbdebf99f	-0.11522221
145	0xbcac4c75	-0.021032551
146	0xbd22ddbe	-0.03976225
147	0x3d758a53	0.05994637
148	0x3cbbeda6	0.022940468
149	0x3d31157e	0.043233387
150	0x3dbbcb0a	0.09169586
151	0xbe0fe932	-0.140538
152	0x3d157078	0.03648421
153	0xbc8abde5	-0.016936252
154	0x3da0c7f2	0.078506365
155	0x3cd81f13	0.026382005
156	0x3e5acfc4	0.21368319
157	0x3d37c9f1	0.04487032
158	0x3daa929d	0.083287455
159	0xbba89a10	-0.005145319
160	0xbe44c12a	-0.19214311
161	0xbe5bbdc0	-0.21459103
162	0xbeb47819	-0.35247877
163	0x3dfb2acd	0.12264023
164	0xbd0077cf	-0.03136426
165	0xbdddd64e	-0.10831891
166	0x3d6b8ffe	0.05751037
167	0x3d056942	0.032571085
168	0xbe2e28ec	-0.17007798
169	0xbe22b2a0	-0.15888453
170	0xbe2538dc	-0.16134971
171	0x3cef98f7	0.029247744
172	0xbddec314	-0.10877052
173	0xbd1a234f	-0.03763133
174	0xbdb5ebba	-0.08882852
175	0x3d0cf940	0.03441739
176	0x3cbe6256	0.02324025
177	0x3e353a7e	0.17698094
178	0x3e2dbbfd	0.16966243
179	0x3df01b1c	0.11723921
180	0x3d324e22	0.043531545
181	0x3c2681e4	0.010162804
182	0xbe0674e4	-0.13130528
183	0x3d48089b	0.04883633
184	0xbd0b7224	-0.0340444
185	0x3d9c9eeb	0.07647499
186	0xbd4b5b9b	-0.04964791
187	0xbdc905ec	-0.09815583
188	0x3c438cb9	0.011935406
189	0xbca8e38c	-0.020616315
190	0xbe4e69cf	-0.2015755
191	0x3d76eaba	0.060282446
192	0xbe80d572	-0.25162846
193	0xbe5aec6c	-0.2137925
194	0x3c21d283	0.00987685
195	0xbe424a5e	-0.18973681
196	0x3df7df2a	0.12103112
197	0xbe121561	-0.14265968
198	0x3dbe86bb	0.093030415
199	0x3e51a84d	0.20474358
200	0xbdc383e7	-0.09546643
201	0x3d1bca4c	0.038034722
202	0xbdf12fbc	-0.11776683
203	0xbdae3175	-0.08505527
204	0x3e2104af	0.15724443
205	0xbdecd51e	-0.115640864
206	0xbe433bee	-0.1906583
207	0x3e1a1b0e	0.15049383
208	0x3db6b65f	0.08921503
209	0xbdf5177c	-0.1196737
210	0x3d1f3337	0.0388672
211	0xbe8b4eda	-0.27208596
212	0x3d06363e	0.032766573
213	0xbd3db00d	-0.046310473
214	0x3b2a1735	0.0025953774
215	0x3df5794c	0.11986026
216	0x3df640de	0.12024091
217	0xbd6fb16d	-0.058518816
218	0x3db66658	0.08906239
219	0x3a9082b1	0.0011025277
220	0xbb84ed71	-0.0040566255
221	0x3de6a77a	0.11262412
222	0x3bb9f55b	0.0056750006
223	0xbda06629	-0.078319855
224	0x3d1f846d	0.03894465
225	0xbe070087	-0.13183795
226	0x3e0f7df3	0.1401289
227	0x3e17114f	0.14752696
228	0x3e16d941	0.14731313
229	0xbd50c3d8	-0.05096802
230	0xbdb2e3e8	-0.08734876
231	0x3e243c4b	0.16038625
232	0x3dfab7f3	0.12242117
233	0xbe96c38c	-0.29446065
234	0xbe016acd	-0.12638398
235	0x3d0872d8	0.03331265
236	0xbe632617	-0.22182499
237	0x3db53672	0.08848275
238	0x3ddcddbe	0.107844815
239	0x3bf7dcac	0.007564148
240	0xbc3974cb	-0.0113193495
241	0x3bfd87bd	0.0077371285
242	0xbe0a3e95	-0.13500436
243	0x3c538d19	0.012912058
244	0x3dd8fc08	0.10594946
245	0x3c827f89	0.015929954
246	0xbdb2fd53	-0.08739724
247	0xbc2207a0	-0.009889513
248	0xbe521d22	-0.20518926
249	0xbe349ecf	-0.17638706
250	0x3da5a429	0.08087952
251	0xbd3761dd	-0.044771064
252	0xbe11666a	-0.14199224
253	0xbed87e22	-0.42283732
254	0x3d7dfef4	0.06201072
255	0xbdf1a708	-0.11799437

bias f4 [64]
0	0x3b1759c7	0.0023094283
1	0xbd450663	-0.048101794
2	0xbc626c35	-0.013819744
3	0xbc976983	-0.01848293
4	0x3c2b2b25	0.010447298
5	0x3bd8da46	0.006617817
6	0xbcd0119c	-0.025399022
7	0xbca6a8c9	-0.020344155
8	0xbc887532	-0.016657446
9	0xbd16de68	-0.036833197
10	0x00000000	0.0
11	0xbbf6e684	-0.007534804
12	0xbc996ad9	-0.018727707
13	0x3c95756f	0.018244473
14	0xbd48c722	-0.049018033
15	0x3bd883ff	0.006607532
16	0xbc4ad033	-0.01237874
17	0x3c1086a6	0.008821165
18	0xbc747565	-0.014920567
19	0xbd37826e	-0.04480212
20	0xbcbb6ddf	-0.022879539
21	0xba15e429	-0.00057178974
22	0xbc1c8ac5	-0.00955457
23	0xbcc19c17	-0.023634
24	0xbb3aa70e	-0.002848092
25	0xbd067249	-0.032823835
26	0xbca05457	-0.019571466
27	0xbc73600c	-0.014854442
28	0xbc76232d	-0.015023035
29	0x3c1980c7	0.009369082
30	0xbc15fd39	-0.009154611
31	0xbc86d7db	-0.01646035
32	0xbbbe8710	-0.0058144405
33	0xbcfcccb3	-0.030859327
34	0xbcb9eb99	-0.02269535
35	0xbb8bc402	-0.0042653093
36	0xbcb9de9c	-0.022689156
37	0x3bd57ae7	0.0065148952
38	0xbc1bc21d	-0.009506729
39	0x3b2d925d	0.0026484944
40	0xbcdb9bc9	-0.026807683
41	0xbce3d6cf	-0.02781239
42	0xbb477407	-0.0030434148
43	0xbc6f4a1f	-0.014605074
44	0xbcd39c3e	-0.025831338
45	0xbd5566a1	-0.052099828
46	0xbd34669a	-0.04404316
47	0xbc8d2253	-0.017228281
48	0x3b6e3d4d	0.0036352456
49	0xbcab0520	-0.020876467
50	0xbbeff456	-0.0073228283
51	0xbd092758	-0.033484787
52	0xbcb17a71	-0.02166483
53	0xbbd701a4	-0.006561475
54	0xbcfef63c	-0.031123273
55	0xbc8be124	-0.017075129
56	0xbc534433	-0.012894678
57	0xbce01514	-0.0273538
58	0xbc7994f4	-0.015233267
59	0xbd034f70	-0.03205818
60	0xbd124ced	-0.035717893
61	0xbcffc7e2	-0.031223241
62	0xbcbce2ba	-0.02305733
63	0xba9359a4	-0.0011241925

weight f4 [64, 64]
0	0xbcf01050	-0.029304653
1	0x3eff6e00	0.4988861
2	0xbea1a3bf	-0.3157024
3	0xb9edbfc1	-0.0004534703
4	0xbc9fad65	-0.01949186
5	0xbcf7e260	-0.030259311
6	0x3bacba0a	0.005271201
7	0xbeb84d26	-0.3599636
8	0x3e41aed1	0.18914343
9	0xbe3922fc	-0.18079752
10	0xbde58a21	-0.112079866
11	0xbe7af9f3	-0.2450941
12	0xbe070750	-0.13186383
13	0x3cef1a3d	0.029187316
14	0xbe5db2ad	-0.2165019
15	0xbd1f72a7	-0.0389277
16	0xbdc344b7	-0.09534591
17	0xbd8e37df	-0.0694425
18	0x3e910cf9	0.2833021
19	0x3d6bd2c5	0.057574052
20	0xbc35d07f	-0.011097073
21	0x3d91c069	0.071167774
22	0x3e4e30ba	0.20135775
23	0xbebcd62c	-0.3688215
24	0xbe1b9f37	-0.15197454
25	0xbddb4042	-0.107056156
26	0x3c88d14c	0.016701363
27	0xbe8eab43	-0.27865037
28	0xbd6971dc	-0.05699335
29	0xbc206293	-0.009789127
30	0x3df09a92	0.11748232
31	0xbec76841	-0.38946727
32	0xbe0dc706	-0.13845453
33	0xbc75c714	-0.015001077
34	0x3e746444	0.23866373
35	0xbd915d35	-0.07097856
36	0xbe5aa411	-0.21351649
37	0x3c00dd72	0.007865297
38	0x3e1bb796	0.15206751
39	0x3c7aaa16	0.015299341
40	0xbe26dc42	-0.16294959
41	0xbd4d06b4	-0.05005522
42	0x3d29132c	0.04127805
43	0xbeb85326	-0.36000937
44	0xbe6ad775	-0.22933753
45	0xbe38e01c	-0.18054241
46	0xbca27400	-0.019830704
47	0xbdec6806	-0.115432784
48	0x3e29aefd	0.16570659
49	0x3ab90e97	0.0014118728
50	0xbe467a7d	-0.19382663
51	0x3d844590	0.064585805
52	0xbe2eb85d	-0.17062517
53	0x3e025d77	0.12730967
54	0xbe1f925e	-0.15583178
55	0xbe4fad4a	-0.20280948
56	0xbe3ea7a3	-0.18618636
57	0x3d95609a	0.07293816
58	0x3d95e4df	0.07319044
59	0xbe74c362	-0.23902658
60	0x3d9c5512	0.076334134
61	0xbd8320de	-0.06402753
62	0x3e742659	0.23842753
63	0xbd84c9c0	-0.06483793
64	0xbdea30ae	-0.11435066
65	0x3d93c007	0.07214361
66	0x3e3739d3	0.17893152
67	0x3e7770eb	0.24164169
68	0x3c4698e9	0.012121418
69	0x3c8c46b8	0.017123565
70	0xbca6e2d8	-0.02037184
71	0xbdb3a38c	-0.087714285
72	0xbbf0e75c	-0.007351799
73	0xbb5349f3	-0.0032240122
74	0x3e504103	0.203373
75	0x3d9145f7	0.07093423
76	0xbc371bfb	-0.011176105
77	0xbde55338	-0.11197513
78	0xbdd7cb1f	-0.10536789
79	0xbcb77c68	-0.022398189
80	0xbdd56a1a	-0.10420628
81	0x3e4b557d	0.1985683
82	0xbea85a02	-0.3288117
83	0xbd856ab6	-0.06514494
84	0x3e456b88	0.19279301
85	0x3edf9b3e	0.43673128
86	0xbcf07cff	-0.029356478
87	0xbe6d6b10	-0.23185372
88	0xbeaba79f	-0.33526322
89	0x3d1369b7	0.03598949
90	0xbdc3eccb	-0.09566649
91	0xbe31bd34	-0.17357332
92	0xbea6b45f	-0.32559487
93	0xbe03ffee	-0.12890598
94	0xbc159e45	-0.009131973
95	0xbccd9168	-0.02509375
96	0xbd860cbc	-0.06545398
97	0xbe6587ef	-0.22415136
98	0xbdaa67ce	-0.083205804
99	0x3e09d5ac	0.13460416
100	0x3e4771bf	0.19476984
101	0xbe4badc7	-0.1989051
102	0xbea5f6d7	-0.32414886
103	0xbdfaa8ac	-0.12239203
104	0x3ca8cac4	0.020604499
105	0xbcec8109	-0.028870123
106	0x3da07d95	0.07836453
107	0x3e813a02	0.2523957
108	0x3db25cc5	0.08709101
109	0x3d8544ba	0.06507249
110	0x3e031959	0.12802638
111	0x3d79bd3c	0.060971484
112	0x3d5e0620	0.05420506
113	0x3e977ae4	0.29585946
114	0x3e9efcc3	0.31052217
115	0x3ddffe0c	0.109371275
116	0xbf0e61f4	-0.55618215
117	0x3d05e4be	0.03268885
118	0x3e517663	0.20455317
119	0xbcbb9f5b	-0.022903135
120	0xbc948410	-0.018129379
121	0xbd99e9ae	-0.07515274
122	0xbd9fffc6	-0.07812457
123	0xbe49ec08	-0.19718945
124	0xbdd0df47	-0.10198837
125	0x3d8c35de	0.06846212
126	0x3e0fd5d1	0.14046408
127	0xbd70a5d8	-0.05875191
128	0x3e223c1f	0.15843247
129	0x3e3bbda1	0.18334056
130	0xbe8da6f1	-0.2766643
131	0xbdb3565e	-0.087567076
132	0xbd050223	-0.03247274
133	0x3e8fa468	0.2805512
134	0x3dc6a8e4	0.09700182
135	0xbdb3c5a6	-0.08777933
136	0x3e39b929	0.18137039
137	0xbdf6f2a2	-0.12057997
138	0xbe359c3b	-0.17735378
139	0xbd30c2d2	-0.043154545
140	0xbe05b322	-0.13056615
141	0xbe9f6670	-0.3113284
142	0xbe7c5fd6	-0.24645934
143	0x3e8a98d8	0.27069736
144	0xbc91d6f8	-0.0178027
145	0xbba291e3	-0.0049612387
146	0xbd3353b2	-0.04378099
147	0xbdfa57a2	-0.12223746
148	0x3d753824	0.059867993
149	0x3cac4ca0	0.021032631
150	0xbee1e3a7	-0.44118997
151	0x3e654c64	0.22392422
152	0x3d17cb50	0.03705913
153	0xbcc43402	-0.02395058
154	0xbea0c28a	-0.31398422
155	0xbda7a82b	-0.08186372
156	0x3d086506	0.03329947
157	0x3d88e2ff	0.06683921
158	0x3d2eea20	0.042703748
159	0x3d2417e1	0.040061835
160	0x3e899033	0.26867828
161	0xbdb4f30d	-0.08835421
162	0x3d86fac0	0.065907955
163	0x3e9eb4db	0.30997357
164	0x3dfc776d	0.12327466
165	0xbdd389a5	-0.10328988
166	0x3ea6a1e4	0.32545388
167	0xbd02daa6	-0.0319468
168	0x3d32c317	0.043643083
169	0x3e4df8e1	0.20114471
170	0xbd9d373c	-0.07676551
171	0x3e2a7282	0.16645244
172	0xbd1654d2	-0.036701985
173	0xbe9a9f50	-0.3019967
174	0xbdefe7c2	-0.11714126
175	0x3e881c72	0.26584202
176	0xbddcd69d	-0.10783122
177	0x3e2c88d4	0.16849071
178	0x3ddb08da	0.10695048
179	0x3d20f66d	0.03929751
180	0xbcb78ac4	-0.022405036
181	0x3e332f37	0.1749848
182	0x3e02d4c1	0.12776472
183	0x3dd8709c	0.105683535
184	0xbdeee3d0	-0.116645455
185	0xbdaf7343	-0.08566906
186	0xbe173200	-0.14765167
187	0x3e28d8ff	0.16489027
188	0x3e299eb9	0.16564454
189	0xbd27f922	-0.041009076
190	0xbda12a8c	-0.07869443
191	0x3d837638	0.06419033
192	0x3d6be5d5	0.05759223
193	0xbc61d52a	-0.013783732
194	0x3c8dd66f	0.017314164
195	0x3e91577f	0.28387067
196	0xbc7be1c6	-0.015373653
197	0x3d452d3e	0.04813885
198	0xbe0d0dc5	-0.13774784
199	0x3d307fc4	0.043090597
200	0xbcc01e5c	-0.023451976
201	0xbd8c42f5	-0.068487085
202	0x3e1384b8	0.14406097
203	0xbe906ccd	-0.28208008
204	0x3c38e5ac	0.011285227
205	0x3cd99308	0.026559368
206	0xbe2efa8a	-0.1708776
207	0xbd3a1842	-0.04543329
208	0xbcdc9b12	-0.026929412
209	0xbc40c7f2	-0.011766421
210	0xbcc7664b	-0.02434077
211	0xbf037d10	-0.51362705
212	0xbeb61fa5	-0.35571018
213	0xbdb72ab2	-0.0894369
214	0xbd8ae6eb	-0.06782325
215	0xbe298c53	-0.16557436
216	0xbe8fd244	-0.28090107
217	0x3c717ff8	0.014739983
218	0x3d5deec1	0.05418277
219	0xbe523eea	-0.20531812
220	0xbe88caaa	-0.2671712
221	0xbe47bb5d	-0.19505067
222	0x3cf14dd3	0.029456055
223	0x3ebc0085	0.36719146
224	0x3e2864a8	0.16444647
225	0x3d5cad99	0.053876493
226	0x3e057000	0.13031006
227	0xbeb2525f	-0.3482847
228	0x3eb254dc	0.34830368
229	0x3d97116e	0.07376371
230	0x3e530b73	0.20609836
231	0xbc9ce759	-0.019153284
232	0x3b9d9c1a	0.0048098685
233	0xbdcee240	-0.101017475
234	0xbca05985	-0.019573936
235	0xbd791472	-0.060810514
236	0xbe1ae05a	-0.15124646
237	0xbe05ab4e	-0.13053629
238	0x3ded8799	0.11598129
239	0x3ddc9dd9	0.107722946
240	0x3cd8751b	0.026423028
241	0xbea0f9fc	-0.31440723
242	0x3df09ddc	0.11748859
243	0xbe5911fd	-0.21198268
244	0x3dbc0133	0.09179916
245	0xbe844b65	-0.2583877
246	0xbde4faff	-0.11180686
247	0xbe7a2200	-0.24427032
248	0x3e1a0f86	0.15044984
249	0x3e3e8615	0.18605836
250	0xbe41e934	-0.18936616
251	0xbd8e5bab	-0.06951078
252	0x3e6b1481	0.2295704
253	0x3e737235	0.23774035
254	0xbe1dd3ff	-0.15412901
255	0x3dc6527f	0.09683704

bias f4 [64]
0	0xbd09621e	-0.033540837
1	0xbb5a687d	-0.003332644
2	0x3c9261b6	0.017868858
3	0xbc05a519	-0.008157038
4	0xbcc466df	-0.023974834
5	0xbce7bc9f	-0.028288184
6	0xbd9b2e74	-0.075772196
7	0xbbd9613e	-0.0066339066
8	0xbc89f10c	-0.016838573
9	0xbc9d92a3	-0.01923496
10	0xbcca4ec8	-0.024695769
11	0x3c5ad2a3	0.013355884
12	0xbd04cb81	-0.03242064
13	0xbccbd65b	-0.024882486
14	0xbcd8689f	-0.026417075
15	0xbd7b508a	-0.061356105
16	0x3b57947a	0.0032894895
17	0xbcbc4c1f	-0.022985516
18	0xbd7447e2	-0.059638865
19	0xbc5d013f	-0.013489067
20	0x38df8f03	0.00010660107
21	0xbc9fd4d0	-0.019510657
22	0x3c8b6544	0.01701606
23	0xbcb480be	-0.022034045
24	0xbcd635c8	-0.026148692
25	0xbc77dc19	-0.015128159
26	0xbc185f20	-0.009300023
27	0xbc82d3fb	-0.01597022
28	0xba9fce6e	-0.0012192258
29	0x3d130a35	0.035898406
30	0xbd4f3f3f	-0.050597426
31	0x3d2baa06	0.041910194
32	0xbcb7f49b	-0.022455504
33	0xbce487a1	-0.027896704
34	0xbc89ada2	-0.016806427
35	0xbc3a9360	-0.011387676
36	0xbc9701fe	-0.018433567
37	0x3bce4acd	0.006295538
38	0xbba8c86e	-0.005150846
39	0xbca50a7d	-0.020146603
40	0xbc30603a	-0.01076513
41	0xbd4ae611	-0.049535815
42	0xbbf2b349	-0.0074066264
43	0xbd53051a	-0.051518537
44	0xbd0eef52	-0.034896202
45	0xbcfe1771	-0.031017037
46	0x3c86bd74	0.01644776
47	0xbd4629c6	-0.048379682
48	0xbcd57826	-0.026058268
49	0x3c084599	0.008317375
50	0xbb8caa0f	-0.0042927335
51	0xbd02677f	-0.031836983
52	0x3c2fe822	0.010736497
53	0xbbe5acc4	-0.0070091207
54	0xbc14597a	-0.009054536
55	0xbd305287	-0.043047454
56	0x3a5d20f2	0.000843539
57	0xbb0d8726	-0.0021595447
58	0x3a81469b	0.0009862961
59	0xbd0f6198	-0.035005182
60	0x3d2780b1	0.040894214
61	0xbd8d6ed8	-0.069059074
62	0xbd4505ae	-0.04810112
63	0xbcccfa3a	-0.025021661

weight f4 [1, 64]
0	0xbdc97a77	-0.098378114
1	0xbc7c6dfc	-0.015407082
2	0x3da1a34a	0.07892473
3	0x3ecbf013	0.398316
4	0xbda6941a	-0.08133717
5	0x3eb145e9	0.3462365
6	0x3ea77929	0.32709625
7	0x3d673ece	0.05645638
8	0x3d6c6d39	0.05772135
9	0x3a5d6e04	0.00084468746
10	0xb71c0bb7	-9.301052e-06
11	0xbdcf1228	-0.10110885
12	0x3d3f677a	0.046729542
13	0xbb13454b	-0.0022471722
14	0x3d1815a5	0.037130017
15	0x3e068532	0.13136747
16	0x3d5b0766	0.053473853
17	0x3ca008de	0.019535478
18	0xbb0d5c2d	-0.0021569834
19	0xbbde4167	-0.006782699
20	0xbd1781d1	-0.036989037
21	0x3e53e42a	0.20692506
22	0x3d2b84b1	0.04187459
23	0xbcd8addc	-0.02645009
24	0x3b1c6b5c	0.0023867702
25	0x3d126743	0.03574301
26	0x3b65b6a3	0.0035051487
27	0xb9f0f45a	-0.00045958423
28	0x3d8d824b	0.06909617
29	0xbd96edfd	-0.073696114
30	0x3e54fe60	0.20800161
31	0xbd31cf01	-0.043410305
32	0xba980b48	-0.0011600042
33	0x3e10c0dd	0.14136072
34	0x3b4f54ea	0.0031636306
35	0x3c366f88	0.01113499
36	0x3ab01a74	0.0013435618
37	0xbd49b296	-0.04924258
38	0x3dd6d1bb	0.10489222
39	0x3c4fd35e	0.012684671
40	0x3bcd733a	0.0062698396
41	0xbe47f0d4	-0.19525462
42	0xba971cc9	-0.0011528964
43	0x3e252e04	0.16130835
44	0x3ba72978	0.005101379
45	0xbe3875f5	-0.18013747
46	0xbd3f3ee8	-0.04669085
47	0xbe5eb034	-0.21746904
48	0x3c61c28b	0.013779293
49	0x3c1b71a2	0.009487541
50	0x3d8bd923	0.06828525
51	0x3acdc717	0.0015699592
52	0xbd3d2a21	-0.046182755
53	0xbb4b7534	-0.00310452
54	0xbae60f10	-0.0017552096
55	0xbe8eac8c	-0.27866018
56	0xbd1fb17a	-0.038987614
57	0xbd690557	-0.056889858
58	0xbd0d724a	-0.034532823
59	0x3e7ce30d	0.24695988
60	0x3d97b407	0.07407384
61	0x3e14513d	0.14484115
62	0x3e17e976	0.14835152
63	0x3e5b23e8	0.21400416

weight f4 [5, 64]
0	0x39142b6f	0.0001413056
1	0xbbe0d3a1	-0.0068611656
2	0xbba744be	-0.0051046303
3	0xbb7e9043	-0.003884331
4	0xbb003e1c	-0.001956827
5	0xbb192c00	-0.0023372173
6	0xba4aa8c2	-0.00077308354
7	0x3c18baaa	0.009321848
8	0x3b6fc9c7	0.0036588775
9	0x3bb0f5c4	0.0054003913
10	0x3b088a85	0.0020834517
11	0x3c033cd7	0.008010111
12	0x3a985e4d	0.0011624784
13	0x3ac69c58	0.0015152795
14	0x3bc6ab68	0.0060629137
15	0x3afac6c0	0.0019132718
16	0xb90467cb	-0.00012627167
17	0x3c32b753	0.010907966
18	0x3b0181fb	0.0019761312
19	0x3bd2c12c	0.0064317193
20	0xbaeeb070	-0.0018210541
21	0x3b2f8645	0.0026782912
22	0xbbf5a413	-0.007496366
23	0xb9bf1b7b	-0.00036450833
24	0xb9fb3154	-0.00047911203
25	0x39d11df5	0.00039885906
26	0x3a006352	0.00048976124
27	0x3b068fca	0.0020532482
28	0xbaa4e706	-0.0012581057
29	0x3940e81e	0.00018397017
30	0xba788a27	-0.00094810355
31	0xbb48537c	-0.0030567339
32	0x3bf56a2f	0.0074894647
33	0x3ba22866	0.0049486635
34	0xbb56dc1e	-0.0032785009
35	0xb957c551	-0.00020577504
36	0x3b22d137	0.002484394
37	0xba4143d6	-0.0007372474
38	0xbae70f00	-0.0017628372
39	0x3b9bae59	0.0047510085
40	0x3bcb9bcf	0.006213642
41	0x3bad3845	0.005286249
42	0xbc021812	-0.007940309
43	0x3bf5de07	0.0075032744
44	0xbc1fe86e	-0.009760005
45	0x3c172ed6	0.009227475
46	0x3b8bbb3d	0.004264264
47	0xba447c0a	-0.000749529
48	0x3b9d82fd	0.004806875
49	0xba17d792	-0.00057923154
50	0xbad722a1	-0.0016413518
51	0xbb0b0409	-0.0021212122
52	0x3b358aae	0.0027701068
53	0x3a83565f	0.0010020247
54	0x3c8d8b64	0.01727838
55	0xbc641448	-0.013920851
56	0x3b095647	0.0020955966
57	0xb819df46	-3.6685982e-05
58	0x38a6d9ad	7.956042e-05
59	0xbb9a4a97	-0.004708599
60	0xb9ed5a49	-0.0004527143
61	0x3ab26cde	0.0013612767
62	0x3bb1cb1a	0.005425823
63	0xbaf65e5f	-0.0018796435
64	0x39d84d03	0.0004125611
65	0x3bd62177	0.006534751
66	0x3c500f95	0.012699028
67	0x3b7e9397	0.0038845295
68	0xbb161ffd	-0.002290725
69	0xb95f48d9	-0.00021294075
70	0x3bae0aa2	0.005311326
71	0xbb62b9f4	-0.00345957
72	0xbc4305c3	-0.011903229
73	0x3b9cb47e	0.0047822585
74	0xbb29e7ac	-0.002592544
75	0x37b945d2	2.2086231e-05
76	0x3be97395	0.007124374
77	0x3bb1f2d6	0.0054305596
78	0xbbd1c0ca	-0.006401156
79	0x3c34706d	0.0110131325
80	0x39974e6a	0.00028859387
81	0xbb838e1a	-0.0040147426
82	0xbb984700	-0.0046471357
83	0x3b0f7645	0.0021890562
84	0xbb888b3e	-0.0041669896
85	0x3bd99608	0.0066401996
86	0xba5d5292	-0.0008442785
87	0x3a42d861	0.00074327557
88	0xb94d9738	-0.00019606657
89	0xba834f4d	-0.001001814
90	0xba854ffe	-0.0010170934
91	0x3a6769e3	0.0008827729
92	0x3ac52021	0.0015039482
93	0x3b5e932d	0.0033962235
94	0x3ba7fcdc	0.0051265787
95	0x3c6e89c1	0.01455921
96	0x3b31de3b	0.0027140516
97	0x3a032db0	0.00050040614
98	0x3a9c4457	0.0011922222
99	0x3c821b1b	0.015882066
100	0xbb65851e	-0.003502197
101	0xbb04c8d2	-0.00202613
102	0x3c37ec15	0.01122572
103	0xbb8a9f58	-0.004230421
104	0xbc9cad25	-0.01912553
105	0x3b9a9238	0.0047171377
106	0xbabd0e65	-0.0014423846
107	0xbbc47b10	-0.0059961155
108	0x3c002043	0.007820192
109	0xbb04dbad	-0.0020272539
110	0x3abee036	0.001456267
111	0x3b8f21fe	0.004368066
112	0xbaf34163	-0.0018558915
113	0x3b9d647d	0.004803239
114	0xbb822af3	-0.003972405
115	0x3a961017	0.0011448887
116	0xbb81130f	-0.0039390395
117	0x3b8b49fc	0.004250763
118	0x3a63c15b	0.0008688175
119	0xbb798ec4	-0.003807948
120	0xba30fa12	-0.00067511306
121	0x3b0eb4ae	0.0021775174
122	0xb9903da0	-0.00027511735
123	0xbc63208e	-0.013862742
124	0x3bbc2597	0.0057417857
125	0xba479d83	-0.00076147186
126	0xba16706e	-0.0005738799
127	0x3ac1deae	0.0014791095
128	0x3b0a09cf	0.0021062975
129	0xbbd5af2a	-0.0065211253
130	0x3afaa269	0.0019121888
131	0x3a94cfc3	0.0011353422
132	0x3b114e83	0.002217204
133	0xba8b6106	-0.0010633774
134	0xba393280	-0.0007064715
135	0xbb0a26b3	-0.0021080195
136	0x3c02c822	0.007982286
137	0x3a802313	0.0009776078
138	0x3c839fa2	0.01606733
139	0xbb6cbd11	-0.0036123435
140	0x3beeb72f	0.007285021
141	0xbc0d3b24	-0.008620057
142	0x3c911acc	0.017712973
143	0x3a1777e2	0.0005778057
144	0x3b341d8b	0.002748343
145	0x398be3a6	0.00026681757
146	0x3b363f74	0.0027808817
147	0x3a6fdfbe	0.00091504666
148	0xbaafd311	-0.0013414343
149	0xbbc5eecb	-0.006040429
150	0x3c18edd9	0.009334051
151	0xbb173cac	-0.0023076935
152	0x399cf536	0.00029937335
153	0xbbaf32c6	-0.005346629
154	0xba75e63f	-0.00093803176
155	0x39b53a34	0.00034566375
156	0xbaf10979	-0.0018389664
157	0xba865b79	-0.001025065
158	0x3ba2491c	0.004952563
159	0xbc14d6b3	-0.009084391
160	0xbc297963	-0.010343882
161	0xbc405066	-0.0117379185
162	0xbb80b713	-0.003928074
163	0x3b3bbeda	0.0028647692
164	0x3a946aff	0.0011323391
165	0x3aa59f30	0.0012635943
166	0xbc5b6fce	-0.0133933555
167	0x3aa99342	0.0012937563
168	0x3c2bb7ad	0.010480803
169	0xbab68c07	-0.001392723
170	0x3bac5f32	0.0052603716
171	0x3c0da7e5	0.008645986
172	0x3aaf69e8	0.0013383003
173	0x3b570f22	0.0032815416
174	0x39e6e4b8	0.00044039427
175	0xbb26dff2	-0.0025463072
176	0xbbb1dfe1	-0.0054283
177	0xb8c91c44	-9.589692e-05
178	0x3c379ce6	0.011206841
179	0xba0962f9	-0.00052408833
180	0x3c2e7d69	0.010650017
181	0x3a23a2ed	0.00062422344
182	0xbbb66c4a	-0.0055671083
183	0x3c10286d	0.008798701
184	0x3aecc963	0.0018065389
185	0x3c0151fe	0.007893084
186	0xbb49e3f2	-0.0030806032
187	0x3c9a2ca8	0.018820122
188	0xbbc59ba7	-0.006030518
189	0xbb8f1d8a	-0.004367535
190	0xba0ef012	-0.00054526434
191	0x3aac1711	0.0013129433
192	0x3bb927a0	0.0056504756
193	0x3c38bdef	0.011275752
194	0xbc23bd14	-0.00999381
195	0xbaa39a20	-0.0012481846
196	0xbbc45fe5	-0.005992877
197	0xba19aff1	-0.0005862704
198	0x3b2f72da	0.0026771338
199	0xbbb6e67a	-0.005581674
200	0xbb7b4cb3	-0.0038345277
201	0xbbda036e	-0.006653241
202	0xbc91f0d2	-0.017815027
203	0xbba201c4	-0.004944058
204	0xbb411296	-0.002946054
205	0x3c2196a3	0.009862575
206	0xbc4a15fe	-0.012334345
207	0xbc5af8b4	-0.0133649595
208	0xbad43e8f	-0.001619296
209	0x3c3b0f02	0.011417152
210	0x3906df8e	0.00012862516
211	0xba5e525a	-0.0008480899
212	0x3c5bfb5d	0.013426629
213	0xbb88cb67	-0.004174638
214	0x3b44c487	0.0030024366
215	0xb9a56787	-0.00031548386
216	0xbb1626d6	-0.0022911332
217	0xbb0366f8	-0.0020050388
218	0x3c635329	0.013874807
219	0x3ac5fa1a	0.0015104443
220	0x3c699917	0.014257691
221	0xbb43619e	-0.0029812823
222	0x3abed4fe	0.0014559326
223	0x3c2101c8	0.009827085
224	0xbc31159d	-0.010808376
225	0x3b01be43	0.0019797243
226	0xbb8ba846	-0.004262003
227	0xbc2e5544	-0.010640446
228	0xba72c4ac	-0.0009260874
229	0xb9c584b0	-0.00037673628
230	0x3bb64669	0.0055625928
231	0x3a93a36f	0.0011263917
232	0x3c2a9647	0.0104118055
233	0xbc54b289	-0.012982019
234	0x3af78cf3	0.0018886611
235	0xba795bba	-0.00095122645
236	0xbbd3c3d9	-0.006462556
237	0xbb31e359	-0.0027143566
238	0xbb3da6a5	-0.002893844
239	0x3c09a298	0.008400582
240	0xbb90c11a	-0.0044175508
241	0xba959171	-0.0011411143
242	0xba666325	-0.00087885774
243	0x3b26d689	0.0025457463
244	0x3bb53fb7	0.005531277
245	0xbbe129aa	-0.006871422
246	0xbbcec1ba	-0.006309715
247	0x3bb6f70f	0.005583651
248	0x3bdc7953	0.00672833
249	0x3c0451c1	0.008076132
250	0x3a7d123e	0.00096539024
251	0x3bdf8bf2	0.0068221027
252	0xba09ff8d	-0.0005264215
253	0xbb666470	-0.003515508
254	0xbb8bcfa0	-0.004266694
255	0x3b81b66c	0.003958514

bias f4 [5]
0	0x3b12808a	0.0022354447
1	0x3a47588d	0.00076044427
2	0x39b4d081	0.00034487623
3	0xb9d964af	-0.0004146448
4	0xba3dd79a	-0.0007241905
