model/medium-2/IA2C/model_agent0_seed1.pt (torch, 109505 bytes, 11 tensors)

weight f4 [64, 134]
00000000: 6f76 5cbd 3f07 e8bc e23b 2ebe c7ab 20be
00000010: 3f6f 083d 5020 5ebd 1e96 dc3d c092 343e
00000020: ee83 713c 5731 bbbd ca5d 2ebe 8a35 fdbd
00000030: 6297 78bd 693a fcbd e873 ba3b 8b0d a3bd
00000040: 849f 883c 68cd ad3d efcc 033e 0f1d e1bd
00000050: b1c8 c53d bc33 b63c ed78 703c eb70 0d3e
00000060: c9a7 6a3d 6a5b 5cbe 33f3 7d3d efcc 3bbe
00000070: ef9f 5b3d afcc 0d3e 04b1 fcbd f042 9abe
00000080: 43e2 2abd 4b0e 103d 1d21 fc39 e130 04be
00000090: 0132 57be 621f d0bd f37e 16bc 6fcb b0bd
000000a0: e32b 06be a475 41bd 90a3 82bd 9262 f03d
000000b0: 6d99 b33d 8421 313e 5080 953c bd6d 603d
000000c0: 50c1 d63d ad15 18be 6427 0fbe e614 f9bd
000000d0: d23e 2ebe 13c2 2bb9 cf17 f43d 7268 8cbd
000000e0: 4baf 233e e129 893a d390 e5bd 5f32 96bd
000000f0: 497e 11be 990b e33d 7b0f ea3d ad96 05be
00000100: a60b 213d 911f 97bd 2ab6 05be cfe8 96bd
00000110: ebdd 0e3a fcfe 0f3c 9f68 9dbd 5cc5 f3bc
00000120: d794 203e 2996 95bd da6d e1be 04e4 3dbe
00000130: b9bf 94be df67 543d 0bca 273e f445 803c
00000140: ee31 2cbe f6cf 253e 1b8d c7bd 4012 86be
00000150: ef98 943c 0b95 d5bd 9999 e03c 1588 d63b
00000160: 1565 833b f2c0 56bd 65d6 a73c a24e 4c3d
00000170: 74d1 9dbc ec6c 4bbe b64d 4ebc bd55 d8bb
00000180: d225 e8bd 1c5d 343e 7d4d 6b3d 4dbb 093e
00000190: 33fc 593d 7269 c33a 357e 243d 2b03 31be
000001a0: ced5 e9bc ab08 a6bd 1e82 48bd ce2b 803e
000001b0: 78bd d43d ea5a 8d3e de96 923d 5216 7cbd
000001c0: ef1a a53d f7cd e6bd cca7 913e 462c 9dbd
000001d0: 707d 463d fa70 49be 63b3 083d 52d4 f73c
000001e0: 78c1 ad3d d85b 09be b0b9 9f3c a5ed e7bc
000001f0: e07d 12bb 2d72 4bbd b699 52bd b799 ecbc
00000200: 5783 603d 6ec0 52be 6638 3c3e d0af 29be
00000210: 9cec 113d d5f1 3f3c 7aa4 a43c 8fcb 7cbe
00000220: 48f0 873c 4716 3dbd 9b57 d7bd 88ea 783d
00000230: ff27 f33b 08f2 8c3e 14a4 10bd 766e 8b3d
00000240: eb65 553e 85c7 253e ba93 823e b04b 11bd
00000250: 4132 3abe 08c1 12be 2aa8 acbd 9a3e fb3d
00000260: c1c5 dabd abf7 a5bc a7cd 5e3d 734a eebd
00000270: 79e1 32be ebeb 123d 2912 5cbe 4a9b d1bd
00000280: 8a7e b53d 5aa6 95be 049d ef3d 0d1c f53d
00000290: c919 47bd 9ea5 213e e24d 49be 2b46 89bd
000002a0: 0634 853d 5659 6f3e 1b48 4cbe 8a3f 283e
000002b0: 33fa 6cbd 80c1 9b3e 1318 1f3e 505d 0abe
000002c0: ef9e 56be 4087 df3c 537f 63bd 279e 1abe
000002d0: 652b bebd b923 09bc 4c2e b73d 96f5 12bd
000002e0: a899 24bd b900 b6bd c8ab 583d 84de 58bd
000002f0: 540a dabd bd69 803d 859a 8ebd 2b9c 10bc
00000300: 2512 083e 3140 84bc 5ecf 873d 8a2e d6bc
00000310: e1d1 0b3b 076c 25be e491 5d3d b214 223d
00000320: 376c 343e b425 9f3d 272b 21be 6770 0dbd
00000330: 3233 033e b599 9abd 5f6c 4b3d c692 603d
00000340: c2a6 31bd 743c d6bd b9f6 0cbe 5d53 61bd
00000350: c3f4 413d e105 b83d ae4a 533c c741 843d
00000360: 3384 efbd cfc2 75bc c1b1 923d 4f73 2a3e
00000370: c8d4 d6b9 beb6 233d a8ff d53d 103f a73c
00000380: 75a1 c43d c951 8cbd 9f1d 26be cf3c 95bd
00000390: bfe3 473b 5cfb bb3c cdfb acbc 1e98 18be
000003a0: 258c 273e ece3 7f3c a9ca d9bc a34d 7dbd
000003b0: 8add 423d d862 003d a9fe d6bd 5550 edbd
000003c0: f6ff 033e 1c90 ecbc 5627 573e 8055 fe3d
000003d0: 0e78 3dbe 3cf8 bcbd 4a91 88be 3b21 043e
000003e0: 7408 97bd a545 5a3e 7948 003e cffd 193e
000003f0: d317 57bb cc60 e7bb 5df6 34bd 35fb a5bc
-0.053823885 -0.028323768 -0.17015031 -0.15690528 0.033309218 -0.054230034 0.1077082 0.17634106
0.014740927 -0.0914027 -0.17027965 -0.123637274 -0.060691245 -0.12315828 0.0056900866 -0.079615675
0.016677625 0.08486444 0.12871145 -0.109918706 0.096574195 0.022241466 0.014677268 0.13812606
0.05728892 -0.21519247 0.06199951 -0.18339895 0.05361932 0.13847612 -0.123384506 -0.30129194
-0.041719686 0.03516988 0.00048089857 -0.12909271 -0.21015169 -0.10162236 -0.0091855405 -0.08632552
-0.13102679 -0.04723133 -0.06378853 0.11737551 0.08769498 0.17297941 0.01824966 0.054792155
0.1048609 -0.14852019 -0.1397987 -0.12162189 -0.17016152 -0.00016380129 0.11918604 -0.06855859
0.15984838 0.0010464751 -0.11209264 -0.07333826 -0.1420833 0.110861965 0.11428734 -0.1304576
0.03931775 -0.07379068 -0.13057771 -0.073686235 0.00054499385 0.00878882 -0.076859705 -0.029757194
0.15681778 -0.073040314 -0.44029123 -0.18544012 -0.29052523 0.05185687 0.16385667 0.015658356
-0.16815922 0.16192612 -0.097437106 -0.261858 0.01813933 -0.10428818 0.027416991 0.006546984
0.0040098527 -0.0524301 0.020487973 0.049879678 -0.019264914 -0.19865769 -0.01259177 -0.0066020177
-0.11335339 0.17613643 0.057446945 0.13450356 0.05321903 0.0014908744 0.040159423 -0.17286365
-0.028544333 -0.08107122 -0.048952214 0.2503342 0.10387701 0.27608424 0.07157682 -0.061544724
0.08061778 -0.112697534 0.2844833 -0.0767446 0.04845947 -0.19672003 0.0333742 0.03025261
0.08484167 -0.13413942 0.019497722 -0.02831156 -0.002235286 -0.049669433 -0.05141612 -0.02888189
0.054812755 -0.20581219 0.1838089 -0.16570973 0.03562604 0.011715372 0.02009796 -0.24687026
0.016594067 -0.046163823 -0.10514756 0.06077054 0.0074205394 0.27528405 -0.035312727 0.06808178
0.2083966 0.16189392 0.2550333 -0.03547257 -0.18183233 -0.14331448 -0.08430512 0.122678
-0.1068225 -0.020259699 0.054395344 -0.11635294 -0.17468823 0.03586952 -0.21491303 -0.10234697
0.08862026 -0.2922848 0.1169987 0.11968241 -0.048608575 0.15785834 -0.19658616 -0.067028366
0.06504063 0.23373923 -0.19949381 0.16430488 -0.057855796 0.30421066 0.15536527 -0.13512158
-0.20959066 0.027286172 -0.055541348 -0.15099393 -0.092856206 -0.008370333 0.08944377 -0.03587874
-0.0401856 -0.088868566 0.0528982 -0.052946582 -0.10646501 0.06270168 -0.06963066 -0.008826296
0.13288172 -0.01614389 0.06631349 -0.026145238 0.0021334814 -0.1615449 0.05409421 0.039570518
0.17619406 0.07770863 -0.15739118 -0.034531023 0.12812498 -0.075488485 0.049663898 0.054827474
-0.043371923 -0.10460749 -0.13765992 -0.055011142 0.047352564 0.08985496 0.012896223 0.064578585
-0.11695137 -0.015000059 0.0716281 0.16645549 -0.00040975795 0.0399692 0.10449153 0.020415813
0.09601108 -0.06851537 -0.16222237 -0.07286989 0.0030500737 0.022947006 -0.021116162 -0.14901778
0.16362055 0.015618306 -0.026585894 -0.06184162 0.047574557 0.031344265 -0.10497791 -0.11587588
0.1289061 -0.02887731 0.21011099 0.124186516 -0.18502828 -0.092270344 -0.26673347 0.12903301
-0.07374659 0.2131563 0.12527646 0.15038227 -0.0032820597 -0.0070610996 -0.044180263 -0.020261386

bias f4 [64]
00000000: 0000 0000 848a a9bb f51e aabc aa55 383c
00000010: 1814 aabc e2a0 7138 0fcb 1bbc 448f 9abb
00000020: ad1a 86b8 f1e8 9eb8 27d6 b2ba eaf0 13bc
00000030: 6f8f 6d3a 0b17 ff38 9da1 aebb 8c0c 273b
00000040: 758e 6d3b 68a2 76bc 4525 ffbb a4a7 84ba
00000050: d73a 0939 7d05 a7ba 6a47 9fbc 316d 82bb
00000060: be39 863b c960 4bbc 5e35 a5bb 60e4 f1bb
00000070: fac5 32bc 752a 99bc 10c9 23bb 913a 65bc
00000080: 9f46 2db8 64b0 1b3b 6452 f33a 0074 05bc
00000090: 79e6 bebb 3f7e 88bb 5764 8bb9 4ba6 6739
000000a0: d2a1 e5bb 0960 62b9 5177 03bc 42bc a9bb
000000b0: aedb 9bba db06 17bc 5ac1 22bc 8ffc 763a
000000c0: 6170 84bc 5c56 47bb 8ca7 75bb 2212 32bb
000000d0: 74e0 a4bb 057d 4a3a 646b 62bb c417 06bb
000000e0: 05fe fcba 93bf 8cba 6d41 21ba f54a 24bc
000000f0: 9dca 15bb be48 59bc aead 613b a214 1836
0.0 -0.005173983 -0.020766715 0.011250893 -0.020761535 5.760871e-05 -0.009508862 -0.0047167856
-6.394587e-05 -7.577416e-05 -0.0013644145 -0.009029606 0.0009062206 0.000121636396 -0.0053293244 0.0025489656
0.003624824 -0.015053369 -0.0077864253 -0.0010120762 0.00013087258 -0.0012742725 -0.019443233 -0.003980302
0.004096239 -0.012413212 -0.0050417623 -0.0073819607 -0.010911459 -0.018697003 -0.0024991669 -0.013991014
-4.1312185e-05 0.002375626 0.0018563983 -0.008145332 -0.0058258143 -0.0041654403 -0.00026586905 0.00022091826
-0.007007816 -0.00021588815 -0.008024053 -0.005179913 -0.0011891031 -0.009217943 -0.009933794 0.00094217894
-0.016166868 -0.0030416464 -0.00374839 -0.0027171453 -0.0050316397 0.0007724318 -0.0034548873 -0.0020460943
-0.0019301778 -0.0010738246 -0.0006151412 -0.010027637 -0.0022856363 -0.013261972 0.0034435797 2.2661775e-06

weight f4 [64, 64]
00000000: 6da7 f53d 4613 023c 8416 a03e 70de 92be
00000010: 9654 80be 318e 043f 6193 3dbb 39f7 2e3e
00000020: 51d6 91bd cd89 e4bb 3707 8f3e b414 06bd
00000030: faa9 4b3c 20e7 a93e 8d4e 4fbe 7340 44be
00000040: b50d 86be ef30 4bbc a047 a7bd f252 233e
00000050: 6fd1 f63d 278b 083e 9c71 d43c 622d c53d
00000060: c8aa 5bbd 3659 93be 2017 9abd 5254 b33d
00000070: e768 bdbe ba1e d73c 4496 a53d c9a3 d03c
00000080: 2c07 87be 2542 b8be 00fb f4bd 2703 1c3e
00000090: 7773 4b3e f7c5 82bd 076a 82be 3ee1 533c
000000a0: 071a 21bb d696 aa3d b15d e8bd 1a8d 733e
000000b0: d870 143e 0222 5d3e 334e 303d b0a1 bfbd
000000c0: 951a b73d 56ab d3bd 2c5a 09bd 8eef d63d
000000d0: 8c67 1cbe fe77 99be 9a2d 0b3e e0f9 04bb
000000e0: a023 89bd 79a7 203e bf0d da3c fc0c 153d
000000f0: 0561 523e 81eb b43a 5018 2e3e ebfb 0cbe
00000100: 2964 c53d 8e0c c03e 5fd3 5c3e 769b 8fbe
00000110: 2ec9 5a3e 2d58 c43d 2e5d a83d 74e7 c23d
00000120: f6b9 c73e e472 9a3d 8cd4 603e c5bc 68be
00000130: 60be b2bc 25f6 bcbd fc66 febc b55b 353e
00000140: b11a cdbc c9e7 e6bd d832 11be 308f d23d
00000150: a67c 3cbe f5c8 4f3b 97d7 2bbe 6baa e23d
00000160: 39c9 f4bc 19b4 b4be 11e7 1e3e 043d eabd
00000170: 91b0 1e3e 551d 3f3e 855c b7be 439b 92bd
00000180: fff8 adbd 21d4 6a3d 2c45 bc3e c356 593d
00000190: 5ead 9abe b4e2 8fbd 3437 8f3d b879 14be
000001a0: c527 2dbd 621a 6fbc 044b 28be 8919 51bd
000001b0: e438 c3bd 39d3 893d bbbb 2bbd f710 9cbe
000001c0: 26f8 95be 313e 9fbe ad70 b83d f3d2 92be
000001d0: 5b62 e03d 7300 79bc 1cee 1d3d 7446 0dbd
000001e0: 85a8 7fbd 6861 6dbe 8858 583e 5cf7 b8bd
000001f0: 11de dabd 29d7 643d 44b0 053e 5cc6 483e
00000200: bc98 833b 2139 47bb d63f 8e3e a9e1 5fbd
00000210: b34e 513e eb3c ac3a 0350 7a3d 2ac7 47be
00000220: 4a86 263e 86f7 82bd da4e 25be 2919 acbd
00000230: d295 81be e442 29bd 5f67 8a3d 59f5 73be
00000240: e83a ed3d 27aa 373e 4e6b e0bd c373 6fbe
00000250: 4d4a 9cbe bb45 6a3d 47df 35be 0dac 683e
00000260: f95b cebe c50f ee3c 82b9 79bd a981 86be
00000270: db6c 303d 4f86 74be ffe6 793e 1dd5 543d
00000280: 9593 3abd 1600 0d3e eeec 78be 5119 33bd
00000290: e01a d5bc e5fa 87bd 2ef9 4fbe 00e0 353e
000002a0: fccf a5be 5dee 19be 1410 b73c 76ae a73d
000002b0: 1609 d63e 8048 a53e c079 e53e f08a 91bd
000002c0: aca6 47be 37e6 e43c 3ad0 8a3d 5725 153e
000002d0: 153f 6dbd e18b 723d 865c 88be f6db 01bd
000002e0: a59e 673d 39c2 3bbd 93aa 403d ee5b 153e
000002f0: 1c46 d5bd c574 0b3e eead 37bd b10f d33d
00000300: feb2 0f3e 3503 133e 2b35 203e b6d3 18be
00000310: a256 0ebe d997 0f3d 44a1 91bc d84c b43e
00000320: a66b 5c3e e0e8 7f3d c762 9dbc b3eb 813e
00000330: 0a75 753d 724e fb3d f157 983d 52bd 9b3d
00000340: 3bef 253e 271e 593e bb04 583e e9ae ddbd
00000350: f0ea be3e 6f93 613d 13ec 8f3e 74b5 27be
00000360: 21bd 133c bafe a1bc 28ce 183e 8c6b 0e3e
00000370: d6a7 a73c 02bc 03be 74cc f3bd 2a3b 44be
00000380: ea64 2c3f c3e4 243e 5ba6 013d 27c9 57be
00000390: 4550 5e3e 9830 c6bd 49b6 5fbe 3902 a9bd
000003a0: 7e07 1fbe 8432 c7bd ffe0 0dbc 1680 273c
000003b0: 2f77 d03d 94d5 e33d 920a febc 9b6b eabd
000003c0: 5683 5cbe c8a4 cebd b92a 573e 5350 ac3c
000003d0: 88dc 4cbe 4f82 fdbd 0984 d3bd b3b5 7fbd
000003e0: 5ef8 d3bc 784e 90be f6f0 b4be 5a01 e33d
000003f0: 7256 4a3c 833c 2abd ccf5 f0bd 7a36 273d
0.119948246 0.007939165 0.31267178 -0.2868533 -0.25064534 0.51779467 -0.0028926956 0.17086495
-0.07120956 -0.006974435 0.27935192 -0.032734588 0.012430662 0.33184147 -0.20244808 -0.1916521
-0.26182333 -0.012401803 -0.08167958 0.1594961 0.12051665 0.13334332 0.02593308 0.09627797
-0.053629667 -0.28779 -0.07523942 0.08756317 -0.36994097 0.026259769 0.080853015 0.025468724
-0.2637266 -0.35987964 -0.11961937 0.15235578 0.19868265 -0.06385415 -0.25471517 0.01293212
-0.0024582164 0.08329551 -0.11345995 0.23784295 0.14496171 0.21595004 0.043043327 -0.09357011
0.08940617 -0.10335414 -0.03353326 0.1049491 -0.15273875 -0.2997436 0.13591614 -0.0020290539
-0.06696248 0.15688886 0.026617883 0.036389336 0.20544823 0.0013803096 0.17001462 -0.13767974
0.09638245 0.37509578 0.21565007 -0.28048295 0.21365806 0.09587131 0.082208976 0.095168024
0.39009064 0.07541445 0.2195608 -0.2272826 -0.021819293 -0.09226636 -0.031054966 0.17710765
-0.025037142 -0.11274678 -0.14179552 0.10281217 -0.18406925 0.0031705473 -0.1678146 0.11067661
-0.029881107 -0.35293654 0.15517832 -0.11437419 0.15497042 0.18663533 -0.35812774 -0.0715852
-0.08494758 0.05733121 0.36771524 0.053061258 -0.30210394 -0.07025662 0.06992951 -0.14499557
-0.042274255 -0.0145936925 -0.16434866 -0.051049743 -0.095323354 0.06729741 -0.04192708 -0.30481693
-0.29290885 -0.31102136 0.09005866 -0.28676566 0.1095626 -0.015197861 0.038557157 -0.034491017
-0.062416572 -0.23181689 0.21127522 -0.09031555 -0.10686887 0.055869255 0.13055521 0.19606918
0.00401601 -0.0030399042 0.27783078 -0.054658566 0.20440178 0.0013140714 0.06111146 -0.19509569
0.16262165 -0.063948676 -0.1614336 -0.084032364 -0.25309616 -0.041323557 0.06757998 -0.23824061
0.11583501 0.17936002 -0.10957967 -0.23384003 -0.30525437 0.057195406 -0.17760955 0.22721882
-0.40304545 0.029060254 -0.06096793 -0.26270798 0.043072563 -0.2387936 0.24404524 0.051961053
-0.0455509 0.13769564 -0.24309132 -0.043725315 -0.026013792 -0.06639651 -0.20309898 0.1776123
-0.32385242 -0.15032335 0.022346534 0.08187573 0.41803807 0.32281876 0.4481945 -0.07106578
-0.19497174 0.027941806 0.06777997 0.14565025 -0.057921488 0.05921543 -0.2663309 -0.03170391
0.05654778 -0.045839522 0.047037672 0.1458585 -0.10413763 0.13618763 -0.044843607 0.10305727
0.14033124 0.14356692 0.15645282 -0.14924511 -0.13900235 0.035056923 -0.017777093 0.35214877
0.2152544 0.062477946 -0.01921214 0.25375137 0.05992607 0.12270822 0.074386485 0.07604469
0.1620454 0.21202908 0.21095555 -0.10824377 0.37288618 0.055072244 0.28109798 -0.16377813
0.00901726 -0.019774783 0.14922392 0.13908213 0.020465773 -0.12864688 -0.11904231 -0.19163194
0.6734148 0.1610289 0.03165279 -0.21072827 0.21710308 -0.09677237 -0.2184688 -0.08252377
-0.15530202 -0.09726432 -0.0086596 0.010223409 0.101789825 0.11124721 -0.0310109 -0.11446305
-0.21534476 -0.10090023 0.21012391 0.021034395 -0.20006001 -0.1237837 -0.10327918 -0.06242914
-0.025875267 -0.28184867 -0.3534009 0.11084242 0.012349712 -0.041561615 -0.11765632 0.040823437

bias f4 [64]
00000000: b555 2fbc 5e0e 94bb 982b 79bb 2ad3 a1bc
00000010: d628 10bc dfcb 66bb 13e9 26bc e76a fabb
00000020: 84b2 88b6 d4f3 4cbc 0adf c9bb a9b4 a0bc
00000030: eec6 78bc 5545 5338 382d babc ee30 91bb
00000040: 5e7e e6bb f5ae 3ebc 7649 d8bb c253 99bb
00000050: 689b 51bc 8bf4 cabc f534 1c36 f46e cabb
00000060: a4a6 23bd 0ed9 46bc 4ef3 32ba 49bc a8ba
00000070: 2109 79ba e3aa ecba e0ce 00bc 3163 1abc
00000080: a092 44bc 27ad 8bbc 8c03 97bc 6da4 9ebc
00000090: 6e27 c6bb ad6e e0bb f7e1 80b7 4ffe 8bbb
000000a0: 7619 e8bb eddd 85bb 46a2 30ba 2946 81bc
000000b0: 71ea 5fbb 2a96 c3bb 343e dcbc 6f73 65b8
000000c0: 93f0 9ab9 4936 8fba b275 e3bb 97cd 85bc
000000d0: 425c e8ba b26e 2abc bb44 4bbb 80f1 01bb
000000e0: 026a 44bc d28a 29bc ea34 8fbb e4fd 18bc
000000f0: 47d5 bbbb 6748 d339 ca5d b4bb c8ba e8ba
-0.0107015865 -0.0045183143 -0.0038020369 -0.019754011 -0.008798799 -0.0035216731 -0.010187405 -0.0076421383
-4.073898e-06 -0.012509305 -0.0061606215 -0.019617395 -0.015184147 5.037089e-05 -0.02272664 -0.0044308817
-0.007034107 -0.011638393 -0.006600554 -0.004679174 -0.012793399 -0.02477481 2.3276637e-06 -0.0061777774
-0.039953843 -0.012136711 -0.00068264164 -0.0012873496 -0.00094999565 -0.0018056299 -0.007861823 -0.009423063
-0.011997849 -0.017050339 -0.018434308 -0.019365514 -0.006047181 -0.006849131 -1.5364012e-05 -0.0042722593
-0.0070831133 -0.0040852935 -0.0006738048 -0.015780525 -0.0034166838 -0.0059688287 -0.02688513 -5.470536e-05
-0.0002955241 -0.0010926212 -0.0069415206 -0.016333384 -0.001772769 -0.010402368 -0.0031016308 -0.0019827783
-0.011988165 -0.010348039 -0.0043703215 -0.009337876 -0.0057322118 0.00040299 -0.0055043446 -0.001775586

weight f4 [64, 134]
00000000: ebe1 993c c7cb 84be 1af7 8e3a 4549 043b
00000010: 72e5 a9bb 9500 223c c8bf 1abe 50f6 cdbd
00000020: 3304 ecbd d5ae 7fbe 9809 c23e 2ad7 ae3d
00000030: b5f8 c4bd 0f58 38be 3506 a8bd deeb 2b3d
00000040: 2f6b 25be dcb8 11bd 9804 cbbb 11e3 e43d
00000050: b07f c93a 7902 48be ca35 6a3d 1f63 99bd
00000060: 1140 febd 189a 12be b31a 37be fa8e d7bd
00000070: 3b3d ce3d 67f6 16bd dd67 583e 41a1 8d3c
00000080: a48c 5e3e 8ea9 ad3d 061c 493e fdb5 e6bd
00000090: 4dac 49bd 12d9 8f3d ea74 37bd 7133 1cbd
000000a0: 2433 e6bd 50dc 65bd a486 a3bd bd1b 663c
000000b0: 8711 58bd 6edf 2a3e 4728 76be 1445 183c
000000c0: 66cd 363b c964 373d 2604 dabd e2de 8dbd
000000d0: acdb 72bd 25ec 5ebd 88c6 4ebd 80d1 503d
000000e0: 2fd1 c3bc 1db3 87bd 8f11 d43d e608 ac3d
000000f0: ea15 083d 9bab 82bd 6032 523d 5f45 7fbd
00000100: e5b0 59bd c65a abbd f311 953d dec9 75be
00000110: 5780 3bbd 9dfe 5bbd e9ed 48bd 5c37 373b
00000120: 7b39 f6bc dd91 f6be c2e1 7e3e 898b 413c
00000130: deee 2d3e 6132 40bc 4cb0 723c dc00 3f3c
00000140: b8ea 26be 20df 26be 3c82 ba3d 0328 e43b
00000150: 1782 86bd 3de5 a03d 41bd 453d 386b 093d
00000160: 708e 01be 62d9 e8bb 91ed 07be 3102 3e3e
00000170: 2f25 21be 6803 96bd 42c9 ed3d bf6b 88bd
00000180: bce3 7dbd 9220 90bd 8e12 893d 638f ca3d
00000190: c024 d83d eb93 03be 8596 84bd 5db6 843d
000001a0: 4911 073e abfe adbd 81c8 b93d c48b 223d
000001b0: e173 4fbc c683 9d3e 6d31 5bbd 8c71 3abe
000001c0: 4438 9dbd 47c9 f23b 2339 313e 14e1 ecbd
000001d0: 1cb5 a2b8 ffc8 22bd 10bb 053a 5e2d 64be
000001e0: 7e8c 2b3e 20fb 273e eae9 4fbc 4906 fd3d
000001f0: 2ce1 433d ec3e ae3c a90c 613e 7146 9c3c
00000200: e87e 0b3c 9e14 b8bd d3f6 19be ffc0 123e
00000210: 136e d0bd 4d06 d8bd 4daa 18bd 787b 27be
00000220: 84a0 a839 20ea 4abc 9e29 09bd 0245 403d
00000230: a684 00be b9c7 803e c9a5 173d 2dcb 06bd
00000240: 3265 bf3d 5d71 103e 0dcc bd3d afe3 dfbc
00000250: 996a 243e 536a 79bd d8a9 9c3d 8092 f0bb
00000260: bb53 9fbd f4be 1cbc 2660 dcbd 0460 46be
00000270: 55e9 fe3d 244c 68bd 2616 58be b5d4 ae3d
00000280: 0c7e 883e 0523 28be 2327 833c 6ae1 3d3e
00000290: 7ac7 77be 72f9 ebbd 4e7d 20be a2d6 f1bc
000002a0: b23b 1e3e 92b1 4abd 2c6f 2dbe 76f1 4e3d
000002b0: 924b 9d3c 6ea6 cbbe 5b29 db3d 461c d13c
000002c0: 15df 0fbe 4549 4abd 75bc bf3d 9c0f 173d
000002d0: bf66 eb3d 6e8f 463d 2478 463d ef2b 28be
000002e0: 6f9f 133e d1a8 4bbe b92e 45be 8bb0 0b3c
000002f0: 30e1 013e 4ad2 0fbd c45c db3d 1976 7fbd
00000300: c483 37bc 60a8 b03d b064 00be 6fe1 223d
00000310: fe26 123e e039 533d dca0 993d 5503 c23d
00000320: 0346 d8bd 2d39 babb 9177 893d d445 603d
00000330: 9146 69be a47e 6e3e 664a 01be 7a9e 613e
00000340: a6df 3e3d 230c a13a 7bc3 c9bd 7f11 d0bd
00000350: cac2 0e3e 5274 2b3e 69b6 58be be8b 463e
00000360: 2824 4f3d 76f4 1f3e 8afd a9bc 5896 203e
00000370: 8fae 6ebd 4698 64bd 6afb 843d 5b8a 1c3e
00000380: 160c 1d3d 059a d7bd 6f85 3ebc 8401 693d
00000390: 5bc4 7abb 86ae 20bc d81c 953e c451 a6bc
000003a0: aa80 d6bc 33be b83c 42bc 7d3b 111f 70be
000003b0: 8b06 aebd 8dad 7c3d ba2a fbbd ea0a 18bc
000003c0: cd34 1b3e 108f 7bbe f101 8b3c 4ae8 573d
000003d0: c030 a1bb d32f a0bc 4c0f d0bd 00bf 92bd
000003e0: e923 1e3e 50ec 91bd 51d5 bb3d f992 f33d
000003f0: 1689 8fbc 88dc 8e3d 8862 30be 1860 a63d
0.018784484 -0.2593672 0.0010907382 0.0020185274 -0.0051848227 0.009887834 -0.15112221 -0.10056746
-0.115242384 -0.24969037 0.37897944 0.08537133 -0.096177496 -0.18002342 -0.08204309 0.041972987
-0.16154169 -0.035576686 -0.006195616 0.11176122 0.0015373137 -0.19532193 0.057180203 -0.07489609
-0.124145634 -0.14316595 -0.17881279 -0.105253175 0.100702725 -0.03685608 0.2113337 0.017288806
0.21733338 0.084796056 0.19639596 -0.1126518 -0.049236584 0.07023825 -0.044789232 -0.038134996
-0.11240223 -0.05611831 -0.07984665 0.014044699 -0.05275109 0.16686794 -0.24038802 0.009293813
0.0027893423 0.04477385 -0.106453225 -0.06927277 -0.059291527 -0.054424424 -0.050482303 0.050981045
-0.023903457 -0.0662596 0.103549115 0.08400135 0.033224024 -0.063803874 0.051317573 -0.062322017
-0.053147215 -0.08366923 0.07278814 -0.24002787 -0.04577669 -0.053709615 -0.049055014 0.002795658
-0.030056706 -0.4815816 0.24890807 0.011813053 0.16985652 -0.011730761 0.01481254 0.01165792
-0.16300476 -0.16296053 0.091068715 0.0069627776 -0.065677814 0.07856224 0.04827619 0.033549517
-0.12651992 -0.007105992 -0.13274218 0.18555523 -0.1573684 -0.073248684 0.116106525 -0.06661176
-0.061984763 -0.07037462 0.06692992 0.0989063 0.105538845 -0.12849395 -0.06474022 0.064800955
0.13190188 -0.0849584 0.09071446 0.039684072 -0.012661905 0.30764598 -0.053513933 -0.18207377
-0.076767474 0.007409248 0.17306952 -0.11566368 -7.758496e-05 -0.039742466 0.0005101422 -0.22282931
0.16752812 0.1640439 -0.012690047 0.123547144 0.047822163 0.021270238 0.21977486 0.019076558
0.0085141435 -0.089883074 -0.15035562 0.14331435 -0.10177245 -0.10548077 -0.037271786 -0.16355693
0.0003216305 -0.012384921 -0.033486955 0.04694081 -0.12550601 0.25152376 0.03702334 -0.032908607
0.09345473 0.14105745 0.09267435 -0.027330248 0.16056289 -0.060892414 0.076495826 -0.007341683
-0.07779642 -0.009567011 -0.10760526 -0.19372565 0.12446848 -0.05671324 -0.21102199 0.085366644
0.26658666 -0.16419609 0.016009873 0.1854302 -0.24197188 -0.11522187 -0.156728 -0.02952129
0.1545246 -0.04948575 -0.1693694 0.050523244 0.019201074 -0.39775413 0.10701247 0.025526177
-0.14049943 -0.04938628 0.09362117 0.03688012 0.11494207 0.04847663 0.04845442 -0.1642301
0.14416288 -0.19888617 -0.19256105 0.008525978 0.12683558 -0.035112657 0.10711053 -0.062368486
-0.011200849 0.08625865 -0.12538409 0.03976577 0.14272687 0.051568866 0.075013846 0.09473292
-0.10560229 -0.0056830854 0.067122586 0.054754093 -0.22780825 0.23290497 -0.12626037 0.2203311
0.046600007 0.0012286942 -0.09851738 -0.10159587 0.13941494 0.16743591 -0.21163334 0.19389245
0.05057159 0.15620598 -0.02075078 0.15682352 -0.05827194 -0.05580928 0.06493266 0.15287153
0.038341604 -0.10527424 -0.011628493 0.05688621 -0.003826401 -0.009807235 0.2912357 -0.02030266
-0.026184399 0.022551632 0.0038716947 -0.23449351 -0.08497342 0.06168895 -0.12264009 -0.009279946
0.1515686 -0.24566293 0.0169687 0.052711762 -0.0049191415 -0.019554054 -0.10159168 -0.071653366
0.15443386 -0.07125151 0.09171546 0.11893267 -0.017521422 0.06975657 -0.17225087 0.08123797

bias f4 [64]
00000000: b0d8 33bc 3762 04bd fafe 7abb 724a eebb
00000010: a1d7 a7bc 47e4 34ba 1497 43bc 1c46 3bbd
00000020: d482 91bc a849 5ebc 2adf 46bd f43c 68bc
00000030: 40e2 d1bc cdb1 68bc 6ef4 d2bc 09ba e2bc
00000040: 032d f5bc 24a8 abbc 23a9 8abc b90b 71bd
00000050: 080c 30bd 7533 5abd 1335 1dbb ba0f 0fbd
00000060: ca58 a3bc c4c3 18bd d935 4cbd b71b babc
00000070: b479 d8bc 9b55 11bd 5bc2 ddbc e47b b8bc
00000080: 9ae3 61bb 4622 2bbc 7968 2abc 3c32 b8bc
00000090: 68d9 99bc 0000 0000 87fd 2abc fc27 94bc
000000a0: 1541 e1bc 095b b8bb 10fe f4bc e68b 35bd
000000b0: b54d 883c 3e84 d9bc c497 8fbc 0476 c9bc
000000c0: 10bd 82bc 24fd 8ebc c508 d8bc 8bce a6bb
000000d0: 7d4d ccbc d074 afbc 386e 09bc 7931 c2bb
000000e0: 231b 21bd b124 53bc 2a5b c8bc 86e7 45bd
000000f0: 7c7c 33bd 0572 1f3b b7b7 e43b cc17 22bc
-0.010976955 -0.032320227 -0.003829895 -0.007272058 -0.020488562 -0.0006900471 -0.011937875 -0.04572116
-0.017762579 -0.013567366 -0.04855267 -0.014174689 -0.02562058 -0.014202547 -0.025751319 -0.0276766
-0.02992869 -0.0209542 -0.016926354 -0.05884907 -0.042980224 -0.05327173 -0.0023987934 -0.034927107
-0.019939799 -0.03729607 -0.04985604 -0.022718294 -0.02642522 -0.03548203 -0.027070215 -0.022520013
-0.0034467936 -0.010445183 -0.010400885 -0.022484891 -0.018780425 0.0 -0.010436422 -0.018085472
-0.027496854 -0.0056260866 -0.029906303 -0.04432287 0.016638616 -0.026552316 -0.017528422 -0.024592407
-0.015959293 -0.017454691 -0.02637137 -0.00509054 -0.024939293 -0.021418005 -0.008388095 -0.0059263078
-0.03933252 -0.012887166 -0.024457533 -0.0483165 -0.04381989 0.0024329436 0.0069799083 -0.009893369

weight f4 [64, 64]
00000000: ff5f f13d ec7f 8abe 776c 21be fefc 433d
00000010: 6765 55be e44c 4d3b afbf ce3c 840c 9abe
00000020: 36fb 54be 4f76 243c a97f 303e ca88 88bc
00000030: fba1 183d c097 133e e25a 6c3e a45c 693d
00000040: ea63 d83d 6a39 4e3e 9658 a6bd 248d 2e3e
00000050: fdf1 67be 5aae 993e ec20 d9bd 1fd6 c8bd
00000060: 0fe9 a0bc b901 04be 24fd 3b3e aac3 923e
00000070: 96fa 21bd 436d a6bd 1c5f 4c3e cad9 f33d
00000080: f9cd b23e ffb8 5a3e 6023 543e 47a1 10be
00000090: 7022 96bc 90b0 65be 152d 023c 82d1 583e
000000a0: d6b5 5cbe 04c4 493e caca 9cbd aa30 9e3d
000000b0: 2ac9 863e 146b f1bd d5a9 c8be 573b 903e
000000c0: 2c47 553d 9e60 afbd c549 d4bd 658d 83bd
000000d0: 8d5b 35be 1049 34bd f1cc 1f3e 8853 923e
000000e0: b2bb 01bc 7032 e23d 48a0 1c3d 183a 4b3e
000000f0: 2772 80be 9ebe 8fbe 1e6d 13be a6cc 82bd
00000100: 5f7e f3bb 0893 4f3e 2731 d03d 9ebc 123e
00000110: fc60 913d a8c5 973d 54b0 33be cd6d 63bd
00000120: 44d4 0f3e 7597 8c3e d65e 223e 8141 423e
00000130: db06 a43d f0e7 ad3d 1c03 913e 7dd7 25be
00000140: 0925 c53d 28d7 783e 51e6 4ebd 2fc3 71be
00000150: 0eac 65be 2af0 adbd f7ba 1bbd 9f22 c73e
00000160: 05e0 3e3e dc7c 5b3d 7537 453e 6420 0e3e
00000170: f197 18be 1857 abbe f354 513d 8a29 88be
00000180: bf87 bebd 7782 d43d d4c8 84bd e9bc 89be
00000190: c694 9c3d 3d61 103e 0fb1 de3d 8ce5 3ebd
000001a0: 41e7 fbbc 9fa1 5c3e 1bb0 603d b49e cfbd
000001b0: c9ba 09bc 447d 54bc 3cf0 39be fd3d 94be
000001c0: 0ea0 7ebe 6ce6 61be 3cd1 96be b01d c83c
000001d0: aae4 25be b973 823c 2c80 c8be 2fed 93be
000001e0: 2645 883b b1fe c2be a349 f83c 70fb 97bc
000001f0: c94f 7abd 01c1 efbd 4f89 33be 8a16 ccbc
00000200: 73bb 08be 2303 873d 5bff 6ebe 95d8 d93e
00000210: 9e8f 5dbe ae4b 0a3e 1543 d5bd 285a aa3d
00000220: 8b2d 863e a5e7 debc 713a c13d ac1f 213e
00000230: c042 1d3d 88b4 21be b85a 1dbe af5a 7cbc
00000240: 9bbd f3bd df74 88be f90b af3d ae2e ce3a
00000250: dfb2 59be e843 0c3e 16eb 05bd 3301 163e
00000260: 992e 82ba 880b 95be a4b5 16be b304 34be
00000270: 8ad7 29be b66f 0ebe c1dc b5bd b8da e83c
00000280: 2008 16be c03c 2d3d fbc3 e4bc 4aa2 013e
00000290: fd5a a2bb 2639 dc3b 9c74 cfbd 08c5 333e
000002a0: 47f0 2e3e 7082 c93e 73f0 fe3c 15c5 db3d
000002b0: 345b c63e 5384 aebc bda1 fbbc 7fed 52be
000002c0: dc26 9a3e f419 70be d8f9 4b3d eaa6 e93e
000002d0: ffe4 593e 44f5 033e d00d 353e 4c2d 133d
000002e0: 2465 89be 0c27 f23c 84b5 d33d 5150 d9bd
000002f0: 658e 853d 8048 69be 5030 0b3e 8b83 453e
00000300: 2e5d 6f3c e513 2f3e cc43 093e 7ccc 0b3e
00000310: a319 1b3d 03cb 963c 4a16 793e 46ac 1abe
00000320: 033b 62bd dd2b 793e c72a ea3d 6592 1b3d
00000330: ac48 793e 9bc0 d73d 86f8 223d ac8c e2bb
00000340: b373 7abe 9853 4a3e 0546 5bbe 386c 963d
00000350: 19c1 5c3e 9217 8b3d fb61 5d3d 385a 91bd
00000360: f3c4 d7bd 88a1 4ebe a20b 493c f875 5d3d
00000370: be6e b3bd 44e7 493e 1ef6 57be 301b 983d
00000380: 1af9 d4bd 9c33 03be 54cd 0bbd 5d07 75be
00000390: 04ad 9cbe 8ad8 c2bd fa38 e23e 9dca b83e
000003a0: c31b a03d 8b36 b7be e587 c33d 2345 0fbd
000003b0: 259f 69bd 08d3 50be 1d61 0bbe fa97 53be
000003c0: df74 ab3c cfeb 7fbb 46f9 883d 4ec2 a03d
000003d0: ee13 d03e 5b8f c93d f56d 78be 5b76 973d
000003e0: 392a 8fbe bef4 433e 05c9 7d3d 82c5 88bd
000003f0: 8290 853d 2a69 a8bd ca8a cfbe 055d 9f3d
0.11785888 -0.27050722 -0.15764032 0.047848694 -0.20839463 0.0031326348 0.025237886 -0.30087674
-0.20798954 0.010037973 0.17236198 -0.016666789 0.03726385 0.14413357 0.23081544 0.056973115
0.10565932 0.20139089 -0.08122365 0.17046028 -0.22650905 0.30015832 -0.106019825 -0.09806465
-0.019642381 -0.12891282 0.18358284 0.28664905 -0.039545618 -0.08126309 0.19958156 0.11906774
0.3492277 0.21359633 0.2071662 -0.14124022 -0.018326968 -0.22430634 0.007945319 0.21173671
-0.2155374 0.1970368 -0.076558664 0.07724126 0.2632535 -0.11788002 -0.39192072 0.28170273
0.052069828 -0.0856335 -0.10365633 -0.06423453 -0.17710705 -0.04401499 0.15605523 0.28579354
-0.007918285 0.110447764 0.038238794 0.1984638 -0.2508709 -0.28075117 -0.14397094 -0.0638669
-0.007430836 0.20270932 0.10165625 0.14329764 0.070985764 0.07410747 -0.17547733 -0.055524636
0.14045817 0.27459303 0.1585649 0.189703 0.0800912 0.08491504 0.28322685 -0.16195484
0.096262045 0.24300826 -0.050512616 -0.23609613 -0.22428915 -0.08493073 -0.0380201 0.388936
0.18640144 0.053585872 0.19259436 0.13879544 -0.14901711 -0.33464885 0.051106405 -0.26594192
-0.09303235 0.10376447 -0.064836174 -0.2690194 0.07645564 0.14099593 0.10873615 -0.04660563
-0.030749919 0.21546029 0.054855447 -0.10137692 -0.008406349 -0.012969319 -0.18158048 -0.28953543
-0.24865744 -0.22060555 -0.29456508 0.024428219 -0.1620051 0.015924321 -0.39160287 -0.28891894
0.0041586338 -0.3808494 0.03030855 -0.018552512 -0.061111245 -0.117067344 -0.17532848 -0.024913091
-0.13352756 0.06592395 -0.23339598 0.4254805 -0.21636817 0.13505432 -0.104131855 0.08317977
0.26206622 -0.027210066 0.09434975 0.15734738 0.038393736 -0.15791523 -0.15366638 -0.01540248
-0.11901399 -0.26651666 0.085472055 0.0015730464 -0.2125964 0.13697779 -0.0326949 0.14648895
-0.00099321 -0.2911036 -0.14717728 -0.17579918 -0.16586128 -0.13909802 -0.08879996 0.028424606
-0.14651537 0.042294264 -0.027925482 0.12659565 -0.0049546943 0.00672068 -0.10129663 0.1755563
0.17083846 0.39357328 0.031120514 0.1073095 0.38741457 -0.021303331 -0.030716771 -0.2059841
0.30107772 -0.234474 0.049798816 0.45635158 0.21278761 0.1288653 0.1768105 0.03593187
-0.26834977 0.029559635 0.10337356 -0.10611022 0.065213 -0.22781563 0.13592649 0.19288461
0.014609618 0.17097433 0.13404769 0.13652223 0.037866246 0.01840735 0.24324909 -0.1510478
-0.05523206 0.24333139 0.114339404 0.03798141 0.24344128 0.105347835 0.03978779 -0.006913742
-0.24458198 0.19758451 -0.21413429 0.0734486 0.21558036 0.06791605 0.05404852 -0.07097286
-0.10535612 -0.20178807 0.01227084 0.054067582 -0.08761357 0.19717127 -0.2108998 0.074270606
-0.10399075 -0.12812656 -0.034131363 -0.2392859 -0.3060075 -0.09513958 0.44184095 0.36092082
0.07817795 -0.357838 0.09547404 -0.034978043 -0.057036538 -0.20393002 -0.13611265 -0.20663443
0.020929752 -0.0039050465 0.0668817 0.07849561 0.40640205 0.09841796 -0.24260695 0.073956214
-0.279619 0.1913633 0.061959285 -0.066782966 0.06521703 -0.082231835 -0.40535575 0.07781414

bias f4 [64]
00000000: 27c0 99bc 48aa 94bc 0add 2bbc ad55 8cbd
00000010: 778f 0fbc 953d 67bc e168 f5bc dd0d 94bc
00000020: bd9e 90bb 170c a5bb 0ae8 06bd 3e15 68bd
00000030: 2138 44b9 d1ae 5abc 7d6c 66bc 0b2c 91bb
00000040: e93c 58bd c5bb 01bd a9f6 92bb e261 abbc
00000050: a166 27bd 7ddd 0ebc 7016 c7bc c79c 3abc
00000060: 6df8 e5ba 320f adbc da61 f9bc dd9c 403c
00000070: 4eb1 b03c adb6 dabc 9db8 9dbc 4a9c 5abd
00000080: 920b 823b acda 3dbd e2d1 073b d6de cebb
00000090: aeb6 19bd 7662 24b8 6e1f 2f3c 7b5c 9b3c
000000a0: b792 cdbc d66f 563c ddaf a43c 276f 153c
000000b0: f6ec d1bb a7fe febb 14bd 0ebd fa67 ab3c
000000c0: 2b5b 0fbb 5606 ae3b c584 e0bc 00e1 9bbc
000000d0: 1db9 f5bb 585b aebc 862d 313c ba44 f538
000000e0: 9c3c 47bc af54 21bd ee92 b13b da1a 84bc
000000f0: 8c1b e0bb e3b2 c0bb 0564 37bd 37ad b7bc
-0.018768383 -0.018147603 -0.010489712 -0.06852279 -0.008762232 -0.014113803 -0.029957237 -0.018073017
-0.0044134543 -0.0050368416 -0.032936133 -0.056660883 -0.00018712926 -0.013347344 -0.014063952 -0.004430299
-0.052792463 -0.03167321 -0.0044849706 -0.020920698 -0.04086936 -0.008719799 -0.024302691 -0.011389918
-0.001754535 -0.02112541 -0.030442167 0.011756149 0.02156892 -0.026698435 -0.01925307 -0.053371705
0.0039686644 -0.04635112 0.0020724465 -0.006313185 -0.037527733 -3.9192346e-05 0.010688646 0.018964997
-0.025094373 0.013088187 0.02010339 0.009120739 -0.006406422 -0.007781822 -0.034848288 0.020923603
-0.0021874409 0.005310814 -0.02740706 -0.019028187 -0.007498874 -0.02128379 0.010814076 0.00011695312
-0.0121604465 -0.0393874 0.0054191267 -0.016126085 -0.0068392213 -0.0058807 -0.04477312 -0.022421462

weight f4 [1, 64]
00000000: fd9f 44bc 470b 9dbe ff36 4ebb 6053 c53d
00000010: 8766 353c 454d 37bd 3003 e9bd 79f0 f3ba
00000020: 5a78 643c 1ee1 c0bc ba45 963e cca1 76ba
00000030: 0ce0 f43c 6d83 30bc 7366 b4bb fcfb 5bbd
00000040: 3f1b b53c 59b4 443e 3080 363e 3cb8 dcb9
00000050: 0d87 15be 2b39 b23d 67f3 5bbe 6949 8dbc
00000060: 600b fb3c 7071 b0bc be5e 11bb 5a1b cc3d
00000070: 4873 04be 6c94 89bc 1580 cb3c 12d6 b4bd
00000080: 3f95 10bc ba86 243e 96f2 a83d c89c 0b3b
00000090: 3dbc 89be 35a4 1cbd 9b14 883e 1d00 58bd
000000a0: 1ca3 913c d385 83bd afbd 803a b129 28bd
000000b0: 7e49 5fbc ebd8 20be d85f c7bd 1c12 1cbd
000000c0: 3e23 d33d 5850 00be 2fe6 223c 7195 1bbb
000000d0: d345 f83d 989f 1f3b 6cf8 5ebe 7ba4 66bd
000000e0: f673 123b fb5b 973c 9f43 2ebd 6ff9 0c3d
000000f0: 438a 4f3d 28f3 0e3e 9234 143e b5b6 cbbd
-0.012001035 -0.30672666 -0.0031465886 0.09635043 0.011071808 -0.044751424 -0.11377561 -0.0018611095
0.01394471 -0.023544844 0.29350072 -0.0009408265 0.02989199 -0.010773522 -0.005505377 -0.053707108
0.022107719 0.19209422 0.17822337 -0.00042098935 -0.14602299 0.0870231 -0.2147957 -0.017246919
0.030645072 -0.021538466 -0.0022181715 0.099661544 -0.12934601 -0.016794406 0.024841348 -0.08829893
-0.008824646 0.16067019 0.082493946 0.0021303166 -0.26901427 -0.038242538 0.2657822 -0.052734483
0.017777972 -0.06422009 0.0009822155 -0.041055385 -0.013628362 -0.15707748 -0.097350776 -0.038103208
0.10309456 -0.12530649 0.009942575 -0.0023740197 0.12122693 0.00243566 -0.21774453 -0.056309205
0.002234695 0.018476477 -0.042544957 0.034417566 0.050668966 0.13959944 0.14473179 -0.09946958

weight f4 [5, 64]
00000000: f9dc 033c d193 903c e063 8abc 8475 d3bb
00000010: 5264 21ba 5f52 d53b 802e 3b39 865d 15bc
00000020: a997 c5b9 8220 bcbb d84a 9d3a a4db 4fbb
00000030: 27cb fb3b 2356 87ba 75f5 2bba f6ca 533b
00000040: 2f06 553b b1fa f23b 7097 3fbb 98af 41bc
00000050: 6a54 f13b 1e55 1e3b bf40 7b39 03ed b93b
00000060: e53b be3b 06a5 c139 5eb4 203b 9d37 bb3b
00000070: 3c4f 4dbc 2212 893a 0680 5e3b 1122 c63a
00000080: 9782 853b f625 6fb9 2a71 2f3b 7391 11bb
00000090: f7ba 813a acc9 0a3b 6e70 113a 3af1 883c
000000a0: aeb8 6cba ec0f 323c d170 19bc c90f 0bbb
000000b0: 5395 3abc 7d3a 14bb 2e43 d03a 9fb2 3c3b
000000c0: 252c b9ba 794f 3ebb 74e0 d139 d2ae ca3b
000000d0: 0544 1cbc 69d6 c9bb 74ed bdbb 6109 2ebc
000000e0: 65c2 6c3b b925 953a 16ef ca3b e156 04bc
000000f0: 31e3 533b d5a4 20bc 1f85 483a 1a52 c43a
00000100: 4ad9 b9bb eff3 913b b7a2 61bc 964a d8bb
00000110: 0ec4 e53b 2738 66bc 02a6 4d3c cf78 563b
00000120: 2ed9 0c3b 4f15 e0bb a7d8 16bc 8286 183c
00000130: b112 37bc 697a 8dba 8fcc f33b b36f 7abc
00000140: 64e9 b53b f908 beba 87ae 5f3b 6b8b 553c
00000150: 2bfd efbb 26f2 6ebb 2118 b43a d803 06bb
00000160: d167 a23b 3504 f13a 8356 f1bb 6424 dabb
00000170: 584f fd3b 82e5 b1ba 5e93 073c cc72 273c
00000180: 0477 873b c615 813b 5840 7bbb 36e8 ad39
00000190: 31ec 3a3a 6623 31bc d1b1 bbb9 6b6f 74bb
000001a0: a152 cd3b 2b2f 84bb b127 293b 02be bb3a
000001b0: 1c52 523c 966b 92bc 02d6 0f3a 44fd ec37
000001c0: 89d0 be39 7dba e2ba a078 78bb 9482 093b
000001d0: 2651 24bb ccf5 573a 9f7d c5bb 2b29 c3b9
000001e0: 6a0b a8b6 a120 393a 6c84 4dbc be7b 2bbc
000001f0: e617 1bbc d03f 60ba aa8f d7bb 253f d0b8
00000200: 61b7 de3b 847e a5ba b610 003c 3c67 2b3b
00000210: 40b2 173a f2b0 28bb de37 e1bb c781 02bc
00000220: 21b2 a839 eb6a 94ba ec98 02bb 1908 223a
00000230: b485 c7b9 32db d3ba aa28 903b 176a 5fbb
00000240: 81a0 9abb 37d4 2d3c 46d9 3e3c 38fe 3e3a
00000250: 93c7 d63b 58b3 5d3b 20ec c639 36bc 343b
00000260: 74c0 f8ba d868 a9ba 4fc9 24bb c0ea e73b
00000270: 3993 e139 ac1d 57bb 55d3 e9bb ef07 2ebc
00000280: ad5b 8bb9 0944 2f3c 9ff2 36bb 25b8 4dbb
00000290: 8d25 75ba 9fe4 e53b 24b0 ec3a eac0 93bb
000002a0: e650 573c d722 b7bb cabb d53b 624c eebb
000002b0: d027 303a 1243 243d f7ce b63b 148c fb39
000002c0: ae4a 203c eb0b e03a 1297 bb3b 0ad4 38bc
000002d0: b082 983b 3e72 23ba ee37 d1bb 5645 0f3c
000002e0: c549 583b 1272 8ebc b64a 62bb 4810 833c
000002f0: ad9f 17ba 6d1f 243c 4a45 a13b 71e8 283b
00000300: adda 2ebc e9ec 53bc 1017 423b 214e ae3b
00000310: 502e 8bba c188 e63a b51c 9fbb 8ca6 3f3c
00000320: 0047 d2b9 06d1 5e3c fee4 8eba b88e 8c38
00000330: 02a1 833b 7726 fc3a f5e2 8dbb 01d7 543c
00000340: f1df ef3b 9ece 03bb cd4a 31bc 571e 4b3c
00000350: c386 17bb 0447 32bb f2a5 cbb9 1edc 5dbc
00000360: ad2d 43b8 f3b6 003c 0d45 ed3b 427c a33b
00000370: dbee d73b 5377 efba 2bc1 0abb 4ce7 2d3c
00000380: ca9d 4239 6371 55bc 30ae 853b 291b 6abb
00000390: efde 24bc 731c bbbb 86c3 18ba 71c9 643b
000003a0: 68fa c2bb 72c9 fb3a 1338 a4bb 939c 4e3c
000003b0: 582a a7ba 71f9 50bc 8e20 01ba 8de6 5bbb
000003c0: e738 2ebc 1491 27bb 135d 0c3c c773 c53b
000003d0: bd00 e63b 9009 963b 3a29 603c 796a d73b
000003e0: 16cb 81bb e5e8 3c3c 4faf e73b 2e47 e73b
000003f0: fc52 a3bb ce03 8bbb b31e 9c3b d21c c8ba
0.008048289 0.01764861 -0.016893327 -0.006453218 -0.00061566115 0.0065100635 0.00017851032 -0.009116536
-0.00037687764 -0.00574118 0.0012000455 -0.003171661 0.0076841298 -0.0010325353 -0.0006559708 0.003231702
0.0032504906 0.0074151387 -0.002923455 -0.01182165 0.0073647993 0.002415962 0.00023961345 0.005674006
0.00580548 0.0003693478 0.002452157 0.0057134167 -0.012531098 0.0010457675 0.003395082 0.0015116354
0.0040744054 -0.00022806958 0.0026770332 -0.0022211939 0.0009897639 0.0021177335 0.00055480644 0.016716588
-0.0009030205 0.010868054 -0.009365276 -0.0021219125 -0.011388141 -0.002261787 0.0015889162 0.002879299
-0.0014127536 -0.0029039069 0.00040030817 0.006185391 -0.0095377015 -0.006159593 -0.005796129 -0.010622353
0.003612661 0.001137904 0.006193052 -0.008077354 0.0032331462 -0.009804924 0.0007649231 0.0014978081
-0.005671655 0.004454128 -0.013771704 -0.006600688 0.007011897 -0.014051474 0.012551786 0.0032725816
0.0021491754 -0.0068384777 -0.009206927 0.009309413 -0.01117389 -0.0010793927 0.007440157 -0.01528542
0.005551504 -0.0014498524 0.0034131126 0.013033728 -0.007323881 -0.003646025 0.0013740101 -0.0020449068
0.0049562235 0.0018388095 -0.0073650493 -0.00665717 0.007730406 -0.0013572427 0.008274881 0.010220241
0.004134061 0.003939363 -0.0038337912 0.00033170142 0.0007130532 -0.010811662 -0.00035799903 -0.0037297856
0.0062659536 -0.004033943 0.0025811011 0.0014323595 0.012836959 -0.017873567 0.0005486907 2.8251328e-05
0.00036394995 -0.001729801 -0.0037913695 0.0020982372 -0.0025072782 0.0008238226 -0.006026938 -0.0003722397
-5.008119e-06 0.0007062052 -0.012543779 -0.010466514 -0.009466147 -0.00085544307 -0.0065784054 -9.9299745e-05
0.006796763 -0.0012626206 0.007816484 0.0026154062 0.0005786754 -0.0025740233 -0.006873115 -0.007965512
0.00032176173 -0.0011323368 -0.0019927574 0.0006181016 -0.00038055854 -0.0016163348 0.004399379 -0.0034090334
-0.0047188406 0.010609678 0.011648482 0.00072858064 0.006554553 0.003382882 0.0003794143 0.0027578003
-0.0018978254 -0.0012924923 -0.0025144403 0.007077545 0.00043025034 -0.0032824082 -0.0071357884 -0.010622009
-0.0002658045 0.010697373 -0.002791561 -0.0031390276 -0.0009351604 0.007015779 0.0018057865 -0.004509081
0.013141846 -0.00558887 0.0065226303 -0.007272289 0.00067198 0.040103026 0.0055788714 0.00047978817
0.00978343 0.0017093396 0.005724796 -0.011281023 0.004654251 -0.000623498 -0.006384841 0.008744558
0.0033002954 -0.017388377 -0.0034529394 0.015998974 -0.00057839864 0.010017258 0.00492159 0.0025773311
-0.010672254 -0.012934902 0.0029615797 0.0053193723 -0.0010618661 0.0017588363 -0.004855717 0.011697423
-0.0004010722 0.01359964 -0.0010901985 6.702304e-05 0.0040169964 0.0019237538 -0.004330034 0.012990714
0.007320397 -0.0020112167 -0.010821057 0.01239737 -0.0023121096 -0.0027202973 -0.00038842816 -0.01354125
-4.653416e-05 0.0078561185 0.0072408975 0.004989178 0.006589753 -0.0018269814 -0.0021172266 0.0106142275
0.00018560063 -0.013027522 0.0040796027 -0.0035721755 -0.010062917 -0.0057101785 -0.0005827475 0.0034910107
-0.005950261 0.0019209816 -0.0050115674 0.012610572 -0.0012753708 -0.012754784 -0.00049258105 -0.0033554167
-0.010633684 -0.002556865 0.0085671125 0.0060257646 0.007019131 0.0045787767 0.013681704 0.006573972
-0.0039609773 0.011530136 0.007070459 0.007058046 -0.0049842577 -0.004242397 0.004764402 -0.0015267378

bias f4 [5]
00000000: 0eac 29ba 3842 ca3b 9c1b 6a3b dd93 23bb
00000010: 3a2f 87b9
-0.00064724765 0.0061724447 0.0035722023 -0.002495996 -0.00025784393
