model/medium-2/IA2C/model_agent1_seed1.pt (torch, 109505 bytes, 11 tensors)

weight f4 [64, 134]
000000 81 38 cd bd 2e 29 89 bd 39 99 07 3d 68 0f 26 3c
       -0.10020543 -0.066973075 0.03310511 0.010135509
000010 4a e9 64 be 15 17 31 3d 20 95 50 bd c2 0e c2 3d
       -0.22354618 0.043234903 -0.050923467 0.09475471
000020 d4 e9 74 bd 0d 93 1c 3e c2 34 34 3e e1 7d c2 bd
       -0.05979331 0.1529047 0.1759825 -0.09496666
000030 40 e2 07 be 61 61 c6 3d 7f 8a 5a 3d c0 d0 a4 3d
       -0.13269901 0.09686542 0.053354736 0.080476284
000040 97 54 2d 3e a1 65 4c 3d 3d 31 a4 3c 3a e6 4f bd
       0.169268 0.04990161 0.02004301 -0.05075667
000050 8d dc e0 3c ea 90 3c 3e a0 8e 77 3b b8 16 19 be
       0.027448917 0.18414655 0.003777422 -0.14950073
000060 43 0e 65 bc e8 e6 f6 3c 12 3f 62 bc ec 79 8c bc
       -0.013980451 0.030139402 -0.013808982 -0.01714798
000070 21 06 3b bd 0e d1 82 bd 33 d7 16 be 9c 54 47 be
       -0.04566014 -0.0638753 -0.1473053 -0.1946587
000080 a2 1a 9b bc 55 c8 99 3c 43 33 ac 3d 73 8c 18 3d
       -0.018933598 0.018772284 0.08408215 0.037243318
000090 26 98 91 bc 83 72 4b 3d d5 f1 b7 3a a9 a3 3d bb
       -0.017772745 0.049669754 0.0014033864 -0.002893666
0000a0 ff cf 80 3d 96 df 97 be 70 1e 36 3e 37 14 8c 3e
       0.06289672 -0.2966277 0.17785048 0.27359173
0000b0 cf 37 71 3d 66 c1 34 be 8e f2 94 3b 2c da 8f 3d
       0.058891114 -0.176519 0.0045455163 0.07024035
0000c0 8c b3 1b be 43 cf 89 bc a0 09 ab bc 0f 9d 27 3e
       -0.1520521 -0.016822463 -0.020878613 0.16368507
0000d0 7c bc 67 3d 7b 6c 16 3c c5 0f 01 3d 36 d0 28 3e
       0.056576237 0.009181137 0.03150918 0.16485676
0000e0 63 3a c0 3d 15 42 bf 3d 16 7a 6c 3d 0b 33 85 3c
       0.093861364 0.09338776 0.057733618 0.01625969
0000f0 8e fc 46 3e ea 49 8b 3d 90 77 41 be 90 a6 b3 be
       0.1943228 0.06801207 -0.18893266 -0.35088015
000100 00 f1 7c 3d 6d b2 5c 3e 95 78 12 be fc f8 bb bc
       0.061753273 0.21552439 -0.14303811 -0.022945873
000110 30 91 16 3e 7a a1 9b bd bf 84 0a be 06 16 a0 3c
       0.14703822 -0.075991586 -0.13527201 0.019541752
000120 12 29 50 be a9 5a 28 bd d9 44 32 3e 20 58 a9 3d
       -0.20328167 -0.041102085 0.17409076 0.08268762
000130 dd 93 b6 3d bd db 5c bb e8 74 15 3c 95 e9 da 3d
       0.089149214 -0.003370031 0.009122111 0.106890835
000140 18 08 86 3e 44 2a 34 bd 2a 9d 21 3d 72 12 3d 3d
       0.2617805 -0.04398562 0.039456524 0.04616017
000150 a6 31 11 3e ba 3f 42 3e 93 8c 74 bd 2a 44 27 be
       0.14179096 0.18969622 -0.059704375 -0.16334596
000160 04 46 54 be 97 94 b6 3c 50 ae 25 3e d1 95 53 be
       -0.20729834 0.02228765 0.16179776 -0.20662619
000170 2f 62 3e be 1e 65 f6 bd ca e6 85 bd b0 6d 18 be
       -0.18592142 -0.12031005 -0.0653816 -0.14885592
000180 3f f2 cf bc 38 49 4b 3d 3d b2 51 bd cb b9 c7 3d
       -0.025384067 0.049630374 -0.051195372 0.09752234
000190 85 b4 89 bc dc 7a 62 3e 52 7a 44 3c be 55 f9 3d
       -0.016809711 0.2211718 0.011992054 0.12174557
0001a0 d9 4f 1c 3d 19 e4 70 3e 02 7f d8 3d 1a 05 68 3d
       0.038162086 0.23524512 0.105711 0.05664549
0001b0 72 9c 17 3d c6 91 b0 3d ec 54 c8 3d c2 53 4b bd
       0.037014432 0.08621554 0.097818226 -0.049640425
0001c0 d5 87 39 3d 3c 70 1f 3c 92 de 55 3e ec 3b 00 be
       0.045295555 0.009731349 0.20885685 -0.12522858
0001d0 ff b0 8b 3d af 88 ab ba 3b 34 38 3d b3 f1 40 be
       0.06820869 -0.0013087 0.044971686 -0.18842201
0001e0 2e de 4c bc d7 4e be 3d 4e 73 d5 bc c4 7d 49 bd
       -0.012504144 0.09292381 -0.026055958 -0.049192205
0001f0 f0 44 1a 3e 2a aa cc bc 06 d3 09 be 46 7c 02 be
       0.1506536 -0.024983484 -0.13459405 -0.12742719
000200 88 38 87 3d d3 7c 94 be b5 96 ce bd 99 22 72 3e
       0.06602579 -0.29001483 -0.10087339 0.2364601
000210 68 e9 4d bd 34 12 48 3e c5 76 fa bd 8f 2a 1f 3d
       -0.05027142 0.19538194 -0.12229685 0.038858946
000220 bd 8c 64 3d ed 8c b1 bc 72 b7 31 bc 8d e1 ac be
       0.05579828 -0.021673644 -0.010846959 -0.33765832
000230 c4 da 9e be 95 84 48 bb 20 1d 86 be cf 3c 68 3d
       -0.3102628 -0.0030596603 -0.26194096 0.056698617
000240 56 a2 be bb 87 9c 07 be 0f ae 81 3d 6e 6c f6 bd
       -0.005817692 -0.13243304 0.06332027 -0.120324
000250 91 ed 9b 3b 46 84 9e 3b d5 26 91 3c 4c 33 98 3e
       0.0047585447 0.0048375456 0.017718712 0.29726636
000260 ef 9c 12 3e c8 78 84 be db a7 2a 3e b8 fd 12 be
       0.14317678 -0.258734 0.16665594 -0.14354599
000270 ce 3e 1c 3d e9 78 41 3b fa bc 44 3e 35 40 ab bd
       0.038145833 0.002952153 0.19212714 -0.08361856
000280 e1 de 07 3d 98 dd ef bc aa 0c 59 3c 0a e3 81 bd
       0.03317154 -0.029280469 0.013247648 -0.063421324
000290 3c 96 9b 3e 16 54 c4 3d ba bd 0b 3e 3e 7e cc 3d
       0.30388057 0.095863506 0.13646594 0.09985016
0002a0 f4 aa 19 be 52 bf 75 bd f3 4f 11 3d 1f 8f 10 3d
       -0.1500662 -0.05999691 0.035476636 0.03529274
0002b0 8e 58 8e 3d 0c 82 9a bc b9 b9 82 3d 55 cb 50 bd
       0.06950484 -0.01886084 0.0638308 -0.050975163
0002c0 db 87 4d bc 2b d6 a3 3d 3c 7a f8 3d 44 dc e5 bd
       -0.0125445975 0.07999834 0.12132689 -0.11223653
0002d0 9d 08 bf 3d f8 aa 74 bc a9 48 bc bd b6 bc 50 bd
       0.09327815 -0.01493334 -0.09193546 -0.05096122
0002e0 a6 a1 69 3d 7d 93 55 3d 43 10 4c be cc 0c 29 be
       0.057038926 0.05214261 -0.19928078 -0.16508788
0002f0 79 49 68 bd 39 83 43 b9 24 f7 e1 3b 44 1d 9c 3c
       -0.056710694 -0.00018645533 0.0068959165 0.019056924
000300 fa 47 44 3e 25 0c 46 3e 5c 6d 5f be 68 ee 0c 3e
       0.19168082 0.1934057 -0.21819061 0.1376282
000310 15 44 5b bd e4 87 b3 bd 70 73 9e bd d9 d1 8f bd
       -0.053531725 -0.087661535 -0.07736862 -0.07022447
000320 db 4d 46 3e b5 7a a4 bd 0b 55 35 bc 75 26 5f be
       0.19365637 -0.08031217 -0.011067639 -0.21792014
000330 9e d0 62 bd fe 6f 87 be 59 cd 4a be da 8f a4 3d
       -0.055374734 -0.2645263 -0.19804896 0.0803525
000340 ed ae b6 bd 96 13 27 bd 05 82 8a 3d 6b ad 1f be
       -0.08920083 -0.040790163 0.067630805 -0.15593497
000350 da dc fe bb 28 b3 57 be 82 d1 05 bd 53 c7 57 bb
       -0.0077777924 -0.21064436 -0.032670505 -0.0032925203
000360 d7 a6 2e bd 07 19 d3 bb 0b 13 88 3e bf 50 09 3e
       -0.04263958 -0.0064421925 0.2657703 0.13409708
000370 a4 97 1b bd 85 cc da bd 78 f4 20 3e 75 dc 87 bd
       -0.037986413 -0.1068354 0.15718257 -0.06633846
000380 1f aa 68 3c 45 a5 87 bd 91 ab 21 3e 7e a9 f7 bd
       0.014200716 -0.066233195 0.15788104 -0.12092875
000390 71 3f 21 bd d6 4f 8c bd fd a5 f4 3d b6 69 c9 bd
       -0.039367143 -0.06851165 0.11945722 -0.09834616
0003a0 b0 9e 32 be 93 75 36 be b5 5f 12 bc 37 bc f1 3c
       -0.17443347 -0.17818289 -0.008933951 0.029508693
0003b0 6f 7c 0c be 22 e0 2e 3e f3 fe 0c bd dc 97 28 be
       -0.13719343 0.17077687 -0.034422826 -0.1646418
0003c0 84 ae 5f be a0 0b d8 3d 09 93 ca bd 9b 5a 12 3d
       -0.21843916 0.10549092 -0.09891326 0.03573094
0003d0 e5 e1 34 3d 9b 81 50 3d c4 c8 41 bd 2e df 17 be
       0.044160742 0.05090485 -0.047310606 -0.1483123
0003e0 c3 b6 79 bd fa f2 04 3d c6 e0 f7 39 49 e8 3f bc
       -0.06096531 0.032458283 0.0004727898 -0.011713096
0003f0 ff 8f 0c be 16 27 9e bc e2 71 79 3d 04 ec 38 3d
       -0.13726805 -0.019305747 0.060899623 0.045146957

bias f4 [64]
000000 79 fe da 39 27 9e 23 bc 2d e8 bf b9 89 37 b7 3a
       0.00041769797 -0.009986437 -0.00036603343 0.0013978343
000010 a9 19 8e bc 71 cd 01 39 cb c6 b9 38 d5 f5 ce 39
       -0.01734622 0.00012378932 8.8585155e-05 0.0003947454
000020 f7 04 1f bb 69 fd c2 bb 04 76 dd bb b9 d1 35 bc
       -0.0024264434 -0.005950619 -0.0067584533 -0.011097365
000030 51 e1 fd ba aa a3 be 38 bc c5 af bb 33 14 7d bb
       -0.0019369518 9.090391e-05 -0.005364148 -0.0038616776
000040 ed fa 85 3b 6f 98 7c 3b 9f 84 f9 37 1e 04 52 ba
       0.0040887506 0.0038543006 2.974487e-05 -0.0008011478
000050 ec e4 ad bb 93 5d 5e bc 97 ec 2f 3b 0b f3 5b bb
       -0.0053068306 -0.0135721145 0.00268439 -0.0033561613
000060 71 4d a7 bb b2 5e e0 ba e2 f9 b8 b9 78 f5 e5 bb
       -0.0051056673 -0.0017118065 -0.00035281392 -0.0070177875
000070 35 5a 57 ba 4c dd 81 39 13 6c ad b9 c8 aa b4 bb
       -0.0008215041 0.00024769676 -0.00033077653 -0.005513523
000080 c3 ad e5 ba a5 00 44 ba 00 00 00 00 fe 97 8a 3a
       -0.0017523099 -0.00074769027 0.0 0.0010573862
000090 d8 93 28 b9 75 dd 10 b7 53 55 e4 ba 02 76 d6 bb
       -0.00016076805 -8.634631e-06 -0.0017420448 -0.0065448293
0000a0 7f 3b 76 bb 9c a0 56 bc 61 80 6d bc 07 54 d4 b9
       -0.0037572084 -0.013099816 -0.01449594 -0.00040498396
0000b0 52 66 a0 b6 3e 84 39 bc ac 16 96 39 14 32 28 bc
       -4.7802832e-06 -0.011323033 0.0002862712 -0.010265846
0000c0 00 00 00 00 51 a1 83 3b 0c 7a 10 3a 0d d6 72 bb
       0.0 0.004017033 0.00055113505 -0.0037053854
0000d0 5e a3 0a b9 4c 23 8f bc a9 54 89 bb c0 07 a3 3b
       -0.00013221565 -0.017472886 -0.0041910005 0.004975289
0000e0 63 cb ab bb 39 36 e9 bb e1 98 20 bb 83 ca 5d bb
       -0.0052427514 -0.0071170595 -0.0024505185 -0.003384263
0000f0 e9 5c 40 ba 86 a1 58 bc 44 ec c0 bb c6 cd 4b ba
       -0.00073380634 -0.013222104 -0.00588754 -0.0007774498

weight f4 [64, 64]
000000 3f 1b 6c be 6b 4f c9 3c 48 f6 c1 3c c2 28 07 3d
       -0.23057269 0.024574002 0.023677006 0.032997854
000010 ce 80 0e 3e 46 2a 11 bd 8c 8c 68 bd b9 7d 20 be
       0.13916323 -0.035440706 -0.05677466 -0.1567296
000020 f8 06 91 3d 7a dc 0e bc 2b 63 9c be dc 40 24 3e
       0.07081407 -0.008719558 -0.3054441 0.16040367
000030 42 75 15 3e cf f3 98 be 0f 48 ba bc 23 98 5c be
       0.14595512 -0.2987351 -0.022739438 -0.2154241
000040 fc df 84 be ef be 5f be 33 b6 a3 3d 9b fe 73 3d
       -0.25952137 -0.21850179 0.07993736 0.059568983
000050 8b 32 48 3e 65 37 08 be e5 50 ff bd 96 a3 91 be
       0.1955053 -0.13302381 -0.12466601 -0.2844512
000060 41 0d 9c bd 6e cc 77 bd d0 4f 04 bd ac 08 13 3e
       -0.076197155 -0.060497694 -0.032302678 0.14358777
000070 37 17 95 3c 6a 99 c2 be a2 29 3c be 94 c3 eb ba
       0.018199546 -0.3800767 -0.18375257 -0.0017987364
000080 73 19 90 3e a1 53 9a be 36 f8 51 3e b4 a7 3a bd
       0.28144416 -0.3014193 0.20504841 -0.04557009
000090 60 24 2f be b3 c8 09 bd f7 77 68 3e 55 e5 69 be
       -0.1710372 -0.033638667 0.22702013 -0.2284139
0000a0 a0 fd b3 bd 8d 03 e2 3e 98 87 8f bd d5 4f b3 3e
       -0.087886095 0.44143334 -0.07008284 0.35021845
0000b0 8a 35 de 3d e0 96 17 bd f5 b7 bc bd 8a bd 29 bd
       0.108500555 -0.03700912 -0.092147745 -0.041440524
0000c0 3d bb c5 be 6f 06 80 be 45 b7 99 bd 76 a9 3a 3e
       -0.38619414 -0.25004908 -0.07505659 0.18228707
0000d0 57 b0 b8 3d c1 f0 1d 3d 6d 18 0e 3e 22 0a fb bb
       0.09018009 0.03855968 0.13876505 -0.00766112
0000e0 42 3c a7 3d 99 02 ce 3d c6 dc 2b 3e f9 58 41 3d
       0.0816579 0.10059089 0.16783437 0.04720399
0000f0 f1 47 3c 3e 10 d5 2b bd 1b 22 9c bd 93 cf 69 3e
       0.18386818 -0.04195124 -0.076236926 0.2283309
000100 56 d8 a2 bd 6d d0 37 3e ac 0c 3a bd a1 a8 79 bd
       -0.07951419 0.17950602 -0.04542224 -0.060951833
000110 af 6a a4 bc 23 42 fb 3d e0 2e 1c 3e c2 b4 89 be
       -0.020070402 0.12268474 0.15252256 -0.2689572
000120 4a 05 fe 3e 5b 19 21 be 24 aa 10 3e 36 ef bc bd
       0.4961341 -0.15732329 0.14127403 -0.09225313
000130 b0 49 f5 3c 09 42 17 3e ca 46 2c 3e 47 91 35 be
       0.029942364 0.14771284 0.16823879 -0.177312
000140 5e 04 14 be f2 8a 9e 3e 39 ea 8f 3d 0b 17 24 bd
       -0.14454791 0.30965382 0.07027096 -0.040061038
000150 5b 33 92 3e aa a0 0e bc c1 38 e6 3d 76 49 1c 3e
       0.28554806 -0.0087052975 0.11241294 0.15262398
000160 64 61 b9 bd b3 3e e5 3e fe 08 4e 3e 25 81 04 be
       -0.09051779 0.44774398 0.20120618 -0.1293989
000170 e9 af d7 3d ad 44 a5 3c 3d de 1b be ae 14 97 3d
       0.10531599 0.020174349 -0.15221496 0.07376991
000180 0e 9e b4 3e 18 33 da 3c 6e 0e 47 be aa e9 07 3e
       0.35276836 0.026635692 -0.19439098 0.1327273
000190 d1 a4 9c bd 10 f3 b9 3d 86 67 1c bd 11 5f 3d be
       -0.07648624 0.090795636 -0.038184665 -0.18493296
0001a0 4d 61 30 bc ec c7 d2 bd be e6 17 bd a8 f0 80 38
       -0.010765386 -0.10292038 -0.037085287 6.148341e-05
0001b0 9d 88 b2 3d a7 65 b4 3e da ad 3e 3e 50 5d d0 bd
       0.08717463 0.35233805 0.18621007 -0.10174048
0001c0 c8 cb bd 3a c7 ab ce bd a9 1c c1 3d 62 24 36 be
       0.0014480287 -0.10091358 0.094292946 -0.17787316
0001d0 57 51 cf 3d 5d 15 be 3d f6 e9 90 be 72 ac 1d 3e
       0.10122936 0.092814185 -0.28303498 0.15397814
0001e0 c0 9c 0c 3e 13 c5 27 be b7 db a2 3e 23 4a 13 be
       0.1373167 -0.16383772 0.31808254 -0.1438375
0001f0 2b c4 f3 bc e4 11 b2 3e 1e d7 58 3b 4c 23 90 3d
       -0.029756626 0.34779274 0.0033087204 0.07037982
000200 e6 4e f4 bd 8a 45 d8 bc 55 8f ab be a1 a3 81 be
       -0.11929111 -0.026400346 -0.3350779 -0.2532015
000210 21 36 8b be f6 2a b2 be 4c 8f e8 bc ef 8b 26 3e
       -0.27189735 -0.34798402 -0.028388642 0.16264318
000220 66 37 f0 bd b1 5a c8 3d 06 08 6c be b9 78 83 bd
       -0.117293164 0.09782923 -0.23049936 -0.064195104
000230 24 6c 9e 3d 5e d2 00 be ba ba 79 be b8 df 50 bd
       0.0773547 -0.12580249 -0.24387637 -0.050994605
000240 dc bc 53 3e a6 9d 42 3d bc 6c 10 3d e0 e5 c7 bc
       0.20677513 0.047513627 0.035259947 -0.024401605
000250 d7 e0 fb 3d a4 a4 34 3e 3a 36 2a 3d 66 92 0b 3e
       0.12298744 0.1764093 0.04155562 0.13630065
000260 22 6d 50 3c 57 a5 6e be 94 f8 5e be c2 7a 76 3e
       0.012721332 -0.2330526 -0.21774513 0.24070266
000270 07 8c 3e 3e 3d 22 a5 ba e1 f0 ee bd 71 ec ef 3d
       0.18608104 -0.0012598705 -0.11667038 0.117150195
000280 81 14 16 3e 80 56 05 3c e2 f2 ad be 4c f4 91 3d
       0.14656259 0.008138299 -0.33974367 0.07126674
000290 e9 1c 9c 3d 8a f1 9f 3e 3a 68 24 3e e8 3c af bd
       0.07622702 0.31238967 0.16055384 -0.08556539
0002a0 85 e1 e3 bd fb c1 32 3e 2b 3a 25 3e ee f1 8a be
       -0.11126999 0.1745681 0.1613547 -0.27137703
0002b0 4a f3 f8 bd 9a a1 a3 3d 72 9e 25 be 49 2e 9e bb
       -0.12155779 0.079898074 -0.16173723 -0.004827295
0002c0 17 80 9c be 66 e9 29 be 14 3b d2 bd b2 c7 bb be
       -0.30566475 -0.1659294 -0.102651745 -0.36675793
0002d0 e8 d5 46 3e 4c a3 d6 bd b8 0c 14 3d 93 66 96 3d
       0.19417536 -0.10480365 0.036144942 0.07343783
0002e0 40 18 06 be 92 48 09 be 2a 44 4e bd 7f 01 5a be
       -0.13095188 -0.1340659 -0.050357975 -0.21289633
0002f0 03 2e c9 be 45 46 2e 3e 3f 12 d5 bd f7 91 0d be
       -0.39292917 0.17018993 -0.10403871 -0.13825212
000300 bf b2 91 be a4 5c 3c 3e de ce 26 bd 79 f2 19 3d
       -0.28456685 0.18394715 -0.040724628 0.037584756
000310 d9 10 df 3d cb 7e 18 3d df 9d 14 bd b6 5c 23 bc
       0.10891885 0.037230294 -0.03628337 -0.0099708345
000320 ea 95 83 bd 5f 4c f0 3d 39 2a 0e bd 12 77 34 be
       -0.06425078 0.11733317 -0.034708235 -0.17623547
000330 dc 5f 56 be 6d b2 50 3e 12 47 84 be 2f ce 68 be
       -0.20935005 0.20380564 -0.25835472 -0.22734903
000340 71 41 be bd 07 e6 b0 be 5c cd 88 3d f7 bc 2a bd
       -0.09289826 -0.34550497 0.06679794 -0.041684117
000350 f8 41 30 be 82 e0 26 bd 4a 58 a9 3d d4 87 33 3d
       -0.17212665 -0.04074145 0.08268793 0.043830708
000360 79 5f ee be 18 1f 0e 3e 8e 0f ff bd dc 62 83 3d
       -0.46557215 0.13879049 -0.12454139 0.0641534
000370 6d ce c5 bb fb 31 c4 3e 10 7f 80 3c a4 39 c3 3e
       -0.0060365708 0.38319382 0.015685588 0.38129914
000380 7e 8c 13 bd f1 11 be bd 3e 5d 82 3d e1 ef 1a bd
       -0.036022656 -0.09280766 0.06365441 -0.037826423
000390 5b c7 9f bb f0 50 f4 3d 05 7d 4a bc 5e be b7 3d
       -0.00487606 0.119295 -0.012358909 0.089718565
0003a0 99 60 87 3e d1 dc 8f 3e 98 19 80 be 79 3c 2a 3e
       0.26440886 0.28098157 -0.25019526 0.16624631
0003b0 4d 38 bb be b9 71 47 3d 55 8a ba 3d 2f ca 94 be
       -0.36566392 0.04869244 0.09108416 -0.29060504
0003c0 4a 93 8b 3e 38 9a 49 bb 05 31 ab be 5d b9 69 3d
       0.2726081 -0.0030762088 -0.33435836 0.05706154
0003d0 e2 3d 70 bc cc ec 0c 3a 33 a4 ab 3d bc 8f 8a 3e
       -0.0146631915 0.00053758617 0.08380928 0.27062786
0003e0 9b 7f d3 3d a4 27 c6 bd 1a 8a 10 be 31 63 0e 3e
       0.10327073 -0.096755296 -0.14115182 0.13905026
0003f0 ba aa d1 bc 17 b6 47 3e 2e e1 f8 3c ca 6f c7 bd
       -0.025594104 0.19503056 0.030380812 -0.09738119

bias f4 [64]
000000 e2 e1 ef bb 9a 51 95 bc 0d c3 e8 ba 81 2f 0e bc
       -0.0073206285 -0.018227387 -0.0017758325 -0.008678318
000010 d8 36 d2 bb 6a 57 86 bc 18 ce 98 bb 00 00 00 00
       -0.0064152293 -0.016399104 -0.00466324 0.0
000020 b0 93 67 bc 35 ee 18 bb cd 03 5c bc be ab f3 bb
       -0.014134333 -0.0023335342 -0.013428641 -0.0074362447
000030 a3 6f 12 bc c0 ca 81 bc 13 e6 8b bc 56 22 be bb
       -0.008937749 -0.015843749 -0.017077481 -0.005802433
000040 be 27 93 37 9f 49 24 bc 43 65 be ba 94 97 ba b9
       1.7542272e-05 -0.010027318 -0.0014526028 -0.0003558962
000050 a6 54 6c bb 55 8d 02 ba 4d c8 c4 bb 05 0b 80 bc
       -0.0036061197 -0.00049801666 -0.006005323 -0.015630255
000060 cf be 4f bb 7f 53 06 bb 05 30 ac bc 39 53 b9 bb
       -0.0031699424 -0.0020496545 -0.021018991 -0.005655673
000070 41 61 99 bb 62 3b 8c b9 94 9a cc ba 78 40 a6 bb
       -0.004680783 -0.00026747125 -0.0015610033 -0.0050736032
000080 de 7a 00 bc ce 11 ee bb c7 ee 81 bb 9d ce 4b bc
       -0.007841794 -0.007265306 -0.003965232 -0.012439397
000090 f1 8c fc bb 20 39 a6 bb dc a2 2c bb 20 7d 81 bc
       -0.007707231 -0.005072728 -0.002634219 -0.015806735
0000a0 98 0e c1 bb e3 76 ad b8 64 e0 d4 ba 33 8b 54 bb
       -0.0058916323 -8.271427e-05 -0.001624119 -0.0032431602
0000b0 44 bf df bb 05 7c 7b bc 2b 42 3d bc 7e 71 b8 bb
       -0.0068282206 -0.015349393 -0.01155142 -0.0056287637
0000c0 81 f9 db bb e2 a9 4d bc ba 74 5d bc 24 33 48 bb
       -0.006713093 -0.01255271 -0.013516599 -0.003054806
0000d0 80 21 54 39 94 92 75 ba d1 a0 de b5 e6 88 61 38
       0.00020230375 -0.000936785 -1.6587093e-06 5.3771677e-05
0000e0 00 00 00 00 6c f9 fd b7 e2 2d 55 b8 56 ea 46 bc
       0.0 -3.0276096e-05 -5.082589e-05 -0.012140831
0000f0 5e d5 3e 37 80 c6 1e b8 37 20 f0 bb 6e 5c 8e bb
       1.1374561e-05 -3.7855003e-05 -0.007328059 -0.0043445146

weight f4 [64, 134]
000000 b2 ef 38 3d 41 84 63 3d 74 ac 9a bc 6a af 01 be
       0.045150466 0.05554605 -0.01888106 -0.12664571
000010 64 74 dc bd ca 49 00 bc ee eb a9 3d 83 a1 29 3d
       -0.10764387 -0.007830093 0.08296953 0.041413795
000020 4c 4c 53 bd f8 51 f4 bd 11 b6 c5 3c 63 31 ba bd
       -0.051586434 -0.11929697 0.024134668 -0.09091451
000030 07 8c 80 3a ed 75 ca 3c 15 2a 87 bc d3 34 6c bd
       0.0009807356 0.024714435 -0.016499558 -0.057667565
000040 e5 1d f2 bc 23 f0 ba bc cb 7c 06 be 4f 1b bf 3d
       -0.02955527 -0.022819584 -0.13133542 0.093313806
000050 aa cc 33 bd f6 2c 11 be 6c 4d 01 be 82 0a 48 3e
       -0.043896355 -0.14177307 -0.1262719 0.19535258
000060 25 77 76 bc 07 f4 b5 3d ce 16 8b 3d 22 d0 c0 bc
       -0.015043055 0.08884435 0.06791459 -0.023536745
000070 2d 9f d6 bd 4e 94 e7 bd 7d 1a bd 3c c8 c0 cc bd
       -0.10479579 -0.11307584 0.02308392 -0.099977076
000080 4c 8c 35 3c 89 81 ce bd eb 6a c6 bc eb e3 17 be
       0.011080813 -0.100833006 -0.024220904 -0.14833038
000090 8f 17 f5 3c 4f 98 c8 3d 2c c2 33 bb c7 65 78 bc
       0.02991846 0.097946756 -0.0027428968 -0.015160984
0000a0 84 28 87 bc 64 e2 60 bc 52 80 23 be 60 8e 11 bc
       -0.016498812 -0.013725851 -0.15966919 -0.0088840425
0000b0 b9 81 d2 3c 78 4d f9 bd 64 8e 08 be ba 11 1f be
       0.025696622 -0.12172979 -0.13335568 -0.15534106
0000c0 8e 08 15 3d 2a 6d b9 bd 6b 11 b9 bd 59 ff a4 3c
       0.03638511 -0.090540245 -0.09036525 0.02014129
0000d0 9d ed 90 bd 7d a7 3f bb ea 91 93 3c 09 49 9c 3d
       -0.07076571 -0.0029244118 0.018013913 0.07631118
0000e0 c5 b4 0e bd 7a 01 0c bd f8 4a bf 3d f0 d9 54 be
       -0.034840364 -0.034181096 0.09340471 -0.20786262
0000f0 68 18 6e 3d e5 85 90 3e b7 68 5a 3d 6d 38 a0 bd
       0.058128744 0.28227153 0.05332252 -0.07823262
000100 ee 4b cc bd 3f b9 8e 3d 7c f3 05 3d f2 0e 90 3d
       -0.0997542 0.06968927 0.032702908 0.070341006
000110 06 e4 0d 3e 24 3e 1e 3e 2c 8f 0c 3e aa b8 19 bd
       0.13856515 0.15453392 0.1372649 -0.037529625
000120 e5 07 cf 3d 3b c1 31 3e dd 4f 70 3e 66 4e e8 3d
       0.10108928 0.17358868 0.23467965 0.11343078
000130 0c 69 56 3e 43 e3 04 be 77 ce 38 3c 64 f2 29 bd
       0.2093851 -0.12977318 0.011279694 -0.041490927
000140 72 01 6d bd 35 3b 15 be 88 11 7e 3e 47 6b a2 bc
       -0.057862706 -0.14573367 0.24811375 -0.019826544
000150 51 43 ea bc cb 08 54 bd 49 49 82 3e be 7c 10 3e
       -0.028596552 -0.051766198 0.25446537 0.14110085
000160 3a 46 68 3d d9 b5 5e bd b3 24 3a 3e 61 c2 04 bd
       0.0567076 -0.054372642 0.18178062 -0.032411937
000170 ac be b8 bd c3 f8 07 3e 1e 91 b5 3d 0d f7 cb 3d
       -0.09020743 0.13278489 0.088655695 0.099592306
000180 7a fa 17 3d dc 7d 10 3e 46 4d 07 bd 68 36 68 3e
       0.037104107 0.14110512 -0.033032678 0.22677004
000190 aa 1e 5b bc 56 f9 48 bd 36 f9 52 3e 19 2a 9c be
       -0.01337401 -0.04906591 0.20602879 -0.30500868
0001a0 f0 89 2c be 20 98 41 be b8 91 17 bc 66 0a 58 3e
       -0.16849494 -0.18905687 -0.009251051 0.21097717
0001b0 8f 9c 0e 3e d3 0f c7 bd 2f 79 80 bc d2 86 23 3e
       0.1392691 -0.09719815 -0.015682785 0.15969399
0001c0 e9 ec 97 bb 1a 18 71 bd 36 2e 70 bd e3 0c 09 be
       -0.004636396 -0.058860876 -0.05863782 -0.13383822
0001d0 d7 4d 98 bd 26 e1 88 bd c8 54 8c be d4 14 64 3e
       -0.07436722 -0.06683569 -0.27408433 0.2227357
0001e0 47 87 70 bc 60 48 c3 bd 30 e6 7b 3e 68 bb 02 bd
       -0.01468069 -0.09535289 0.24599528 -0.031917006
0001f0 54 e5 4c 3d b4 5e 8a be cc 72 0a 3e 84 7d 2e 3d
       0.05002339 -0.27025378 0.13520354 0.04260017
000200 c9 32 c0 bc fc b0 51 bd 54 6e 8b be 6f 25 d6 3d
       -0.023461716 -0.051194176 -0.2723261 0.10456359
000210 e9 ab 0c 3e 60 79 38 bc c6 59 8a 3d df bd 45 3d
       0.13737454 -0.011259407 0.06755404 0.04827678
000220 d6 40 04 3e ba e8 69 bd f3 7a 4f bd 01 1e 54 3d
       0.12915358 -0.05710671 -0.050654363 0.051786426
000230 06 2b c4 3d bd 46 9f bd 23 27 b8 3d f7 68 61 bc
       0.095785186 -0.07777164 0.0899184 -0.013757936
000240 25 c0 2c 3e 90 d6 36 3d c3 c1 63 be d5 00 81 3c
       0.16870172 0.044638216 -0.22241883 0.015747467
000250 39 05 65 bd e7 f7 8e 3d 78 2b d0 3d c7 d1 9c 3d
       -0.055913184 0.06980877 0.10164541 0.07657199
000260 8a df 0e be f2 49 c3 3d 4e bc cd bd ea 8f ad 3b
       -0.13952461 0.09535588 -0.10045682 0.005296697
000270 39 12 c4 bd b8 9e 92 be 23 a9 31 be 80 31 0c 3e
       -0.09573788 -0.28636718 -0.17349677 0.13690758
000280 ac 24 04 3e 7a 8f 4a bc 0c 9a 83 3c 07 61 81 3d
       0.12904614 -0.012363309 0.016064666 0.063173346
000290 56 40 78 3c 8e ef 1f 3d 00 de 2d 3d 22 c7 25 be
       0.015152058 0.039046817 0.042448044 -0.16189244
0002a0 be 98 64 bd a5 9c be bc ec 08 2c 3e 80 6e 8a bd
       -0.05580973 -0.023268053 0.16800278 -0.067593575
0002b0 7c 40 ce bc 1f c2 42 bd a4 30 d8 bd 19 38 d2 bc
       -0.025177233 -0.04754841 -0.105561525 -0.025661515
0002c0 f5 4f 79 bd 97 ee 40 bd 98 82 47 be d2 0e 45 be
       -0.06086727 -0.047102537 -0.19483411 -0.19243935
0002d0 a3 1f 98 bb b3 4f 06 be 0f e6 a6 3c 39 7b c1 bd
       -0.0046424433 -0.1311634 0.020373372 -0.09447331
0002e0 3c ac fa bc 66 a1 a8 3c 9b f0 bd bd 4b 43 02 be
       -0.030599706 0.020584773 -0.092744075 -0.12720983
0002f0 09 17 5f 3d a0 78 7e 3d d8 cf af 3c 58 b7 5d bd
       0.054465327 0.062126756 0.021461412 -0.05412993
000300 6b f6 a4 3d be e3 4b 3e a1 7d 3d 3d e1 18 9e 3d
       0.08054813 0.19911095 0.046262387 0.07719589
000310 3f 3e 3e be f3 d3 82 bc 82 42 d4 bd 6d f0 da 3d
       -0.18578433 -0.015970206 -0.10364248 0.10690389
000320 63 b1 c0 39 63 aa 88 bc b6 36 24 3d ea b7 38 3e
       0.00036753257 -0.01668281 0.04009124 0.18038908
000330 d2 39 7f be 8f 74 c2 3d 30 9f 47 3e c4 28 87 3d
       -0.249244 0.09494888 0.19494319 0.06599572
000340 1e 61 0b 3e 74 48 04 3d 58 b7 c7 3d 1c ae bc bd
       0.13611266 0.03229566 0.09751767 -0.09212896
000350 e5 ef b3 bd bb 43 ea 3d 81 01 27 3d a8 b5 79 3e
       -0.087859906 0.114387 0.04077292 0.24385703
000360 35 0b a2 3d 34 c8 9d 3e 50 bf a9 bc 89 35 28 bc
       0.07912294 0.30816805 -0.020721108 -0.01026667
000370 4c a0 9d bd 79 22 06 3e 36 47 a7 bd f4 0f 5b 3d
       -0.0769659 0.13099088 -0.08167879 0.05348201
000380 df 47 e5 3c dd a1 7d 3e 2b 9c 03 3e b7 aa 81 3d
       0.027988372 0.24768777 0.12852542 0.063313894
000390 76 c9 e5 3d c6 eb 43 3e 07 e9 6c be 83 71 b0 3d
       0.11220066 0.19132909 -0.23135768 0.08615401
0003a0 76 4e 18 3e b2 4e af bd ef 0b e5 3d ba 5e fd 3d
       0.1487368 -0.08559932 0.11183917 0.12371583
0003b0 36 89 cd 3a 8a 98 eb bd 82 9d c9 3d 6b 0d 24 3e
       0.0015681151 -0.11503704 0.09844495 0.16020744
0003c0 d3 6e 8a 3e b3 1c 0c 3e 6d a5 7a 3e 78 7a 2a 3e
       0.27037677 0.13682823 0.24477167 0.1664828
0003d0 91 ba 4b 3c 70 07 37 be f6 1f bd 3d 6f f8 8d bd
       0.012434618 -0.17873931 0.09234612 -0.069321506
0003e0 6a 3a 9b bd 37 a0 5e 3d a5 c7 6a 3d 70 7a a6 bd
       -0.07579501 0.05435201 0.057319302 -0.08128822
0003f0 8c 99 1e 3e 13 52 64 3c 38 c4 d4 bc e7 0a 49 be
       0.15488261 0.013935584 -0.02597247 -0.19633065

bias f4 [64]
000000 17 25 cd bc d0 03 2b bd 3c f6 07 bc 74 98 59 bc
       -0.0250421 -0.041751683 -0.008298453 -0.013280977
000010 cd c9 36 3b c5 07 be bc df bb 01 bd d8 db f6 3c
       0.0027891279 -0.023197064 -0.03167331 0.030134127
000020 09 18 3c bd a2 cb 3c bc c8 76 7e 3b 66 91 00 bd
       -0.04592136 -0.011523159 0.0038828123 -0.031388663
000030 ab 6f 28 bd ef d9 9c bc cf 15 6d bb fe 67 00 3c
       -0.04112212 -0.019146888 -0.003617633 0.007837294
000040 27 af 4e bc 24 74 27 bd c7 61 d0 bc 26 39 e3 bc
       -0.012615002 -0.040882245 -0.025437249 -0.027737211
000050 e7 b7 4c bc 87 ae d0 bc 88 3e c1 bb 26 5b 17 bd
       -0.012495018 -0.025473846 -0.005897347 -0.03695216
000060 5d 6b 03 bc ee e6 cb bc d2 bb a5 bc f0 a4 e5 bc
       -0.008021203 -0.02489039 -0.020231161 -0.02803275
000070 7f 20 16 bc 15 97 0e bc 94 4f 46 bc 76 d0 14 bd
       -0.009163021 -0.008703013 -0.012103934 -0.036331616
000080 2c cd d7 bb 79 10 bc bc 86 f2 f7 bc 2c 97 dc bc
       -0.0065857377 -0.022957074 -0.030267011 -0.026927553
000090 47 20 4b bd 9c 1b b4 ba 00 00 00 00 94 62 0c 3c
       -0.04959133 -0.0013741138 0.0 0.008568425
0000a0 1c b0 d4 bc 6e ac da bc 1a a0 fa bc 8b 10 6a bc
       -0.025962882 -0.026693549 -0.03059392 -0.014286171
0000b0 12 81 40 3a bb 82 75 bc 5c 21 8b bc 30 32 7b bb
       0.0007343452 -0.014984782 -0.01698368 -0.0038329475
0000c0 d5 3e b1 3b 34 70 81 bc 6e 6b 9e bc fe 14 af b9
       0.0054091015 -0.015800573 -0.019338336 -0.00033394241
0000d0 c8 68 82 ba 5a 7f e7 bc 35 47 21 bd d6 e8 7b bc
       -0.000994944 -0.028258968 -0.03937455 -0.015375337
0000e0 42 4c 23 bd c8 39 f7 bc ba fb fa bc ff 06 87 bc
       -0.039867647 -0.03017892 -0.03063761 -0.016482828
0000f0 93 1a 56 bc 26 28 80 bc 53 15 7f bb b1 32 c4 bb
       -0.013067859 -0.015644144 -0.0038922622 -0.005987488

weight f4 [64, 64]
000000 ec 64 51 3d d1 7c 44 3c 79 34 10 bc c7 be 19 be
       0.051121637 0.011992649 -0.008801573 -0.15014182
000010 25 99 0a 3e b0 08 46 3d a8 ee 3f 3e 41 1f a8 3e
       0.13534983 0.04834813 0.18743384 0.32836345
000020 b9 47 9d 3e ad b4 99 3e f0 cc 2e be a7 a9 06 3e
       0.30718783 0.30020657 -0.17070365 0.13150655
000030 7c c7 da 3d 55 44 05 bd d6 be 8c 3d 35 f5 35 3d
       0.1068258 -0.03253587 0.068723366 0.0444233
000040 7e fb 7e 3e 22 3b 3a bd 72 f1 48 3c 56 ef e1 3c
       0.24900624 -0.04546655 0.012264596 0.027579945
000050 e5 7a 30 3e db bb 68 3e 5e ff aa be da 84 be bd
       0.1723438 0.22727911 -0.33397955 -0.09302683
000060 42 ae 86 bb c1 78 5c be d3 7c 10 bd ba 85 f4 3c
       -0.0041101286 -0.21530439 -0.03527529 0.029848922
000070 77 30 27 3e f8 e8 d4 bd 28 6a 6b be 3b d9 14 be
       0.16327082 -0.10395998 -0.22989714 -0.14535992
000080 e9 f7 7a 3d 4e 22 1b 3c 35 68 ea 3e 95 25 14 3d
       0.06127158 0.009468628 0.4578263 0.036168654
000090 f5 07 96 3e cc ed 9b bd 28 0c 68 3d 7b 8f 20 be
       0.29302946 -0.076137155 0.056652218 -0.15679733
0000a0 47 7a 0d 3e ca f3 19 3e 17 7b 18 bd f1 2d bf 3b
       0.13816176 0.15034404 -0.037226763 0.005834334
0000b0 82 fa 21 3e f2 61 e3 bd 84 44 a6 3d 40 12 f7 bd
       0.15818217 -0.11102666 0.08118537 -0.12064028
0000c0 d2 b8 42 3e c0 68 08 3f 73 f1 59 bc 60 f2 38 bd
       0.19015816 0.53284836 -0.013302195 -0.04515302
0000d0 90 48 4b be 5e 95 86 be 6c 47 27 3e 62 f8 59 bc
       -0.19851899 -0.26285833 0.16335839 -0.013303848
0000e0 31 45 fa 3c 80 e4 0f 3e d8 7c 24 bd d9 48 44 3e
       0.030550571 0.1405201 -0.040158123 0.19168414
0000f0 e3 4b 8f 3d 30 65 85 3d ca 15 a3 be 45 7b 05 be
       0.06996896 0.065134406 -0.3185256 -0.13035305
000100 44 11 9b 3d 62 01 a6 bd 2d 35 01 3e b5 15 53 bd
       0.075716525 -0.081057325 0.12617941 -0.051534373
000110 6e 50 26 3c 55 e6 9c 3e c8 ba fe bd a2 62 8f bd
       0.010151012 0.3064448 -0.124379694 -0.070012346
000120 31 16 d2 bc d9 13 c1 3d 77 48 3b be 00 78 50 be
       -0.025645347 0.09427614 -0.18289362 -0.20358276
000130 f4 7f 82 3e f4 94 fc 3d f5 55 6d 3d 84 43 21 be
       0.25488245 0.12333098 0.057943303 -0.15748411
000140 25 46 13 be 69 e3 7b be 7b 9b 95 bd e2 82 bf bd
       -0.14382227 -0.24598469 -0.07305046 -0.09351136
000150 0b b4 70 3e 39 68 2c bd ee 51 ab 3d 3c f9 87 3e
       0.23506181 -0.042091582 0.08365236 0.26557338
000160 03 fe ac 3e 64 f4 2d 3d a8 a5 24 be e1 f4 5d bd
       0.33787546 0.042469397 -0.16078818 -0.054188613
000170 da ec 55 3d 61 4e e0 bd b5 2d e0 bd e3 e2 79 3d
       0.052227832 -0.109524496 -0.10946218 0.06100739
000180 1c c6 c0 bc ed d3 dd 3d 15 6c 94 3e 11 76 6b 3e
       -0.023531966 0.10831437 0.2898871 0.22994258
000190 f7 f9 13 3e 0d ca 07 be 8e e4 85 be 40 d3 b2 3e
       0.14450823 -0.1326067 -0.26150936 0.34926796
0001a0 66 06 8a 3e 06 49 85 3c 54 71 94 3e 37 bc 5f 3d
       0.26958007 0.016270172 0.28992712 0.054622855
0001b0 89 40 aa bc c4 12 aa bd 4c b2 ab 3d 77 d8 02 be
       -0.020782726 -0.083043605 0.08383617 -0.12777887
0001c0 26 3a 0a be 6d 4c 5c be a4 bb 51 bd 23 f4 d9 bc
       -0.13498744 -0.21513529 -0.05120434 -0.026605671
0001d0 97 52 c3 bb b3 bd 3c be dd c2 c9 bb e3 bf b3 bd
       -0.005960773 -0.1843174 -0.0061572627 -0.08776834
0001e0 9a 04 5c be 5f 6b 93 3e 4a 88 c9 3e 55 48 cf 3b
       -0.2148613 0.28792855 0.39361793 0.0063257613
0001f0 33 45 e8 3d ad 98 8a be d2 c8 6b 3e 8a 2e bc 3e
       0.11341324 -0.27069607 0.23025826 0.36754256
000200 31 33 a2 ba 89 ce 79 3d 87 1a 5d 3e c2 c7 65 3e
       -0.0012374875 0.060987983 0.2159215 0.22439483
000210 f5 ee b7 be bc 42 f9 bd 49 dc 91 be 81 47 9a 3d
       -0.35924497 -0.12170932 -0.28488377 0.075331695
000220 e7 66 ef 3d 42 06 0b be fc d7 54 be 29 99 a5 be
       0.11689549 -0.13576606 -0.20785517 -0.32343414
000230 71 13 04 3c dc e4 06 3e 2a 70 16 3e e0 02 5b 3e
       0.008061276 0.1317324 0.14691225 0.21387815
000240 38 de 87 be 50 aa 47 3e 04 97 81 be b7 cb d8 bd
       -0.26536727 0.19498563 -0.25310528 -0.105857305
000250 a7 41 11 3d e2 b1 9f 3d 93 8a 52 bd 57 87 7b 3d
       0.035463 0.077976 -0.051401686 0.061408367
000260 ae 37 09 3e 8c 5b 21 bd c2 ce 9f 3e 5e a1 85 bb
       0.13400146 -0.039393947 0.3121243 -0.0040780744
000270 09 c7 26 bd 79 44 ae bd e7 9a a3 3e ec a6 1a 3d
       -0.04071716 -0.08509154 0.3195412 0.037756845
000280 69 fb 86 bd be ea 53 3e 38 53 37 3e d0 51 23 3c
       -0.065909214 0.20695016 0.17902839 0.009968236
000290 39 04 d2 3d 65 7d a6 be a8 a6 29 3e 44 85 d0 be
       0.10254712 -0.32517543 0.1656748 -0.40726674
0002a0 a3 9c 13 3e 78 f0 58 3c f9 c9 48 be 74 c6 cf bc
       0.14415221 0.013240926 -0.19608296 -0.025363185
0002b0 a0 09 2e be 2a c6 81 3e 3f 21 b5 3d b4 7a 11 3e
       -0.16995859 0.253465 0.08844232 0.14206964
0002c0 59 80 81 3d 4a 64 51 3d 3b 99 bc bd 53 89 1b 38
       0.063233085 0.051121034 -0.09208914 3.7082773e-05
0002d0 64 30 9c be eb 9a a6 bd 16 29 64 3e 35 d6 ed 3d
       -0.3050567 -0.08135017 0.22281298 0.116131224
0002e0 25 7c ab 3d 57 7f 64 3d 12 e8 37 be 64 66 49 be
       0.08373288 0.055785503 -0.17959622 -0.19667965
0002f0 00 8f a2 bd 15 a1 3d 3d 8f 0a 46 3c 9f 9d bb 3e
       -0.07937431 0.046296198 0.012087478 0.36643693
000300 25 fe da bc 38 ba e1 3d 6a e7 1d 3e 7d 49 9e be
       -0.026732514 0.110218465 0.15420309 -0.30915442
000310 02 13 34 3e b8 53 b2 3e b5 c2 41 3e a4 8e a3 3e
       0.17585376 0.34829497 0.18921931 0.31944764
000320 cf d4 98 3d 3b ef e5 bd 52 3b 66 be 7b 63 a4 be
       0.07462465 -0.1122727 -0.22483566 -0.32107148
000330 a1 2c 6b 3d b0 5f b3 3e d8 ea 8f ba 5b 07 c4 3c
       0.05741561 0.3503394 -0.0010980023 0.023929289
000340 4c 6d a8 bc c0 a5 b0 bd 4a ee 21 bd 48 32 82 3e
       -0.02055993 -0.08625364 -0.03953389 0.25428987
000350 6e 60 a5 3d 39 f2 13 be 25 59 aa 3c 03 c1 ce 3d
       0.08075033 -0.1444787 0.02079446 0.10095408
000360 38 02 a0 3d 0a 3b b8 3d 77 c4 02 be a9 70 82 3e
       0.07812923 0.08995636 -0.12770258 0.25476578
000370 02 77 96 3b db 8d a7 bd bb 8a ae bb db 17 91 be
       0.0045918236 -0.08181354 -0.0053265966 -0.28338513
000380 fd 5d 46 bc 91 16 64 3d 28 b3 b1 bd eb 8a 30 3e
       -0.0121073695 0.055685584 -0.086767495 0.17240493
000390 20 17 0a be 53 7f b7 3d fa b4 4a 3d db 38 7a be
       -0.13485384 0.08959832 0.049489 -0.24435751
0003a0 ea 02 87 3d 94 b4 72 be 01 8a 14 be b7 29 0a be
       0.06592353 -0.23701698 -0.1450577 -0.13492475
0003b0 43 50 b5 be 1e a1 0a 3d e9 64 1d 3e a7 d0 11 3e
       -0.35412797 0.03384506 0.15370525 0.14239751
0003c0 bd b8 a5 3c e8 c2 05 3b c3 3b bc be 9d 9e 8b bd
       0.020229692 0.0020410363 -0.36764345 -0.068173625
0003d0 38 5f 5a 3e 08 49 83 3d 14 95 18 bc 66 c9 79 be
       0.21325386 0.06410414 -0.009312887 -0.24393234
0003e0 df af f0 b8 bd c8 0a be 3e c6 08 3e de f2 f0 ba
       -0.0001147685 -0.13553138 0.13356873 -0.0018382927
0003f0 13 22 98 be c3 72 5d 3e f1 46 27 3e 81 fa bd be
       -0.29713497 0.2162581 0.16335656 -0.37105182

bias f4 [64]
000000 d2 78 dc bb 33 cb 86 bc 64 c2 0a bc 1b a2 9f bb
       -0.00672827 -0.016454315 -0.008469198 -0.0048716194
000010 78 24 c2 39 55 1e 64 bc c0 ea d6 bc e1 a8 70 ba
       0.00037029735 -0.013923247 -0.026234984 -0.00091804384
000020 3e fd cb bc 4c 22 b1 bb 62 93 04 bd bd 22 56 bc
       -0.024901029 -0.0054057 -0.032367118 -0.013069806
000030 c2 6d 20 bb ee 93 70 bc 20 27 8a bc 94 ff 0c 3c
       -0.0024479483 -0.014683707 -0.01686436 0.008605856
000040 00 be 02 bd ca 94 31 bc 49 bf 69 bc d1 55 61 bb
       -0.03191948 -0.010838697 -0.014266797 -0.0034383426
000050 9e 13 c5 bb dc 9c 91 ba 2d ff d2 39 fb 08 08 bd
       -0.0060143014 -0.001110937 0.00040244442 -0.03321169
000060 ef 10 a2 3a 26 ba 8d ba 40 ee 8a bc 73 ff 21 bc
       0.0012364666 -0.0010812923 -0.01695931 -0.009887564
000070 9d ce 62 bb 47 9e c3 bc 35 3b 58 bd c6 7e d9 bb
       -0.0034608014 -0.023879183 -0.05279084 -0.006637427
000080 44 10 94 3c 7b d5 28 bd e7 ef a0 bc da ea af 3b
       0.018074162 -0.041219216 -0.019645644 0.0053685727
000090 cf 1c 2b ba 2d 2f a0 bc ba 15 ce bc 81 f0 9c bc
       -0.0006527425 -0.019553745 -0.025156844 -0.01915765
0000a0 b5 4b b4 bb 09 2d 88 b9 2c 24 22 bc 00 f7 b1 bc
       -0.005502189 -0.00025973495 -0.009896319 -0.021724224
0000b0 9a ee d1 b9 9f 6d d7 bc 07 a9 c0 bc 0e f8 03 bd
       -0.00040041358 -0.026297389 -0.023518099 -0.032218985
0000c0 20 7e 17 3b 83 03 0b 3a b2 dc 84 3c a3 4d 1d bd
       0.0023115948 0.00053029525 0.016218517 -0.03840412
0000d0 0c 9e b8 bd 72 e9 9c bc 79 f6 45 bd 7f b5 06 b8
       -0.0901452 -0.019154284 -0.048330758 -3.211712e-05
0000e0 83 df 00 bd 2b 8f 89 b7 5a 04 09 bb 8f c3 25 bd
       -0.031463157 -1.639834e-05 -0.0020907135 -0.040469702
0000f0 5f 73 01 bc 67 73 e1 bb 23 70 71 3c 22 65 12 3c
       -0.007901042 -0.006880212 0.014736208 0.008935245

weight f4 [1, 64]
000000 79 2f 00 bb aa fe 00 3c c1 d4 4f 3e 0e ba 5a 3e
       -0.0019559546 0.007873217 0.20296003 0.21360037
000010 e2 e0 82 bb af 7a a8 b9 e7 37 27 bc a6 7a 72 bd
       -0.0039940933 -0.00032134863 -0.010206199 -0.059198998
000020 93 3f 9c ba 7b e0 82 3d 23 bc 01 be 70 0e b5 bd
       -0.0011920802 0.063904725 -0.12669425 -0.08840644
000030 7f 4d 47 bc c2 e3 2c 3d 71 11 bc 3a d5 99 be 3b
       -0.012164473 0.042209394 0.001434846 0.005816678
000040 f9 4b f2 3d a8 40 bb bb 72 f6 83 3c 28 e5 b2 bd
       0.11830897 -0.0057144947 0.016108725 -0.08735114
000050 a4 56 57 be 56 fc a7 bd 2c e7 9e 3a a7 44 9d 3e
       -0.21029145 -0.08202426 0.0012123338 0.3071644
000060 bc d2 6f 3e 19 78 72 bc 76 ed 25 3e 5c 73 5e bc
       0.23420233 -0.014799141 0.16203865 -0.0135773085
000070 df 1f c8 3c 66 94 83 bd 1e 5c 86 3e 8e e6 af 3d
       0.02442926 -0.06424789 0.26242155 0.08588897
000080 ac a2 ad 3d 7f d4 cb 3d c1 a9 00 3b f6 31 aa bd
       0.08478293 0.0995264 0.0019632431 -0.083103105
000090 af 57 0a bd f2 80 49 3d e2 b2 1b 3e 06 88 d7 3d
       -0.033775028 0.049195237 0.15204957 0.10523991
0000a0 35 8e 30 3e 45 21 9b ba 42 d2 84 3d ff c3 9b bc
       0.17241748 -0.0011835477 0.06485416 -0.019014357
0000b0 7a 5a 47 3c 77 f3 a1 ba ea 56 c1 3d 08 65 0d 3e
       0.012167567 -0.0012355883 0.09440406 0.13808072
0000c0 2a b2 5c b8 a3 aa 4d bd 1b 85 08 3e 9f ca ee 3d
       -5.2618016e-05 -0.05021156 0.13332026 0.11659741
0000d0 ff 65 34 be 68 29 76 3d 59 a4 c3 bd 35 50 9c bc
       -0.17617033 0.06009808 -0.09552831 -0.019081214
0000e0 36 6e f2 3e 15 8c 0f bc 40 ff fc bc 27 01 f8 3d
       0.4734971 -0.0087614255 -0.030883431 0.12109595
0000f0 65 36 7f bc 04 da 3a bc 14 67 ef bd 3a b8 04 be
       -0.0155769335 -0.011404518 -0.116895825 -0.12960902

weight f4 [5, 64]
000000 78 a5 c1 bb ce 1f b1 3a d3 a8 47 3b 4f 47 ec ba
       -0.005909618 0.0013513507 0.0030465617 -0.0018026623
000010 25 f3 9f 3a a2 bc 94 3b 12 77 10 bb 96 0a af 3a
       0.00122032 0.0045390883 -0.0022043628 0.0013354595
000020 99 d8 4b 3c 61 40 49 bc 2b 5e c9 3b 73 7b 38 bb
       0.012441778 -0.0122834155 0.006145259 -0.0028149753
000030 c5 86 90 3b 53 68 dc ba 72 54 e7 3a 23 91 4c 3b
       0.004410597 -0.0016815759 0.0017649068 0.0031214438
000040 61 56 08 ba 90 82 11 3b 08 37 7b bb 77 c7 55 bb
       -0.000520086 0.0022203065 -0.0038332362 -0.003262011
000050 8f 00 bb 3b a6 ed ee ba 47 f9 fb bb ba e9 93 ba
       0.0057068537 -0.0018228784 -0.0076896283 -0.0011284866
000060 e5 71 7c 3c 4f 61 86 3b e4 68 62 39 b7 65 5f bb
       0.015408014 0.0041009556 0.00021592114 -0.0034087726
000070 6f 95 49 3c 8e 9d f8 39 f7 8d d6 bb 32 12 e8 3a
       0.012303694 0.00047419633 -0.0065476852 0.0017705618
000080 64 99 0f 3c 0b 23 e9 b9 b0 1e 22 3a cc ec fa ba
       0.0087645985 -0.00044467332 0.00061843824 -0.0019144057
000090 2f 6b d1 bb 65 c0 81 3b 54 1e 10 bc 64 e9 3e 3b
       -0.006390951 0.003959703 -0.008796293 0.002913081
0000a0 f0 c9 d0 ba 8e 8b 0b 3b 8e d0 5f bc ca 5e 60 bc
       -0.0015929323 0.0021292898 -0.013660563 -0.0136944745
0000b0 aa 72 87 3b 1f 93 16 3b 55 2c dc 3b eb 65 99 3b
       0.004133542 0.0022975875 0.006719152 0.004681339
0000c0 11 9e e0 bb 3d 14 2e 3b 0e 6f af 3b 75 37 21 3b
       -0.0068547805 0.0026562356 0.005353815 0.0024599705
0000d0 18 7b 5f 38 05 27 31 bc d5 4c 84 bb 24 78 8a ba
       5.3281983e-05 -0.010812526 -0.0040374794 -0.0010564369
0000e0 f9 b9 c5 3a 43 cc 81 bb 81 cb cc ba e8 a9 01 3c
       0.0015085331 -0.0039611175 -0.0015624614 0.007914044
0000f0 72 d4 24 3a a7 c1 fc ba 7f 65 1e 3a 70 c4 ea bb
       0.00062877603 -0.0019283787 0.0006042346 -0.0071645305
000100 b5 6a 3a 3b fe 61 12 3a a3 e7 df 38 12 d9 ce 39
       0.002844495 0.000558406 0.00010676614 0.00039453112
000110 ee 85 b5 3b 83 47 8a b9 48 c3 1d bc 4c 05 4d ba
       0.0055396473 -0.00026374692 -0.009629078 -0.00078209187
000120 c0 2b ee 3a 4f c6 de ba 96 ae 88 3a 5d 94 1d bc
       0.0018170998 -0.0016996356 0.0010428007 -0.009617892
000130 f1 79 22 39 16 ca f9 3a 9d 3e 38 3b 80 79 d1 3b
       0.0001549495 0.0019057419 0.0028113492 0.0063926578
000140 7f 33 40 3a 79 03 19 3a 4e 7a 8a bb a7 f8 ab ba
       0.0007331892 0.0005837004 -0.0042260056 -0.0013120369
000150 06 64 19 3b ad 5c 2f ba b1 6b c8 3b ae 97 14 bb
       0.0023405566 -0.000668953 0.0061163534 -0.0022673416
000160 ff af 08 3c 0c 9f f4 bb fd 2e bf ba ca 73 4e 3b
       0.008342742 -0.007465249 -0.0014586147 0.003150212
000170 37 41 8d bb 05 03 33 3c c0 40 a6 ba 50 c0 69 3b
       -0.0043107527 0.010926013 -0.0012684092 0.0035667606
000180 7b 8a 89 b9 c4 0c 09 ba b2 02 53 bb 29 7d 3e 3b
       -0.00026233852 -0.00052280375 -0.0032197651 0.00290663
000190 1c a8 b9 3b 67 96 5c ba 70 2c 89 bb eb 8d f9 b8
       0.005665792 -0.00084147457 -0.0041862056 -0.000118996795
0001a0 e5 b1 39 bb 4e 2b e8 ba 35 57 f7 3b 41 42 28 bb
       -0.0028334793 -0.0017713101 0.0075482377 -0.0025674256
0001b0 f7 2a 37 bb 0a ff 84 3b 58 4c 7f bb fb 9b c7 bb
       -0.0027949193 0.0040587233 -0.0038955417 -0.0060915924
0001c0 f9 eb 1a ba 83 8a 7f 3b 1c c0 74 3b 95 3d 4a 3b
       -0.00059097965 0.0038992472 0.0037345951 0.003085946
0001d0 8b f0 04 3b 0c a6 08 ba 6a b2 95 3a 91 56 68 bb
       0.0020284976 -0.0005212731 0.0011420969 -0.0035451988
0001e0 29 c0 90 3a 95 ad b5 3a 91 fa 00 3a 7c 59 bb bb
       0.0011043596 0.0013860936 0.000492015 -0.0057174545
0001f0 57 21 44 3b 5d 54 86 39 3e de 17 bc e8 c0 62 3b
       0.0029927099 0.00025621327 -0.009269295 0.0034599844
000200 a9 20 2e 3c 1b 07 31 3b a2 8f 10 3b 26 99 a2 bb
       0.010627904 0.0027012292 0.0022058268 -0.0049621044
000210 06 f4 3c ba ca 43 2c 3a dc b4 94 3b 72 e1 d0 3a
       -0.0007207993 0.00065713807 0.0045381617 0.0015936329
000220 ff 98 95 bb e7 43 0e 3c aa 0d 00 ba 2d 3d 26 3b
       -0.0045653577 0.008683181 -0.00048848486 0.0025366053
000230 84 53 19 bb db 9c 64 3b 7d cc 87 3b 77 fd 38 bc
       -0.0023395726 0.0034883532 0.00414425 -0.0112908995
000240 47 1d dd 3a 6e 40 08 3b 24 53 81 3c 41 86 58 3b
       0.0016869687 0.0020790356 0.015786715 0.0033039006
000250 74 f0 28 bb d1 91 5c bb ea b5 88 b9 99 a2 40 3b
       -0.0025778087 -0.003365625 -0.00026075478 0.002939379
000260 02 94 88 bc 0e 77 3d 3c ac 52 2b 3b f2 5b 08 bb
       -0.016672138 0.011564029 0.0026141806 -0.0020806757
000270 fb 72 91 3b 32 40 31 3b 5e a1 35 b9 cd 06 b1 bb
       0.0044387556 0.002704632 -0.00017321619 -0.005402422
000280 51 5e 47 bb b5 fe 09 3c 2a 19 0b 3b cd 4e 8d 3a
       -0.0030421207 0.008422543 0.0021224716 0.0010780931
000290 25 a9 04 3a 56 a5 1d 3c 86 1f 02 bb 54 1c 8e 3b
       0.0005060605 0.009621939 -0.0019855215 0.004336873
0002a0 85 67 33 bb 7a 15 13 3c 3b 5b 14 3a 19 9d 04 bb
       -0.0027374935 0.008977288 0.00056593464 -0.002023524
0002b0 24 41 60 3b 36 fe bb ba 9d 85 3f bb 5f b8 4e 3c
       0.0034218514 -0.0014342729 -0.0029223927 0.0126172
0002c0 79 13 60 3b 73 b2 ff b8 3b e3 f7 bb 80 ae 0a bb
       0.0034191294 -0.00012192586 -0.00756493 -0.002116114
0002d0 5d c1 d5 bb 4e b7 14 3b 2d 70 45 ba 61 71 6a 3a
       -0.006523295 0.0022692266 -0.0007531669 0.00089432864
0002e0 e9 8e f1 ba a7 21 ed ba 39 f7 c7 3a b7 07 92 3b
       -0.0018429431 -0.0018091694 0.0015256173 0.004456486
0002f0 51 48 d9 ba 35 ae 8b 3b 4a 55 d7 bb a5 00 32 3b
       -0.0016577338 0.0042627105 -0.0065714465 0.0027161029
000300 f9 1d 18 3a e6 65 0f 3b 43 c0 35 bb 96 d1 bf 3b
       0.0005802806 0.0021880805 -0.0027733005 0.005853842
000310 89 21 9c b8 19 01 73 3b 93 51 2e 3c fb 11 77 b9
       -7.444906e-05 0.0037079512 0.010639566 -0.00023562454
000320 2f f1 44 bb 64 db 9c 3b 8b 16 5c bb 58 77 8a 3b
       -0.0030050983 0.0047868956 -0.0033582773 0.0042256527
000330 39 4e be 3b 53 05 00 3b b1 53 ed 39 cb cb 6f bb
       0.0058076647 0.0019534423 0.00045266518 -0.0036589976
000340 db 90 b5 3a 7c fd e7 ba c6 78 26 bc 0d 1f b2 ba
       0.0013852374 -0.0017699446 -0.010160631 -0.0013589576
000350 ca e8 15 ba 44 94 ce 3b 34 6a 6a bc 5b ef d4 3a
       -0.0005718587 0.0063042957 -0.014307547 0.001624565
000360 3d d5 4f ba 2a 76 96 ba c8 90 2c 3a 41 8f b9 bb
       -0.00079281983 -0.0011479307 0.00065828534 -0.005662829
000370 ed 1f 92 bb f8 8b 6f bb 48 40 26 3b 1b 73 c2 3b
       -0.0044593723 -0.0036551934 0.0025367904 0.005934132
000380 7c 1f 00 3a e9 70 85 bb 4b b7 a3 3b 1b 2f 87 3b
       0.0004887504 -0.004072298 0.0049962155 0.0041254885
000390 e2 4f 87 38 44 e9 38 bc 10 b2 94 3c 0e bb c2 3a
       6.452181e-05 -0.011286084 0.018151313 0.0014856772
0003a0 19 f2 78 b9 fb d3 8c bb 5d 1d 78 bb bb b5 36 3b
       -0.00023741311 -0.004297731 -0.0037859299 0.0027879316
0003b0 1a 45 34 3b 7a 80 af ba ca f3 87 3b b2 0d 6c bb
       0.0027507008 -0.001338973 0.004148935 -0.0036018905
0003c0 5e ea ec 3b b1 72 3b 3b aa 16 27 3b 69 b8 e9 3a
       0.007230087 0.0028602297 0.0025495687 0.0017831448
0003d0 79 75 b9 3b ef 8a c9 ba 01 17 8c 39 27 6e 0e b9
       0.005659756 -0.0015376488 0.0002672002 -0.0001358321
0003e0 b2 90 40 3a f8 51 b8 3a b1 84 9f b8 c6 0b 1b bb
       0.000734578 0.0014062515 -7.6064265e-05 -0.002365814
0003f0 77 31 b3 39 16 70 58 3b 61 13 a1 3b 7b fc ac 3b
       0.00034178395 0.0033025793 0.00491564 0.0052791215

bias f4 [5]
000000 b0 1b 44 bb ac 70 23 3b 0c d1 93 3a 2f eb c1 3a
       -0.002992373 0.0024938984 0.0011277511 0.0014794822
000010 aa 51 8f 3b
       0.004373749
