model/medium-2/IA2C/model_agent0_seed2.pt (torch, 109505 bytes, 11 tensors)

weight f4 [64, 134]
0.21455227 0.10201618 -0.059272084 0.08005949 -0.16988234 0.0075772144 0.036977902 0.16762008
-0.021011839 -0.03269889 -0.120042615 -0.009473985 -0.10291859 0.19894207 0.030697068 0.13006201
-0.11359525 0.041001346 -0.039064478 0.14885044 -0.074607454 0.15687194 -0.02532108 0.13409683
0.14926109 0.18462512 0.081513934 -0.010106825 -0.064515464 0.1070992 -0.0663734 0.0676143
0.1481377 0.03607089 -0.10299215 -0.028297812 -0.015652347 0.008688705 0.10938722 -0.14345074
0.20843545 -0.037464797 0.03310434 0.013020578 -0.10963803 -0.23784852 0.15711778 -0.023588322
-0.068702094 0.064988114 -0.14110063 0.08767211 -0.029063305 -0.044291895 0.09322912 0.060599267
-0.018841073 -0.030128302 -0.009939949 0.10363929 0.16582203 -0.06248662 0.14051305 0.212014
0.29309076 -0.1278144 0.22051223 -0.12024565 -0.10383274 -0.012786174 0.049972795 0.12501475
-0.0829147 0.26521128 0.11689158 -0.11195051 -0.11356002 0.035780072 0.15366979 0.16887094
0.09629503 -0.025291607 0.026681775 0.08165861 0.13013951 0.03764257 0.15577799 -0.26295936
0.11844931 -0.286949 0.19476192 -0.035111457 -0.22209325 -0.2847093 -0.07284317 -0.070990875
-0.0956352 -0.034544516 -0.06800465 0.05153642 0.042561535 -0.014390877 0.010868295 0.029717023
-0.07530245 0.11055087 -0.14122237 0.088471904 -0.026869325 0.1478016 0.0529217 0.090684906
0.15187785 -0.2805176 0.003906283 -0.085274264 0.0030182449 0.0018206518 -0.060638383 -0.03934038
0.17909326 0.11696528 0.1978472 -0.06536766 -0.22396776 0.073692754 0.18774998 -0.2002237
-0.11052284 0.06691802 -0.017788423 -0.013733618 0.0033034636 0.028363943 -0.07525964 0.10952289
-0.15044522 0.07371761 -0.1213702 -0.24553217 -0.07059783 -0.1268263 0.07167067 -0.19668873
-0.043715928 0.14114608 -0.26054475 -0.009834175 0.043226913 -0.14184874 0.14692026 0.3144558
0.041876458 -0.06280967 0.090822905 -0.04763231 0.055629198 -0.3377011 0.05272881 0.16923673
0.06762858 -0.052113954 -0.016397005 -0.00391036 -0.033017516 -0.020002062 -0.032547977 0.19772828
0.0535439 0.2860427 -0.12389978 0.010769858 0.21266633 0.01646187 -0.18407752 0.057159256
0.07127103 0.044859517 -0.070070975 0.0053255777 -0.007618558 0.0622598 0.20151149 0.12290961
-0.11218514 0.025943523 -0.05483979 -0.12781323 -0.007760619 -0.1646434 -0.12330014 -0.12457864
0.1711712 0.046927392 -0.028468003 -0.16266806 0.015942864 0.048554786 -0.039551184 0.027156113
-0.057823777 -0.08121043 0.0029687092 -0.19015476 0.07963037 0.1334556 -0.022778517 0.08184726
-0.111844376 -0.13554417 0.056260962 -0.2029859 -0.1241152 -0.10703044 0.020751825 -0.1894858
-0.18713824 -0.18818207 0.16651154 -0.02654594 -0.16057086 -0.024354195 -0.0745855 -0.07908695
0.15337354 0.09696374 0.06982648 0.14255038 -0.055634577 -0.08742523 0.18269786 -0.16787712
-0.10364604 0.054517854 0.018255493 0.3327404 0.00022968926 -0.08178149 0.16359195 -0.049381386
-0.22215857 0.04140921 0.20819196 0.021517292 -0.04043622 0.19881764 -0.010574234 0.02849079
-0.039695527 -0.036621638 -0.002557914 0.13469267 -0.0694435 -0.0065407665 -0.03247229 0.13317163
00000000: 97b3 5b3e dced d03d 49c7 72bd 3bf6 a33d
00000010: a3f5 2dbe 484a f83b 2476 173d 99a4 2b3e
00000020: 0521 acbc 45ef 05bd e7d8 f5bd c638 1bbc
00000030: fbc6 d2bd 78b7 4b3e 6b78 fb3c fa2e 053e
00000040: a0a4 e8bd 07f1 273d 1302 20bd 406c 183e
00000050: cbcb 98bd 0aa3 203e 276e cfbc ae50 093e
00000060: e6d7 183e 5e0e 3d3e c7f0 a63d 1997 25bc
00000070: af20 84bd d356 db3d c7ee 87bd 5e79 8a3d
00000080: 69b1 173e 12bf 133d 8ced d2bd d0d0 e7bc
00000090: 5a39 80bc 125b 0e3c 6806 e03d c0e4 12be
000000a0: 1a70 553e b074 19bd 6b98 073d 4354 553c
000000b0: e789 e0bd 908e 73be 7ce3 203e 4c3c c1bc
000000c0: afb3 8cbd 7d18 853d af7c 10be 6f8d b33d
000000d0: 2b16 eebc 6b6b 35bd e9ee be3d f036 783d
000000e0: 9858 9abc a1cf f6bc 2bdb 22bc d640 d43d
000000f0: 40cd 293e f8f1 7fbd a7e2 0f3e 331a 593e
00000100: fe0f 963e c7e1 02be f5cd 613e 5a43 f6bd
00000110: 42a6 d4bd 1a7d 51bc 46b0 4c3d de03 003e
00000120: 2fcf a9bd c6c9 873e da64 ef3d 4f46 e5bd
00000130: 2892 e8bd 208e 123d 9d5b 1d3e 81ec 2c3e
00000140: 5436 c53d 5830 cfbc bd93 da3c a13c a73d
00000150: 4b43 053e 182f 1a3d 4484 1f3e 9ca2 86be
00000160: 8d95 f23d fbea 92be ab6f 473e 08d1 0fbd
00000170: 6a6c 63be 6bc5 91be cd2e 95bd aa63 91bd
00000180: 63dc c3bd 8d7e 0dbd 0646 8bbd da17 533d
00000190: 0155 2e3d b7c7 6bbc ef10 323c 1d71 f33c
000001a0: 2c38 9abd 7f68 e23d 999c 10be c230 b53d
000001b0: 0f1d dcbc 4d59 173e 6dc4 583d 02b9 b93d
000001c0: de85 1b3e 01a0 8fbe 4700 803b 46a4 aebd
000001d0: bfcd 453b f0a2 ee3a f45f 78bd 6123 21bd
000001e0: 3964 373e 7e8b ef3d 7598 4a3e 7bdf 85bd
000001f0: ce57 65be 3aec 963d 8841 403e 7107 4dbe
00000200: cc59 e2bd 510c 893d 07b9 91bc f802 61bc
00000210: ec7e 583b 805b e83c ba21 9abd 894d e03d
00000220: 500e 1abe 42f9 963d f090 f8bd c96c 7bbe
00000230: 9895 90bd c1de 01be 12c8 923d c568 49be
00000240: 790f 33bd 9988 103e 1f66 85be 851f 21bc
00000250: b40e 313d cc40 11be 4472 163e 5a00 a13e
00000260: a686 2b3d 5ba2 80bd 5c01 ba3d 191a 43bd
00000270: 71db 633d 29e7 acbe 2afa 573d 654c 2d3e
00000280: da80 8a3d 7175 55bd 0353 86bc 7a22 80bb
00000290: 603d 07bd 5ddb a3bc 0751 05bd 4879 4a3e
000002a0: d950 5b3d 3074 923e 2bbf fdbd 0f74 303c
000002b0: 34c5 593e 0bdb 863c d17e 3cbe d31f 6a3d
000002c0: 8cf6 913d 9dbe 373d 5f81 8fbd 2f82 ae3b
000002d0: 19a5 f9bb 2204 7f3d 0759 4e3e 09b8 fb3d
000002e0: 53c1 e5bd 8387 d43c b09f 60bd 79e1 02be
000002f0: ca4c febb 4898 28be c984 fcbd 1623 ffbd
00000300: 8147 2f3e f036 403d bb35 e9bc 7592 26be
00000310: 9c9a 823c 62e1 463d 6c00 22bd 7f76 de3c
00000320: a0d8 6cbd a751 a6bd ad8e 423b eeb7 42be
00000330: 3f15 a33d 96a8 083e 039a babc 899f a73d
00000340: aa0e e5bd 17cc 0abe e571 663d 89db 4fbe
00000350: 1c30 febd c632 dbbd bbff a93c 9108 42be
00000360: 2ba1 3fbe cdb2 40be 0082 2a3e df76 d9bc
00000370: b06c 24be 7382 c7bc 48c0 98bd 57f8 a1bd
00000380: f40d 1d3e ed94 c63d 2f01 8f3d baf8 113e
00000390: 15e1 63bd 000c b3bd 2615 3b3e fbe7 2bbe
000003a0: 6044 d4bd 1d4e 5f3d 8b8c 953c f35c aa3e
000003b0: bed8 7039 0e7d a7bd a684 273e 2344 4abd
000003c0: 897d 63be b49c 293d 4630 553e 0845 b03c
000003d0: 73a0 25bd da96 4b3e 8d3f 2dbc 8465 e93c
000003e0: c797 22bd 9200 16bd ada2 27bb e0ec 093e
000003f0: 6538 8ebd ed53 d6bb aa01 05bd 255e 083e

bias f4 [64]
-0.0037796209 -0.0038596324 -0.0005209482 -0.00039210255 -0.0005325382 -0.0060478235 -0.0032728764 -0.0022067819
0.00030584232 -0.00013593509 -0.0017737935 -0.013335881 -0.0035719627 -0.0023609009 0.0017573936 -0.0013952799
6.5520115e-05 -0.00012766878 -0.002175352 -0.0038059226 0.010885747 0.00016322793 -0.003941093 -0.0060303994
-0.0005228636 0.009133623 -0.0142912315 0.005794214 5.0217543e-05 -0.003381824 -0.0076784207 0.014149926
5.3270167e-05 -0.013873269 -0.0021119022 -0.011697425 -0.0011823901 0.004974411 -0.0003948477 0.0027940874
-0.017780755 -0.00792847 -0.009324376 -0.0002997028 -0.0063514127 -0.0023232196 0.0013193017 -2.3321449e-05
0.0027409736 -0.005903923 0.00076836074 -0.023457034 0.00968437 -0.00049495645 -0.006180787 -0.00061615114
0.0010277011 -2.3822269e-09 0.0010730682 -0.012828457 0.00025215087 -0.001830905 0.0033221098 -0.0074604857
00000000: 84b3 77bb e3f1 7cbb 3e90 08ba 1d93 cdb9
00000010: 099a 0bba d22c c6bb c17d 56bb a89f 10bb
00000020: 7659 a039 cc89 0eb9 a27e e8ba bd7e 5abc
00000030: 9717 6abb 58b9 1abb 5858 e63a d3e1 b6ba
00000040: d867 8938 d4de 05b9 5a90 0ebb c96c 79bb
00000050: 225a 323c 2a28 2b39 4924 81bb a89a c5bb
00000060: c810 09ba 31a5 153c c525 6abc 64dd bd3b
00000070: ada0 5238 97a1 5dbb 439b fbbb 17d5 673c
00000080: 686e 5f38 b54c 63bc d767 0abb 8ea6 3fbc
00000090: 6efa 9aba 6200 a33b 9003 cfb9 021d 373b
000000a0: f2a8 91bc 6ae6 01bc 44c5 18bc 6e21 9db9
000000b0: 831f d0bb 2841 18bb 6bec ac3a 6ea2 c3b7
000000c0: e8a1 333b b275 c1bb d16b 493a f728 c0bc
000000d0: 31ab 1e3c f7bf 01ba 3388 cabb 3485 21ba
000000e0: edb3 863a 94b4 23b1 32a6 8c3a 732e 52bc
000000f0: 1e33 8439 fafa efba c1b7 593b 1777 f4bb

weight f4 [64, 64]
0.022712741 0.15742852 0.17161989 0.038469307 0.06557453 0.012859132 0.054027263 0.05958924
-0.005535617 -0.008540998 -0.17022286 0.1957951 0.10883384 -0.19472513 0.10640737 -0.031263582
0.40836912 0.20484868 -0.038701534 -0.020592496 0.024318123 -0.2668009 -0.13929155 0.26092187
-0.02459291 0.25596884 -0.043596 0.064967126 0.0066503235 0.115384914 -0.117871895 0.2006305
0.07627693 -0.2475471 0.10610637 -0.2015016 0.30926284 0.14184576 -0.052312724 -0.36838663
0.3459974 0.17193177 -0.33531448 0.13165647 0.17446208 -0.22628918 0.14054653 0.0047248662
0.016903268 -0.08403001 -0.3342115 0.05911073 0.3479069 -0.02881627 -0.22280304 0.025681034
-0.13815275 -0.05009993 -0.26672128 0.30388755 -0.019624673 0.03518929 0.2187814 -0.09463663
-0.28972125 -0.04741318 -0.22384931 -0.15501815 0.23684621 -0.115655564 0.12440066 0.07264527
-0.06273634 0.11709046 -0.17107646 -0.043254655 -0.059794597 -0.10068865 -0.15517826 -0.04529839
0.11836635 0.2924583 0.08470088 -0.28654745 0.14250425 -0.08534809 -0.097251974 0.17919455
-0.31175578 -0.17861894 -0.13206574 -0.030365488 0.0922674 -0.074459575 -0.09941716 -0.278764
-0.3703085 0.053134225 -0.19227166 -0.24032274 0.050324917 -0.167206 -0.26761147 0.23102199
-0.23914897 0.3301921 0.13725856 0.111595795 0.14922881 0.19970234 0.32823518 0.021216782
-0.03874672 -0.22122212 0.0188671 0.30035433 0.014265897 -0.079332285 -0.13426776 -0.1602637
0.061223008 0.27386245 -0.0757821 -0.10922357 0.16949478 0.25792882 0.056077898 0.09837709
-0.23087041 0.28070918 0.07092249 -0.19484583 -0.19544798 -0.05385106 -0.10876945 0.13830185
0.33518133 0.018106095 -0.33885497 -0.009725935 0.08916355 0.45449018 0.11696792 0.17458203
0.06374872 -0.023945572 -0.020813713 0.079628766 0.009957689 -0.06031662 -0.034793854 -0.03227681
-0.018735152 -0.34669355 -0.0115931835 -0.53754914 0.11959846 0.2382738 0.004972998 0.0068687377
0.39102405 -0.010485634 -0.09748572 -0.00027135908 -0.12439145 -0.036784507 -0.15218478 -0.120948695
0.0062836884 0.2877815 -0.13896881 -0.24008682 0.03833163 0.1460332 0.07751265 -0.13133553
-0.0040249336 0.10619294 0.32581782 0.18655698 -0.066622116 -0.108392455 -0.044942763 -0.12818715
-0.20641133 -0.16402245 0.042179797 0.057598833 -0.16406612 0.0712476 0.12135776 -0.1449135
0.11469594 -0.08309879 0.10394384 0.023908015 0.061135914 0.21220283 0.21598522 -0.03132961
0.14507726 0.121988416 -0.21950169 0.39071685 0.24477512 -0.029192558 -0.33571273 0.02808069
-0.011120604 -0.15162775 0.027915578 0.23371668 0.111350216 -0.06974294 -0.14414352 -0.15030904
-0.1983094 -0.3154646 0.08658865 0.111235574 -0.13450666 -0.106982775 0.09595326 -0.07276307
-0.025302123 -0.25587302 0.115652025 -0.2073427 0.11591309 -0.134601 -0.34177953 0.14229025
0.17219733 -0.23645855 0.21959983 0.08721258 0.2830198 -0.014223876 -0.29690224 -0.3023052
0.055037633 0.04561813 0.342046 -0.036426347 0.21147476 0.10122079 -0.050617184 0.08963966
-0.105131246 0.1123511 -0.062034518 0.1630184 0.015532332 -0.008632009 -0.36901644 0.09202833
00000000: 1210 ba3c f134 213e 20bd 2f3e fe91 1d3d
00000010: f04b 863d 1caf 523c b14b 5d3d d913 743d
00000020: 1f64 b5bb 8bef 0bbc e74e 2ebe 837e 483e
00000030: 47e4 de3d 0666 47be 1bec d93d 3e0e 00bd
00000040: c215 d13e dac3 513e 8085 1ebd 98b1 a8bc
00000050: cd36 c73c 219a 88be 72a2 0ebe 8d97 853e
00000060: 1277 c9bc 590e 833e b891 32bd 7c0d 853d
00000070: f5ea d93b ed4e ec3d d266 f1bd 1572 4d3e
00000080: 1437 9c3d fd7c 7dbe 4c4e d93d 6f56 4ebe
00000090: b357 9e3e 0440 113e de45 56bd 2c9d bcbe
000000a0: 9226 b13e e20e 303e 57ae abbe f4d0 063e
000000b0: 30a6 323e 5ab8 67be 6eeb 0f3e 0dd3 9a3b
000000c0: b978 8a3c ed17 acbd c51d abbe 181e 723d
000000d0: da20 b23e 1910 ecbc 7b26 64be 0861 d23c
000000e0: ea77 0dbe 9635 4dbd b18f 88be 2697 9b3e
000000f0: ecc3 a0bc a522 103d 3b08 603e d9d0 c1bd
00000100: 5856 94be 5334 42bd c138 65be 14bd 1ebe
00000110: d087 723e d3dc ecbd c6c5 fe3d 0bc7 943d
00000120: e97b 80bd 20cd ef3d ab2e 2fbe cb2b 31bd
00000130: 2eeb 74bd da35 cebd 0de7 1ebe ce8a 39bd
00000140: 0f6a f23d 18bd 953e a877 ad3d 59b6 92be
00000150: a2ec 113e fbca aebd 0b2c c7bd c77e 373e
00000160: 749e 9fbe e2e7 36be 3e3c 07be 0bc1 f8bc
00000170: b1f6 bc3d 437e 98bd 399b cbbd 28ba 8ebe
00000180: 1399 bdbe 46a3 593d dde2 44be 2a17 76be
00000190: 8021 4e3d 0d38 2bbe 5f04 89be 0791 6c3e
000001a0: 78e3 74be f00e a93e 828d 0c3e 568c e43d
000001b0: 70cf 183e c57e 4c3e 710e a83e d1ce ad3c
000001c0: e1b4 1ebd 0d88 62be 2d8f 9a3c 0bc8 993e
000001d0: 82bb 693c f778 a2bd 7d7d 09be 2b1c 24be
000001e0: fac4 7a3d b337 8c3e a533 9bbd 9bb0 dfbd
000001f0: 0a90 2d3e 3f0f 843e f0b1 653d ee79 c93d
00000200: 4b69 6cbe 1db9 8f3e cf3f 913d aa85 47be
00000210: 8423 48be ee92 5cbd 84c2 debd 009f 0d3e
00000220: e39c ab3e 3c53 943c 667e adbe 8759 1fbc
00000230: 619b b63d f0b2 e83e e08c ef3d a2c5 323e
00000240: b08e 823d 8129 c4bc 8581 aabc 6814 a33d
00000250: 9325 233c 8f0e 77bd 0084 0ebd b034 04bd
00000260: 767a 99bc d181 b1be 56f1 3dbc d29c 09bf
00000270: 0af0 f43d 0cfe 733e 88f4 a23b 2613 e13b
00000280: 4e34 c83e f0cb 2bbc 98a6 c7bd 3345 8eb9
00000290: f2c0 febd 5aab 16bd 54d6 1bbe f3b3 f7bd
000002a0: 66e7 cd3b 1958 933e d74d 0ebe 52d9 75be
000002b0: a101 1d3d ba89 153e f4be 9e3d d27c 06be
000002c0: 97e3 83bb af7b d93d 98d1 a63e cb08 3f3e
000002d0: 2d71 88bd ddfc ddbd e715 38bd 7e43 03be
000002e0: 7e5d 53be 80f5 27be b9c4 2c3d c1ec 6b3d
000002f0: f300 28be 43ea 913d 6b8a f83d 3464 14be
00000300: b4e5 ea3d b32f aabd 82e0 d43d beda c33c
00000310: a769 7a3d b34b 593e 3b2b 5d3e 7a53 00bd
00000320: 228f 143e 10d5 f93d 0dc5 60be 0a0c c83e
00000330: 54a6 7a3e 3b25 efbc 8ae2 abbe 7a09 e63c
00000340: 3233 36bc 4e44 1bbe 36af e43c 6d53 6f3e
00000350: 950b e43d 63d5 8ebd 5c9a 13be 9dea 19be
00000360: 9f11 4bbe 9384 a1be 6455 b13d 7acf e33d
00000370: 1dbc 09be c919 dbbd 2583 c43d ce04 95bd
00000380: 6646 cfbc ca01 83be f8da ec3d a551 54be
00000390: d863 ed3d d8d4 09be bafd aebe 89b4 113e
000003a0: 7f54 303e 3122 72be c7de 603e 829c b23d
000003b0: f9e7 903e 430b 69bc 9203 98be bfc7 9abe
000003c0: 246f 613d 14da 3a3d a720 af3e cb33 15bd
000003d0: d78c 583e d84c cf3d f753 4fbd 0095 b73d
000003e0: 0d4f d7bd 5518 e63d e817 7ebd 4cee 263e
000003f0: 527b 7e3c 456d 0dbc b9ef bcbe 5979 bc3d

bias f4 [64]
-0.0029700005 0.0 -0.013028198 -0.014896819 -0.015044616 5.2975847e-06 -0.0120370295 -0.0059272605
-0.008961691 3.3301203e-05 -0.0030319048 -0.0056424444 -0.014061622 -0.00046586504 -0.0108261425 -0.004771006
-8.7615524e-07 -0.002886881 5.242934e-06 -0.0059417277 -0.01111612 -0.010295637 0.000334819 -1.5038298e-05
-0.008175234 -0.0055748913 -0.013177738 -0.007853502 -0.00547206 -0.005828663 -0.010217357 -0.0022838044
-0.01337408 -0.0005042438 0.0 -0.010627425 -0.014435807 -0.010708744 1.3590925e-06 -0.0075918227
-0.011141174 -0.005369818 -0.0029379693 -0.0020980746 0.0 0.00019371623 -0.008688832 -0.008317123
-2.6968248e-05 -0.02065472 3.9460742e-06 -0.006916784 -0.0050407285 -0.014510816 0.00033904586 -0.010313975
-9.9401095e-06 -0.008741008 -0.00067012175 -0.01337808 0.0 -0.009195754 -0.007978186 -0.012907729
00000000: 57a4 42bb 0000 0000 3974 55bc ca11 74bc
00000010: b17d 76bc e8c1 b136 f636 45bc 7739 c2bb
00000020: 0ed4 12bc e5ac 0b38 ecb2 46bb 41e4 b8bb
00000030: b862 66bc 593f f4b9 2260 31bc 1956 9cbb
00000040: ee30 6bb5 d331 3dbb 76ec af36 d3b2 c2bb
00000050: 6320 36bc 08af 28bc a58a af39 004d 7cb7
00000060: 6bf1 05bc 94ad b6bb 70e7 57bc faab 00bc
00000070: f74e b3bb 5efe bebb b466 27bc e1ab 15bb
00000080: f51e 5bbc 3b2f 04ba 0000 0000 a71e 2ebc
00000090: 2a84 6cbc ba73 2fbc 106a b635 d3c4 f8bb
000000a0: 7889 36bc 4cf5 afbb f28a 40bb da7f 09bb
000000b0: 0000 0000 4e20 4b39 9a5b 0ebc 8b44 08bc
000000c0: df39 e2b7 1634 a9bc 8568 8436 31a6 e2bb
000000d0: b22c a5bb c6be 6dbc f7c1 b139 f2fb 28bc
000000e0: 72c4 26b7 7236 0fbc 1cab 2fba bc2f 5bbc
000000f0: 0000 0000 caa9 16bc f0b6 02bc f07a 53bc

weight f4 [64, 134]
0.17287743 0.25582394 -0.19585073 0.09652323 0.04478852 -0.08441772 -0.14826582 0.07084787
0.018005366 -0.07402113 0.18476443 0.030193372 -0.06847478 -0.048860077 0.28505158 -0.22539799
0.029477498 0.12049608 0.22688949 0.16638696 0.03995314 0.055025004 0.07724858 0.03972027
0.163287 0.010881497 -0.015434942 0.009314652 -0.19668543 0.03566141 -0.06467802 -0.1203132
0.026904704 0.03582229 0.11312238 0.049792115 0.017199047 -0.048523564 -0.023804244 0.008003045
0.07316805 0.05889248 -0.009279577 -0.031198632 0.03046462 -0.011816501 0.089787774 -0.08115108
-0.05850293 -0.04608286 0.23579164 0.18080728 -0.16470212 0.024278766 -0.108137466 -0.07449218
0.037922826 0.24795069 -0.06256725 0.14023897 -0.011103607 0.093566775 -0.070495486 -0.11918485
0.002470767 -0.05961577 -0.020540148 -0.032203622 0.16985263 0.038196564 0.07797827 -0.035751253
-0.06291445 -0.13529915 -0.15165162 -0.033298463 -0.014361756 0.04178265 -0.0144598195 0.058518574
0.27064294 0.10899965 -0.07105427 0.022976015 -0.30009037 0.11466662 -0.11570374 0.0054203253
0.17875369 0.038211733 -0.0098589305 -0.047451917 0.05141305 -0.19236359 -0.04923337 0.06809809
-0.19613415 0.19427489 -0.07084945 -0.09595762 0.15450712 0.22194053 -0.03426037 -0.1780283
0.058809876 0.01390087 -0.1509861 0.029221866 0.07236635 -0.22117952 -0.0039266436 0.044528667
0.2635153 -0.10693004 -0.00046886984 -0.095475025 -0.18696919 -0.033221085 -0.38049117 0.01966805
0.11122886 0.028650546 -0.12438834 -0.1953303 -0.05849737 0.12825745 0.03625724 0.029116275
-0.024080718 -0.05318336 -0.015582039 -0.05931568 0.005436031 -0.28052378 0.11292652 0.03476065
-0.14379324 -0.22089545 -0.18535542 -0.2707509 0.048605263 -0.080217816 -0.04820405 -0.051881745
-0.10618752 0.122183174 -0.0022633716 -0.043019798 0.113543324 0.16367032 0.07167254 0.019524012
-0.02968754 -0.16246131 0.07647557 0.050229114 0.05011499 -0.2601999 0.1767847 0.09549099
0.0025471745 0.039070755 0.06330476 0.011182441 -0.10873084 0.07109072 -0.17538254 -0.017882988
-0.04633688 0.01614206 0.13111852 0.090031326 0.1481722 0.055797562 -0.09388151 0.14955753
0.046768215 0.098804794 0.039109588 0.1234552 -0.24959518 -0.14876857 -0.09494761 -0.08004582
0.022639742 -0.14087293 -0.20228007 0.14363456 0.10259493 -0.033681616 -0.012697877 -0.09530674
0.09309651 -0.16461998 0.047576442 -0.004887333 -0.1903935 0.21102154 0.13081108 0.026892196
0.027224107 0.0043753437 0.09996122 0.19896667 -0.03208655 0.01776181 0.15430446 0.17390391
-0.29712707 0.13298999 0.22501506 0.1352444 -0.0951895 0.06874593 0.01487949 0.16307981
-0.047405843 0.05308855 -0.061730485 0.1533508 -0.05646857 -0.024749896 0.14309168 -0.1183563
0.020529307 0.26060432 0.03222763 -0.13960956 -0.17570435 0.10785044 -0.0046513313 -0.062223215
0.027783552 -0.022599725 -0.21980505 0.18436532 -0.2374656 -0.07190282 0.088318765 -0.0793158
-0.080279805 0.03798081 -0.106117405 -0.039603084 -0.10973301 0.10207647 -0.17649715 0.09310347
0.114124835 -0.0034185476 0.09627033 -0.010053418 0.24938965 -0.041341834 0.0064021624 -0.025694892
00000000: c806 313e 5bfb 823e 188d 48be f9ad c53d
00000010: 2b74 373d 33e3 acbd ffd2 17be b018 913d
00000020: fd7f 933c 6498 97bd e332 3d3e 1758 f73c
00000030: 813c 8cbd 8121 48bd 48f2 913e bbce 66be
00000040: cb7a f13c a6c6 f63d b855 683e 5861 2a3e
00000050: e7a5 233d e661 613d 8134 9e3d b9b1 223d
00000060: b534 273e 4e48 323c d7e2 7cbc 7b9c 183c
00000070: e867 49be b311 123d e975 84bd c466 f6bd
00000080: 4167 dc3c 65ba 123d b5ac e73d d1f2 4b3d
00000090: 04e5 8c3c a5c0 46bd 1e01 c3bc 341f 033c
000000a0: 21d9 953d 3e39 713d 5e09 18bc 4694 ffbc
000000b0: f090 f93c ff99 41bc a7e2 b73d 8a32 a6bd
000000c0: c5a0 6fbd 62c1 3cbd 5d73 713e 8b25 393e
000000d0: aca7 28be 43e4 c63c 2d77 ddbd 5b8f 98bd
000000e0: f754 1b3d c9e6 7d3e 4223 80bd ce9a 0f3e
000000f0: e7eb 35bc f09f bf3d f05f 90bd 3017 f4bd
00000100: 97ec 213b aa2f 74bd d043 a8bc f2e7 03bd
00000110: d9ed 2d3e 0074 1c3d 12b3 9f3d e86f 12bd
00000120: 4bd9 80bd dc8b 0abe 904a 1bbe f863 08bd
00000130: 924d 6bbc 4924 2b3d e1e8 6cbc 2cb1 6f3d
00000140: b691 8a3e 353b df3d e784 91bd 3238 bc3c
00000150: 72a5 99be 55d6 ea3d 15f6 ecbd fc9c b13b
00000160: 350b 373e e883 1c3d 5a87 21bc f15c 42bd
00000170: 7e96 523d f6fa 44be eea8 49bd 0377 8b3d
00000180: 64d7 48be ffef 463e 8419 91bd 6e85 c4bd
00000190: 1d37 1e3e 6144 633e 9a54 0cbd 0d4d 36be
000001a0: a0e2 703d 7ac0 633c 1a9c 1abe b262 ef3c
000001b0: cf34 943d e27c 62be 13ab 80bb b163 363d
000001c0: 7aeb 863e 23fe dabd a5d2 f5b9 6988 c3bd
000001d0: da74 3fbe d512 08bd bdcf c2be e41e a13c
000001e0: f5cb e33d 8db4 ea3c 50bf febd ab04 48be
000001f0: f09a 6fbd ec55 033e 7982 143d 4185 ee3c
00000200: ed44 c5bc cbd6 59bd cf4b 7fbc 00f5 72bd
00000210: bc20 b23b d0a0 8fbe 0546 e73d 2f61 0e3d
00000220: 893e 13be 6b32 62be d0cd 3dbe dd9f 8abe
00000230: 5016 473d 3d49 a4bd 9c71 45bd f481 54bd
00000240: d878 d9bd 2c3b fa3d 1355 14bb 8735 30bd
00000250: 6789 e83d 3199 273e 0dc9 923d d2f0 9f3c
00000260: 4933 f3bc 425c 26be 399f 9c3d 0bbd 4d3d
00000270: 6045 4d3d ec38 85be 0c07 353e c890 c33d
00000280: 7fee 263b a808 203d eda5 813d 8f36 373c
00000290: 46ae debd 0398 913d 7b97 33be 587f 92bc
000002a0: becb 3dbd 5a3c 843c ef43 063e 5862 b83d
000002b0: 74ba 173e fc8b 643d f344 c0bd 9c25 193e
000002c0: 0790 3f3d 2b5a ca3d 6031 203d 14d6 fc3d
000002d0: e195 7fbe ca56 18be e473 c2bd 10ef a3bd
000002e0: fb76 b93c fe40 10be 8222 4fbe f014 133e
000002f0: 4a1d d23d bcf5 09bd c20a 50bc 2e30 c3bd
00000300: 62a9 be3d 2492 28be 84df 423d ec25 a0bb
00000310: 83f6 42be 0816 583e 57f3 053e 064d dc3c
00000320: 1705 df3c 0b5f 8f3b 78b8 cc3d ebbd 4b3e
00000330: 306d 03bd 3781 913c fd01 1e3e de13 323e
00000340: 0a21 98be 872e 083e 596a 663e 827d 0a3e
00000350: b6f2 c2bd abca 8c3d 1bc9 733c 65fe 263e
00000360: a12c 42bd 6173 593d 1bd9 7cbd fe07 1d3e
00000370: 964b 67bd 4bc0 cabc a086 123e ca64 f2bd
00000380: 142d a83c ee6d 853e 1f01 043d cff5 0ebe
00000390: d7eb 33be b1e0 dc3d 326a 98bb c5dd 7ebd
000003a0: 559a e33c 0f23 b9bc 9314 61be 43ca 3c3e
000003b0: 2f2a 73be c941 93bd 78e0 b43d 5270 a2bd
000003c0: bd69 a4bd c491 1b3d 1554 d9bd d836 22bd
000003d0: b3bb e0bd 780d d13d abbb 34be 08ad be3d
000003e0: 48ba e93d b609 60bb 6129 c53d 17b7 24bc
000003f0: 0060 7f3e 0e56 29bd 3bc9 d13b 187e d2bc

bias f4 [64]
0.037498567 -0.0075018387 -0.03427043 0.00846097 -0.034500387 -0.017637175 -0.018327782 -0.02721755
-0.021620193 0.0049227597 -0.012491292 0.0052159997 -0.03546737 -0.0018446979 -0.035900455 -0.038076587
0.0 -0.02758113 -0.004520347 -0.036654234 -0.007423979 -0.020196754 0.018651407 -0.025937535
-0.0061344556 -0.047704197 -0.009689459 -0.04391693 -0.021916395 -0.03162284 -0.028731005 -0.017705653
-0.0033484015 -0.029598143 0.0014986587 -0.030075325 -0.055155713 -0.009918404 -0.011537255 -0.024118442
-0.036448266 -0.024083767 -0.023036005 -0.0039097546 0.039057083 -0.00085337035 -0.043712314 0.041668963
-0.014392039 0.0074345977 0.001415888 -0.008215014 -0.033408947 -0.017888835 -0.05135175 -0.020997478
-0.019262414 0.00061062735 -0.042207826 -0.011563749 -0.01965554 -0.017166417 -0.014682202 -0.013466985
00000000: 1998 193d fcd1 f5bb 275f 0cbd e19f 0a3c
00000010: 4750 0dbd d67b 90bc 2524 96bc 57f7 debc
00000020: d51c b1bc 1a4f a13b 47a8 4cbc faea aa3b
00000030: 3c46 11bd cac9 f1ba 5b0c 13bd 32f6 1bbd
00000040: 0000 0000 d2f1 e1bc 6b1f 94bb c022 16bd
00000050: da44 f3bb aa73 a5bc d6ca 983c f47a d4bc
00000060: 8b03 c9bb 7a65 43bd 89c0 1ebc 3de2 33bd
00000070: 038a b3bc f386 01bd 495d ebbc 720b 91bc
00000080: db70 5bbb ce77 f2bc a46e c43a 8760 f6bc
00000090: f5ea 61bd cd80 22bc c106 3dbc 0a94 c5bc
000000a0: c74a 15bd 524b c5bc 01b6 bcbc 661d 80bb
000000b0: 52fa 1f3d b7b4 5fba af0b 33bd 13ad 2a3d
000000c0: 96cc 6bbc ed9d f33b 5195 b93a 4498 06bc
000000d0: d2d7 08bd 9b8b 92bc 3656 52bd e702 acbc
000000e0: 36cc 9dbc 8212 203a 1de2 2cbd e175 3dbc
000000f0: a804 a1bc 96a0 8cbc 9e8d 70bc a1a4 5cbc

weight f4 [64, 64]
-0.22488204 0.09578076 0.112113245 0.22401406 -0.02071345 0.10337902 0.15452409 0.05421276
0.14024286 0.18091227 0.10109364 0.022554267 0.12180059 0.22101732 0.014337197 0.11580503
0.14523219 0.15846692 -0.21883777 0.042267147 0.19016972 0.06310372 -0.14096561 -0.064391874
-0.2414949 0.0103087975 -0.15613644 0.17090888 0.48517972 0.17082663 -0.13886626 -0.3708104
-0.3719905 -0.3505473 0.0693488 -0.054192513 0.06537661 -0.17889611 0.021901945 0.040601015
0.0053867097 0.26568416 0.113116875 -0.12966552 0.14211111 0.12370242 -0.02552573 -0.20655185
-0.047488894 -0.15597132 -0.022199437 -0.11401346 -0.1520482 -0.17228422 0.26333883 -0.09620077
0.08238038 -0.102295175 0.008687565 0.25400063 -0.050086863 -0.20894606 -0.058465324 -0.2972937
-0.17811038 -0.1007223 0.023787387 -0.061184473 0.56501305 0.10149959 -0.21929179 0.07869197
-0.18278079 0.12018626 0.029867727 -0.041243732 -0.22588474 -0.03612673 -0.17997354 -0.1489128
0.2541314 -0.16766554 0.0033898335 0.05983142 0.17627084 -0.1184503 0.13167937 0.12300472
-0.00640585 -0.25227606 0.22615397 -0.0039627245 0.21753807 -0.39977252 -0.024571275 0.27992496
0.029203894 -0.21851791 -0.013903291 0.018734619 -0.1597782 0.16107138 0.27733502 0.09720271
0.14113048 0.08651768 0.01138651 -0.09935455 -0.17132404 0.19272612 -0.019705543 -0.11924638
-0.1577954 -0.16706155 0.018808171 -0.1813148 0.117064446 0.031977896 0.25787398 -0.46906894
-0.19901279 0.19498512 -0.08452046 -0.0018495744 -0.07167329 0.03652192 -0.09431011 0.217444
0.16627194 -0.36081758 0.14905049 -0.21334009 0.06656602 -0.3616964 0.0626076 -0.32591513
-0.3559979 -0.10711953 -0.16200821 -0.14935127 -0.09111755 0.2735367 0.25776148 -0.04293472
0.20354529 -0.2281388 -0.3489678 0.12608926 -0.0075253183 0.026149547 0.020751916 0.16442718
-0.2672283 0.120046146 -0.081159726 0.06391609 -0.100421436 0.061090723 -0.052478082 -0.21150108
0.31104785 0.051275972 -0.029498326 -0.011233998 0.051205672 -0.054452527 0.019603778 -0.21370329
0.088864304 -0.011977877 0.27699336 0.18066923 0.17369156 -0.11033615 -0.2623101 -0.09314647
-0.08812517 0.13237768 -0.13076732 0.1189294 0.13865502 -0.072220124 0.23683767 -0.061875664
-0.31833932 -0.28835598 -0.04080314 0.10979975 -0.1384443 0.06434975 -0.12975691 -0.044480547
-0.022773022 0.24293786 0.22035114 -0.11610965 0.26030004 0.018293682 0.23925519 -0.18259011
0.14186068 0.16492648 0.28336325 -0.10668324 -0.21361025 0.10131248 0.13684031 0.34559733
0.074257664 0.26032168 0.015332595 -0.07274851 0.14793538 0.16548912 -0.11653249 -0.06047864
0.049556315 -0.09422984 -0.0245546 -0.36393517 -0.10684312 0.26010495 -0.07474594 0.012284105
-0.20109494 0.2926687 -0.19042674 0.030226279 -0.33719802 0.07742662 0.21180956 0.02224465
0.06064581 0.078586616 0.21401377 -0.09790731 -0.05936055 -0.23353381 0.04076015 -0.20822755
-0.25568756 0.15797167 0.1104326 -0.05839497 -0.046110295 0.05194678 0.03468241 0.24413916
-0.2867363 -0.083762646 0.017294059 -0.21114002 -0.0940092 -0.018388089 0.0074438 0.3910577
00000000: 7a47 66be b428 c43d a19b e53d f163 653e
00000010: 41af a9bc 61b8 d33d 903b 1e3e 330e 5e3d
00000020: d39b 0f3e 1141 393e 2f0a cf3d bac3 b83c
00000030: 9672 f93d 5d52 623e 90e6 6a3c 302b ed3d
00000040: bfb7 143e 2745 223e 0217 60be 5120 2d3d
00000050: dabb 423e 863c 813d 4a59 10be e3df 83bd
00000060: 704a 77be 3be6 283c 3be2 1fbe bd02 2f3e
00000070: 7a69 f83e 2ded 2e3e f532 0ebe dcda bdbe
00000080: 8a75 bebe f07a b3be be06 8e3d f8f8 5dbd
00000090: 2ce4 853d 8b30 37be b56b b33c 404d 263d
000000a0: ff82 b03b c107 883e d2a9 e73d 0ac7 04be
000000b0: 9385 113e b257 fd3d 561b d1bc 5482 53be
000000c0: b783 42bd f2b6 1fbe 98db b5bc e47f e9bd
000000d0: 86b2 1bbe 466b 30be 59d4 863e e904 c5bd
000000e0: 0bb7 a83d 2280 d1bd 4a56 0e3c 5f0c 823e
000000f0: e227 4dbd f5f5 55be 5679 6fbd e136 98be
00000100: 9162 36be 7e47 cebd c4dd c23c 929c 7abd
00000110: b2a4 103f 04df cf3d 078e 60be 4129 a13d
00000120: e32a 3bbe 3724 f63d 2aad f43c 30ef 28bd
00000130: 544e 67be 9ff9 13bd fc4a 38be 997c 18be
00000140: 831d 823e 84b0 2bbe f827 5e3b cb11 753d
00000150: 5880 343e 1296 f2bd f5d6 063e e6e9 fb3d
00000160: 2ae8 d1bb 542a 81be e894 673e bed9 81bb
00000170: 4dc2 5e3e fcae ccbe b349 c9bc 5352 8f3e
00000180: 013d ef3c 29c3 5fbe a1ca 63bc 5879 993c
00000190: e59c 23be e5ef 243e dbfe 8d3e 3712 c73d
000001a0: 8284 103e 2e30 b13d 7c8e 3a3c 667a cbbd
000001b0: 926f 2fbe ff59 453e 856d a1bc 7237 f4bd
000001c0: 1e95 21be 2f12 2bbe 9813 9a3c 96aa 39be
000001d0: 7cbf ef3d 41fb 023d 0f08 843e ce29 f0be
000001e0: 02ca 4bbe 2eaa 473e 1019 adbd 6b6d f2ba
000001f0: 72c9 92bd 0298 153d a925 c1bd a4a9 5e3e
00000200: 3143 2a3e 15bd b8be b1a0 183e d375 5abe
00000210: c453 883d 4530 b9be 6a38 803d 59de a6be
00000220: 5b45 b6be 7c61 dbbd 7be5 25be 8aef 18be
00000230: d79b babd 010d 8c3e 50f9 833e 51dc 2fbd
00000240: 2d6e 503e 389d 69be e8ab b2be 8b1d 013e
00000250: f296 f6bb 9337 d63c ecff a93c 995f 283e
00000260: 26d2 88be c1da f53d 1237 a6bd 70e6 823d
00000270: c1a9 cdbd 443a 7a3d 42f3 56bd bd93 58be
00000280: aa41 9f3e c106 523d 79a6 f1bc ce0e 38bc
00000290: 0abd 513d 9d09 5fbd 1a98 a03c 09d5 5abe
000002a0: 7dfe b53d db3e 44bc 13d2 8d3e 5b01 393e
000002b0: 33dc 313e ebf7 e1bd 824d 86be 94c3 bebd
000002c0: f87a b4bd 048e 073e dee7 05be 4291 f33d
000002d0: 95fb 0d3e 25e8 93bd 9385 723e 5671 7dbd
000002e0: 5ffd a2be 65a3 93be 3121 27bd b1de e03d
000002f0: 58c4 0dbe cdc9 833d ffde 04be 3c31 36bd
00000300: 7d8e babc b4c4 783e bba3 613e e5ca edbd
00000310: 0c46 853e a2dc 953c 50ff 743e e7f8 3abe
00000320: ed43 113e 7de2 283e fd14 913e be7c dabd
00000330: a5bc 5abe eb7c cf3d de1f 0c3e 22f2 b03e
00000340: 6714 983d e248 853e 9135 7b3c 2cfd 94bd
00000350: 5f7c 173e fb75 293e 96a8 eebd 73b8 77bd
00000360: 90fb 4a3d 93fb c0bd ba26 c9bc b655 babe
00000370: 91d0 dabd 7a2c 853e 6614 99bd 4543 493c
00000380: d5eb 4dbe acd8 953e 3aff 42be 1a9d f73c
00000390: 38a5 acbe d991 9e3d 9be4 583e 6a3a b63c
000003a0: be67 783d 05f2 a03d 6d26 5b3e a183 c8bd
000003b0: 0c24 73bd 7d23 6fbe 1df4 263d 9a39 55be
000003c0: 7be9 82be 53c3 213e 7d2a e23d 902f 6fbd
000003d0: 26de 3cbd 26c6 543d 250f 0e3d 9eff 793e
000003e0: 1acf 92be c08b abbd 45ac 8d3c 1735 58be
000003f0: e587 c0bd 9ea2 96bc 1feb f33b b738 c83e

bias f4 [64]
-0.020181686 -0.001266175 -0.015417623 -0.021834828 -0.0010990655 -0.03719589 -0.027028736 -0.010974411
-0.006705271 -0.06530192 -0.01789512 9.593622e-05 -0.020308523 -0.022249674 -0.010930273 -0.003133899
-0.06240432 -0.033236705 -0.0030579648 -0.026267221 -0.019761851 -0.021476865 -0.023492897 -0.006186439
-0.047031328 -0.03842837 -0.008046431 -0.014037208 -0.026685145 -0.010690421 -0.011638155 -0.015395363
-0.011130116 -0.06435548 -0.029158648 -0.00051376096 -0.006730722 -0.016700555 -0.032904685 -0.00629345
-0.011628904 -0.016710723 -0.036107905 -0.012564717 0.0 -0.035343632 -0.00089122856 -0.031257384
-0.00957742 -0.0072079017 -0.0330059 -0.007678843 -0.012433678 -0.055973068 -0.010459482 -0.024343332
-0.0044298274 -0.007804733 -0.022956816 -0.018838402 -0.03072174 -0.008830843 -0.014883799 -0.0037753754
00000000: 1054 a5bc c8f5 a5ba 339a 7cbc f4de b2bc
00000010: 850e 90ba b85a 18bd 5e6b ddbc 04ce 33bc
00000020: e4b7 dbbb 03bd 85bd c998 92bc 5e31 c938
00000030: 0f5e a6bc f344 b6bc e314 33bc 1a62 4dbb
00000040: ac9b 7fbd 3623 08bd 2368 48bb 5b2e d7bc
00000050: 9be3 a1bc 40f0 afbc 2d74 c0bc 9db7 cabb
00000060: eca3 40bd 1167 1dbd 2dd5 03bc 51fc 65bc
00000070: ce9a dabc e026 2fbc f6ad 3ebc d53c 7cbc
00000080: 175b 36bc cecc 83bd 1ede eebc eaad 06ba
00000090: 638d dcbb 9acf 88bc 10c7 06bd 4939 cebb
000000a0: 2987 3ebc ede4 88bc e2e5 13bd 3edc 4dbc
000000b0: 0000 0000 7cc4 10bd 56a1 69ba be07 00bd
000000c0: 9cea 1cbc 4330 ecbb 3231 07bd ce9e fbbb
000000d0: a0b6 4bbc 0444 65bd 3f5e 2bbc ab6b c7bc
000000e0: 1628 91bb d8be ffbb ef0f bcbc fe52 9abc
000000f0: 29ac fbbc 3daf 10bc 2ddb 73bc 4a6c 77bb

weight f4 [1, 64]
0.0009201546 0.039229147 -0.0011005272 -0.00013809437 -0.2372323 -0.33075184 9.892048e-05 -0.00057110883
-0.0027111524 0.03792802 -1.7342738e-05 0.05246829 -0.124988854 4.9947164e-05 -0.10098081 -0.10517799
0.37952515 -9.360367e-05 0.002196486 0.00022279662 0.13799646 -0.044099335 -0.16195838 0.0013220896
-0.057519156 0.14830606 -0.10515255 0.00024011545 -0.00014878252 -0.000120366225 -0.00025833238 0.00029235551
0.07317174 -0.43501687 0.00032893094 -0.0023159152 -0.30996135 0.00045123522 0.09953543 0.0013274082
0.00031413877 0.07593132 0.3081058 -0.0004285192 -0.05774895 0.09456148 0.0012941319 4.8384336e-05
0.00028621935 0.001130935 0.15664025 0.13377927 0.20264165 0.052295957 0.0002921892 -0.26675978
0.0029419265 0.00068009284 0.0004644699 0.0032494687 2.3188024e-05 0.00036024454 -0.11691903 -0.00045665764
00000000: 8836 713a beae 203d 913f 90ba 6dcd 10b9
00000010: 06ed 72be 4e58 a9be 8773 cf38 77b6 15ba
00000020: 97ad 31bb 695a 1b3d 3f7b 91b7 fde8 563d
00000030: 28fa ffbd 5c7e 5138 07cf cebd 8f67 d7bd
00000040: 1f51 c23e 164d c4b8 ecf2 0f3b 839e 6939
00000050: f24e 0d3e 81a1 34bd 6bd8 25be f749 ad3a
00000060: 3599 6bbd 8bdd 173e 385a d7bd 80c7 7b39
00000070: 8102 1cb9 206d fcb8 c970 87b9 4b47 9939
00000080: 11db 953d 88ba debe 5d74 ac39 9cc6 17bb
00000090: 41b3 9ebe c493 ec39 3bd9 cb3d 6efc ad3a
000000a0: feb2 a439 e181 9b3d 0bc0 9d3e e0aa e0b9
000000b0: 2a8a 6cbd 73a9 c13d dc9f a93a 49f0 4a38
000000c0: b60f 9639 e23b 943a 4d66 203e 6ffd 083e
000000d0: 4b81 4f3e 4934 563d f830 9939 bd94 88be
000000e0: 56cd 403b 4248 323a 1884 f339 0af5 543b
000000f0: e783 c237 34df bc39 3f73 efbd 8d6b efb9

weight f4 [5, 64]
0.012343003 0.00042330578 0.00846609 -0.00049085263 0.00013816988 -0.0030779825 0.0032353739 -0.0056521455
-0.0013906194 -0.0009768055 0.008754607 2.939982e-05 0.004075984 -0.0010601466 0.00032520248 -0.010025523
0.0013962735 -0.00614798 -0.0005843984 0.006121923 -0.0012188675 0.0012026128 -0.0078711575 -0.0037620296
0.0004801191 0.0061734677 0.0044471663 0.00014272977 -0.0008407888 0.0045190984 0.0026310326 -0.00053428486
0.002997601 0.0069824196 0.0007157504 -0.0057724556 -6.0863666e-05 0.004764754 -0.00077064615 0.0016574474
-0.007765182 -0.009577677 0.0076161404 0.00838259 0.0011311109 -0.010710974 0.00446928 -0.00057939196
0.0042462214 -0.0005415986 -0.0015981673 0.0072848876 0.0011366757 0.00028967662 0.0043679657 0.00382364
0.0021628211 -0.00028207924 -0.0033499845 0.0069342228 -0.0012864342 0.0040864763 -0.0036629662 -0.0032150084
0.005077585 -0.0006120986 0.0030953477 0.0012590527 0.008558281 0.002662295 0.0046655647 0.005031479
-0.0023633256 -0.0028813272 -0.005371533 -0.0005471668 0.0035742167 0.0008036635 0.0011184255 -0.0012069185
-0.0008033212 -0.0017487527 0.00013356449 -0.0020715143 0.003235725 0.0017370168 -0.0037261674 0.00027293502
0.0024932995 -0.0022834486 0.002192663 0.0031265134 -0.0006303173 -7.0585884e-05 0.0020951356 -0.00099519
0.0035739967 -0.008114193 -9.994938e-05 0.0008851636 0.0010779144 0.0025262025 -0.00018585303 -0.0008689859
0.0061433767 -0.0037772257 0.00331768 0.015813107 -0.0025292318 0.0027568769 -0.004669474 0.0012010982
-0.0010118731 0.0011933243 -0.0031868406 0.004995391 -0.0034594918 -0.0021282132 0.0042961813 0.00444148
0.0008007233 0.0071326676 0.007680104 -0.0014862518 -0.0018964383 0.00058085134 0.002724227 0.005421312
0.006990377 -0.00046985614 0.0016874006 0.0076285303 0.002190506 0.002562685 -0.0024408926 0.00052941695
0.0004189692 0.0019548254 0.0043684817 0.00025832636 0.0072767893 -0.0034596173 0.0043088933 0.00092700165
0.0028708836 -0.0023786267 0.0009273688 0.0051947064 0.0041715223 -0.0025800832 0.0018252756 -0.008213118
-0.0029339627 0.0021998317 0.0031463883 0.0042655966 0.0014066545 -0.005893787 0.00091943017 0.004562688
0.0057859994 -0.001698856 -0.0008542377 0.010649216 0.003450585 -0.0067333938 -0.00034385058 0.008534084
0.00287091 -5.383071e-05 -0.005230763 -0.007018933 0.003711372 -0.002892291 0.0077430145 -0.00378744
0.003606162 0.0033301045 -0.0004607969 -0.0032761549 0.0154968565 0.004737399 0.000934371 0.0031294457
-0.0024216345 0.008921265 0.0012147317 -0.0016511796 5.423052e-05 0.0010215977 -0.002502028 0.008364307
-0.013374691 -0.00043514225 0.0027372427 0.0034004354 -0.0049739718 -0.0034738483 0.0017263416 0.0017778509
0.0068888227 0.0018211546 -0.0020407252 -0.0013090611 -0.0046796477 0.008450864 -0.0032706524 0.0007123902
-0.00011381438 0.0076137977 -0.0013696414 -0.0028918155 0.0033871436 -0.0044591953 0.010486152 0.0011570175
-0.00037039697 -0.002903728 0.0047980165 -0.0026094534 0.0005680783 0.00041385138 -0.0008899097 -0.0017155036
0.00037409674 0.0008410622 0.0008465683 -0.004227006 0.0040159994 0.0013625029 0.00021172357 -0.010458845
0.0071324715 0.009677661 -0.0068718144 -0.009467377 -0.00066068006 0.0034701973 -0.0019199298 0.013171374
0.00013334388 0.0020596432 0.0028135837 -0.013230136 -0.004686224 0.010902084 -0.0104546 -6.301067e-05
0.002105201 -0.008019463 0.002335008 -0.00010603888 0.0014600182 0.0001195337 0.002057585 -0.00035632402
00000000: 4f3a 4a3c 24ef dd39 5bb5 0a3c 90ac 00ba
00000010: b2e1 1039 fab7 49bb 9108 543b a235 b9bb
00000020: 7245 b6ba 2708 80ba 7c6f 0f3c a29f f637
00000030: d58f 853b 9ef4 8aba f07f aa39 1742 24bc
00000040: 2a03 b73a ff74 c9bb 5032 19ba 6a9a c83b
00000050: 68c2 9fba fda0 9d3a 07f6 00bc 628c 76bb
00000060: 7fb8 fb39 cd4a ca3b 89b9 913b bba9 1539
00000070: 6268 5cba f214 943b 676d 2c3b 400f 0cba
00000080: 6673 443b c8cc e43b 32a1 3b3a de26 bdbb
00000090: dd47 7fb8 a721 9c3b 3005 4aba b53e d93a
000000a0: 1173 febb b0eb 1cbc d190 f93b 2157 093c
000000b0: c941 943a 157d 2fbc 0a73 923b 56e2 17ba
000000c0: e323 8b3b 11fa 0dba 9979 d1ba 11b6 ee3b
000000d0: 82fc 943a bddf 9739 2721 8f3b 0996 7a3b
000000e0: 1ebe 0d3b 09e4 93b9 6a8b 5bbb 7a38 e33b
000000f0: 929d a8ba d9e7 853b 600e 70bb e4b2 52bb
00000100: df61 a63b 3e75 20ba 51db 4a3b cc06 a53a
00000110: 0838 0c3c e679 2e3b 98e1 983b 1bdf a43b
00000120: 06e2 1abb a6d4 3cbb af03 b0bb be6f 0fba
00000130: 683d 6a3b f2ac 523a 2298 923a 7731 9eba
00000140: f995 52ba 6736 e5ba 720d 0c39 3ec2 07bb
00000150: 750e 543b 9dac e33a b732 74bb b818 8f39
00000160: a066 233b e9a5 15bb c8b2 0f3b 31e6 4c3b
00000170: e13b 25ba 8207 94b8 8b4e 093b 0971 82ba
00000180: b739 6a3b 64f1 04bc ea9b d1b8 530a 683a
00000190: ce48 8d3a a58e 253b 8be1 42b9 a8cc 63ba
000001a0: 614e c93b 558b 77bb 6f6d 593b 7d8a 813c
000001b0: 78c1 25bb b8ac 343b 6302 99bb 2b6e 9d3a
000001c0: d4a0 84ba 5269 9c3a 50da 50bb 60b0 a33b
000001d0: a4b8 62bb 7e79 0bbb fbc6 8c3b d689 913b
000001e0: a2e7 513a 27b9 e93b 62a9 fb3b 56ce c2ba
000001f0: e991 f8ba 4644 183a f288 323b 43a5 b13b
00000200: 880f e53b 0657 f6b9 c52b dd3a c0f8 f93b
00000210: 988e 0f3b b8f2 273b 62f7 1fbb 92c8 0a3a
00000220: 18a9 db39 871c 003b 7b25 8f3b fa6f 8739
00000230: 2272 ee3b bfba 62bb 9e31 8d3b 0702 733a
00000240: 6f25 3c3b bce2 1bbb ab1a 733a 5b38 aa3b
00000250: 44b1 883b 9d16 29bb 163e ef3a 5090 06bc
00000260: ba47 40bb 0d2b 103b a333 4e3b 6bc6 8b3b
00000270: 7e5f b83a ab20 c1bb ea05 713a 9a82 953b
00000280: 7b98 bd3b 26ac deba ecee 5fba 0d7a 2e3c
00000290: 3623 623b cda3 dcbb d846 b4b9 8bd2 0b3c
000002a0: e125 3c3b 49c8 61b8 d266 abbb 14ff e5bb
000002b0: 7d3a 733b 978c 3dbb 1db9 fd3b b336 78bb
000002c0: 5c55 6c3b e23d 5a3b 1d97 f1b9 c2b4 56bb
000002d0: 87e6 7d3c 2f3c 9b3b 94f0 743a 6317 4d3b
000002e0: 49b4 1ebb 7f2a 123c a237 9f3a 656c d8ba
000002f0: 9475 6338 21e7 853a 10f9 23bb 720a 093c
00000300: 8521 5bbc ce23 e4b9 5063 333b d7d9 5e3b
00000310: b3fc a2bb 81a9 63bb 6946 e23a c706 e93a
00000320: a2bb e13b cfb3 ee3a b0bd 05bb cd94 abba
00000330: bb57 99bb 7e75 0a3c 7158 56bb b2bf 3a3a
00000340: a1af eeb8 2a7d f93b 8a85 b3ba 9d84 3dbb
00000350: d7fa 5d3b 711e 92bb 1cce 2b3c 11a7 973a
00000360: d731 c2b9 794c 3ebb ae38 9d3b 5d03 2bbb
00000370: 17eb 143a 31fa d839 d448 69ba c0da e0ba
00000380: 6a22 c439 bb7a 5c3a 3dec 5d3a b282 8abb
00000390: a598 833b 0396 b23a 1d02 5e39 935b 2bbc
000003a0: 82b7 e93b 0d8f 1e3c f52c e1bb 0f1d 1bbc
000003b0: 7d31 2dba 406c 633b 27a6 fbba bfcc 573c
000003c0: 3ad2 0b39 14fb 063b 1a64 383b 36c3 58bc
000003d0: e58e 99bb a89e 323c c549 2bbc 9924 84b8
000003e0: 69f7 093b 1164 03bc ef06 193b 3161 deb8
000003f0: 155e bf3a 2bae fa38 8cd8 063b 00d1 bab9

bias f4 [5]
0.003705029 0.0007439212 -0.001627475 0.0022624456 0.0010461058
00000000: 12d0 723b b503 433a 0051 d5ba 8a45 143b
00000010: 7c1d 893a
