model/medium-4/A2C/model_agent0_seed3.pt (torch, 109505 bytes, 11 tensors)

weight f4 [64, 134]
000000 1a e5 cd 3d 95 23 83 bd a8 9f 11 3e f3 1c 2d bd
       0.10053463 -0.06403271 0.1422106 -0.042263936
000010 c9 b4 ce bd ff a8 db bd 90 98 1a be 87 a2 5d be
       -0.10093076 -0.10725593 -0.1509726 -0.2164403
000020 fe 69 01 3e 46 cf 90 3d 7a 08 2a bd 10 58 40 bd
       0.12638089 0.07070784 -0.04151199 -0.046958983
000030 a0 2c 3b bd 41 89 eb bc 1b 35 65 be 28 87 84 3d
       -0.045696855 -0.028751971 -0.2238354 0.064710915
000040 fa f9 75 3e 80 53 f0 bd 08 37 e3 3d 3d a4 be bc
       0.2402114 -0.11734676 0.11094481 -0.023271674
000050 67 17 d1 bc c5 54 2c be 3c f7 d2 3d d1 0f 40 3e
       -0.025523854 -0.16829212 0.103010625 0.18756033
000060 6b a1 e2 bd a5 6d 19 3e 04 f2 4c 3e 41 1b bb bd
       -0.11065944 0.14983232 0.20014197 -0.09136058
000070 87 83 2a be 98 3b 02 be 55 18 8e 3d c7 06 a0 3d
       -0.16651736 -0.12718046 0.06938235 0.07813793
000080 8f 9b 47 be bb cc b5 3d c9 1d d9 bd b2 f8 70 bd
       -0.19492935 0.0887694 -0.10601384 -0.058830924
000090 e0 04 80 be eb f5 7c 3c 73 d1 45 3d f0 e1 53 bc
       -0.2500372 0.015439491 0.04829545 -0.012932286
0000a0 b0 ce 91 3d 9a cf c0 3d 0f 43 ef 3d 88 e5 1b be
       0.07119501 0.09414597 0.11682712 -0.15224278
0000b0 30 17 56 3d c0 1d ca bd 8c 97 37 bb 03 28 11 bd
       0.052268207 -0.098689556 -0.0028013913 -0.03543855
0000c0 b4 16 10 3e 99 79 74 3c 1f 14 99 bc a9 49 6d bd
       0.1407116 0.014921569 -0.018686352 -0.057931576
0000d0 d4 96 09 bd 22 5b f0 bc 88 4c 95 be cd 45 96 bd
       -0.033591107 -0.02934033 -0.2915995 -0.07337532
0000e0 27 3b 0d be 92 cc 04 bd 76 ad 5d be 78 64 00 3e
       -0.13792096 -0.032421656 -0.21648201 0.12538326
0000f0 0b 55 e4 bd 6b 3f b3 bd 15 65 1d 3c 3d ed 44 3e
       -0.11149033 -0.087523304 0.009606619 0.19231124
000100 30 16 ca bd 3f 85 e2 bc c4 88 29 be f3 8e e4 bc
       -0.09867513 -0.027651427 -0.16556078 -0.027900195
000110 35 6c 94 bc b6 f6 24 3e 48 98 bc bd e7 fd 2e 3e
       -0.018118003 0.16109738 -0.09208733 0.17089044
000120 07 2f cf 3d 09 fb 97 bd 64 d4 12 be 66 d0 32 3e
       0.10116392 -0.07420928 -0.14338833 0.1746231
000130 ed 07 87 3d 06 6c 32 3d 57 1c 14 3e 28 75 23 3e
       0.065933086 0.04356005 0.14463936 0.1596266
000140 21 04 1a 3e 9d 66 65 3e aa ce 0d 3e 99 73 ab 3c
       0.15040638 0.22402425 0.13848367 0.020929145
000150 69 fd 55 be 03 82 b4 be bd 0a 12 3d e7 15 69 bd
       -0.2089745 -0.3525544 0.035654772 -0.056905653
000160 15 98 73 3d 8d c9 0a be a1 e1 84 3d e1 9f e5 3d
       0.05947121 -0.13553448 0.06488348 0.11212135
000170 d0 f9 24 3b a0 87 3f be 77 48 57 3d e5 f9 04 3e
       0.0025173314 -0.1870408 0.052559342 0.12985952
000180 bb 00 2f 3c f3 84 6b 3e 7a c9 ba bd f3 6e 26 3e
       0.0106813265 0.22999935 -0.0912046 0.16253261
000190 8f 95 db 3c 86 5b bf 3c ef ee 8a bd 59 b4 11 3e
       0.026804714 0.023359071 -0.06783854 0.14228953
0001a0 75 6a 06 3e a1 fb f0 3d 21 e9 af bd 41 1d 80 3d
       0.13126548 0.117667444 -0.08589388 0.0625558
0001b0 b7 e7 c9 bd 62 52 9c 3c 09 26 cb bd 98 0c ee 3d
       -0.09858649 0.019082252 -0.09919364 0.11623496
0001c0 f2 74 7f bc 12 a6 9c 3d e2 8a 8d 3d 2c c2 4c bd
       -0.015591847 0.07648863 0.069112554 -0.049989864
0001d0 50 33 1f be 8c de 87 3d f0 a8 8c 3a 49 08 23 bd
       -0.15546918 0.06634244 0.00107315 -0.039802823
0001e0 f8 a2 27 3e 65 f9 b6 3c 26 49 1d 3d 4f 5f 84 bc
       0.16370761 0.022335717 0.038399838 -0.016158728
0001f0 60 1c 69 bd 78 4c 4c be 34 b3 ca bc 1a 5e 77 3e
       -0.056911826 -0.19951046 -0.024743654 0.2415699
000200 6a 69 3d bd 18 f6 57 3e 14 ed 04 bd 40 f4 5b bd
       -0.04624311 0.21089971 -0.032452658 -0.05369973
000210 cd 37 62 be 67 b3 19 3c 76 cd b2 bc 37 de 81 bd
       -0.22091599 0.009381152 -0.021826487 -0.06341212
000220 83 b0 9d bc e3 09 14 be 6c 10 94 3e b6 ad d8 bc
       -0.019249206 -0.14456896 0.2891878 -0.02645002
000230 aa 31 15 bd 4c d2 aa 3d 42 bf 18 be 66 7a 06 bd
       -0.036424316 0.08340892 -0.14916709 -0.032831572
000240 2b 54 00 bd 8c 92 c9 3d 8e 4e 7a 3c 98 a4 5e bd
       -0.03133027 0.09842405 0.015277518 -0.054356188
000250 7a 14 7e be 66 f1 28 3d 6f 7c 31 bc 7e 9b 8e bd
       -0.24812499 0.04124584 -0.01083289 -0.069632515
000260 b2 94 26 3e 27 4d 82 3e 08 db ea bd 50 37 06 3e
       0.1626766 0.25449488 -0.11467558 0.13107038
000270 09 5a 12 3e 5a 2a b0 3d a2 7a d2 3d e9 22 0c 3d
       0.14292158 0.08601828 0.102772966 0.03421298
000280 dd bc 50 3d 34 8e 49 3e 48 af df bd d8 60 09 3d
       0.050961364 0.19683152 -0.10922104 0.033539623
000290 d1 51 25 be 43 64 26 3e e5 36 d4 3c d5 c5 f9 bc
       -0.16144492 0.16249184 0.025905082 -0.030489841
0002a0 fe 40 13 3c 7f d9 7f 3d 96 96 07 be 1c 06 63 bb
       0.008987663 0.06246328 -0.13241038 -0.0034641093
0002b0 77 02 35 3d c7 c6 ce 3d 7e e8 45 be 03 95 26 3e
       0.044191804 0.100965075 -0.1932697 0.16267781
0002c0 99 a3 20 bd bb 95 26 3d 62 94 12 3d fe 84 09 be
       -0.03921852 0.040670138 0.03578604 -0.13429639
0002d0 52 cb 9e bd 42 78 3b be ec f6 05 3e b8 da 4f 3e
       -0.07753624 -0.18307593 0.13082474 0.20298278
0002e0 4b d1 42 3e e8 2f ac bd d7 c5 c8 3d 0e fb 34 bc
       0.19025151 -0.08407575 0.0980336 -0.011046184
0002f0 b0 90 95 be f9 cc 0f 3c 04 1f a4 3d b9 9a 0a 3e
       -0.2921195 0.008776897 0.08013728 0.13535585
000300 a5 c0 48 3d 55 78 d9 3d ec dc a7 bd 6e 59 a4 39
       0.049011845 0.10618655 -0.081964344 0.00031347148
000310 20 d3 b3 3d b1 64 10 be d0 c4 14 3e 3f 00 db bd
       0.08780503 -0.1410091 0.14528203 -0.10693406
000320 47 1f 38 3e ed 4a 41 be de 95 6a 3e 8e 83 34 be
       0.17980681 -0.18876238 0.22908732 -0.17628309
000330 95 4b 1a be d4 45 68 3d 07 2a 14 bd 4d 20 4f 3e
       -0.15067895 0.05670722 -0.036172893 0.20227166
000340 c4 43 6e bb fd 6b e0 bd 25 7d 72 bd ee fd 6a 3c
       -0.003635631 -0.10958097 -0.05920138 0.014342768
000350 ac 1f b7 bd 9a c0 91 3d dd ec c5 be ae 55 1d bd
       -0.08941588 0.07116814 -0.38657275 -0.03841179
000360 2c 20 04 3e ff e6 05 3d 73 43 49 3d bb c2 72 bd
       0.12902898 0.032691 0.04913659 -0.05926774
000370 d2 9d 5c 3c b3 6f 27 bd 98 7b 1e be 3b c8 52 bd
       0.013465362 -0.04087801 -0.15476835 -0.051460486
000380 58 74 d8 3d 37 92 0c 3e 76 59 74 3e 09 3c 47 bd
       0.10569066 0.13727652 0.23862252 -0.04864124
000390 6f d0 20 be 75 13 a9 3d 62 c9 51 3d db 8a ec 3c
       -0.15704511 0.08255664 0.051217444 0.028874805
0003a0 d1 fd 0b bc 57 b2 dc 3d 75 b4 83 3b 06 5a b6 bc
       -0.008544401 0.10776203 0.004019315 -0.022259723
0003b0 9d 85 c9 bd 43 93 25 bd fd a1 f1 3d a7 a1 8d bc
       -0.09839938 -0.040423643 0.11798475 -0.017288996
0003c0 aa 49 17 3e 3f 07 f4 3c b3 94 d7 3d 90 96 4a be
       0.14774194 0.029788611 0.10526409 -0.19783998
0003d0 8e 76 11 3e 08 d7 32 3e ac 24 63 3d 52 77 02 3e
       0.14205381 0.1746484 0.055454895 0.1274083
0003e0 63 d7 ce bc 68 9a fc bd f7 80 24 3e cc 88 1b bd
       -0.025249189 -0.12334138 0.16064821 -0.037972257
0003f0 11 21 a9 3d ef 0c 99 bd 4b a7 14 bc 2e 64 2c bd
       0.0825826 -0.0747317 -0.009073089 -0.042087726

bias f4 [64]
000000 e7 c2 a9 3b 86 97 d8 36 e4 fb 18 bc ff 9e 62 bb
       0.005180705 6.4549413e-06 -0.009337399 -0.0034579632
000010 d6 63 74 39 20 d8 5c bc 06 fc 9f bb 07 f3 2f ba
       0.00023306845 -0.013479263 -0.0048823385 -0.0006711934
000020 3e 42 8e bb 9f ea 32 b9 b0 56 b6 bb 44 d4 ab b8
       -0.004341393 -0.00017062806 -0.005564533 -8.193453e-05
000030 f5 40 a9 bc c2 cb 51 bb a3 d0 c8 bb 4f f6 02 bb
       -0.020660857 -0.0032012318 -0.006128387 -0.0019983237
000040 f7 06 9a 3b 1e e6 63 bc ca 2b 75 bc 31 c5 d9 ba
       0.0047005373 -0.013909845 -0.014964053 -0.0016614554
000050 21 d0 bc b8 4c 06 e4 b7 20 f1 e6 ba e8 fe 10 bc
       -9.0033056e-05 -2.718265e-05 -0.0017619468 -0.008849837
000060 20 72 99 bc 7a 5e 8a ba 84 dc 8b bb b7 86 87 bc
       -0.018731177 -0.0010556721 -0.004268231 -0.01654373
000070 0e 28 a3 3a 81 a8 60 3b ef c8 ea ba 50 d0 94 bb
       0.001244785 0.0034280124 -0.0017912666 -0.0045414343
000080 6d 28 88 bc fa ba 3e bc f7 97 ad ba e8 11 74 b8
       -0.016620839 -0.011641258 -0.0013244142 -5.819081e-05
000090 60 d3 c9 b9 7d 23 83 bc b3 08 2e bb 4b a4 1b ba
       -0.00038495194 -0.016008133 -0.0026555478 -0.00059372623
0000a0 6c 2d 5c ba 1f 9b e5 37 77 5f 7a bb 0d 52 99 bb
       -0.00083991024 2.7371161e-05 -0.0038203874 -0.0046789707
0000b0 3a 2f 0c 3b d9 a2 6f b8 a1 d1 34 39 1c b1 b4 ba
       0.0021390454 -5.7133704e-05 0.0001724423 -0.0013785693
0000c0 0a 91 29 bb 0d d5 9d ba 51 cc a8 bb df d0 cd bb
       -0.0025873804 -0.0012041643 -0.0051513095 -0.006281003
0000d0 8d 83 b1 bb 82 5d ba 39 c3 b8 4d bc 06 5a b9 3b
       -0.0054172934 0.00035546353 -0.012556258 0.0056564836
0000e0 25 88 cf bb ac 76 d8 39 89 50 26 bc 7d 68 b1 bc
       -0.0063333684 0.00041287148 -0.010151037 -0.02165627
0000f0 c8 76 9e bb 89 b4 da 3a 2f db c9 3a 19 8e a1 bc
       -0.004835937 0.0016685884 0.0015400405 -0.019721078

weight f4 [64, 64]
000000 ef 59 76 3e a0 b0 e6 bd f3 d5 5f be 8e 74 2e be
       0.24057744 -0.11264157 -0.21858959 -0.1703665
000010 6f 72 c2 bd 51 d6 4b 3e 1d 67 ac bd f6 47 b1 3d
       -0.09494483 0.19905974 -0.08418105 0.086563036
000020 36 4d 1c 3d 06 b7 af 3d 26 06 19 3e f9 96 93 3d
       0.03815957 0.08579831 0.14943752 0.0720653
000030 e9 74 bb 3d 89 57 a3 3e 62 f2 06 bd 5b 4f 8b 3d
       0.09153158 0.31902722 -0.032945998 0.06802245
000040 fb b0 e5 bd 14 11 46 3d b3 2f ba 3e 7c 5f 8f 3d
       -0.11215397 0.04835613 0.36364517 0.07000634
000050 7e 9f 48 3e 76 fd 3d bd a3 77 0c be 85 e2 9b 3c
       0.19592091 -0.046384297 -0.13717513 0.019028911
000060 7a df 88 3d db 78 14 bd 75 13 e4 3d 73 a0 3d 3d
       0.0668325 -0.03624807 0.11136524 0.046295594
000070 13 49 9d 3e 8f d8 64 be 83 0c 5a bd 54 2e 16 bc
       0.30719814 -0.22348236 -0.05323459 -0.009166319
000080 e3 50 bc 3d 46 7a 85 be 09 99 20 3d 9d 85 92 bd
       0.091951154 -0.2606985 0.039208446 -0.07154391
000090 4b c1 36 be 84 28 a2 3e 2f c0 8c 3e 93 7d 92 be
       -0.17847173 0.31671536 0.27490374 -0.2861143
0000a0 76 49 47 be 4f 0e 69 be 92 86 bc 3d 12 fe 38 bb
       -0.19461617 -0.22759365 0.09205355 -0.002822761
0000b0 79 a4 e8 3d ca 8d 12 be 5f 32 ab bd ae b1 4a be
       0.11359496 -0.143119 -0.08359217 -0.19794342
0000c0 16 8d 37 bd c8 57 c7 bc 90 f5 1f be d9 bd d8 3e
       -0.044812284 -0.02433385 -0.15621018 0.42332342
0000d0 72 4d ab 3b 2b a6 7f bb 9a 04 f1 3c 0d 62 97 3d
       0.005227738 -0.0039008956 0.02942114 0.073917486
0000e0 87 0a c2 bd 1f cf 78 be c0 20 dd 3e 9c 44 93 3e
       -0.09474664 -0.2429776 0.4318905 0.28763282
0000f0 68 22 fd bd 5c 2f 54 3d c5 37 58 bc a2 c0 2e 3e
       -0.12360078 0.051802978 -0.01319689 0.17065671
000100 95 52 50 bd 1b 86 87 bd 03 b8 2c 3d 65 de dd bb
       -0.050860006 -0.066173755 0.042167675 -0.0067708963
000110 b1 c7 6f be d2 b1 96 bd a9 ba ac be 04 30 16 be
       -0.2341602 -0.07358135 -0.3373616 -0.14666754
000120 6e 8e 29 be 3c d1 c1 bd e7 9f 16 3c f3 2e 1f ba
       -0.16558239 -0.094637364 0.009193397 -0.00060723646
000130 86 a5 35 be 06 1a ab bd b1 bc f2 bd 70 61 d3 bd
       -0.17738923 -0.08354573 -0.11852396 -0.10321319
000140 97 04 85 3d 28 b7 f1 bd f2 10 2a be 6a c5 5c 3e
       0.06495016 -0.118025124 -0.16608027 0.21559682
000150 1e d6 29 3e ea 77 17 bd 12 ce e9 3d f6 19 4f bd
       0.16585585 -0.036979593 0.11416258 -0.050561868
000160 16 70 c1 be ab 0b f4 3d ef b7 a9 bd db 6d d8 bd
       -0.37780827 0.11916288 -0.08287036 -0.10567828
000170 84 5d 8b be 25 99 8b be 0a f4 46 bd 6b 9c a4 be
       -0.27219784 -0.27265278 -0.048572578 -0.32150587
000180 06 86 c9 3d d1 4f ea bc e1 8e 4b 3c 81 17 47 3d
       0.09840016 -0.028602513 0.012424202 0.0486064
000190 4b 5d c8 be 84 ef 4d 3e bd bb 06 be b1 00 16 be
       -0.39133677 0.20110899 -0.13157554 -0.14648701
0001a0 ad 3f 42 3e 24 21 4d bc af 6b 77 3e ad 36 ff bd
       0.18969603 -0.012520108 0.24162172 -0.124616005
0001b0 f6 c9 6e bc 2c ce 37 be 5e de 6b be 6e 25 31 bd
       -0.014574518 -0.17949742 -0.23034045 -0.043248586
0001c0 78 30 8f be db 2c 17 bd 06 76 92 be 41 26 24 be
       -0.27966666 -0.036908012 -0.2860567 -0.16030218
0001d0 38 de b4 3c c1 01 b1 3d 7e 01 47 bd 18 fe ec be
       0.022078618 0.08642913 -0.048585407 -0.46287608
0001e0 0d 5f b2 3d 2b a3 ed bd 01 66 7c 3e 12 0f 5d 3d
       0.08709536 -0.116033874 0.24648286 0.05396945
0001f0 b4 ee 3b be 66 a5 8f be fe a2 a6 bd 2a 6a 89 be
       -0.18352777 -0.28055876 -0.08136557 -0.2683881
000200 51 18 d9 be b3 2b 89 3e 32 d5 15 3e da eb 76 be
       -0.42401364 0.26791152 0.14632109 -0.24113408
000210 73 98 c7 bd 50 37 2a be fa fb 33 3d 92 17 bd bd
       -0.09745874 -0.16622663 0.043941475 -0.09233011
000220 07 4c d3 3e d4 01 f3 bd c1 67 b5 bc de 0f c1 be
       0.41268942 -0.11865583 -0.0221442 -0.37707418
000230 17 94 1e bd cc 6b 81 3e 02 e6 fc 3d 92 fa 32 be
       -0.03871545 0.25277555 0.12348558 -0.17478397
000240 85 61 e3 bd 78 47 23 be 81 1c 16 be 01 15 46 be
       -0.11102585 -0.15945232 -0.14659311 -0.1934395
000250 61 03 9f 3d c1 40 00 3e 3c 7a 3c be 83 a9 b0 3e
       0.07764316 0.12524702 -0.18406004 0.34504327
000260 f4 be 87 bd 0c c1 cb bc d7 39 22 3d 8c 39 63 3e
       -0.06628218 -0.024872325 0.03960594 0.22189921
000270 04 ef 4f 3e b9 41 8c bc 06 fb 1a be 31 34 c1 3b
       0.20306021 -0.017121183 -0.1513482 0.0058961143
000280 46 25 bb bd 31 e4 32 be ed f4 a6 bd da 2b 3b 3d
       -0.09137969 -0.1746986 -0.08152185 0.045696117
000290 2b 04 1c 3d a5 e2 c3 bd 9c b3 7b 3d bc ba b9 3c
       0.038089912 -0.095647134 0.061450586 0.02267205
0002a0 95 37 b8 3d 15 23 6f bd c9 2f 77 3e 09 9c 6d 3d
       0.089949764 -0.058383066 0.24139322 0.058010135
0002b0 a9 79 3c bc 72 53 87 be 9b 2c 00 be 0d 9f 78 bd
       -0.011503615 -0.2643085 -0.12517016 -0.060698558
0002c0 07 05 e2 3d 5a 52 49 3e 07 1b 34 3e 3b 3e 0d be
       0.11036115 0.19660321 0.17588435 -0.1379327
0002d0 ea 0d 88 3e ef 49 1f be ba e3 09 be f8 f3 99 be
       0.26573116 -0.15555547 -0.13465777 -0.30068946
0002e0 c7 bb 57 3d 37 27 fe b9 68 62 01 3d 32 62 41 3e
       0.052669313 -0.00048475873 0.03158799 0.18885115
0002f0 6a 63 39 3e 8d 5f 0f bd 3a b8 bf be eb 46 32 3e
       0.1810433 -0.035003234 -0.3744524 0.17409866
000300 57 bd 8a 3d 03 25 a3 3e 72 5b 55 bd 28 70 45 3e
       0.06774395 0.31864175 -0.052089162 0.19281065
000310 ce 65 cd 3d 3f 8b dc bd 4f 85 31 3e 87 f8 95 bd
       0.10029183 -0.107687466 0.1733601 -0.073227935
000320 c4 82 32 3e ea 86 84 bd ae ac 50 bd ef 57 c5 3d
       0.17432696 -0.06471045 -0.05094593 0.096359126
000330 47 65 03 3f ba 3e 13 be a2 98 c8 bd 47 18 9b be
       0.5132641 -0.14379397 -0.097947374 -0.3029196
000340 8b 59 a3 bd 73 a2 28 be 0d 62 b4 3c 5b 3b c2 bc
       -0.07976063 -0.1646822 0.02201941 -0.023709944
000350 36 c1 e1 3d 4f 3b b9 3d d7 9d 5f 3e ae 95 43 bd
       0.1102318 0.09044515 0.21837555 -0.047750168
000360 9a 82 0a 3e e8 40 0f 3e 41 98 14 3e b8 4c 3d be
       0.13526383 0.13989604 0.14511205 -0.18486297
000370 d4 d2 0b be d9 14 22 bd d0 49 87 be 4e 32 b3 bd
       -0.13654643 -0.039570663 -0.26423502 -0.08749829
000380 65 a2 9b 3e 0a d8 67 be c9 76 05 3e 2e 17 de 3e
       0.30397335 -0.22641006 0.13033594 0.4337706
000390 78 4c 84 bd dc 2a cb bd a9 2d 43 be 65 de 80 3e
       -0.06459898 -0.09920284 -0.19060387 0.25169674
0003a0 9d 85 81 3c ee 7a f2 bd b6 d8 71 be c7 47 a3 3a
       0.015810782 -0.11839853 -0.23617825 0.0012457304
0003b0 30 8c 97 3e 84 9e 74 3c 07 fe 43 bd f3 95 f6 bd
       0.29599142 0.014930371 -0.04784968 -0.12040319
0003c0 5a 32 12 bc fb 96 bb be 82 7f 17 3e 1f 51 28 3e
       -0.008923138 -0.36638626 0.14794734 0.16437195
0003d0 31 29 77 3d 0c 92 85 bd 01 3d a4 3d af f6 09 3d
       0.060342018 -0.06521997 0.08019448 0.03368252
0003e0 a3 8b 53 bc b3 72 64 be 5d 7e 32 3d a6 b9 21 3c
       -0.01291171 -0.2230938 0.04357754 0.009870922
0003f0 1a 28 08 3d 59 74 91 be 3c 08 4f be 05 f7 36 be
       0.03324137 -0.2840908 -0.20217985 -0.17867668

bias f4 [64]
000000 80 be d5 bc 00 00 00 00 df b0 38 bc 33 f9 7f bc
       -0.026091814 0.0 -0.011272638 -0.015623379
000010 0e c7 08 bc f4 f3 06 bc 57 4b ab bb 28 75 ad ba
       -0.00834824 -0.008236874 -0.005227487 -0.0013233768
000020 56 16 db bb 2a a1 b9 bb 42 cc 1d b9 44 3f 38 bc
       -0.0066860123 -0.005664964 -0.00015048779 -0.011245552
000030 24 e8 93 bc f8 f7 82 b9 86 c7 12 bb 55 c2 91 bb
       -0.01805503 -0.00024980283 -0.0022396757 -0.004448215
000040 92 9c 8e bc a1 e9 1a bc 42 09 4b bc 50 8d 3a bc
       -0.017408643 -0.009455116 -0.012392344 -0.011386231
000050 6b 08 dc bc 27 05 36 b8 2d 16 70 bc 3c f4 e6 b7
       -0.026859483 -4.339698e-05 -0.014653725 -2.7531867e-05
000060 03 fe 1b bb f5 c9 22 bb ac a4 32 bc fd d8 40 bc
       -0.0023802526 -0.0024839614 -0.010903519 -0.011770484
000070 47 29 8c bc 27 4e 30 bc 35 71 ac bc 7b 14 a1 ba
       -0.017109526 -0.0107608205 -0.021050075 -0.0012289429
000080 f1 81 5a bc d4 48 c7 38 3d ac b6 b8 82 08 20 bc
       -0.0133366445 9.502625e-05 -8.710518e-05 -0.009767653
000090 8f 64 d1 bb 43 67 40 bc f5 07 bf bc 03 7e c7 bb
       -0.0063901613 -0.0117433695 -0.023319224 -0.00608802
0000a0 37 31 34 ba a4 14 51 bc 23 3a 99 ba 36 9d 2f bc
       -0.00068737887 -0.012761269 -0.00116903 -0.010718634
0000b0 8b 24 6a bb 7c bf 55 bb 39 fd dd bb 8a 06 87 bc
       -0.0035727348 -0.0032615354 -0.0067745713 -0.01648261
0000c0 da e8 1d bc fd bf 64 b7 e9 44 2e bb 04 83 91 ba
       -0.009638036 -1.363456e-05 -0.0026591367 -0.0011101668
0000d0 55 cb 2e b7 32 93 05 bc 59 f5 74 3a 8b 8f 7a 37
       -1.041855e-05 -0.00815277 0.0009344421 1.4934582e-05
0000e0 c1 51 88 bb 48 20 01 bc 49 28 bf bc 60 61 40 b7
       -0.0041601365 -0.007881232 -0.02333464 -1.1466764e-05
0000f0 83 71 83 bb e8 ac cc bb a7 67 40 bb bd 31 1e bc
       -0.0040113344 -0.006246198 -0.0029358657 -0.009655413

weight f4 [64, 134]
000000 dd 0d fd 3c 6f f7 74 3d 35 b7 5b 3e c9 64 62 be
       0.0308904 0.059806284 0.21456607 -0.22108759
000010 8a e5 1f be b6 18 ef 3d f1 71 04 3d a9 9b 6c bd
       -0.15614906 0.11674635 0.032335225 -0.057765637
000020 4a ad 32 3c bc 71 8e bb a4 aa 9a bd cb 8d 23 3e
       0.010905573 -0.0043470543 -0.07552078 0.15972058
000030 7a 83 14 be d0 2d 8b bd cd 57 33 bd b0 2c 1e 3e
       -0.1450328 -0.067958474 -0.043784905 0.15446734
000040 a9 c0 b8 3e 0d 3e 93 3d a2 42 ac 3d 2c 97 2a 3d
       0.36084488 0.071895696 0.08411147 0.041648075
000050 ca f8 95 bd d5 fb df 3c 81 80 55 3d 0e ee c3 bd
       -0.073228434 0.027341763 0.052124504 -0.0956689
000060 56 be 23 bd 1f 96 76 bd da 34 2a be a1 58 6e bc
       -0.03997644 -0.06020176 -0.16621724 -0.014547498
000070 f1 1c 9c 3d a0 eb 6d bd 35 9e 1f be 6a 11 9b bb
       0.07622708 -0.058086038 -0.15587695 -0.0047323005
000080 83 8d c2 3a 23 30 93 3c cf d8 74 bc ba 62 cb bd
       0.0014843199 0.01796729 -0.014944269 -0.0993094
000090 6b 9b 19 bc c5 d7 41 3e 2e 04 21 be ea ab a3 be
       -0.009375433 0.18929966 -0.1572425 -0.31967098
0000a0 72 19 9c 3b 60 37 df 3c e4 62 14 be 0d a7 51 bc
       0.0047637755 0.027248085 -0.14490849 -0.012796176
0000b0 60 04 18 be 1f f1 c5 3d 37 06 e3 bd 4d 2a 36 3b
       -0.14845419 0.09665131 -0.1108517 0.002779621
0000c0 26 ee 08 3d 05 5f 26 3d 57 74 08 3e 97 1f 2e 3e
       0.03343024 0.04061796 0.1332563 0.17004238
0000d0 c0 7c 7c 3d c6 e6 bc bc c2 bc e2 bc 6e fd 32 be
       0.06164241 -0.02305926 -0.027677897 -0.17479488
0000e0 ca 96 64 bb 6a 5d 6e bd a3 0d 2e 3d a7 27 a4 bd
       -0.0034879916 -0.058194555 0.042493474 -0.080153756
0000f0 85 6e 7d 3d bf e6 c4 bd 0d ef 7c 3c bc f0 21 3e
       0.061872978 -0.09614324 0.0154378535 0.15814489
000100 2f 06 63 3e 20 2b dd 3d 0f 92 13 be b1 7f 89 bd
       0.22170328 0.10799241 -0.14411186 -0.06713808
000110 28 30 56 be 8c 04 19 bd 21 79 3a be a8 23 2d 3e
       -0.20916808 -0.037357852 -0.1821027 0.16908133
000120 5c 6b 7c 3d d3 df 01 3e 61 6a da bb 1f 43 1b be
       0.061625823 0.12683038 -0.0066655134 -0.15162323
000130 98 50 e4 bd c5 37 2f be 90 87 be bd 2d 4e 18 bd
       -0.111481845 -0.17111118 -0.093032 -0.03718393
000140 4b 4e a0 3d 2e 04 96 bd a4 e6 86 3d 8e e2 eb 3d
       0.07827433 -0.07325016 0.0658696 0.11517821
000150 2a 7c fb bc 50 21 05 be f0 52 6c 3d 32 0e 70 be
       -0.030698854 -0.13000989 0.057696283 -0.23442915
000160 f2 51 ed bc 8a 97 7b 3e ba d7 67 bd ff 8c 62 3d
       -0.028969739 0.24569526 -0.056602217 0.055310246
000170 29 96 ca 3d 40 a6 ff 3d bc 92 fd 3d 7a fb 4f 3e
       0.09891922 0.124828815 0.12381503 0.20310774
000180 ad 36 d3 bd 74 1e 20 bd 8a 64 05 bc c2 26 4d bb
       -0.10313163 -0.039091542 -0.008141646 -0.003130362
000190 98 0a 98 bc f4 b1 b3 bd 88 87 af 3a 81 3f fb 3d
       -0.018559739 -0.08774176 0.0013391832 0.12267972
0001a0 89 27 49 3c 80 5a 83 bd 64 bb 3e 3e 77 64 fc bd
       0.012277492 -0.06413746 0.18626171 -0.1232385
0001b0 4f 09 36 be a3 47 19 3d 88 22 88 bc 31 be 03 be
       -0.17776988 0.037421834 -0.016618028 -0.12865521
0001c0 55 d7 90 bd 5d 2c 8b 3e 9e b7 0f bc e2 f3 84 3c
       -0.07072321 0.27182284 -0.008771805 0.016229574
0001d0 d1 4a ca bd 1c 87 8b bd 1f 41 3a bd a1 58 db bd
       -0.09877551 -0.068128794 -0.04547226 -0.10710264
0001e0 a6 51 49 bb 29 a8 ba bd 00 1d 6c 3e 71 0e 0c bd
       -0.0030718832 -0.09114105 0.23057938 -0.03419346
0001f0 09 db 03 be e0 26 b6 bd a8 5e 1c be fe db ff bc
       -0.12876524 -0.088941336 -0.15270483 -0.03123283
000200 4e 9f b6 bc 59 9b 0e 3d a2 06 54 3e e8 91 49 bd
       -0.02229276 0.03481612 0.20705655 -0.049211413
000210 1f 7a 0f 3e 00 45 7c be c4 ed f8 bd 13 c4 5a bd
       0.14011429 -0.24635696 -0.12154725 -0.053409647
000220 be 93 f3 3d 57 17 04 3e f5 ac e3 bd c7 93 44 bd
       0.11893414 0.12899528 -0.11116973 -0.047992494
000230 b6 26 10 be 92 b3 e0 bc 37 2b 0f bd 89 a2 ad bd
       -0.14077267 -0.027429376 -0.034953322 -0.08478267
000240 c4 65 7a bd 22 e1 8e bb a6 5a 3f 3e d2 a5 01 3e
       -0.061132208 -0.004360334 0.18686923 0.12660912
000250 c4 6a 06 be da 6a c9 bb 5e 80 33 be 9e 2a 82 bd
       -0.13126665 -0.006146771 -0.17529437 -0.06355785
000260 af 09 3a 3d db ef 3c 3e bd bc 03 bd 87 dc 58 3d
       0.04541939 0.18450873 -0.032162417 0.052944686
000270 ca 64 59 3c b3 22 03 bd 56 ea 91 3e 9b ec c9 bd
       0.013268659 -0.032015514 0.28499097 -0.09859582
000280 51 30 dd bc 49 a8 2f 3e 66 3f 55 3e 92 fa 05 3e
       -0.027000578 0.1715404 0.20824966 0.13083866
000290 28 3c 2e 3e 6f 48 44 3e f6 b1 04 be 4b f9 40 3b
       0.17015135 0.19168256 -0.12958512 0.0029445465
0002a0 01 f1 29 3e 3f 5b a6 bd 05 9e 29 bb 23 92 02 be
       0.16595842 -0.081228726 -0.002588154 -0.12751059
0002b0 ff 55 d7 bd 6f 8f 0b be c3 31 65 3c 4a df 47 bd
       -0.10514449 -0.13628934 0.013988915 -0.04879693
0002c0 94 b0 06 3e 97 e0 2c be 50 2d ac 3d 13 69 ff 3d
       0.13153297 -0.16882549 0.0840708 0.12471213
0002d0 b5 aa d8 bd d9 2d c8 3d 51 5d 28 3d 93 70 3d bd
       -0.10579435 0.0977437 0.04110462 -0.046249937
0002e0 b4 77 cc 3c 3f 1c 2a bc 6e ef 12 be 20 e1 98 3c
       0.024959423 -0.010382711 -0.14349148 0.018662035
0002f0 44 0f cf bd 57 c1 43 bc 06 ae 08 bc 56 99 2e be
       -0.101103336 -0.011947951 -0.008342272 -0.1705068
000300 db 98 fe 3c 18 c3 92 3c f9 df c8 3d b8 82 93 bd
       0.031078747 0.017915294 0.098083444 -0.07202667
000310 56 12 88 3c e0 80 44 3e 3d 8a 37 be 20 60 3c 3d
       0.016610306 0.19189787 -0.17923827 0.04599011
000320 7f 14 ac bb 50 7a a5 3d c5 a4 2b bd 1f f8 13 be
       -0.0052514668 0.0807997 -0.041905183 -0.1445012
000330 9a d9 b8 3d 6c 1a ca 3d 5c f6 20 3e 38 6c 6c 3e
       0.09025879 0.09868321 0.15718979 0.23088157
000340 8d 1a 17 be c7 13 31 be 30 2e 9c 3d b2 08 66 bd
       -0.14756222 -0.172927 0.07625997 -0.056160636
000350 c4 ad 9e 3c f6 4d 16 3e 37 bf 8c 3c 5b cd 05 bd
       0.019369967 0.14678177 0.017181022 -0.032666545
000360 61 56 3d be c1 07 ec bd a9 5b 33 be 47 5a 29 be
       -0.18489982 -0.115249164 -0.17515434 -0.16538344
000370 54 af b5 bd c5 e2 8d 3e 2f 5b 6d bd fe a2 2c bd
       -0.08871332 0.27712074 -0.057948288 -0.04214763
000380 17 00 0e 3e 6e 01 1d be e0 a2 8b bd 07 4a 11 3d
       0.13867222 -0.15332577 -0.06818175 0.03547099
000390 5e c0 54 3e 46 14 ba bd ba d9 18 3e ac 74 60 3d
       0.20776507 -0.09085898 0.14926806 0.054798767
0003a0 ca 82 a6 3d 7c 4b 34 bd 68 a4 68 3e f0 84 24 3d
       0.08130415 -0.0440173 0.22718966 0.04016584
0003b0 ed b7 65 3e 97 66 cb 3c a7 3f cf 3d d0 be 86 bd
       0.22433443 0.024829192 0.101195626 -0.06579363
0003c0 9f d4 71 3e a1 39 9e 3e a9 72 f3 bd a3 01 83 bd
       0.23616265 0.30903342 -0.11887104 -0.063967966
0003d0 0a 12 be bd 79 3a 57 3d db f9 8c bd cf 03 fd 3d
       -0.092807844 0.052546 -0.06883594 0.12354242
0003e0 26 b6 c0 3d db 90 2f be 91 12 f1 bc 65 8d fa bd
       0.09409742 -0.17145102 -0.029427798 -0.12234
0003f0 a0 b8 55 3e a4 ea 7d bc c1 02 01 3e e1 0d d3 bc
       0.2087121 -0.015497837 0.12598707 -0.025763454

bias f4 [64]
000000 63 dc 87 3c 91 f9 5f bc f3 71 f3 bc b9 19 29 ba
       0.01658458 -0.013670341 -0.029717421 -0.00064506714
000010 66 2c a1 bc 8e ab 11 bd e3 da 8d 3b ad f2 83 bd
       -0.019674491 -0.035563998 0.004329072 -0.06442771
000020 7b 4d a0 b8 53 c9 21 3a 54 ca c1 bb 03 c8 21 3c
       -7.6438264e-05 0.0006171662 -0.005914012 0.009874347
000030 8a 49 9b bb 85 cf 51 bc eb f9 e2 bc 8f 8f 0d bd
       -0.004738991 -0.012805824 -0.02770706 -0.034560736
000040 55 eb e3 bc 8d ca af 3b 63 6c 5b bc 40 29 2a 3b
       -0.027822176 0.005364722 -0.013392541 0.0025964528
000050 6e 78 09 bd da 7c 1e bc 2d af 1e 3d 2d 14 fe bc
       -0.033562116 -0.009673322 0.03874128 -0.03101548
000060 ce 77 d6 3c df e7 a6 bc 31 d3 1f bc c9 24 bf bc
       0.026180174 -0.020374237 -0.009754942 -0.02333297
000070 14 da e1 3c ea 57 c1 bc 81 7c 69 bb fe 6c d7 bb
       0.027569808 -0.023601491 -0.0035627189 -0.006574272
000080 8b 35 c2 bc 2d 82 c4 bc 76 f2 47 bc 8e 1b ba bc
       -0.023707172 -0.023987854 -0.012203803 -0.022718217
000090 a2 bf 1c bc 62 05 05 bc 71 5d 61 3c f8 dc 54 3c
       -0.009567173 -0.008118959 0.013755188 0.012992136
0000a0 ac 5e 5a 3c ae d4 91 bb 22 b1 0b bb 55 72 94 bd
       0.013328236 -0.004450402 -0.0021315296 -0.072483696
0000b0 69 ce 63 bd 00 c7 46 3b 80 15 bd bb ee ea 39 3c
       -0.05561677 0.0030331016 -0.0057703853 0.0113475155
0000c0 5d 56 68 bc 84 a0 42 bc 4b 40 b4 3b df 1a 5d bc
       -0.014180747 -0.01187909 0.0055008284 -0.013495176
0000d0 84 06 e1 bc a5 a2 e2 3b 17 0a 9b bc 9d 9d f8 bc
       -0.027468927 0.0069163614 -0.01892571 -0.030348593
0000e0 ab d6 12 bd c7 e3 e9 bc 17 71 f6 bc 0c d7 03 bd
       -0.035849255 -0.028550996 -0.030083222 -0.032187507
0000f0 08 04 44 3c fe a2 05 bd 8f 2a 66 bc 30 0c 81 bc
       0.011963852 -0.032626145 -0.014048233 -0.015752882

weight f4 [64, 64]
000000 fa ea 1c bd 9b ce 9a 3d 6a 2d 86 3d 21 ca 42 3c
       -0.03831003 0.07558938 0.06551631 0.011889012
000010 4a 6e f6 bd c6 b1 86 3e 13 ee 60 3d a5 8a a8 be
       -0.12032755 0.26307505 0.054914545 -0.32918277
000020 98 fb 9c bc 6d 2f 0c 3e 72 1e bf be 8f 7f 51 3e
       -0.019162938 0.13689966 -0.37327915 0.20458816
000030 69 9c a6 3d 37 fb c1 3c e0 0c 80 be 35 48 c1 bd
       0.081353016 0.023679359 -0.25009823 -0.094376005
000040 5a 17 cb bd 64 18 24 bd 6e c0 f1 bc 01 d2 b3 bd
       -0.09916563 -0.040062323 -0.029510703 -0.087802894
000050 5d 14 95 3d 8e 3c a6 3e a4 92 2d be 40 60 7e 3e
       0.072792746 0.32468075 -0.1695047 0.24841404
000060 24 4c f0 3d 4c 08 6a be ff e9 ae be a5 43 c3 bd
       0.11733273 -0.22854728 -0.341629 -0.095343865
000070 a2 f7 22 3e 75 fa 20 bd 84 86 e9 bd 8c 69 89 be
       0.15914777 -0.039301354 -0.1140261 -0.26838338
000080 80 f7 81 3e 18 62 ad bb 75 b0 73 3d 91 7d 22 3d
       0.2538414 -0.0052912347 0.059494454 0.03967053
000090 59 43 11 3e 8c b5 6f 3e 67 91 0b 3f aa ef ca bd
       0.14185847 0.23409098 0.5451874 -0.099089935
0000a0 df 02 42 3d ad 19 93 3d 85 38 fa 3d f0 06 ec bd
       0.04736602 0.07182632 0.122178115 -0.11524761
0000b0 f8 93 64 be b0 3f 28 3e 47 03 10 3e de 7b ec 3d
       -0.2232207 0.16430545 0.1406375 0.11547063
0000c0 68 4e 27 3e 27 88 6c 3e bc 94 fb bd e4 7f 89 be
       0.16338503 0.23098813 -0.12284228 -0.26855385
0000d0 c6 49 74 be 90 54 cb bc 52 94 be bd 1b 67 4f 3d
       -0.23856267 -0.024820596 -0.093056336 0.05063544
0000e0 6a e8 bc 3d f0 03 bf bd 43 c8 7a 3e 9c 8a bb bd
       0.09224017 -0.09326923 0.24490456 -0.09157297
0000f0 26 1d de bd 5e 6f 08 be d5 7f 70 bd 86 dd 9f 3c
       -0.108454034 -0.13323733 -0.05871566 0.01951481
000100 90 dd b7 bb 27 26 d5 bd ff 14 01 3e 28 ef 81 3e
       -0.005611129 -0.104076676 0.12605666 0.25377774
000110 44 56 be bd 50 25 80 3d a1 2c 07 3e fc 89 01 3d
       -0.092937976 0.06257117 0.13200618 0.031625733
000120 38 ad 8b 3d f0 9d 0e be 57 34 47 3c 8b 72 24 be
       0.06820148 -0.13927436 0.012158475 -0.1605932
000130 b8 ab 03 3d fd 56 50 be ec d0 8b 3d 52 66 7d 3e
       0.032146186 -0.20345683 0.06826958 0.24746063
000140 39 37 88 3d 84 33 98 be 92 4d 36 3d c5 9a 96 bd
       0.06651158 -0.29726803 0.04450757 -0.07353739
000150 1c 5c 89 be 96 64 9f 3e c2 cd d0 3c 0f f2 24 be
       -0.26828086 0.31131428 0.025488738 -0.16107963
000160 97 db 49 bd 86 11 24 3e dc 81 2c bd 84 55 c9 bd
       -0.049281683 0.1602231 -0.04211603 -0.09830764
000170 86 d8 33 3c 1f a9 75 bd 49 ab 53 be 34 84 b3 bb
       0.010976916 -0.05997574 -0.20670809 -0.0054784063
000180 f7 78 72 3e 81 d1 e1 3d 87 16 27 be 3e ef 04 3f
       0.23678957 0.11026288 -0.16317187 0.51927555
000190 f0 b0 21 bb 0c a3 33 3e bc 4f 07 3e e5 53 97 be
       -0.0024672113 0.17542666 0.1321401 -0.29556194
0001a0 d5 2d 4f be 62 21 58 be e2 c0 42 3e a3 4a 87 bc
       -0.20232327 -0.21106485 0.19018891 -0.016515082
0001b0 82 de 1c be 4d f2 b1 be d2 fb 77 be 98 a6 9c 3d
       -0.15319255 -0.34755173 -0.24217156 0.07648963
0001c0 43 2d b2 bd ef 79 28 be e1 e9 ba 3a aa 06 36 bc
       -0.08700039 -0.16452764 0.0014260375 -0.011109987
0001d0 bc 6a d9 3e 6f b8 a1 bb 3c e4 71 3d 50 96 cf be
       0.42464244 -0.0049353163 0.059055552 -0.40544367
0001e0 cf 65 f5 bd 1a 69 f3 3d b5 9c 34 3c b8 5e 7d bc
       -0.11982309 0.11885281 0.01102369 -0.015464477
0001f0 17 a2 38 be 30 d9 43 3e 0b 54 07 bd 32 d7 6a 3d
       -0.18030582 0.19125819 -0.033039134 0.057334132
000200 b6 8c 51 3e 47 18 01 3e 72 b8 08 3c e8 b7 52 be
       0.20463833 0.12606917 0.008344756 -0.20577967
000210 95 33 6b 3e 17 cd 14 3e 6f 62 89 3e 63 fa f9 bd
       0.22968896 0.1453136 0.2683291 -0.122059606
000220 6f 63 b9 3d 6f 34 08 bb 15 19 03 be 23 e8 f0 bd
       0.090521686 -0.0020783206 -0.12802537 -0.117630266
000230 ef e8 60 bd 80 55 42 be 4b af 20 be ef 86 55 3e
       -0.054909643 -0.18977928 -0.15691869 0.20852254
000240 34 5f 99 bd 51 73 85 be cd d1 90 3d e0 b0 21 3e
       -0.07488862 -0.26064542 0.07071266 0.15790129
000250 5a 53 54 be 62 bf 0b be df 8c 13 3e e4 ca 7d 3e
       -0.20734921 -0.13647225 0.14409207 0.24784428
000260 cc 8b 19 3d d0 08 cd 3d 28 0c 85 3e 3a a0 8c 3d
       0.037486836 0.100114465 0.25985837 0.06866498
000270 6b eb 5a bd 2b 31 22 3e 8d 5b 08 3e cd 7c 82 3c
       -0.05344717 0.15839069 0.13316174 0.01592865
000280 74 5e 61 3e 48 5a cc bd c4 ea b7 3d 98 3d 58 bd
       0.22008687 -0.09978157 0.08980325 -0.052793115
000290 3c 61 5a 3e e6 da 0a be ac a9 d3 3d d6 81 24 3e
       0.21326154 -0.13560066 0.10335097 0.16065153
0002a0 58 66 d9 3d ed 75 d7 be bb 65 96 3e 30 2b c8 bd
       0.10615224 -0.42082158 0.2937449 -0.09773862
0002b0 92 2a a2 3c b5 4c f3 bd 63 46 be 3c dd 9f 86 be
       0.01979569 -0.11879865 0.023226922 -0.2629384
0002c0 d8 14 d7 3b e0 2a 74 3e 0e 8e 2e 3d ee f7 86 3d
       0.006563764 0.2384448 0.042615943 0.065902576
0002d0 92 1e 0e 3d fb ac ae 3e e5 6e db 3d f5 72 f1 3d
       0.034697123 0.3411635 0.10714511 0.117895044
0002e0 7f 03 e7 3d a1 f6 6b be a7 bb 8b be 44 b8 38 be
       0.11279964 -0.230433 -0.27291605 -0.18039042
0002f0 42 ee 12 3e 84 64 a5 3d a6 ba ad be 33 e2 b1 be
       0.143487 0.080758125 -0.33931464 -0.3474289
000300 16 ea 2a be b3 0a 49 be 46 aa 4f 3e 77 0f d2 3d
       -0.16690859 -0.19632988 0.20279798 0.10256856
000310 c5 3d b5 be 53 9b 7f 3c 23 60 44 3e 05 5d 38 3d
       -0.3539869 0.015600997 0.19177298 0.045010585
000320 27 a8 f7 3e f6 88 cd 3b 2a df 4b 3e b2 18 fe 3d
       0.48370478 0.0062724305 0.19909349 0.12407054
000330 f8 a4 82 be ff 69 30 3e e3 45 8c be 68 ee 24 3e
       -0.25516486 0.17227934 -0.2739707 0.1610657
000340 91 70 01 be aa 1b 95 be 9d a7 31 3c 98 9c 25 3d
       -0.12640597 -0.29122669 0.010843185 0.040432543
000350 1d 4d 02 be 6a fd f2 bd 32 d5 79 3d da 6a 71 bd
       -0.12724729 -0.11864741 0.060994335 -0.058939792
000360 d3 af e8 3d 93 69 a0 bd 3f 17 e3 bc 4b f3 2e 3d
       0.11361661 -0.07832637 -0.027721046 0.04271249
000370 e2 e0 51 bc 42 67 4d be 43 1a 54 3e d0 3e 6e be
       -0.012809964 -0.20058921 0.20713143 -0.23266149
000380 e6 35 8e be 6b d7 e9 bd 1e 34 37 bc 64 8e 0f 3e
       -0.27775496 -0.11418041 -0.011181859 0.14019161
000390 a6 e7 9f 3e 6d 0b 11 be f8 7d 83 bd 7b 7d a1 3e
       0.3123142 -0.14164515 -0.06420511 0.31541047
0003a0 cf 91 29 bd bc 7f f7 3d bb b5 a5 3d ac d4 25 3e
       -0.04139882 0.1208491 0.08091303 0.16194409
0003b0 3b 1f db 3e 21 10 0f bd ca da 8c bd 4d 1c 11 ba
       0.42797264 -0.03492749 -0.06877668 -0.0005535528
0003c0 d8 87 23 3e e7 be 48 3e 4e ed 90 be 8c 46 db bd
       0.15969789 0.19604073 -0.2830605 -0.10706815
0003d0 eb 38 bd bc 0b 22 1a 3e 39 1c 11 be 05 f6 03 3d
       -0.02309843 0.15052049 -0.14170922 0.032217044
0003e0 30 cd 76 bd e0 48 29 3e 0e 35 87 3d 6b 10 0f 3e
       -0.060254276 0.16531706 0.06601916 0.13971107
0003f0 39 b8 80 be d6 3a 0a 3c 50 0c 7f bc da da 43 3e
       -0.2514055 0.008436879 -0.0155669 0.19126454

bias f4 [64]
000000 b5 f1 5d 3c 82 0a 2c bd c2 ef fa bb 72 1e ef 3a
       0.013546397 -0.04200221 -0.007657976 0.0018243326
000010 8b 65 ba 3c db 97 c8 bc b9 ff 85 bc 56 bb 46 3d
       0.022753498 -0.024486473 -0.01635729 0.0485185
000020 b0 08 b2 bc 4b 4d 9b ba 90 d5 75 bc 2e 1b 0f 3b
       -0.021732658 -0.0011848597 -0.015004531 0.0021836269
000030 8e b4 b5 3c 9a 6a 43 3b a4 2f ab bc dd 47 83 bb
       0.022180822 0.0029818178 -0.02089674 -0.0040063695
000040 3a b3 08 3c 72 39 51 3b d7 a4 43 bc 37 03 4a bb
       0.008343512 0.003192511 -0.011941156 -0.003082467
000050 3c d6 13 bb d4 3b bf 3b e3 50 24 bb 39 a4 ef bb
       -0.0022558114 0.0058359895 -0.0025072626 -0.007313278
000060 57 0e a6 bc 29 46 d3 3b e2 e4 f8 3c 8e e1 f5 ba
       -0.02027051 0.0064475727 0.030382577 -0.0018759237
000070 27 30 3b ba 44 85 06 3d 40 37 ad 36 ee a5 23 bd
       -0.0007140659 0.032841936 5.1622337e-06 -0.039953165
000080 25 e8 2a 3c 75 03 31 bc 4f 8d 4e bd 1f 1f b1 bb
       0.010431324 -0.010804047 -0.05042773 -0.0054053213
000090 c0 16 ca ba 10 7e 98 3b c2 ad ae 3c 36 11 88 3c
       -0.0015418157 0.0046536997 0.021323089 0.01660977
0000a0 9e f8 2a 3c 1b 2b 4f b9 5f 40 16 bc af 82 3f 3c
       0.0104352515 -0.00019757116 -0.009170621 0.011688872
0000b0 ba a0 90 3c fe 3b 00 bd 19 a4 99 3c 4b eb c8 3c
       0.017654765 -0.031307213 0.018755006 0.024526259
0000c0 43 ef 96 bb f9 3c 16 bd b5 1f a5 39 99 60 f6 bb
       -0.004606159 -0.03667924 0.00031494876 -0.0075188396
0000d0 b3 81 e5 bb 78 14 a4 3c cc 98 90 bc 76 92 e1 3b
       -0.0070039867 0.020029292 -0.017650984 0.0068839146
0000e0 28 5c 50 bc 28 57 3a bc 2c 1c a5 3c bc 21 97 bc
       -0.012717284 -0.011373319 0.020155035 -0.018448703
0000f0 bc 1c 38 3b 9f 6e e1 bc 65 92 3e bd 5f b0 d5 bb
       0.00280933 -0.027518569 -0.04652633 -0.006521269

weight f4 [1, 64]
000000 e9 01 10 be f4 9e 44 3d 2d b6 4a 37 d9 06 95 b8
       -0.14063229 0.048003152 1.2082554e-05 -7.106149e-05
000010 73 a6 35 be d0 f3 93 be f6 b5 f1 3c ff 06 e1 bd
       -0.17739277 -0.28896952 0.029505711 -0.109876625
000020 81 6b 97 3a 44 d6 cf bd ab 55 0c 3d 1e fc 94 bd
       0.0011552424 -0.1014829 0.034261387 -0.0727465
000030 53 5e e1 3c 5e 31 04 3a 35 8c 0b 3b 30 ed f4 b9
       0.027510798 0.00050427567 0.0021293287 -0.00046716025
000040 8c 5a 1a 3e 90 4f 86 3e 4c 43 03 3d 6c 65 fb 3b
       0.15073603 0.26232576 0.0320466 0.0076720025
000050 59 4e 2e be bb 69 cc bd af 0c 17 b9 ec 55 55 ba
       -0.17022075 -0.09981104 -0.00014405207 -0.00081381085
000060 7c 8e 9a 3a af 1c 3a be 9e ea 5a bc 42 8d 3d 3d
       0.0011791731 -0.18175004 -0.013361601 0.046277292
000070 44 26 2d 3c 05 8e b2 bd fe 30 92 3a 78 3e 4a be
       0.010568205 -0.08718494 0.0011153517 -0.19750392
000080 ad 5c b3 3b 0f d4 a7 be 9c 80 9b 3e 06 77 e9 bd
       0.0054736943 -0.32778975 0.3037156 -0.11399655
000090 e7 a8 f5 3a a1 b7 a9 3d 56 c5 a2 3d 35 94 6b bd
       0.0018742353 0.082869776 0.07947795 -0.057514388
0000a0 db 8c 86 3e 90 54 97 3e a5 00 cc b8 ce 21 5d 3a
       0.2627934 0.29556704 -9.727598e-05 0.0008435518
0000b0 94 3c c5 bc 6a 38 6a 3e e8 97 0d 3d f7 ed 96 ba
       -0.024076737 0.22873083 0.034568697 -0.0011515011
0000c0 f6 c9 1f 3a 10 22 af 3a a5 8e bb b9 38 0e e8 b9
       0.0006095463 0.0013361592 -0.00035773698 -0.00044261082
0000d0 57 bc ed 3e 3e c5 74 3e e5 05 5d 3a 5e a9 49 bb
       0.46432754 0.23903367 0.00084313593 -0.0030771117
0000e0 cf 92 13 3e d4 6c 8f bd 58 7f 80 bd ea 46 b7 bc
       0.14411472 -0.07003179 -0.06274289 -0.022372682
0000f0 89 d0 1a be dc 1f 19 3e d4 14 37 3e 58 74 81 ba
       -0.15118612 0.1495356 0.17879039 -0.0009876592

weight f4 [5, 64]
000000 6e 25 d3 3a 83 4a 00 ba 1d 7e 42 bb 6f fe 68 3b
       0.0016109177 -0.00048939156 -0.002967722 0.0035552045
000010 b8 28 b0 3b 16 7e 0a 3b 79 1c 3d bc 9d 97 9f 3b
       0.005375948 0.0021132282 -0.011542433 0.0048703686
000020 ce 74 40 3b 08 a8 7a 3b f2 d4 19 bb 23 47 66 bb
       0.0029366496 0.0038247127 -0.0023472873 -0.0035137616
000030 44 f9 96 3b b2 15 05 b9 96 ae 2d 38 ba dc c9 bb
       0.0046073515 -0.0001269195 4.140901e-05 -0.006160346
000040 83 51 1e 3b 26 76 8b 3b 36 8c f6 3b 5c 01 6c bb
       0.0024157471 0.0042560278 0.0075240387 -0.0036011552
000050 08 a7 8f 39 30 85 20 3b f6 16 18 3b 03 00 49 3a
       0.00027399533 0.0024493448 0.0023207045 0.0007667543
000060 fe 79 cc 3b f0 84 62 ba 38 8d 23 3b 2f 3d b0 3b
       0.0062401285 -0.0008641025 0.0024956 0.0053783874
000070 0b 68 99 3b aa 5f 93 3b de e2 55 3c c8 41 5a 39
       0.0046815923 0.004497488 0.013054578 0.00020814606
000080 44 98 52 bb 91 1a c3 3b e4 02 fc 3b d2 42 9e 3b
       -0.0032134214 0.0059540947 0.0076907743 0.004829743
000090 ed 1f c7 3a 07 ef 06 3c 9e 4b a4 3b 86 be c1 3b
       0.001519201 0.0082356995 0.005013897 0.0059126047
0000a0 da 9f 47 3b 1c 0b 80 3a 7b 10 04 bc b8 70 dc b9
       0.003046027 0.0009768936 -0.00806057 -0.00042045652
0000b0 da c3 b0 ba d7 fe a6 bb 71 8c 27 bc 42 6b d8 3a
       -0.0013486103 -0.0050962972 -0.010226355 0.0016511458
0000c0 13 55 52 bc 39 51 c3 ba c7 38 67 3b c7 35 d8 3a
       -0.012837666 -0.0014901526 0.0035281645 0.0016495519
0000d0 67 c3 ad b9 67 95 65 3b 9b f4 6f bb 3b cb 44 ba
       -0.00033142717 0.0035031678 -0.0036614302 -0.00075070903
0000e0 96 a0 33 3c 8f a6 5d 3a 7d 4f 13 3b dd 8b 81 3a
       0.01096358 0.00084553 0.0022477799 0.0009883601
0000f0 6a c6 e8 bb c7 72 20 3b c7 20 eb 3b 0e 65 d7 bb
       -0.007103731 0.0024482475 0.007175538 -0.006573326
000100 f4 33 c5 3b d0 a2 0d bb dc 50 2a bc ee 62 d9 3b
       0.006018156 -0.0021611936 -0.010395255 0.006634108
000110 2e f7 2a bb 06 2d 1b 3b d3 8d 91 3b 43 88 a5 ba
       -0.0026087272 0.002367796 0.0044419556 -0.001262911
000120 5f 02 d7 39 74 32 04 bb c0 fc d4 3a 2c ee 19 3c
       0.00041009762 -0.0020171674 0.0016249642 0.0093951635
000130 c8 ca 21 ba e3 6e a6 bb ad f9 d4 3b 27 33 70 3c
       -0.00061718794 -0.0050791367 0.0064994902 0.014660633
000140 52 9d 50 bb aa ba 8e 3b 4e b5 b5 3a 85 53 0a 3c
       -0.0031832051 0.004355748 0.0013863237 0.008442764
000150 cd f8 ea 3b 4a 05 94 3a 94 e6 c7 3b 63 f2 6c 3a
       0.0071707726 0.001129308 0.006100485 0.0009038804
000160 db 98 cb 3b 8e cd 5c 3a 3f 94 6b ba c0 86 aa bb
       0.00621329 0.0008422964 -0.0008986629 -0.0052040517
000170 e6 15 25 3b 45 05 0c bc 2e a3 8b 3b 30 11 ea b9
       0.0025190054 -0.008546178 0.004261396 -0.00044644764
000180 85 4a 95 3b d0 b9 eb ba 46 87 71 3c 25 84 b0 b7
       0.0045560026 -0.0017984454 0.014741724 -2.104237e-05
000190 bb a7 ab bb ed ca 28 bc e9 b7 43 3b 92 91 6b 3c
       -0.005238501 -0.0103022875 0.0029864258 0.014377968
0001a0 2f 78 ce 3a 74 d7 a1 3b 30 55 10 3b b8 da 96 bb
       0.001575237 0.004939014 0.0022023432 -0.00460371
0001b0 09 9c 29 3c a0 c7 c5 bb 9b d1 97 3a 7c 05 c2 3b
       0.010352143 -0.00603576 0.0011582853 0.005921064
0001c0 97 10 86 3b 3a 84 72 ba f2 6e 8a bb 23 46 c2 b9
       0.004091333 -0.00092512707 -0.0042246515 -0.0003705482
0001d0 18 6a 5c ba 42 50 2f bb f1 c4 3e 3c 9f 8e 9a b9
       -0.0008408143 -0.0026750718 0.011643634 -0.0002947943
0001e0 43 a6 47 3c e0 ab 01 39 a6 ed be 3a 59 4b c4 b9
       0.012185636 0.00012366427 0.0014566674 -0.00037440172
0001f0 3e 65 f3 bb 4f 67 17 bc 96 52 20 3b 91 6a 63 3b
       -0.0074278405 -0.009240939 0.0024463288 0.003470097
000200 1c df 19 3c 22 63 a6 b9 96 c7 77 bb 66 70 5e ba
       0.009391572 -0.00031735847 -0.0037808171 -0.00084853766
000210 56 cb d9 3b b3 5f 10 bb a0 0a 9f 3a 36 fb 13 3b
       0.006646554 -0.0022029697 0.0012133904 0.0022580153
000220 33 7b 90 3b 18 62 81 bb 59 ee 38 3b 94 67 96 bb
       0.0044092177 -0.0039484613 0.0028218238 -0.004589984
000230 a4 81 43 3c 45 c2 02 bb d0 d5 44 bc f6 06 5b bb
       0.011932764 -0.001995222 -0.0120138675 -0.0033420897
000240 50 4b 73 3b 56 98 a0 3b 96 8a d7 ba 6c e7 16 3b
       0.0037123747 0.0049009724 -0.00164445 0.0023026122
000250 28 77 a1 3b b7 d9 0c bb b6 75 c5 3b c2 f4 12 bb
       0.0049275346 -0.0021492073 0.006025995 -0.002242372
000260 ae 46 83 bb 0a bd 01 bc 82 2b 37 bc b1 23 2e 3a
       -0.0040062284 -0.007918606 -0.011179807 0.00066428917
000270 44 58 75 bb 5a 3f 25 3b dc f3 b6 39 bb 1a b6 3b
       -0.0037436644 0.0025214762 0.00034895435 0.0055573857
000280 69 46 12 3c ab 17 11 3b ec 23 10 bc 11 e0 d7 3a
       0.00892792 0.0022139351 -0.008797627 0.0016469975
000290 c0 7f 9c 3a 92 c2 c4 3b ad fe ba 3b 0e 03 a5 bc
       0.0011939928 0.00600464 0.0057066293 -0.020143058
0002a0 4a 46 4d bc d1 61 64 3b ff 47 45 3b 62 ae 18 3c
       -0.012528965 0.0034848342 0.0030102727 0.00931892
0002b0 27 49 a8 bb 66 14 bc 3b 5c 97 5c 3b d5 03 8d 3b
       -0.0051356736 0.0057397364 0.0033659553 0.0043034353
0002c0 a4 e0 c9 bb 60 a5 6c 3a a0 cd ca bb 3d 75 37 3c
       -0.0061608125 0.00090273283 -0.006189063 0.011197385
0002d0 c4 0f 9d 3a 7a e9 d9 ba 95 d1 45 3c 53 e0 00 3b
       0.0011982848 -0.0016625368 0.012073894 0.0019664958
0002e0 72 de 71 3a 43 a4 a1 3b fe 4f 5f bb 04 f5 08 3b
       0.00092265673 0.0049329116 -0.0034074779 0.0020897994
0002f0 7f f4 59 3c 86 86 55 bb 7c 68 c5 ba 4b 5b 1c 3c
       0.013302921 -0.0032581403 -0.0015061046 0.00954325
000300 7a b1 d2 3b 82 cb bc b9 09 df 8c 3c 04 42 a4 3b
       0.0064298483 -0.0003600978 0.017196195 0.0050127525
000310 c8 fa 0f bb 07 46 28 3c 5d 5d a8 3b ff 25 f4 bb
       -0.0021969546 0.010270602 0.005138083 -0.0074508185
000320 82 d5 9a bb 81 d6 b2 3b 07 c5 0f bb 8b d8 77 3b
       -0.004725159 0.0054576998 -0.0021937506 0.0037818279
000330 06 6d b7 3b 91 6c a4 3b 83 c3 81 3a 22 c0 6a b9
       0.0055977134 0.005017825 0.0009900186 -0.00022387554
000340 0d ed b8 3b 5e b8 bd bb d4 b3 b7 bb bb fd 22 bb
       0.005643493 -0.0057898005 -0.005606154 -0.0024870473
000350 e3 d0 d5 39 db 3b d0 bb 11 07 dd 3b 43 4b df ba
       0.0004078216 -0.0063547916 0.006745227 -0.001703598
000360 1d 09 0c 3c d9 6b 28 3c 22 8f fc 38 b6 8b cf 3a
       0.008547095 0.010279619 0.00012042957 0.0015834484
000370 e0 b1 cd 39 44 9b 50 3c 40 de ed bb 61 96 74 3c
       0.00039233174 0.012732331 -0.0072591603 0.014928431
000380 ac bc 02 3c 10 d4 f1 ba 3b c6 47 bc 9d 2a a2 3b
       0.007979553 -0.001845004 -0.012193258 0.0049489276
000390 8b cc 1b 3c d0 06 27 3b 2a df 13 3b 17 e7 f6 ba
       0.009509216 0.0025486238 0.0022563436 -0.0018837181
0003a0 9a e9 ca 3a 54 26 91 bb fa b4 6d 38 bd 9c 22 bb
       0.0015480996 -0.004429618 5.667375e-05 -0.0024812662
0003b0 8f ba 0a 3c 8d d7 91 3b c6 6e 1a 3c e1 bc cf 3b
       0.008467331 0.0044507445 0.0094258245 0.006339655
0003c0 c0 8c 83 3c 2a 9a ce b9 39 64 25 ba 7d 14 7a bc
       0.016058326 -0.00039406243 -0.0006309185 -0.015263674
0003d0 62 b9 01 bb d4 9a b2 3b 12 e4 70 bc 34 0c e3 ba
       -0.0019794335 0.005450586 -0.014702814 -0.0017322362
0003e0 50 9f 85 bc f0 ff 87 bb 12 ec 17 3a 52 3e 86 bb
       -0.016311318 -0.004150383 0.000579537 -0.0040967846
0003f0 c9 28 3d 3b c4 42 f6 bb e1 18 a9 bb f2 e8 5d 3c
       0.0028863421 -0.0075152833 -0.0051604365 0.013544308

bias f4 [5]
000000 fb 72 18 ba 8b 5c 00 3b 23 0f 76 bb 6b d7 9b 3b
       -0.0005815473 0.001958641 -0.0037545643 0.0047559044
000010 58 1c c3 3b
       0.0059543066
