model/medium-4/A2C/model_agent1_seed3.pt (torch, 109505 bytes, 11 tensors)

weight f4 [64, 134]
-0.21246284 -0.05235251 0.07551068 0.02874252 -0.043885365 0.07806934 0.18811657 -0.03473885
-0.046898816 -0.059352387 -0.03176142 -0.17584841 0.1567681 -0.043920632 0.00044603893 0.07534759
0.11925066 -0.08741447 0.18461476 0.09862416 -0.07254893 -0.14211892 -0.03918411 0.23573494
0.06346008 0.37089032 0.08004335 -0.18886232 -0.047520027 0.03729282 -0.01057778 0.0016211931
0.118032426 -0.033929437 0.10399955 -0.086812615 0.1481173 -0.063207194 -0.012431138 0.32810476
-0.09215061 0.14931525 0.07300278 0.058486428 -0.057616178 0.3473458 -0.067407824 -0.045632772
-0.008409758 0.1338612 -0.07628998 0.01018167 0.13038284 -0.16266572 -0.07037993 -0.023009526
0.13642725 -0.11114925 -0.016712844 -0.23491886 -0.2699139 0.2831153 -0.1533386 -0.091919445
-0.081019804 -0.051582526 -0.1066377 0.056872457 -0.026347205 0.1293394 0.11455144 0.20575227
0.029062932 -0.025778418 0.010979948 0.040950913 -0.07555617 -0.018006967 -0.072501495 0.17637268
-0.12102994 -0.0009046982 -0.21138887 0.05055114 -0.0774128 0.22081625 0.12746939 -0.052688297
0.049382403 -0.10013409 -0.050834615 0.020473704 -0.0142475655 0.038934182 -0.055301774 -0.07299637
-0.18225779 -0.035541225 -0.09808407 -0.14657888 -0.09254266 -0.08512346 -0.0004924899 -0.07774319
0.130478 0.014166032 0.13236447 0.042318974 -0.024390457 0.16769841 -0.09516441 -0.0014263564
-0.13294913 0.023406236 0.09269451 -0.00012478454 0.02902068 0.1427556 -0.20045575 0.007119403
-0.25440985 -0.102248624 -0.19682911 -0.07580932 -0.057975717 0.21642599 -0.1440401 0.11346903
0.0052199666 -0.012321781 0.00093487906 -0.097150266 0.20864832 -0.019862123 -0.005483504 0.073219165
0.16029261 -0.10550813 -0.00031109407 -0.23096557 0.04514638 -0.10133288 0.22243623 0.030939125
0.044841714 -0.15866752 -0.039597187 0.043258056 -0.0049876706 -0.094036065 -0.0111257415 -0.3008319
0.12626353 -0.04679269 0.048564564 -0.1433648 0.16181575 -0.039989464 0.118225306 0.012031478
0.067574985 -0.22285259 -0.25552943 0.012625643 0.07291639 0.0060504507 0.14106503 -0.13126375
0.0615034 -0.057592154 -0.009778416 -0.0023253332 0.14505424 0.067342356 0.017464064 -0.23246963
-0.029232306 0.14526781 -0.24488498 -0.17677407 -0.15190856 -0.2266191 -0.032696564 0.032103367
-0.027326012 0.11828151 0.15257715 -0.12695487 0.1561506 0.02334733 0.048860982 -0.12650646
0.08392202 0.16043392 0.06833742 -0.05262183 0.22329865 0.03343123 -0.031495295 0.057821695
0.03518491 -0.05264955 0.20852858 -0.16101971 0.16986685 0.1625379 0.008410762 -0.06171292
0.16743676 0.2516426 -0.07469217 0.00090575445 -0.06438315 -0.03862113 -0.055719785 -0.08761654
0.024931349 -0.08919589 0.048954424 -0.10587461 -0.0049244533 0.0027689452 0.024380287 0.23540302
-0.04754246 0.06272382 -0.048878834 0.09472238 -0.009889377 -0.1513409 -0.07878892 0.03905871
0.12235419 -0.09525782 0.14382042 -0.008004524 -0.0970476 0.28242564 -0.27538475 -0.17260468
-0.041460652 -0.07070316 0.09243145 -0.12643589 0.10912137 0.027578931 0.038933307 0.27892455
-0.06840339 0.1410756 -0.116454504 -0.17782849 -0.24328631 0.04384081 -0.11046605 -0.08551877
00000000: dc8f 59be 966f 56bd 58a5 9a3d 6f75 eb3c
00000010: 24c1 33bd d1e2 9f3d a1a1 403e 534a 0ebd
00000020: f918 40bd 7d1b 73bd 4318 02bd 9b11 34be
00000030: d187 203e 1fe6 33bd 55da e939 d64f 9a3d
00000040: b139 f43d 5c06 b3bd a70b 3d3e 77fb c93d
00000050: 8994 94bd 9f87 11be 847f 20bd 8064 713e
00000060: 5cf7 813d 56e5 bd3e c5ed a33d 2065 41be
00000070: 5ca4 42bd 5bc0 183d 6d4e 2dbc 377e d43a
00000080: fcba f13d 98f9 0abd b7fd d43d d0ca b1bd
00000090: 10ac 173e c672 81bd f9ab 4bbc 59fd a73e
000000a0: 76b9 bcbd 19e6 183e 7b82 953d 778f 6f3d
000000b0: f1fe 6bbd 4fd7 b13e 1d0d 8abd 6ee9 3abd
000000c0: 15c9 09bc e912 093e ec3d 9cbd 05d1 263c
000000d0: 1483 053e d891 26be 5a23 90bd 797e bcbc
000000e0: 96b3 0b3e 38a2 e3bd 60e9 88bc 928e 70be
000000f0: 2832 8abe 7df4 903e cb04 1dbe 4340 bcbd
00000100: b6ed a5bd 3348 53bd de64 dabd 18f3 683d
00000110: 18d6 d7bc 8c71 043e f299 ea3d b9b0 523e
00000120: 6315 ee3c 432d d3bc 3de5 333c 25bc 273d
00000130: 31bd 9abd 5983 93bc aa7b 94bd 0a9b 343e
00000140: 8cde f7bd 4529 6dba 5376 58be b60e 4f3d
00000150: 9a8a 9ebd a81d 623e 5687 023e afcf 57bd
00000160: 3445 4a3d 1a13 cdbd f537 50bd 78b8 a73c
00000170: 9f6e 69bc 7379 1f3d 1d84 62bd 1f7f 95bd
00000180: c9a1 3abe ad93 11bd 4de0 c8bd c618 16be
00000190: 0287 bdbd 3555 aebd 701a 01ba d237 9fbd
000001a0: 069c 053e a518 683c 8d8a 073e a956 2d3d
000001b0: 7fce c7bc 22b9 2b3e 8fe5 c2bd 94f4 baba
000001c0: d123 08be 6fbe bf3c 9fd6 bd3d 98d8 02b9
000001d0: c7bc ed3c 862e 123e 4644 4dbe e249 e93b
000001e0: 0242 82be ba67 d1bd 928d 49be eb41 9bbd
000001f0: f277 6dbd c69e 5d3e 3f7f 13be 7362 e83d
00000200: 410c ab3b 4ce1 49bc ac12 753a b8f6 c6bd
00000210: e8a7 553e e4b5 a2bc f7ae b3bb eef3 953d
00000220: bf23 243e a514 d8bd 571a a3b9 3d82 6cbe
00000230: 69eb 383d 9d87 cfbd 53c6 633e 0c74 fd3c
00000240: f2ab 373d bd79 22be a930 22bd 5c2f 313d
00000250: 9d6f a3bb fb95 c0bd be48 36bc a406 9abe
00000260: 3a4b 013e b1a9 3fbd a3eb 463d 39ce 12be
00000270: 07b3 253e fecb 23bd 1c20 f23d ad1f 453c
00000280: c164 8a3d 7833 64be c1d4 82be c9db 4e3c
00000290: 3055 953d dc42 c63b 5a73 103e 016a 06be
000002a0: fdea 7b3d c0e5 6bbd a635 20bc 9e64 18bb
000002b0: 1989 143e caea 893d cc10 8f3c 850c 6ebe
000002c0: 9778 efbc 16c1 143e 21c3 7abe 4304 35be
000002d0: eb8d 1bbe d60e 68be d5ec 05bd d27e 033d
000002e0: cdda dfbc 943d f23d 2f3d 1c3e 7500 02be
000002f0: f1e5 1f3e e642 bf3c 7422 483d e98a 01be
00000300: 4fdf ab3d ca48 243e 7df4 8b3d fd89 57bd
00000310: 67a8 643e 2fef 083d 3601 01bd 71d6 6c3d
00000320: 0d1e 103d 0ea7 57bd 8488 553e 5ae2 24be
00000330: 93f1 2d3e 5670 263e 4bcd 093c b0c6 7cbd
00000340: 8b74 2b3e 4dd7 803e 35f8 98bd 2770 6d3a
00000350: 50db 83bd 3131 1ebd 6e3a 64bd 4d70 b3bd
00000360: d43c cc3c 56ac b6bd 6f84 483d cad4 d8bd
00000370: 4f5d a1bb 3177 353b 2bb9 c73c 7d0d 713e
00000380: e2bb 42bd 5975 803d 2c35 48bd cffd c13d
00000390: 0e07 22bc 1cf9 1abe 165c a1bd 07fc 1f3d
000003a0: d594 fa3d 8816 c3bd a945 133e 6825 03bc
000003b0: e4c0 c6bd 189a 903e 3bff 8cbe 48bf 30be
000003c0: a5d2 29bd d1cc 90bd b34c bd3d 6978 01be
000003d0: 067b df3d 36ed e13c 8878 1f3d 33cf 8e3e
000003e0: 1417 8cbd 1f76 103e b37f eebd ac18 36be
000003f0: 0c20 79be 6c92 333d 063c e2bd 7724 afbd

bias f4 [64]
-0.0042296294 -0.00014524806 -0.00027528478 -0.0015591643 -0.022155179 -0.005871475 -0.00038756747 -0.0052956655
-0.0012645753 -0.00067095255 -0.0009557723 -0.0049930457 -0.0024545495 -0.006831113 -0.004296334 -0.0007717396
-0.00830874 -0.0047014914 -0.0001477834 -0.0035791763 -0.000112769616 -3.988044e-05 -0.013794419 -0.003321311
0.0001089232 -0.016387051 0.010260288 -0.001649418 0.00388583 -0.0013002179 -0.0011861281 -0.0046179644
0.0048651965 0.0009630467 -0.0012703406 -0.013757169 -0.011413258 -0.01324158 -0.0016759383 -0.013444553
-0.000121266305 -0.009998282 -0.0021369515 -0.0008969273 -0.011983763 -0.014068635 0.00035511336 -0.007470735
-0.00851129 -0.0025422862 0.0 -0.024046076 0.00077920425 -0.004585412 -0.003429723 -0.002851714
-0.002077278 0.0004643058 0.0012246917 0.0071784523 -0.0031671228 -0.0008226124 0.0016487887 0.0038642152
00000000: b498 8abb bb4d 18b9 1954 90b9 df5c ccba
00000010: c77e b5bc 8165 c0bb 6d32 cbb9 4387 adbb
00000020: 1bc0 a5ba dde2 2fba cb8c 7aba b49c a3bb
00000030: 82dc 20bb 87d7 dfbb 43c8 8cbb 914e 4aba
00000040: 6221 08bc f80e 9abb 4ef6 1ab9 9d90 6abb
00000050: ba7e ecb8 4c45 27b8 fd01 62bc 5aaa 59bb
00000060: b36d e438 233e 86bc c41a 283c 4931 d8ba
00000070: 69a9 7e3b 136c aaba db77 9bba 4b52 97bb
00000080: 3a6c 9f3b f874 7c3a 8f81 a6ba c065 61bc
00000090: acfe 3abc 36f3 58bc 28ab dbba 8b46 5cbc
000000a0: 5a50 feb8 d6cf 23bc 190c 0cbb c61f 6bba
000000b0: 8c57 44bc 2280 66bc 822e ba39 11cd f4bb
000000c0: f072 0bbc 7c9c 26bb 0000 0000 47fc c4bc
000000d0: 8343 4c3a 3941 96bb 34c5 60bb d2e3 3abb
000000e0: f122 08bb 126e f339 d685 a03a 3939 eb3b
000000f0: 818f 4fbb 95a4 57ba 2b1c d83a c63e 7d3b

weight f4 [64, 64]
0.036746692 -0.09519825 0.12035486 0.11295786 0.26378307 -0.3443295 -0.08363371 -0.31791323
0.005529727 0.02476857 0.1893351 -0.0044629793 0.050720103 0.09255627 -0.09431697 0.035455614
-0.114391856 -0.20324798 -0.18584457 -0.0035896325 0.21362807 -0.12996817 -0.105102465 -0.01899692
-0.061026048 -0.029152784 -0.2388008 0.17582709 0.15423264 -0.15490887 0.12027909 0.070053406
-0.09895687 -0.25895768 0.01575718 -0.05078792 -0.2252046 -0.014772447 0.3938326 -0.110100836
0.030670455 0.4302253 -0.06479376 0.19550195 0.3177992 -0.07292902 0.20566843 0.022048563
-0.29483563 -0.024018185 0.12704808 0.2795282 0.013960913 -0.04158353 0.21277535 -0.3830658
0.2904023 -0.011041633 0.018006394 0.15400086 0.11372923 0.3183974 0.10457071 0.028979935
0.15468901 -0.05417317 -0.19598325 -0.025010804 -0.10447977 0.049737774 0.33022735 0.0640127
0.12446995 -0.015403323 0.154555 0.27565 0.07161632 0.22713555 -0.061132744 -0.082387984
-0.18991311 -0.312551 0.1300296 0.031902425 -0.3800368 -0.32757086 0.3638559 -0.027808724
0.069726124 -0.02552385 -0.340372 -0.032305837 0.061646726 -0.17285451 0.07230624 0.10751388
-0.09587001 0.25899625 -0.056603402 -0.090375975 -0.13720138 0.15222429 0.05108379 -0.14975806
-0.019374628 0.07781724 -0.2757011 0.01322904 -0.114145696 -0.08604622 0.12295184 -0.087727584
-0.031879738 0.28782776 -0.20198587 -0.005713197 0.36055893 0.078251064 -0.03939481 0.2912962
0.24550672 -0.02406073 -0.13924637 -0.3967751 -0.11538948 0.0700172 0.15829837 0.06311159
-0.1935003 0.23264569 -0.20999803 0.05124542 -0.1318968 0.38447914 0.2772653 -0.13576926
-0.26193833 0.16531572 -0.1664886 -0.13012277 -0.095120095 0.008331182 -0.18637092 -0.086663105
-0.09683603 -0.13788164 -0.12882486 -0.006161318 0.07054963 0.0055960002 0.2386294 0.16744673
-0.03106934 -0.17017572 0.12678868 0.18835449 -0.02738491 0.25945318 0.043674048 -0.21992841
0.13480775 -0.20286112 0.1339253 0.020723308 -0.23343384 -0.042064 0.10638651 0.16224998
0.06062613 0.1504951 0.119383775 -0.33248305 -0.062946066 -0.041180104 -0.15111846 0.18861386
0.016842892 0.17707688 -0.25192666 -0.05867807 0.08646545 -0.14018838 0.23151617 -0.29829952
0.061718628 -0.53752357 -0.24991278 -0.035266772 -0.10511091 0.09408166 0.04281327 -0.20273101
0.27838612 -0.061913345 -0.13370328 0.24409023 -0.32093367 -0.37545303 0.17477253 0.050421994
0.11300926 -0.11053863 -0.09247076 0.1916708 0.07882943 -0.042996403 -0.07979782 -0.10621646
-0.327359 -0.2004079 0.03803582 -0.03698712 0.2206959 -0.07658808 0.25687516 -0.04898241
0.110078864 -0.27974364 0.072367944 -0.01632111 -0.036458306 0.18350358 0.5038439 0.19270691
-0.08730766 -0.31862226 0.060429104 0.15188408 0.04824309 0.07058088 -0.032605898 0.33288184
0.08333307 -0.0788191 0.22557844 0.030984025 -0.19803293 0.05978117 0.23904727 0.054166023
0.13063444 -0.22787291 -0.073046476 0.046891253 0.03508722 -0.16531575 -0.16970932 0.003227426
-0.2294604 0.23967116 -0.026748007 0.2885863 -0.10271228 -0.06370032 0.06211773 -0.05641071
00000000: b383 163d 4df7 c2bd 9c7c f63d 7356 e73d
00000010: 930e 873e f54b b0be 2748 abbd 86c5 a2be
00000020: b632 b53b 75e7 ca3c 0fe1 413e 2f3e 92bb
00000030: e2bf 4f3d 248e bd3d 4129 c1bd e839 113d
00000040: 4746 eabd 3d20 50be 0a4e 3ebe 0a40 6bbb
00000050: 51c1 5a3e 6016 05be f63f d7bd 6e9f 9bbc
00000060: 73f6 79bd d2d1 eebc 3288 74be 040c 343e
00000070: 29ef 1d3e 6ea0 1ebe e254 f63d 2978 8f3d
00000080: e6a9 cabd 1a96 84be 3415 813c fe06 50bd
00000090: 099c 66be 2208 72bc 6da4 c93e 8c7c e1bd
000000a0: 9b40 fb3c 7e46 dc3e 97b2 84bd aa31 483e
000000b0: 94b6 a23e cf5b 95bd bf9a 523e 309f b43c
000000c0: b2f4 96be c9c1 c4bc e418 023e 521e 8f3e
000000d0: 50bc 643c 7e53 2abd c8e1 593e 3321 c4be
000000e0: 9caf 943e f7e7 34bc 2582 933c 67b2 1d3e
000000f0: dfea e83d fc04 a33e 2b29 d63d 5467 ed3c
00000100: cc66 1e3e b0e4 5dbd d5af 48be 75e3 ccbc
00000110: 7df9 d5bd d6b9 4b3d 8f13 a93e 1719 833d
00000120: 1aea fe3d 385e 7cbc aa43 1e3e ff21 8d3e
00000130: 94ab 923d 3996 683e 5466 7abd 08bb a8bd
00000140: 9578 42be af06 a0be 7b26 053e 1eac 023d
00000150: 2f94 c2be 5eb7 a7be 524b ba3e 1fcf e3bc
00000160: 92cc 8e3d 6517 d1bc 3d45 aebe 2053 04bd
00000170: 4781 7c3d c600 31be 4b15 943d 3d30 dc3d
00000180: 7f57 c4bd 289b 843e f8d8 67bd 0a17 b9bd
00000190: 857e 0cbe afe0 1b3e 3c3d 513d 2d5a 19be
000001a0: 8ab7 9ebc a55e 9f3d b228 8dbe 9ebe 583c
000001b0: 38c5 e9bd 0039 b0bd 2dce fb3d 85aa b3bd
000001c0: 5494 02bd 295e 933e 62d5 4ebe c535 bbbb
000001d0: 2e9b b83e 1842 a03d 745c 21bd c724 953e
000001e0: 1d66 7b3e 021b c5bc 9a96 0ebe 1b26 cbbe
000001f0: 5251 ecbd 2e65 8f3d f818 223e a640 813d
00000200: f124 46be ac3a 6e3e b909 57be b8e6 513d
00000210: f40f 07be 73da c43e b8f5 8d3e 1907 0bbe
00000220: c81c 86be 8648 293e fd7b 2abe e73e 05be
00000230: 53ce c2bd 837f 083c 05d8 3ebe 6d7c b1bd
00000240: f851 c6bd d830 0dbe aaea 03be e2e4 c9bb
00000250: 537c 903d a75e b73b 445b 743e 2877 2b3e
00000260: 2185 febc 8b42 2ebe e4d4 013e 00e0 403e
00000270: 5256 e0bc 0cd7 843e 8fe3 323d ea34 61be
00000280: 0b0b 0a3e d3ba 4fbe b723 093e edc3 a93c
00000290: 4809 6fbe 4d4b 2cbd 2ce1 d93d dc24 263e
000002a0: 1b53 783d 631b 1a3e 7b7f f43d 383b aabe
000002b0: dee9 80bd 78ac 28bd ccbe 1abe fe23 413e
000002c0: 1bfa 893c a453 353e 88fc 80be 6a58 70bd
000002d0: cc14 b13d 8b8d 0fbe 9312 6d3e b7ba 98be
000002e0: accc 7c3d 259b 09bf 23e9 7fbe e473 10bd
000002f0: 6444 d7bd e3ad c03d f85c 2f3d b898 4fbe
00000300: a088 8e3e d998 7dbd 83e9 08be caf2 793e
00000310: 6b51 a4be 613b c0be 92f7 323e 4b87 4e3d
00000320: 6671 e73d 1462 e2bd 4f61 bdbd 5a45 443e
00000330: 5371 a13d ff1c 30bd 0a6d a3bd 0488 d9bd
00000340: 999b a7be bb37 4dbe 73cb 1b3d ce7f 17bd
00000350: 1bfe 613e 36da 9cbd 2485 833e c8a1 48bd
00000360: 0771 e13d 8f3a 8fbe a535 943d d9b3 85bc
00000370: 4e55 15bd 5de8 3b3e eafb 003f f654 453e
00000380: 5cce b2bd 7522 a3be 8284 773d 8087 1b3e
00000390: 8c9a 453d b58c 903d c38d 05bd 7d6f aa3e
000003a0: 87aa aa3d e96b a1bd 09fe 663e 36d2 fd3c
000003b0: 25c9 4abe 1add 743d cfc8 743e 31dd 5d3d
000003c0: 09c5 053e 8457 69be 6499 95bd 0b11 403d
000003d0: 9eb7 0f3d 8848 29be 48c8 2dbe 3983 533b
000003e0: abf7 6abe 5b6c 753e a31e dbbc 95c1 933e
000003f0: d15a d2bd 5075 82bd 296f 7e3d eb0e 67bd

bias f4 [64]
-0.00046273196 -0.005402193 -0.00013417033 -0.001759346 -0.000105846266 -0.000312077 1.2649099e-05 -0.0034770782
-0.0079008965 -0.014316042 -0.0136452895 -0.005076775 -0.00565339 -0.0014487299 -0.007762665 -0.001632626
0.0002678923 -0.010400692 3.5217985e-05 -0.015121345 -0.007789683 -0.009600774 -0.0025804555 -0.017934749
-0.012290736 -0.017158477 -0.0119407205 -0.0064918143 -0.013847931 -0.00708725 -0.0055445065 0.000105917105
-0.012944456 -0.007951222 0.0 -0.009325191 -0.0050060363 -0.023780782 -0.00031255555 -0.009124859
-0.0052154474 -0.00049957813 -0.011920689 3.4800676e-05 -0.0090317475 -0.014163915 -0.0013448464 4.1326575e-06
-0.0031491483 -0.004764747 -0.0051503405 -0.011369776 -0.008359352 -0.0002874166 0.00032913685 -0.015657423
-0.0052682566 -0.003659453 -0.012536045 -0.012593985 -2.4427303e-05 -0.0013777321 -0.025640907 -0.0137900915
00000000: d59a f2b9 e104 b1bb 13b0 0cb9 db99 e6ba
00000010: c8f9 ddb8 449e a3b9 7737 5437 b1df 63bb
00000020: c372 01bc d58d 6abc 7e90 5fbc 135b a6bb
00000030: 1340 b9bb 4fe3 bdba f45d febb d7fd d5ba
00000040: e573 8c39 aa67 2abc 06b7 1338 85bf 77bc
00000050: 9940 ffbb 914c 1dbc dc1c 29bb e5eb 92bc
00000060: 155f 49bc ef8f 8cbc 03a3 43bc 49b9 d4bb
00000070: 6fe2 62bc 293c e8bb b1ae b5bb d01f de38
00000080: fc14 54bc d845 02bc 0000 0000 b0c8 18bc
00000090: ad09 a4bb eacf c2bc 7fde a3b9 6f80 15bc
000000a0: 58e6 aabb 1ff6 02ba fe4e 43bc f1f6 1138
000000b0: e5f9 13bc c40f 68bc 8f45 b0ba 42ab 8a36
000000c0: f161 4ebb 9821 9cbb 30c4 a8bb 4c48 3abc
000000d0: aaf5 08bc 67b0 96b9 0090 ac39 ff43 80bc
000000e0: 57a1 acbb 6fd3 6fbb fc63 4dbc 0057 4ebc
000000f0: 3ce9 ccb7 0595 b4ba e10c d2bc d6ef 61bc

weight f4 [64, 134]
-0.07897423 -0.020882221 0.010945869 -0.09144049 0.23962106 0.1749638 0.13575354 -0.02450816
0.14838967 0.08526102 -0.036705036 -0.07378413 -0.08295036 -0.106934436 -0.17412941 -0.13277546
-0.05086417 -0.0018457148 0.26149872 -0.21210313 -0.10310012 -0.051395025 -0.074801035 -0.13186209
-0.060114853 -0.1016465 -0.16908585 0.022504836 -0.0011633543 -0.18157612 0.19887948 0.09071732
-0.01172168 -0.0036540898 0.12866905 0.08220601 -0.0091425665 0.20036802 -0.061625842 -0.018848054
0.02655984 0.0135123655 0.15399954 -0.09159224 -0.043584984 -0.03637814 0.11294232 0.00597947
-0.042857207 -0.015923914 0.056692295 -0.063302286 0.03567305 -0.06583818 -0.040988512 0.07683915
0.031705357 -0.120659135 -0.04038307 0.020686002 -0.04182483 -0.06422844 0.2953585 -0.057847228
-0.16754614 -0.07590276 0.1059113 0.12482048 -0.14154054 -0.025648892 -0.034355864 0.08565337
0.16334553 0.2096029 -0.11884158 -0.11167509 0.2827509 0.038844418 -0.030881504 -0.10948338
0.03198423 0.041610505 -0.042174384 0.09859627 -0.16130215 0.10446642 -0.14061946 -0.029097144
-0.050002415 -0.10503054 -0.08931238 0.12385517 0.03161178 0.092484206 -0.059550863 0.030838126
-0.018050315 -0.21120788 -0.08377397 0.08390204 0.114181176 0.085361704 -0.0033592214 0.092893034
0.12037798 -0.11876824 -0.013043239 0.053207584 0.24149399 -0.149167 -0.29086635 0.15227553
0.048663758 0.04444916 0.24892598 -0.1286737 -0.056790255 -0.102255315 0.09210446 -0.29596215
-0.03860825 0.316856 0.1437351 -0.025497079 -0.032338955 0.12463839 0.24418585 0.1284206
-0.15222377 -0.13481843 0.07554799 -0.03879005 0.09613542 -0.059422273 0.011305739 0.17352244
-0.08001161 0.08437585 -0.02404335 0.08736726 0.0767898 -0.17859165 -0.043525163 -0.013407412
0.03576043 -0.13971423 0.117250174 -0.00091690244 0.0846148 -0.10439421 -0.17575006 0.08995401
0.0020386395 -0.15021072 -0.09200376 0.16048433 -0.015237258 0.17713417 0.107462734 0.17410083
0.1412401 -0.0038947626 0.055285964 -0.031873755 0.051911514 0.05423418 0.20633581 0.024585396
0.03807093 -0.19061713 -0.014101007 -0.13705473 -0.028455945 -0.13527253 -0.12841025 0.335217
0.15898122 0.013340037 -0.2336835 -0.13481896 -0.20206347 0.115850985 -0.10365579 -0.16240776
0.13997051 0.062142316 0.2325879 0.085614614 0.078943014 -0.01187244 0.081127286 0.027721826
0.18064438 -0.07246804 0.01481216 -0.0266829 0.023529911 -0.003304406 0.044709582 0.007753408
0.12611006 -0.10590738 -0.16307807 -0.0320189 0.091702215 -0.16965517 0.09904194 0.111282356
-0.0015177712 -0.06523543 -0.071797125 0.0011929778 0.24280486 -0.037015308 0.13059239 0.13754901
-0.02170605 -0.078664586 0.16876101 0.10532214 -0.21621378 0.03019128 0.07976221 -0.31322938
0.057312578 0.06794054 -0.06760024 -0.056727365 0.09928416 -0.17743084 -0.17050073 0.09166464
-0.0580193 0.2026572 0.05138471 0.061759036 -0.048831813 0.028512288 -0.051638175 -0.0406915
-0.03917724 -0.068297245 1.6073479e-07 -0.10365964 -0.11805012 0.14452018 -0.00027264815 0.13806386
-0.12836656 0.07541105 -0.07738474 0.039990515 0.063638635 0.07927679 0.03298124 0.06676948
00000000: 3ebd a1bd 3111 abbc 4d56 333c 2745 bbbd
00000010: 395f 753e b629 333e fa02 0b3e 56c5 c8bc
00000020: 76f3 173e 549d ae3d 0558 16bd 221c 97bd
00000030: e1e1 a9bd 7100 dbbd fb4e 32be 4af6 07be
00000040: f356 50bd e9eb f1ba 29e3 853e 9031 59be
00000050: 2826 d3bd 9783 52bd 4931 99bd db06 07be
00000060: fe3a 76bd 0a2c d0bd d724 2dbe 105c b83c
00000070: b17b 98ba 17ef 39be 10a7 4b3e 01ca b93d
00000080: 4a0c 40bc 7479 6fbb d2c1 033e a05b a83d
00000090: b4ca 15bc 462d 4d3e 616b 7cbd 3c67 9abc
000000a0: 0694 d93c f862 5d3c 0eb2 1d3e b694 bbbd
000000b0: 2b86 32bd 3f01 15bd 4e4e e73d 6eef c33b
000000c0: 0a8b 2fbd de72 82bc 2e36 683d a1a4 81bd
000000d0: e71d 123d 2bd6 86bd 92e3 27bd d85d 9d3d
000000e0: 7add 013d 231c f7bd b868 25bd b175 a93c
000000f0: 8350 2bbd 338a 83bd 3b39 973e 37f1 6cbd
00000100: 3791 2bbe e872 9bbd 06e8 d83d e1a1 ff3d
00000110: 01f0 10be a01d d2bc bcb8 0cbd 096b af3d
00000120: 0d44 273e 25a2 563e 3763 f3bd e9b5 e4bd
00000130: bac4 903e 531b 1f3d 35fb fcbc d338 e0bd
00000140: e501 033d c76f 2a3d 0cbf 2cbd d7ec c93d
00000150: 642c 25be 7ef2 d53d 8cfe 0fbe 225d eebc
00000160: 55cf 4cbd 401a d7bd 69e9 b6bd c8a7 fd3d
00000170: 5b7b 013d 5c68 bd3d 9beb 73bd 3da0 fc3c
00000180: 41de 93bc e146 58be b091 abbd d5d4 ab3d
00000190: d2d7 e93d 1ed2 ae3d 6226 5cbb b43e be3d
000001a0: bb88 f63d c33c f3bd 4fb3 55bc 32f0 593d
000001b0: 334a 773e 3cbf 18be 6fec 94be 1eee 1b3e
000001c0: a653 473d 5310 363d 74e6 7e3e 0ac3 03be
000001d0: e69c 68bd 3c6b d1bd 43a1 bc3d 5a88 97be
000001e0: af23 1ebd f33a a23e 4b2f 133e 40df d0bc
000001f0: da75 04bd 6a42 ff3d db0b 7a3e b180 033e
00000200: 8ce0 1bbe d80d 0abe e8b8 9a3d 51e2 1ebd
00000210: a6e2 c43d c564 73bd b53b 393c deaf 313e
00000220: 21dd a3bd 3fcd ac3d 8ff6 c4bc 9bed b23d
00000230: f843 9d3d bbe0 36be 7147 32bd c3aa 5bbc
00000240: 8779 123d 3f11 0fbe dc20 f03d 485c 70ba
00000250: 864a ad3d a2cc d5bd d3f7 33be cf39 b83d
00000260: b29a 053b d7d0 19be 786c bcbd 0156 243e
00000270: b1a5 79bc a962 353e 6c15 dc3d 7d47 323e
00000280: 3fa1 103e 463f 7fbb 8973 623d 0e8e 02bd
00000290: 2ba1 543d a924 5e3d b249 533e 5067 c93c
000002a0: 43f0 1b3d 2331 43be e907 67bc 1358 0cbe
000002b0: 711c e9bc e284 0abe fa7d 03be 90a1 ab3e
000002c0: f9cb 223e 2c90 5a3c ba4a 6fbe fb0d 0abe
000002d0: bae9 4ebe 4843 ed3d 7d49 d4bd 384e 26be
000002e0: 6e54 0f3e f188 7e3d 862b 6e3e b756 af3d
000002f0: e0ac a13d 9f84 42bc 1026 a63d e218 e33c
00000300: d7fa 383e 206a 94bd b4ae 723c 1996 dabc
00000310: cdc1 c03c bc8e 58bb 6521 373d 4d10 fe3b
00000320: ff22 013e f8e5 d8bd f0fd 26be 4026 03bd
00000330: 5fce bb3d 16ba 2dbe 80d6 ca3d 01e8 e33d
00000340: f3ef c6ba 279a 85bd 5f0a 93bd b15d 9c3a
00000350: d6a1 783e 5d9d 17bd 03ba 053e a6d9 0c3e
00000360: e3d0 b1bc e61a a1bd b0cf 2c3e 22b3 d73d
00000370: 2567 5dbe b453 f73c 5f5a a33d 9a5f a0be
00000380: 98c0 6a3d 6924 8b3d ff71 8abd f45a 68bd
00000390: 7e55 cb3d 6eb0 35be be97 2ebe acba bb3d
000003a0: a5a5 6dbd 5e85 4f3e c678 523d 0bf7 7c3d
000003b0: de03 48bd 9a92 e93c 8d82 53bd 21ac 26bd
000003c0: 5078 20bd 6ddf 8bbd 7196 2c34 814b d4bd
000003d0: 43c4 f1bd 19fd 133e 37f2 8eb9 9d60 0d3e
000003e0: 8672 03be 1c71 9a3d e47b 9ebd 18cd 233d
000003f0: f954 823d df5b a23d 5617 073d 70be 883d

bias f4 [64]
-0.01945749 -0.012755548 -0.057627074 -0.0001897173 -0.0063118474 -0.04236308 -0.027703399 -0.0075991587
-0.010836184 -0.023180213 -0.021829488 -0.023893358 -0.027389487 -0.012092636 -0.015031982 -0.026769415
-0.0053716144 -0.041933343 -0.024632132 -0.03062526 -0.01389351 -0.04262677 -0.038429778 -0.0021782785
-0.026030283 -0.00757686 -0.03237176 -0.030894946 -0.032983713 0.0 -0.029109444 -0.010370973
-0.00012659961 -0.023279635 -0.0226224 -0.050702747 0.0051030465 -0.010739299 -0.0074320016 -0.004266355
-0.02271334 -0.030082379 -0.004576748 -0.006430773 -0.0084268 -0.021466255 -0.026262898 -0.032184016
-0.030927947 -0.06440739 -0.0075454926 -0.009697975 0.034162577 -0.012139642 -0.053394604 -0.03524918
-0.021545747 -0.0118688345 -0.016485596 -0.006764546 0.013976858 -0.0052430546 -0.024802903 -0.027736021
00000000: 5065 9fbc a5fc 50bc 5e0a 6cbd daee 46b9
00000010: 9dd3 cebb e984 2dbd 3df2 e2bc 5d02 f9bb
00000020: 408a 31bc 6ee4 bdbc c1d3 b2bc 01bc c3bc
00000030: eb5f e0bc 3120 46bc b448 76bc 884b dbbc
00000040: 5e04 b0bb 4cc2 2bbd 53c9 c9bc d3e1 fabc
00000050: 9ba1 63bc 6899 2ebd 8b68 1dbd 73c1 0ebb
00000060: 763d d5bc 4f47 f8bb 4098 04bd 6617 fdbc
00000070: ee19 07bd 0000 0000 ee76 eebc 03eb 29bc
00000080: d3bf 04b9 efb4 bebc 9d52 b9bc afad 4fbd
00000090: 7537 a73b e2f3 2fbc 2688 f3bb c8cc 8bbb
000000a0: 5411 babc 526f f6bc 8bf8 95bb 3cb9 d2bb
000000b0: 9010 0abc 00da afbc 4a25 d7bc 63d3 03bd
000000c0: 9b5c fdbc 06e8 83bd 2e40 f7bb 41e4 1ebc
000000d0: 0fee 0b3d 59e5 46bc 4db4 5abd 7261 10bd
000000e0: b580 b0bc 8075 42bc cd0c 87bc 20a9 ddbb
000000f0: 31ff 643c eecd abbb 752f cbbc a736 e3bc

weight f4 [64, 64]
0.06738502 -0.07197666 -0.06710474 -0.27832526 0.0043511563 0.18971722 -0.17704406 0.08302984
-0.15883239 -0.19966361 -0.06970987 -0.021158697 -0.0437368 -0.1434564 -0.08397244 0.10262349
0.16889945 0.070930704 -0.46765026 -0.10663463 -0.080874905 0.110290796 -0.2513799 -0.06582534
0.25542015 0.031088943 0.14676522 0.086983174 -0.081241846 -0.06559693 0.19533001 -0.11375569
0.023188148 -0.1316079 -0.08219891 0.22781041 -0.70596856 -0.22166553 0.14290707 -0.12454683
0.27996778 -0.08178587 -0.10025981 0.20994718 -0.008415376 -0.0033530355 0.15288663 0.13503325
0.14669213 -0.15149923 -0.12253572 -0.055315513 0.18907616 0.13067749 -0.094266355 0.1599213
-0.22448006 -0.014237671 -0.27237588 0.22638173 -0.13179304 0.031046731 -0.1658184 0.017214593
-0.032543346 -0.069033496 -0.020323832 -0.098570146 -0.1060932 0.15682258 -0.06290428 0.3203722
0.044684097 0.4145193 -0.077895835 -0.027424585 -0.05910912 0.10584558 -0.045245424 -0.14059025
-0.113460295 0.11543253 0.03118333 -0.13679487 -0.07207475 -0.019343046 -0.16280323 0.09182261
0.20205152 0.10514028 0.19029556 0.11037009 0.063472286 -0.09495401 0.3029208 -0.0911614
-0.010417395 0.039037947 -0.052775364 -0.2251789 -0.012926253 -0.08831752 -0.14190257 0.2571378
0.022853233 0.036730796 -0.26622182 -0.04254426 -0.17978112 0.40053493 0.11073805 0.10122582
0.04061969 0.33410344 0.017272364 0.059244115 0.020510525 -0.0003526504 -0.19429724 -0.17529802
0.35366184 0.590872 -0.01141422 0.05653324 0.09227552 0.11918833 0.32370484 0.17448828
-0.009822653 -0.11670699 0.17844123 0.14170873 0.036810536 -0.09517282 0.32940623 -0.11451651
-0.34129417 0.020784367 -0.19374256 0.0318482 0.029957604 -0.08209683 0.18789984 -0.044416685
-0.0094148945 -0.14813049 -0.24007182 0.06574654 -0.21483654 0.029109208 0.065161556 -0.14512321
0.17474408 -0.05763255 -0.122535944 0.03173395 0.02439086 0.09057374 0.20798485 0.03987144
-0.18870041 0.0417022 -0.25780112 -0.21523108 -0.26133275 -0.005321234 -0.16083163 -0.05811036
0.0802128 0.008495175 -0.030901812 0.080684036 -0.07396831 0.047823533 -0.12140273 -0.1882676
-0.044423297 0.28703982 -0.01351264 -0.084907465 -0.13732852 0.31895858 -0.038046885 -0.17220275
-0.11949285 -0.25742605 0.5515331 -0.22952849 -0.091444574 0.333615 0.07516562 -0.26742545
0.16429226 0.12486333 -0.17957091 0.28441992 0.05113893 -0.030786924 0.0285609 -0.3432044
-0.22210772 -0.09232622 -0.33972192 0.3115689 -0.20369203 0.21984895 -0.17927493 0.17650351
0.19698872 -0.049516954 0.098862365 -0.13799582 -0.2159678 0.07477122 -0.31332514 -0.111276016
0.012567245 -0.03129931 -0.0012643484 -0.3016606 0.25882843 -0.041274693 -0.10116982 -0.42122182
-0.087415926 -0.20051436 0.016580543 -0.037275583 0.2202007 -0.03462634 0.02244006 0.13278015
-0.027244357 0.1044517 -0.16928932 0.23229395 -0.15107788 -0.17504762 -0.09434858 -0.31285092
0.02038067 0.22075479 -0.11018486 0.11718387 -0.13325466 0.15975937 -0.22330244 0.10558452
0.05812526 0.11768047 -0.1936418 0.03905803 -0.11042298 -0.072611086 -0.29257676 0.060339883
00000000: 2801 8a3d 8068 93bd 366e 89bd a680 8ebe
00000010: 2594 8e3b 3b45 423e 0a4b 35be 8c0b aa3d
00000020: f5a4 22be 9e74 4cbe 0cc4 8ebd 0155 adbc
00000030: 5c25 33bd 3ce6 12be bef9 abbd 442c d23d
00000040: faf3 2c3e 1e44 913d db6f efbe 4263 dabd
00000050: bea1 a5bd 24e0 e13d deb4 80be 70cf 86bd
00000060: 6ec6 823e 3dae fe3c 9f49 163e 3c24 b23d
00000070: 2062 a6bd af57 86bd 9704 483e bef8 e8bd
00000080: 12f5 bd3c 39c4 06be e757 a8bd 2247 693e
00000090: 5bba 34bf 4afc 62be 3b56 123e 6912 ffbd
000000a0: f057 8f3e 5a7f a7bd 0455 cdbd 65fc 563e
000000b0: a5e0 09bc 9abe 5bbb 508e 1c3e 2846 0a3e
000000c0: 7636 163e 9d22 1bbe 02f4 fabd 8592 62bd
000000d0: 2e9d 413e 52d0 053e b80e c1bd 69c2 233e
000000e0: 1ade 65be 1f45 69bc da74 8bbe 9dd0 673e
000000f0: c1f4 06be b755 fe3c 4ccc 29be 9e05 8d3c
00000100: 2c4c 05bd 6f61 8dbd 2a7e a6bc 25df c9bd
00000110: 6447 d9bd 1996 203e f6d3 80bd d307 a43e
00000120: ac06 373d e03b d43e da87 9fbd 86a9 e0bc
00000130: 681c 72bd 91c5 d83d 4453 39bd e4f6 0fbe
00000140: df5d e8bd e467 ec3d 2f74 ff3c f413 0cbe
00000150: ed9b 93bd 4f75 9ebc e4b5 26be 7e0d bc3d
00000160: 98e6 4e3e ca53 d73d d7dc 423e b709 e23d
00000170: c2fd 813d 3f77 c2bd 6f18 9b3e d4b2 babd
00000180: b9ad 2abc 41e6 1f3d fb2a 58bd 4c95 66be
00000190: a2c8 53bc d1df b4bd e84e 11be 91a7 833e
000001a0: b436 bb3c 0873 163d 3a4e 88be e442 2ebd
000001b0: 8b18 38be ea12 cd3e a1ca e23d 7c4f cf3d
000001c0: d560 263d 9b0f ab3e c67e 8d3c f5a9 723d
000001d0: b005 a83c efe3 b8b9 dbf5 46be 5381 33be
000001e0: 2a13 b53e 6343 173f b502 3bbc 668f 673d
000001f0: f3fa bc3d 0319 f43d a4bc a53e 0ead 323e
00000200: 31ef 20bc 1304 efbd 4cb9 363e 181c 113e
00000210: a5c6 163d f8e9 c2bd efa7 a83e a287 eabd
00000220: 1cbe aebe fa43 aa3c 7364 46be 4273 023d
00000230: a669 f53c 6222 a8bd d168 403e 45ee 35bd
00000240: ee40 1abc 85af 17be 63d5 75be 1fa6 863d
00000250: 1cfe 5bbe 6f76 ee3c 6c73 853d 2e9b 14be
00000260: 1df0 323e 1c10 6cbd 20f4 fabd 75fb 013d
00000270: 57cf c73c ba7e b93d fbf9 543e 3c50 233d
00000280: ae3a 41be edcf 2a3d 82fe 83be 8965 5cbe
00000290: 68cd 85be bf5d aebb 0cb1 24be 2105 6ebd
000002a0: 9c46 a43d 592f 0b3c cc25 fdbc ac3d a53d
000002b0: b37c 97bd 9ce2 433d ffa1 f8bd 39c9 40be
000002c0: 34f5 35bd e2f6 923e 1f64 5dbc f7e3 adbd
000002d0: d99f 0cbe 8a4e a33e 0dd7 1bbd eb55 30be
000002e0: abb8 f4bd 59cd 83be 4631 0d3f 8409 6bbe
000002f0: 4b47 bbbd 96cf aa3e 6ff0 993d fdeb 88be
00000300: 3b3c 283e 58b8 ff3d 70e1 37be 7d9f 913e
00000310: 0e77 513d dc34 fcbc 8cf8 e93c 7db8 afbe
00000320: 3570 63be 8715 bdbd 08f0 adbe f585 9f3e
00000330: a594 50be 1520 613e d993 37be 56bd 343e
00000340: 69b7 493e 4ad2 4abd 5a78 ca3d c74e 0dbe
00000350: aa26 5dbe a721 993d 276c a0be aee4 e3bd
00000360: d9e6 4d3c b533 00bd 7eb8 a5ba 4273 9abe
00000370: 2985 843e a70f 29bd 1f32 cfbd 63aa d7be
00000380: 1f07 b3bd a353 4dbe ebd3 873c 48ae 18bd
00000390: 4b7c 613e 59d4 0dbd 37d4 b73c 85f7 073e
000003a0: 8f2f dfbc c6ea d53d 2e5a 2dbe 77de 6d3e
000003b0: 29b4 1abe af3f 33be d439 c1bd ff2d a0be
000003c0: 5df5 a63c 8b0d 623e 9aa8 e1bd 19fe ef3d
000003d0: e973 08be f697 233e 65a9 64be b23c d83d
000003e0: c114 6e3d 7502 f13d 094a 46be 50fb 1f3d
000003f0: 7125 e2bd 1fb5 94bd 9fcc 95be f426 773d

bias f4 [64]
-0.016958883 0.034998786 -0.019549448 -0.03458755 0.005671483 0.012956717 -0.0061709518 -0.019803504
0.031636223 -0.016439967 0.019627986 0.013416477 0.0036104177 0.0035600893 -0.025778085 -0.0009746467
0.0027032108 0.0059480392 0.011765803 0.022630295 0.0016306962 0.013852931 0.031949095 -0.0009127662
0.014766872 0.010502601 -0.008882297 0.026577625 0.00019151974 -0.0035492978 -0.008255847 -0.008808248
0.0051262444 0.0018164116 -0.022707459 -0.0001847254 0.0023315866 -0.06453102 0.021467816 -0.0028063138
-0.000899171 0.015521961 0.0037962138 -0.011206319 -0.014145795 -0.005338678 -0.055679187 -0.024398606
0.033284638 0.008479222 -0.007921205 -0.011811371 0.005082416 0.022700248 -0.0025847256 0.00017761574
-0.037858076 -0.026166169 0.014730108 -0.048611727 -0.0004786444 -0.027118303 -0.012165831 -0.014889366
00000000: 5bed 8abc e35a 0f3d 2a26 a0bc adab 0dbd
00000010: d9d7 b93b 6948 543c b235 cabb f53a a2bc
00000020: fc94 013d 1cad 86bc dfca a03c c8d0 5b3c
00000030: c29c 6c3b 6350 693b 902c d3bc 6f7f 7fba
00000040: 5a28 313b c5e7 c23b 5bc5 403c 2b63 b93c
00000050: 16bd d53a 67f7 623c 0edd 023d b446 6fba
00000060: c0f0 713c 1a13 2c3c 0e87 11bc 52b9 d93c
00000070: b0d2 4839 569b 68bb 8843 07bc 7850 10bc
00000080: 0efa a73b a914 ee3a fe04 babc d9b2 41b9
00000090: 88cd 183b d728 84bd 46dd af3c 22ea 37bb
000000a0: 58b6 6bba d34f 7e3c e6c9 783b b59a 37bc
000000b0: c4c3 67bc 14f0 aebb dc0f 64bd 96df c7bc
000000c0: 7955 083d 6fec 0a3c f1c7 01bc 7b84 41bc
000000d0: 658a a63b dff5 b93c 8064 29bb 5d3e 3a39
000000e0: 1211 1bbd 6f5a d6bc 8d56 713c 171d 47bd
000000f0: 90f2 fab9 3427 debc 3253 47bc 87f2 73bc

weight f4 [1, 64]
-0.06274283 0.24784105 0.040360007 -0.17208113 -0.018389331 -0.0005247589 0.0010340842 0.038492512
-0.025535038 0.11411931 -0.0140149435 -0.024415307 0.1905396 -0.047552343 0.36475256 0.041000415
-0.06183998 -0.26322374 -0.0140436785 -0.25989237 -0.1511051 -0.03923689 0.03097146 0.00015848553
0.105450176 0.13773751 -0.10522593 -0.054596793 0.0008713303 -0.0040553887 -0.07085811 -0.12489968
-0.075598076 0.14724337 0.0018032405 -0.006972501 -0.19769147 0.1793024 0.04509707 0.11083481
-0.21537958 -0.014713827 0.051414464 -0.15176283 0.12937738 -0.007350533 -0.38409185 0.25885436
-0.11104819 -0.044688556 -0.00062748115 0.059511214 -0.0034203813 -0.06525376 0.027880343 0.13002862
-0.03964347 -0.07407993 -0.023062393 0.066983625 0.29455233 -0.06925973 -0.01805503 0.028999351
00000000: 507f 80bd 0bca 7d3e 8950 253d 0936 30be
00000010: 39a5 96bc f98f 09ba 1c8a 873a 53aa 1d3d
00000020: db2e d1bc 63b7 e93d ef9e 65bc 9c02 c8bc
00000030: d01c 433e 3fc6 42bd d9c0 ba3e 0df0 273d
00000040: eb4b 7dbd 43c5 86be 7517 66bc 9d10 85be
00000050: 4cbb 1abe dcb6 20bd dcb7 fd3c 232f 2639
00000060: 43f6 d73d 100b 0d3e b180 d7bd e3a0 5fbd
00000070: fd69 643a 11e3 84bb 0f1e 91bd 67cb ffbd
00000080: 2ad3 9abd f7c6 163e b65a ec3a 9479 e4bb
00000090: a26f 4abe 0c9b 373e b5b7 383d 5cfd e23d
000000a0: 778c 5cbe 4312 71bc f997 523d b767 1bbe
000000b0: 817b 043e bddc f0bb b0a7 c4be 8f88 843e
000000c0: 3c6d e3bd 590b 37bd 8c7d 24ba 08c2 733d
000000d0: 7a28 60bb c3a3 85bd 5165 e43c 3926 053e
000000e0: 3161 22bd 38b7 97bd 58ed bcbc b62e 893d
000000f0: 90cf 963e 0cd8 8dbd 24e8 93bc 0c90 ed3c

weight f4 [5, 64]
0.0037609858 -0.0050892765 -0.00041849105 0.0032973273 -0.009952255 -0.0012264244 -0.00034099826 -0.0010711611
-0.001728829 0.00044103383 0.005370297 0.012445458 -0.004116717 -0.006430033 -0.0029262789 -0.0010125344
-0.009446378 0.0017705758 -0.00052849716 -0.0013079877 0.003952658 -0.0009959126 0.002985252 -0.0021996489
0.007455479 -0.0026817531 0.0053313673 0.009398842 -0.0012486055 0.0020947591 0.00017240323 -0.0021893177
-0.002345952 0.0029747596 -0.000677892 -0.0025543475 -0.0036326684 0.005140196 0.004240493 -0.0015198778
0.0017444084 -0.0017081131 0.0061570853 0.0009080297 -0.004091472 -0.0009150376 0.017332066 0.00012831512
0.006978119 -0.011495913 0.018699318 -0.006365878 -0.0013673159 0.0020184743 -0.0055645667 -0.0063052233
0.009831444 -0.003414698 0.0031514422 0.0111529855 -0.00082050683 0.005398989 0.006077513 0.010626312
-0.0012888429 0.0018421863 0.0048341276 -0.0044497247 0.01985751 0.0026873327 0.0011402236 0.0019608994
0.009676097 -0.008365666 0.00042259417 0.009590355 0.008884778 0.004711928 0.007544524 -0.0023939584
0.008167843 0.00686933 -7.239345e-05 0.010699311 -0.0018393362 0.018455883 -0.009862443 0.00048274238
0.0035505013 -0.0026330226 -0.012561451 0.004414875 -0.007715236 0.0020063722 -0.008055623 -0.0006578968
0.0054322295 0.0041944287 -0.00057936914 0.0057758824 0.0036278954 -0.0017473822 -0.0014520623 -0.00030438308
-0.003871062 -0.00071616366 -0.009262678 -0.0030103377 -0.0059036994 0.0042751785 -0.011653552 0.0028290956
-0.0027777187 0.00022811253 0.0069707287 0.009305873 0.006067154 0.0008657203 0.008188417 -0.0005799518
-0.006263955 0.0014747358 0.0066885576 -0.0014906444 -0.0010953565 0.0007296031 -0.0007238085 -0.0025904947
0.0062547754 0.00041002908 0.0012824888 0.0009914759 -0.012214429 0.0030674334 0.0012052133 0.004937284
0.0035425436 0.0015094196 0.0063729514 -0.0055106706 -0.0014890537 -0.009766879 0.0036365795 0.01596515
-0.0045286724 -0.0034893528 -0.0036438117 0.0005177087 0.0069658076 0.0014298458 0.007843962 0.0030865495
0.002765475 -0.0030147908 0.0020161376 0.0040479563 0.0022949006 -0.00392933 -0.0025857873 0.0042979536
0.012165694 0.0011001651 -0.0011124877 0.005099916 -7.901109e-06 0.008955073 0.0039466335 0.009992902
-0.001015827 -0.009604384 0.008306907 0.0014426474 0.006934015 -0.0065308055 -0.013483642 -0.0027662956
-0.005533661 0.007825424 -0.0044628107 0.0034906452 0.0020631817 0.0022836789 0.005459848 0.007094381
-0.0013051967 -0.0062901275 -0.004877659 0.012699735 -0.0007451843 -0.020978523 -0.0027643617 -0.0012709417
0.003863035 0.0056253183 -0.008684042 -0.004642673 -0.005113859 -0.0014085437 -0.0020141692 0.00372576
-0.004078151 0.005175975 -0.00068547373 -0.010674061 -0.010946714 -0.00056158437 0.0008112445 -0.026501033
0.0013393325 0.00057955994 0.00016620326 0.004130511 0.0030863557 -0.0032875987 -0.005757223 0.0012769657
0.0017010858 0.012131136 0.008198401 -0.011094723 0.010192435 0.013427939 0.015043475 0.0010849846
-0.00036578783 -0.00073536736 -0.00076390815 0.0017905369 -0.011144298 -0.0006233872 0.0002521068 -0.0020859689
0.0056684916 0.0040948642 0.006531872 0.00017131705 0.0140374955 0.0029419642 -0.0040440857 0.00021522779
0.006537011 0.013365883 -0.0048561413 0.0030954394 -0.005881232 -0.0016252743 -0.020557655 0.0019432097
-0.0039691543 0.008563509 0.0011323377 -0.005731655 0.00042414508 0.007308623 0.00051098445 0.008642394
00000000: df7a 763b f2c3 a6bb eb68 dbb9 f917 583b
00000010: c80e 23bc f9bf a0ba 03c8 b2b9 3466 8cba
00000020: e099 e2ba 8f3a e739 51f9 af3b 09e8 4b3c
00000030: 86e5 86bb 07b3 d2bb d0c6 3fbb 04b7 84ba
00000040: fbc4 1abc aa12 e83a d88a 0aba c970 abba
00000050: 4c85 813b 4889 82ba 38a4 433b fc27 10bb
00000060: 174d f43b 5ac0 2fbb c0b2 ae3b 9afd 193c
00000070: 40a8 a3ba 3a48 093b 24c7 3439 a87a 0fbb
00000080: 8bbe 19bb 2ff4 423b 90b4 31ba d766 27bb
00000090: 1012 6ebb 176f a83b d5f3 8a3b a336 c7ba
000000a0: a2a4 e43a c4e2 dfba 60c1 c93b d708 6e3a
000000b0: c111 86bb 22df 6fba fafb 8d3c 548c 0639
000000c0: b4a8 e43b 5b59 3cbc 502f 993c db98 d0bb
000000d0: 8237 b3ba 6148 043b f856 b6bb 0c9c cebb
000000e0: 1114 213c 20c9 5fbb 6d88 4e3b 03bb 363c
000000f0: 4817 57ba 01ea b03b e025 c73b fc19 2e3c
00000100: 64ee a8ba 8475 f13a 9a67 9e3b ffce 91bb
00000110: 38ac a23c f61d 303b 8e73 953a 6f82 003b
00000120: 7e88 1e3c 2510 09bc a18f dd39 dd20 1d3c
00000130: 7691 113c 8466 9a3b 0e38 f73b f5e3 1cbb
00000140: 6bd2 053c 1e18 e13b f0d1 97b8 2a4c 2f3c
00000150: e215 f1ba cb30 973c 1696 21bc 9618 fd39
00000160: 87af 683b ca8e 2cbb 8bce 4dbc a8aa 903b
00000170: 17d0 fcbb 577d 033b bbfb 03bc b576 2cba
00000180: d800 b23b 6b71 893b cee0 17ba 9d43 bd3b
00000190: fcc1 6d3b 6b08 e5ba 2053 beba 9b95 9fb9
000001a0: a5b1 7dbb eebc 3bba 7dc2 17bc 1649 45bb
000001b0: d273 c1bb cc16 8c3b 8aee 3ebc 5968 393b
000001c0: 630a 36bb 7e31 6f39 b66a e43b a977 183c
000001d0: face c63b 82f1 623a b628 063c e807 18ba
000001e0: dd41 cdbb ec4b c13a b02b db3b ba61 c3ba
000001f0: 1192 8fba d642 3f3a f7bd 3dba 4ac5 29bb
00000200: dcf4 cc3b 2cf9 d639 2f19 a83a 69f4 813a
00000210: 071f 48bc fe06 493b 3ff8 9d3a f1c8 a13b
00000220: 052a 683b b8d7 c53a 31d4 d03b db92 b4bb
00000230: 5a2c c3ba 4205 20bc ae53 6e3b 59c9 823c
00000240: 4265 94bb a0ad 64bb 04cd 6ebb d8b6 073a
00000250: 6e41 e43b aa69 bb3a f683 003c b547 4a3b
00000260: f93c 353b cc93 45bb 2d21 043b b8a4 843b
00000270: 0b66 163b 9cc1 80bb 5076 29bb d9d5 8c3b
00000280: 9e52 473c 6a33 903a e5d0 91ba 321d a73b
00000290: 018f 04b7 4cb8 123c c352 813b 45b9 233c
000002a0: 7f25 85ba b55b 1dbc b119 083c 3717 bd3a
000002b0: bc36 e33b 5e00 d6bb 7eea 5cbc bd4a 35bb
000002c0: b753 b5bb 3536 003c c53c 92bb 4fc3 643b
000002d0: 7236 073b c6a9 153b 86e8 b23b fb77 e83b
000002e0: 2213 abba 6a1d cebb c5d4 9fbb 8d12 503c
000002f0: 7958 43ba 27db abbc 4b2a 35bb ba95 a6ba
00000300: f92a 7d3b 9754 b83b 8347 0ebc 9021 98bb
00000310: 2992 a7bb e29e b8ba 2700 04bb e12b 743b
00000320: 03a2 85bb 3a9b a93b 5db1 33ba 42e2 2ebc
00000330: d959 33bc 4a37 13ba b2a9 543a b218 d9bc
00000340: 8b8c af3a 9ced 173a d946 2e39 3d59 873b
00000350: 7544 4a3b c174 57bb 16a7 bcbb dc5f a73a
00000360: f8f6 de3a acc1 463c 9652 063c a4c6 35bc
00000370: 2cfe 263c dc00 5c3c e878 763c 0b36 8e3a
00000380: 36c7 bfb9 abc5 40ba 0241 48ba 73b0 ea3a
00000390: 9396 36bc cf6a 23ba 342d 8439 c0b4 08bb
000003a0: c1be b93b 362e 863b 5009 d63b 92a3 3339
000003b0: 86fd 653c f8cd 403b 4084 84bb c5ae 6139
000003c0: 6c34 d63b 94fc 5a3c 4420 9fbb dbdc 4a3b
000003d0: 5ab7 c0bb 2807 d5ba 8768 a8bc 4cb3 fe3a
000003e0: ae0f 82bb f64d 0c3c f36a 943a 9bd0 bbbb
000003f0: ca5f de39 2c7d ef3b 96f3 053a d498 0d3c

bias f4 [5]
0.0031513793 0.0031015063 -0.00072103133 -0.0046350616 0.0040517794
00000000: 5f87 4e3b a442 4b3b 9803 3dba b7e1 97bb
00000010: cac4 843b
