model/medium-4/A2C/model_agent1_seed1.pt (torch, 109505 bytes, 11 tensors)

weight f4 [64, 134]
00000000: 80c6 cdbd b329 89bd 9222 0d3d 6795 323c
00000010: 7b28 65be ffc4 323d 9c7d 52bd 3fe7 c23d
00000020: eaea 74bd 1609 1d3e cf2f 343e 127e c2bd
00000030: 5cd9 07be e0a5 c53d f589 5a3d 8fae a43d
00000040: 290b 2e3e e884 4b3d f67f a43c 1822 50bd
00000050: 1445 e03c 4880 3c3e d873 6b3b 6572 18be
00000060: 9416 67bc d2fb f63c 0014 63bc f425 92bc
00000070: f708 3bbd f05d 82bd 356f 16be 8354 47be
00000080: ba53 9abc 3e95 993c 4c64 ad3d 2c54 183d
00000090: 07c9 8dbc 9594 4e3d 9943 983a 80c2 22bb
000000a0: 65b7 7f3d 3934 97be 5cfe 353e d5e9 8b3e
000000b0: b4bf 733d 0f99 34be 9a8b 8f3b 888f 8f3d
000000c0: b1d1 1bbe 84a6 89bc 8a8b a9bc 77c1 273e
000000d0: a49b 673d 7c14 1a3c 69a0 013d e1c3 283e
000000e0: 1036 c03d 4cbd c03d 9f70 6b3d 1a75 853c
000000f0: f3a3 473e 6169 8b3d 96e7 40be 90a6 b3be
00000100: c69d 7d3d ba13 5d3e 467a 12be 1baf bbbc
00000110: 4fa2 163e 9060 9abd 8c61 0abe 0616 a03c
00000120: 1229 50be a95a 28bd d944 323e 2058 a93d
00000130: dd93 b63d bddb 5cbb e874 153c 95e9 da3d
00000140: 1808 863e 442a 34bd 2a9d 213d 7212 3d3d
00000150: a631 113e ba3f 423e 938c 74bd 2a44 27be
00000160: 0446 54be 9794 b63c 50ae 253e d195 53be
00000170: 2f62 3ebe 1e65 f6bd cae6 85bd b06d 18be
00000180: 3ff2 cfbc 3849 4b3d 3db2 51bd cbb9 c73d
00000190: 85b4 89bc dc7a 623e 527a 443c be55 f93d
000001a0: d94f 1c3d 19e4 703e 027f d83d 1a05 683d
000001b0: 729c 173d c691 b03d ec54 c83d c253 4bbd
000001c0: d587 393d 3c70 1f3c 92de 553e ec3b 00be
000001d0: ffb0 8b3d af88 abba 3b34 383d b3f1 40be
000001e0: 2ede 4cbc d74e be3d 4e73 d5bc c47d 49bd
000001f0: f044 1a3e 2aaa ccbc 06d3 09be 467c 02be
00000200: 8838 873d d37c 94be b596 cebd 9922 723e
00000210: 68e9 4dbd 3412 483e 0686 d2bd 0dab 633d
00000220: 70e6 613d 4772 b2bc e321 20bc 890b adbe
00000230: c62b 9fbe ed12 87bb fdd1 86be 53c5 693d
00000240: 3e48 b3bb 759e 07be fa09 813d 6d3f f7bd
00000250: 46bb 9f3b cbcd a43b 3eb6 913c 660e 983e
00000260: 0479 133e 738d 84be 2b79 2e3e 18bd 12be
00000270: 2b58 1a3d 9da6 843b ba60 443e 5c05 abbd
00000280: 6b9b 053d e76b fabc 6231 5a3c 0d73 7fbd
00000290: 524e 9b3e 6407 c53d f8db 0b3e acd5 cd3d
000002a0: 051c 1abe 4e3e 79bd 8dfa 123d b51a 103d
000002b0: 158b 903d aa40 9dbc bb78 813d 3aa0 4bbd
000002c0: 900c 50bc 5ae0 a43d bb13 f83d d357 e5bd
000002d0: 5647 c03d fd1e 79bc a112 c1bd c4b3 51bd
000002e0: 02be 673d 2576 5a3d e44c 4cbe 5daa 28be
000002f0: a39b 6cbd c790 4bbb 0b98 d33b 37a6 9d3c
00000300: bcc1 443e 8331 453e d873 5ebe d3a2 0c3e
00000310: 1bde 53bd 077e b2bd b126 9cbd d1ac 90bd
00000320: b59f 463e 031a a4bd ba91 2fbc 38a3 5ebe
00000330: fd22 5fbd fe6f 87be 59cd 4abe da8f a43d
00000340: edae b6bd 9613 27bd 0582 8a3d 6bad 1fbe
00000350: dadc febb 28b3 57be 82d1 05bd 53c7 57bb
00000360: d7a6 2ebd 0719 d3bb 0b13 883e bf50 093e
00000370: a497 1bbd 85cc dabd 78f4 203e 75dc 87bd
00000380: 1faa 683c 45a5 87bd 91ab 213e 7ea9 f7bd
00000390: 713f 21bd d64f 8cbd fda5 f43d b669 c9bd
000003a0: b09e 32be 9375 36be b55f 12bc 37bc f13c
000003b0: 6f7c 0cbe 22e0 2e3e f3fe 0cbd dc97 28be
000003c0: 84ae 5fbe a00b d83d 0993 cabd 9b5a 123d
000003d0: e5e1 343d 9b81 503d c4c8 41bd 2edf 17be
000003e0: c3b6 79bd faf2 043d c6e0 f739 49e8 3fbc
000003f0: ff8f 0cbe 1627 9ebc e271 793d 04ec 383d
-0.100476265 -0.066974066 0.034456797 0.010899878 -0.22378723 0.0436449 -0.05138932 0.09516763
-0.059794344 0.15335497 0.17596363 -0.09496702 -0.1326651 0.09650779 0.053354222 0.08041107
0.16996445 0.049687296 0.020080548 -0.050813764 0.027376689 0.1840831 0.0035927203 -0.14887388
-0.014104504 0.030149374 -0.013859749 -0.017840363 -0.045662846 -0.063655734 -0.1469086 -0.19465832
-0.018838752 0.018747922 0.08466396 0.037189648 -0.017307771 0.050434668 0.0011616825 -0.002483517
0.062430758 -0.2953203 0.17772812 0.27326837 0.059508994 -0.17636512 0.0043806555 0.07009798
-0.1521671 -0.016803034 -0.02069642 0.16382395 0.056544915 0.009404298 0.03164712 0.16480972
0.093853116 0.094111055 0.05748045 0.01629119 0.19496135 0.06807209 -0.18838343 -0.35088015
0.061918043 0.21589556 -0.14304456 -0.022910645 0.14710353 -0.07537949 -0.13513774 0.019541752
-0.20328167 -0.041102085 0.17409076 0.08268762 0.089149214 -0.003370031 0.009122111 0.106890835
0.2617805 -0.04398562 0.039456524 0.04616017 0.14179096 0.18969622 -0.059704375 -0.16334596
-0.20729834 0.02228765 0.16179776 -0.20662619 -0.18592142 -0.12031005 -0.0653816 -0.14885592
-0.025384067 0.049630374 -0.051195372 0.09752234 -0.016809711 0.2211718 0.011992054 0.12174557
0.038162086 0.23524512 0.105711 0.05664549 0.037014432 0.08621554 0.097818226 -0.049640425
0.045295555 0.009731349 0.20885685 -0.12522858 0.06820869 -0.0013087 0.044971686 -0.18842201
-0.012504144 0.09292381 -0.026055958 -0.049192205 0.1506536 -0.024983484 -0.13459405 -0.12742719
0.06602579 -0.29001483 -0.10087339 0.2364601 -0.05027142 0.19538194 -0.10279469 0.05558305
0.055151403 -0.021783007 -0.009773704 -0.33797863 -0.31088084 -0.004122129 -0.26332083 0.05707295
-0.0054712584 -0.1324404 0.06300731 -0.120726444 0.0048746197 0.0050294152 0.017787095 0.29698485
0.14401633 -0.25889167 0.1703841 -0.14329946 0.03768174 0.004048182 0.19177523 -0.083506316
0.03261892 -0.03056903 0.013317438 -0.06236558 0.3033319 0.0962055 0.1365813 0.1005052
-0.15049751 -0.060850434 0.035883475 0.03518172 0.07057778 -0.019195873 0.06321856 -0.04971335
-0.012698308 0.08050604 0.12113138 -0.11198392 0.09388606 -0.015205142 -0.09427381 -0.05119683
0.05657769 0.053335328 -0.19951206 -0.16471238 -0.057765614 -0.0031061636 0.006457334 0.019244296
0.19214529 0.19257168 -0.21723878 0.13733988 -0.05172549 -0.08715444 -0.07624567 -0.07064212
0.19396861 -0.08012774 -0.010715896 -0.2174195 -0.054476727 -0.2645263 -0.19804896 0.0803525
-0.08920083 -0.040790163 0.067630805 -0.15593497 -0.0077777924 -0.21064436 -0.032670505 -0.0032925203
-0.04263958 -0.0064421925 0.2657703 0.13409708 -0.037986413 -0.1068354 0.15718257 -0.06633846
0.014200716 -0.066233195 0.15788104 -0.12092875 -0.039367143 -0.06851165 0.11945722 -0.09834616
-0.17443347 -0.17818289 -0.008933951 0.029508693 -0.13719343 0.17077687 -0.034422826 -0.1646418
-0.21843916 0.10549092 -0.09891326 0.03573094 0.044160742 0.05090485 -0.047310606 -0.1483123
-0.06096531 0.032458283 0.0004727898 -0.011713096 -0.13726805 -0.019305747 0.060899623 0.045146957

bias f4 [64]
00000000: b970 673a 7af1 1cbc bb65 0f3b ddc2 bcb9
00000010: b799 9abc fd2d 9939 51de 81ba bb4d c23a
00000020: 25e3 ebba f3e7 f2bb 9fde 3ebc da20 74bc
00000030: 6dd6 0cba 2a35 3b3a 0cf6 13bc 7426 19bc
00000040: c2a1 403b ace7 683b eb0d b939 abf1 ddba
00000050: 772e b8bb 49d2 79bc 3e0e 573b 1340 bdbb
00000060: dd8f fdbb 9206 28bb 3ba9 6bb9 d88a 3abb
00000070: eedc 6cba 3941 283a fb7b e83a 4f44 f8bb
00000080: e445 0fbb 0d2d 10ba 0000 0000 e64f e338
00000090: 6621 b6b8 7639 023a e3be 8e3b 37fc 90bb
000000a0: b5a6 bfba 6eec 35bc 8cca 8fbc cfd9 a2b9
000000b0: 796a 5a3b 3aec 4fbc 9142 073a d3ce 41bc
000000c0: c431 4238 717e bd3b a1c1 673b 861d 53bb
000000d0: 1fdc 97ba 108e 8dbc 7502 90bb c552 6e3b
000000e0: 5a96 09bc 2c32 f3bb b6a0 35bb f030 8abb
000000f0: 62ec 0db9 30c5 8dbc d6ca 07bc 33ae dcba
0.00088287477 -0.009579057 0.0021880704 -0.0003600334 -0.018872125 0.00029216698 -0.0009908174 0.0014824191
-0.0017996771 -0.0074129044 -0.011649757 -0.014900411 -0.0005372528 0.0007141406 -0.00903083 -0.009347547
0.002939329 0.0035538478 0.0003529632 -0.0016932985 -0.0056207734 -0.01524789 0.0032814885 -0.0057754605
-0.007738097 -0.0025638682 -0.0002247439 -0.0028464105 -0.00090356066 0.00064184103 0.0017737144 -0.0075765024
-0.0021861726 -0.0005499877 0.0 0.00010839086 -8.684657e-05 0.0004967669 0.0043562516 -0.0044245976
-0.0014621826 -0.0111037325 -0.017552637 -0.00031061328 0.0033327623 -0.012690598 0.00051597605 -0.011829096
4.6299552e-05 0.0057828953 0.0035363215 -0.0032213642 -0.0011585987 -0.017279655 -0.004394824 0.0036365252
-0.008397663 -0.0074217524 -0.00277142 -0.0042172596 -0.00013534867 -0.01730594 -0.008288106 -0.0016836583

weight f4 [64, 64]
00000000: b366 6cbe b382 c13c b89d bd3c da14 0d3d
00000010: 9faf 0e3e c9ec 12bd caa4 68bd 04a8 20be
00000020: a949 903d 747b 06bc 84d9 9cbe c6b9 223e
00000030: 32b2 143e adf5 98be 5e6d b2bc 3bd5 5cbe
00000040: 1c8e 84be b451 5ebe eac2 a33d f720 7a3d
00000050: e230 4a3e 39f8 08be 116b fdbd e996 90be
00000060: a306 9cbd 9546 7bbd 73a3 03bd 094a 143e
00000070: f350 a03c 3872 c2be 1356 3bbe edfe 0fbb
00000080: 36e6 8f3e bc60 9abe 36f8 513e 2250 3abd
00000090: f329 2fbe 80bb 09bd b1c1 6a3e b222 69be
000000a0: 7cb4 b4bd 63e1 e13e 981a 91bd 6b47 b33e
000000b0: f0a0 db3d 6dcb 16bd c0bc bcbd 2276 2bbd
000000c0: 3dbb c5be 37ef 7fbe fd45 95bd 2e1b 3c3e
000000d0: 6aec b83d 67b0 1d3d f293 0d3e 5b5d c7bb
000000e0: 832d a73d 02a6 ce3d 7a23 2d3e 64cc 413d
000000f0: c5b8 3b3e 8878 2cbd 1d58 9dbd a3e1 6a3e
00000100: 90bf a3bd 79e8 353e 237b 3dbd f726 74bd
00000110: 12fa 8ebc a06c fa3d 5da4 1b3e b003 8abe
00000120: ab5b fd3e 70be 1ebe 9718 103e 9307 bebd
00000130: 6a4f e93c 0dac 163e 82b1 2c3e 49c4 34be
00000140: 0ea4 15be 50c7 9f3e cae2 8f3d 3089 13bd
00000150: e9a6 933e a1fc 1ebc 2433 e73d c39d 1d3e
00000160: be15 babd f8ea e43e 850e 4e3e a973 02be
00000170: 8c27 d83d fbc3 a13c f503 1ebe d37a 953d
00000180: ce3c b43e 4cae d93c 6e0e 47be 124c 093e
00000190: 7be9 9cbd 63e5 b93d cdaf 0fbd 2426 3cbe
000001a0: f8c6 44bc ecf8 d1bd d5bd 23bd a15e cab7
000001b0: 6f53 b03d f04c b43e bf91 3e3e 9378 c9bd
000001c0: a75e bd3a e87d cbbd ae63 c33d 6870 33be
000001d0: 320b d03d 51ef be3d f8fe 8fbe 12da 1d3e
000001e0: 0fe3 0d3e 2227 28be 8d5d a33e 2196 12be
000001f0: 9479 f8bc 9cca b13e 9769 203b 0086 8f3d
00000200: 2351 f4bd cec9 e5bc d590 abbe c6ae 81be
00000210: 2ddd 8bbe 3a2a b2be 3873 e8bc 4b72 253e
00000220: 41d6 f1bd 328e c83d 8f38 6cbe 5963 84bd
00000230: 3c61 9d3d b5e8 00be c9c5 79be e874 50bd
00000240: 0d15 523e 301f 443d 1571 103d 1d5c cfbc
00000250: 6e00 fc3d f29b 323e a211 283d 0bac 0b3e
00000260: 4e99 4f3c 43a5 6ebe 24fb 5ebe 8079 763e
00000270: faee 3e3e 7de6 adba 5733 f3bd 5e42 f03d
00000280: 562a 153e a869 053c e2f2 adbe c57f 8f3d
00000290: 4e1d 9c3d 30f4 9f3e 4efd 223e 7800 b0bd
000002a0: 4131 e4bd af56 333e ced8 243e 00f2 8abe
000002b0: 7548 f9bd 6aa6 a43d 419a 25be e9d1 c7bb
000002c0: 1780 9cbe 0b66 2bbe 6fe2 d1bd d18c bbbe
000002d0: 31d0 463e c07c d7bd f9f5 133d 9e9e 923d
000002e0: ac11 06be 7a62 0abe f49c 4cbd 79c6 59be
000002f0: 524a c9be 1729 2d3e 8ef0 d4bd 15fe 0dbe
00000300: c2de 91be 86f6 3c3e d6dd 2abd e4ed 2f3d
00000310: 902e e63d 904e 183d 5ded 13bd 9baf fcbb
00000320: f9f4 83bd 520b f93d 2adc 0ebd f2ff 33be
00000330: a7c9 56be 4624 503e f6df 83be d50d 65be
00000340: ebeb b7bd 9e8a afbe e3bd 883d 6635 15bd
00000350: 61e6 2fbe d070 13bd 6874 ab3d 8a02 403d
00000360: e925 eebe 7df0 0c3e f8ff febd 1a40 843d
00000370: 6c36 c5bb 7dfe c33e b694 8c3c 32f0 c23e
00000380: ce60 05bd f43d bebd 3e5d 823d f089 08bd
00000390: 5df9 9fbb 187c f43d 520c 2cbc 6fe0 b73d
000003a0: 16f3 863e 5661 8f3e 4f1e 80be c917 2a3e
000003b0: a2fe bbbe 14af 493d d879 ba3d d6cb 93be
000003c0: 2b93 8b3e 03d0 5ab9 19b6 aabe b583 773d
000003d0: 750e 6dbc e3a0 3b3b 8800 ac3d c45a 8d3e
000003e0: 1735 da3d ca7b c3bd 7593 10be 83eb 0e3e
000003f0: f155 d2bc ecdd 483e 86bd f63c 10d3 bfbd
-0.23086052 0.023621893 0.023146495 0.034443714 0.13934182 -0.035870347 -0.05679778 -0.15689093
0.070452996 -0.008208144 -0.306347 0.1589118 0.14521101 -0.29874936 -0.021780666 -0.21565716
-0.2588967 -0.21710855 0.07996161 0.061066594 0.1974521 -0.1337594 -0.12373937 -0.28240135
-0.07618453 -0.06134661 -0.0321383 0.14481367 0.01956985 -0.37977767 -0.18294553 -0.0021972016
0.28105325 -0.30151927 0.20504841 -0.045486577 -0.17105846 -0.03362608 0.2292545 -0.22767141
-0.08823487 0.4411727 -0.070851505 0.35015425 0.10724056 -0.036815096 -0.09215689 -0.041860707
-0.38619414 -0.24993597 -0.0728874 0.18369743 0.090294674 0.03849831 0.13825968 -0.006084127
0.081629775 0.10090257 0.16908064 0.047314063 0.18332203 -0.042107135 -0.07682822 0.22937636
-0.07995522 0.17764463 -0.04626001 -0.059607472 -0.017453227 0.1222775 0.15199418 -0.26955938
0.49484 -0.15502334 0.1407188 -0.092787884 0.02848025 0.1471407 0.16864589 -0.17653002
-0.14613363 0.3120675 0.070256785 -0.036019504 0.2883828 -0.009703786 0.11289051 0.15392213
-0.09086178 0.44710517 0.20122726 -0.12739433 0.10554418 0.019746771 -0.15431197 0.072988175
0.3520264 0.026572369 -0.19439098 0.13407925 -0.0766172 0.09076955 -0.035079766 -0.18373924
-0.0120103285 -0.10252556 -0.03997596 -2.4124342e-05 0.08609664 0.3521495 0.18610285 -0.09837451
0.0014447764 -0.09936124 0.09540497 -0.17523348 0.10158385 0.0932299 -0.28124213 0.15415218
0.13856147 -0.16421178 0.3190731 -0.14315082 -0.03033141 0.3472489 0.0024477 0.0700798
-0.11929538 -0.02805033 -0.33508936 -0.25328654 -0.2731718 -0.3479784 -0.028375253 0.1615688
-0.11808444 0.097927466 -0.2306845 -0.064642616 0.076845616 -0.1258877 -0.24391855 -0.05089274
0.20515843 0.047881305 0.035264093 -0.025312478 0.123047695 0.17442301 0.04103244 0.13639848
0.012670828 -0.2330523 -0.2177549 0.24069786 0.1864585 -0.0013267543 -0.11875027 0.117314085
0.14566931 0.008142866 -0.33974367 0.07006792 0.07622777 0.31240988 0.1591694 -0.085938394
-0.11142207 0.17513536 0.1609833 -0.27137756 -0.12172023 0.080395535 -0.16172124 -0.0060980213
-0.30566475 -0.16738145 -0.10248267 -0.36630872 0.19415356 -0.10521841 0.03612325 0.0715916
-0.13092679 -0.13514128 -0.04995437 -0.21267118 -0.39314514 0.16910206 -0.10397445 -0.13866456
-0.28490263 0.18453416 -0.041715465 0.04295148 0.1123935 0.037184298 -0.03611504 -0.0077113635
-0.06443209 0.12160362 -0.034877934 -0.17578104 -0.20975362 0.20326337 -0.25756806 -0.22368558
-0.08980545 -0.34285444 0.06676843 -0.036427878 -0.17177726 -0.03599626 0.08371812 0.04687742
-0.46513298 0.13763614 -0.12451166 0.06457539 -0.0060184505 0.38280097 0.017160755 0.3807388
-0.032563023 -0.0928916 0.06365441 -0.033334672 -0.0048820213 0.119377315 -0.010500984 0.08978354
0.26357335 0.2800395 -0.25023124 0.16610636 -0.36717707 0.049239233 0.09105271 -0.28866452
0.27260718 -0.0002086759 -0.33342054 0.06042834 -0.014468779 0.0028629832 0.08398539 0.2760831
0.10654657 -0.09545095 -0.1411875 0.13957028 -0.025675746 0.19615906 0.030119669 -0.09366429

bias f4 [64]
00000000: c596 dcbb ae10 92bc 8a07 31bb 7b1b d3bb
00000010: 005c 01bc e893 9fbc e89a 86bb 0000 0000
00000020: 594a 7fbc d2d5 abba 5881 84bc d316 c6bb
00000030: 15e6 22bc bc9c 8dbc 5efb 98bc 4c54 83bb
00000040: 8e44 d435 4585 33bc d316 e2ba 10d5 1aba
00000050: 2e91 64bb 6b26 84b9 96c6 cfbb 1909 8abc
00000060: 009b 00bc 4d9f d9b7 1527 bcbc 9e0b a1bb
00000070: 2f62 d8bb 3ab5 77ba 274e 53ba 9480 d9bb
00000080: d485 25bc 8bb6 bfbb 69ba 6ebb e2bc 60bc
00000090: d2e7 03bc 5cd2 e9bb f70f 3dbb f31f 93bc
000000a0: b7b9 fdbb e71a afb9 f1f8 21bb 1b53 b2bb
000000b0: 8104 0ebc aadd 8abc 9608 14bc b3d6 08bc
000000c0: 358c ffbb 6611 3cbc 1df3 2cbc aa67 73bb
000000d0: 7e4c 1039 ac75 56b9 1ac8 0538 59be 97b8
000000e0: 8215 b1b6 9106 a838 c92e 12b8 541a 83bc
000000f0: f7cc 62b7 6153 583a 9e25 1abc 11ff 9fbb
-0.0067318403 -0.01783022 -0.002701255 -0.006442485 -0.00789547 -0.019479707 -0.0041078217 0.0
-0.015581691 -0.0013109988 -0.016174957 -0.0060452013 -0.009942551 -0.01728665 -0.018674549 -0.0040078517
1.5815183e-06 -0.010957067 -0.0017249234 -0.00059063826 -0.0034876573 -0.00025205626 -0.006340812 -0.016850041
-0.007849455 -2.5942596e-05 -0.022967855 -0.004914715 -0.0066035013 -0.0009449307 -0.0008060657 -0.006637642
-0.010102708 -0.0058506182 -0.0036427027 -0.013716908 -0.008050876 -0.0071356725 -0.0028848627 -0.01795957
-0.007743086 -0.00033398645 -0.002471503 -0.005442036 -0.008668066 -0.0169514 -0.00903525 -0.0083519695
-0.0077986964 -0.0114787575 -0.01055601 -0.0037140646 0.00013761406 -0.00020452467 3.189603e-05 -7.235696e-05
-5.277515e-06 8.012087e-05 -3.4852685e-05 -0.016003765 -1.3518372e-05 0.00082521705 -0.009408383 -0.004882701

weight f4 [64, 134]
00000000: f783 8d3d 0703 b33d 66a7 aabc a1e9 d1bd
00000010: 28ce cdbd c926 a93b e2aa 893d 367f 0b3d
00000020: 5612 2d3c fabd c7bd 5a8d 06bc 623a 9abd
00000030: 5ae0 f4bc 895f 283d 1ebc 70bd b433 81bc
00000040: 9743 4cbc 543e 223b c9be 23be 7a44 a33d
00000050: bf9b 0bbd 8ac2 94bd 5319 e5bd f924 4e3e
00000060: 77e7 a7bb d194 033e 61fe bd3d d9a6 2ebd
00000070: 6dfe e0bd a43f f2bd c49e ff3c e258 3dbd
00000080: b34f bd3b cebe e2bd 481a 01bd e848 e4bd
00000090: fff5 4a3d 2f0e fa3d 7b79 903b 0526 0ebb
000000a0: ae15 04bd affd 65bb 6f8f b8bd 2758 3a3c
000000b0: 4b35 4e3d cc30 fcbd 7e9b e1bd 64da 1cbe
000000c0: 6c43 063d 371a d4bd 35c5 9cbc 07f3 673d
000000d0: 2bb3 c9bd 9f52 60bd e1b2 743d d8f2 ad3d
000000e0: cd8a 4dbd 35d6 55ba 3ff3 f13d fb88 62be
000000f0: 9c71 ad3d 54a4 843e ccf6 b03d a159 82bd
00000100: e3fb cdbd 4181 803d 9649 803d c38d f53d
00000110: 0194 1d3e 4c55 363e dfc3 df3d aab8 19bd
00000120: e507 cf3d 3bc1 313e dd4f 703e 664e e83d
00000130: 0c69 563e 43e3 04be 77ce 383c 64f2 29bd
00000140: 7201 6dbd 353b 15be 8811 7e3e 476b a2bc
00000150: 5143 eabc cb08 54bd 4949 823e be7c 103e
00000160: 3a46 683d d9b5 5ebd b324 3a3e 61c2 04bd
00000170: acbe b8bd c3f8 073e 1e91 b53d 0df7 cb3d
00000180: 7afa 173d dc7d 103e 464d 07bd 6836 683e
00000190: aa1e 5bbc 56f9 48bd 36f9 523e 192a 9cbe
000001a0: f089 2cbe 2098 41be b891 17bc 660a 583e
000001b0: 8f9c 0e3e d30f c7bd 2f79 80bc d286 233e
000001c0: e9ec 97bb 1a18 71bd 362e 70bd e30c 09be
000001d0: d74d 98bd 26e1 88bd c854 8cbe d414 643e
000001e0: 4787 70bc 6048 c3bd 30e6 7b3e 68bb 02bd
000001f0: 54e5 4c3d b45e 8abe cc72 0a3e 847d 2e3d
00000200: c932 c0bc fcb0 51bd 546e 8bbe 6f25 d63d
00000210: e9ab 0c3e 6079 38bc 3771 d43d 7233 803d
00000220: af68 293e b711 60bd 0599 acbc ffc2 743d
00000230: 8908 bb3d 844d d0bc a171 473d 343f c53b
00000240: e7a3 3d3e 5f2f 033d 68a3 48be 57ff 493c
00000250: 1f50 b7bc 09ab 063d f0b0 023e f1b6 513d
00000260: c7b7 e8bd fa7f d13d 5b15 f8bd 5819 30bd
00000270: 6564 dcbd c984 80be 108d 38be ca5f da3d
00000280: e8a1 e93d 1ec2 66bc 5c1d 703c 4590 983d
00000290: 4467 343d 38f6 f93a e560 1c3d a426 0fbe
000002a0: bc5f 50bd daef 49bd b0e0 433e 2082 85bd
000002b0: 2876 903b 351d 22bd 2153 e1bd f55c 0dbc
000002c0: fd30 dfbd 6d8e 54bd f910 35be 6f4d 41be
000002d0: 47fb 8dbc 656a 0ebe 9261 1b3d a62f b2bd
000002e0: e338 b7bd 5d39 053d 0d47 99bd fe0d bfbd
000002f0: fb19 c83c f28f 7b3d 80e3 0c3d 7af3 99bd
00000300: b616 cf3d 8fed 523e 0566 013d 2e31 bc3d
00000310: e493 3dbe 0817 fbbc a6e6 d0bd 3123 173e
00000320: 7d03 83bc 3e99 4bbd 7a04 0b3d 4dce 4f3e
00000330: 1752 70be 8f74 c23d 309f 473e c428 873d
00000340: 1e61 0b3e 7448 043d 58b7 c73d 1cae bcbd
00000350: e5ef b3bd bb43 ea3d 8101 273d a8b5 793e
00000360: 350b a23d 34c8 9d3e 50bf a9bc 8935 28bc
00000370: 4ca0 9dbd 7922 063e 3647 a7bd f40f 5b3d
00000380: df47 e53c dda1 7d3e 2b9c 033e b7aa 813d
00000390: 76c9 e53d c6eb 433e 07e9 6cbe 8371 b03d
000003a0: 764e 183e b24e afbd ef0b e53d ba5e fd3d
000003b0: 3689 cd3a 8a98 ebbd 829d c93d 6b0d 243e
000003c0: d36e 8a3e b31c 0c3e 6da5 7a3e 787a 2a3e
000003d0: 91ba 4b3c 7007 37be f61f bd3d 6ff8 8dbd
000003e0: 6a3a 9bbd 37a0 5e3d a5c7 6a3d 707a a6bd
000003f0: 8c99 1e3e 1352 643c 38c4 d4bc e70a 49be
0.06909936 0.08740812 -0.020831775 -0.10249639 -0.10049087 0.0051620943 0.067220464 0.034056865
0.010563454 -0.09753032 -0.008212412 -0.07530667 -0.029892135 0.041106734 -0.058773153 -0.015771724
-0.012467287 0.0024756389 -0.15990748 0.07972045 -0.034084078 -0.07263668 -0.11186471 0.20131291
-0.0051240283 0.12849738 0.092770346 -0.042639587 -0.10986028 -0.11828545 0.031203635 -0.046227343
0.005777323 -0.11071549 -0.031519204 -0.11146718 0.049551006 0.122097366 0.004409013 -0.0021690142
-0.032247238 -0.0035093834 -0.09011733 0.011373556 0.050343793 -0.12313995 -0.11015986 -0.15317684
0.032779142 -0.103565626 -0.019137004 0.056628253 -0.09848627 -0.054766294 0.059740905 0.084935844
-0.0501812 -0.00081572245 0.11813974 -0.22122566 0.08468935 0.25906622 0.08640823 -0.063647516
-0.10057809 0.06274653 0.062640354 0.119899295 0.1538849 0.17805976 0.10926031 -0.037529625
0.10108928 0.17358868 0.23467965 0.11343078 0.2093851 -0.12977318 0.011279694 -0.041490927
-0.057862706 -0.14573367 0.24811375 -0.019826544 -0.028596552 -0.051766198 0.25446537 0.14110085
0.0567076 -0.054372642 0.18178062 -0.032411937 -0.09020743 0.13278489 0.088655695 0.099592306
0.037104107 0.14110512 -0.033032678 0.22677004 -0.01337401 -0.04906591 0.20602879 -0.30500868
-0.16849494 -0.18905687 -0.009251051 0.21097717 0.1392691 -0.09719815 -0.015682785 0.15969399
-0.004636396 -0.058860876 -0.05863782 -0.13383822 -0.07436722 -0.06683569 -0.27408433 0.2227357
-0.01468069 -0.09535289 0.24599528 -0.031917006 0.05002339 -0.27025378 0.13520354 0.04260017
-0.023461716 -0.051194176 -0.2723261 0.10456359 0.13737454 -0.011259407 0.103731565 0.062598124
0.1654384 -0.054704394 -0.02106906 0.059756275 0.09132487 -0.025427587 0.04869235 0.0060194973
0.18519555 0.0320276 -0.19593585 0.012328944 -0.022377072 0.032877956 0.12762809 0.051199857
-0.11363178 0.10229488 -0.12113448 -0.04299292 -0.10761336 -0.25101307 -0.18022561 0.106628016
0.11407834 -0.014084367 0.014655437 0.07449392 0.044043794 0.0019070571 0.038178343 -0.13979584
-0.05087255 -0.049301006 0.1912868 -0.0651896 0.0044086166 -0.039578635 -0.11002184 -0.00862812
-0.10898016 -0.05189364 -0.17682256 -0.18877195 -0.017331732 -0.13907774 0.037934847 -0.087004945
-0.08946397 0.03252541 -0.07484255 -0.09328841 0.024426451 0.061416574 0.03439665 -0.075171426
0.10111754 0.20598434 0.031591434 0.09189068 -0.18513447 -0.03065063 -0.10200243 0.14759518
-0.015992874 -0.04970669 0.033939816 0.20293541 -0.23468815 0.09494888 0.19494319 0.06599572
0.13611266 0.03229566 0.09751767 -0.09212896 -0.087859906 0.114387 0.04077292 0.24385703
0.07912294 0.30816805 -0.020721108 -0.01026667 -0.0769659 0.13099088 -0.08167879 0.05348201
0.027988372 0.24768777 0.12852542 0.063313894 0.11220066 0.19132909 -0.23135768 0.08615401
0.1487368 -0.08559932 0.11183917 0.12371583 0.0015681151 -0.11503704 0.09844495 0.16020744
0.27037677 0.13682823 0.24477167 0.1664828 0.012434618 -0.17873931 0.09234612 -0.069321506
-0.07579501 0.05435201 0.057319302 -0.08128822 0.15488261 0.013935584 -0.02597247 -0.19633065

bias f4 [64]
00000000: 6247 b1bb 8641 97bc fa16 e93c cb5b c6bb
00000010: 633e 7cbc 5f8f cf39 efc6 e3bc 850c 683d
00000020: 372b 6abd f2ef 7fbc 1006 c13c 5a2e c03c
00000030: d492 e8bc e64d 5c3c 16cf 0ebc 8217 16bc
00000040: ccee 1abc 203e 2dbc 4f8d 8dbc 25da b3bc
00000050: 375e 84bc ec09 11bc 62a5 29bc 5481 14bd
00000060: 942e cf3b ebb1 e7bc e4e1 90bc 18ca d3bc
00000070: 1cb2 c3ba 0ad5 7ebc a912 d2bc 1964 893a
00000080: 0ef8 c8bb 164d 02bd ba5c 103c a10f 82bc
00000090: 243e 10bd 9e59 8ebb 0000 0000 0ec5 a73c
000000a0: 0e85 10bc 4a06 13bd 682e bdbc ec6a 833b
000000b0: 865e 7b3c c883 d23a 29d1 b0bc deff f3ba
000000c0: af77 533c 6260 79bc 7055 51bc 0130 9abb
000000d0: c9d2 65bb 6cba 87bc a3bb e9bc 71dd 183c
000000e0: aa2c d4bc fe2a 2abc 48d7 dabc 9937 783b
000000f0: 9c54 97bc ff6d a93c 5961 ab3b e57d b6bc
-0.005410121 -0.018463861 0.028453339 -0.006053423 -0.0153957335 0.00039588936 -0.02780482 0.056652565
-0.05717012 -0.015621172 0.023562461 0.023459602 -0.028390326 0.013446307 -0.008716365 -0.009160878
-0.009456348 -0.010573894 -0.017279295 -0.021954605 -0.016158206 -0.008852463 -0.010354372 -0.03625615
0.006322691 -0.02828308 -0.017685838 -0.025853202 -0.00149304 -0.015553722 -0.025643663 0.0010482102
-0.006133086 -0.031811796 0.00881117 -0.015876593 -0.035215512 -0.0043441793 0.0 0.020479705
-0.008820785 -0.03589467 -0.023093417 0.004010549 0.01534236 0.0016061002 -0.02158411 -0.0018615683
0.012906953 -0.015220733 -0.012776718 -0.0047054295 -0.0035068265 -0.016568385 -0.028531855 0.0093301395
-0.025900204 -0.010386227 -0.026713982 0.0037874936 -0.018472962 0.020682333 0.0052301106 -0.022276828

weight f4 [64, 64]
00000000: a4c7 5c3d 2c36 5e3c 4615 2c3a 6231 1bbe
00000010: 67ac 0f3e 07f8 0d3d c1b4 3f3e f742 a53e
00000020: aea4 9c3e 0f47 983e a3f6 27be 58bd 073e
00000030: f51b cf3d a99d f9bc aa3c 8c3d 9d0a 5a3d
00000040: ec59 7d3e d39b f9bc 13a1 693c 0e43 db3c
00000050: 7ffc 333e 2d09 5e3e 849d b1be 78b1 c3bd
00000060: 6153 48bb ae07 66be 5e1a 31bd 6b02 073d
00000070: a661 293e 00ac d6bd eb04 6abe c4dd 15be
00000080: df53 793d 00c2 253c a08a ec3e ef73 2c3d
00000090: 15d6 953e 0c59 9bbd 280c 683d 2908 1fbe
000000a0: fe62 fe3d e638 1a3e bd48 08bd 507a 283b
000000b0: 2949 223e baf2 e1bd 6d91 a63d 6b6e fcbd
000000c0: 1778 3c3e e147 083f 1c6a 98bc 8fc6 38bd
000000d0: 8e53 4bbe ca49 85be 3f1a 293e 5a76 d5bc
000000e0: 099e 083d 3252 0d3e 25c8 21bd ae9c 493e
000000f0: 5736 9c3d 9b59 8f3d 74d9 9fbe f205 04be
00000100: c53b db3d fd78 28bd 1657 ea3d b5d6 51bd
00000110: d979 773c e458 a43e 6695 febd 260b 06bd
00000120: 1171 81bc faf0 b53d a753 06be b2e1 22be
00000130: 6d8a 823e c913 083e ddd0 6d3d 4326 debd
00000140: 03d0 08be 6d0a 7fbe 8647 88bd 6f00 abbd
00000150: 5b50 703e 4cc4 05bd c248 e23d 25f9 873e
00000160: e6fe ac3e af9b 5c3d dcbc 15be 8016 6ebd
00000170: 8292 a43d 6f98 ddbd 835c e4bd d5a0 783d
00000180: 1cc6 c0bc edd3 dd3d 0fd1 a93e bb4a 673e
00000190: 4776 123e 0dca 07be 8ee4 85be 5a9a c43e
000001a0: ebb2 8b3e a332 813c a3f4 8f3e 75bf 7a3d
000001b0: d4ab c8bb 513f 52bd 4541 ac3d e8c9 fabd
000001c0: dd63 0abe 8433 5cbe ba29 3ebc 23f4 d9bc
000001d0: dbb6 c1bb 37c6 14be 794b 48bc 4ad5 89bd
000001e0: 60f3 4bbe b684 a03e 65c3 c83e c8fa f33b
000001f0: 2e70 063e ef23 63be c81a 6b3e 7f92 ba3e
00000200: be18 42bc 6e23 6b3d b37f 593e 07fb 653e
00000210: bd5b b9be 95e9 00be 0117 92be 9837 963d
00000220: 1638 dd3d 27b5 14be 9174 61be d0c3 adbe
00000230: b3a3 cf3b 3d14 013e 1145 163e 2653 5a3e
00000240: bf89 88be acbb 3c3e afd2 81be b7cb d8bd
00000250: a741 113d 74da 8b3d c680 62bd 40a3 7b3d
00000260: 604d 073e f024 23bd 67a4 9b3e 3170 fcbb
00000270: c1b5 5cbd 7eb9 aebd 4cd8 a13e 369f 0d3d
00000280: 00fb 86bd 4341 533e c10e 343e cd8d 373c
00000290: c4e7 d13d 2d7e a6be a8a6 293e dfa8 d2be
000002a0: 6925 0f3e 1b06 563c 1c13 4cbe 05e1 edbc
000002b0: 7e22 3abe a966 713e bf02 ba3d bf3a 113e
000002c0: 6eff 6a3d f25c 513d e2fe c3bd 37b3 88b7
000002d0: 472e 9cbe a8a6 aebd b16f 533e b11f ee3d
000002e0: f25e a73d 8b49 623d 73ce 37be dd6f 49be
000002f0: d4d3 9ebd 31dd 2b3d a2a0 313c 8314 ba3e
00000300: 07f9 d6bc edaa e03d 90ae 1d3e cd5f 9ebe
00000310: 31b7 353e 49e1 b13e 30e9 413e 43a4 a23e
00000320: 0830 953d e488 e9bd 1ce9 68be 20d9 a5be
00000330: 110c 6b3d 0f40 b13e 966d 68ba db35 c73c
00000340: f73d bebc 3601 b1bd 3a69 22bd 4832 823e
00000350: 6e60 a53d cd46 14be e70c a23c 03c1 ce3d
00000360: 8702 a03d 0a3b b83d 0f17 03be cd10 823e
00000370: 68c4 1e3b 34a6 a7bd 897d b4bb 272a 91be
00000380: fd5d 46bc 9a77 643d b905 b1bd eb8a 303e
00000390: c414 0abe 537f b73d fab4 4a3d 1f3f 7bbe
000003a0: 0839 863d 94b4 72be 56bc 14be 09fd 0abe
000003b0: fedb b5be a97d 0c3d 9d2b 1e3e a7d0 113e
000003c0: 8471 b03c e8c2 053b 72cd bbbe 9d9e 8bbd
000003d0: 385f 5a3e b4ac 833d 5265 1bbc 66c9 79be
000003e0: 8bc3 57b9 c8e3 0abe 4b32 0a3e f1a1 f9ba
000003f0: e3f8 97be f3a1 5d3e d5b8 263e 3cce bdbe
0.05390133 0.01356272 0.0006564449 -0.15155557 0.1403061 0.034660365 0.18721296 0.32277653
0.3059439 0.29741713 -0.16402678 0.13255823 0.10112754 -0.030470686 0.06847508 0.053232778
0.24741334 -0.03046981 0.0142595945 0.026765373 0.17576788 0.21683188 -0.34690487 -0.09555334
-0.0030567276 -0.22463867 -0.043238036 0.03296129 0.16541156 -0.10482025 -0.22853439 -0.14635378
0.060871 0.010117054 0.46199512 0.04210275 0.29264894 -0.07585344 0.056652218 -0.15530457
0.12421225 0.15060768 -0.033272494 0.002570767 0.15848221 -0.110326245 0.081332065 -0.12325748
0.18405186 0.5323468 -0.018605284 -0.045111235 -0.19856092 -0.2603286 0.16513918 -0.026057411
0.03335384 0.13800886 -0.039497513 0.19688675 0.07627552 0.06999513 -0.3122059 -0.12892893
0.107047595 -0.04113101 0.114423916 -0.05123015 0.015104734 0.32099068 -0.12430839 -0.032725476
-0.015800985 0.08883853 -0.13117848 -0.15906408 0.25496235 0.13288797 0.058060516 -0.108471416
-0.133606 -0.24906321 -0.06654267 -0.08349692 0.23468153 -0.032657906 0.11049034 0.2655727
0.33788222 0.05385941 -0.14622825 -0.058126926 0.08035757 -0.1082009 -0.11150458 0.060700256
-0.023531966 0.10831437 0.33167312 0.22587101 0.14302932 -0.1326067 -0.26150936 0.3839901
0.2728494 0.015771216 0.2811633 0.061217744 -0.006123999 -0.051329914 0.08410887 -0.12245542
-0.13514657 -0.21504027 -0.011606628 -0.026605671 -0.0059116906 -0.14528738 -0.012225025 -0.06730135
-0.19917059 0.3135125 0.39211574 0.007445667 0.1312873 -0.22181676 0.22959435 0.36439893
-0.011846719 0.057406835 0.2124012 0.2245904 -0.36202803 -0.12589104 -0.28533176 0.073348224
0.10801713 -0.14522229 -0.22017123 -0.33938456 0.006336653 0.12605377 0.14674784 0.21320781
-0.26667592 0.18430966 -0.2535605 -0.105857305 0.035463 0.06828776 -0.05529859 0.061434984
0.1321311 -0.03983015 0.30398867 -0.007703804 -0.05388427 -0.085314736 0.31610334 0.034575664
-0.06590843 0.20630364 0.17583753 0.011203242 0.10249284 -0.3251814 0.1656748 -0.41144463
0.13979115 0.013062979 -0.19929165 -0.029037962 -0.1817722 0.23574318 0.09082555 0.14182566
0.057372503 0.05111403 -0.095700994 -1.6295917e-05 -0.30504057 -0.08527881 0.20648076 0.116271384
0.08172406 0.055245917 -0.17949848 -0.19671579 -0.07755247 0.04195899 0.0108415205 0.36343774
-0.026241792 0.109701015 0.15398622 -0.30932465 0.17745663 0.3474219 0.1893661 0.31765947
0.07284552 -0.11403063 -0.22745174 -0.32392216 0.057384554 0.34619185 -0.0008866427 0.024317672
-0.023222907 -0.08642809 -0.039651133 0.25428987 0.08075033 -0.14480133 0.019781543 0.10095408
0.07812982 0.08995636 -0.12801765 0.25403443 0.0024225954 -0.081859976 -0.005508129 -0.28352472
-0.0121073695 0.055778123 -0.0864367 0.17240493 -0.13484484 0.08959832 0.049489 -0.24535798
0.065538466 -0.23701698 -0.1452497 -0.13573088 -0.35519403 0.034299526 0.15446325 0.14239751
0.021538503 0.0020410363 -0.3668018 -0.068173625 0.21325386 0.06429425 -0.009484606 -0.24393234
-0.00020576843 -0.13563454 0.13495748 -0.0019045455 -0.29682073 0.2164381 0.16281445 -0.37071407

bias f4 [64]
00000000: 7c9d eebb 5be3 27bb b176 8fbc 334f 8dbb
00000010: db42 34bb e89e 3f3b 634b 28bc 3719 adbb
00000020: 0ec1 4d3b 9634 fd3b 630b 93ba 6c68 8bbc
00000030: ede9 c9bb 770a e1bb ca81 6bbc 8fbd 943c
00000040: 02ef 18bd d3b1 62bc 059a 2ebb 34a5 86ba
00000050: 74c4 07bc c72f 143d dc5b 2c3c 2c7d 97bc
00000060: db43 9ebc 4ded 063b 7ffb 53bc 7a5e 02bc
00000070: 30f2 3abc 1474 cb3a c159 0bbd c9ff 42bc
00000080: 326c 873c 33ea 233c eea5 513a e99e b23b
00000090: e6a8 763b 87f9 c5bc 191f 01bd dc83 e9bc
000000a0: 75c7 38bb d042 80b9 73c5 383a 86e3 28bc
000000b0: d8a8 68b9 b4b1 65bb 03be e8bc b721 25bd
000000c0: f849 073c 442a ca3c dd05 34bd fa08 8bba
000000d0: c652 aebd 6f45 bfba 2ee6 41bd 0000 0000
000000e0: ead5 13bd 0000 0000 c228 5d3b e601 32bc
000000f0: dc76 ccbc 4674 a3bb 9bf7 c93c 76a0 c4bc
-0.007281957 -0.0025617692 -0.017512651 -0.00431242 -0.002750567 0.0029239003 -0.01027188 -0.005282547
0.0031395587 0.007727216 -0.0011218603 -0.017017566 -0.0061619193 -0.0068677026 -0.014374206 0.018156795
-0.03733731 -0.013836342 -0.0026642096 -0.0010272623 -0.008286584 0.036178377 0.010519948 -0.018492304
-0.019319465 0.002058822 -0.012938379 -0.007957095 -0.011410281 0.0015522265 -0.034021143 -0.011901804
0.016531084 0.010004568 0.0007997443 0.0054510725 0.0037637292 -0.024166835 -0.031523798 -0.028505258
-0.0028195058 -0.00024463842 0.0007048465 -0.010308152 -0.00022188143 -0.0035048546 -0.028410917 -0.040315356
0.008257382 0.024678357 -0.043950904 -0.0010607534 -0.085118815 -0.0014592836 -0.047338657 0.0
-0.036092676 0.0 0.0033746217 -0.01086471 -0.02495902 -0.004988226 0.0246542 -0.024002295

weight f4 [1, 64]
00000000: dcbf 99bb f717 0cb9 8d98 413e 92a3 5b3e
00000010: fe2c bf3b fcf1 37b9 e7ca d4bb 88f2 9bbc
00000020: a949 b63c a688 c03d 202e bfbd 561c a5bd
00000030: 1858 9bbd 06d2 553d 5e97 46bb 6dcc 33ba
00000040: 9fec fc3d 6034 d4ba 3762 903d 723f b6bd
00000050: 1beb 2abc b7a6 14be 4545 a3ba b2ac 9d3e
00000060: 4e4e 623e d18b 923c 2901 283e 0eae 19bd
00000070: deba 2139 8a5a 65bc 6c94 523e a828 e03d
00000080: 3c77 133e a832 503e 77f5 15ba 649e 34be
00000090: 1652 e6bb 1aa6 df3d 3e38 2a3e 8286 473e
000000a0: 5d3d 313e 45d5 70bb ef88 923d 0822 4dbb
000000b0: ff47 343c 56e1 213c 0056 a03d 8fa7 fa3d
000000c0: 5915 aa39 f363 adbd cb0e 553e 54c3 773c
000000d0: 4a6c 09be 710c dd3d cf13 debd 36c5 9cbc
000000e0: 5f30 ee3e 1098 0ebc fe03 ffbc fea7 a73b
000000f0: fd60 b3bb 61dc 053b bd12 47be 2b1b 59be
-0.004692061 -0.00013360368 0.1890585 0.21449116 0.005834221 -0.00017542386 -0.0064939144 -0.019036546
0.02225192 0.094010636 -0.093349695 -0.08062045 -0.07585162 0.052202247 -0.0030302624 -0.000685877
0.123498194 -0.0016189925 0.07049983 -0.0889882 -0.01043203 -0.14516722 -0.0012456557 0.3079582
0.22100183 0.017888935 0.16406693 -0.037519507 0.0001542377 -0.013998637 0.20564431 0.109452546
0.14400953 0.20331824 -0.0005720476 -0.17638546 -0.0070288284 0.10920353 0.16623017 0.19484904
0.17308564 -0.0036748212 0.07155024 -0.0031300802 0.011003493 0.009880384 0.07828903 0.122389905
0.00032440832 -0.084663294 0.20806424 0.015122253 -0.13420215 0.10793389 -0.10843622 -0.019137006
0.4652128 -0.008703247 -0.031129833 0.005116462 -0.0054742084 0.0020425546 -0.19440742 -0.2120177

weight f4 [5, 64]
00000000: 4162 8dba 5ac7 a239 4666 94bb b5ec 853c
00000010: 3acf 853b 394e b73b 5a05 d73b 960a af3a
00000020: 8f6b 97ba c1d7 f2bb 2b3d ffba 5e4e 2a3b
00000030: 4471 223b e47f bd3a 7bde 91ba f7e6 8b3a
00000040: cb0a 2cba 188e 25bb 558c febb a055 633b
00000050: 65d9 c4ba 31d1 bc3b 3255 1a3c fef5 0a3c
00000060: a219 b9bc 7700 b1bb 1aa5 8a3a 5153 523b
00000070: 0ba3 9fbb c500 39bb a258 713b 5c9d 2c3c
00000080: 07eb f93b 2140 60ba 3eb0 41bb 3abb 1a3b
00000090: 6fc1 8a3b 7034 993c 3b93 673c cc4c e1ba
000000a0: c52b 9abb 5d0f f33a 546a d73a 2839 5b3c
000000b0: 960b 1d3b f058 83ba e281 353b 4599 283b
000000c0: 1b94 b6bb 4dd0 583b 5fa7 133c eabb 83bb
000000d0: 301e 1bbc 6ee0 9dbb 19e1 8ebb 8156 2f3b
000000e0: b5c5 b13a f464 71bb fc46 f7b9 6475 5cbc
000000f0: b3a1 523a 4bb4 5d3b 3df7 5abc cbc0 d1bb
00000100: 87b7 c93b 70eb 123c 7d25 4abb 1207 51bb
00000110: 03a4 3a3c d792 e43a c357 90bb 4c05 4dba
00000120: f48c 633c 9416 e73b 01ea bd3b 857a 493c
00000130: 3be2 13bc ff41 00bc b216 643b d759 ac3b
00000140: 5b2b 5b3a c368 1d3b 24fe 2dbc 3266 07bc
00000150: a2bc 33bc bb25 aabb 6ded e53b 2e3b ab3c
00000160: b534 b43b 626f 21bb 0648 1f3c b9e5 b2ba
00000170: b533 10bb 0edc a5bc 8aa9 a9bb 147e a1ba
00000180: d5de f83a 252f 333b ffcf 493b 8aca c93b
00000190: cdeb 003b 8fb6 90bb 8519 c8bb d36f cc3a
000001a0: 9b4d 25bb 824f 2fbb 0a69 83bb 1845 7639
000001b0: 539f 0ebb 80d7 c939 320d acbb 36d5 533c
000001c0: 63e7 d0bb 3fb2 ff3b 8fd9 48bb 34da 2fbb
000001d0: d66a 043b 9fb8 29ba f8de 1c3b 6a2f b7bb
000001e0: 3098 8e3a 4487 703a d07d 633a b463 373c
000001f0: ea30 eb3a 92a1 5abb df7e 1e3c afa4 e839
00000200: b0bd ff3b a100 933a e253 283c b08c 3dbb
00000210: a66e 3bbb 14a2 33bb b228 75bb 72e1 d03a
00000220: 55d4 b53a 1878 16bc 87fd 92ba f9e6 09bc
00000230: 04e6 803c ac35 e93b c19a 053c d5bf 9bbb
00000240: e1a6 f03a f049 233a 59dc 523c 3867 4fbb
00000250: 358b cb3a 4bfa 30bb fa98 10bb dd38 b2bb
00000260: 9ce9 d53b 3b16 19bb 69d4 7cbb f1d2 a1bb
00000270: 3da7 df3b 78e7 08bb 707c 3f3b 9095 cbba
00000280: be1f 933b 40d0 39ba e557 fa3b a3be ae3b
00000290: c2f8 18ba 60d6 693b 3a48 37bc 9baa beb8
000002a0: fe5a 013c 62ba c4ba 4b7b ae3b 537d 14bc
000002b0: 988b 073c 0fa3 053c 0933 363c aed8 a0bc
000002c0: 838c e9ba 04a0 37bb 99ea aa3b 6e7e bc3a
000002d0: 42a9 0038 ddb7 4f3c 61f9 afba be80 f33a
000002e0: 6312 01bb e87e 35bb da84 32bb cb63 59ba
000002f0: ffa5 87ba 41a5 1cbc 930b cc3a 4af2 753b
00000300: 8a21 7dbb 2342 333b 5fd7 5b3b c9f1 1a3b
00000310: b424 023a 5c2a fd39 154d f539 fb11 77b9
00000320: f9be b23b 50b6 4b3a 471d a13b a878 dbbb
00000330: b58f e4bb 52a5 893a 14aa fd3b 9687 0dbb
00000340: cdfd 5e3a 464d a83b 69e3 0aba 7012 0c3b
00000350: 7043 ce3a 2162 2c3c 0133 3bbc 9b15 0bbb
00000360: ea76 783c 7ac4 293b 026d d7ba 5e66 dc3b
00000370: fc7d 023c 7f06 ab3b 2781 1bbc 4344 1abb
00000380: 6d31 8abb 3834 a13a 5f79 27bb da85 bb3a
00000390: c675 023c eb31 35bc b8aa e13b aa2a 1dba
000003a0: 451f 253b 7e2e 2a3a 0910 103b 306c 75b8
000003b0: 3e6b 89ba 34e1 703b e9e8 943b f54e 483b
000003c0: cf85 273c c5ea cebb a613 ee3b 48b6 e43b
000003d0: 1b54 a83b 7102 c1bb 6592 08b8 dc88 02bb
000003e0: f331 493a b50b 283b 2cf0 0b3b 252f 053c
000003f0: 2f3e b1b8 0ea8 083c 0b53 4bbc a538 913b
-0.0010786728 0.00031047576 -0.0045287935 0.016348222 0.004083541 0.0055940417 0.0065619173 0.0013354595
-0.0011552441 -0.007410974 -0.0019473186 0.0025986652 0.002478675 0.001445767 -0.0011128926 0.0010673691
-0.00065628876 -0.0025261696 -0.0077681937 0.0034688488 -0.0015018402 0.0057622422 0.009419726 0.008481501
-0.02259523 -0.0054016667 0.0010577769 0.0032093117 -0.004871731 -0.0028229218 0.003682651 0.010535564
0.0076268944 -0.0008554478 -0.0029554511 0.002361013 0.004234485 0.018701762 0.014134224 -0.0017189025
-0.0047049248 0.0018544007 0.0016434886 0.013380326 0.0023963205 -0.0010021012 0.0027695824 0.0025726121
-0.0055718548 0.0033083141 0.009012072 -0.004020204 -0.0094676465 -0.004818014 -0.00436033 0.0026754441
0.001356295 -0.0036833854 -0.000471644 -0.0134557225 0.00080349593 0.0033829387 -0.01336461 -0.0064011565
0.0061559114 0.0089672655 -0.0030845099 -0.0031895083 0.0113916425 0.0017438781 -0.0044049933 -0.00078209187
0.013888586 0.007052252 0.0057957177 0.012297277 -0.0090261055 -0.007828235 0.0034803567 0.005259733
0.00083606475 0.0024018742 -0.010619674 -0.008264111 -0.010970267 -0.005192486 0.0070168287 0.020902243
0.005499447 -0.002463304 0.009721762 -0.0013648785 -0.0022003476 -0.020246532 -0.0051776813 -0.0012320899
0.0018987308 0.0027341333 0.0030794141 0.0061581777 0.0019671798 -0.004416294 -0.006106558 0.0015597291
-0.0025223258 -0.0026750271 -0.0040103244 0.00023486128 -0.0021762445 0.00038498268 -0.0052505964 0.012929251
-0.0063752397 0.007803231 -0.0030647253 -0.002683294 0.002020528 -0.0006474349 0.002393661 -0.005590369
0.0010879096 0.00091754296 0.00086781103 0.011193205 0.0017943655 -0.0033360464 0.009673803 0.00044373187
0.007804595 0.0011215397 0.0102739055 -0.0028922968 -0.0028599887 -0.0027409839 -0.003740829 0.0015936329
0.0013872484 -0.009183906 -0.0011214473 -0.008416885 0.01573468 0.007116994 0.008154572 -0.004753093
0.0018360281 0.0006228974 0.012869918 -0.0031647217 0.0015529158 -0.0027004655 -0.0022063837 -0.0054389075
0.0065280925 -0.0023359198 -0.0038578755 -0.0049384763 0.0068253563 -0.002088992 0.0029218458 -0.0015532244
0.004489868 -0.00070882216 0.0076398724 0.0053327843 -0.00058354076 0.0035680756 -0.011186654 -9.091684e-05
0.007895229 -0.001500916 0.0053247563 -0.009063083 0.008273028 0.008156552 0.011120566 -0.01963457
-0.0017818365 -0.002801896 0.0052159545 0.0014380941 3.067521e-05 0.012678114 -0.0013425761 0.0018577797
-0.0019694797 -0.002769405 -0.002723983 -0.00082927634 -0.0010349153 -0.009560884 0.0015567414 0.0037528449
-0.0038624727 0.0027352653 0.003354512 0.002364265 0.00049645756 0.0004828748 0.00046787472 -0.00023562454
0.0054548946 0.0007771002 0.00491682 -0.006697733 -0.006975139 0.001050154 0.007741222 -0.0021595708
0.0008506447 0.005136165 -0.0005298169 0.0021373294 0.0015736651 0.010521443 -0.0114257345 -0.0021222595
0.01516507 0.0025904463 -0.0016435685 0.0067260703 0.007964607 0.0052192803 -0.009491242 -0.0023539222
-0.004217318 0.0012298888 -0.002555452 0.0014306859 0.00796265 -0.011059265 0.0068868063 -0.0005995432
0.002519564 0.0006491913 0.0021982214 -5.851331e-05 -0.0010484231 0.0036755325 0.0045443666 0.003056464
0.010224774 -0.006314608 0.007265526 0.0069797374 0.0051369793 -0.0058901836 -3.2561267e-05 -0.0019918
0.00076749845 0.0025641744 0.002135287 0.008128916 -8.4516e-05 0.008340849 -0.012409936 0.0044318014

bias f4 [5]
00000000: 1299 1b3a 835c 80ba 7379 703b 296d 723b
00000010: 031d bdb9
0.000593559 -0.0009793196 0.0036693483 0.0036991334 -0.00036070505
