model/medium-4/A2C/model_agent3_seed5.pt (torch, 109505 bytes, 11 tensors)

weight f4 [64, 134]
0.027767612 0.10886737 -0.07064243 -0.102409035 -0.12906216 -0.092953816 0.043535363 -0.12507187
-0.010098099 -0.019026367 0.14690977 0.12880889 0.08667887 -0.24799564 0.024792694 0.11377226
-0.095940135 -0.16346382 0.010034531 -0.012978724 -0.18382575 -0.3740322 -0.12029224 -0.04843774
0.09819659 0.18704118 0.042174697 0.24403022 0.021558534 -0.17464413 0.08104327 0.07969942
-0.044038832 0.006125724 0.18090111 -0.11384639 0.5040715 0.046361748 0.071976505 0.056318775
-0.055478033 0.09533625 -0.014554169 -0.07068767 0.07738072 -0.036923956 0.0066350037 -0.009720755
-0.10826441 -0.006783582 0.061523344 0.082749784 0.15895064 0.023990361 -0.039128464 0.08752895
0.23744823 -0.11656388 0.040944483 0.050228022 0.07978358 0.27064312 0.06493513 -0.23933224
-0.04590831 0.030184085 -0.03406418 0.028928913 0.045155846 -0.32524025 0.07905849 -0.12213929
0.070150204 0.09571102 0.011102457 0.08725868 -0.1006303 -0.14450416 -0.04670336 0.061760683
0.019643497 -0.17554754 -0.08936236 -0.009574225 0.2484328 0.023143448 0.112834856 -0.069039375
0.09816474 0.0019667346 0.05767744 0.013689837 0.019572103 -0.0016469923 0.035442613 0.0735025
-0.06816016 0.12450662 -0.06916963 -0.09014631 -0.04482877 -0.008096888 -0.09992254 0.017654931
-0.076694764 -0.05822714 -0.11984915 -0.101471275 0.1883326 0.052015662 0.16805345 -0.10191259
0.13414316 -0.036813788 0.08181833 0.074929476 -0.15912852 -0.009109733 -0.25034514 -0.14320014
0.16090073 0.116156556 -0.109037966 -0.1781537 0.045025136 -0.050807618 -0.09448904 0.05997729
-0.07555658 0.05481451 0.19309363 -0.035702344 -0.048623532 -0.13139549 0.07878013 0.07550814
0.08736772 -0.11613072 0.10022469 0.03344105 -0.06319196 0.03163845 -0.06445162 -0.18787695
0.0040087956 -0.04874909 0.17440768 0.14674358 0.0395453 -0.008555752 -0.08299008 -0.048355177
0.057704333 0.01529989 0.054294087 0.19354433 -0.15813607 0.06532844 -0.13991411 0.01753956
0.16789784 -0.022973068 -0.09180267 -0.039042067 -0.14282645 0.051902633 -0.08679024 -0.086234376
0.2684367 -0.12219145 -0.043574635 0.016638853 0.1630412 0.02252544 -0.10765589 0.15543798
-0.2226541 -0.013278768 -0.1497851 -0.17311423 -0.07216349 0.025709217 0.02223601 -0.08521256
0.12778184 0.012382253 0.18020733 0.09703912 -0.23511624 -0.057238832 -0.030328399 -0.165052
-0.26509258 -0.15320474 0.0423418 -0.009499553 -0.10615214 0.024142088 -0.025693202 0.13403971
0.17278737 0.19575179 0.052589186 0.008339685 0.09973758 0.124798164 0.23831981 -0.1343343
-0.11105252 0.061045375 -0.1352903 0.047693525 0.07500153 0.27048725 0.20029156 0.07985017
-0.17015293 0.12164535 0.005188568 0.25514287 -0.09666209 0.05269926 -0.032511916 0.09849652
-0.09928115 -0.0057426286 -0.008486735 0.10709371 -0.1038575 -0.06790524 -0.06753293 -0.004006506
-0.18622427 0.22071554 0.12759168 -0.05536646 -0.039634813 -0.002555778 0.085759364 -0.057890344
-0.25386268 -0.07107277 0.07374544 0.17829339 -0.14047393 -0.118476905 -0.16372855 0.13677333
0.12802187 -0.09013688 -0.003925756 -0.018768087 0.23356593 0.11283735 -0.13802676 0.01133277
00000000: e778 e33c dbf5 de3d faac 90bd d4bb d1bd
00000010: df28 04be 925e bebd 2352 323d d712 00be
00000020: 7f72 25bc 2fdd 9bbc 846f 163e 7ae6 033e
00000030: b184 b13d 92f2 7dbe 0c1a cb3c 6e01 e93d
00000040: 437c c4bd 0f63 27be e067 243c b7a4 54bc
00000050: d13c 3cbe 2681 bfbe c75b f6bd a766 46bd
00000060: 4b1b c93d b987 3f3e 60bf 2c3d 0fe3 793e
00000070: 869b b03c e9d5 32be 04fa a53d 7339 a33d
00000080: 1062 34bd 4cba c83b 243e 393e 4c28 e9bd
00000090: d40a 013f d1e5 3d3d 6b68 933d 84ae 663d
000000a0: ef3c 63bd a73f c33d 9c74 6ebc b2c4 90bd
000000b0: c879 9e3d 933d 17bd 726a d93b cd43 1fbc
000000c0: bbb9 ddbd cf48 debb e7ff 7b3d b878 a93d
000000d0: f5c3 223e 6f87 c43c 2b45 20bd 6142 b33d
000000e0: a125 733e 0bb9 eebd 67b5 273d e6bb 4d3d
000000f0: 9365 a33d bc91 8a3e b6fc 843d 8313 75be
00000100: 5a0a 3cbd 9d44 f73c e286 0bbd 54fc ec3c
00000110: 56f5 383d e485 a6be 6be9 a13d 2a24 fabd
00000120: e9aa 8f3d 2404 c43d 14e7 353c aeb4 b23d
00000130: 4217 cebd e6f8 13be 064c 3fbd c5f8 7c3d
00000140: 66eb a03c bcc2 33be 9d03 b7bd 36dd 1cbc
00000150: 2b65 7e3e 5497 bd3c f615 e73d 8464 8dbd
00000160: 980a c93d 55e4 003b 2e3f 6c3d 574b 603c
00000170: ad55 a03c e4df d7ba 462c 113d 7b88 963d
00000180: 8e97 8bbd 54fd fe3d cfa8 8dbd a19e b8bd
00000190: 5f9e 37bd cfa8 04bc 30a4 ccbd 13a1 903c
000001a0: 2512 9dbd 957f 6ebd 7973 f5bd 2cd0 cfbd
000001b0: 43da 403e 600e 553d 3416 2c3e 8cb7 d0bd
000001c0: d35c 093e 0eca 16bd 5e90 a73d a074 993d
000001d0: 96f2 22be fd40 15bc 3d2d 80be 0fa3 12be
000001e0: 29c3 243e 7de3 ed3d 4c4f dfbd ec6d 36be
000001f0: 476c 383d a61b 50bd 7883 c1bd bfaa 753d
00000200: 69bd 9abd 2e85 603d 56ba 453e 9f3c 12bd
00000210: 7829 47bd 8a8c 06be 7a57 a13d 03a4 9a3d
00000220: d9ed b23d f1d5 edbd 9a42 cd3d 7cf9 083d
00000230: c96a 81bd 5297 013d 36ff 83bd d162 40be
00000240: 375c 833b 20ad 47bd ed97 323e f343 163e
00000250: 41fa 213d 6d2d 0cbc b4f6 a9bd 1410 46bd
00000260: 615b 6c3d 64ac 7a3c 7a63 5e3d 7c30 463e
00000270: 6cee 21be ebca 853d a545 0fbe 20af 8f3c
00000280: 69ed 2b3e 0432 bcbc 0a03 bcbd 93ea 1fbd
00000290: 1941 12be db97 543d 15bf b1bd a69b b0bd
000002a0: 8970 893e 833f fabd 517b 32bd 344e 883c
000002b0: 46f4 263e 4687 b83c b17a dcbd 222b 1f3e
000002c0: 70ff 63be 318f 59bc 4461 19be db44 31be
000002d0: 74ca 93bd 239c d23c 4b28 b63c ec83 aebd
000002e0: 3ed9 023e efde 4a3c 4588 383e 72bc c63d
000002f0: 50c2 70be 4473 6abd 4373 f8bc 6403 29be
00000300: 37ba 87be b4e1 1cbe 986e 2d3d 03a4 1bbc
00000310: 4b66 d9bd a1c5 c53c 8d7a d2bc b541 093e
00000320: 2cef 303e 2873 483e c267 573d 2da3 083c
00000330: 3743 cc3d 2e96 ff3d 1c0a 743e ee8e 09be
00000340: 816f e3bd b70a 7a3d 8a89 0abe 495a 433d
00000350: 679a 993d 4e7d 8a3e 3b19 4d3e 7c88 a33d
00000360: 923c 2ebe 3221 f93d dd04 aa3b 16a2 823e
00000370: c6f6 c5bd 2edb 573d 372b 05bd 8bb8 c93d
00000380: ea53 cbbd a92c bcbb f20b 0bbc f253 db3d
00000390: 3eb3 d4bd e711 8bbd b44e 8abd 0249 83bb
000003a0: 93b1 3ebe 4103 623e 65a7 023e f1c7 62bd
000003b0: 1d58 22bd d77e 27bb 9ba2 af3d 6d1e 6dbd
000003c0: 4afa 81be 9a8e 91bd d907 973d 8b92 363e
000003d0: 66d8 0fbe 05a4 f2bd 75a8 27be 4f0e 0c3e
000003e0: 2a18 033e af99 b8bd a1a3 80bb 88bf 99bc
000003f0: e82b 6f3e 4517 e73d e356 0dbe 15ad 393c

bias f4 [64]
-0.01263212 -0.014160488 -0.0065946104 -0.011571059 -0.0019894738 0.0066809733 -0.004563368 -0.011539573
-0.010038982 -0.014869227 -0.007912372 -3.667959e-05 0.0044813007 -0.0042757276 0.009497226 0.004762594
-0.0021960214 -0.011502111 -0.0055719 0.00045485885 0.00042232717 -0.00071028277 -0.0025654216 -0.001174634
-0.016941583 -0.009736092 0.001011307 0.0012463402 -0.0126520535 -0.0010714273 -0.0053197094 0.00023353152
2.6306167e-05 -0.007499433 0.00014572036 -0.0011924504 -2.631382e-07 -0.014728466 -1.8120318e-05 -0.00097366783
-0.006919991 -0.0021800727 0.0018058975 -0.0003346314 -0.00715319 -0.017954603 -0.0010442362 6.07683e-05
-0.009191274 -0.0009375491 -0.000101307516 -0.007834424 -0.00066327205 0.0011196318 0.0066824066 -0.017150698
-0.009313123 -0.0019385151 0.0039594215 0.00075813045 0.0012235026 2.7261256e-05 0.009227642 -0.009901195
00000000: f4f6 4ebc 6401 68bc 9a17 d8bb 8a94 3dbc
00000010: d561 02bb 11ec da3b 4e88 95bb 7a10 3dbc
00000020: 8b7a 24bc 0f9e 73bc e5a2 01bc 69d8 19b8
00000030: e0d7 923b 671b 8cbb 419a 1b3c 890f 9c3b
00000040: 20eb 0fbb 5a73 3cbc 7c94 b6bb 1f7a ee39
00000050: cb6b dd39 4532 3aba a220 28bb 2df6 99ba
00000060: 13c9 8abc 2184 1fbc d58d 843a 3d5c a33a
00000070: 8f4a 4fbc 226f 8cba f550 aebb 24e0 7439
00000080: 10ac dc37 cebd f5bb 83cc 1839 ff4b 9cba
00000090: 7045 8db4 aa4f 71bc 1601 98b7 be3d 7fba
000000a0: 18c1 e2bb 8ddf 0ebb ddb3 ec3a 7771 afb9
000000b0: 4f65 eabb 8815 93bc c1de 88ba 77e1 7e38
000000c0: ff96 16bc dbc5 75ba 0f75 d4b8 f55b 00bc
000000d0: 6fdf 2dba 9cc0 923a 17f8 da3b 9f7f 8cbc
000000e0: 1296 18bc c615 feba 09be 813b 46bd 463a
000000f0: ef5d a03a 1aaf e437 892f 173c 9f38 22bc

weight f4 [64, 64]
-0.07727961 -0.15077332 -0.18080679 0.09158923 -0.0024069422 -0.15379107 -0.23961598 -0.2138991
-0.1364888 -0.19454576 -0.03147174 -0.07621041 0.3890899 0.11726751 0.14838699 -0.090969615
0.07242258 -0.011257358 0.23791347 -0.13290545 0.24788557 -0.18948676 0.014485785 0.0037256065
-0.005690764 0.08912726 0.41283306 0.056107793 0.009748467 -0.1446725 -0.12361928 0.07787748
-0.016900834 0.1250101 0.18126372 0.23443194 0.005155662 0.098306544 -0.18325163 0.29897133
0.123981416 0.10485016 0.15457463 -0.15312271 -0.03745173 -0.2328041 0.28229362 0.15922916
0.15867525 0.18276641 0.2140077 -0.2447159 0.13162848 0.06959789 -0.21636233 -0.042243987
0.14468034 -0.0026193417 -0.10969716 0.18626095 -0.06903112 0.009481986 -0.55333865 0.024282034
0.035898246 0.13960096 0.2073717 0.04847988 0.079238035 0.18436721 -0.12254516 -0.2076177
-0.0305659 0.23104213 0.05578928 0.26583776 -0.1637344 0.033768278 -0.078510284 -0.14513187
-0.38350466 0.25823325 -0.072253205 -0.35917705 0.2087852 -0.30534244 0.20421152 0.11763967
0.003707461 -0.13877594 -0.011229649 0.064371675 -0.035363354 0.0321101 -0.034964733 -0.1770643
0.23638056 -0.18171671 0.25441954 0.13876235 0.015835632 0.20125522 -0.21233346 0.021434803
0.17396976 -0.14758776 -0.07221857 -0.15387721 0.35225707 0.16556671 0.0144478455 -0.012658219
-0.13745366 -0.076719105 0.040121526 0.24686396 -0.039701108 -0.08416975 -0.21213837 -0.04321593
-0.066553734 -0.18706779 -0.16932407 0.35785362 -0.3842781 -0.13620864 0.113485575 -0.1778441
-0.20014474 0.057480246 -0.13539103 -0.24917027 -0.0700682 -0.13535231 0.17537294 -0.10817169
-0.050838497 -0.017063137 0.1074539 -0.21932888 -0.15060852 -0.20645963 -0.056382097 0.043636393
-0.03235344 0.04436753 0.30351833 0.21960998 -0.24054605 -0.13826613 0.1403525 -0.3866481
0.06629671 -0.45662004 -0.00647625 -0.13368703 -0.20569274 0.048092805 0.11997457 0.2563992
0.03517276 -0.1501708 0.28376663 -0.14094634 -0.28926298 0.089458615 -0.012019378 0.22560254
-0.024159482 0.39368242 -0.2058973 0.069133595 0.09190481 0.006405256 -0.03641615 -0.110889286
0.20956361 -0.196076 0.09386365 -0.04970072 -0.17347735 0.17924003 0.11000517 -0.07573434
-0.015546521 0.12968923 -0.029507924 0.30180955 -0.26147357 0.26644096 -0.049411256 -0.123825625
0.073137395 0.15091805 0.15694404 0.02644346 0.14992057 -0.19597548 0.045744095 0.28112644
0.023198104 -0.033730537 -0.004273967 0.11657774 -0.18647344 -0.087438695 -0.27897632 0.033102266
0.2893677 -0.21290086 0.17345767 0.25769335 -0.0059134606 -0.07625901 0.10912354 -0.10441673
-0.117495485 0.090316914 0.18288678 0.50828516 -0.029366862 0.11180969 0.071002625 0.035182
0.018497929 0.43399 0.0017487082 0.043551873 0.046414252 -0.23326688 -0.055561513 -0.13249755
0.22535965 0.058867816 0.20633431 0.19866836 -0.107513346 -0.10404505 -0.058021788 -0.3062014
-0.0767237 -0.11609318 0.18410183 0.2548768 -0.09300357 0.13603674 -0.097380996 0.18769804
-0.060096055 -0.09166634 -0.08538581 0.41777435 -0.09426775 -0.33412218 -0.0155922 -0.025341436
00000000: c644 9ebd 5264 1abe 6a25 39be 2293 bb3d
00000010: cabd 1dbb 687b 1dbe e45d 75be 5e08 5bbe
00000020: b8c3 0bbe 0137 47be 83e8 00bd 3414 9cbd
00000030: cb36 c73e f329 f03d c2f2 173e 474e babd
00000040: 4a52 943d c870 38bc 979f 733e 5e18 08be
00000050: b7d5 7d3e d108 42be c955 6d3c 4e29 743b
00000060: 9779 babb 5a88 b63d db5e d33e 49d1 653d
00000070: 09b8 1f3c 0725 14be 1b2c fdbd 3a7e 9f3d
00000080: 9e73 8abc a602 003e 329d 393e ed0e 703e
00000090: d4f0 a83b f154 c93d 51a6 3bbe c512 993e
000000a0: f8e9 fd3d aebb d63d d048 1e3e 33cc 1cbe
000000b0: fc66 19bd 3364 6ebe ca88 903e f80c 233e
000000c0: c47b 223e 1e27 3b3e d624 5b3e ce96 7abe
000000d0: 9ec9 063e 5789 8e3d 168e 5dbe 0808 2dbd
000000e0: 1527 143e 43a9 2bbb e8a8 e0bd 31bb 3e3e
000000f0: 3060 8dbd 555a 1b3c 9aa7 0dbf 1eeb c63c
00000100: 0a0a 133d 8ef3 0e3e 3f59 543e d792 463d
00000110: 8d47 a23d c2ca 3c3e f5f8 fabd bc99 54be
00000120: 5765 fabc 4f96 6c3e 4d83 643d e31b 883e
00000130: fea9 27be 9b50 0a3d 00ca a0bd 739d 14be
00000140: b95a c4be 2637 843e 7df9 93bd 0ee6 b7be
00000150: cacb 553e d855 9cbe d31c 513e 11ed f03d
00000160: e0f8 723b 481b 0ebe 90fc 37bc 4cd5 833d
00000170: 2ad9 10bd e185 033d 2e37 0fbd 5850 35be
00000180: bf0d 723e f213 3abe 4743 823e b817 0e3e
00000190: bab9 813c d915 4e3e f16d 59be 0a98 af3c
000001a0: 2125 323e 3f21 17be 54e7 93bd fd91 1dbe
000001b0: 0a5b b43e 528a 293e a8b6 6c3c 6b64 4fbc
000001c0: a7c0 0cbe e81e 9dbd 7856 243d e8c9 7c3e
000001d0: a19d 22bd 3161 acbd cd3a 59be 3003 31bd
000001e0: 534d 88bd b38e 3fbe 4a63 2dbe 9738 b73e
000001f0: 19c0 c4be 477a 0bbe 206b e83d c41c 36be
00000200: bef2 4cbe 6870 6b3d f2a3 0abe 7e26 7fbe
00000210: eb7f 8fbd cc99 0abe f794 333e 1e89 ddbd
00000220: 073c 50bd fec7 8bbc ca10 dc3d c097 60be
00000230: 1f39 1abe 276a 53be eaf0 66bd 13bc 323d
00000240: 0a85 04bd baba 353d c166 9b3e 70e1 603e
00000250: b451 76be a395 0dbe 91b8 0f3e bdf6 c5be
00000260: 92c6 873d 1aca e9be b936 d4bb 41e5 08be
00000270: 1ea1 52be f6fc 443d 3ab5 f53d c246 833e
00000280: 5011 103d 60c6 19be dc49 913e 3d54 10be
00000290: 471a 94be 1436 b73d edec 44bc 5a04 673e
000002a0: 1bea c5bc be90 c93e bed6 52be ea95 8d3d
000002b0: 9738 bc3d 2fe3 d13b 1a29 15bd ec19 e3bd
000002c0: d897 563e 26c8 48be 963b c03d fb92 4bbd
000002d0: 0ca4 31be b38a 373e 644a e13d 9b1a 9bbd
000002e0: d6b6 7ebc 41cd 043e 9aba f1bc c886 9a3e
000002f0: dddf 85be f36a 883e 7563 4abd 4a98 fdbd
00000300: 0fc9 953d 438a 1a3e f0b5 203e f49f d83c
00000310: c784 193e ccad 48be 295e 3b3d ceef 8f3e
00000320: f309 be3c 0829 0abd a20c 8cbb 4fc0 ee3d
00000330: e5f2 3ebe 0f13 b3bd fcd5 8ebe 3e96 073d
00000340: 0128 943e af02 5abe e39e 313e 62f0 833e
00000350: b4c5 c1bb af2d 9cbd 2a7c df3d 70d8 d5bd
00000360: 79a1 f0bd 13f8 b83d ac46 3b3e fa1e 023f
00000370: c692 f0bc 7bfc e43d d369 913d 001b 103d
00000380: f888 973c f033 de3e e934 e53a 7363 323d
00000390: df1c 3e3d 83dd 6ebe 7894 63bd 70ad 07be
000003a0: aec4 663e 611f 713d 4d49 533e b86f 4b3e
000003b0: f52f dcbd 9215 d5bd 41a8 6dbd 6ec6 9cbe
000003c0: 5121 9dbd 43c2 edbd 3185 3c3e 367f 823e
000003d0: a878 bebd 374d 0b3e b06f c7bd ea33 403e
000003e0: 4827 76bd 90bb bbbd c1de aebd 85e6 d53e
000003f0: 730f c1bd 1012 abbe 6d76 7fbc d898 cfbc

bias f4 [64]
-0.018266466 -0.0070279506 -0.0014840637 -0.020499598 -0.00013279663 4.048132e-06 5.899981e-05 -0.008795292
-0.00010691896 -0.015795138 -0.0068556326 -0.012183907 -0.014366828 -0.014876048 -0.0034329519 -0.00034022928
-9.998378e-06 -0.0007444862 -0.012566994 -0.004055977 -0.011278403 -0.0024632744 -0.005068449 -0.011737548
0.0 -0.0005824076 -0.007225526 -0.013473101 -0.0031830298 -0.0073893657 -0.0148156835 -0.009836919
-0.0013846064 -0.007990532 -0.0036670628 -0.0073821484 -0.006957356 -2.9744762e-05 -0.0045700218 -0.023854526
-0.0028088298 -0.0060865935 -0.00046290964 -0.016158374 6.404654e-05 -0.011293557 -0.0005891821 -0.00037441088
-0.005142321 -1.569283e-05 -0.011203409 0.0006459559 -0.011349651 -0.00012474146 -0.0059596994 5.222567e-05
-0.014199141 -0.020001303 -2.9387698e-05 -0.0008736875 -0.013426458 -0.01541784 -0.0035590518 -0.014760273
00000000: 8ea3 95bc b94a e6bb ea84 c2ba c6ee a7bc
00000010: 533f 0bb9 30d5 8736 9076 7738 211a 10bc
00000020: ae39 e0b8 ce64 81bc 37a5 e0bb 039f 47bc
00000030: d862 6bbc abba 73bc 60fb 60bb cd60 b2b9
00000040: b5be 27b7 a029 43ba cbe5 4dbc 00e8 84bb
00000050: 0dc9 38bc e36e 21bb 3b15 a6bb d84e 40bc
00000060: 0000 0000 b6ac 18ba 1bc4 ecbb 48be 5cbc
00000070: 619a 50bb 7e22 f2bb 7bbd 72bc 072b 21bc
00000080: ae7b b5ba b8ea 02bc 1b53 70bb f3e5 f1bb
00000090: 88fa e3bb 6484 f9b7 1fc0 95bb 916a c3bc
000000a0: 5814 38bb 0c72 c7bb aeb2 f2b9 915e 84bc
000000b0: b950 8638 9c08 39bc 5773 1aba 944c c4b9
000000c0: ea80 a8bb 19a4 83b7 818e 37bc 5e55 293a
000000d0: e3f3 39bc 08cd 02b9 9549 c3bb e30c 5b38
000000e0: 84a3 68bc c6d9 a3bc 9a85 f6b7 2d08 65ba
000000f0: a6fa 5bbc 1c9b 7cbc fb3e 69bb 12d5 71bc

weight f4 [64, 134]
0.022356179 -0.025569584 0.117623016 0.0013808633 0.20701315 0.08511798 0.19403155 0.015202302
-0.17547292 -0.016318467 -0.10669713 -0.18825123 -0.2664571 -0.08022535 0.02986255 -0.15627794
-0.22554144 -0.121208556 -0.102071375 -0.14296487 -0.0329303 0.12897106 0.0002609797 0.19256103
-0.048958488 -0.04075877 -0.22339126 -0.08919428 -0.020623615 0.19694057 -0.0046594827 0.024335224
0.09966586 0.04606693 0.19744636 -0.021904733 0.055545088 -0.11052543 -0.22374351 0.11596146
0.015304122 -0.012268562 -0.29475203 0.017277932 -0.049850818 0.14895281 -0.16404927 0.034355003
0.19050726 0.23887733 -0.106799684 -0.19243604 0.0012176717 -0.094858244 0.004703727 -0.11245146
-0.08777648 -0.005398625 0.14429563 0.072754934 -0.16867211 -0.09098346 -0.027986247 -0.049878586
0.058217563 -0.10901132 0.036514707 -0.2051599 -0.0718276 0.005848169 0.099647135 0.02583382
0.13460301 0.041273367 -0.13571161 0.11379533 0.020846128 -0.054596823 0.0044290884 -0.25013104
0.17357582 0.03360112 0.039547034 -0.099888906 0.027806422 0.17161468 -0.1344061 0.07729799
-0.13619126 -0.092863016 -0.041489493 0.00936275 0.15506585 -0.054305553 -0.0063169603 -0.117778026
-0.06806649 -0.11634415 -0.01837638 -0.07638123 -0.13600239 0.0061819507 0.08968117 0.020046946
0.26888388 0.04720253 0.0942026 0.023199193 0.09110821 -0.027596852 -0.10395044 0.070820965
0.04707003 -0.13148823 0.040595893 0.02075606 0.011728848 -0.15976302 -0.022351826 0.08102555
-0.21978383 -0.055171948 0.0018423704 0.05458758 -0.15561402 -0.25617078 0.0077426233 0.025076473
-0.011965684 -0.107233085 0.047295738 0.12639181 -0.0055203005 0.22563817 -0.014030235 -0.008369614
-0.11243897 -0.0060645957 0.16374329 0.14994112 0.05823107 -0.09645187 0.077643216 0.099427134
-0.109502345 -0.027762122 -0.03696117 0.06763007 0.031097254 0.05209863 0.10885504 -0.11808084
0.021616837 -0.0038151124 0.10312256 0.02117594 0.19973339 0.08501224 0.07006384 -0.004948391
-0.18397766 -0.12198561 -0.34271467 0.120379984 0.004527395 -0.11142148 0.06698625 0.028686725
-0.15625876 -0.15438269 -0.12532131 0.01970825 -0.07948968 -0.00060566486 -0.107157454 0.08128706
0.03502288 0.19019277 0.1959517 0.123399526 0.028810898 0.029940918 -0.076588966 0.04171488
-0.032623358 0.10866589 -0.043788265 -0.101121694 0.011408704 0.019354852 -0.19388157 0.034971192
-0.21553124 -0.22415233 0.019533196 -0.19291241 0.096860506 -0.13777289 0.096159674 0.23884228
-0.093660034 0.03219109 -0.112182096 -0.044337332 0.13286752 -0.115640864 -0.1906583 0.15049383
0.08921503 -0.1196737 0.0388672 -0.27208596 0.032766573 -0.046310473 0.0025953774 0.11986026
0.12024091 -0.058518816 0.08906239 0.0011025277 -0.0040566255 0.11262412 0.0056750006 -0.078319855
0.03894465 -0.13183795 0.1401289 0.14752696 0.14731313 -0.05096802 -0.08734876 0.16038625
0.12242117 -0.29446065 -0.12638398 0.03331265 -0.22182499 0.08848275 0.107844815 0.007564148
-0.0113193495 0.0077371285 -0.13500436 0.012912058 0.10594946 0.015929954 -0.08739724 -0.009889513
-0.20518926 -0.17638706 0.08087952 -0.044771064 -0.14199224 -0.42283732 0.06201072 -0.11799437
00000000: 4e24 b73c 4e77 d1bc 56e4 f03d 15fe b43a
00000010: 41fb 533e 5652 ae3d 35b0 463e 1313 793c
00000020: 2caf 33be 4eae 85bc 0684 dabd eec4 40be
00000030: 116d 88be 304d a4bd 4ea2 f43c 5307 20be
00000040: 56f4 66be 313c f8bd cc0a d1bd 6265 12be
00000050: ece1 06bd fd10 043e 1ad4 8839 b82e 453e
00000060: b288 48bd abf2 26bd aec0 64be 7eab b6bd
00000070: dbf2 a8bc caaa 493e 93ae 98bb aa5a c73c
00000080: 9d1d cc3d adb0 3c3d 612f 4a3e 8e71 b3bc
00000090: 3f83 633d 285b e2bd 051d 65be 347d ed3d
000000a0: 24be 7a3c 1402 49bc bde9 96be 738a 8d3c
000000b0: 5f30 4cbd 1687 183e 88fc 27be d5b7 0c3d
000000c0: 5614 433e 429c 743e cbb9 dabd f40d 45be
000000d0: 489a 9f3a 0a45 c2bd b921 9a3b f34c e6bd
000000e0: 28c4 b3bd f3e6 b0bb 3cc2 133e 8a00 953d
000000f0: 62b8 2cbe 8955 babd 6a43 e5bc 7d4d 4cbd
00000100: 8a75 6e3d 5441 dfbd 7290 153d 7015 52be
00000110: 591a 93bd ffa1 bf3b cc13 cc3d 73a1 d33c
00000120: 5fd5 093e 430e 293d fcf7 0abe 870d e93d
00000130: 80c5 aa3c eba0 5fbd e321 913b 2d11 80be
00000140: dcbd 313e 54a1 093d 12fc 213d 8e92 ccbd
00000150: 4bca e33c c2bb 2f3e c1a1 09be 694e 9e3d
00000160: b975 0bbe f72e bebd e3f0 29bd 3866 193c
00000170: 95c9 1e3e 806f 5ebd 81fe cebb 9b35 f1bd
00000180: 7266 8bbd d745 eebd 108a 96bc c36d 9cbd
00000190: 3644 0bbe f691 ca3b c3aa b73d 7e39 a43c
000001a0: 26ab 893e 7157 413d 4bed c03d 3c0c be3c
000001b0: f196 ba3d cb12 e2bc f8e3 d4bd 950a 913d
000001c0: 81cc 403d daa4 06be e147 263d 9d08 aa3c
000001d0: 5b2a 403c eb98 23be 2d1b b7bc b9f0 a53d
000001e0: 030f 61be fbfb 61bd b17b f13a 3a97 5f3d
000001f0: 4859 1fbe d128 83be d5b5 fd3b 2d6d cd3c
00000200: b70b 44bc 059d dbbd 2db9 413d db6c 013e
00000210: a3e3 b4bb b10d 673e 12df 65bc b520 09bc
00000220: 6746 e6bd 84b9 c6bb 52ac 273e 2a8a 193e
00000230: b483 6e3d 8f88 c5bd 6803 9f3d 74a0 cb3d
00000240: c442 e0bd 646d e3bc 9964 17bd a281 8a3d
00000250: abbf fe3c 6065 553d 64ef de3d 5ed4 f1bd
00000260: cb15 b13c f706 7abb ec31 d33d 2a79 ad3c
00000270: e986 4c3e e61a ae3d a17d 8f3d 1d26 a2bb
00000280: a464 3cbe 97d3 f9bd 4c78 afbe c889 f63d
00000290: 8b5a 943b f230 e4bd 1630 893d 6c00 eb3c
000002a0: 4c02 20be 7f16 1ebe 3b54 00be 3273 a13c
000002b0: 7ccb a2bd 7bc5 1eba 5e75 dbbd d579 a63d
000002c0: 2774 0f3d e5c1 423e 90a7 483e e4b8 fc3d
000002d0: d504 ec3c a846 f53c adda 9cbd 39dd 2a3d
000002e0: 12a0 05bd 398c de3d 535b 33bd e418 cfbd
000002f0: 93eb 3a3c 118e 9e3c e488 46be f43d 0f3d
00000300: 39b4 5cbe 3088 65be 1504 a03c d58a 45be
00000310: cd5e c63d 5614 0dbe 5def c43d 1293 743e
00000320: d5d0 bfbd ceda 033d babf e5bd 109b 35bd
00000330: 6c0e 083e 1ed5 ecbd ee3b 43be 0e1b 1a3e
00000340: 5fb6 b63d 7c17 f5bd 3733 1f3d da4e 8bbe
00000350: 3e36 063d 0db0 3dbd 3517 2a3b 4c79 f53d
00000360: de40 f63d 6db1 6fbd 5866 b63d b182 903a
00000370: 71ed 84bb 7aa7 e63d 5bf5 b93b 2966 a0bd
00000380: 6d84 1f3d 8700 07be f37d 0f3e 4f11 173e
00000390: 41d9 163e d8c3 50bd e8e3 b2bd 4b3c 243e
000003a0: f3b7 fa3d 8cc3 96be cd6a 01be d872 083d
000003b0: 1726 63be 7236 b53d bedd dc3d acdc f73b
000003c0: cb74 39bc bd87 fd3b 953e 0abe 198d 533c
000003d0: 08fc d83d 897f 823c 53fd b2bd a007 22bc
000003e0: 221d 52be cf9e 34be 29a4 a53d dd61 37bd
000003f0: 6a66 11be 227e d8be f4fe 7d3d 08a7 f1bd

bias f4 [64]
-0.024259752 -0.0120747425 -0.015775159 0.0074526276 0.011008339 0.003889358 -0.016697647 -0.009314548
0.022314087 -0.02494757 0.0 -0.011647216 -0.00991589 0.025214994 -0.05391399 -0.0015128285
-0.0044306275 0.012084264 -0.0066659856 -0.018946344 -0.0053046616 0.020496128 0.0043917308 0.015218643
0.0014058852 -0.015223075 -0.07037319 0.0072666677 -0.022222236 -0.0076509947 -0.01984722 -0.009639938
-0.054926526 -0.011927947 -0.01280609 0.024603086 0.030242834 -0.011699153 -0.012885069 -0.012257755
-0.042546693 -0.0015701838 -0.008630411 -0.020088509 -0.0014059378 -0.042484496 -0.0051561776 -0.012963469
0.012813969 -0.019061353 -0.01043945 -0.022481509 -0.018492525 -0.022877013 -0.0052515366 -0.015184214
0.0017869874 0.013878518 -0.010767993 0.0023329745 -0.0067332936 0.009749618 -0.031256054 -0.0009792709
00000000: 63bc c6bc 24d5 45bc e83a 81bc 2c35 f43b
00000010: 525c 343c 99e4 7e3b 81c9 88bc 0c9c 18bc
00000020: 08cc b63c d95e ccbc 0000 0000 f7d3 3ebc
00000030: 4276 22bc ad8f ce3c ead4 5cbd 1a4a c6ba
00000040: cc2e 91bb 14fd 453c 576e dabb 5d35 9bbc
00000050: bad2 adbb 7fe7 a73c 82e8 8f3b 9d57 793c
00000060: ae45 b83a 346a 79bc d21f 90bd 3a1d ee3b
00000070: 680b b6bc 32b5 fabb a396 a2bc d5f0 1dbc
00000080: a3fa 60bd 706d 43bc a2d0 51bc 698c c93c
00000090: d2bf f73c cead 3fbc e51b 53bc c0d4 48bc
000000a0: 7145 2ebd a0ce cdba 9166 0dbc a890 a4bc
000000b0: 7247 b8ba 3904 2ebd 27f5 a8bb bb64 54bc
000000c0: aef1 513c 8e26 9cbc 3a0a 2bbc 242b b8bc
000000d0: a37d 97bc 9368 bbbc 1515 acbb 36c7 78bc
000000e0: 5939 ea3a b962 633c 3c6c 30bc d1e4 183b
000000f0: f6a2 dcbb ddbc 1f3c 5906 00bd e15a 80ba

weight f4 [64, 64]
-0.02257363 0.5036569 -0.32079184 -0.0024832047 -0.0071088285 -0.022450322 0.0053113704 -0.35996374
0.19873744 -0.1633474 -0.112079866 -0.24394016 -0.13433823 0.0332075 -0.21522589 -0.035371397
-0.09680565 -0.06288263 0.27989852 0.035113573 -0.0065286895 0.076225415 0.20784524 -0.36449167
-0.1483431 -0.10713473 0.025900232 -0.2795879 -0.057559457 -0.009571299 0.11776851 -0.37858382
-0.13197745 -0.017352367 0.24182916 -0.044602465 -0.21021105 0.013081137 0.15111065 0.011476507
-0.16433147 -0.055279437 0.041266788 -0.34770197 -0.21150252 -0.18016037 -0.025977883 -0.114951506
0.17058927 0.0015585213 -0.19382824 0.065596096 -0.17063157 0.12837057 -0.16139472 -0.19551483
-0.18738092 0.09922517 0.0714003 -0.25011808 0.05142126 -0.103274 0.24200265 -0.06483746
-0.1237436 0.10411133 0.21721219 0.19255379 0.018410873 0.03357211 -0.032661553 -0.0923666
0.0033858896 -0.0045996304 0.203373 0.07657934 -0.02131588 -0.11589247 -0.107764125 -0.010437961
-0.13534409 0.22206484 -0.32363084 -0.07551188 0.20698027 0.4472349 -0.011341832 -0.2104052
-0.31265056 0.03979037 -0.12709732 -0.16477771 -0.31044018 -0.14671126 -0.008552391 -0.024066808
-0.022717284 -0.22457238 -0.084725186 0.16160521 0.20039144 -0.18369713 -0.3249415 -0.13539244
0.004570131 -0.027349414 0.07697844 0.2572534 0.11349228 0.078700386 0.13852344 0.065646
0.092416495 0.3193466 0.31131363 0.085158356 -0.5375624 0.020839276 0.23442288 -0.01124527
-0.005117613 -0.061006512 -0.08127186 -0.18642268 -0.08505843 0.11185837 0.14285585 -0.06021103
0.2028894 0.16266285 -0.3149035 -0.014400877 -0.022952834 0.2722643 0.122019716 -0.08491013
0.20004706 -0.10048642 -0.17735378 -0.05033342 -0.105367675 -0.2921326 -0.22995232 0.26882222
0.027715946 -0.012799427 -0.042874157 -0.09501543 0.037979603 0.030698836 -0.45407033 0.2036414
0.0053525777 -0.029618084 -0.29039624 -0.09646706 0.0029530977 0.11669884 0.041966405 0.05868263
0.21691851 -0.09266266 0.06393547 0.28963336 0.1488736 -0.12530002 0.33632496 -0.0392208
0.09299505 0.21453145 -0.07405902 0.18428746 -0.045505293 -0.30181205 -0.119580604 0.29483014
-0.15227239 0.15580182 0.10553666 0.062332593 -0.050611302 0.21595187 0.07484621 0.1185411
-0.12755996 -0.07356481 -0.12862585 0.16497791 0.14850236 -0.09687176 -0.08129722 0.0663986
0.055637173 -0.01877154 0.009434403 0.28144282 -0.020526987 0.03952468 -0.13764696 0.044577174
-0.035228096 -0.07107074 0.14406097 -0.28208008 0.011264888 0.018456703 -0.1708776 -0.05181881
-0.031998534 -0.016440691 -0.025489673 -0.51362705 -0.36198428 -0.09942891 -0.07454246 -0.17127277
-0.28640285 0.0103031155 0.05299498 -0.20909911 -0.26783687 -0.1900628 0.029456055 0.36230215
0.16686755 0.050747562 0.13049494 -0.36006758 0.33988982 0.07376371 0.20609836 -0.019153284
0.0048098685 -0.10967565 -0.019573936 -0.064454444 -0.15971316 -0.13053629 0.10502234 0.10451601
0.016885918 -0.31079623 0.1174498 -0.2101787 0.09179916 -0.2534979 -0.11288644 -0.24840368
0.14388214 0.17817052 -0.18873198 -0.07587502 0.21894386 0.22900662 -0.15412901 0.09683704
00000000: 55ec b8bc a9ef 003f d43e a4be 43bd 22bb
00000010: 2df1 e8bb bde9 b7bc 010b ae3b 2b4d b8be
00000020: d481 4b3e 8a44 27be 218a e5bd 73cb 79be
00000030: f68f 09be 9604 083d 2d64 5cbe 99e1 10bd
00000040: 0a42 c6bd 9cc8 80bd dc4e 8f3e 40d3 0f3d
00000050: 9eee d5bb 121c 9c3d 62d5 543e a79e babe
00000060: 41e7 17be 7469 dbbd b92c d43c 2526 8fbe
00000070: 77c3 6bbd f0d0 1cbc 9e30 f13d bdd5 c1be
00000080: 1925 07be 8d26 8ebc 10a2 773e 13b1 36bd
00000090: 9141 57be 4452 563c c0bc 1a3e f607 3c3c
000000a0: 8246 28be b16c 62bd 5d07 293d fe05 b2be
000000b0: 1e94 58be f67b 38be 92cf d4bc b26b ebbd
000000c0: f4ae 2e3e 4c47 cc3a e97a 46be 3f57 863d
000000d0: 0bba 2ebe 9373 033e a844 25be 0a35 48be
000000e0: c9e0 3fbe 9136 cb3d 523a 923d 7a0f 80be
000000f0: 199f 523d 5281 d3bd 8bcf 773e 81c9 84bd
00000100: 496d fdbd 5238 d53d df6c 5e3e d22c 453e
00000110: 66d2 963c e982 093d 1fc8 05bd b32a bdbd
00000120: cde5 5d3b 7fb8 96bb 0341 503e a1d5 9c3d
00000130: a49e aebc 0859 edbd 70b3 dcbd fb03 2bbc
00000140: a497 0abe f764 633e f1b2 a5be f9a5 9abd
00000150: a3f2 533e f9fb e43e 17d3 39bc 7674 57be
00000160: bc13 a0be 3afb 223d cd25 02be 7dbb 28be
00000170: 04f2 9ebe 7a3b 16be 541f 0cbc c127 c5bc
00000180: 9919 babc 4df6 65be 6684 adbd d67b 253e
00000190: 6a33 4d3e 1a1b 3cbe bb5e a6be 51a4 0abe
000001a0: 0ac1 953b e10b e0bc dfa6 9d3d b8b6 833e
000001b0: a46e e83d ab2d a13d 17d9 0d3e 6971 863d
000001c0: dc44 bd3d 6681 a33e 8064 9f3e 8167 ae3d
000001d0: b09d 09bf 21b7 aa3c 8d0c 703e 153e 38bc
000001e0: a6b1 a7bb f7e1 79bd dc71 a6bd 96e5 3ebe
000001f0: 1d33 aebd 0016 e53d ce48 123e d79f 76bd
00000200: 3dc2 4f3e 1791 263e 083b a1be a8f1 6bbc
00000210: 9507 bcbc 3a66 8b3e 79e5 f93d 5de5 adbd
00000220: 23d9 4c3e d3cb cdbd 3b9c 35be 6b2a 4ebd
00000230: 02cb d7bd 6792 95be 9f78 6bbe 11a3 893e
00000240: 8d0c e33c b0b4 51bc d09c 2fbd 7397 c2bd
00000250: 8090 1b3d 207c fb3c e87b e8be 5f87 503e
00000260: ad64 af3b a0a1 f2bc d1ae 94be 8690 c5bd
00000270: c288 413b cdff ee3d f7e4 2b3d 335d 703d
00000280: e31f 5e3e ecc5 bdbd 9af0 823d d34a 943e
00000290: 5272 183e a64e 00be c932 ac3e fda5 20bd
000002a0: 3074 be3d 22ae 5b3e 41ac 97bd dab5 3c3e
000002b0: c263 3abd 1c87 9abe ade6 f4bd faf3 963e
000002c0: 4bed 1bbe 838a 1f3e 9b23 d83d 7650 7f3d
000002d0: cc4d 4fbd 7d22 5d3e f848 993d adc5 f23d
000002e0: 149f 02be 26a9 96bd 7fb6 03be f8ef 283e
000002f0: 0111 183e b464 c6bd 287f a6bd fdfb 873d
00000300: cee3 633d c6c6 99bc c192 1a3c 4619 903e
00000310: 3628 a8bc a1e4 213d 53f3 0cbe 8e96 363d
00000320: 564b 10bd 898d 91bd b884 133e cd6c 90be
00000330: 5d90 383c 8332 973c 8afa 2ebe f63f 54bd
00000340: e510 03bd a1ae 86bc b8cf d0bc 107d 03bf
00000350: 0156 b9be 62a1 cbbd b8a9 98bd 2162 2fbe
00000360: 65a3 92be 66ce 283c 4411 593d 141e 56be
00000370: ea21 89be d39f 42be d34d f13c ab7f b93e
00000380: 54df 2a3e addc 4f3d 77a0 053e c75a b8be
00000390: 0a06 ae3e 6e11 973d 730b 533e 59e7 9cbc
000003a0: 1a9c 9d3b a19d e0bd 8559 a0bc b100 84bd
000003b0: d98b 23be 4eab 05be f415 d73d 7d0c d63d
000003c0: 5654 8a3c af20 9fbe 8589 f03d 1639 57be
000003d0: 3301 bc3d 7aca 81be 0131 e7bd 895d 7ebe
000003e0: d755 133e 5572 363e f542 41be 5d64 9bbd
000003f0: d232 603e b680 6a3e ffd3 1dbe 7f52 c63d

bias f4 [64]
-0.022719072 0.01840688 0.009413119 -0.012950943 -0.030244056 -0.026215022 -0.005909688 -0.0043475134
0.003977241 -0.020851374 0.020338222 0.028156603 -0.0408353 -0.012423957 -0.030944567 -0.017041136
-0.00854247 -0.020073334 -0.057763338 -0.0049640625 -0.006578644 -0.023207244 0.01033472 -0.0028310716
0.015834523 -0.02009355 -0.0016752069 -0.009943176 -0.0024645515 0.007865825 -0.043758333 0.03195049
-0.009647099 -0.02727132 -0.013198144 -0.00061899115 -0.021354614 0.01952051 0.006561403 -0.0061129224
-0.0026661186 -0.08297408 0.012149972 0.02343364 0.034288406 -0.0068375343 0.018721465 -0.0520767
0.034931183 0.0048957537 0.023211941 0.0041997116 -0.02030356 -0.014296938 -0.017314736 -0.059018098
0.030622814 0.0049604243 -0.019676477 -0.04738121 0.011568118 -0.049180847 0.025092982 -0.026398323
00000000: 591d babc 06ca 963c 7c39 1a3c 3130 54bc
00000010: 62c2 f7bc e3c0 d6bc 0ea6 c1bb 9675 8ebb
00000020: 8453 823b 80d0 aabc 589c a63c ada8 e63c
00000030: ea42 27bd da8d 4bbc 767f fdbc da99 8bbc
00000040: b7f5 0bbc d570 a4bc 4099 6cbd 93a9 a2bb
00000050: aa91 d7bb 1e1d bebc f552 293c 8089 39bb
00000060: 67b7 813c 3b9b a4bc 9e92 dbba b4e8 22bc
00000070: 5084 21bb a9df 003c f03b 33bd 84de 023d
00000080: de0e 1ebc 1a68 dfbc 073d 58bc cb43 22ba
00000090: dfef aebc 7ae9 9f3c 0a01 d73b e94e c8bb
000000a0: 0cba 2ebb 51ee a9bd ad10 473c e8f7 bf3c
000000b0: 0072 0c3d 650d e0bb c25d 993c 614e 55bd
000000c0: 0014 0f3d 8f6c a03b f826 be3c bc9d 893b
000000d0: a753 a6bc b43d 6abc a2d7 8dbc f6bc 71bd
000000e0: b2dc fa3c 0e8b a23b 9030 a1bc cd12 42bd
000000f0: 3488 3d3c db71 49bd cc8f cd3c 4c41 d8bc

weight f4 [1, 64]
-0.0046323133 -0.07738654 0.1483102 0.3985226 -0.075872384 0.350883 0.25478333 0.057050195
0.0011784895 0.00031213288 0.010917692 -0.23560789 0.057199728 0.0012929128 0.002907196 0.15128495
0.097858384 0.0840257 0.01085971 -0.0022712166 -0.0037026731 0.21992472 0.08381694 -0.04971574
-0.016322203 0.06875339 0.00821359 -0.0050538047 0.07517617 -0.18519147 0.20177582 -0.09597607
0.0009266162 0.13419747 -0.00060374715 -0.00092498696 0.00025239747 -0.115173236 0.10827234 0.0042077294
0.004499989 -0.15489025 -0.011669387 0.007512518 0.08625041 -0.0069186897 -0.123868585 -0.21499008
0.027689671 0.060509488 0.10881692 0.012781785 -0.005271638 0.0013909843 0.00024452902 -0.28441057
-0.06479299 -0.17558676 -0.0054696854 0.2519594 0.19157428 0.1505546 0.13030483 0.19363211
00000000: a9ca 97bb d67c 9ebd a1de 173e 270b cc3e
00000010: fb62 9bbd f0a6 b33e f672 823e 77ad 693d
00000020: 8c77 9a3a c4a5 a339 1fe0 323c 3243 71be
00000030: 434a 6a3d f476 a93a a886 3e3b 71ea 1a3e
00000040: fa69 c83d ab15 ac3d edec 313c b1d8 14bb
00000050: 8ca8 72bb f233 613e 37a8 ab3d bba2 4bbd
00000060: 24b6 85bc 94ce 8c3d 4b92 063c 639a a5bb
00000070: f7f5 993d d5a2 3dbe 529e 4e3e 1a8f c4bd
00000080: 29e8 723a 106b 093e c944 1eba d37a 72ba
00000090: 3754 8439 f2df ebbd e3bd dd3d fee0 893b
000000a0: a574 933b 8d9b 1ebe f530 3fbc 922b f63b
000000b0: 0ea4 b03d 2db6 e2bb d0ae fdbd 5c26 5cbe
000000c0: 73d5 e23c ccd8 773d 68db de3d b16a 513c
000000d0: b4bd acbb b051 b63a 2134 8039 439e 91be
000000e0: 30b2 84bd 04cd 33be 0c3b b3bb d300 813e
000000f0: 0c2c 443e fc2a 1a3e a16e 053e 7f47 463e

weight f4 [5, 64]
0.0076081865 -0.007542899 -0.016113123 -0.013597516 0.0012015089 -0.0026661912 -0.0041722353 0.0055226614
0.0065181665 0.00018486167 0.007815064 0.00048613112 -0.0030595143 -0.010076466 0.0009669849 0.0035131522
-3.7169182e-05 -0.0036331082 0.002795446 -0.0073323087 0.003800186 0.0030255546 -0.0053715864 -0.00051282067
-0.00047911203 0.0029068931 -0.008868791 0.010462452 -0.0061714193 0.0043184524 -0.0013061608 -0.0030876303
0.00780718 0.0038288112 0.0027238005 -0.0068181776 0.0033708797 -0.00077112316 0.0114246365 0.0054187533
-0.005002578 -0.0016713253 -0.0028001084 0.011429439 -0.0071171178 0.0026131002 -0.0016894515 0.0050769397
-0.019113852 -0.0035653387 0.01046568 -0.0066800946 0.0038337517 -0.0013496649 0.0017411023 -0.00572035
0.0044765715 0.0060120774 0.00083270547 0.0086976895 -0.0014627631 -0.0022975623 -0.0105204135 0.011057798
0.0047178133 0.002791737 -0.008334524 0.012671085 0.0012586666 8.8390545e-05 -0.0039033012 0.0012237498
0.00489944 0.004033815 0.0017312045 -0.0038827306 0.013436624 -0.0009579918 0.0007754178 0.002215169
0.0001234416 -0.0071790633 0.0025774483 0.010653296 0.008080181 0.0039122 -0.0015656522 0.015933132
-0.00019606657 0.0047370456 0.0053408067 -0.0016164384 -0.008440536 0.012682965 0.01209751 0.0027491683
0.0008225256 -0.0030631318 -0.015174892 0.00289467 0.00528864 -0.0032959247 -0.0010818861 0.001373695
0.009710327 0.005455907 0.0020484906 0.0051699183 0.01321091 -0.0026243886 0.015109718 -0.0027687263
0.006877759 0.0030590245 0.002403735 -0.004083935 0.0026272307 0.0017503388 0.0007280435 0.004532059
0.0014641781 0.009039286 -0.0009832903 -0.0011972091 0.006750386 -0.00371121 -0.0054869037 -7.8732504e-05
-0.0023405296 0.011452137 0.007066717 0.0057203597 0.0017444233 -0.0011115646 0.0022972815 -0.0022232425
0.0025512874 0.0070623145 0.014278715 0.008515847 0.005664918 0.014961238 0.011095206 0.001697005
0.0026702057 0.0111122355 0.005666998 0.0027985661 -0.00057634973 0.0035588967 -0.00077254657 -0.0018871768
0.00029937335 -0.00047062695 0.008023821 0.00085760554 0.01629835 -0.010835937 -0.007335452 -0.0033403873
0.0009191105 0.02860504 0.011498407 0.0029829787 0.0044534844 0.0011023384 0.006171946 0.009584705
0.0054598795 -0.0006640418 -0.01043792 -0.0011418733 -0.016739376 -0.0023380113 -0.0067641125 0.011567247
-0.007285242 0.003971919 -0.0009039728 0.0076384903 0.0018691709 -0.0013408953 0.006368962 0.010079428
0.0008095289 -0.0052484833 0.0009110371 -0.0042566843 0.008191122 0.013078928 0.011591157 0.0035130586
0.005578459 -0.0045397906 0.0034977254 -0.0011722577 -0.007986118 -0.00037316323 0.0044015404 -0.0040444103
-0.0033725204 0.0003356395 0.002703934 0.0075798207 -0.0018910965 0.0076751877 -0.008348721 0.008338236
-0.001599815 -0.001542725 -0.008376816 -0.0033992971 -0.0011511069 0.0008017794 0.011058459 0.0047904397
-0.0022911332 -0.0018349715 0.012573541 0.005309982 -0.0046151397 0.0028545505 0.008409656 0.0009796653
-0.003274033 -0.007183242 -0.0032373965 0.015655482 0.0029262432 -0.0002672304 -0.0012414795 0.0034664122
-0.018680729 0.0017218933 0.0036477335 0.008853164 0.003583227 0.013274398 0.0011825651 -0.0061466354
0.012771796 0.0005601072 0.0143154785 0.0028349678 -0.0010781878 -0.005815666 -0.0075343475 -0.015280947
0.009120244 0.0028993776 -0.0019437253 -0.006700979 -0.0002181879 0.001207176 -0.0031423694 0.005574547
00000000: 184e f93b 6c2a f7bb abff 83bc 1ec8 5ebc
00000010: f37b 9d3a 44bb 2ebb 3fb7 88bb 71f7 b43b
00000020: 5896 d53b 6dd7 4139 c10a 003c 6adf fe39
00000030: 2282 48bb c317 25bc 427d 7d3a ea3c 663b
00000040: 1be6 1bb8 7119 6ebb cd33 373b dd43 f0bb
00000050: 8b0c 793b 6248 463b 2204 b0bb d06e 06ba
00000060: 5431 fbb9 9381 3e3b 684e 11bc b46a 2b3c
00000070: 9e39 cabb ce81 8d3b 7c33 abba d759 4abb
00000080: 5fd3 ff3b cbec 7a3b ca81 323b 056b dfbb
00000090: fae9 5c3b 3325 4aba 662e 3b3c cc8f b13b
000000a0: aaec a3bb 5f10 dbba 0682 37bb 8b42 3b3c
000000b0: b636 e9bb 8c40 2b3b 9670 ddba 755c a63b
000000c0: a794 9cbc 75a8 69bb 3e78 2b3c b2e4 dabb
000000d0: ae3f 7b3b 3de7 b0ba b335 e43a c671 bbbb
000000e0: 34b0 923b f600 c53b eb49 5a3a c180 0e3c
000000f0: 2fba bfba b392 16bb d05d 2cbc c42b 353c
00000100: e397 9a3b 93f5 363b 878d 08bc 629a 4f3c
00000110: d8f9 a43a 505e b938 87ce 7fbb 3b66 a03a
00000120: 7b8b a03b 182e 843b 95e9 e23a 6975 7ebb
00000130: 4925 5c3c be21 7bba 6845 4b3a 5e2c 113b
00000140: 1a70 0139 593e ebbb 68ea 283b 298b 2e3c
00000150: bc62 043c ea31 803b 9236 cdba 3386 823c
00000160: 3897 4db9 3839 9b3b ef01 af3b acde d3ba
00000170: 2d4a 0abc 36cc 4f3c a234 463c 642b 343b
00000180: c29e 573a d3be 48bb 1ca0 78bc 81b4 3d3b
00000190: 544c ad3b 7100 58bb 13ce 8dba 8e0d b43a
000001a0: 1018 1f3c 77c7 b23b f83f 063b 6b68 a93b
000001b0: 9372 583c effd 2bbb c08e 773c 8573 35bb
000001c0: d35e e13b ea79 483b fb87 1d3b 88d2 85bb
000001d0: 9e2d 2c3b a06b e53a 2cda 3e3a ab81 943b
000001e0: aae9 bf3a 8319 143c bfe1 80ba aceb 9cba
000001f0: 5832 dd3b c637 73bb 7ccb b3bb 311d a5b8
00000200: 9263 19bb bea1 3b3c eb8f e73b db71 bb3b
00000210: 22a5 e43a ebb1 91ba fd8d 163b d2b3 11bb
00000220: 8033 273b fd6a e73b 45f1 693c 0d86 0b3c
00000230: c7a0 b93b fb1f 753c abc8 353c 0a6e de3a
00000240: 9efe 2e3b 1810 363c 3ab2 b93b 2668 373b
00000250: 2d16 17ba 613c 693b b984 4aba 255b f7ba
00000260: 36f5 9c39 7bbe f6b9 5876 033c efd0 603a
00000270: 1e84 853c 3789 31bc 3b5e f0bb 66ea 5abb
00000280: 76f0 703a 1e55 ea3c d163 3c3c 147e 433b
00000290: 89ee 913b 577c 903a 093e ca3b 2b09 1d3c
000002a0: cae8 b23b 1713 2eba cf03 2bbc e9aa 95ba
000002b0: 0421 89bc 5239 19bb 7da5 ddbb 8d84 3d3c
000002c0: 0ab9 eebb df26 823b 96f8 6cba 4d4c fa3b
000002d0: f8fe f43a fbc0 afba bab2 d03b 2f24 253c
000002e0: 9136 543a 78fb abbb aad2 6e3a a87b 8bbb
000002f0: 0e34 063c 0049 563c d6e8 3d3c 583b 663b
00000300: 81cb b63b 86c2 94bb 183a 653b 71a6 99ba
00000310: 35d8 02bc 1fa5 c3b9 cc3a 903b f986 84bb
00000320: 8105 5dbb c5f8 af39 7c34 313b 2560 f83b
00000330: abde f7ba 2480 fb3b 13c9 08bc 199d 083c
00000340: e2b0 d1ba 4335 caba ea3e 09bc bec6 5ebb
00000350: bde0 96ba 812e 523a 8a2e 353c 1ff9 9c3b
00000360: d626 16bb 6d83 f0ba 4101 4e3c 5cff ad3b
00000370: 993a 97bb 6913 3b3b a7c8 093c 1d68 803a
00000380: 2991 56bb 6761 ebbb 802a 54bb ed3f 803c
00000390: 37c6 3f3b 0f1b 8cb9 24b9 a2ba bf2c 633b
000003a0: 5408 99bc 27b1 e13a d00e 6f3b dc0c 113c
000003b0: 93d4 6a3b dc7c 593c 4d00 9b3a b769 c9bb
000003c0: cc40 513c 28d4 123a 788b 6a3c deca 393b
000003d0: fb51 8dba 5891 bebb b0e2 f6bb f05c 7abc
000003e0: 136d 153c 7c03 3e3b 99c4 feba e393 dbbb
000003f0: 5ec9 64b9 1b3a 9e3a 36f0 4dbb b1aa b63b

bias f4 [5]
0.0022800548 0.0028266793 -0.000651593 0.010093353 0.0036525659
00000000: f96c 153b cf3f 393b abcf 2aba 975e 253c
00000010: e35f 6f3b
